trained_model/mc1_mc2/60_days_lookahead/pnet_checkpoint/pnet_online_750.pth (torch, 545278 bytes, 36 tensors)

network_smart.layer1.0.weight f4 [128, 330]
00000000: b208 363d db37 0c3e 420e a03e f83b 7b3d
00000010: 6a4b ce3f 5d1f 22be 5e5e d3bf fefa 813d
00000020: f8cb e1bd 363d c93f 9465 ffbc 0379 07bd
00000030: 8b76 943d 5c27 823e f5d9 873d 0614 d33f
00000040: 8a35 3dbe 0d3e dabf 19db b83c f64c 74be
00000050: 0680 cd3f 6f66 c2bd cc29 23bd 4fc0 f23d
00000060: aaf7 c83e df0e 3d3c ac25 c73f a4b0 1cbe
00000070: e653 d5bf 2c38 113d d43c 763e 59b8 cc3f
00000080: 8761 dfbb 08aa f23b d7d8 9e3d 35d9 b53e
00000090: f7e4 843c dd53 cb3f 641e eabd 89e6 dbbf
000000a0: dfda 7e3d dfb3 3cbe 0698 cd3f e062 e5bc
000000b0: 75b4 b63b 60f2 0a3e e03b a53e 1df8 9cbc
000000c0: 1033 c53f 7f92 88bd e089 d3bf cbc0 a9bc
000000d0: 2359 a73d 4b26 cb3f af3a 42bc 9711 433d
000000e0: 69fb ce3d a885 973e c2ea a7bc 1226 d33f
000000f0: bf45 a2bd 9cd8 d2bf 061e 73bc e1af a2bd
00000100: 9420 d33f 6233 31bd d0ae 36bd 7457 b73d
00000110: da4d ad3e 33c2 123d fbe0 c83f 6fc7 4fbd
00000120: a051 d2bf a65c 443d c824 de3d 5e76 cc3f
00000130: f313 8e3c 04fe 00bd 7a69 f33d b9e0 8c3e
00000140: 0c43 5a3d 17a1 cf3f 55ba bfbd 58d1 cebf
00000150: 6388 c33d fb70 ae3e 8bd9 cf3f a328 503d
00000160: 417f f63c 0e57 813d 1a53 4b3e e5a9 7e3d
00000170: 48bd c93f 9b96 85bd 6a49 d2bf 4abe 563d
00000180: eb9f debe 15fb d03f fa25 59bc 7d6c 713c
00000190: 92a0 2d3e 4558 213e 1cc1 31bc 0b09 cd3f
000001a0: 3d6d 34bd 5763 cdbf cb7f bfbb a880 b9bd
000001b0: 6d4a d33f a5d9 a33d 524e 3d3b 2f3f ae3d
000001c0: 4597 623e 06b0 383d db2c d03f 06c7 debd
000001d0: d76e d0bf 953f d23d b241 ab3d b4e6 ce3f
000001e0: 2b8b fa3c d860 9c3c a987 be3d 0269 483e
000001f0: c164 ac3c e522 cb3f e84d 8bbd 5a81 d4bf
00000200: 55aa a63d ac25 593e 8d7c d13f b17f 8e3d
00000210: 019c 8fbc 07a1 d93d 7f97 be3d a6c7 7c3d
00000220: 80ec d53f 0730 a6bd 5abe d4bf 2fa1 813d
00000230: c8ba 81bd 7aab da3f 1cc4 0b3e 8614 24bb
00000240: 986a 133e 9fe4 0e3e 2da4 f33c 2a2f d33f
00000250: e03c 0bbd 16ec d3bf ebc7 c43d ced7 9a3d
00000260: 3b25 da3f 5b37 9f3e 8d17 5c3d d46e 2c3e
00000270: d26c b33d 7961 113c c7ea d83f 30c0 ebbc
00000280: 6ea2 cebf 8875 b43d 7df6 5bbd d289 ce3f
00000290: 62b7 873e 39a6 f5bc 5b45 ac3d 22a2 ba3d
000002a0: d207 e8bc cc57 da3f 4b83 b5bd f534 d1bf
000002b0: a27c a93d 6a5e c33d e428 d93f a46e b53e
000002c0: 5ee6 aebc 6966 153e b96d b6b9 81cf a4bc
000002d0: 37e1 e03f d4e2 e7bd a375 d6bf 0c91 ef3d
000002e0: c7dc 21bc 6fe4 e23f daf3 c73e 0109 efbc
000002f0: 4586 313e 167e 3fbc 95d0 693b 76ae 0340
00000300: 951f 2abd 6011 d6bf 3e29 783d 3aa4 383e
00000310: 6ff7 0640 4425 173f 0a9b 793c 9ed0 183e
00000320: 31c3 6b3d a347 8dbc cf58 0440 d1f5 efbc
00000330: 3e25 d9bf a348 883d 7fa0 0cbd 2e94 0940
00000340: 810e 203f c490 233d ac1b 0a3e c42a 6d3d
00000350: a58f b33d 228c 0840 c63c 9bbd 1416 d9bf
00000360: 9d49 613d 065c 383e ed2f 0540 8d40 2b3f
00000370: e783 0cbd d732 f13d 8a94 113d cdfb 413d
00000380: 8b53 0240 2548 cdbd 117e d9bf 3ec0 973d
00000390: ede1 b53d 13f0 0640 11b7 763f 7495 203d
000003a0: d26b 003e 3bec b4bb ee2b a43d 5eff 0640
000003b0: 7a37 52bd c4e1 d9bf 2db8 fb3d 0a6b 8e3d
000003c0: ed0d 0840 9ac5 9a3f 7dbe dcbc e6ce 513e
000003d0: 87ee 7a3b 1450 863d 2c2c 0e40 c749 74bd
000003e0: 5148 d7bf 7636 c43d 7b30 1ebd 6ac0 0d40
000003f0: f489 a83f 3d31 963c 28a9 033e 246e 24bd
0.044441886 0.13693182 0.31260878 0.061336488 1.6116765 -0.15832277 -1.6513174 0.06346701
-0.11025232 1.5721805 -0.031176366 -0.03307439 0.07249173 0.25420654 0.06633369 1.6490486
-0.18477455 -1.7050186 0.022565411 -0.23857483 1.6054695 -0.09492194 -0.039834782 0.11853086
0.39251453 0.01153919 1.5558372 -0.15301758 -1.6666229 0.03545396 0.24046642 1.5993758
-0.006817046 0.007405523 0.07756203 0.35517278 0.01622246 1.5884968 -0.11431578 -1.7179729
0.06222045 -0.1842799 1.6062019 -0.028001249 0.0055757114 0.13569021 0.32272243 -0.019161278
1.5406208 -0.06668567 -1.6526451 -0.020721814 0.08171298 1.5871061 -0.011854812 0.047624197
0.101065464 0.2959416 -0.020497683 1.6495993 -0.07923459 -1.6472354 -0.014838701 -0.079437025
1.6494317 -0.043261893 -0.044600308 0.08952227 0.3384846 0.035829734 1.5693659 -0.050727304
-1.643116 0.04793992 0.10846859 1.5973623 0.017343497 -0.03149225 0.118853524 0.275152
0.053286597 1.6221036 -0.09361712 -1.6157637 0.09547498 0.34070572 1.6238264 0.050820004
0.030089976 0.063154325 0.1985592 0.062173743 1.5760889 -0.06522866 -1.6428654 0.052427568
-0.43481383 1.6326624 -0.013253683 0.014735338 0.16955784 0.15756328 -0.0108492635 1.6018385
-0.04404949 -1.6045941 -0.0058440915 -0.09057742 1.6507088 0.08000497 0.0028885794 0.08508145
0.22128017 0.045089744 1.6263689 -0.108778045 -1.6283826 0.102660336 0.0836214 1.6164155
0.030583939 0.019089147 0.09303219 0.19571307 0.021044137 1.5870024 -0.06801969 -1.6601975
0.08137957 0.21205777 1.6366135 0.06957949 -0.017530443 0.10626417 0.09306239 0.061713837
1.6712799 -0.08114629 -1.6620591 0.063295715 -0.06334454 1.708358 0.13649029 -0.0025036647
0.14396131 0.139544 0.029741371 1.6498768 -0.0339936 -1.6556423 0.09608444 0.07560693
1.7042612 0.3109692 0.053733397 0.16839153 0.0876099 0.008873337 1.6946648 -0.028778166
-1.614332 0.0881148 -0.053701866 1.613581 0.26507097 -0.029986488 0.08411666 0.09112956
-0.028324042 1.7058043 -0.08862933 -1.6344286 0.08275725 0.095394924 1.6965604 0.35435975
-0.021350082 0.14589848 -0.00034795495 -0.020118477 1.756873 -0.11322561 -1.675465 0.11697587
-0.009879298 1.7725962 0.3905323 -0.029179098 0.17336376 -0.011687776 0.0035677303 2.0575233
-0.041534025 -1.6724052 0.060586207 0.18031397 2.1088521 0.5904124 0.015234718 0.14923331
0.057559196 -0.017246073 2.0679204 -0.02929202 -1.696449 0.06654479 -0.03433275 2.1496692
0.6252213 0.03993298 0.13487118 0.057902113 0.087676324 2.133553 -0.07579951 -1.6959863
0.055001844 0.18003854 2.0810502 0.6689537 -0.03430548 0.11777275 0.03554205 0.047359277
2.036349 -0.10023526 -1.6991597 0.07409714 0.088809825 2.108403 0.9637309 0.03920503
0.1254113 -0.005521325 0.080161914 2.1093364 -0.051322438 -1.7022023 0.12290988 0.0695401
2.12585 1.2091553 -0.0269463 0.20489082 0.0038289146 0.065582424 2.221446 -0.059640672
-1.6818944 0.095807 -0.038620453 2.214869 1.31671 0.018334026 0.12857497 -0.0401441

network_smart.layer1.0.bias f4 [128]
00000000: 87b1 3fbd 2c1c 6cbd 6ae9 9d3d 6c61 73bd
00000010: 1429 be3d 847c 4cbe ff20 5d3d 6522 af3c
00000020: 5b93 a2bc e917 5fbd 9056 f33b 2750 2ebd
00000030: 67bc 84bd c4d7 1abd abb3 b5bd bf97 29be
00000040: 9553 62be e72c 87bd dad8 acbb 2511 393e
00000050: 8137 92bc 3fc4 2e3d 1ab9 c13d dde3 18bd
00000060: 74db 053e 3aa3 63be a866 353e 25cd 1bbd
00000070: b06d 13bc 87fd efbd 1a12 4c3d d646 6a3d
00000080: f433 5c3d e33b f93d 224d c8bd b9ea 083e
00000090: d021 9b3d a5b4 6fbd d095 003e eb99 47bc
000000a0: 96a9 7ebc 698a 2f3d 423e b13d 87ab 24bb
000000b0: c795 78bc 5164 223e 9f2a bf3c 1829 9a3d
000000c0: 646b 3fbd 778d b73d 70e7 d23d b418 2e3c
000000d0: 61fe b93d d243 a83d de15 17bd 8efa 093e
000000e0: 7f2f 2cbd 33e0 2e3c aa02 7abc 2c23 993b
000000f0: dc54 bdbd fb45 3cbc 1a81 f4bd 049b 3a3c
00000100: 91cc 52bd 7c69 873d b7b2 e23d 2d7c 4abe
00000110: ffe9 913d 5cac 47bb b54a cc3d eca9 f3bc
00000120: 6527 c23d 0985 8a3d 95ed f2bd 062e 0bbd
00000130: 7a48 173e a027 3dbc dc0f bc3d a02d b7bb
00000140: b0c0 783d 40a4 05be 748b c73d d70d 8b3d
00000150: a807 ff3d e485 2abe 074e 0d3e e425 96bd
00000160: 5fcd d13d 222e 4c3d 4c09 d6bc 9944 b53c
00000170: a67a 863d ecb9 b23c bb7f be3d 94e0 af3d
00000180: a39f ab3d c439 a4bd 8ffc bc3d 1313 bbbc
00000190: b22a 5fbe 7bd5 c43d 34e7 44bd 6af4 323c
000001a0: 4213 b63c 5390 29be f04a b83d 4284 903d
000001b0: 8f38 5abc 52a4 9bbb a267 d13d 3279 663d
000001c0: 63f2 09bd 47ff ccbc cc39 a03c ab77 b0bc
000001d0: 0d40 92bc 242a 48bd c450 eb3d b591 8d3b
000001e0: b110 453d 13e3 8e3b 56c5 873d 3374 66be
000001f0: 7758 64bd 2107 d7bc c353 dc3d 05fc c73d
-0.046800163 -0.057644054 0.07710536 -0.05941908 0.09285179 -0.19969374 0.053986546 0.021378705
-0.019845655 -0.054466162 0.0074260905 -0.042556908 -0.064812474 -0.037803426 -0.088721596 -0.16561793
-0.22102197 -0.06600361 -0.005274874 0.18072946 -0.017848732 0.042667624 0.094591334 -0.037326682
0.13071996 -0.22230235 0.17714942 -0.038037438 -0.0089983195 -0.117182784 0.04982195 0.05719646
0.053760484 0.121696256 -0.09780337 0.1337079 0.075748086 -0.058521885 0.12557149 -0.012182693
-0.015543362 0.042856608 0.08654453 -0.0025126652 -0.015172428 0.1585858 0.023335753 0.07527369
-0.046733275 0.08962529 0.102980494 0.010626007 0.09081722 0.08216061 -0.03688609 0.13474485
-0.042037483 0.01067357 -0.015259424 0.0046733823 -0.09244701 -0.011491294 -0.11938687 0.011389498
-0.05146462 0.066119164 0.110692434 -0.19773932 0.07124709 -0.0030467724 0.09975187 -0.029744111
0.0948017 0.06763656 -0.118617214 -0.03397944 0.14773741 -0.011545092 0.091827124 -0.0055901557
0.060730636 -0.13050938 0.097433954 0.06789749 0.12452632 -0.16652638 0.13799296 -0.07331446
0.102442496 0.049848683 -0.02612748 0.022127436 0.06566362 0.02181717 0.093017064 0.08587757
0.08380058 -0.080188304 0.09227859 -0.022836244 -0.2179363 0.09611031 -0.048072055 0.010922531
0.02222598 -0.16558962 0.08998668 0.07056476 -0.013319149 -0.004749813 0.102248445 0.056267925
-0.033678424 -0.02502407 0.01955881 -0.021541437 -0.017852807 -0.048868313 0.11490014 0.004320348
0.04811162 0.0043605655 0.06629436 -0.22505264 -0.05574843 -0.026248517 0.10758164 0.09764866

network_smart.layer2.0.weight f4 [128, 128]
00000000: 49c1 cb3d 3a0f 683c 8878 5f39 4f33 87ba
00000010: 56d5 da3d 38c1 72be 5d18 b7bd b484 fc3b
00000020: fc34 0abc b10b 943d b550 a63c a743 cf3d
00000030: dc50 30bd 23e9 90bd 693e 043c 673a c43e
00000040: d918 84be 9894 80bc 4ea6 ab3d f964 07bd
00000050: 8b94 563b 24e2 42bd d264 8d3d 688c a5bd
00000060: 4e38 a13c 28c0 d8bd c50f f53d 6f2e d63c
00000070: 5d81 78bd 4328 f9be 5de5 00be 7acf 07be
00000080: 9b9b 00bd f939 c83c 87e1 223d 89df a53d
00000090: 6d97 5d3d 489e b4be 6532 fabc 3865 2fbd
000000a0: f3f3 703d bf7e d7bd 98e6 d5bd d48a 34bd
000000b0: 34c4 933d d63e cc3c 807e adbe b7eb 00bf
000000c0: 13f0 de3c fdc1 873d 23ef c6bd eef4 bf3d
000000d0: 8a23 b2bd a21c d3bd bb47 803d 5e8c 103e
000000e0: ac5a aabd 1714 65be 050b f03d 0e8b b4bd
000000f0: e096 98bb cd54 e2bd 3383 4d3d a1a1 253d
00000100: eb26 593d 2fdd 2d3d 9e5b fcbd d3c5 0abd
00000110: d5a9 68be 3e06 7dbd 9809 b43d c440 9c3d
00000120: 8b73 61bc d553 eb3c 8d39 e03d bea7 c13c
00000130: af09 7d3d ea3d 31bd 53eb 4cbd 93f0 503d
00000140: 9408 d9bd 57e1 9b3d f7b3 c3bd 1068 ddbb
00000150: 4c78 47bd 5896 d63d cc85 343e 5709 6c3e
00000160: 68c5 073e 17a1 36bd 1675 f3bc b7aa f0bc
00000170: 52aa 18bd 94b1 353e ed49 7d3d fdba f7bd
00000180: 73eb c53d cc01 07bd f3b6 4f3d cccc 10be
00000190: 0814 fbbd 1943 a83d adb4 e23d 328f 423c
000001a0: 0a37 863d 079b 843d 412f 7cbe 6e8d ec3c
000001b0: 5326 e63d 2fa5 a33c 3290 64bd a939 b2bd
000001c0: cca8 90bd d415 e23d 171e 9f3d 53f6 61bd
000001d0: b4e3 183d 3473 763d eac6 633c 30eb e839
000001e0: 3e58 73bc ec33 d23c 4415 33be 826f 563d
000001f0: 8422 823d 610c 5fbd c0c9 183e bc7e b43c
00000200: 7017 143a 5b12 333d b331 3d3c 5a4e fbbe
00000210: 6ed2 353c f37f f8bd 8b61 89bd 28c0 3fbc
00000220: ad8a aa3d 3d4b 923d 6722 e7ba 3d58 3d3e
00000230: cbf5 a5bc d15a 83bc 8b0f a3bc 3eee 833e
00000240: 6a29 8ebe 18c7 963d 7ecd 14be a3d9 7a3c
00000250: fb95 ab3c d53e fcbd 58f0 5cbd c1bf 933d
00000260: 1b23 f3bd 0bbc f7bd eb24 073e 2ae1 9ebc
00000270: 1a3c d63c bc0e 823d 89c3 e8bb a4dc b73d
00000280: c2c4 c73d e469 293d da25 24bb 94a1 e5bd
00000290: d4ef 86bc d059 9d3e 0659 003d 23aa 693d
000002a0: ea42 2b3d 46b9 2cbe 993c 1e3d cd64 473d
000002b0: 0c64 53be 7739 93bd 3bf5 853c 9d80 9fbe
000002c0: 0e25 193d 66c8 61be eefb ce3d 2047 203d
000002d0: 94cd 60bb f419 52bb 5b15 12bd 4374 493d
000002e0: 42aa 82bc 8b7a ddbd d22a 1c3d 312c 1a3d
000002f0: 457d 6a3d 8fb3 a9bc 18c8 0a3e 975c a03d
00000300: 79a5 bc3d 076c 57bc bed6 26be 3ea5 c7be
00000310: daf0 273e 7add 9f3c 245a 963d 7e0d 20bd
00000320: 9e92 81bc 2b49 383e 8a45 5cbd 8913 a5bd
00000330: 0fe7 6bbd 1768 a7bd 647c 673d 3a16 84bd
00000340: 665e 89be 53e1 173e f3f4 c03e 183b 6e3d
00000350: 1d49 64bd 78a5 0cbe 04f9 ea3d dea6 3abd
00000360: 7e6c 563d 6077 50be 158f d53c f6ea cd3d
00000370: 5143 cb3c 1855 0dba 4506 ab3d c57f 8d3d
00000380: 5853 24bd 6813 47bd 63e6 18be d5ff b13c
00000390: 4671 f13b 1887 18be 5ebe 7fbd bfa6 0e3d
000003a0: 4bb1 c33c 4a28 3d3e 6369 033e 213b 92bd
000003b0: af27 b0be 56bb 943d 589e b73d 0002 943d
000003c0: 6c0f 99bd 8adf 923d 7fa5 65bd c0b2 d43b
000003d0: d466 a13c 08f6 09bd acfa 003d 6172 803d
000003e0: f587 763d 01e1 b7bd 5e5c debc 36a7 b73c
000003f0: d89b 2a3d c2bf d03c 8ba3 dd3c 0c71 18be
0.099489756 0.014163787 0.00021311839 -0.0010314974 0.10685222 -0.2370652 -0.08940194 0.007706249
-0.008435484 0.072287925 0.020302156 0.101203255 -0.043045864 -0.07075717 0.00807152 0.38325807
-0.25800207 -0.015695855 0.083813295 -0.03305528 0.0032742347 -0.047578946 0.069039956 -0.08083421
0.019680168 -0.10583526 0.119658984 0.026145188 -0.060670245 -0.4866353 -0.12587495 -0.1326274
-0.031398397 0.024441706 0.03976586 0.080992766 0.05409949 -0.3527701 -0.030541608 -0.04282114
0.058826398 -0.10522222 -0.10444373 -0.04407771 0.07215157 0.024932306 -0.33885574 -0.5035967
0.027214086 0.06628797 -0.097135805 0.093728885 -0.08698185 -0.10308196 0.062636815 0.14116046
-0.083180755 -0.22370945 0.11720852 -0.08815585 -0.0046566576 -0.11051331 0.05017395 0.040437344
0.05301563 0.042447265 -0.12322162 -0.033880066 -0.22721036 -0.06177353 0.08790892 0.076295406
-0.013760458 0.028726498 0.10948477 0.023639556 0.061776813 -0.043271936 -0.05002911 0.05101068
-0.10597339 0.076113395 -0.0955581 -0.00675679 -0.04869871 0.104778945 0.17629164 0.23050438
0.13258898 -0.04458722 -0.029718917 -0.029378278 -0.037271805 0.17743522 0.06183808 -0.12096212
0.09664049 -0.032960698 0.050711583 -0.14140624 -0.1225968 0.08215923 0.110696174 0.011874961
0.065534666 0.064748816 -0.24627401 0.028876033 0.112377785 0.019976227 -0.055801578 -0.08702404
-0.070634454 0.1103932 0.07769411 -0.055166554 0.03732653 0.06016846 0.013902405 0.00044425717
-0.014852582 0.025659524 -0.17488581 0.052352436 0.063542396 -0.054455165 0.14920712 0.022033088
0.00056492444 0.043718677 0.011547494 -0.49083215 0.011097534 -0.121337794 -0.06708058 -0.011703528
0.083272316 0.07143257 -0.0017634154 0.18490691 -0.020258805 -0.016034516 -0.019904872 0.25767702
-0.2776597 0.07362193 -0.14531514 0.015310678 0.02094554 -0.12316672 -0.053940147 0.072143085
-0.1187193 -0.12096413 0.13197677 -0.019394476 0.026151706 0.063504666 -0.0071033877 0.08977631
0.097543254 0.04136075 -0.0025046975 -0.11212459 -0.01647178 0.30732584 0.0313349 0.05704702
0.04181186 -0.16867551 0.03863201 0.048680115 -0.20643634 -0.07188695 0.016352287 -0.31152812
0.037388854 -0.22049102 0.101066455 0.03913033 -0.0034302222 -0.0032058926 -0.035664897 0.04918314
-0.015950326 -0.10814389 0.038126774 0.0376398 0.057248373 -0.020715503 0.13552892 0.0783016
0.09211249 -0.013148314 -0.16292855 -0.38993257 0.16400471 0.019514788 0.07341412 -0.039075367
-0.015816983 0.17996661 -0.053777255 -0.08060367 -0.0575934 -0.081741504 0.056515113 -0.06449552
-0.26829833 0.14832048 0.3768688 0.058161825 -0.05573379 -0.13734996 0.11473277 -0.045569293
0.05234956 -0.20358038 0.026069203 0.10054581 0.024812372 -0.0005391403 0.08350805 0.06909136
-0.040118545 -0.04860249 -0.14931636 0.021728436 0.0073682396 -0.14895284 -0.062437408 0.03482699
0.02388825 0.184724 0.1283317 -0.07140184 -0.34405276 0.07262294 0.089657485 0.07226944
-0.074736446 0.07171543 -0.056066032 0.006491035 0.019702353 -0.0336819 0.03148906 0.06271816
0.060188252 -0.08978463 -0.027143653 0.0224186 0.04165253 0.025482062 0.027055522 -0.14886874

network_smart.layer2.0.bias f4 [128]
00000000: af85 083d f59e c73c 0103 e1bb 75ca 913d
00000010: 74a9 b93d 6673 853d e982 343b 073c 4e3d
00000020: 1b5c 47be 0485 903d 568a a83b 634e 8bbd
00000030: 8848 353d c748 cebd c0fc 203d 3f97 76bb
00000040: 884e 3fbe e827 e03c 959e dabb caba 03be
00000050: ed13 febc 83b4 8cbc b18c 923b fe61 44be
00000060: e2e3 8d3d 2f2d 163d f7ca 1d3d 86e7 173d
00000070: 09ca debc 65c4 39ba 26e8 943c 39ea 463a
00000080: 7959 013e de34 a8bb d0a6 3e3d ae1d 4fbd
00000090: 6405 38bd 2919 afbd 6945 f1bd bbc2 37bd
000000a0: 7183 013d d09c a7bc a685 88bd 8dc5 93bd
000000b0: a45d e7bd 4988 32bc aa8e 89bd 85d9 a93d
000000c0: c966 ab3b 4080 783d 356e 8abc 2f2e 3ebc
000000d0: eb8f 953c 9183 ca3c d4f1 bbbc f519 393d
000000e0: 5bdd d6bb 61c5 9e3d c124 90bd 8385 6bbd
000000f0: dd34 043d 9f7f 013e 320a 8fba c9b3 e0bb
00000100: 5426 993d 53b4 443d 890b 37be db2e 313d
00000110: 3b2d 98bd 82d6 53bc cf73 f63c 36e3 85bd
00000120: 3072 0fbe 3eee 2ebe 8dd7 53bd 7899 993c
00000130: abeb d73d f887 19bd 28fb a6bd 837e 103d
00000140: 830e 62bd f228 b3bd 6cf5 493d 0ff1 d73c
00000150: 6b20 d1bd 391c 383a 4b66 a9bd 3418 d93c
00000160: 8525 cabd 319a f4bd 07cb f9bd 9740 8dbd
00000170: 4636 cd3c caa6 9abc fea2 483d cd77 b8bd
00000180: 220c 9a3d a8e4 cb3d e1d6 4cba 1b31 6bbd
00000190: 621c 873c c72d a6bd 6211 69bb 2d67 bd3d
000001a0: 401d 2f3c 0129 9e3d 1785 e9bc 4dfd 59be
000001b0: 2dfb 603d 6fd1 c93d 89b1 523d bbfc d7bb
000001c0: f1fd 3b3d ae6e 60bd b474 13bd f613 10be
000001d0: 2d1b 80bd ec8d 63bd 59fc 673d 4047 33be
000001e0: 819f babd f6d6 3a3d b0e6 96bd f2e0 44bd
000001f0: 1a39 733d 848d 6a3b bb50 fb3b ee5a f4bb
0.033330616 0.024367789 -0.006866813 0.07118694 0.09065524 0.06516151 0.002754385 0.050350215
-0.19468729 0.07056621 0.005143444 -0.068020605 0.044258624 -0.10072475 0.03930354 -0.003762677
-0.18682301 0.027362779 -0.0066717365 -0.12864223 -0.03101536 -0.017175918 0.004472338 -0.19178006
0.06928231 0.036664184 0.03852364 0.037086032 -0.027195947 -0.0007086455 0.018177103 0.00075880025
0.12631787 -0.0051332554 0.046545804 -0.050565414 -0.044927016 -0.08549721 -0.11780817 -0.044863444
0.031619493 -0.020460516 -0.066661164 -0.07215414 -0.112971574 -0.010896751 -0.06716664 0.08293442
0.005230759 0.060669184 -0.016898254 -0.011607691 0.018257102 0.024720939 -0.022942461 0.04519077
-0.0065571493 0.07752491 -0.0703826 -0.057500374 0.032276977 0.1264634 -0.0010913073 -0.0068573696
0.07478014 0.048023533 -0.17875494 0.043257575 -0.07430502 -0.012929561 0.030084519 -0.06537478
-0.14008403 -0.1708307 -0.051719237 0.018749937 0.10542997 -0.037483186 -0.08153373 0.0352769
-0.05518962 -0.08748044 0.04930632 0.026360063 -0.10211261 0.00070232485 -0.08271464 0.026500799
-0.098704375 -0.11943472 -0.121969275 -0.06897085 0.025050294 -0.01887836 0.048983566 -0.09007225
0.075218454 0.09955722 -0.0007814002 -0.057419877 0.016493026 -0.081142 -0.003556334 0.09248195
0.010688126 0.077226646 -0.028505845 -0.21288033 0.05492704 0.098543994 0.051438842 -0.006591407
0.045896474 -0.054793052 -0.03599997 -0.14070114 -0.06255183 -0.05555527 0.05663714 -0.17507648
-0.09112454 0.04561516 -0.07368219 -0.048066087 0.05938063 0.0035789916 0.007669536 -0.0074571287

network_smart.layer3.0.weight f4 [48, 128]
00000000: 1f87 cc3d 198b 393d 9894 1bbe ccd9 e0bc
00000010: e8c8 b0bd e673 6b3e 4740 bdbe 356b 33bd
00000020: d235 f7be 9017 0fbe 4027 4e3e 77fd 84bd
00000030: 8e89 c4bd 0be7 b93d 3eca 9f3b 46dc 2d3e
00000040: 0f3f 7cbe e5d8 833d 96ee e5bd 6c96 0f3e
00000050: ad8d 70bd 0e5c 4a3b d9e9 25bc 3a87 91bd
00000060: 3f46 713d a054 dbbe 26db 343d fde4 30be
00000070: 93a7 833d 4f37 3abe 3bda 98ba e79a 1c3d
00000080: 3139 33bd aff6 88be db6a e43d ae94 59bd
00000090: bbcb f6bc af14 13be 5e75 13be b712 2abf
000000a0: 4d2b a93d 9cac 483c 8122 f7bc 6430 1cbd
000000b0: 1635 bfbb 0fdc 97be c183 afbe 5ac1 3c3d
000000c0: 0048 fbbd 91b9 113e 0069 3e3e 7c4b dd3d
000000d0: 6d46 6ebd bd6f 6c3d d0dc 473e c19b ed3d
000000e0: 06df c13c cb3a 95be cf7e d7ba f322 713e
000000f0: beb7 86be c75a 383d cc33 983d 1a3a 9c3d
00000100: 3a14 903d f09f 90bc 5892 663e 6cf5 82be
00000110: 27a0 21be f4c8 fa3c 5d6e d2bc d2b1 bd3d
00000120: 0cf6 7fbe 23f9 b9bf 07ec c5bc 3c19 38bd
00000130: 96e6 823d 8e30 f73c 4508 3d3c dbdd 0dbd
00000140: adaa 1ebd 4f9b aabd d82a 1c3d 72da 0f3e
00000150: e814 6fbe 2ca9 113d 23de bc3e 15ad 053e
00000160: 6e54 e2bd 5bc8 8dbe 98ca 013f 8c3a 44be
00000170: 9067 11be 8353 d93c 3aee 25bd bf36 3f3c
00000180: 0d6a 96ba a6fe 03bc 3865 f6be 32b8 8d3d
00000190: 69ac 5bbd 7fa2 3dbd 19e1 123e 9ee3 d4be
000001a0: 0d32 973d 5d50 d3bd d4ec 6dbe 3e1a b8bf
000001b0: 1a2d 513d d30a 17be d611 75be 83e5 e8bd
000001c0: 6de4 a63d f8d5 24be 4d5f 9c3d bd86 18bf
000001d0: 1ea0 4ebe a626 163d 0cc1 58be 7ae2 043e
000001e0: 80cc 183d 4bf7 6dbe 7352 123c 0482 833b
000001f0: 9800 e83d 6ca1 6b3d b4ab 3dbc a735 04bf
00000200: 1f32 89be 9e86 8bbd 6830 aa3d 659f 0fbd
00000210: ec39 73be 1e83 373e 2043 a43e 5f19 d6be
00000220: 1aed 39bf b840 473e d660 aabe a580 2dbf
00000230: 5a34 aabd d99e 853e 5252 6b3d 4a66 fa3d
00000240: 2e4c b63c dc58 a63c a98b ca3d 602f f4bb
00000250: 72b8 cbbd 4ae6 af3d a5ac 2ebe a4de c13d
00000260: 9c21 70bc 65e3 c1bf 31f6 dbbe 25c2 f53d
00000270: f03a 3a3e ce0a 343e e285 2b3e 1a8f ed3d
00000280: 91db 53be 417e 17be 6378 aebd a80e f4be
00000290: ad1c fb3d 1095 d4be e682 81bd 4f03 693f
000002a0: de76 8abd 7f6d 8d3d 2c4e fabc 5802 a83e
000002b0: b80c 60be 6b57 27bf 7d00 1abe 8c15 ac3b
000002c0: e9fc 893d 2890 cf3d 2c21 81be db2f 19bc
000002d0: 722d 213d c87b c63b 5d53 903c 34eb 3d3d
000002e0: 849a 2b3e 1bbf cebf 34b6 54bc df72 023f
000002f0: 447c c1bc 0003 2b3e e761 863e 7877 d53d
00000300: b89f 4a3d f0bb 2dbe dd8c 123f 31e9 13be
00000310: 46a1 153e d53d 85bd 69a9 dd3d 8948 48be
00000320: a49b 8a3d 8f05 38be 338d b23d d8ea 963b
00000330: b22c bdbd ef1e 0bbd 5ad2 dbbd 522a fdbc
00000340: baf1 55bd eb48 65be f48e babd 99b5 763e
00000350: b6f3 153e dc40 653e 957e f03d 1c9a a0be
00000360: 3b13 bfbd 8839 d73c a46c 8a3f b299 9ebc
00000370: 4e18 1cbe 1a55 96bd ec7c 79be 668d 39bd
00000380: 87d9 ad3d cea3 263e 7cbb 8dbf f75e 6bbd
00000390: f313 c2bd 3437 8dbd f218 a23e 7e28 983e
000003a0: b48e 903d afb8 a3bd d186 9dbb 3601 6bbe
000003b0: 83a4 b63d 23fc 29bf 4f94 3c3c 28db efbd
000003c0: bf46 033e 14d8 edbe 207c 8bbd b7f7 94bc
000003d0: 6718 f43d 2455 afbd 5fa9 d0bd ef8d afbc
000003e0: d5b8 02bd 86ba 8ebe cd4d 90bc 9ec5 79be
000003f0: e25e 493e 2aa1 81bd 18ef bcbd f8ac b0be
0.0998671 0.04529867 -0.15193403 -0.027447604 -0.0863207 0.2299343 -0.36963102 -0.043803412
-0.4828325 -0.13973832 0.2013216 -0.06493657 -0.09596549 0.09077271 0.004876404 0.16978559
-0.2463343 0.06437854 -0.11227147 0.14022225 -0.058728863 0.0030877623 -0.010126554 -0.071058705
0.058904883 -0.42838 0.04415431 -0.17274852 0.064284466 -0.18185161 -0.0011661717 0.038233664
-0.043755714 -0.26750705 0.111531936 -0.053120308 -0.030126443 -0.14363359 -0.14400241 -0.66434807
0.08260212 0.0122481845 -0.03016782 -0.038132086 -0.0058351858 -0.2966008 -0.34280208 0.046082832
-0.12269592 0.14230944 0.18594742 0.10805413 -0.058172632 0.05772375 0.19517827 0.11601973
0.023665916 -0.29146418 -0.001644099 0.23548488 -0.2631206 0.045008447 0.074317545 0.076282695
0.07035108 -0.01765439 0.22516763 -0.25577867 -0.1578375 0.0306134 -0.025687391 0.09262432
-0.24996203 -1.4529155 -0.024160398 -0.04494594 0.06391637 0.03017452 0.011537616 -0.034635406
-0.038736988 -0.08330404 0.038126796 0.14048174 -0.23347819 0.035561725 0.36888227 0.13054307
-0.1105126 -0.27691922 0.5069976 -0.19162959 -0.14199662 0.02652908 -0.040510394 0.011670767
-0.0011475697 -0.008056318 -0.481241 0.06919898 -0.05363122 -0.046297546 0.1434368 -0.41579908
0.07382593 -0.103180625 -0.23234874 -1.4383008 0.051068403 -0.14750223 -0.23932585 -0.11371901
0.081490375 -0.16097248 0.07635365 -0.59580594 -0.20178267 0.03665795 -0.21167392 0.12977019
0.0373044 -0.23238866 0.00893079 0.004013302 0.11328238 0.05752699 -0.011576582 -0.51644367
-0.26796052 -0.068127856 0.08310014 -0.03506412 -0.23752564 0.17921111 0.32082462 -0.41816232
-0.72627413 0.19458282 -0.33277005 -0.6777442 -0.083107665 0.26097754 0.057451554 0.12226541
0.022253122 0.020306043 0.09889919 -0.0074519366 -0.099472895 0.08588846 -0.17058046 0.094662935
-0.014656451 -1.514752 -0.42961267 0.11999921 0.18186545 0.17582247 0.16750291 0.1159956
-0.20689227 -0.14794256 -0.08519056 -0.47667432 0.12261329 -0.41519976 -0.06323795 0.91020674
-0.06760953 0.0690565 -0.030554853 0.32814288 -0.21879852 -0.65367764 -0.15039249 0.005251592
0.06737692 0.101349175 -0.2522062 -0.009349789 0.03934998 0.0060572363 0.017617876 0.046366885
0.16758162 -1.6152071 -0.012982894 0.5095653 -0.023618825 0.16700363 0.2624657 0.104231775
0.049468726 -0.16966224 0.5724619 -0.14444424 0.14612302 -0.06505934 0.10823328 -0.1955892
0.06767967 -0.1797087 0.08718338 0.0046056323 -0.092370406 -0.033965047 -0.10733481 -0.030903969
-0.05223248 -0.22391097 -0.091092974 0.24092712 0.1464375 0.22388023 0.117428936 -0.31367576
-0.0932984 0.02627255 1.0814404 -0.019360397 -0.15243647 -0.073404506 -0.2436406 -0.045300864
0.08488756 0.16273424 -1.1072841 -0.057463612 -0.09476461 -0.06895295 0.31659657 0.29718393
0.070584685 -0.0799421 -0.004807331 -0.2294968 0.08918097 -0.66400355 0.011509969 -0.117117226
0.12819956 -0.46453917 -0.06810784 -0.018184526 0.11918717 -0.08561161 -0.10188555 -0.021429984
-0.03191455 -0.2787668 -0.017615223 -0.24391791 0.19665101 -0.06329568 -0.09225291 -0.34506965

network_smart.layer3.0.bias f4 [48]
00000000: 1d8d 9d3d 3f9c c53c 00be d9bc d58e 8e3d
00000010: 198b 3a3c 9d2d c6bd a08e 9abd a80d e6ba
00000020: 4388 15be 5dc7 843d 7dfb 883d 8dad 70bd
00000030: 8d57 27bd 8ca5 5abd 5899 67bd 5b45 62bd
00000040: 91e7 70bd 0fc1 e93c 3449 313d d59e 413d
00000050: bb47 933d 8650 8f3c fd15 19bd 4fb9 5e3d
00000060: 342a 8f3d 5a5c 36bc fdf6 2c3b 9979 02bd
00000070: 399c 23bd 49dd d83c eb4f a23d 9a38 673c
00000080: 27e5 b8bd 9e57 babd 4448 74bd bb8d 8ebd
00000090: 7f00 1fbd e4a9 cc3d 1e4c 313d 013e a33d
000000a0: 419c f33d b33a f3bd 18fa 77bd d4dd ebbd
000000b0: b84f 313d aca5 173d 2d4a 913d 2ab4 29bd
0.07692931 0.024122356 -0.026579857 0.06960837 0.0113857025 -0.09676669 -0.07546735 -0.0017551677
-0.14602761 0.06483338 0.066885926 -0.05875926 -0.04085498 -0.053380534 -0.056542724 -0.055241924
-0.05881459 0.02853444 0.043282703 0.047270615 0.07191416 0.017494451 -0.037374485 0.054375943
0.069904715 -0.011130417 0.0026392334 -0.031854246 -0.039943907 0.026472704 0.079253994 0.014112616
-0.09028082 -0.09098743 -0.05963923 -0.06960627 -0.038818832 0.099933416 0.04328548 0.07970811
0.118950374 -0.1187643 -0.060541242 -0.1151692 0.043288916 0.03702323 0.07094226 -0.041431583

fc_smart.weight f4 [64, 48]
00000000: 9b57 4a3e f774 483f e076 0a3f 57eb 93be
00000010: 77db bf3e 8f6e 253e 4ea0 13bd b4e4 dabd
00000020: d189 6ebd 64b1 893e da87 333e 3ef5 283d
00000030: 77fd 293e 019e 1c3e eafe e43b 4d36 57bc
00000040: 58d8 e63d 60d8 023e 7fb5 b7b9 8be8 dd3e
00000050: ef2f 94bd 44dc 2b3f 6ebc 44be e3a9 353e
00000060: 4a4e 823e 6878 393e 0191 853e 6f0a fd3d
00000070: 74f0 aa3e cdf2 14bd cdcd 4bbe db1e f53c
00000080: 49d1 323e d1b7 99be 137e 2a3d c264 b23d
00000090: 05c1 193e 0fec c83e b048 bfbc 17b9 d0be
000000a0: fe0c eabd b2eb b7be fa6a 4d3e e34b f13c
000000b0: 4f4a e93d 41d2 2a3e 9652 e53c 0c93 083d
000000c0: 6356 8cbe 56ef eebd 532e 163e 7037 f73e
000000d0: 8c44 023f bb63 32be dd6d bc3d 74ee babd
000000e0: b833 f1bd c915 42be 92bb 0f3f 76de dc3c
000000f0: 2203 80be 3ba5 903e 3587 cd3d 7155 753e
00000100: ed07 443d d5d4 733d 3c37 4c3c 3eeb 6f3f
00000110: 6ece bebd 7d04 483f b3d7 6fbe 1394 c43c
00000120: f84b f33e d63f 463e 4db1 a33e fabc 843d
00000130: 9f6a afbf 8b75 d2bd 3590 cfbe e6f4 0cbf
00000140: f7d3 f13d ec89 45be 4ccb 863e f8a0 283c
00000150: 5bc9 28be 9912 a53e 94d4 d2bd 402b c73d
00000160: f3d9 2dbe 6e82 65be 59cf c23e 7a17 2c3d
00000170: 069f 49be f850 b33e 9153 06bd 1b6e ffbd
00000180: b631 893c 782f 2c3f 3bf8 083f bcb2 3bbe
00000190: 2e31 1a3e 04e0 c73c d0ee f9bd 2ec2 453d
000001a0: e89a 99bd 0f8f 793e 167f 6a3e 089e f6bd
000001b0: e471 be3d 5acb 873e 31d9 debc 09d5 263e
000001c0: 5a0a 913d f246 dc3c 7a8c ff3d 9dd6 133f
000001d0: 4657 afbd 4522 223f 82db 67be 7797 323e
000001e0: 3cad 6b3e 8dc3 153e 1b9e 463e da46 1d3e
000001f0: 01dd 01bd 214b 903d c2e2 a9be 6631 423d
00000200: 67bd 903e 1d46 c1be d094 eabd 387b 79bd
00000210: 799c 423e c64e 773e a668 b43d f729 a4be
00000220: c87f 94bd be97 a9be 2783 8c3e 8440 ee3c
00000230: b6ff 473d 66a6 8f3e 0bcf a0bb 004d febd
00000240: 1cb1 4d3e 7fe5 673e 2977 53be 08d5 dfbe
00000250: e3b5 a1be 90c3 c73d 86c6 d4bd 78d0 48be
00000260: b97d c2bc ad0a ddbd 34d4 aabe c80c c2bd
00000270: 9a6e c03c f73d 44be 1b71 e8ba cc8a 3fbe
00000280: 7f2a df3d f570 bcbd bb18 d9bb 8f57 4abf
00000290: c394 b3bd 20e0 a1be 5117 383e 2554 b13d
000002a0: 667f cebe 493c c0bd c20f 72be 7d8c 1ebd
000002b0: 62ce aa3f 51b2 84bc 3885 d53e 31a4 903e
000002c0: 5608 1fbe 216a 833e 141e 05be 1020 6d3c
000002d0: 9f89 8b3d e7c1 7cbe 1bde b0bd a71d 43bd
000002e0: e578 773e 5e93 bb3e 527f 80be 816d 34be
000002f0: 2f95 833d 3cfa ddbe 6942 d2bc 1a44 963d
00000300: 1162 7d3e 2658 883e fbc5 fbbd bf0f 00bf
00000310: 9a4d 1cbf d3d9 d2bd 2713 f03d 9c0b 1b3e
00000320: b045 743d 3fdc 363e 3ed3 11bf a02a 52bd
00000330: f84d c83e 4dee 9cbe 226f 10bc bbf2 1bbe
00000340: e451 01be 1301 67bd 593e b53a 29b5 63bf
00000350: 5f3a 3e3e 5e76 48bf 4cf4 b03e cfd2 343e
00000360: 0c8b e2be bd15 47be 2fe5 8cbe 6ea9 7fbd
00000370: 7904 b93f a7b9 f3bc 5ad7 c23e 295d 203f
00000380: 98fb acbb d7a0 0e3e 068e d5be 668a 0dbe
00000390: 0082 af3e a96f debe b074 64bb bd7b 26be
000003a0: 0d5a 923d 6828 a5bd 716f 9fbe 1047 99bd
000003b0: 83b2 903e a30b 97be 4351 293e 4a0a f2bd
000003c0: ae32 20be 7a2c 2fbf a161 20bf f86f 863e
000003d0: 492f bcbe 0246 ee3c 1a45 ae3d 51b2 85bc
000003e0: ae26 5e3d bce2 73be ad6b 53be 6bcf 9dbc
000003f0: 6a73 fbbd eadf 40be 13fc 5c3e f98c 07be
0.19759981 0.78303474 0.5408764 -0.28890488 0.37472126 0.16155456 -0.03604155 -0.10688153
-0.0582369 0.2689315 0.17532292 0.041249506 0.16600595 0.15294649 0.006988396 -0.013135505
0.11271733 0.12777853 -0.00035039705 0.4334148 -0.07235705 0.67132974 -0.19212505 0.17740588
0.25450355 0.18112338 0.26087192 0.12355506 0.33386576 -0.036364365 -0.19902726 0.02992194
0.17462648 -0.30023053 0.04162414 0.08710624 0.15015037 0.39242598 -0.02335009 -0.40766212
-0.11428259 -0.3592201 0.2006034 0.02945513 0.11391126 0.16681768 0.027993482 0.03334336
-0.27409658 -0.116667435 0.14666109 0.48284483 0.50885844 -0.17420857 0.09200642 -0.091275126
-0.11777443 -0.18953623 0.56145585 0.026961546 -0.2500239 0.2825106 0.10035554 0.23958375
0.04785912 0.059529144 0.012464341 0.93718326 -0.09316717 0.7813185 -0.23422126 0.023996389
0.47518897 0.19360289 0.31971207 0.06481357 -1.3704413 -0.10276326 -0.4053971 -0.55061185
0.11808007 -0.19290894 0.26326978 0.010292284 -0.16483061 0.3224075 -0.10294452 0.09725046
-0.16977672 -0.22413036 0.3804882 0.042014576 -0.19689569 0.35022712 -0.03279454 -0.12472173
0.016747337 0.6725993 0.5350377 -0.183299 0.15057823 0.024398811 -0.12203753 0.048280887
-0.07500249 0.24370979 0.22900042 -0.12041861 0.09299067 0.26522332 -0.027203174 0.16292204
0.070820525 0.026889298 0.12477966 0.5774935 -0.08561568 0.6333354 -0.2264233 0.17440592
0.23015302 0.14625378 0.1939625 0.15359059 -0.031704906 0.0704558 -0.33180815 0.04741039
0.28269503 -0.37748805 -0.11454165 -0.060908526 0.19005002 0.24151143 0.088090226 -0.32063267
-0.07250935 -0.33123583 0.2744381 0.029083498 0.04882785 0.2805664 -0.004907494 -0.1241703
0.20087093 0.2264614 -0.20650925 -0.43717217 -0.3158408 0.097540975 -0.10389428 -0.19610775
-0.02374159 -0.10793052 -0.33365023 -0.09475094 0.023490239 -0.19164263 -0.0017733903 -0.1870529
0.10896777 -0.09201232 -0.0066252626 -0.79039854 -0.087686084 -0.31616306 0.17977645 0.086586274
-0.40331572 -0.093864985 -0.23638824 -0.0387082 1.3344233 -0.01619831 0.417032 0.28250268
-0.15530524 0.25666907 -0.12999755 0.014472976 0.068133585 -0.24683343 -0.08636113 -0.0476357
0.24167211 0.3663587 -0.25097138 -0.17619897 0.06424939 -0.43354976 -0.025666432 0.07337208
0.2474444 0.26629752 -0.12293621 -0.50024027 -0.6105591 -0.10295453 0.11722403 0.15141147
0.05963677 0.17857455 -0.56962955 -0.05131018 0.39121985 -0.3065056 -0.008815559 -0.15229313
-0.12628895 -0.05639751 0.0013827785 -0.88948303 0.18576954 -0.78305614 0.34561384 0.17658542
-0.4424671 -0.19441886 -0.27518603 -0.06241744 1.445449 -0.029751612 0.38054925 0.6264215
-0.0052790157 0.13928543 -0.41709918 -0.13822326 0.3427887 -0.43444565 -0.003485959 -0.1625814
0.07146082 -0.080643475 -0.3113971 -0.07484257 0.28261194 -0.29501066 0.16534905 -0.11818369
-0.15644333 -0.6842724 -0.6264897 0.262573 -0.36754826 0.029086117 0.08509274 -0.01632038
0.054236107 -0.23816961 -0.20646544 -0.019263944 -0.12277873 -0.18835416 0.21580534 -0.1323737

fc_smart.bias f4 [64]
00000000: 71e7 b6bb b1a7 d5bc 7309 483d b2fb 67bc
00000010: 6ca1 413d 8ee7 d73c ecb3 a63d 8e1a 873b
00000020: bf9a 52bb 72c5 92bd 5f91 a93c b38c 8fbd
00000030: e129 29bc 9d9d 45bd 62cd a53c d4e3 41bd
00000040: aefb 88bd 4034 003e f013 f4bd 0dc8 d73c
00000050: 8ff2 9b3d 4313 9ebc 5a85 933d 3a80 df3c
00000060: 3627 4b3d c631 fbbb 6a0e 443c 8ece 78bc
00000070: 426f 3abd ad70 64bd 93a1 a2bd 2f50 e1bc
00000080: d982 41bd fecc e0bd 1810 053d f510 6e3d
00000090: ce18 39bd 7670 a5bd affb 61bd 50eb c23d
000000a0: bc8b 63bd d668 54bb 0a0c f7bc a581 e33c
000000b0: b326 fa3d f15e 0bbb cf27 3f3d bcc6 01bd
000000c0: 2273 4a3c 5650 f1bc 9331 083d 3b19 823d
000000d0: b7fe 373c 6552 ad3d 6456 823d 7a44 4fbd
000000e0: 35c6 973d b6f4 493d 564e 27bd 6e8f a2bd
000000f0: 8153 e6bd 4ee4 aebd 9427 3dbd 91a2 fd3c
-0.005581789 -0.026080938 0.048837136 -0.01415913 0.047273085 0.026355531 0.08139786 0.0041230386
-0.0032135693 -0.07166566 0.020699201 -0.07009258 -0.010324926 -0.048246015 0.020239536 -0.047336414
-0.06688629 0.12519932 -0.11917865 0.026340509 0.07614624 -0.019296294 0.07203169 0.027282823
0.04959794 -0.0076658456 0.011966327 -0.015185965 -0.04551626 -0.05577152 -0.07940974 -0.027504055
-0.047243927 -0.10976599 0.03248605 0.05812164 -0.04518967 -0.08078091 -0.055171665 0.095175385
-0.055553183 -0.003241112 -0.030157108 0.02777178 0.122144125 -0.0021266306 0.046668824 -0.03168367
0.012356551 -0.029457252 0.033250403 0.063524686 0.011230162 0.08462981 0.06364134 -0.050602414
0.07410852 0.04930564 -0.04084619 -0.07937513 -0.11246396 -0.085396394 -0.046180323 0.030961307

network_aging.lstm.weight_ih_l0 f4 [128, 5]
00000000: a959 1fbd 9643 01be f5ec 2b3e c2b3 043e
00000010: e5ae fe3d 09fd 5a3e 99ed 193d 4b72 d9bd
00000020: 9df6 163d 9506 c5bd c434 423e 82cd 473d
00000030: af15 84bd 2c77 df3c 54e0 fcbd 970c a1bd
00000040: a360 263e 8cd3 063e 2ef5 e23d aa69 853c
00000050: 8453 883d 2dd3 383e ace2 8e3d 61e7 313e
00000060: 66b9 5abd 79b1 663d e86e d1bc 9446 703b
00000070: dcc8 083e 5d6d 3e3e f66c 373d 95c4 b7bd
00000080: 5590 1fbd 4ea6 26bd 788b 333e 40dd 253e
00000090: 7bfd 233e 5cbb eebb 5b21 fabd 2e31 ad3d
000000a0: 4698 8dbd 7801 f63d 0cd8 41bd 44e8 803d
000000b0: 4ac2 debd 2a67 303e 02e9 b63d c73b db3c
000000c0: f145 19bd 8be1 043d 8dbc d0bd 0ecf b1bd
000000d0: 334d ba3d 726c 533d f74a 453e cb88 cfbd
000000e0: f9b2 563e 5f02 563e e09c 343d 56ca 153e
000000f0: 7d51 393e c44d ae3b 1474 0d3e 22ce d9bd
00000100: 2671 90bd 2988 6c3d 3254 843d 1e28 423e
00000110: 8e9f 2f3d dc65 993d 47d3 ecbd 842a 683d
00000120: 3580 3b3e 67c4 233e 2b58 793d c262 c7bd
00000130: a88f 833d f12c 2d3d c37e c03d 31ef 87bd
00000140: b2bf f53d 0f48 943d 370c 3e3e 7e73 b0bd
00000150: 01e5 e5bd a3bd 663e aa54 5a3e e2f4 f9bd
00000160: 7a9f f4bc 34b9 0a3e 4786 0abe 91be 9c3d
00000170: d885 95bd 9739 e1bd ad61 fd3c 5fc7 9fbc
00000180: 2343 8dbd 94c9 8d3d 44e8 57bc 7374 fa3d
00000190: 60a4 dabd 1f6b 303e a7ec 0a3d f316 ae3c
000001a0: 2f01 083e 79b4 843c 5f5d 4a3e a0d5 f23c
000001b0: 472c d6bd d282 d3bd d2fb af3d e270 063e
000001c0: 793f 0d3e 5e52 ffbd a0dc 343e 4cf8 ea3d
000001d0: 2d23 583d 9b88 fd3c a215 3c3e 4f7c 963d
000001e0: 02bf f3bd eb60 503e 42b2 dbbd 8e8d e63d
000001f0: d83f 353e 13af 0fbd 52b0 71bd eb62 89bd
00000200: 2437 823d 6223 85bd 3325 d53a 90a5 c6bd
00000210: 1d30 ae3c bd71 2abe 8671 093d 8fc7 df3d
00000220: f7e1 a3bd 2a7e af38 aefe 08bd d068 9a3c
00000230: 9905 2c3e a9c9 44bc 100f 603d 3b28 1e3e
00000240: a0c1 69bd a35f 1ebd 8554 9cbd 5ea4 2ebd
00000250: a4b7 f9bc 60b7 323d 882c 933d ac4c c13d
00000260: e333 df3d 824c 3e3d 07d7 b83c 571d 173e
00000270: f650 5a3d 8b12 443d ca48 9b3d f98c 203d
00000280: b6c5 09bd 430d 043e fe4a 10be 499d 9c3d
00000290: 6423 e73c 209d 603e 7683 783c c9d5 5f3e
000002a0: e0e5 013e 3a7f fbbd 2e59 d8bd 57d4 88bd
000002b0: 5234 5abd 5f02 b13d 457e 54bd eead 00be
000002c0: 4c66 0f3e 126f 15be 0b4a 043d c9bc 0c3e
000002d0: 9988 db3d 3751 8bbd 2064 393e 8bf3 da3c
000002e0: ba77 023e 59e9 863d 1167 92bd 7425 6e3c
000002f0: 6a88 053d bb46 193e 5dbf 113d 08a0 cd3d
00000300: c2f5 9ebd ad84 07bc 29d2 95bd 542e 4f3e
00000310: e393 643b 61f7 d3bd 6d5e 0d3d 8d10 26bc
00000320: 3725 5fbc 0837 12bd abb3 9b3c 1123 8dbc
00000330: 1492 4d3e 01de 263e bb01 893d fc71 0a3e
00000340: 3e13 423e f510 9bbc 0d30 87bd 7c9b 2f3e
00000350: 0565 f2bb 65fa d0bd ad29 68bd 4101 2e3e
00000360: 345e debd 81ff a5bc 08a4 183d 1bc3 36bd
00000370: 8525 963d 7eb4 123e 372e 2fbc 77f7 663d
00000380: 3363 053e 1ca1 89bd 4384 773d 8ebc 483e
00000390: dc90 9bbd 748c 033e 1e64 393e ad85 213d
000003a0: 0770 e93d f807 cb3d c9df 02be c7ce eabd
000003b0: 3622 9fbd d810 3a3c 75d1 c63d debf 183e
000003c0: ae25 953d 0b95 213a 4983 233e ec3b febd
000003d0: 4549 2f3e 4637 323e 9f27 4ebd 26f2 8bbd
000003e0: 2d2d d33d e30b 03be ad85 893d f1a7 1e3e
000003f0: 5357 6ebd 3c14 313e 3051 69bc ef27 37bd
-0.038903866 -0.12623438 0.1678961 0.12959197 0.12435702 0.21385588 0.037580106 -0.10617503
0.036856283 -0.09620396 0.18965441 0.048779972 -0.06449448 0.027278505 -0.12347475 -0.078637294
0.16247801 0.13166636 0.110819206 0.016285736 0.06656554 0.18049307 0.06976828 0.1737342
-0.053399466 0.056321595 -0.02556558 0.0036663162 0.13357872 0.18596406 0.044781648 -0.08973042
-0.038956005 -0.040685944 0.17533672 0.16197681 0.16014664 -0.0072855186 -0.12213393 0.08456646
-0.069138095 0.12011999 -0.04732518 0.06294301 -0.108769014 0.17226854 0.089311615 0.026761902
-0.037420217 0.032441657 -0.10192213 -0.08682071 0.09096756 0.051617093 0.19266878 -0.10133513
0.2096671 0.20899342 0.04409492 0.14627966 0.18097492 0.005319329 0.13813812 -0.1063502
-0.07052831 0.05774704 0.064613715 0.18960616 0.042876773 0.07490131 -0.115637355 0.05668117
0.18310626 0.1599289 0.0608751 -0.097356334 0.06423885 0.042279188 0.09399178 -0.06637419
0.119994536 0.072403066 0.18559347 -0.086157784 -0.1122532 0.22533278 0.2132136 -0.12204911
-0.0298612 0.13547212 -0.13527785 0.07653535 -0.07300919 -0.109973125 0.030930365 -0.019504247
-0.06897571 0.069232136 -0.013177935 0.12229242 -0.10675883 0.17228363 0.033917096 0.021251177
0.13281702 0.016199337 0.19762181 0.02964288 -0.10457664 -0.10327686 0.08592953 0.13128999
0.13793744 -0.12466882 0.17662287 0.1147314 0.05276792 0.030948928 0.18367627 0.07347929
-0.11901666 0.20349471 -0.10727359 0.11257468 0.17700136 -0.035079073 -0.059006043 -0.0670832
0.063581735 -0.06500889 0.0016261697 -0.09699547 0.021263177 -0.1664495 0.03355553 0.10926735
-0.08002084 8.36815e-05 -0.033446006 0.018848807 0.1679901 -0.01201097 0.054701865 0.15445034
-0.05706942 -0.038665425 -0.07633308 -0.04263722 -0.030483074 0.04363191 0.07186228 0.09438452
0.108985685 0.046459682 0.02256347 0.14757286 0.053299867 0.047869246 0.07582243 0.039196942
-0.033635817 0.12895684 -0.14091107 0.07647187 0.028215118 0.21934938 0.0151680615 0.21858896
0.12685347 -0.12280126 -0.10563885 -0.066811256 -0.053272553 0.086430304 -0.051878233 -0.12566349
0.14003867 -0.14593151 0.032297175 0.13743891 0.10719413 -0.068026 0.18104601 0.026727458
0.12740985 0.06587476 -0.071485646 0.014535297 0.032600798 0.14968388 0.03558289 0.10040289
-0.07761718 -0.008271378 -0.073154755 0.20232517 0.0034878186 -0.10349918 0.03451388 -0.010135782
-0.013619713 -0.035697013 0.01900657 -0.017228635 0.20075256 0.16295625 0.06689783 0.13520044
0.18952653 -0.018928984 -0.06600962 0.17149156 -0.0073972964 -0.10204009 -0.05668037 0.16992666
-0.108578116 -0.020263435 0.037265807 -0.04461966 0.07331375 0.14326665 -0.010692171 0.056388345
0.13026123 -0.06720182 0.06042887 0.19603178 -0.07595989 0.12846547 0.18104598 0.039434124
0.11398321 0.09913629 -0.1278068 -0.11465221 -0.07770197 0.011356555 0.097079195 0.14916942
0.072825775 0.0006163872 0.1596805 -0.12413773 0.17117794 0.17403898 -0.050330754 -0.068332955
0.10311351 -0.12797503 0.0671495 0.15493752 -0.058188748 0.17292875 -0.014240548 -0.044715818

network_aging.lstm.weight_hh_l0 f4 [128, 32]
00000000: cca1 1bbd 5ff3 1dbe ffeb 1e3d c570 043e
00000010: 8fea 1c3e d565 0ebd c29b d4bc b3de 0ebc
00000020: c3d9 333e 868f ea3c cc23 dabd f297 2abe
00000030: 7126 22be 3b0b 9bbd b257 0c3e 6790 2cbe
00000040: e3bd c3bd db48 86bd 91b1 60bd 1e1a 0e3e
00000050: 821b 993d 3d87 13be 8993 153e 330e a1bd
00000060: c822 593d 7bee a5bc 27dc 2dbe 23b2 04be
00000070: ceb0 8d3c 8dde 82bd f2b3 413d 1998 343d
00000080: 3fce e1bd 70d3 ddbd 22aa 843d 9fa0 57be
00000090: f797 7d3d 341c 5a3e 2d66 9e3d 90f9 283e
000000a0: bedb 953d 4d21 0f3e 8086 de3d b1d5 b83d
000000b0: bc6e 62be 46ee ccbd 355b 45bc fd11 c43d
000000c0: 8d82 093d 8e55 00bd c277 ce3d e08c 89bc
000000d0: e796 32bd d51f 683e cee3 193e 0439 21be
000000e0: 7136 7abe 6bc5 373e daa6 053e cb26 5e3d
000000f0: 2257 d53c e765 f8bd 509c c0bd f526 073e
00000100: 4a4e 60bd 8e2f 033d 7b5f c33d 4264 45be
00000110: 636e c1bd 63a0 933c 7464 cf3c bf38 b83d
00000120: 085f 073e 8f27 ef3d a2fa 853d 4163 ddbd
00000130: 1a42 86bd f939 1e3d cacf e0bd 8f83 4ebe
00000140: 889a 45bd c0ec 57be a125 0f3d 805c 923d
00000150: 3939 6fbe ac9b d83d 19c5 dc3c 0341 373c
00000160: 7464 dcbd a620 623e d655 5abd 94a5 34be
00000170: 6e4b 20bd 1ac1 883d c65d b4bd 6111 0d3e
00000180: 003d c23d 61f0 16bd d932 d6bd 1255 7e3d
00000190: 52b9 7a3e 7574 a23d 8ac5 4e3d bfb9 1f3e
000001a0: af5b 4f3e fc8e 9b3d 3b70 28be d546 ccbc
000001b0: 00de ac3d c693 623e 859d c53d c8a9 b03d
000001c0: 1966 babc 04a3 d23d a820 04be 81c1 c0bc
000001d0: 38a1 17be f56f 3d3d 4d22 dcbd 1e6c 58be
000001e0: d13e dabc bd70 e93d 59dc 11be 3271 55be
000001f0: d83c 583d 0553 613b d129 103e 7dea a73d
00000200: 4770 bc3c 3d7a 73be 9765 2ebd c664 133e
00000210: 72cf cfbd 7928 01ba 8b13 b63d 9c20 4f3d
00000220: c0e8 d33d 7a58 9dbc 31d3 1cba 1035 0dbe
00000230: bcbe 9b3d 54b2 15bd a3c6 6abd 0ebe 14be
00000240: 17c0 35be ca42 d43d ff31 06be f247 89bd
00000250: ad8d 2abd 6378 c7bd 97fd 823d b0f2 d3bd
00000260: 4a4d f4bb 3e45 62bc 1217 1d3e 320e 613d
00000270: 38f1 863c 8ce8 88bd a45a 9c3d c7f9 3a3e
00000280: 4b98 23be d2c6 3ebe a6bc 263c 4f83 1bbd
00000290: 067c fd3d 4e45 363e fbe9 5a3e a547 093e
000002a0: 2d03 a33c 6a4f ea3d 3699 13be bfe5 8c3d
000002b0: a056 05be aa56 c83c 8e0a 34be c53f 253c
000002c0: f7a9 243c 4453 39be e2a6 adbd 3ab9 283d
000002d0: c3eb 6a3d 7b33 2e3e 9ee6 1d3e 4838 7cbe
000002e0: 4444 88bd c31a a1bd 7c53 433c 618d 3bbe
000002f0: 7f03 bfbd 2db0 8bbd 9a3c 1f3e e44f b03d
00000300: 696d 29be abaa 28be 7dcc db3d e2f9 3ebe
00000310: 5617 a2bd 02e6 9b3c d3dd 1b3d 6ca7 e13d
00000320: 59be acbc 0347 abbd 4e4c ffbd 6fd3 d3bd
00000330: 6ad5 30be fcde a53c 867f e9bd aba2 473c
00000340: dcbf 26bd a925 4bbd 5ced 633d 386b ca3d
00000350: 114c e6bd c13f 703d 82c6 313e 891d edbd
00000360: 44fe 013d e4ef 0c3e c8d9 b9bb afb9 dfbd
00000370: ef46 e03d 1ebb 983d 8927 583e 7fef 7b3d
00000380: cf99 1dbe b88d 8c3d a9d8 393e 1a02 be3d
00000390: 6d00 e6bd 9ef3 093e 03ef ae3c f7db 92bd
000003a0: 4f46 91bd 3b10 d9bd 9e4a 043d 2d92 61be
000003b0: 16c7 903d ed40 103e ec40 363e 35f1 0dbc
000003c0: a56e c23c 13fe 63be c736 08be 5c4a 4b3e
000003d0: 5f6a 54be f1cd 763d db1e 163e 0bfc e43d
000003e0: c8c9 95bd e8b8 213d c083 0cbe af2c 07be
000003f0: 5738 6a3e 09b3 753c edde 943c b653 313e
-0.0379961 -0.1542487 0.038799282 0.12933643 0.15323852 -0.034765083 -0.025953177 -0.008720088
0.17563538 0.02863289 -0.10651359 -0.16659525 -0.15834977 -0.075705014 0.13705328 -0.1685196
-0.095577024 -0.06556865 -0.05485684 0.1387715 0.0747595 -0.14407058 0.14607061 -0.078640364
0.053011686 -0.020255318 -0.16978513 -0.12958579 0.017296221 -0.063901044 0.04729075 0.044090364
-0.110256664 -0.10831344 0.06477763 -0.21057366 0.061912503 0.21299821 0.07734332 0.1650145
0.07317303 0.13977547 0.108654976 0.090251334 -0.22112554 -0.100063846 -0.012045671 0.095737435
0.03357177 -0.03133159 0.10081436 -0.016790807 -0.043600943 0.22668393 0.15028307 -0.15744406
-0.2443483 0.17946403 0.1305193 0.054236215 0.026042525 -0.12128811 -0.09404814 0.13198455
-0.054762162 0.032027774 0.09539696 -0.19276527 -0.09444883 0.018020814 0.025316454 0.089951985
0.13219845 0.11677467 0.06541945 -0.10809947 -0.065555766 0.038629506 -0.109771326 -0.20167373
-0.048243076 -0.21086407 0.034947995 0.07146549 -0.23361672 0.10576567 0.026949452 0.011184934
-0.107613474 0.22082767 -0.053304516 -0.17641288 -0.039134435 0.06677456 -0.08806948 0.13776161
0.09484291 -0.036850337 -0.10458917 0.062092848 0.24484757 0.07932369 0.050481357 0.155982
0.20249818 0.075956315 -0.16449063 -0.02493612 0.08440781 0.22126684 0.09649185 0.08626133
-0.022753762 0.10284999 -0.12903082 -0.02352977 -0.14807594 0.04624935 -0.1074873 -0.21134993
-0.026641281 0.11398456 -0.14244212 -0.20843962 0.0527924 0.003438176 0.14078452 0.08199022
0.023002757 -0.23777099 -0.042577352 0.14393911 -0.10146989 -0.00049269904 0.08890446 0.050568208
0.10347128 -0.019207228 -0.00059823977 -0.13789773 0.07604739 -0.03654702 -0.05731834 -0.14525625
-0.17749058 0.103643015 -0.1310501 -0.067031756 -0.04163902 -0.09739759 0.06396025 -0.10349023
-0.0074555026 -0.013810454 0.15340832 0.05494518 0.016472444 -0.0668498 0.07634476 0.18259345
-0.15976064 -0.18630531 0.010176813 -0.037967023 0.12377171 0.17799875 0.21378319 0.13406236
0.019898975 0.11440928 -0.14413914 0.06879758 -0.13021326 0.024455387 -0.17582151 0.010086005
0.010050288 -0.1809817 -0.08479096 0.04119227 0.057353746 0.17011826 0.15420005 -0.24630845
-0.06653646 -0.078664325 0.01192176 -0.1831565 -0.09326839 -0.06820712 0.15550461 0.08608988
-0.16545643 -0.16471355 0.107323624 -0.1865001 -0.07914607 0.019030575 0.038053345 0.11018261
-0.021086859 -0.08363154 -0.12465726 -0.10343062 -0.17268911 0.020247929 -0.11401276 0.012184779
-0.040710315 -0.049596462 0.055646285 0.098837316 -0.11244977 0.05865455 0.17360881 -0.11577899
0.031736627 0.13763386 -0.0056717135 -0.10924088 0.109510295 0.07457565 0.21108831 0.0615077
-0.15390705 0.06862968 0.18149056 0.092777446 -0.1123055 0.13471839 0.021354204 -0.07170861
-0.070934884 -0.10598799 0.032297723 -0.22028418 0.07069223 0.14087267 0.17798203 -0.008663465
0.0237344 -0.2226489 -0.13302146 0.19852585 -0.20743702 0.060254995 0.14660208 0.11180886
-0.07313877 0.03948298 -0.13722134 -0.13200639 0.22873054 0.014996299 0.018172706 0.1731709

network_aging.lstm.bias_ih_l0 f4 [128]
00000000: 42ca 32bb 84f6 6e3d 99e4 af3c a4dd 893d
00000010: 62be 5d3e 7232 ddba 5c88 24bd 8b93 ae3d
00000020: 2075 e13d 3c01 84bd 1971 5c3d 01f7 85bd
00000030: 1e62 123d b5c4 9d3d 769a 3a3e dd88 993c
00000040: b77b f3bd 5e39 6dbd 4904 4d3e b1e1 0d3e
00000050: 9d11 d3bc f939 293d 117a e9bd ceda 87bd
00000060: 4c26 6c3d 02d8 84bd 0b31 af3c bd15 693e
00000070: 4cc4 353e cd5b f63d 0ebe 053e 7ad2 3e3e
00000080: 2dcc 4d3d d612 eb3c f8bb bebd 4c09 06bd
00000090: 9fba e93d bce1 0cbd 1967 5a3e 16c1 e5bd
000000a0: 582d f9bc f68d 95bd 8185 9fbc d060 1b3e
000000b0: 9e84 3ebd 75e1 b1bd df7a bfbd d282 143e
000000c0: 45c8 153e 3af2 7a3d 4c2f a03d 7fbd ad3d
000000d0: 8446 293b 904a c43d 0dab f7bb d8b5 0f3e
000000e0: 23fd 36bd 7259 1d3d fd29 a33d 0479 683e
000000f0: f244 003d edda e2bd 35e2 c63c 2bcf dbb9
00000100: 12f4 4f3d 42d0 a8bd 9185 6a3e 0abe cc39
00000110: 68ce f3ba 8044 a5bd 7782 373e 0017 143e
00000120: 152f 073d b01d 3e3e 5b8f cdbd 88fd c4bd
00000130: 2e3a 18be ae30 473e 706c 443e d6e3 3abe
00000140: 9a15 9ebc 984a cd3d 2480 fcbd 8813 423e
00000150: 5090 b3bd cc63 393e 004e 933d 11c3 19be
00000160: 5914 5bbe 7f63 09bd bc38 86bb 0b16 72be
00000170: 3063 1b3e cc83 2ebe 5b39 e03d 965b 603e
00000180: 106a 80bd 8c54 1a3e 9dd2 7a3e 7b56 dfbc
00000190: 32a8 643e aaf4 953d e9fd a8bd 9dab 78bb
000001a0: bb21 753e da9d ab3d 2e4c 123d c790 9fbd
000001b0: 6f25 1d3c 5ff4 ed3d 80be c4bd 4e17 ee3c
000001c0: 2182 f03c 4d1b 213c 0844 ef3d 3842 883e
000001d0: 6b30 d33c 219b 563d e2ee ccbc 7ef6 db3d
000001e0: 2635 673e 3635 643b 573a 1e3e 533e da3d
000001f0: a321 7e3d ed3b 3cbd eac6 afbc 51f1 6c3d
-0.00272812 0.058340564 0.021471309 0.06731728 0.21654657 -0.0016875996 -0.040169105 0.08524235
0.11008668 -0.06445548 0.053818796 -0.06541253 0.035738103 0.077035345 0.18222985 0.01874202
-0.11888831 -0.057916038 0.20021166 0.13855626 -0.025765235 0.041315053 -0.114002354 -0.066335306
0.05765371 -0.06486513 0.02138569 0.22762199 0.17750663 0.12029228 0.13060781 0.18634978
0.050243545 0.028695505 -0.09313196 -0.03272371 0.11412548 -0.034394965 0.21328391 -0.11218469
-0.03041713 -0.073024675 -0.01947284 0.1517365 -0.046513192 -0.08685581 -0.09349608 0.14503029
0.14627178 0.06126616 0.07821521 0.08483409 0.0025829384 0.09584534 -0.0075582326 0.14034212
-0.044675004 0.03841538 0.07966993 0.22702414 0.03131575 -0.11076913 0.024277786 -0.00041925287
0.050769873 -0.08242847 0.22902514 0.00039051502 -0.0018600943 -0.08069706 0.17920862 0.14461899
0.033003885 0.18566012 -0.100371085 -0.0961867 -0.14865944 0.19452164 0.1918199 -0.18250975
-0.01929741 0.10023993 -0.123291284 0.18952763 -0.0876776 0.18104476 0.07192612 -0.15015818
-0.21394481 -0.033542152 -0.0040961187 -0.23641221 0.15174556 -0.17042464 0.1094844 0.21909937
-0.0627023 0.15071315 0.24494405 -0.027262917 0.22329786 0.073220566 -0.082515545 -0.0037944086
0.23938648 0.08379717 0.03571718 -0.07791286 0.009591444 0.11618876 -0.096066475 0.029063847
0.029358925 0.009833169 0.11682898 0.2661302 0.025779923 0.052394036 -0.025016252 0.10740374
0.22578868 0.0034821755 0.15451942 0.10656419 0.062043797 -0.045955587 -0.021457154 0.057847325
