trained_model/mc1_mc2/60_days_lookahead/pnet_checkpoint/pnet_online_900.pth (torch, 545278 bytes, 36 tensors)

network_smart.layer1.0.weight f4 [128, 330]
00000000: 8edb 363d 8525 fc3d 00c3 ac3e c5df 283d
00000010: a78f f93f f7d4 37be 61c7 e8bf 4d58 733d
00000020: 5bd4 dabd 7381 f43f ee97 4d3e c58a 04bd
00000030: 9fac 773d eebd 8f3e e2b6 563d 40a0 fe3f
00000040: 3017 52be fc8f efbf 0c7e 9d3c e20f 59be
00000050: 400c f93f 4278 113e 303b 23bd cbde d93d
00000060: 8901 da3e 412b cebb bad0 f13f 540d 31be
00000070: f6b9 eabf 7881 023d c722 773e 6763 f73f
00000080: e778 6d3e 641d ed3b 9ccb 873d 3aa6 c53e
00000090: fac1 97bb ed08 f63f 65fd 07be 5897 f1bf
000000a0: f8ac 743d 65c5 3cbe 164d f83f 8b1f 5a3e
000000b0: e8cd b63b 870c 013e 2808 b13e 7e16 20bd
000000c0: 0954 ef3f 908c a9bd 4587 e8bf 38da b5bc
000000d0: 21c7 aa3d 4447 f53f 0926 6c3e 2018 433d
000000e0: 07f6 be3d ed80 a63e 7c93 08bd 30fe fc3f
000000f0: 9b49 c1bd 4e2e e8bf a527 7abc 02f0 5ebd
00000100: b2f8 fc3f 15b7 523e 0df4 34bd bb57 a83d
00000110: 3727 bf3e ecbe ec3c baf4 f23f e757 84bd
00000120: 3ca9 e7bf e4d2 433d 93ad e43d 1d8a f63f
00000130: 9327 893e 356a 00bd c71f e53d 04b7 9c3e
00000140: 38e2 353d 825f f93f 0c7e d9bd d41b e4bf
00000150: e303 c63d 2309 bd3e f697 f93f ee7e 9b3e
00000160: 10ab fd3c 6b34 693d 9b2a 663e c775 413d
00000170: 5b06 f43f f7dd 9ebd e56c e7bf ddab 573d
00000180: 7b2d e1be 2844 fb3f fe64 773e feb5 733c
00000190: 59f4 273e 5de2 393e 25a1 cbbc f677 f73f
000001a0: 46ec 68bd 85c0 e2bf 638e bcbb 1a40 b8bd
000001b0: 58b9 fd3f 5cc0 aa3e 884d 173b ca49 a43d
000001c0: 1b3b 7d3e b97c 033d fd7d f93f d66d f7bd
000001d0: 65c4 e5bf 6f2b d43d cfe6 c23d d637 f83f
000001e0: 5488 923e 5863 9c3c a175 b23d e3dc 583e
000001f0: e36b f73b c8ec f13f 2117 a8bd 32fd e9bf
00000200: 6240 a93d 5774 5b3e 7046 f83f 9884 a73e
00000210: 19fb 8ebc 8a8d cf3d 9235 da3d 7f0c 413d
00000220: 33cc fc3f 035e bcbd da0e eabf 454d 8b3d
00000230: ddf4 7ebd b0c5 0040 9994 cd3e b2c9 1abb
00000240: 743d 0f3e cf28 1f3e b953 953c 0747 fa3f
00000250: 293b 3cbd d43c e9bf 3a29 d13d bb49 b73d
00000260: 879e 0040 8975 153f 61cc 5c3d 38ce 283e
00000270: ca72 d53d 2223 0ebb 7452 0040 3633 28bd
00000280: 0fdb e3bf 6c59 c23d 42c5 efbc f043 f63f
00000290: e21a 0b3f 5042 f3bc e815 a53d d1bb da3d
000002a0: 5397 38bd c154 0140 2c62 d2bd 9287 e6bf
000002b0: f8b8 b43d 19fd 9e3d 46bd 0040 988a 223f
000002c0: 2d22 82bc d08d 123e d147 443c b073 0cbd
000002d0: c3f0 0440 634d ffbd 7dcb ebbf e481 ff3d
000002e0: ecbe 60bb 65f2 0540 c998 2c3f 328e ecbc
000002f0: 0072 2f3e dfc0 b1bb a2b1 fbbb d226 1e40
00000300: a898 58bd 2468 ebbf f830 8c3d b6df 503e
00000310: cb6f 2140 2bca 623f fdbc 793c e0e7 163e
00000320: 3adf 8f3d 06cf 02bd ef83 1f40 ce9a 2abd
00000330: 027d eebf 6790 963d b7ea 05bd 4ebf 2440
00000340: 6ed7 723f 7102 233d a794 083e cc04 8b3d
00000350: 4fe9 9b3d 27bc 2340 f3ba b2bd 1f61 eebf
00000360: c3d5 7e3d 6513 3c3e f25f 2040 c018 803f
00000370: 53bf 0dbd ce52 f13d 25c9 223d 3414 013d
00000380: dc08 1a40 bd28 e5bd 4bea eebf 714c a63d
00000390: 9846 a83d 64a5 1e40 83cc a83f ad23 213d
000003a0: e990 013e a4f3 6ebb c1eb 8b3d bbd9 1f40
000003b0: 4e4f 7bbd 4a41 efbf f215 063e b8a8 b63d
000003c0: 4ae8 2040 387b ce3f bda9 debc d392 543e
000003d0: 4d0d dd3b bcaa 4f3d 224b 2a40 07de 8abd
000003e0: d2b3 ecbf 04e5 d33d 8912 28bd 60df 2940
000003f0: aa42 de3f ba60 993c aa35 083e 8690 19bd
0.044642977 0.12311844 0.33742523 0.04122903 1.9496964 -0.17952333 -1.8185846 0.059410382
-0.10685035 1.9102005 0.20077488 -0.032358903 0.06046736 0.28074592 0.052420504 1.9892654
-0.20516658 -1.8715816 0.019225143 -0.21197465 1.9456863 0.14206031 -0.039851367 0.106381975
0.42579296 -0.0062917774 1.8891823 -0.1729024 -1.8338001 0.031861752 0.2413436 1.932721
0.23190652 0.0072361697 0.06630632 0.38603383 -0.004631278 1.9221474 -0.13280256 -1.8874311
0.05973527 -0.18434675 1.9398525 0.21301095 0.005578745 0.12602435 0.34576535 -0.03908395
1.869752 -0.08278763 -1.8166281 -0.022198781 0.08338762 1.9162374 0.23061384 0.04763043
0.0932427 0.32520238 -0.033343777 1.9765072 -0.09437867 -1.8139131 -0.015268241 -0.054428108
1.9763396 0.20577653 -0.044178057 0.08219858 0.37334606 0.028899632 1.8980935 -0.064620785
-1.8098521 0.047808543 0.11165919 1.9260899 0.26788005 -0.031351287 0.11187702 0.3060838
0.044405192 1.9482272 -0.10619745 -1.7820992 0.0966871 0.36921033 1.94995 0.30370277
0.030965358 0.056934755 0.2247719 0.04723146 1.906444 -0.0775718 -1.8080107 0.052654136
-0.4398001 1.9630175 0.24159619 0.014874933 0.16401805 0.18152757 -0.024857113 1.9333484
-0.056865953 -1.7715002 -0.0057542785 -0.089966014 1.9822187 0.33349884 0.0023086984 0.08021887
0.24729578 0.032101367 1.9491574 -0.120814964 -1.795056 0.10359847 0.095166795 1.939204
0.28619635 0.01909034 0.08713842 0.21178012 0.007550703 1.8900385 -0.082075365 -1.8280394
0.08264233 0.21431099 1.9396496 0.32718349 -0.017453717 0.10134418 0.10654749 0.047131058
1.9749817 -0.09197619 -1.8285782 0.06801847 -0.06224524 2.012066 0.40152434 -0.0023618755
0.13988286 0.15542911 0.018228399 1.9552926 -0.045954857 -1.8221688 0.102129415 0.0894961
2.0096757 0.5838247 0.05390585 0.16484916 0.10422285 -0.0021688421 2.0050325 -0.041064464
-1.7801226 0.09489712 -0.029268865 1.9239483 0.54337895 -0.029694706 0.08060819 0.106803544
-0.04506619 2.020798 -0.10272631 -1.8010123 0.088243425 0.07763118 2.0115523 0.6349273
-0.015885437 0.1431191 0.011980013 -0.034290016 2.077195 -0.12465932 -1.8421475 0.124759465
-0.0034293486 2.0929196 0.6742063 -0.028876398 0.17133331 -0.0054246034 -0.0076810876 2.4711194
-0.05287996 -1.8391156 0.068452775 0.20397839 2.5224483 0.88589734 0.015242812 0.14736891
0.07024999 -0.031935714 2.4924276 -0.04165154 -1.8631899 0.07351761 -0.032694545 2.5741763
0.9485997 0.03979725 0.13337956 0.06788024 0.076128595 2.558359 -0.08727064 -1.8623389
0.062215578 0.18366773 2.505856 1.0007553 -0.03460629 0.11783372 0.039742608 0.031513408
2.4067907 -0.11189411 -1.866525 0.08120049 0.0821659 2.4788446 1.3187412 0.039340664
0.12652935 -0.003646114 0.06832076 2.4976642 -0.061354928 -1.86918 0.13094309 0.08918899
2.5141778 1.6131353 -0.027180547 0.20759134 0.0067459703 0.050699934 2.6608357 -0.067806296
-1.8492377 0.10346416 -0.0410333 2.6542587 1.7364094 0.01872288 0.13301721 -0.037491344

network_smart.layer1.0.bias f4 [128]
00000000: d4ea 46bd 4fcd 71bd 2773 b93d ab0b 74bd
00000010: d376 cf3d 4d5e 5cbe fdb0 693d acd4 6a3c
00000020: 5b93 a2bc 9f48 7abd edfc 093c 20be 39bd
00000030: e246 8fbd 95cc 23bd b666 c6bd f9a6 2cbe
00000040: f9f7 6fbe 6913 a0bd a303 d3bb 0929 3e3e
00000050: 8137 92bc e6c9 453d 2dc4 c03d dde3 18bd
00000060: d9c6 0b3e 9ff4 7dbe 50d0 3c3e d517 39bd
00000070: b06d 13bc 337b b9bd ac57 333d b041 7d3d
00000080: a054 753d 0478 0c3e 71f1 c9bd 6109 0e3e
00000090: 21b9 a73d 923a 84bd 10d4 0c3e eb99 47bc
000000a0: 5f07 8ebc 406a 153d effc bf3d d6c7 113b
000000b0: 3b1e 8fbc d2da 293e e3b5 963c 146d 6c3d
000000c0: 205a 5abd feec bb3d 326f e53d 4e38 8f3b
000000d0: 2a45 c13d e66c b63d de15 17bd b221 103e
000000e0: 7f2f 2cbd bd79 8e3b 36dd 7cbc b47d df3b
000000f0: b3b0 c0bd 4d55 0abc 99ca 08be 10ce 863c
00000100: 6894 6ebd 2926 983d 05b7 f23d c30f 65be
00000110: 6517 943d d00a 16bc b991 d83d eca9 f3bc
00000120: b1c8 cc3d 601d a83d 4191 04be 69e6 14bd
00000130: c25a 133e a027 3dbc 1536 c63d a02d b7bb
00000140: 0aa9 863d bd08 0ebe 17e8 da3d 7371 753d
00000150: 433b 083e 2229 45be f356 173e 6d33 9bbd
00000160: 80af df3d 89e0 7a3d bd3a ebbc a845 e63c
00000170: a8b4 893d 0f85 da3c c6ce ca3d fbf2 c23d
00000180: 93f9 ba3d a09d a9bd 460f ca3d 66bb fabc
00000190: 8c92 76be 6ec8 d73d efa6 65bd 1033 b43b
000001a0: b272 bb3c ded0 4abe b41d bc3d e8d8 993d
000001b0: 7256 8bbc 52a4 9bbb 5211 e33d a908 643d
000001c0: 63f2 09bd 0b7b dbbc 40d1 b53c fadb a8bc
000001d0: 9a2d 6fbc 1312 38bd 0f7d fb3d a81e 623b
000001e0: f9d3 583d 792e 973b 463a 903d 3079 78be
000001f0: 7758 64bd 8fe3 0abd 7138 e33d e549 d43d
-0.048563793 -0.05903369 0.09055167 -0.05958144 0.10130086 -0.21520348 0.057053555 0.0143329315
-0.019845655 -0.061104413 0.008422119 -0.045347333 -0.06995942 -0.039990027 -0.09687559 -0.1686057
-0.23434438 -0.07816202 -0.0064396425 0.18570341 -0.017848732 0.04828825 0.094124176 -0.037326682
0.13650073 -0.24800347 0.1843884 -0.045188744 -0.0089983195 -0.090567015 0.043784782 0.061830223
0.059895158 0.13717657 -0.098605044 0.13870765 0.081896074 -0.06456484 0.1375277 -0.012182693
-0.0173375 0.03647828 0.09374415 0.0022244356 -0.01747047 0.1658738 0.018397277 0.057721213
-0.053308606 0.09176062 0.112028494 0.0043707257 0.0943702 0.089074895 -0.03688609 0.14075354
-0.042037483 0.0043480084 -0.0154336 0.006820405 -0.09408703 -0.008443189 -0.13358535 0.01645568
-0.058247 0.074291535 0.118513145 -0.22369294 0.07231025 -0.009157851 0.105746694 -0.029744111
0.09999216 0.08208728 -0.12946035 -0.03635255 0.1439009 -0.011545092 0.09678284 -0.0055901557
0.065752104 -0.13870521 0.10688799 0.059922647 0.13303857 -0.19253972 0.14779262 -0.07578168
0.10922146 0.06124929 -0.028714532 0.028109387 0.067239106 0.026674775 0.0990272 0.09519001
0.09129634 -0.08282018 0.098661944 -0.030606937 -0.2407934 0.10536276 -0.056067403 0.005499251
0.02288184 -0.19806239 0.09185353 0.07512075 -0.017008994 -0.004749813 0.11087288 0.05567232
-0.033678424 -0.02679207 0.022194505 -0.020612705 -0.014598275 -0.044939112 0.122797124 0.0034503136
0.052936528 0.0046136943 0.07042365 -0.2426498 -0.05574843 -0.033908423 0.1109475 0.10365657

network_smart.layer2.0.weight f4 [128, 128]
00000000: db5e cb3d a517 903c 9e4d 42bc 8e16 dc3c
00000010: da1f cb3d 83a8 69be 3b3d 9ebd d9cf 083c
00000020: fc34 0abc 1b0c 8f3d 1b6e 1c3d dcd8 e33d
00000030: 4c06 2cbd e4ae dabd 3b40 42bc 7366 dd3e
00000040: 0135 9abe 342a 40bd 26f5 383d 2588 43bc
00000050: 8b94 563b 24ce 3f3c 43aa a43d 688c a5bd
00000060: 902f 4a3b 2d11 b0bd 13b9 023e ad2f 8c3c
00000070: 5d81 78bd 23e6 06bf ca4b 2abe 04f7 febd
00000080: f129 d33c e93f b03c 8b12 473d a274 c13d
00000090: 2c88 a43d b697 f1be b5c7 adbc 3865 2fbd
000000a0: 11af 6c3d 3034 22bd 9d97 bbbd a922 21bd
000000b0: 58a4 a43d c3c9 183c 3b0d d8be dcd5 f0be
000000c0: 5d1c 1ebd 4d44 d23d a73c bbbd 08de c23d
000000d0: de15 d8bd 5d48 00be bb47 803d f729 1b3e
000000e0: ac5a aabd 3e51 70be 361c 0c3e e8b0 f2bd
000000f0: 6024 54bb 6f11 f0bd 7b9d 193e 3393 2a3d
00000100: e802 673d 96a2 813c fe51 08be 63a1 20be
00000110: afed 6ebe 344c c4bd ffc6 d63d c440 9c3d
00000120: 19fb 2fbb d2d8 2a3d 13c4 e43d 11cd 9a3b
00000130: 988f 4f3d ea3d 31bd 1012 25bd 93f0 503d
00000140: a0b0 abbd 2674 ae3d 6317 9dbd e745 8cbb
00000150: b1c4 4abd 412b 093e dc75 3e3e e970 513e
00000160: e69f 193e a9bd 28bd 2209 edbc e388 e7bc
00000170: e918 2dbd 3b62 173e 898f 503d 8b94 e8bd
00000180: e27e d63d 45a8 b3bd 45bb 3f3d cccc 10be
00000190: d162 a1be 98be 693d fc34 c13d e3c3 c23c
000001a0: 32cb 2a3d 1ca6 ea3d c753 7abe 9fe5 4cbc
000001b0: dab5 693e 2fa5 a33c 393b 2cbd f4c5 dfbd
000001c0: cca8 90bd f523 fb3d 3b50 9e3d e9ce 56bd
000001d0: 6ce5 343d a143 833d 80bb 7f3c bd9e d2ba
000001e0: fc76 9d3c 60be 193d 5d82 4bbe b6f6 343d
000001f0: 8422 823d fa19 b9bd ee2f 053e fe41 b13c
00000200: 58ce 7f3a 1a46 4d3d 61e3 81bb e0ef 19bf
00000210: e3b4 163b a3fc f5bd 5ca1 4abd 3056 60bc
00000220: ad8a aa3d 4f56 6d3d 1d66 743d 2e23 5e3d
00000230: b89d 14bd 0fbc 8dbc b4f1 84bc 4d9c 843e
00000240: c890 8abe 46ed 1a3e b939 16be 8ba2 583c
00000250: fb95 ab3c a562 14be a0ef 8bbd c1bf 933d
00000260: dcbb eabd d17c 03be 9d00 033e 86c8 2fbd
00000270: 1a3c d63c bd29 313d 4a01 2fbc 21ef cd3d
00000280: 0b66 d83d 419d 6e3d cf77 88bb a4d3 e4bd
00000290: 51d3 1f3d 1e5a a13e 73a4 933c 23aa 693d
000002a0: 2dc1 343d 047f 59be 9447 2d3c 6e67 763d
000002b0: 6c65 62be 41ad 92bd 7b76 253c 95ab 86be
000002c0: a00b 203c 0148 5bbe b68c b63d 8d2d 183d
000002d0: f06a a9ba b2e7 bfbc 5b15 12bd 65b5 213d
000002e0: 42aa 82bc 3156 b3bd 3acc 623d 1253 3a3d
000002f0: 5493 6c3d 31e6 19bd bfc5 1f3e 3306 8f3d
00000300: 23dc 143e 31ac e6b9 0103 1dbe 17e1 09bf
00000310: 8234 163e 4469 c63c ff3e 813d 7e0d 20bd
00000320: 6f9b 02bd 319e 2e3e b200 71bd e554 9dbd
00000330: 53cc 3ebd 1768 a7bd 9523 3e3d 3a16 84bd
00000340: f4bf aebe 9eb8 1b3e 5ac2 d13e 43cd 6b3d
00000350: 342e 9cbd d675 17be 36ff e73d 295a e7bc
00000360: e71a aa3d de59 8dbe 3cfe 033c 7441 df3d
00000370: 40f6 033d 4fef 223c e61b dc3d 33bc a13d
00000380: 96ea 48bd fb98 93bd 804b 0bbe d5ff b13c
00000390: 8f35 91bb 134e 2abe f5ab 9abd 530f a43d
000003a0: 5308 e83c e069 8c3e 97e6 083e 3c6f a3bd
000003b0: 117b babe 56bb 943d f88b c53d 8a68 8c3d
000003c0: 6c0f 99bd 28b0 913d 6a4b 82bd 7ffb edbc
000003d0: 2dec 0f3a 75d7 15bd a065 f13c fe71 a63c
000003e0: fd33 a83d 0ee8 8fbd b1ee bebc 2057 d23c
000003f0: d89b 2a3d 70fd 0339 2e4d dd3c d15c 31be
0.099302016 0.0175894 -0.011859326 0.026866224 0.099181846 -0.22818188 -0.077265225 0.008350336
-0.008435484 0.06984731 0.038190942 0.11125347 -0.041998193 -0.10677889 -0.011856134 0.43242225
-0.30118564 -0.046915248 0.045155667 -0.011934315 0.0032742347 0.011706863 0.08040287 -0.08083421
0.0030851103 -0.08597026 0.12765913 0.017112577 -0.060670245 -0.5269491 -0.16630474 -0.12449458
0.025776835 0.02151485 0.04860167 0.09446074 0.08033785 -0.4718606 -0.021213392 -0.04282114
0.057784144 -0.03960055 -0.09159777 -0.039339695 0.080391586 0.0093254475 -0.42197594 -0.47038162
-0.038601268 0.102669336 -0.09142428 0.09515005 -0.10551046 -0.12527604 0.062636815 0.15152727
-0.083180755 -0.23468491 0.13682637 -0.118501484 -0.0032370314 -0.11722075 0.1500148 0.041644286
0.056399256 0.015824597 -0.13312528 -0.15686564 -0.23332857 -0.09584847 0.10487174 0.076295406
-0.0026852547 0.041710682 0.11170211 0.004724153 0.05067405 -0.043271936 -0.04030043 0.05101068
-0.08383298 0.08518247 -0.07670476 -0.004280794 -0.049503986 0.13395406 0.18599647 0.20453228
0.15002403 -0.0411965 -0.028935019 -0.028263515 -0.042260084 0.14783566 0.050918136 -0.11356457
0.1047342 -0.08772329 0.046809454 -0.14140624 -0.31520703 0.05706653 0.09433934 0.023775047
0.04169769 0.11457464 -0.24446021 -0.012505918 0.22823277 0.019976227 -0.042048667 -0.109264284
-0.070634454 0.12262718 0.077301465 -0.05244342 0.044164106 0.064093836 0.015608668 -0.0016069036
0.019221775 0.03753507 -0.19873948 0.044180594 0.063542396 -0.09038158 0.13006565 0.021637913
0.00097582256 0.050115682 -0.0039638733 -0.60131645 0.0022996 -0.12011077 -0.04947029 -0.013692424
0.083272316 0.05794364 0.059667695 0.05423277 -0.036283225 -0.017301587 -0.016228534 0.25900498
-0.27063584 0.15129575 -0.14670457 0.013222347 0.02094554 -0.14490755 -0.06832814 0.072143085
-0.114616126 -0.12840582 0.12793203 -0.042915843 0.026151706 0.043252695 -0.01068146 0.10055376
0.10566338 0.058255438 -0.004164673 -0.1117318 0.039019886 0.31514066 0.018022751 0.05704702
0.04412954 -0.21239859 0.010576148 0.060157232 -0.22109002 -0.07161952 0.010099049 -0.26302782
0.009768397 -0.21414186 0.08913557 0.037152816 -0.0012925547 -0.02342591 -0.035664897 0.039479632
-0.015950326 -0.08756674 0.055370547 0.04548938 0.05775769 -0.037573043 0.15602778 0.06983604
0.145371 -0.0004399731 -0.15333177 -0.53859085 0.14668468 0.024220116 0.06310844 -0.039075367
-0.031886514 0.17052533 -0.058838554 -0.07682208 -0.046581578 -0.081741504 0.046420652 -0.06449552
-0.34130824 0.15207145 0.4096859 0.0575688 -0.07626 -0.14791045 0.113279745 -0.028241234
0.083059125 -0.27607626 0.00805622 0.10901156 0.032217264 0.009944751 0.10747509 0.07897224
-0.049051844 -0.07206913 -0.1360302 0.021728436 -0.0044314335 -0.16631345 -0.075523295 0.08010735
0.028324282 0.27424526 0.13369213 -0.07980201 -0.36422017 0.07262294 0.096458375 0.06855877
-0.074736446 0.07113677 -0.0636204 -0.029050587 0.000549021 -0.03658243 0.029467404 0.020318028
0.08213041 -0.07026683 -0.023307176 0.02567631 0.04165253 0.00012587546 0.027014341 -0.17320563

network_smart.layer2.0.bias f4 [128]
00000000: 4a66 203d 4283 b13c 2c5d e1bb 69ac 983d
00000010: ecc2 c03d de88 833d b009 5b3b c576 713d
00000020: 0ee0 54be 27df 9c3d fca6 003c 8b7f 95bd
00000030: 9aff 313d 68a2 d2bd 36d6 e73c 3b6d d9bb
00000040: 804b 4dbe e833 de3c bfe4 84bb 68f7 09be
00000050: dca9 26bd 83b4 8cbc 213b ba3b b2fb 4cbe
00000060: 6fe4 8a3d f254 223d 3710 1a3d 8a6f 283d
00000070: 23ab d5bc 2270 d1bb 4bfd aa3c c3d7 143b
00000080: d208 053e e48b 59bb 76cb 3b3d 7ec6 66bd
00000090: 658e 41bd 14f3 b0bd fa22 f4bd 459e 52bd
000000a0: 284c f63c d09c a7bc a685 88bd 4128 9dbd
000000b0: 8956 efbd 60f4 30bc 6da7 8bbd b9ed a83d
000000c0: c0a8 b1b9 dcb4 763d 5d24 79bc 6a65 13bc
000000d0: f89c ba3c bbc1 c33c b561 bebc 5095 533d
000000e0: 7482 86bb 4d38 9d3d c124 90bd 30aa 71bd
000000f0: 0d46 073d d0e3 ff3d bf25 253b f5b1 09bc
00000100: 7638 a63d b9f8 3b3d b432 3abe 6695 3d3d
00000110: a481 8cbd 82d6 53bc 07fc 123d c6a5 81bd
00000120: 10ba 1abe 6bb3 42be d6ce 4bbd a184 c53c
00000130: eed1 df3d f887 19bd 807a abbd c537 2d3d
00000140: 830e 62bd 033c b9bd b756 403d 1216 e63c
00000150: 8da6 d7bd 08db 013c 6b88 99bd 07ca e33c
00000160: 2691 c3bd dfcf 00be 3026 00be 6d2a 92bd
00000170: c92d cb3c 3fdf 9abc 5ece 623d cd77 b8bd
00000180: 1b6e a13d fb22 e43d c565 72bb 1b31 6bbd
00000190: 0ecb b43c c72d a6bd a350 88bb 382c c73d
000001a0: a7b9 0f3c 7d45 a33d 0dfa dcbc ab53 60be
000001b0: 3e82 5f3d dda1 c73d ebd3 503d 6fe1 08bc
000001c0: aab7 4d3d 3204 4cbd 0e5b 1ebd 707b 11be
000001d0: 0280 80bd 1dbd 5fbd 176e 7d3d a81b 44be
000001e0: 819f babd 3b02 4f3d b0e6 96bd bc29 0abd
000001f0: da47 763d bdc5 95bb 5a6d f63b 3778 34bc
0.03916005 0.021669034 -0.006877562 0.0745476 0.094121784 0.0642259 0.0033422522 0.058951158
-0.20788595 0.076597504 0.007852312 -0.072997175 0.04345665 -0.10284883 0.028300386 -0.0066353357
-0.20048332 0.02712436 -0.004055589 -0.13473284 -0.040689334 -0.017175918 0.0056833182 -0.20017889
0.067818515 0.03963179 0.03761312 0.041121997 -0.02608258 -0.006391541 0.020872733 0.0022711612
0.12991646 -0.0033194954 0.045848332 -0.05634164 -0.04725494 -0.086401135 -0.11920734 -0.05142047
0.030065611 -0.020460516 -0.066661164 -0.076736934 -0.11686427 -0.010800451 -0.06819043 0.08248467
-0.000338858 0.060231075 -0.015206424 -0.008996347 0.022779927 0.023896089 -0.02323995 0.051656067
-0.0041049067 0.07676754 -0.0703826 -0.059000194 0.03302579 0.12494624 0.00251995 -0.008404245
0.08116238 0.045891497 -0.18183404 0.046285056 -0.068606645 -0.012929561 0.035884883 -0.06330447
-0.1511004 -0.19013755 -0.0497578 0.024111094 0.10928713 -0.037483186 -0.083729744 0.042289514
-0.05518962 -0.090446495 0.046957698 0.028086696 -0.10529814 0.007925756 -0.07496723 0.027806295
-0.09549169 -0.12579297 -0.12514567 -0.07136998 0.024802106 -0.01890528 0.05537259 -0.09007225
0.07882329 0.111394845 -0.003698693 -0.057419877 0.02206948 -0.081142 -0.0041600033 0.09725231
0.00877229 0.07972238 -0.026974702 -0.21906917 0.054567568 0.0974767 0.05098335 -0.008354529
0.050223984 -0.04980869 -0.038661055 -0.14207244 -0.062744156 -0.05462371 0.061872568 -0.19151175
-0.09112454 0.050539237 -0.07368219 -0.033731207 0.060127117 -0.0045706914 0.00752036 -0.01101499

network_smart.layer3.0.weight f4 [48, 128]
00000000: c7d0 db3d d7aa d63c b4ff 1bbe 060c eabc
00000010: b07e afbd d59b 7a3e 5503 a4be 7e00 51bd
00000020: f0a5 b4be 1c9b 2ebe 347e 393e e262 d9bd
00000030: 0e18 a4bd c684 d43d 528d a3bb cb91 403e
00000040: aaef 93be 2642 c13c a478 e0bd 13b4 393e
00000050: 55fc 16bd 0e5c 4a3b f634 28bb 25f3 f6bd
00000060: 94f0 6d3d 3224 d4be 5d15 fc3c 94da 4bbe
00000070: 7205 d73c 665b 3dbe f1fd b63c 2bc1 5c3d
00000080: 66f7 11bd 9f4e 9bbe e9e8 f13d 4df6 8ebd
00000090: 07b7 08bd e138 10be a9b2 0ebe 9452 5ebf
000000a0: 5861 c13d 9cac 483c 8122 f7bc b1ee e4bc
000000b0: db8a 5dbb 9b0e 94be 5b85 d0be 1f63 5c3d
000000c0: 2b10 01be 7f4c 153e c87a 433e 8961 f03d
000000d0: 09e9 65bd 47fc aa3d 7b4d 573e 76b4 043e
000000e0: a00f d33b d468 92be cf7e d7ba 43d6 6a3e
000000f0: 9081 94be f507 1d3d 49c6 a63d cb80 983d
00000100: da84 8d3d 3056 e7bb 1742 9b3e 60d8 51be
00000110: 2bcf 10be f4c8 fa3c 3afc b5bc 2ebf d33d
00000120: 2473 a7be bd1d c1bf cc5e 81bc ce82 29bd
00000130: cd82 773d 8e30 f73c 095a 033b 7aee 0ebd
00000140: adaa 1ebd 3596 71bd 8674 6d3d 2a9f 2c3e
00000150: ada5 75be 37c2 2c3d 3777 ff3e e3c6 0b3e
00000160: 799a dabd faae 81be d991 103f bf42 45be
00000170: 9c28 06be f6b1 ce3c 1d56 c4bc bf36 3f3c
00000180: 64c2 84bb f778 b9ba 2429 1ebf 32b8 8d3d
00000190: 39c4 47bd 7fa2 3dbd bcec 123e 934f dfbe
000001a0: 8a0d 943d 1df3 d6bd 4150 4abe da94 c3bf
000001b0: 2409 743d dbcc d1bd f7a4 6ebe f549 d8bd
000001c0: 7179 943d 880c 05be e996 283d 829b 1bbf
000001d0: da46 86be c160 253d 717c 52be 7ae2 043e
000001e0: 80cc 183d 7912 51be 7352 123c 2bfa a7bc
000001f0: 46b1 d83d 6904 813d 7b7c 1dbc 8bae 16bf
00000200: fa3e a3be c27b e0bd 6048 423d 3582 5bbd
00000210: 6342 76be 329d 323e c12c b53e 0b42 e2be
00000220: ef48 26bf 1ca7 5c3e 8259 e8be 2fb2 2bbf
00000230: 8c9d 17be 5559 a83e 0123 573d 1b00 ea3d
00000240: ee87 d43c ae8b 233d 63fa d13d 1a12 36bc
00000250: 06a4 cebd 4ae6 af3d 0d5f 1cbe ad45 8c3d
00000260: ae40 54bc 962a debf c1b0 e1be 9b59 013e
00000270: d139 a43e fd0a 5d3e c6e2 313e 46cc d73d
00000280: 620d 47be a788 1bbe a595 d2bd 6229 06bf
00000290: 0148 013e 0096 bdbe 4aaa acbd a3c0 8c3f
000002a0: 3353 2dbd 7f6d 8d3d 2c4e fabc 0406 a83e
000002b0: ccd9 70be d13d 42bf 5639 29be 92d6 ef3b
000002c0: 9e1c 8c3d 7fda c43d dcc6 58be 794b 793c
000002d0: 8e40 8c3d f23b 15bd f4d2 263c 8558 043d
000002e0: 8355 3b3e 1af9 e7bf 34b6 54bc 93b4 0c3f
000002f0: 2b4f e6bb bf3c 273e 468e 963e 2926 e83d
00000300: e981 803d 4ddf 21be 3d82 5e3f 6275 2fbe
00000310: 58ca 2e3e d53d 85bd 8c98 1d3e 8f89 41be
00000320: 59dd a73d f8e5 0cbe 787b a83d 13a6 b2bb
00000330: 308e c6bd ef1e 0bbd 6e27 9fbd 06af 8dbd
00000340: baf1 55bd ad00 64be 5151 efbd ebe8 873e
00000350: 1456 0e3e c29b 663e bb8e 48be 9c1c b1be
00000360: 0b77 97bd 4cb8 443d b16d 983f 0f35 60bc
00000370: 4586 02be 8fa3 92bd f56c 71be 668d 39bd
00000380: ed2b a93d 0224 273e 4c4e a3bf f75e 6bbd
00000390: 6136 82bd 3437 8dbd 112c 9b3e 353d 9f3e
000003a0: 2050 8a3d 606d a6bd 9065 103a f5b1 6cbe
000003b0: 85ba a13d 9fc6 30bf cc51 103c 0475 c4bd
000003c0: 0db3 213e 83b7 00bf ced5 a6bc 0ad0 2bbd
000003d0: e353 a13d b14e a7bd a6b5 c2bd ef8d afbc
000003e0: d5b8 02bd d24e 34bf cd4d 90bc fce2 15be
000003f0: b03f 683e 87a8 adbd 96e8 b3bd c3f3 54be
0.107331805 0.02620451 -0.15234262 -0.028570186 -0.085690856 0.24473508 -0.32033792 -0.05102586
-0.3528285 -0.17051357 0.18114549 -0.106145635 -0.080124006 0.10376887 -0.004991212 0.18805616
-0.28893787 0.023591112 -0.109605104 0.18135099 -0.036861736 0.0030877623 -0.0025666333 -0.12058095
0.05809076 -0.41433865 0.030771906 -0.199076 0.026247714 -0.18491897 0.022337886 0.053895157
-0.03563633 -0.3033342 0.11812002 -0.06980572 -0.033377673 -0.14084198 -0.13935341 -0.86844754
0.09442395 0.0122481845 -0.03016782 -0.027945848 -0.0033804688 -0.28917393 -0.40726742 0.053805467
-0.12603824 0.14579962 0.19089806 0.11737353 -0.056130443 0.08348899 0.2102565 0.12959465
0.0064410716 -0.28595603 -0.001644099 0.22933297 -0.29005098 0.038337667 0.08143289 0.0744644
0.06910105 -0.007059835 0.3032386 -0.20492697 -0.14141528 0.0306134 -0.022214998 0.10339199
-0.32705033 -1.50872 -0.015792273 -0.04138451 0.060427476 0.03017452 0.0020042679 -0.034895398
-0.038736988 -0.05898114 0.057972454 0.16857591 -0.23988982 0.042177405 0.4989564 0.13650088
-0.106739946 -0.2532881 0.56472546 -0.19263743 -0.13101429 0.025231343 -0.023966843 0.011670767
-0.0040514935 -0.001415043 -0.61781526 0.06919898 -0.048771117 -0.046297546 0.1434812 -0.43615398
0.07229145 -0.10495589 -0.19757177 -1.5279801 0.05957903 -0.10244151 -0.23305117 -0.10560981
0.072497256 -0.12993062 0.041159544 -0.6078416 -0.2622593 0.040375475 -0.20555283 0.12977019
0.0373044 -0.20417203 0.00893079 -0.020505032 0.10580687 0.06299669 -0.009612198 -0.5886008
-0.31883985 -0.10961105 0.047432303 -0.053590972 -0.24048762 0.17442778 0.35385707 -0.44191012
-0.6495504 0.21548122 -0.4538079 -0.6706876 -0.14806193 0.32880655 0.052523617 0.11425801
0.025943723 0.03992813 0.102528356 -0.011112714 -0.10089879 0.08588846 -0.15270634 0.06849227
-0.012954874 -1.7356746 -0.44080165 0.12631838 0.3207536 0.21586223 0.17371663 0.10537009
-0.19438699 -0.15188847 -0.10282449 -0.52406895 0.12625124 -0.37028503 -0.084309176 1.0996288
-0.042315673 0.0690565 -0.030554853 0.3281709 -0.23520583 -0.75875574 -0.16525778 0.00731928
0.06841396 0.09611987 -0.21169609 0.015215748 0.0684825 -0.03643412 0.010182131 0.03231098
0.18294339 -1.8122895 -0.012982894 0.54963034 -0.0070284805 0.16331767 0.2940542 0.113354035
0.062747784 -0.15807839 0.8691748 -0.17134622 0.17069376 -0.06505934 0.15390223 -0.1890013
0.081965156 -0.13759601 0.08226675 -0.0054519265 -0.09695089 -0.033965047 -0.077711925 -0.06918149
-0.05223248 -0.22265883 -0.11685432 0.2654489 0.13900024 0.22520354 -0.19585697 -0.3459214
-0.073957525 0.04802732 1.1908475 -0.013684525 -0.12746532 -0.071601026 -0.2357672 -0.045300864
0.08260331 0.1632233 -1.2758269 -0.057463612 -0.06358028 -0.06895295 0.30307057 0.31101385
0.06753564 -0.081263304 0.0005508298 -0.2311476 0.07896904 -0.6905307 0.008808564 -0.095926315
0.15790959 -0.50280017 -0.020365622 -0.04194645 0.07877328 -0.08169306 -0.09507303 -0.021429984
-0.03191455 -0.7043277 -0.017615223 -0.14637369 0.22680545 -0.0847941 -0.087845966 -0.20796113

network_smart.layer3.0.bias f4 [48]
00000000: d34d a13d 8a3d d43c 1423 e1bc 54bb 953d
00000010: 1979 683c a8f8 d2bd a08e 9abd 4c0e e0bb
00000020: fcf2 18be 1759 943d e304 8e3d 8dad 70bd
00000030: 2f86 2bbd 2cef 65bd 9439 85bd 437d 66bd
00000040: 6898 61bd 61f5 ef3c 684f 3e3d 1bea 4d3d
00000050: 07ef 953d dd60 973c 021b 21bd f566 7c3d
00000060: f359 943d 798d e5bb 28fb 403b 35ce e6bc
00000070: 8e9c 2abd 1f3c f43c 1864 a83d a4dc 823c
00000080: 6d7c f1bd 1afd b8bd 3bfe 76bd bb8d 8ebd
00000090: cda3 43bd 7c7a db3d 3d80 413d a292 9a3d
000000a0: 6640 fb3d ef0b f9bd 52cf 79bd 4a05 fcbd
000000b0: 4a4c 353d 23a0 273d b1b2 8c3d 2ab4 29bd
0.07876172 0.02590825 -0.027482547 0.07311121 0.014189028 -0.10301334 -0.07546735 -0.006837642
-0.14936441 0.07243555 0.06934526 -0.05875926 -0.041876014 -0.056136295 -0.06505123 -0.056271803
-0.055076987 0.02929181 0.046462446 0.05027209 0.073209815 0.018478805 -0.039332397 0.061621625
0.07243719 -0.0070053902 0.0029446576 -0.028174499 -0.04165321 0.029813824 0.08222216 0.01597435
-0.117913105 -0.0903265 -0.060301047 -0.06960627 -0.047763634 0.107167214 0.04724144 0.07547499
0.122681424 -0.12160479 -0.06098873 -0.12305696 0.044262208 0.040924203 0.0687002 -0.041431583

fc_smart.weight f4 [64, 48]
00000000: d53b 3e3e e913 5a3f e205 273f 4566 8ebe
00000010: 0389 c43e e7a0 263e 4ea0 13bd dc78 f9bd
00000020: 67a0 51bd 8b8b 8f3e e1f1 1e3e 3ef5 283d
00000030: fd26 293e 5f0f 183e 0384 fbbd 5b98 70bb
00000040: 3a16 bf3d fcf0 ed3d 69d6 51bc 5cbe f33e
00000050: dc47 a9bd 9bab 3b3f c4c9 40be 99c9 2b3e
00000060: 2b93 8b3e 4d59 3c3e 37a1 a33e 97b7 f53d
00000070: 5c8b 8e3e 4aaf 23bd b65e 7ebe 1141 5d3d
00000080: 8937 d13e 057a a3be b547 583c c264 b23d
00000090: b289 2b3e a239 d43e fc99 cebc ff7f d5be
000000a0: 2a30 01be a752 c9be 6e8c 603e c983 e63c
000000b0: 4529 be3d 508c 663e d84b e43c 0c93 083d
000000c0: 7162 8fbe fc31 73bd ee1c 353e 3a1e 053f
000000d0: 3e4e 0e3f d60f 32be dd6d bc3d b0f6 b9bd
000000e0: b121 f5bd cda6 5cbe 35bd 1e3f 76de dc3c
000000f0: 747b 93be d330 a03e 6525 793e 6cae 803e
00000100: 19a7 f43c bf76 983d 87b7 643c 0836 783f
00000110: 6c4c f0bd 2915 673f 862a 8dbe 613b a73c
00000120: 1cf7 053f 3ac2 533e 50b5 ba3e f256 ca3d
00000130: 3f1e b2bf 5376 a9bd a095 dbbe 76dd 1dbf
00000140: 6c07 c83e 3b98 64be 1741 8a3e f8a0 283c
00000150: 4ed7 f4be 1da1 c43e 5586 d6bd a224 bf3d
00000160: d07d 36be 056c 66be 8242 c33e 9655 223d
00000170: 4f7a 56be d228 c13e f903 91bc 1b6e ffbd
00000180: d4b8 973c 8889 383f 8750 1e3f d1d8 2ebe
00000190: a0dd 243e 2f02 d23c d0ee f9bd 65bf 063d
000001a0: ea34 a2bd 1097 843e 6795 623e 089e f6bd
000001b0: f1c5 ba3d a18a 843e 2ec8 29be 9089 1a3e
000001c0: 1cc8 5e3d 3c0b b33c abfd e83d 4275 1b3f
000001d0: cae8 acbd 79e6 343f 8c4d 5dbe 1d57 253e
000001e0: c156 853e 3ab7 273e 4415 803e 21c0 0a3e
000001f0: 8662 c7bd fc90 973d 47d0 b9be 0cc1 3a3d
00000200: 23d0 033f d8e9 c9be 6608 04be 387b 79bd
00000210: 6e37 3d3e 1e89 9c3e fdfd 923d e298 aebe
00000220: 7551 bcbd 048f c8be a3e5 953e 2f34 e23c
00000230: c0cf cd3c 297b a73e c45d 103b 004d febd
00000240: 4d2f 603e 9630 403e 5767 60be f403 e4be
00000250: de90 a6be 4918 c63d 86c6 d4bd 245a 4fbe
00000260: b587 62bc b2bb c3bd 0c01 c3be c80c c2bd
00000270: d6e5 3d3d f700 52be 35c7 1dbd 789e 38be
00000280: 2d22 003e ea62 cdbd b96c 4cbc 16e8 5abf
00000290: e9e9 8bbd b417 ddbe 74e2 453e fa47 c43d
000002a0: 2d34 e0be 7e31 d8bd 06ba 8abe 5409 62bd
000002b0: 3700 ad3f 9546 aebc 2c9e ed3e 0733 b33e
000002c0: 250b 08bf e9ec 933e 07fa f8bd 1020 6d3c
000002d0: 1d30 ae3e a9b1 96be b1c9 a2bd 4577 d1bc
000002e0: b3ab 813e 0ab4 d33e 8bf0 87be 712b 32be
000002f0: 0505 903d 834c e9be 9de4 22bd 1a44 963d
00000300: 09a6 823e 2203 513e 6ee7 00be cc9e 07bf
00000310: 8f2b 2ebf a4cf d2bd 2713 f03d 02f3 193e
00000320: 68b0 9a3d 9bcd 7b3e 54f9 22bf a02a 52bd
00000330: 1c87 dc3e 3cde a9be f47a 40be 5cbd 2abe
00000340: 92b3 d7bd 03e0 71bd 5cdf a6bb dec0 6dbf
00000350: e7d8 543e 84a4 65bf ef3a be3e 92f3 243e
00000360: 5554 f6be ba28 59be 37fb aabe d439 c7bd
00000370: f818 c03f e672 ccbc 74d5 ce3e 4556 2e3f
00000380: bc9c cabd cae3 253e 0d9a d6be 668a 0dbe
00000390: 48b7 0e3f 889f e5be d67a 3ab9 c024 2cbe
000003a0: 6b02 a53d 1bc9 a0bd cb66 b1be 982a 94bd
000003b0: 9b16 933e eef7 9fbe 4c60 203e 4a0a f2bd
000003c0: 8196 0fbe 5a15 44bf 1811 3cbf 8a49 843e
000003d0: f361 c0be e24c e33c 1a45 ae3d 5898 81ba
000003e0: ad69 9d3d 58f5 80be cc0c 44be 6bcf 9dbc
000003f0: 7edb 04be aed2 45be 7a40 ad3e ba28 06be
0.18577512 0.8518663 0.6524335 -0.278124 0.38385782 0.16272317 -0.03604155 -0.12181255
-0.051178362 0.2803615 0.15521957 0.041249506 0.16518779 0.14849614 -0.122810386 -0.0036711905
0.09330411 0.1161823 -0.012807467 0.4760617 -0.08265659 0.73308724 -0.18826967 0.16776122
0.27260718 0.1839344 0.31958935 0.119979076 0.27840698 -0.03996209 -0.24840817 0.05401713
0.40862682 -0.3192903 0.01320069 0.08710624 0.16751745 0.4145022 -0.02521991 -0.41699216
-0.1261603 -0.3932087 0.2192857 0.028139012 0.09285215 0.22514462 0.027868196 0.03334336
-0.28004792 -0.05937384 0.17686817 0.5199925 0.5558814 -0.17388853 0.09200642 -0.09080255
-0.11969317 -0.21548004 0.62007457 0.026961546 -0.28805125 0.3128725 0.24330671 0.25133073
0.029864835 0.07444524 0.013959772 0.96957445 -0.11733326 0.9026666 -0.27571505 0.020414056
0.52330184 0.2067956 0.36466455 0.09879865 -1.391548 -0.08274522 -0.42887592 -0.6166605
0.39068162 -0.22323696 0.27002785 0.010292284 -0.47820514 0.3840417 -0.104748406 0.09333159
-0.17821431 -0.22502144 0.3813668 0.039632402 -0.20945095 0.37726456 -0.01770209 -0.12472173
0.01852075 0.72084856 0.61841625 -0.17074896 0.16100168 0.025635807 -0.12203753 0.03289737
-0.07920249 0.25896502 0.22127305 -0.12041861 0.091197856 0.25887015 -0.16580269 0.15091538
0.054390058 0.021855943 0.11376508 0.60725796 -0.084428385 0.70664173 -0.21611613 0.16146512
0.2604275 0.16378489 0.25016224 0.13549854 -0.09735589 0.074007004 -0.36291716 0.04559426
0.51489466 -0.3943622 -0.12893829 -0.060908526 0.18478176 0.30573362 0.07177351 -0.34101015
-0.09195224 -0.39171612 0.2927676 0.027612774 0.025123477 0.3271115 0.0022028545 -0.1241703
0.21893044 0.18768534 -0.21914421 -0.44534266 -0.325324 0.09672601 -0.10389428 -0.2024923
-0.0138263 -0.095572844 -0.38086736 -0.09475094 0.046361767 -0.2050818 -0.038520057 -0.18029201
0.12513037 -0.10028632 -0.012477093 -0.85510385 -0.06831724 -0.43182147 0.19324666 0.09584041
-0.43789807 -0.10556315 -0.2709505 -0.055184677 1.351569 -0.02127389 0.46409738 0.34999868
-0.53142005 0.28891686 -0.12157064 0.014472976 0.34021083 -0.2943242 -0.07948626 -0.025569567
0.2532631 0.41348296 -0.26550707 -0.17399384 0.070322074 -0.45566186 -0.039768804 0.07337208
0.255173 0.20411351 -0.12588283 -0.5297668 -0.68035215 -0.102935106 0.11722403 0.15034106
0.07553178 0.24590151 -0.63661695 -0.05131018 0.4307183 -0.33177364 -0.18796903 -0.16673797
-0.10532297 -0.059051525 -0.0050925445 -0.92872417 0.20785867 -0.89704156 0.37154338 0.1610854
-0.48111215 -0.21206942 -0.33394787 -0.09727827 1.500762 -0.024957132 0.40397227 0.68100387
-0.09893176 0.16200176 -0.41914406 -0.13822326 0.55748415 -0.44848275 -0.00017784102 -0.16810894
0.08057102 -0.07850858 -0.34648737 -0.072346866 0.28728184 -0.31243843 0.15661734 -0.11818369
-0.14022256 -0.7659508 -0.73463583 0.25837356 -0.3757473 0.027746622 0.08509274 -0.0009887321
0.07686172 -0.25187182 -0.19145507 -0.019263944 -0.12974355 -0.19318649 0.33838254 -0.13101473

fc_smart.bias f4 [64]
00000000: 8b08 b3ba bab7 05bd bea5 4c3d b83e 95bc
00000010: c6aa 4f3d d9c2 bd3c ce78 a63d 944b 55ba
00000020: 9121 7abb 6396 8abd 7628 a73c bb49 96bd
00000030: bc71 3fbc bde8 49bd a683 2e3c 1006 43bd
00000040: ee57 85bd 9a1f 003e 5f64 f5bd f9bf be3c
00000050: 9298 9d3d d5d2 b3bc 3b71 8c3d 37f7 a53c
00000060: 3969 473d aa50 18bc e78a 143c 3ba2 64bc
00000070: b938 23bd 6fdd 6bbd fc09 a1bd 265b cebc
00000080: 0811 3cbd 09c5 d8bd 21dc 0d3d d026 5b3d
00000090: 1524 1cbd d60e adbd 1a91 58bd 334f c13d
000000a0: d659 6ebd d673 11bc e1f0 f9bc 175f ff3c
000000b0: 9a71 f93d 08a7 d8bb 50de 313d ab8a f7bc
000000c0: c5b2 2c3c b400 14bd d969 e63c def5 743d
000000d0: d32c 2a3c d938 b13d 3788 873d c695 56bd
000000e0: 626d 913d 9720 483d c20f 31bd 0290 a8bd
000000f0: 7332 e7bd 503e afbd 51c4 21bd 7050 ed3c
-0.0013659162 -0.03264592 0.04996275 -0.018218383 0.05069997 0.0231642 0.081285104 -0.0008136567
-0.003816698 -0.06766965 0.020405035 -0.07338282 -0.011684831 -0.049294222 0.010651505 -0.047613204
-0.06510912 0.12512055 -0.11982035 0.0232849 0.07695116 -0.021951118 0.068575345 0.020259483
0.048684333 -0.009296576 0.00906632 -0.013954694 -0.039849017 -0.057584222 -0.078632325 -0.025189947
-0.04591468 -0.105844565 0.03463376 0.05350381 -0.038120348 -0.08450095 -0.052872755 0.09438934
-0.058191143 -0.008877715 -0.030510368 0.031173272 0.12179871 -0.0066117086 0.043424904 -0.03021749
0.010540669 -0.036133483 0.028126644 0.05980479 0.0103866635 0.08653421 0.06617778 -0.05238893
0.07100941 0.048859205 -0.04322792 -0.08230592 -0.11288919 -0.08556807 -0.039493863 0.02896902

network_aging.lstm.weight_ih_l0 f4 [128, 5]
00000000: 615e 1fbd b545 01be d6eb 2b3e b6b3 043e
00000010: edae fe3d c6fb 5a3e 66eb 193d bc73 d9bd
00000020: 4df5 163d 7d06 c5bd 6a34 423e fecb 473d
00000030: 0616 84bd 8476 df3c 54e0 fcbd 5b0f a1bd
00000040: b55e 263e 37d2 063e f9f4 e23d 036d 853c
00000050: 6f50 883d 8ad1 383e e7e0 8e3d bfe6 313e
00000060: 25ba 5abd 35b1 663d a76e d1bc 824a 703b
00000070: dcc8 083e 5d6d 3e3e 9c6b 373d e9c4 b7bd
00000080: a690 1fbd 05a6 26bd 768b 333e d6dc 253e
00000090: 4afd 233e dcb4 eebb 5721 fabd 4731 ad3d
000000a0: bf98 8dbd 1d01 f63d 48d8 41bd 46e8 803d
000000b0: 4ac2 debd d866 303e 2de8 b63d 393b db3c
000000c0: 2146 19bd 81e1 043d 01be d0bd c7d0 b1bd
000000d0: dd4c ba3d 706c 533d f34a 453e fc89 cfbd
000000e0: 67b2 563e 2f02 563e d59c 343d 54ca 153e
000000f0: 1250 393e be19 ae3b 4573 0d3e 2dce d9bd
00000100: 3071 90bd 3387 6c3d db53 843d ec27 423e
00000110: 469f 2f3d ef65 993d d1de ecbd 0a09 683d
00000120: 0a7c 3b3e 3bc4 233e 015b 793d 4564 c7bd
00000130: ee8d 833d 2f2b 2d3d cd7e c03d 22ef 87bd
00000140: 42bf f53d e047 943d 3e0c 3e3e 6b73 b0bd
00000150: fbe4 e5bd 63bd 663e 7854 5a3e 12f5 f9bd
00000160: e39f f4bc 34b9 0a3e 9087 0abe f6bd 9c3d
00000170: fc86 95bd c43a e1bd 6561 fd3c e2c5 9fbc
00000180: f442 8dbd 6bc9 8d3d 30e8 57bc 8874 fa3d
00000190: dba4 dabd f26a 303e a1ec 0a3d dc16 ae3c
000001a0: 2f01 083e 80aa 843c 7b5b 4a3e dcce f23c
000001b0: 412d d6bd c382 d3bd acfa af3d 8f70 063e
000001c0: 6d3f 0d3e 5852 ffbd a0dc 343e 6cee ea3d
000001d0: 05f5 573d 9d57 fd3c 8116 3c3e 617f 963d
000001e0: b7bf f3bd 4260 503e 25b3 dbbd 768c e63d
000001f0: 0b40 353e 55b4 0fbd 32b6 71bd 6a64 89bd
00000200: 9536 823d 4f23 85bd 3876 e33a 3a9d c6bd
00000210: 4af3 ad3c 226c 2abe 159b 093d d8c5 df3d
00000220: cae3 a3bd 4c98 aa38 4800 09bd e867 9a3c
00000230: 6b05 2c3e ebcb 44bc 8c0e 603d 3b28 1e3e
00000240: 99c1 69bd 3561 1ebd 5055 9cbd baa4 2ebd
00000250: aab7 f9bc 5eb7 323d d42b 933d 3c4c c13d
00000260: 1d33 df3d 284c 3e3d fdd6 b83c 311c 173e
00000270: af4d 5a3d 2a10 443d b547 9b3d b08c 203d
00000280: e2cf 09bd b509 043e fd4c 10be ca9c 9c3d
00000290: a421 e73c 1b9b 603e 3269 783c 11d4 5f3e
000002a0: 8fe4 013e cc7f fbbd 775a d8bd a0d5 88bd
000002b0: 1f36 5abd 0602 b13d 487e 54bd 72b3 00be
000002c0: fa5e 0f3e a373 15be d048 043d fcbe 0c3e
000002d0: 1286 db3d 7d53 8bbd e762 393e aff0 da3c
000002e0: b877 023e 1fea 863d 0766 92bd 2f2c 6e3c
000002f0: 8189 053d b746 193e 18bd 113d 539e cd3d
00000300: 88f6 9ebd ff82 07bc 4cd2 95bd aa2e 4f3e
00000310: 5b03 653b 80f5 d3bd d95e 0d3d d910 26bc
00000320: 0828 5fbc 6938 12bd 45b2 9b3c 3023 8dbc
00000330: 1292 4d3e a1dc 263e 7dff 883d 5771 0a3e
00000340: 0313 423e 1911 9bbc ac31 87bd 969a 2f3e
00000350: 0973 f2bb 3efa d0bd 9a29 68bd 15ff 2d3e
00000360: 7864 debd 9f0c a6bc 22a4 183d 43c2 36bd
00000370: dd1b 963d 58ac 123e 8872 2fbc 0bf8 663d
00000380: e763 053e 44a1 89bd c684 773d 55bc 483e
00000390: 4691 9bbd 8c8c 033e 2951 393e 1511 213d
000003a0: 7d50 e93d 6e05 cb3d e9dc 02be dcd1 eabd
000003b0: cb25 9fbd b5fc 393c 36d0 c63d 0cc0 183e
000003c0: d424 953d c977 213a 3283 233e df3b febd
000003d0: 4849 2f3e 2537 323e 6b28 4ebd 8df2 8bbd
000003e0: 382d d33d e30b 03be 0885 893d d3a7 1e3e
000003f0: 3758 6ebd 4713 313e d450 69bc 1f26 37bd
-0.038908366 -0.12624247 0.16789183 0.1295918 0.12435708 0.21385106 0.03757801 -0.10617778
0.03685503 -0.09620378 0.18965307 0.048778526 -0.06449513 0.027278192 -0.12347475 -0.07864257
0.16247065 0.13166128 0.11081881 0.016287332 0.066559665 0.18048683 0.069764905 0.17373179
-0.053400178 0.05632134 -0.025565458 0.0036665504 0.13357872 0.18596406 0.04478036 -0.089731045
-0.038956307 -0.040685672 0.17533669 0.16197523 0.16014591 -0.0072847437 -0.1221339 0.084566645
-0.069139 0.12011931 -0.047325402 0.06294303 -0.108769014 0.17226732 0.08931003 0.026761638
-0.037420396 0.03244162 -0.1019249 -0.08682399 0.09096692 0.051617086 0.19266872 -0.1013374
0.20966493 0.2089927 0.04409488 0.14627963 0.1809695 0.0053131273 0.13813503 -0.10635028
-0.07052839 0.057746124 0.06461307 0.18960541 0.042876504 0.074901454 -0.11565936 0.056649245
0.18309036 0.15992825 0.060877804 -0.09735922 0.06423555 0.04227751 0.09399185 -0.06637408
0.1199937 0.072402716 0.18559358 -0.08615764 -0.11225315 0.22533183 0.21321285 -0.122049466
-0.029861396 0.13547212 -0.13528275 0.0765342 -0.07301137 -0.10997537 0.03093023 -0.019503538
-0.06897536 0.06923183 -0.013177916 0.12229258 -0.10675975 0.17228296 0.033917073 0.021251135
0.13281702 0.016194582 0.1976146 0.029639654 -0.1045785 -0.10327675 0.08592734 0.13128875
0.13793726 -0.12466878 0.17662287 0.114712566 0.052723903 0.030925566 0.1836796 0.07348514
-0.11901801 0.2034922 -0.107275285 0.112572595 0.17700212 -0.035084087 -0.059011646 -0.067086056
0.06358067 -0.06500875 0.0017353958 -0.09697957 0.021234173 -0.16642812 0.033595163 0.109264076
-0.08002432 8.134599e-05 -0.033447534 0.018848374 0.16798942 -0.012011508 0.054701373 0.15445034
-0.057069395 -0.038666923 -0.076334596 -0.042637564 -0.030483086 0.043631904 0.07186094 0.09438369
0.10898421 0.046459347 0.022563452 0.14756848 0.05329674 0.047866978 0.075820364 0.03919667
-0.033645518 0.12894328 -0.14091869 0.07647093 0.028214283 0.21934168 0.015161799 0.2185824
0.12684844 -0.12280235 -0.1056413 -0.06681371 -0.05327427 0.08642964 -0.051878244 -0.12568453
0.14001074 -0.14594893 0.032296002 0.1374473 0.10718931 -0.068030335 0.18104135 0.026726095
0.12740982 0.06587624 -0.071483664 0.014536901 0.032601837 0.14968382 0.035580724 0.100399636
-0.07761866 -0.008270978 -0.073155016 0.20232645 0.0034944627 -0.1034956 0.034514282 -0.010135853
-0.013620384 -0.03569833 0.019005904 -0.017228693 0.20075253 0.16295101 0.066893555 0.13519798
0.18952565 -0.018929051 -0.06601271 0.17148814 -0.007398967 -0.1020398 -0.0566803 0.16991837
-0.10859007 -0.02026969 0.037265904 -0.044618856 0.07329533 0.14323556 -0.010708459 0.056388896
0.13026391 -0.06720212 0.060429357 0.19603093 -0.07596068 0.12846583 0.18097366 0.03932293
0.11392305 0.09913145 -0.12779583 -0.11465809 -0.0777088 0.011351754 0.09707682 0.1491701
0.07282415 0.0006159512 0.15968016 -0.12413763 0.17117798 0.17403848 -0.050331514 -0.06833372
0.10311359 -0.12797503 0.06714827 0.15493707 -0.058189597 0.1729251 -0.014240462 -0.04471409

network_aging.lstm.weight_hh_l0 f4 [128, 32]
00000000: 6958 1bbd 1fe0 1dbe fca0 1e3d ac81 043e
00000010: 8cd9 1c3e a3b9 0ebd d70b d5bc a7e8 0fbc
00000020: 4fc9 333e 9de9 e93c 7505 dabd 9483 2abe
00000030: ba15 22be a238 9bbd b549 0c3e f17a 2cbe
00000040: 0297 c3bd 1a1d 86bd c454 60bd 5303 0e3e
00000050: 004a 993d bf9e 13be fc7d 153e b9ef a0bd
00000060: af68 593d f188 a6bc adcc 2dbe e19d 04be
00000070: 14fe 8c3c e3bf 82bd a161 413d 6c48 343d
00000080: beda e1bd dfd9 ddbd 14a9 843d 568f 57be
00000090: b774 7d3d fc10 5a3e 9e58 9e3d f2f3 283e
000000a0: c2d1 953d bf23 0f3e f88d de3d 0be1 b83d
000000b0: 1e66 62be 07fc ccbd 5da8 45bc 7a1d c43d
000000c0: 2db7 093d 5547 00bd 7b6a ce3d c8b9 89bc
000000d0: 9b88 32bd 261d 683e 7ce1 193e b938 21be
000000e0: 292b 7abe 93c3 373e 0ba2 053e 6c16 5e3d
000000f0: d14d d53c 264f f8bd 0bab c0bd 2622 073e
00000100: 7346 60bd fe0a 033d 6165 c33d ff5e 45be
00000110: bd6e c1bd 7159 933c 9c5c cf3c d527 b83d
00000120: 635f 073e 472c ef3d b309 863d 5d61 ddbd
00000130: aa41 86bd 1e3e 1e3d 7be2 e0bd c680 4ebe
00000140: cb92 45bd 6cf0 57be 9823 0f3d 0a45 923d
00000150: 1d39 6fbe e295 d83d 3000 dd3c c762 373c
00000160: d055 dcbd 0317 623e 5654 5abd f8a6 34be
00000170: 0c3d 20bd 14ca 883d df6b b4bd 490c 0d3e
00000180: 4959 c23d 8dae 16bd 5b53 d6bd 82ae 7e3d
00000190: 14ae 7a3e 8c48 a23d 8688 4e3d fcaa 1f3e
000001a0: aa47 4f3e 7b73 9b3d b661 28be c6ab cbbc
000001b0: 6601 ad3d ae80 623e 0078 c53d eccd b03d
000001c0: 48de b9bc 7bc4 d23d ad10 04be 1846 c1bc
000001d0: ae90 17be e53a 3d3d 983f dcbd ea63 58be
000001e0: 0ea1 d9bc 134e e93d 77cb 11be 0163 55be
000001f0: affa 573d 1730 663b 9e15 103e 3fc6 a73d
00000200: 2fb9 bc3c 156f 73be 7aa9 2ebd ca7b 133e
00000210: 5709 d0bd 8766 0cba cde7 b53d f5a7 4e3d
00000220: 37bc d33d 4fde 9dbc cc97 0cba 8021 0dbe
00000230: dfde 9b3d b308 16bd 1b29 6bbd 90bb 14be
00000240: 75b2 35be bf34 d43d 8e18 06be 9364 89bd
00000250: 5d35 2abd f1ae c7bd b5d5 823d c2d4 d3bd
00000260: 4da3 f1bb 4096 63bc d620 1d3e e534 613d
00000270: 2386 863c 12c4 88bd ef55 9c3d 8de1 3a3e
00000280: 1e95 23be fcbd 3ebe 1cc9 263c f98b 1bbd
00000290: c06f fd3d c148 363e deee 5a3e 7548 093e
000002a0: 8619 a33c 0f4c ea3d df94 13be f5e7 8c3d
000002b0: 315b 05be f686 c83c 430b 34be e1cf 243c
000002c0: 5a33 253c c066 39be f89b adbd bb62 283d
000002d0: daf8 6a3d 8c38 2e3e 55dd 1d3e 1d3d 7cbe
000002e0: f32f 88bd 072e a1bd 42f7 423c 728d 3bbe
000002f0: c8fa bebd 58bb 8bbd 3637 1f3e 5347 b03d
00000300: 9869 29be 96ae 28be 33ca db3d b2f4 3ebe
00000310: 6c1a a2bd e6ce 9b3c 52c7 1b3d f996 e13d
00000320: 8dab acbc 5e49 abbd a744 ffbd bed0 d3bd
00000330: c5d0 30be d9c2 a53c 6e89 e9bd f8e5 473c
00000340: 66bf 26bd d11e 4bbd acf9 633d 8f65 ca3d
00000350: 5043 e6bd ba3e 703d bec2 313e 9120 edbd
00000360: e30b 023d 02ea 0c3e 94ed b9bb b8b2 dfbd
00000370: 7944 e03d 36c7 983d 6823 583e 44cc 7b3d
00000380: 5e99 1dbe 1a71 8c3d f5d9 393e f01b be3d
00000390: 9af4 e5bd ebf2 093e b6c1 ae3c bece 92bd
000003a0: 613f 91bd e820 d9bd 192f 043d dc9c 61be
000003b0: 50d4 903d 873e 103e 1c3c 363e 071c 0ebc
000003c0: bfaa c23c e106 64be 1940 08be 5144 4b3e
000003d0: 476e 54be 01d6 763d fd22 163e 06e1 e43d
000003e0: 2bc7 95bd e0d1 213d e18c 0cbe 5134 07be
000003f0: 2137 6a3e 0f62 753c 13e6 943c 2f56 313e
-0.03792611 -0.15417527 0.038727745 0.12940091 0.15317363 -0.034845006 -0.026006622 -0.008783496
0.17557262 0.028553778 -0.10645572 -0.16651756 -0.158286 -0.07579161 0.13699992 -0.16843773
-0.09550287 -0.065485194 -0.05476834 0.13868456 0.074848175 -0.14416026 0.1459884 -0.078582235
0.05307835 -0.02032897 -0.16972609 -0.12950851 0.017210998 -0.06384256 0.047212247 0.04401438
-0.1102805 -0.10832571 0.064775616 -0.21050772 0.061878886 0.21295542 0.07731746 0.16499308
0.07315399 0.1397848 0.10866922 0.090272985 -0.22109267 -0.10009008 -0.012064067 0.09575935
0.033621956 -0.031318028 0.10078903 -0.01681222 -0.04358731 0.22667369 0.15027422 -0.15744294
-0.24430527 0.179457 0.13050096 0.054220602 0.026038082 -0.12124471 -0.09407624 0.1319662
-0.054754686 0.031992905 0.09540821 -0.1927452 -0.0944495 0.017986985 0.025312714 0.08991972
0.13219981 0.11678367 0.06544819 -0.10809586 -0.06555493 0.03863346 -0.10980698 -0.2016631
-0.048235696 -0.21087807 0.034946054 0.071420744 -0.2336163 0.10575463 0.026977628 0.011192984
-0.10758555 0.22079091 -0.053303085 -0.17641819 -0.03912072 0.06679168 -0.08809637 0.13774218
0.09489686 -0.03678756 -0.104651175 0.062178142 0.24480468 0.079239935 0.050423168 0.15592569
0.20242181 0.075903855 -0.16443524 -0.024862181 0.08447532 0.221194 0.09642029 0.086330265
-0.022689 0.10291382 -0.12896986 -0.023592994 -0.14801285 0.046198744 -0.10754317 -0.21131864
-0.026566055 0.113918446 -0.14237772 -0.20838548 0.052729305 0.0035123879 0.14070746 0.08192109
0.023037521 -0.23772843 -0.042642094 0.1440269 -0.101580314 -0.0005355854 0.08882103 0.050453145
0.103386335 -0.019271044 -0.00053631957 -0.1378231 0.07610869 -0.03662939 -0.057412248 -0.14524674
-0.17743857 0.10361623 -0.13095304 -0.06708636 -0.041554797 -0.09750164 0.06388418 -0.10343315
-0.0073742033 -0.013890803 0.15344557 0.054982085 0.016421383 -0.066780224 0.07633578 0.18250103
-0.15974852 -0.18627161 0.010179784 -0.037975285 0.1237483 0.17801191 0.21380183 0.13406546
0.019909631 0.11440288 -0.14412259 0.0688018 -0.13023068 0.024478417 -0.17582421 0.010059328
0.010083044 -0.18105602 -0.08477014 0.04110978 0.05736623 0.17013758 0.15416463 -0.24632688
-0.066497706 -0.07870107 0.011899771 -0.18315676 -0.093251765 -0.06822842 0.15548405 0.08607354
-0.16544187 -0.16472849 0.10731926 -0.18648031 -0.07915196 0.019019555 0.038031884 0.11015124
-0.021077896 -0.08363603 -0.12464266 -0.10342549 -0.1726714 0.020234512 -0.11403166 0.012200825
-0.040709876 -0.049589936 0.055658028 0.09882652 -0.112433076 0.05865357 0.17359444 -0.11578477
0.031749617 0.13761142 -0.0056740735 -0.1092276 0.1095056 0.074598715 0.21107256 0.0614741
-0.15390536 0.0685751 0.1814955 0.092826724 -0.11228295 0.13471572 0.021332603 -0.07168339
-0.07092167 -0.106019795 0.03227148 -0.22032493 0.070717454 0.14086352 0.17796367 -0.008673674
0.023763059 -0.22268249 -0.13305701 0.1985028 -0.20745192 0.060262684 0.14661784 0.11175732
-0.07313379 0.039506793 -0.13725616 -0.13203551 0.22872593 0.014976992 0.018176114 0.17318033

network_aging.lstm.bias_ih_l0 f4 [128]
00000000: 3a7d 38bb 73f3 6e3d 1f63 af3c 3fb0 893d
00000010: 4da4 5d3e 6d1e e0ba 41b4 24bd 0a91 ae3d
00000020: 4070 e13d a90e 84bd b418 5c3d e12b 86bd
00000030: 130e 123d 43a6 9d3d 4b4c 3a3e c005 993c
00000040: c8a3 f3bd 0610 6dbd 9df5 4c3e 8ada 0d3e
00000050: f37d d3bc 5cde 283d 419a e9bd 3e8e 88bd
00000060: c1f6 6b3d d9fe 84bd 06a1 b33c a909 693e
00000070: 09b9 353e 1930 f63d 56b9 053e 20c2 3e3e
00000080: 3730 4d3d ebc3 eb3c bdcb bebd e902 07bd
00000090: a075 e93d 6783 0cbd bf61 5a3e 85a5 e5bd
000000a0: 4343 f9bc 86ce 95bd 5246 a0bc e238 1b3e
000000b0: 3628 3fbd 7ca6 b1bd 194f c1bd 9878 143e
000000c0: 66a7 153e a474 7b3d 545e a03d fec0 ad3d
000000d0: e97a 243b e82c c43d 0889 f9bb ee5b 0f3e
000000e0: 3ea4 36bd 4b82 1c3d 4688 a43d aa50 683e
000000f0: 2f33 003d 23d9 e2bd 3fa6 c63c 621b 13ba
00000100: b05d 513d 5557 a8bd 4c2e 6a3e 1a55 213a
00000110: 0a9b 19bb 09c7 a5bd 112e 373e 93c9 133e
00000120: 86c4 053d fedf 3d3e 3adb ccbd 6c71 c4bd
00000130: 65f4 17be 37cb 463e 32dc 433e 26a5 3abe
00000140: 0efd 9abc c6f1 cd3d 15ec fbbd 83b7 413e
00000150: 841b b3bd 54e0 383e 279b 923d 3d28 19be
00000160: 43bf 5abe 0750 0bbd 8d3f 85bb a99c 71be
00000170: 5902 1b3e e021 2ebe b9fd df3d 0808 603e
00000180: b27e 85bd 12be 193e 09b0 7a3e 5036 e9bc
00000190: 2383 623e 7682 973d ffd7 acbd 5af1 1bbb
000001a0: 4992 743e 74ab a33d 8546 0e3d fa4f a3bd
000001b0: 3381 fd3b fa9f ed3d e8f5 cdbd 61a8 e43c
000001c0: ce37 eb3c 819b ac3b 2eaf f13d d118 883e
000001d0: b471 cd3c 8be7 503d 5448 d5bc 780f d43d
000001e0: cfda 673e 1555 043a e290 1e3e 49b3 d73d
000001f0: 5d4d 7e3d 45c4 3dbd 7e4c a1bc 6c52 6a3d
-0.0028150813 0.05833764 0.02140957 0.067230694 0.21644707 -0.0017098911 -0.040210966 0.08523758
0.11007738 -0.06448109 0.053734496 -0.06551338 0.035657953 0.076977275 0.18193166 0.0186795
-0.11896473 -0.05787661 0.20015569 0.13852897 -0.025816893 0.041227683 -0.11406375 -0.066677555
0.05760837 -0.06493921 0.021927368 0.22757591 0.17746367 0.12020893 0.13058981 0.1862874
0.05009481 0.028779944 -0.09316204 -0.03296176 0.11399388 -0.034305003 0.2132635 -0.11213211
-0.03042758 -0.07314782 -0.019564781 0.15158418 -0.046669208 -0.086743325 -0.09438915 0.14499128
0.14614639 0.061390534 0.07830492 0.08484076 0.0025097674 0.09578878 -0.0076152124 0.13999912
-0.044590227 0.038210195 0.080338046 0.22687021 0.031298812 -0.11076572 0.024249194 -0.00056116853
0.051114738 -0.08219782 0.22869223 0.0006154344 -0.0023438358 -0.080946036 0.17888667 0.14432363
0.032658122 0.18542477 -0.10002752 -0.09591946 -0.14839323 0.19413458 0.19126967 -0.18227062
-0.018919494 0.1005588 -0.123008884 0.1891766 -0.087454826 0.18054324 0.07158499 -0.14956756
-0.21362023 -0.034011867 -0.0040664137 -0.23594917 0.15137614 -0.1700511 0.10937066 0.21878064
-0.06518306 0.15013912 0.24481215 -0.028468281 0.22120337 0.0739793 -0.084396355 -0.002379498
0.23883928 0.079916865 0.03473522 -0.07974239 0.007736349 0.11602779 -0.100566685 0.02791232
0.028713133 0.005267561 0.11800991 0.26581433 0.025078632 0.051002067 -0.026035465 0.10354513
0.22642063 0.00050480786 0.15484956 0.10532243 0.062085498 -0.046329755 -0.019689795 0.05720751
