trained_model/mc1_mc2/60_days_lookahead/pnet_checkpoint/pnet_online_2700.pth (torch, 545278 bytes, 36 tensors)

network_smart.layer1.0.weight f4 [128, 330]
000000 71 2e 24 3d 86 2b 49 3c 4f cf d2 3e 0c aa 0b be
       0.040083352 0.012278443 0.4117379 -0.13639086
000010 e6 9d 7f 40 96 9c 5e be 5d aa 23 c0 c0 7e 4a bc
       3.9940124 -0.2173942 -2.5572731 -0.012359321
000020 80 7d a8 bd e8 16 7d 40 fb e2 ed 3f 10 3e 1a bd
       -0.08227062 3.954523 1.8584894 -0.037656844
000030 55 cf 16 bd 55 44 e5 3e 58 43 cc bd 1f 56 81 40
       -0.03681882 0.44778696 -0.09973782 4.041763
000040 33 d0 62 be db 0a 27 c0 c4 ab 3b bd 67 38 70 be
       -0.22149734 -2.6100376 -0.045818105 -0.23459016
000050 fb e1 7f 40 33 77 e8 3f e7 bc 47 bd 74 55 1e 3c
       3.9981678 1.8161377 -0.048764136 0.009663928
000060 d8 de 2c 3f a0 fc 27 be 40 6d 75 40 49 06 2f be
       0.6752753 -0.16404963 3.834793 -0.17092241
000070 4d 42 24 c0 c5 ea ee bc 5e 13 6b 3e 87 36 78 40
       -2.5665467 -0.029164681 0.22956607 3.878328
000080 52 31 f4 3f d9 fe 1c 3a 0e 8e 73 bc 30 ed 24 3f
       1.9077551 0.0005988903 -0.014865411 0.6442442
000090 58 bd 23 be b0 08 76 40 85 cd ee bd 51 4d 2a c0
       -0.15990198 3.8442802 -0.116602935 -2.660969
0000a0 ca 80 09 3c 82 07 3d be b8 2a 77 40 6d fb f1 3f
       0.008392522 -0.18459895 3.8619823 1.8904854
0000b0 74 f3 88 3a 83 b0 69 3d b0 12 f0 3e 11 c7 3e be
       0.0010448531 0.0570531 0.46889257 -0.18630625
0000c0 07 6c 71 40 6a 66 32 bd a6 b6 20 c0 5f fe 5d bd
       3.7722185 -0.0435547 -2.511148 -0.054197665
0000d0 a7 19 09 3e ad 65 74 40 16 d8 f0 3f 2d f9 28 3d
       0.13388692 3.8187058 1.8815944 0.041253258
0000e0 f5 94 2d 3d e3 93 ed 3e 57 46 2d be 63 57 77 40
       0.042378385 0.4640189 -0.16921364 3.8647087
0000f0 56 5e 47 bd a5 d2 22 c0 31 87 32 bd ac e0 22 bd
       -0.04867395 -2.5441067 -0.04358596 -0.039765045
000100 a3 54 77 40 ae ae ee 3f 35 70 42 bd 31 81 f1 3c
       3.8645408 1.8647058 -0.04747029 0.029480549
000110 f7 93 2a 3f 8a f7 6f bd 8e db 72 40 8b 94 f1 bb
       0.66632026 -0.05858568 3.7946506 -0.007372444
000120 3d 99 22 c0 b4 6f bd 3c f8 65 1e 3e 39 a6 74 40
       -2.540603 0.023124553 0.15468585 3.8226454
000130 c2 c2 f7 3f 38 fd 1c bd fe 60 79 3d 28 c2 04 3f
       1.935631 -0.038327426 0.060883515 0.5185876
000140 37 9d 9a bd 56 31 73 40 5a dc 2c bd c0 c4 20 c0
       -0.075495176 3.7998862 -0.04220233 -2.5120087
000150 38 56 a0 3d 27 00 e8 3e 8c 4d 73 40 88 94 fd 3f
       0.07828945 0.45312616 3.801608 1.9810953
000160 be cf fd 3c 4c 0f 7d 3c dc 62 8b 3e 2c c9 c1 bd
       0.030982848 0.015445542 0.2722386 -0.094621986
000170 48 16 72 40 d8 5a d3 bb d8 fc 22 c0 ff e7 f6 3c
       3.78261 -0.0064500384 -2.5466824 0.030139921
000180 6b 53 f4 be 2d b5 75 40 82 d7 f5 3f 9a a9 2e 3c
       -0.47719893 3.839183 1.9206393 0.010660553
000190 4e 1b fd 3d 2e 71 7e 3e bb 8a 0c be ac 39 74 40
       0.123587236 0.24847862 -0.13724796 3.81602
0001a0 36 05 95 3c 0c b0 20 c0 b5 41 e8 bc 17 4d cc bd
       0.018190961 -2.510745 -0.028351644 -0.09975641
0001b0 57 5a 77 40 20 68 fe 3f b8 4c 15 bc 60 e1 38 3d
       3.864889 1.9875526 -0.009112529 0.04513681
0001c0 50 a7 af 3e 68 3f 95 bd 89 7e 6d 40 79 08 22 bd
       0.34307337 -0.072874844 3.710848 -0.03955886
0001d0 39 95 21 c0 23 39 b2 3d 16 bb 5a 3e 79 db 6c 40
       -2.5247328 0.08702304 0.2136043 3.7008955
0001e0 7c 44 f7 3f 49 3f 50 3c 6e 04 3d 3d c0 d5 4a 3e
       1.9317775 0.012710401 0.046146803 0.19808102
0001f0 73 7c d8 bd 07 17 68 40 86 84 89 3b e4 c5 23 c0
       -0.10570612 3.6264055 0.004196706 -2.5589533
000200 e4 e0 8e 3d 24 85 4b 3e e6 43 6b 40 4f 8e fe 3f
       0.06976488 0.19875008 3.6760192 1.9887179
000210 a3 6b c4 bc d3 9b 89 3d 57 b8 03 3d 90 fe 8c bd
       -0.023977106 0.06719174 0.032158222 -0.068844914
000220 84 33 68 40 ba d4 c3 bb e3 15 24 c0 61 9b 9f 3d
       3.6281443 -0.0059762867 -2.5638359 0.07793308
000230 51 6a 8e bd 29 93 6a 40 d8 bc 06 40 c3 92 f3 bb
       -0.06953872 3.665232 2.105276 -0.007433267
000240 b3 68 e3 3d e2 f4 72 3e ee 1d 96 bd d9 b9 6f 40
       0.11103954 0.23726228 -0.073299274 3.7457182
000250 c1 30 24 3d 46 49 23 c0 6b 78 fe 3d e0 7e 27 3e
       0.040085558 -2.5513473 0.12425312 0.16356993
000260 ce 34 73 40 c4 4d 15 40 64 fc 40 3d 09 57 13 3e
       3.800098 2.3328714 0.0471157 0.1438867
000270 26 6e 5c 3e 0d 49 c2 bd 82 47 77 40 c8 b8 42 3d
       0.21526393 -0.094865896 3.8637395 0.047539502
000280 46 09 20 c0 c6 11 f4 3d a5 1c e5 3d 1d 17 72 40
       -2.500566 0.119174525 0.11187104 3.7826607
000290 75 23 16 40 0a 5f 10 bd 90 de 59 3d 8b e0 70 3e
       2.3459141 -0.035246886 0.053190768 0.23523156
0002a0 b7 57 23 be 2c b8 7b 40 6f 63 91 bc b7 eb 21 c0
       -0.1595143 3.933116 -0.017747609 -2.530012
0002b0 2c 3b e8 3d 9d 44 07 3c b1 20 7b 40 34 3c 1e 40
       0.11339411 0.008256105 3.9238703 2.4724245
0002c0 df b2 91 3b 91 e1 01 3e d6 96 2b 3e df 8d 15 be
       0.004446372 0.12683703 0.16756758 -0.14604901
0002d0 8f f6 80 40 fd fc c1 bc 6a e4 24 c0 4b 54 26 3e
       4.0300975 -0.023680205 -2.5764413 0.16243093
0002e0 32 62 13 3d 66 77 81 40 46 0b 23 40 40 a0 07 bd
       0.03598232 4.045825 2.547563 -0.03311181
0002f0 32 9f 1a 3e 13 d7 35 3d b2 60 ce bd bf 3c a4 40
       0.1509979 0.044394564 -0.10077037 5.1324153
000300 04 df 42 3d 52 33 24 c0 d5 8b dc 3d dd 3d cf 3e
       0.047575966 -2.5656323 0.10768858 0.40476885
000310 38 e1 a5 40 4a 32 36 40 01 68 15 3c 9c 16 02 3e
       5.1837425 2.8468194 0.009119035 0.12703937
000320 a7 fe 8a 3e d8 91 1d be ce f0 a5 40 e0 a5 5e 3d
       0.2714741 -0.15387666 5.185645 0.05435741
000330 18 0d 26 c0 3f 26 ec 3d 27 70 c2 bd 83 8e a8 40
       -2.5945492 0.11530732 -0.094940476 5.2673965
000340 dd 38 40 40 88 e1 04 3d f5 35 f0 3d f8 d9 d5 3e
       3.0034707 0.032441646 0.117290415 0.4176786
000350 65 65 83 3b c7 9b a7 40 ba 38 a7 3c 45 d0 25 c0
       0.00400989 5.237766 0.020412792 -2.5908368
000360 69 bc dc 3d a4 4b 5e 3e a5 ed a5 40 a6 17 47 40
       0.10778124 0.21708542 5.1852593 3.1108184
000370 59 23 1d bd 39 c1 eb 3d a3 c7 ba 3e 93 64 01 be
       -0.03836379 0.11511464 0.36480436 -0.12636022
000380 37 35 93 40 8c 72 99 ba e0 64 26 c0 c8 40 02 3e
       4.600246 -0.0011707111 -2.599907 0.12720025
000390 3d 97 e6 3d 9d 83 95 40 a3 fd 65 40 d2 8e 05 3d
       0.11259315 4.672316 3.5936058 0.032606907
0003a0 31 51 f8 3d f8 d4 92 3e 5e 52 36 bd 3f ed 96 40
       0.12124861 0.28678107 -0.044512145 4.7164607
0003b0 91 bd 8e 3d a7 9c 26 c0 5e ed 3a 3e e7 30 fb 3d
       0.06969751 -2.6033113 0.18254611 0.12265187
0003c0 8f 74 97 40 fa 7d 81 40 f4 64 0a bd bc 76 63 3e
       4.7329783 4.046628 -0.033787683 0.22213262
0003d0 bb b8 89 3e 35 5f 7e bd 91 fe a1 40 38 de 9e 3d
       0.2689875 -0.062102515 5.062325 0.077572286
0003e0 c2 5b 25 c0 1b f4 1e 3e 79 68 8b bc ae c8 a1 40
       -2.5837255 0.15522806 -0.01701759 5.055747
0003f0 60 e6 86 40 d3 cb 5a 3c 08 3b 1e 3e fb c9 2c 3e
       4.215622 0.01335426 0.15452206 0.16873924

network_smart.layer1.0.bias f4 [128]
000000 2f 1b 36 bd 11 6f 8e bd df 71 f2 3d 78 88 1f be
       -0.044459518 -0.06954778 0.118381254 -0.15579402
000010 85 3c 0f 3e 8f 00 9f be 22 a8 8f 3d 6a 26 38 3c
       0.1398793 -0.31055114 0.07014491 0.011239627
000020 5b 93 a2 bc 2f 42 cc bd c3 55 d2 3c c3 1a 82 bd
       -0.019845655 -0.09973561 0.02567566 -0.06352761
000030 c2 5f c9 bd 89 31 b8 bd 50 6e 18 be ef ba 27 be
       -0.098327175 -0.08993823 -0.14885831 -0.16379903
000040 6f 16 b0 be 02 e7 21 be ca ba 10 bb 73 42 90 3e
       -0.34392115 -0.15810779 -0.0022083991 0.28175697
000050 81 37 92 bc d9 63 8d 3d 0d 32 ed 3d dd e3 18 bd
       -0.017848732 0.0690381 0.11581812 -0.037326682
000060 9c 93 57 3e 92 16 d7 be a2 27 6b 3e ab e6 ea bd
       0.21052402 -0.42009407 0.22964337 -0.11469778
000070 b0 6d 13 bc fe dc dd bb 69 7b aa 3d 5d 79 c9 3d
       -0.0089983195 -0.006770729 0.0832432 0.09837601
000080 c3 24 e1 3d 37 6d 68 3e d0 bb da bd 28 38 3c 3e
       0.1099334 0.22697912 -0.10680354 0.18380797
000090 23 30 37 3e 47 62 ef bd c0 55 58 3e eb 99 47 bc
       0.17889456 -0.11688667 0.21126461 -0.012182693
0000a0 81 44 9f bd 4a 3e 4e 3d d7 62 1d 3e 0f c8 f5 bc
       -0.07776738 0.050352372 0.15369736 -0.030002622
0000b0 45 e6 ab bc 26 44 6e 3e 34 86 fa 3c 4c 06 e3 3d
       -0.020983825 0.23268184 0.030581571 0.110851854
0000c0 02 5a d3 bd 79 cd 13 3e 49 b5 37 3e 3b 0d e1 bb
       -0.10319902 0.1443385 0.17940249 -0.0068680323
0000d0 1a 39 00 3e f0 a8 0d 3e de 15 17 bd 6b 4b 53 3e
       0.12521783 0.13833976 -0.03688609 0.20634238
0000e0 7f 2f 2c bd e3 a6 4d 3b 64 45 96 bc 83 fb 73 3c
       -0.042037483 0.003137999 -0.018343635 0.014891508
0000f0 40 dd c2 bd 88 ca 41 3c 89 3b 61 be 9f df 25 3d
       -0.09514856 0.011828072 -0.21995367 0.040496465
000100 75 72 65 be ff b3 11 3e fc fb 35 3e 3a dd d2 be
       -0.22406943 0.1422882 0.17771906 -0.41184407
000110 b8 b8 aa 3d 94 4a 38 bd 2d 81 20 3e ec a9 f3 bc
       0.083360136 -0.044993 0.15674277 -0.029744111
000120 44 cc 3c 3e ed 5a 1b 3e 5d 8f 39 be cc 36 30 bd
       0.18437296 0.15171404 -0.18121095 -0.04302101
000130 d2 61 24 3e a0 27 3d bc 98 5a e2 3d a0 2d b7 bb
       0.1605294 -0.011545092 0.11052436 -0.0055901557
000140 18 fd fc 3d d9 c7 3d be 21 4e 21 3e b2 2c 5a 3d
       0.12352961 -0.18533267 0.1575246 0.05326528
000150 7c 79 34 3e 6d 5f ad be b8 f2 74 3e 6d 36 00 be
       0.17624468 -0.33861867 0.23920715 -0.12520762
000160 b3 13 32 3e 78 8a cf 3d 83 8d 13 bd 37 b5 21 3d
       0.17390327 0.10133833 -0.036023628 0.03947946
000170 47 05 65 3d 1f e8 66 3d ae a3 2f 3e 0a 77 0c 3e
       0.055913236 0.05637371 0.17152283 0.13717285
000180 c9 2f ff 3d a2 f4 f5 bd 7e f8 1c 3e df 5f 1a 3d
       0.12460286 -0.12009551 0.15329167 0.037689086
000190 0f 20 c8 be ef b5 17 3e e6 97 84 bd 57 3a 48 3b
       -0.3908696 0.14815496 -0.06474285 0.0030552351
0001a0 46 d6 bb 3c 08 55 d9 be 65 d7 14 3e 8e 7b 0d 3e
       0.022929322 -0.42447686 0.14535291 0.13816664
0001b0 94 5a f9 ba 52 a4 9b bb cb 27 10 3e 70 be b2 3d
       -0.0019024187 -0.004749813 0.1407768 0.08727729
0001c0 63 f2 09 bd 51 9f 65 bc b7 fc 98 3c f8 f6 8e bc
       -0.033678424 -0.014015035 0.018675191 -0.017451748
0001d0 6d 9e 05 bb a0 48 09 be 7b 3a 41 3e 49 e5 4f 3b
       -0.0020388619 -0.1340661 0.18869965 0.0031722358
0001e0 53 be ab 3d eb d5 10 3b 97 a3 cc 3d 2b 50 c8 be
       0.08385911 0.0022100161 0.0999214 -0.39123663
0001f0 77 58 64 bd c6 ee 44 bd a2 3a 2f 3e 47 10 14 3e
       -0.05574843 -0.048079275 0.1711221 0.14459334

network_smart.layer2.0.weight f4 [128, 128]
000000 ce 28 05 3e fb 54 6d 3c 2a 54 d8 3c 2b c7 2b bf
       0.13003847 0.014485593 0.02640732 -0.6710078
000010 a1 d9 7f 3d 64 b2 69 be bc 8b 92 bd 65 8f 7b 3d
       0.062463406 -0.22821957 -0.071555585 0.06141605
000020 fc 34 0a bc 2f f2 68 3e e8 cf ef 3d 83 6f d6 3d
       -0.008435484 0.22748636 0.11709577 0.10470488
000030 9d 10 08 bd 93 50 bc bc 89 29 d7 bd 6f 52 5a 3e
       -0.03321897 -0.02298764 -0.10505969 0.21320508
000040 d3 97 83 3d 31 bb 1a be b1 1a 1f bd d4 0c 5c 3d
       0.064254425 -0.1511047 -0.038843814 0.05372317
000050 8b 94 56 3b 7a 5e 7f 3d df c1 48 3e 68 8c a5 bd
       0.0032742347 0.06234596 0.19605206 -0.08083421
000060 ad bc d1 bd 0d cc fa 38 5c d3 3a 3e 83 79 cf 3c
       -0.10241065 0.000119589364 0.1824469 0.025326496
000070 5d 81 78 bd 34 3f 7d bf ac f1 a8 be ba 8f 95 bd
       -0.060670245 -0.98924565 -0.3299688 -0.07302804
000080 23 5e b7 3d ce 52 9a 3d 52 e4 20 3d a2 16 1d 3e
       0.08953502 0.07535325 0.039280243 0.15340665
000090 2a 5e ae 3d 03 47 ed be 98 3b b7 bc 38 65 2f bd
       0.08514054 -0.4634324 -0.022367284 -0.04282114
0000a0 76 16 53 3d c9 b8 8f bd fe 9e a9 bd 43 56 78 bd
       0.051535092 -0.07017667 -0.082822785 -0.06062914
0000b0 32 89 9a 3d bd 17 ce bd 9a ab 21 bf 88 7f be be
       0.07545699 -0.100631215 -0.6315247 -0.37206674
0000c0 95 d3 19 be 0a 6a af 3e 30 be 99 3c 6c 0f cd 3d
       -0.15022118 0.3426059 0.018767446 0.10012707
0000d0 6a 28 38 be 90 2f 34 be bb 47 80 3d 06 ef 2f 3e
       -0.17984167 -0.17596269 0.062636815 0.17181024
0000e0 ac 5a aa bd a4 70 32 be cb 20 fc 3d a4 0c 06 3e
       -0.083180755 -0.17425781 0.12310942 0.1309076
0000f0 37 c2 d4 3c c9 74 1a be fb 4c 1f 3f 73 4d bd 3d
       0.025971515 -0.15083613 0.6222684 0.09243288
000100 f7 0f 2e be f9 85 7f bc e2 6b 45 bd f5 c9 04 bf
       -0.16998278 -0.015595906 -0.04819859 -0.5187066
000110 cb 78 88 be 2f 4e 5c bd ae 8f c6 3c c4 40 9c 3d
       -0.26654658 -0.0537855 0.024238434 0.076295406
000120 25 60 48 bc 92 67 26 3b a2 11 86 3d 22 74 b1 bc
       -0.012229954 0.0025391323 0.06546332 -0.021661822
000130 6d 49 35 3d ea 3d 31 bd 0b 00 c8 bc 93 f0 50 3d
       0.044259477 -0.043271936 -0.024414083 0.05101068
000140 3c f5 e6 bd 5e a4 97 3d 8e c5 64 3d 3f 17 79 3d
       -0.112772435 0.074043974 0.055852465 0.060813185
000150 dc 4f e1 bd 9b e0 83 3e f5 55 69 3e 57 36 01 3c
       -0.1100156 0.25757298 0.22786696 0.007886491
000160 42 e0 53 3e 6c b6 db bc 2f fb 15 bd 40 2e ec bd
       0.20691016 -0.026820384 -0.0366165 -0.11532259
000170 16 fb 83 bd 0c 33 d3 3d 96 a9 15 be db 68 17 be
       -0.06444375 0.10312471 -0.14615473 -0.14786093
000180 38 f8 a5 3d e5 9c 5e 3c c8 f7 17 3e ae cb 12 ba
       0.081039846 0.013587211 0.14840615 -0.00055998086
000190 02 cd c6 bf d2 4f d8 3c 52 98 f8 bd f0 fc 3c bd
       -1.5531313 0.026405249 -0.12138428 -0.046139657
0001a0 28 89 c6 3d 2a 22 a7 3e 89 3a 71 be 67 f1 ed bc
       0.09694129 0.32643253 -0.23557486 -0.029045774
0001b0 76 a9 b9 be 2f a5 a3 3c a2 b8 5f bd 4e c6 91 be
       -0.362621 0.019976227 -0.05461944 -0.28471607
0001c0 cc a8 90 bd 16 24 0d bd 29 b9 80 3d c2 79 19 bc
       -0.070634454 -0.034458242 0.062853165 -0.009367408
0001d0 e2 a8 1c 3d 5e 1c 10 bd 3d f1 a5 3d 6c b6 92 3d
       0.038246997 -0.035183303 0.08102653 0.071637005
0001e0 1b 0c e1 3c 12 87 f4 3d d7 33 68 be 23 c4 62 3d
       0.027471593 0.11939825 -0.22676025 0.05536283
0001f0 84 22 82 3d af 56 d5 3d 73 5c 7d 3d ca 35 91 3d
       0.063542396 0.10416924 0.061855745 0.070903376
000200 a5 6e ef 3c 11 0f c1 3d e0 c8 ae bc 9a 5a 7e bf
       0.029227564 0.09426702 -0.021336019 -0.99356997
000210 c2 14 81 bd 06 ae b3 be 90 3a c7 bd 1c 96 13 bc
       -0.06302787 -0.35093707 -0.09727967 -0.009007957
000220 ad 8a aa 3d a6 5a f2 3c b7 76 a7 3e d0 63 b3 be
       0.083272316 0.02958424 0.3270776 -0.35037088
000230 12 50 a5 bd c7 60 46 bd 0b 64 16 be e4 a6 74 3e
       -0.08071913 -0.048432138 -0.14686601 0.23891789
000240 fd 4b 87 bd 8f d8 d6 3d b7 38 57 be ca be aa 3d
       -0.066062905 0.10490524 -0.21017729 0.083371714
000250 fb 95 ab 3c 8a 37 83 be 48 8f c6 bd c1 bf 93 3d
       0.02094554 -0.2562831 -0.096952975 0.072143085
000260 ee 1e 9d bd 78 d7 49 bd 10 24 fa 3d f0 90 af 3d
       -0.07671915 -0.049277753 0.122139096 0.085725665
000270 1a 3c d6 3c 4e 11 35 be a6 90 c2 be ab b4 94 3d
       0.026151706 -0.17682382 -0.38000983 0.07261022
000280 4d 8f 4b 3e 9b 8f fc 3d 44 03 a2 3c 69 39 f7 bd
       0.19878884 0.12332078 0.019776948 -0.12071497
000290 6b 00 8d 3e 15 b2 fc 3e 3a b0 1e be 23 aa 69 3d
       0.2753938 0.49354616 -0.15496913 0.05704702
0002a0 d7 94 96 3b 6b c2 01 bf 71 16 41 bd 2c 9a d7 3d
       0.00459538 -0.50687283 -0.047140542 0.10527453
0002b0 b6 a4 be be 27 c5 df bc a8 af 6a be bc 16 38 be
       -0.3723504 -0.02731569 -0.2291857 -0.17977422
0002c0 02 a4 34 3d 2a 30 08 be 76 22 8c 3e 69 5d 3a 3d
       0.044101723 -0.13299623 0.27370042 0.04549924
0002d0 0f 64 b9 bd 42 cd b4 bd 5b 15 12 bd 4b 76 ad 3d
       -0.09052288 -0.08828212 -0.035664897 0.08469828
0002e0 42 aa 82 bc 51 cb 43 be 7c d7 ed 3d c3 7e 44 be
       -0.015950326 -0.19120528 0.11613366 -0.19188981
0002f0 93 80 b8 3d 2b 45 9c be 14 2d 1d 3f d2 b9 87 3d
       0.090088986 -0.3052152 0.6139691 0.06627239
000300 d2 51 3a 3e f1 38 d9 3c f4 b8 93 bc a1 0b da be
       0.18195274 0.02651641 -0.018032528 -0.42586997
000310 cf a1 25 3e 6d f8 67 bd 1e 36 7a 3d 7e 0d 20 bd
       0.16175006 -0.0566334 0.061086766 -0.039075367
000320 1a 67 e9 bc 72 ae 6e 3e 2b ee 18 be 73 e4 5c bd
       -0.028491545 0.23308733 -0.14934604 -0.053928804
000330 54 17 d2 bc 17 68 a7 bd e0 55 5a bb 3a 16 84 bd
       -0.02564589 -0.081741504 -0.0033315346 -0.06449552
000340 69 40 db be f8 8d 3d 3e 70 7c 18 3f 38 76 02 3d
       -0.4282258 0.18511188 0.59564877 0.031851023
000350 12 18 12 be 57 e8 1d be 82 8f 67 3d d0 25 81 3e
       -0.14266995 -0.15420662 0.056533344 0.2522416
000360 74 31 3f 3e bc 27 08 bf 2f 37 21 3c 99 8a 66 bd
       0.18671209 -0.5318563 0.009839817 -0.05628452
000370 75 ec 40 3d 25 52 bc 3d cf e5 58 3d d5 c3 1c 3e
       0.047100503 0.09195355 0.052953538 0.15309079
000380 15 40 f1 3d b1 f0 cc bd 7b 1d a2 3c 70 40 b1 3c
       0.11779801 -0.10006846 0.019789448 0.021637172
000390 c8 a1 3f bf 92 c5 0c be 28 80 82 bd b6 2d ff 3c
       -0.74856234 -0.13747242 -0.063721 0.031149726
0003a0 1a db ac bc 75 5e 97 3e eb 74 51 3e 3a 23 99 bd
       -0.02110057 0.29564252 0.20454757 -0.07477422
0003b0 89 a5 b3 3e 56 bb 94 3d b0 f9 1c bd af 37 62 3d
       0.3508723 0.07262294 -0.038324058 0.055228885
0003c0 6c 0f 99 bd 3f c9 88 bd 00 3a 7f bd 6e 4b 4b 3d
       -0.074736446 -0.0667901 -0.062311172 0.049632482
0003d0 e6 e6 21 3e a8 83 2f 3d 59 e7 81 3c b9 af 73 bc
       0.15810737 0.042850167 0.015857385 -0.0148734385
0003e0 42 ab 01 3e ae b8 8c 3d 72 df f6 bd 53 4f 06 3e
       0.12662986 0.06871162 -0.120543376 0.13116197
0003f0 d8 9b 2a 3d ef 58 da bd 34 26 14 3e 0f 79 ec be
       0.04165253 -0.10661494 0.14467698 -0.4618611

network_smart.layer2.0.bias f4 [128]
000000 a8 3d 7f 3d 0a 2d 38 3d 9e 92 e7 bb 6e cf aa 3d
       0.06231466 0.044964828 -0.0070670387 0.08340345
000010 42 05 f4 3d c4 a1 8e 3d 77 2a 02 3c db 01 c8 3d
       0.11915065 0.06964448 0.007944695 0.09765979
000020 d2 7e 84 be 78 6f f2 3d 53 d1 2c 3c 99 51 dc bd
       -0.25878006 0.11837667 0.010547954 -0.10757751
000030 54 06 17 3d 5a 6f d2 bd 1a c7 69 3d a9 92 b7 bc
       0.03687127 -0.10275145 0.057074644 -0.0224088
000040 8d b8 96 be 3a ce 85 3a 1d 76 5f bb 7c 9c 31 be
       -0.29437676 0.0010208555 -0.00340975 -0.1734485
000050 ba dc 86 bd 29 62 b5 bc 65 e3 a5 3c cb 2e 90 be
       -0.06585069 -0.022141533 0.020250032 -0.281607
000060 7a bc b3 3d 58 e1 79 3d 39 7f 5f 3c 85 a1 75 3d
       0.087761834 0.06100592 0.013641172 0.05996849
000070 08 45 cd ba f5 b0 00 bd 3c dc 99 3c 44 bd 42 3c
       -0.0015660832 -0.03141876 0.018781774 0.011885945
000080 52 5e 06 3e 99 4a 3a bb 93 06 f8 3b 5e 55 8d bd
       0.13121918 -0.0028425811 0.007569143 -0.06901048
000090 1e 31 36 bd 58 d3 01 be 5b 08 1e be 21 0c f2 bd
       -0.044480436 -0.12678277 -0.15432875 -0.1181872
0000a0 90 36 23 3d d0 9c a7 bc c0 9c 59 bc bd 0b fd bd
       0.039846957 -0.020460516 -0.013282001 -0.123557545
0000b0 49 8c 25 be 9f 6c d1 bb f0 69 68 bd d0 56 7e 3d
       -0.16166796 -0.0063911225 -0.056741655 0.06209451
0000c0 54 1f 35 bd c5 b6 c7 3d aa 6f 84 bc 63 fb c3 3b
       -0.04421933 0.097516574 -0.016166527 0.0059808954
0000d0 2a fb 58 3d 9b 97 10 3d 40 61 04 bd c7 d0 98 3d
       0.052973904 0.035300832 -0.032319307 0.07461696
0000e0 bf d1 28 bd 35 40 97 3d c1 24 90 bd d8 c3 b9 bd
       -0.041215654 0.073852934 -0.0703826 -0.09070557
0000f0 cd 11 7f 3d 82 59 f5 3d af 39 ff 3b 7b 6a 07 bc
       0.062272836 0.11979963 0.007788859 -0.008265133
000100 07 57 ec 3d ad e8 3c 3d 6a 5e 66 be 3c bb 29 3d
       0.11540037 0.046120334 -0.22496954 0.041438326
000110 74 8d 82 bd 40 d8 9d bc 07 da a9 3d d6 ff 87 bd
       -0.06374636 -0.019268155 0.082935385 -0.06640594
000120 2e 20 48 be bd 5e 98 be c6 88 1b bd e8 21 90 3d
       -0.19543526 -0.2975978 -0.037972234 0.07037717
000130 91 b4 00 3e 5a 1f 4a bd 51 3b c9 bd 41 de 80 3d
       0.1256888 -0.049346305 -0.09825767 0.062923916
000140 83 0e 62 bd 35 11 ee bd 0a 08 41 3d a0 84 0b 3d
       -0.05518962 -0.11624376 0.047126807 0.034062028
000150 3d d8 2a be 30 73 97 3c 9e d7 c2 bd 0d f2 a8 3c
       -0.16684051 0.018487543 -0.09513782 0.020623231
000160 05 05 8e bd a0 42 13 be 35 91 1b be 9b 9a 92 bd
       -0.06934551 -0.14380884 -0.15192111 -0.07158395
000170 95 1d 25 3d f4 81 a8 bc 15 ca 91 3d 9e 75 c5 bd
       0.040311415 -0.020569779 0.07118622 -0.09641574
000180 02 7c e2 3d 93 85 33 3e 0a 62 24 bc 6e ac 92 bd
       0.11058809 0.17531423 -0.01003314 -0.071617946
000190 2d 94 12 3d 7c e0 b2 bd 05 cb 5e bc ac 79 df 3d
       0.035785843 -0.08734223 -0.013598208 0.10911879
0001a0 41 4b c8 bb 46 f1 97 3d e3 15 00 bd cf 32 84 be
       -0.0061124866 0.07419066 -0.031270873 -0.25820014
0001b0 ab fd 08 3d 9a f2 d2 3d eb 2a 88 3d e8 53 97 bc
       0.03344504 0.10300179 0.06648811 -0.018472627
0001c0 d4 b8 b5 3d 7a ac 0f bd 16 e2 c4 bd c3 29 30 be
       0.08873144 -0.035076596 -0.09613435 -0.17203431
0001d0 20 cb 9d bd b3 d3 43 bd ac 99 d9 3d 8d c6 84 be
       -0.07704759 -0.047809314 0.10625014 -0.25932732
0001e0 a1 f1 c5 bd 44 f3 ae 3d 1b e6 a3 bd d5 71 85 3c
       -0.09665228 0.08542493 -0.080028735 0.01628963
0001f0 89 4d 4d 3d e3 48 20 bd 5c fb d9 3c ca 31 86 bc
       0.05012277 -0.03913201 0.026609115 -0.016381163

network_smart.layer3.0.weight f4 [48, 128]
000000 c9 cd f5 3d 3e ba 36 3e c3 4a 34 be 88 b4 3b bd
       0.12002141 0.17844483 -0.17606644 -0.045826465
000010 19 b8 f8 bc ae 50 8f 3e bc 2f 78 be e4 5c 3a be
       -0.030361222 0.2799124 -0.24236959 -0.18199497
000020 aa eb ce bd f6 02 8c be b5 fb 9f 3e 1d 1e bc 3d
       -0.10103543 -0.2734601 0.31246725 0.09185431
000030 68 7b 5a 3d 92 4a 76 3e cc 1d 4c bd 0f a1 26 3e
       0.053340346 0.24051884 -0.049833104 0.16272376
000040 6f 70 65 bf d9 18 d4 3b ab f1 15 be 10 1e c9 3b
       -0.89624685 0.0064726886 -0.1464297 0.006137617
000050 62 8a 7b bc 0e 5c 4a 3b fe 26 a8 bc 2c 1f 71 bd
       -0.015352817 0.0030877623 -0.020526405 -0.05886762
000060 1c e1 4f 3c 9d 45 4a be e8 7f 70 bc 89 da aa be
       0.012687948 -0.19753118 -0.014678933 -0.33369854
000070 f3 cd de be 9d 31 67 be 8f 0f 2d bd ac f6 92 3d
       -0.43516502 -0.2257752 -0.042251166 0.07175955
000080 94 12 80 bc 76 3e 24 bf 0a 26 cc 3d d9 93 5d be
       -0.015633859 -0.6415781 0.09968193 -0.2163843
000090 d3 3b 41 be fa 6c 0f 3c 9a 12 bf 3c be ed d8 bf
       -0.18870477 0.008754009 0.0233243 -1.6947553
0000a0 1a 90 3c bd 9c ac 48 3c 78 f1 43 be 61 40 83 bb
       -0.046035863 0.0122481845 -0.19135082 -0.0040054773
0000b0 46 84 b4 3e 3d f7 c9 bd 40 a7 17 bf 01 da 01 3d
       0.35257167 -0.0986161 -0.5923958 0.031702045
0000c0 97 b1 d0 bd 12 ec 35 3e ba b1 83 3e 4b ac f3 3c
       -0.101901226 0.17765835 0.25721532 0.029745242
0000d0 d0 98 3f 3c 5d 58 cc 3d 7c cd 3b 3e 0d 9f 18 3e
       0.011694148 0.099777915 0.18340105 0.14904423
0000e0 d2 54 94 bb 24 89 5b be cf 7e d7 ba b5 cf 69 3e
       -0.004526713 -0.21439034 -0.001644099 0.2283314
0000f0 44 14 86 be 63 e2 9e 3c 70 1e 87 3e cc 6f 94 3c
       -0.26187336 0.019395059 0.2639041 0.018119715
000100 b4 e5 fb 3d d3 a6 c2 3c 3b d9 d8 3d 3d 57 4c be
       0.12299672 0.023761189 0.105883084 -0.19955154
000110 01 c6 42 be f4 c8 fa 3c 34 c1 38 bd 67 26 de 3d
       -0.19020845 0.0306134 -0.045106128 0.108471684
000120 d5 39 1c bf 8f 64 19 c0 90 c3 f5 bc 34 91 09 3d
       -0.61025745 -2.3967626 -0.030000478 0.033585742
000130 cc 4e 85 3d 59 51 dd 3c 81 29 ca bd d4 e9 8a bc
       0.0650917 0.027016329 -0.098711975 -0.016957201
000140 ad aa 1e bd 6c 69 3e 3e 31 89 48 3b f3 d1 a3 3e
       -0.038736988 0.18594903 0.003059935 0.31996116
000150 ef f1 9e be be 70 91 3d 5a 80 52 3f 22 89 19 3e
       -0.31043956 0.07101582 0.822271 0.14993718
000160 c1 26 a3 3d 54 76 48 be 55 a4 5a 3f d3 8d 70 bd
       0.07966376 -0.19576389 0.85407 -0.058729004
000170 f9 60 14 3c 8d b2 de 3d 5c 09 5f 3d bf 36 3f 3c
       0.009056323 0.108738996 0.054452285 0.011670767
000180 04 3a 26 3c 8a f1 00 3d 00 b2 7b bf 32 b8 8d 3d
       0.010145668 0.03148035 -0.9831848 0.06919898
000190 aa a3 3c bd 40 45 62 bd 06 ba e3 3d 84 bd ca be
       -0.04605452 -0.055241823 0.111194655 -0.39597714
0001a0 0c ea d8 3d 29 3d 1b be 37 1e a7 be c2 d3 7c c0
       0.10591516 -0.1516005 -0.3264024 -3.9504247
0001b0 06 9e 24 3d 44 e3 a0 bc 46 22 0b be 05 20 9e be
       0.040189765 -0.019639619 -0.13587293 -0.30883804
0001c0 c7 36 9a bd bc bf 0d be 66 04 d2 3c 08 9c d0 be
       -0.07529979 -0.13842672 0.025636863 -0.40744042
0001d0 3b 34 66 be 9e 22 6e 3d d5 b9 81 be 7a e2 04 3e
       -0.22480862 0.058138482 -0.2533709 0.12977019
0001e0 80 cc 18 3d 1d 46 3d be 73 52 12 3c c1 93 a5 be
       0.0373044 -0.18483777 0.00893079 -0.3233929
0001f0 1b 8b 00 3e 11 79 e2 3d 23 73 aa bb b4 58 1e bf
       0.12553065 0.11058248 -0.0052017136 -0.618541
000200 29 4b f9 be 73 79 3f bf f0 8f 7d bc 8e 5b 8f 3e
       -0.48690155 -0.7479469 -0.015476212 0.27999538
000210 09 d3 04 bf 39 c4 20 3e f3 8f f1 3e 69 8a 11 bf
       -0.51884514 0.15699853 0.47180137 -0.5685182
000220 11 ce 1e bf 53 a5 42 3e cb 03 96 bf 5c 08 4b bf
       -0.6203318 0.19008379 -1.1719908 -0.7930963
000230 d2 9c c1 be c3 fb 97 3e 57 a6 8c 3d 72 82 be 3b
       -0.37814957 0.29684266 0.06867664 0.00581389
000240 a6 09 26 3e 2b 72 17 bd 69 a9 09 3e 69 26 db 3d
       0.16214618 -0.036974113 0.13443531 0.107006855
000250 96 de cc bd 4a e6 af 3d f0 ad d0 be c1 88 ba 3b
       -0.100033924 0.08588846 -0.40757704 0.005692572
000260 37 4d f5 3b fb a7 69 c0 67 b5 f8 be 4f 98 c0 3d
       0.0074860114 -3.6508777 -0.485759 0.094040506
000270 b0 25 75 3f de f6 51 3e 38 dc c1 3d bd b4 ed 3d
       0.9576063 0.20504329 0.094658315 0.11606739
000280 58 bb 02 be 11 79 fd be a5 46 26 be a4 2c 1a bf
       -0.12766778 -0.4950643 -0.16237886 -0.60224366
000290 47 6e 0a 3e 38 f0 50 be c6 28 5a be 6e 37 6e 3f
       0.1351863 -0.20404136 -0.21304616 0.9305333
0002a0 f6 e0 5b 3d 7f 6d 8d 3d 39 e2 b0 be 4b 12 74 3e
       0.053681336 0.0690565 -0.34547594 0.23835103
0002b0 cb 5d 74 be e9 dc d2 bf b2 1f 12 3d b7 ec e8 3a
       -0.23863904 -1.6473666 0.03567476 0.0017770742
0002c0 c4 94 4f bd ac 2b 74 3e e9 0b 8a be 52 b8 bf 3e
       -0.050678983 0.23844784 -0.26962212 0.37445313
0002d0 0b a8 1d 3e e4 a7 3e be 51 d3 a9 3c 78 77 b2 bc
       0.15396135 -0.18618733 0.020730646 -0.021785483
0002e0 93 c3 6c 3e f9 68 99 c0 34 b6 54 bc 98 b5 13 3f
       0.2312148 -4.794064 -0.012982894 0.57698965
0002f0 a1 3f 13 bd 92 43 6c 3e 63 68 0b 3f ba c9 32 3e
       -0.035949353 0.23072651 0.54456156 0.17459765
000300 a3 d3 51 bd 7a 8e a5 bc f6 f7 e8 3f 77 aa d5 3d
       -0.051227223 -0.02020954 1.8200672 0.10432904
000310 ad 5c b2 3e d5 3d 85 bd dd 83 9e 3e 70 a8 41 be
       0.3483633 -0.06505934 0.3095998 -0.1891191
000320 0e fb 7d 3c 5b 66 18 3d ec a8 37 3d a9 05 35 bc
       0.015501751 0.03720699 0.04483883 -0.011048713
000330 32 4e 4c be ef 1e 0b bd 0d fc cf bd ac 6d 72 be
       -0.19951704 -0.033965047 -0.10155497 -0.23674649
000340 ba f1 55 bd e3 6a 17 be 49 f4 34 be e1 ef f3 3e
       -0.05223248 -0.14786868 -0.17671312 0.4764395
000350 a8 70 63 3d 97 42 02 3e 4d a6 2e bf 8e b5 79 be
       0.05552736 0.12720715 -0.68222505 -0.24385664
000360 89 9a ce 3d d5 c1 88 3d f1 aa 31 3f 41 2b 8a 3d
       0.10088069 0.066775955 0.6940146 0.06746531
000370 bd 32 1d be 0d 21 0c bd 8d 30 7a bd 66 8d 39 bd
       -0.15351386 -0.034211207 -0.061081458 -0.045300864
000380 b0 c4 21 3e 66 c0 5f 3d 2f 0f 18 c0 f7 5e 6b bd
       0.15797687 0.054626845 -2.3759267 -0.057463612
000390 a1 b7 21 3e 34 37 8d bd 71 ef 11 3e 5e 27 ac 3e
       0.15792705 -0.06895295 0.14251496 0.33623785
0003a0 7a df 93 3d 8f 74 d2 bd 5f 08 95 3e 8f 7c 63 be
       0.07220359 -0.10276138 0.2910795 -0.22215484
0003b0 45 d6 34 3e 0f cd 31 bf 56 ef 01 be 45 11 24 3e
       0.17659862 -0.6945352 -0.12688956 0.16022213
0003c0 34 f5 42 3e 0c f8 4e bf c3 33 24 be 23 bf 01 3f
       0.1903885 -0.8084724 -0.1603537 0.50682276
0003d0 e1 d9 7c bd f7 b9 a2 bd 71 4a 1d be ef 8d af bc
       -0.061731223 -0.07945626 -0.15360428 -0.021429984
0003e0 d5 b8 02 bd 12 28 a8 bf cd 4d 90 bc 13 4f 98 3d
       -0.03191455 -1.3137228 -0.017615223 0.07436957
0003f0 96 d2 33 3e 64 09 18 be ea 42 b6 bd 1f 00 e6 3e
       0.17560801 -0.14847332 -0.088994816 0.44921967

network_smart.layer3.0.bias f4 [48]
000000 b4 80 aa 3d 38 04 d2 3c 1a 67 3d bd 00 10 e0 3d
       0.083253294 0.025636777 -0.046240903 0.10940552
000010 91 95 b6 3c a8 f8 d2 bd d7 00 b8 bd 01 1a b3 bc
       0.022288116 -0.10301334 -0.08984535 -0.021862986
000020 26 74 42 be 28 20 c2 3d ed 43 a5 3d 8d ad 70 bd
       -0.1898962 0.094787896 0.080695964 -0.05875926
000030 a5 39 10 bd 5c cc a9 bd ad 83 97 bd 73 92 8b bd
       -0.035211224 -0.082909316 -0.07398162 -0.06815042
000040 c1 3e bb bd e4 91 0b 3d 06 d8 88 3d cf 87 65 3d
       -0.09142829 0.03407468 0.06681828 0.05603772
000050 5c 8d 19 3e 29 dc 2e 3d 6e 97 66 bd eb 45 d3 3d
       0.1499533 0.04269043 -0.05629676 0.1031607
000060 9e cd c0 3d d3 08 7a bc 3c 67 74 3c 63 40 05 bd
       0.09414218 -0.015260893 0.014917191 -0.032532107
000070 94 1a 87 bd 4e 27 14 3c f3 4f ed 3d 26 80 18 3d
       -0.06596866 0.009042574 0.11587515 0.037231587
000080 93 ab fe bd 71 1d a8 bd fb 3d e5 bd 28 46 96 bd
       -0.12435069 -0.082087405 -0.111934625 -0.073376
000090 14 c8 d8 bd c5 8a 16 3e 14 ae a2 3d a9 8f b4 3d
       -0.10585037 0.14701374 0.07943359 0.088164635
0000a0 58 5f f7 3d f3 a4 24 be 2e 2a a4 bd f8 80 04 be
       0.12078732 -0.16078548 -0.08015858 -0.12939823
0000b0 73 4f 9e 3d 20 0e 84 3d e5 44 ae 3d 77 ac 34 bd
       0.077299975 0.06448007 0.08509234 -0.044109788

fc_smart.weight f4 [64, 48]
000000 32 e9 5f bd 01 da e8 3f f0 be 4b 3f 50 af e2 3d
       -0.05466575 1.819153 0.7958822 0.110685945
000010 08 6f 27 3e e7 a0 26 3e 42 5b 1f bd da bf 54 be
       0.16350949 0.16272317 -0.03890539 -0.2077631
000020 af 9e aa bd 93 d8 98 3e 44 b6 66 3e 3e f5 28 3d
       -0.08331048 0.29852733 0.22530466 0.041249506
000030 4d b0 0a 3e de 59 0c 3e d9 d3 3a bd fb 2f 16 3e
       0.13543816 0.13706157 -0.04561219 0.1466674
000040 f5 0e 10 bf ac 03 4d 3c bc c9 a4 bd 0a 2e ee 3e
       -0.5627282 0.0125130825 -0.0804629 0.465195
000050 fa 94 aa bd 96 42 37 3f c8 a0 ed bd 2e e4 1c 3e
       -0.08329196 0.7158598 -0.11602932 0.15321419
000060 75 2d c1 3e ca 4e 05 3e 35 ea 53 3e 70 a8 42 3d
       0.37729993 0.13018337 0.20694812 0.047523916
000070 17 95 dd 3d 25 2b 87 3d d1 16 a2 be 91 ea 08 bd
       0.10819452 0.06600026 -0.31658033 -0.033426825
000080 71 cd b9 3f 14 e1 d0 be 4a 94 8a be ab 79 b2 3d
       1.4515821 -0.4079672 -0.2706626 0.087146126
000090 8a 22 a4 3e 0c 64 01 3f 0d 95 54 be 90 4f b7 be
       0.320576 0.50543284 -0.20759983 -0.3580289
0000a0 fa f5 30 be 3b 6c 30 bf 41 c4 ac 3e ed 6b c6 3c
       -0.17281333 -0.68915147 0.3374348 0.024221385
0000b0 3f d4 b2 bd 2d e4 aa 3e 96 4f 2a 3e b5 e6 d1 3c
       -0.08731889 0.3337721 0.16631922 0.025622705
0000c0 22 42 06 bf 25 f9 e6 3e 57 fa ac 3e c5 ac 31 3f
       -0.5244466 0.45111957 0.33784744 0.6940425
0000d0 67 c5 5d 3f d6 0f 32 be 53 60 69 3d 2b e7 87 bb
       0.8662934 -0.17388853 0.056976628 -0.0041474304
0000e0 4e ac 94 be 64 05 a8 be 76 31 50 3f 76 de dc 3c
       -0.29037708 -0.32816613 0.8132547 0.026961546
0000f0 49 6e d4 be f5 67 e2 3e 12 a0 3b 3f 03 b7 6e 3e
       -0.4149039 0.44219938 0.7329112 0.23312001
000100 5b e1 8d bf 9e 8e b9 3c 6b 68 ce bc ea 49 96 3f
       -1.1084398 0.022651013 -0.025196275 1.1741307
000110 6a da 64 be c1 e8 9f 3f 98 b1 ee be 8e c5 82 bd
       -0.22348943 1.2492906 -0.46619868 -0.06385337
000120 44 fe 30 3f 82 22 80 3e d2 93 14 3f ac b2 a9 3e
       0.6913798 0.25026327 0.58038056 0.33144128
000130 73 e3 01 c0 32 60 90 bc 01 56 07 bf 5a 38 50 bf
       -2.0295074 -0.017623994 -0.52865607 -0.81335986
000140 4c 5c 6a 3f 47 fd eb be db b0 a3 3e 50 5e 27 3c
       0.91547084 -0.46091673 0.31970868 0.010215357
000150 73 1e 82 bf 1e 80 1a 3f ff c7 0d be c8 5c 58 3d
       -1.0165542 0.6035174 -0.13845824 0.052822858
000160 69 e8 46 be c6 f1 37 be ce 73 ed 3e 00 a9 35 3d
       -0.19424595 -0.17963323 0.46377414 0.044350624
000170 04 c5 5d be 1c ad ec 3e b4 21 21 bd 0a da fa bd
       -0.21657187 0.46225822 -0.039338782 -0.12248619
000180 99 ad ee bd 58 e5 d5 3f 2f 18 54 3f 2f e0 33 3e
       -0.11654205 1.6710615 0.828494 0.17565988
000190 39 b9 2a 3e 2f 02 d2 3c f3 ab f4 bd 94 86 b8 bd
       0.1667222 0.025635807 -0.11946859 -0.09010044
0001a0 92 26 db bd f4 93 8b 3e 51 7d 9d 3e 08 9e f6 bd
       -0.10700716 0.27261317 0.3075967 -0.12041861
0001b0 36 41 d2 3d 5c db 2e 3e 17 c5 0b 3c 86 dd 17 3e
       0.10266344 0.17075866 0.008530877 0.14830598
0001c0 23 52 22 bf ea 2a aa bc e1 ba 70 3c ce cd 0e 3f
       -0.6340658 -0.020772416 0.014692993 0.55782783
0001d0 a7 25 b1 bd ef b5 47 3f ee b4 18 be cd 0b e3 3d
       -0.0864976 0.78011984 -0.14912769 0.11086235
0001e0 e0 54 e0 3e 63 e3 1c 3e eb 6f 81 3e 88 76 b7 3d
       0.43814754 0.15321116 0.252807 0.08958155
0001f0 23 15 49 be 5c d7 e1 3d a2 d8 b6 be c0 e9 df bd
       -0.1963697 0.11027405 -0.35712153 -0.10933256
000200 c3 00 c4 3f f1 5e e7 be 5e 45 87 be 39 07 79 bd
       1.5312732 -0.45189622 -0.2642011 -0.060797904
000210 08 c6 47 3e 08 b0 06 3f dc bb 47 be 17 48 b6 be
       0.19509137 0.5261235 -0.19505256 -0.35601875
000220 2d b9 40 be 63 02 47 bf 67 c9 bd 3e ee 79 c6 3c
       -0.18820639 -0.77738017 0.3706772 0.024228062
000230 01 99 ad bd 93 2a c5 3e f7 e2 35 3e 92 4b 03 be
       -0.08476449 0.38509044 0.17762361 -0.12821797
000240 fd d4 cc 3e 2a 88 fa be 90 60 ff be 93 71 02 bf
       0.40006247 -0.4893201 -0.4987836 -0.5095455
000250 6e 3e 03 bf 49 18 c6 3d 90 96 ca bd ea c2 2b be
       -0.51267135 0.09672601 -0.09891999 -0.16773573
000260 f2 c4 55 3e c1 71 c7 3d 63 b8 24 bf c8 0c c2 bd
       0.2087591 0.09738494 -0.6434385 -0.09475094
000270 48 50 60 3e be d9 a1 be 71 fa df be cc 56 35 be
       0.21905625 -0.31611437 -0.4374576 -0.17708892
000280 1e 4e 6a 3f df c2 3c bd 9c 23 86 bd d1 08 6d bf
       0.9152545 -0.04608428 -0.06549761 -0.9259158
000290 62 27 0b 3e 85 2f 80 bf 02 1a a7 3e ec ad 82 3d
       0.13589242 -1.0014502 0.3263703 0.06380829
0002a0 a0 00 19 bf 85 bd 43 be fd 1e ea be 7a 91 82 be
       -0.5976658 -0.19115265 -0.45726767 -0.25501615
0002b0 31 a0 c7 3f 81 49 51 bd 87 fa eb 3e f0 f7 11 3f
       1.5595762 -0.05109549 0.46089575 0.5701895
0002c0 be 3b 90 bf 63 78 e6 3e c0 28 c1 bd b6 f2 6a 3c
       -1.1268232 0.45013723 -0.094316006 0.014340093
0002d0 08 99 2a 3f c6 78 05 bf 53 72 12 3e fc 74 c8 3d
       0.6663976 -0.5213741 0.14301424 0.09787938
0002e0 0c 5a 4e 3e e7 d0 00 3f 58 37 d2 be 3c 3b 36 be
       0.20151538 0.5031876 -0.4105785 -0.17796034
0002f0 b0 db e1 3d 02 75 e4 be 07 83 9c bd f6 1e 99 3d
       0.1102823 -0.4462052 -0.07642179 0.074766085
000300 42 1f 0d 3f a3 13 94 bd f8 da e5 bd 4e 65 3c bf
       0.5512582 -0.07230308 -0.112234056 -0.7359208
000310 c0 02 7c bf a4 cf d2 bd e3 bf 00 3e e6 ad 52 3d
       -0.98441696 -0.102935106 0.12573199 0.051435374
000320 c6 a2 99 3e d5 d6 f5 3e f2 6a 53 bf a0 2a 52 bd
       0.30007 0.48015466 -0.8258506 -0.05131018
000330 65 a0 04 3f 2a 38 ea be b0 e7 5b bf 2d 8e 5f be
       0.5180724 -0.45745975 -0.859004 -0.2183158
000340 98 21 87 3f 0a 0b 64 3c 6c dc fc 3c 71 12 95 bf
       1.0557127 0.013918648 0.030866824 -1.1646253
000350 ab 85 78 3e e0 0a 98 bf d4 6c 00 3f dc 0a c4 3d
       0.2426974 -1.1878319 0.5016606 0.09572384
000360 29 d3 23 bf 52 dc 7e be 2c 52 14 bf 5e 00 b2 be
       -0.6399408 -0.24888733 -0.57937884 -0.34765905
000370 2c c7 0c 40 2b 0f 3e 3d a8 82 f7 3e 93 6c 65 3f
       2.1996565 0.046401184 0.4834187 0.89618796
000380 4f c8 03 bf a2 90 c0 3e 88 b9 ee be 49 6f 0d be
       -0.5147752 0.37610346 -0.46625924 -0.13811983
000390 d7 57 98 3f 18 ab 06 bf e2 4f a7 3d b7 f7 40 be
       1.1901807 -0.5260482 0.08169533 -0.18844496
0003a0 9b d2 17 3e 85 ba e2 bd b3 25 d5 be 4e a5 9e bd
       0.14826433 -0.11070732 -0.41630325 -0.07746373
0003b0 be 25 82 3e 30 1d c9 be 7c 11 01 3e ba 19 f5 bd
       0.2541942 -0.3928008 0.12604326 -0.119677976
0003c0 20 d6 96 3d 90 d5 ee bf 56 90 66 bf f1 cc 08 be
       0.0736506 -1.8658924 -0.9006399 -0.13359429
0003d0 7e 38 26 be e2 4c e3 3c f3 71 af 3d 61 7c 22 3e
       -0.16232488 0.027746622 0.08566656 0.1586776
0003e0 4f 0b c5 3d 17 37 a9 be 80 70 88 be 6b cf 9d bc
       0.096212976 -0.33049843 -0.2664833 -0.019263944
0003f0 ee 7d 16 be d7 d1 1f be 88 7d 43 3d 5d 9b 20 be
       -0.14696476 -0.15607391 0.047727138 -0.15684266

fc_smart.bias f4 [64]
000000 53 62 9a 3b 30 1d 18 bd 95 05 77 3d 5c fa 10 bd
       0.004711428 -0.03713721 0.060308058 -0.03539501
000010 be 3d 54 3d 48 d1 56 3c 76 3f b2 3d a3 99 32 bc
       0.051816694 0.01311142 0.087035105 -0.010900888
000020 14 0e 59 bb 0a 0d 82 bd 3e 97 b4 3b 72 bb 67 bd
       -0.0033119963 -0.06350143 0.0055111935 -0.056575246
000030 a5 d0 a2 bc 2a e6 2a bd 56 76 80 bb d4 b4 60 bd
       -0.01987488 -0.041723408 -0.0039203567 -0.05485995
000040 3a 40 89 bd 7a f7 09 3e ae 50 f2 bd 1f 85 71 3c
       -0.06701703 0.13473311 -0.11831795 0.014741211
000050 65 f9 93 3d fb 4f 8e bb 67 7f 99 3d 22 6a 7d 3c
       0.072253026 -0.0043430305 0.07495003 0.015467199
000060 63 f0 1e 3d 07 a0 b8 bc 11 44 a2 3b 32 be b0 bc
       0.03880347 -0.022537244 0.004951962 -0.021575067
000070 2f a4 2a bd 76 1c 81 bd d0 4b ba bd 9c 1c 43 bc
       -0.041660484 -0.063042566 -0.09096491 -0.0119086765
000080 2d ce 4e bd 29 26 bf bd bd 5f 43 3d fd d0 39 3d
       -0.050489593 -0.0933345 0.047698725 0.045365322
000090 37 36 c1 bc 51 e0 b6 bd fd 6f 27 bd 39 bb d3 3d
       -0.023585422 -0.08929504 -0.040878285 0.10338444
0000a0 b3 a9 97 bd 6b 6f b7 bc ec 48 d7 bc 31 38 38 3d
       -0.074054144 -0.022391995 -0.026279889 0.044975463
0000b0 99 9c 04 3e fc da 08 bc 1c 7e 35 3d 61 27 0c bd
       0.12950362 -0.008352991 0.04430972 -0.034217242
0000c0 63 32 e0 3a 65 31 33 bd e2 a1 a1 3c df 7a 71 3d
       0.001710486 -0.04374828 0.019730512 0.05895507
0000d0 59 7c d4 bb ce 5b 9f 3d 04 80 98 3d ec 49 70 bd
       -0.00648455 0.07781182 0.07446292 -0.058664247
0000e0 b7 c9 50 3d a3 7f 66 3d db 77 28 bd 6a b3 a9 bd
       0.05097362 0.056274068 -0.041129928 -0.08286174
0000f0 3c ce ef bd 9f f4 a2 bd 26 bf 00 bd 34 ea 51 3c
       -0.11709258 -0.07956814 -0.031432293 0.012812186

network_aging.lstm.weight_ih_l0 f4 [128, 5]
000000 25 5b 1f bd a8 44 01 be 7e ec 2b 3e d3 b3 04 3e
       -0.03890528 -0.12623847 0.16789433 0.12959222
000010 0d af fe 3d 7f fb 5a 3e 1a eb 19 3d fe 73 d9 bd
       0.12435732 0.21385 0.037577726 -0.10617827
000020 1c f5 16 3d 7f 06 c5 bd 5d 34 42 3e 73 cb 47 3d
       0.03685485 -0.0962038 0.18965288 0.04877801
000030 13 16 84 bd 75 76 df 3c 54 e0 fc bd f7 0c a1 bd
       -0.06449523 0.027278164 -0.12347475 -0.07863801
000040 dd 5f 26 3e 64 d2 06 3e db f4 e2 3d 8c 6c 85 3c
       0.16247506 0.13166195 0.11081859 0.01628711
000050 9b 4f 88 3d e7 d0 38 3e 25 e0 8e 3d b1 e6 31 3e
       0.066558085 0.1804844 0.06976346 0.17373158
000060 1e ba 5a bd 25 b1 66 3d d2 6e d1 bc 71 49 70 3b
       -0.05340015 0.056321282 -0.025565539 0.0036664868
000070 dc c8 08 3e 5d 6d 3e 3e 46 6b 37 3d 1e c5 b7 bd
       0.13357872 0.18596406 0.04478004 -0.08973144
000080 03 91 1f bd 17 a6 26 bd 75 8b 33 3e 90 dc 25 3e
       -0.038956653 -0.04068574 0.17533667 0.16197419
000090 ee fc 23 3e 6f ba ee bb 71 21 fa bd 40 31 ad 3d
       0.16014454 -0.007285408 -0.1221341 0.08456659
0000a0 cd 98 8d bd 10 01 f6 3d 50 d8 41 bd 46 e8 80 3d
       -0.0691391 0.120119214 -0.047325432 0.06294303
0000b0 4a c2 de bd c8 66 30 3e 19 e8 b6 3d 5f 3b db 3c
       -0.108769014 0.17226708 0.08930988 0.026761709
0000c0 1b 46 19 bd 81 e1 04 3d 53 be d0 bd 2f d1 b1 bd
       -0.037420373 0.03244162 -0.101925515 -0.08682477
0000d0 bb 4c ba 3d 5c 6c 53 3d f3 4a 45 3e d4 89 cf bd
       0.090966664 0.05161701 0.19266872 -0.101337105
0000e0 7f b2 56 3e 40 02 56 3e 18 9d 34 3d 54 ca 15 3e
       0.20966528 0.20899296 0.04409513 0.14627963
0000f0 2f 50 39 3e c5 21 ae 3b 67 73 0d 3e 25 ce d9 bd
       0.18096994 0.0053140842 0.13813554 -0.10635022
000100 35 71 90 bd fb 85 6c 3d 1d 53 84 3d d2 27 42 3e
       -0.070528425 0.05774496 0.06461165 0.18960503
000110 1c 9f 2f 3d e8 65 99 3d 38 e0 ec bd 3f 06 68 3d
       0.042876348 0.0749014 -0.11566204 0.05664658
000120 b2 7a 3b 3e da c3 23 3e 6a 5a 79 3d 81 64 c7 bd
       0.18308523 0.1599268 0.06087724 -0.097359665
000130 ab 8d 83 3d e2 2a 2d 3d c8 7e c0 3d 22 ef 87 bd
       0.064235054 0.042277224 0.093991816 -0.06637408
000140 15 bf f5 3d 98 47 94 3d 28 0c 3e 3e 7a 73 b0 bd
       0.11999337 0.07240218 0.18559325 -0.086157754
000150 fb e4 e5 bd 4d bd 66 3e 5e 54 5a 3e 2e f5 f9 bd
       -0.11225315 0.2253315 0.21321246 -0.122049674
000160 ff 9f f4 bc 34 b9 0a 3e 11 88 0a be bc bc 9c 3d
       -0.029861448 0.13547212 -0.13528468 0.07653186
000170 85 87 95 bd ee 3a e1 bd 5a 61 fd 3c 04 c7 9f bc
       -0.07301239 -0.10997568 0.03093021 -0.019504078
000180 38 43 8d bd 54 c9 8d 3d 8a e8 57 bc 88 74 fa 3d
       -0.068975866 0.06923166 -0.013178 0.12229258
000190 0d a5 da bd d4 6a 30 3e 63 ec 0a 3d b9 16 ae 3c
       -0.10676012 0.17228252 0.033916842 0.02125107
0001a0 2f 01 08 3e 29 a9 84 3c 10 5b 4a 3e 58 ce f2 3c
       0.13281702 0.016193943 0.197613 0.029639408
0001b0 6c 2d d6 bd ce 82 d3 bd 8e fa af 3d 81 70 06 3e
       -0.10457882 -0.103276834 0.085927114 0.13128854
0001c0 65 3f 0d 3e 5e 52 ff bd a0 dc 34 3e eb e8 ea 3d
       0.13793714 -0.12466882 0.17662287 0.11470207
0001d0 c8 e7 57 3d ba 44 fd 3c 8a 15 3c 3e 22 7e 96 3d
       0.05271128 0.03091656 0.18367592 0.07348277
0001e0 f7 bf f3 bd f8 5f 50 3e 8b b3 db bd 39 8c e6 3d
       -0.11901849 0.20349109 -0.107276045 0.11257214
0001f0 01 40 35 3e 15 b5 0f bd a1 b6 71 bd 7e 64 89 bd
       0.17700197 -0.035084803 -0.05901206 -0.067086205
000200 8a 36 82 3d 51 23 85 bd be 4a cf 3a 0b 16 c7 bd
       0.06358059 -0.06500877 0.0015815122 -0.09721001
000210 47 8e ac 3c a2 81 2a be ec 7e 09 3d 69 c5 df 3d
       0.021063937 -0.16651013 0.033568308 0.10926325
000220 36 e4 a3 bd d6 c5 a9 38 40 00 09 bd 46 68 9a 3c
       -0.08002512 8.095398e-05 -0.033447504 0.01884855
000230 5a 05 2c 3e 2e cd 44 bc 54 0e 60 3d 3b 28 1e 3e
       0.16798916 -0.012011809 0.054701164 0.15445034
000240 99 c1 69 bd 47 62 1e bd f1 55 9c bd 44 a5 2e bd
       -0.057069395 -0.038667943 -0.076335795 -0.04263808
000250 d7 b7 f9 bc 6a b7 32 3d 9e 2b 93 3d fb 4b c1 3d
       -0.03048317 0.04363195 0.07186054 0.0943832
000260 07 33 df 3d 19 4c 3e 3d ed d6 b8 3c 9c 1b 17 3e
       0.108984046 0.04645929 0.022563422 0.14756626
000270 f0 4c 5a 3d 2a 0f 44 3d 93 47 9b 3d ab 8c 20 3d
       0.05329603 0.047866024 0.07582011 0.03919665
000280 2e c6 09 bd c6 0d 04 3e 0c 4a 10 be eb 9e 9c 3d
       -0.033636265 0.12895879 -0.14090747 0.07647499
000290 91 24 e7 3c 0a 9b 60 3e 32 6d 78 3c ea d3 5f 3e
       0.028215678 0.21934143 0.015162753 0.21858183
0002a0 6c e4 01 3e c7 7f fb bd d3 5a d8 bd fe d5 88 bd
       0.12684792 -0.12280231 -0.10564198 -0.06681441
0002b0 80 36 5a bd 07 02 b1 3d 40 7e 54 bd 9c ad 00 be
       -0.05327463 0.08642965 -0.051878214 -0.12566227
0002c0 f6 65 0f 3e f8 6e 15 be e2 4c 04 3d 95 be 0c 3e
       0.14003739 -0.14593112 0.032299884 0.13744576
0002d0 e4 85 db 3d 04 54 8b bd c7 62 39 3e 74 f0 da 3c
       0.10718897 -0.06803134 0.18104087 0.026725985
0002e0 b8 77 02 3e 3d ea 86 3d b6 65 92 bd 65 2c 6e 3c
       0.12740982 0.06587646 -0.07148306 0.014536952
0002f0 9a 89 05 3d b7 46 19 3e 2f bb 11 3d 35 9d cd 3d
       0.03260193 0.14968382 0.035578903 0.100397505
000300 1b f7 9e bd 92 85 07 bc 61 d2 95 bd df 2d 4f 3e
       -0.077619754 -0.008271592 -0.07315517 0.20232342
000310 92 c9 64 3b c4 f6 d3 bd 02 5e 0d 3d 69 11 26 bc
       0.0034910184 -0.10349801 0.03451348 -0.010135987
000320 3b 27 5f bc 45 38 12 bd ae b2 9b 3c 06 23 8d bc
       -0.013620193 -0.035698194 0.0190061 -0.017228615
000330 12 92 4d 3e b5 dc 26 3e 08 00 89 3d 5f 71 0a 3e
       0.20075253 0.1629513 0.06689459 0.1351981
000340 0f 13 42 3e d3 10 9b bc e3 31 87 bd 72 9a 2f 3e
       0.18952583 -0.01892892 -0.06601312 0.1714876
000350 1c 77 f2 bb 4a fa d0 bd a0 29 68 bd 60 01 2e 3e
       -0.007399453 -0.10203989 -0.05668032 0.16992712
000360 94 60 de bd bd fe a5 bc d9 a7 18 3d 48 c0 36 bd
       -0.108582646 -0.02026307 0.037269447 -0.044616967
000370 ee 1d 96 3d 49 ae 12 3e f7 5b 2f bc a3 fa 66 3d
       0.073299274 0.14324297 -0.0107030785 0.05639137
000380 d2 63 05 3e e0 a1 89 bd ef 82 77 3d ed bb 48 3e
       0.1302636 -0.06720328 0.060427602 0.19602938
000390 7e 91 9b bd 83 8c 03 3e 3d 51 39 3e 48 0d 21 3d
       -0.0759611 0.1284657 0.18097396 0.039319307
0003a0 f9 4e e9 3d 07 05 cb 3d 6d dd 02 be e8 d1 ea bd
       0.11392016 0.09913068 -0.1277978 -0.11465818
0003b0 85 25 9f bd 13 00 3a 3c 03 d0 c6 3d ff bf 18 3e
       -0.07770828 0.011352557 0.09707644 0.1491699
0003c0 a2 24 95 3d 16 49 21 3a 1f 83 23 3e f3 3b fe bd
       0.07282378 0.0006152553 0.15967987 -0.12413778
0003d0 48 49 2f 3e 13 37 32 3e fd 28 4e bd b8 f2 8b bd
       0.17117798 0.17403822 -0.05033206 -0.06833404
0003e0 2c 2d d3 3d e3 0b 03 be f7 84 89 3d 2c a7 1e 3e
       0.1031135 -0.12797503 0.06714814 0.15493459
0003f0 ee 57 6e bd 2c 13 31 3e 2d 4f 69 bc 64 26 37 bd
       -0.058189325 0.1729247 -0.014240068 -0.044714347
