trained_model/mc1_mc2/60_days_lookahead/pnet_checkpoint/pnet_2100.pth (torch, 545278 bytes, 36 tensors)

network_smart.layer1.0.weight f4 [128, 330]
00000000: c533 b1bb 3939 cdbb a721 41bd a3fb 24bb
00000010: 8dc0 4dbc 674a c23c 8f9c 463d 14dc 1f3c
00000020: c3f7 74bc 2157 3abd 2b1a f33c 865a b6bb
00000030: 94a9 4cbd 842a 1cbd 2fab c83c 04cf 7abb
00000040: 4dd8 483d 6205 c63b b3bc b63c 39a1 4a3d
00000050: 0817 133d 5882 483c b9b2 423c e2ea 1c3d
00000060: 70f6 adbc fdaa 403d 66b3 49bc 438b efbc
00000070: 05ff d3bb f7f6 49bc c8d8 613d 22f2 48bd
00000080: a9e6 ca3c 5caa f7bc 606d 8bbc dc0a 00bd
00000090: 68e6 00bc 6cf1 173d 0eb2 3739 e990 603d
000000a0: 937b 0bbd a29b 233d f3f5 3d3d 1daf 32bd
000000b0: df61 c7bc b5b8 67bd 5ab8 ccbc 510b a13c
000000c0: a94d d83c 3dbe 8f3c 9fb2 4bbd 3835 16bd
000000d0: e957 cfba 8fef 603d b9d0 af3b 02e5 323d
000000e0: 9014 9fbc 02fe 46bd 56e5 613c 0011 47bd
000000f0: ae5e 0ebd ee7d 163d 3609 9cbc d424 96bb
00000100: bca4 0b3d daa6 f0bc 1b89 15bd d1e7 c43c
00000110: b8af 3fbd f1b2 d5bc 4278 9dbb 0766 aebc
00000120: 2a98 8a3c dc56 e9bb 9685 52bd b4df 81bb
00000130: abba 89bc 9f44 d33c bbe1 afbb dfc5 bb39
00000140: 03b6 13bd cb71 34bd 3aec 253d ebef 0a3d
00000150: 878e 59bd 59d3 aabc ce26 a7bb 0f9f 18bc
00000160: dbe5 a3bc aa9d 9d3c a423 2b3d 76f2 07bd
00000170: eed9 53bd 55e8 3c3d f326 383c ed8c 383b
00000180: a5f3 ddbc 50c5 bfbc 5b6d 2d3d d13e 89bc
00000190: 4616 debb 5247 273c d352 2d3d 8e66 493d
000001a0: 02fa 5bbd 3d7a 94bc 3900 a6bc 5734 0b3c
000001b0: da0f 503c 0ba8 343d 1408 80bc e09e 0c3d
000001c0: 8db9 5a3d bca4 47bc baf6 9abc 9204 59bd
000001d0: a1d5 c6bc fab8 ce3b 0543 30bb a926 5d3d
000001e0: 7f65 1f3d cdb9 763b e700 fd3c 3566 20bd
000001f0: e4e3 0abd e04c ef3c ac3a 233d d26b 2b3d
00000200: 2d15 cebc 13bc 55bd 3600 b6bc 2af7 4b3c
00000210: 92c4 53bc 90de 63bd b38b 493b 10ac 603d
00000220: f5c3 e93b 200e fb3b e72d 153b 58a6 473d
00000230: 0478 59bb adb3 433d 64ac d13b 95bc 5bbd
00000240: dc93 453d c0e4 c03b 6446 07bc afaf e4bc
00000250: 3580 0fbd 4d92 1c3d 1c1e 61bd b6c7 94bc
00000260: 10cb 21bd 91ae 2dbd f95d dd3c bbd8 073d
00000270: dd8c 28bd 4cab 303d c7c6 3bbd 187d eabc
00000280: 69ec 0c3d 8b90 783c 6a3d 5ebd 6e23 08bd
00000290: b165 183d c197 abba da01 243c f5b9 ce3c
000002a0: ae45 4bbc 604b ce3c 1d2b 55bd d1fc 1bbd
000002b0: 3e81 bc3b 662c 51bd 064c 4bbd 9b22 edbc
000002c0: 70b4 e6bc 1a95 1dbd 4b41 d83c 8132 9e3c
000002d0: f84e 84ba 83a3 0a3d 80f3 a73c b04e e9ba
000002e0: d777 5cbd 563f a4bc 3f13 28bd c0f9 25bd
000002f0: bd8d 69bd 303d 34bd 5cc8 4e3c e664 c13c
00000300: 2db0 cebc 3c59 9bbc 8487 fbbc badb 97bc
00000310: 727c 573c ff8e 283d 58bf 6cbc 4fb9 2cbc
00000320: 3d2b 37bd 0c47 1d3d 6097 a6bc 0e11 383c
00000330: 47e0 653d 6ea1 03bd cd1e 3b3d 5608 4f3d
00000340: e204 cc3c c1db ccba d214 d3bc da02 e3bc
00000350: 533a c9bc e489 ecbc da0c baba 36c7 223d
00000360: 0c2c ee3c 33ee abbc e0d4 3bba fb0a 2fbd
00000370: 7630 7eba 8634 2c3d 4a30 8d3c de86 37bd
00000380: 7b56 2f3c 9f8b a93b b34f 3a3d e028 4bb9
00000390: 3ef3 623d 2b62 823c 0c80 ea3c 6086 f43c
000003a0: 5a92 1fbc 2c9a d93b 42d9 4fbd ec69 8ebc
000003b0: 2483 c93c a791 25bd e7f1 323d 5bae abbc
000003c0: 385f 2ebd 7abe 21bb b6a0 11bd ef3c b2bc
000003d0: affd c83c 48e1 1dbc c1e3 eabb a429 823c
000003e0: 0910 09bd 85f8 0abd 070d c2ba 82c2 cbbc
000003f0: 1c9a 3abd ac18 f1bc 7b92 32bc 40e2 66bc
-0.0054077827 -0.006262925 -0.047151234 -0.0025174401 -0.012558115 0.023717118 0.04848915 0.009757061
-0.014951649 -0.04549325 0.029675564 -0.0055649905 -0.04996641 -0.038126484 0.02449569 -0.0038270364
0.049034405 0.006043122 0.022306776 0.04947016 0.035910636 0.012238108 0.011883431 0.03830994
-0.021235675 0.047038067 -0.012310838 -0.02924121 -0.0064696097 -0.012326947 0.05513838 -0.04905904
0.02476819 -0.0302326 -0.017019928 -0.031260356 -0.007867433 0.037095472 0.0001751857 0.054825697
-0.034053396 0.039943345 0.046377134 -0.043624032 -0.02433866 -0.056572635 -0.02499025 0.019658716
0.026404219 0.017546767 -0.049730893 -0.036671847 -0.0015819046 0.05491596 0.005365458 0.04367543
-0.019418985 -0.048582084 0.013787588 -0.048600197 -0.034758262 0.03674119 -0.01904736 -0.004582027
0.03409265 -0.029376436 -0.036507707 0.02403632 -0.046798438 -0.026086302 -0.0048055956 -0.021288885
0.01691826 -0.00712095 -0.05139693 -0.003963435 -0.016812643 0.025789557 -0.0053674853 0.00035814845
-0.03606225 -0.044053834 0.040508486 0.03392021 -0.05311444 -0.020852732 -0.0051010614 -0.009315266
-0.020007065 0.01924022 0.041782036 -0.033190213 -0.051721506 0.046120007 0.011239755 0.002816017
-0.027093718 -0.023409516 0.042340618 -0.016753586 -0.0067775575 0.010209875 0.042315315 0.04917007
-0.053705223 -0.018124694 -0.020263778 0.0084963655 0.012699092 0.04410557 -0.015628852 0.034331203
0.05339961 -0.012185272 -0.018916477 -0.052982874 -0.024271788 0.006308672 -0.0026895416 0.053991947
0.038915154 0.0037647367 0.03088422 -0.039159972 -0.03390874 0.029211462 0.039850876 0.041850872
-0.025156582 -0.052181315 -0.022216897 0.012449065 -0.012925284 -0.055632174 0.0030753433 0.05485159
0.0071339556 0.007661596 0.0022762956 0.048742622 -0.0033183107 0.047778774 0.0063987244 -0.053646643
0.048236713 0.005886644 -0.0082565285 -0.027915804 -0.035034377 0.03822546 -0.054960355 -0.018161636
-0.039500296 -0.042402808 0.027022349 0.033165675 -0.041149963 0.04313211 -0.045843866 -0.028624102
0.034405146 0.0151711805 -0.054257788 -0.033236913 0.037206355 -0.0013091491 0.010010207 0.025235156
-0.01240675 0.025182426 -0.05204307 -0.0380829 0.0057527116 -0.051067732 -0.04963305 -0.028947165
-0.028162211 -0.038472272 0.026398322 0.019311192 -0.0010094335 0.033847343 0.020501852 -0.001779994
-0.053825226 -0.020049732 -0.04103398 -0.040521383 -0.057019938 -0.044003665 0.012621012 0.023607682
-0.025230492 -0.018963449 -0.030704267 -0.018537391 0.013152229 0.041151997 -0.014449917 -0.010542228
-0.04471897 0.038397834 -0.020335853 0.011234535 0.05612209 -0.032136373 0.04568367 0.05054506
0.024904672 -0.0015629457 -0.025766764 -0.02771132 -0.024563944 -0.028874345 -0.0014194504 0.039740764
0.029073738 -0.020987606 -0.0007165205 -0.04273508 -0.00096965523 0.042042278 0.01723494 -0.044806354
0.010701771 0.005174115 0.045486163 -0.00019374816 0.055407755 0.01591595 0.02862551 0.029849231
-0.009739483 0.006640693 -0.050744303 -0.017384492 0.024598666 -0.040422108 0.043687727 -0.020957163
-0.042571276 -0.0024680183 -0.035553657 -0.021757571 0.024535028 -0.009636231 -0.0071682637 0.015888996
-0.033462558 -0.033928413 -0.0014804908 -0.024873022 -0.045557126 -0.02943071 -0.0108991815 -0.014092028

network_smart.layer1.0.bias f4 [128]
00000000: ef86 39bd f1aa 7abd 397b 663d 3775 09bd
00000010: 7d14 91be 383e 9a3d 0d11 703d f263 d83d
00000020: 96e4 633e c6bd 9abd 3a84 233e 2410 f4bc
00000030: 4c66 c23b 8a5c a0bd 06d5 823d 759a c9bc
00000040: 29c6 9dbd fa66 54bd 6a64 023e 177a 04bd
00000050: 2600 27bd 33f6 19bc 8750 ba3d 663c adbe
00000060: 9d76 183e 24c3 89bc 368d 0d3d 64fb 96bd
00000070: 5389 213e 83be ed3b 6eb9 6ebd cddb cebe
00000080: f1d9 5f3d 0059 663e c6a3 033e 63ea 843d
00000090: 4839 043e 8586 1fbd 7d25 8b3d 30ef 023e
000000a0: cf7e c03d 640c 6c3d 0f74 8b3c 37c8 0dbd
000000b0: 9349 cf3d 7552 a3bd 02da 30bd 6459 d73d
000000c0: 47c4 5c3d 35fc f1bc 11a5 0e3e 4cc2 adba
000000d0: 9b22 c1bd 56a5 0b3b fc30 2c3e 5f20 4439
000000e0: 69be 2cbe bdf7 ac3d 8db7 be3d 5c65 52bd
000000f0: c146 e83d d926 783d ca2a a1bd 26b8 15bd
00000100: 4e3e 71bd 8fa2 72be ed06 473d 1122 cf3c
00000110: 9be9 2e3e 9c5f a9bd adb5 c03d 99fe cf3d
00000120: 3343 7fbc 7a02 44bd cd4b 9fbe eadc 1cbd
00000130: 02c2 1fbb 8c6e e3bc 57ba 183e 8893 b5be
00000140: efc2 cbbe 6e97 11be d6f4 f63c 71c0 ae3d
00000150: f8fb 763c 04dc f83d 09b1 a93d 9064 02bd
00000160: 0959 09bd a736 c5bd f7b8 193d 6b3f 8cbd
00000170: 7cb6 f23d 47ea 72bd c9bc 4dbc 7b0e 073e
00000180: c26c 463e 22cb 00bd 8fe7 1bbd 470f 88bd
00000190: 8c1f 23be 07a1 83bd 323f 5d3d 5f84 e4bc
000001a0: 2556 26bd 7fcb 2c3d eea7 223d b62c 00bd
000001b0: 4ce4 37be b8ed 70be 4095 5abd 8b65 b3bc
000001c0: 2b25 653c 9872 22bd 8e5d f43b f26f 5ebe
000001d0: ebe9 12bd b862 96bb 4dc3 64be 85c7 aebc
000001e0: 93ab 873d f847 43bc 5115 aebd 8634 abbb
000001f0: b607 d53c 288d 92bd f7e6 1fbe f4c0 9fbe
-0.0452947 -0.06119818 0.056269858 -0.03355905 -0.28335944 0.075313985 0.05861001 0.10565938
0.22255167 -0.07555728 0.15968409 -0.029792853 0.005932605 -0.078301504 0.06388287 -0.024609784
-0.07703812 -0.05185602 0.12733617 -0.032342996 -0.040771626 -0.009397077 0.090973906 -0.33835143
0.14888997 -0.016816683 0.034558497 -0.07372168 0.15775041 0.007255377 -0.05828231 -0.4040207
0.054651204 0.22494888 0.12855443 0.06490018 0.12912476 -0.038946647 0.0679426 0.12786555
0.09399187 0.057629004 0.017023114 -0.034614768 0.10121455 -0.07974712 -0.04317666 0.10515097
0.053898122 -0.029539207 0.13930155 -0.0013256758 -0.094304286 0.0021308265 0.16815561 0.00018704076
-0.1686951 0.0844569 0.09312353 -0.051366195 0.1134162 0.060583923 -0.078694895 -0.03655257
-0.05889731 -0.23694824 0.04859059 0.025284799 0.17081301 -0.08270189 0.09409652 0.101559825
-0.015579986 -0.047853924 -0.3111252 -0.038296618 -0.0024377112 -0.027762674 0.14914833 -0.3546412
-0.3979716 -0.14217922 0.030146044 0.08532799 0.0150747225 0.1215134 0.0828572 -0.031834185
-0.033532176 -0.09629565 0.03752991 -0.068480335 0.118512124 -0.059305456 -0.012557217 0.13189118
0.19377425 -0.031443723 -0.03806263 -0.06643539 -0.15930003 -0.06427198 0.054015346 -0.02789515
-0.040609498 0.042186256 0.03971093 -0.03129264 -0.17958182 -0.23528183 -0.053364992 -0.021899005
0.013985912 -0.039660066 0.0074574417 -0.21722391 -0.035867613 -0.004589405 -0.22340126 -0.021335373
0.06624522 -0.011919014 -0.085001595 -0.005224767 0.026004653 -0.0715583 -0.1561545 -0.312019

network_smart.layer2.0.weight f4 [128, 128]
00000000: 505c a93d 97cb 91be 997c f4bc 71b2 44bd
00000010: e705 b1bd 3273 abbd 9ca8 f13e 528e 8dbd
00000020: de3f 093e b98f 56bf 87e2 c9bc a3bd 053e
00000030: d1aa 40bd d022 d4bd 653e d8bd e0d6 363c
00000040: 30d7 7d3d ce6e 033d 8427 593d 553d 97bd
00000050: 4350 493f 59dd 8e3d b9a2 33bd 973f e7bd
00000060: dfd5 153e 0f74 8b3d cd92 b93c a649 8ebd
00000070: f36d e13c a914 243e 9b98 b7be 180d fcbc
00000080: 8c73 24bf 9f07 bf3e ee53 3f3d 7a26 3dbe
00000090: 7a13 36be ae46 7cbd 96bb 093e 92be 62be
000000a0: e780 d83c 9741 5dbe 1fdf 05be 870e 5c3b
000000b0: 784f 223d 7728 493d c91f d6bc 2b53 aabc
000000c0: d5fd 8b3e 9606 ecbc b813 653d 6ab2 903d
000000d0: 67ad 10be 2156 67be 0a55 943d 2abc 5dbd
000000e0: 8a1b 703e 1356 193e 9e13 943c 6f39 b0bd
000000f0: 09a9 a9bd 6a7b 8f3d a984 6abd fa88 213d
00000100: 1d1c d53c 63f9 09be b9a8 93be 9a6a e63d
00000110: d81d db3d 4b56 12bd a9b3 d7bd 6d97 493e
00000120: ede6 0d3c b297 6dbe 5bc0 28bd 2c2a 0bbd
00000130: b5c2 d7bd a607 8a3d 42c4 293e ccd3 b03c
00000140: a66e 113e 1ba2 d5bb 2e69 8ebe 885d 863d
00000150: 1c7f f63e 21f8 95be 8e06 8cbe 8565 ba3b
00000160: e193 29bf 178a 5ebd d7f2 d7ba 8e9e 91be
00000170: 5ee7 223e 9e26 56bb 1974 403d 501d 4e3e
00000180: 3c85 b13c be0b 933d f35a 9dbd aca5 8c3e
00000190: d338 8f3e a82c eebd 2ecd ffbd 1924 a5bd
000001a0: f7fb f7bd 8043 693e 1acf 873e d43d 7b3c
000001b0: 2986 e63d e2ba f33c 05e0 623d a518 eb3d
000001c0: a8a0 253e 7cef a2be 3033 2c3c c9f7 ac3d
000001d0: ffc8 cebd facc 7abe 6b7d 593d fa42 973c
000001e0: 4e5b 4a3e ba0f 913d ab4b 263e 9009 523d
000001f0: b28d 0cbc aaf0 a93a 86a7 4abd 0bc9 c23d
00000200: 3a69 34bd 7667 42bd b198 97be 1800 4b3d
00000210: 584f 983e 7b59 863e 7f28 16be 4587 463e
00000220: a565 cfbd 1e75 e5bd f7fe 62be 84f6 783e
00000230: 85d5 85bd 4834 11bd e748 513e a0da 4b3c
00000240: 011c 833b 2deb c7bd 5b91 b4bd 6ff5 d63c
00000250: 5f73 943e 1464 2dbd 7d7b 50bd deec 82bd
00000260: 54c9 9e3d ed97 5abd 72e5 9abe b316 44bc
00000270: edeb 8dbd 0b11 013d 8103 adbc 3126 fabd
00000280: e022 9e3d 38c3 423e 9084 063b fcb7 3abd
00000290: 1676 863d f2fb ae3d 4660 763d e24b 9cbe
000002a0: 5fb3 6f3d 12a8 6bbd a005 8f3d 8af1 a4bd
000002b0: 8e4e 903e 7de8 5d3c 1105 9a3d 2b6d d3bd
000002c0: 82f8 a6bc cd37 483d fb86 273e 1e6d 073e
000002d0: a08f dcbe cbfc 81bc f587 b9be 8e22 8b3d
000002e0: 63a4 7ebe 69d1 333d fe51 0b3e b8a6 9fbc
000002f0: 133b b53d af4c 96bd fa60 2dbd 4c75 9ebe
00000300: ca13 31bd e353 3f3e d222 f7be 7e8e a73e
00000310: 9b54 98bd 478b ad3d ff1e 82bd d938 b6be
00000320: cf90 b3bd b73d 4abd 47c0 0a3d 62ff 3a3d
00000330: 8745 60bd 2add 94bc f893 0cbd 2d8c f63c
00000340: e715 2cbf 589d 99bb bbce 503e 6cd2 e7bd
00000350: ce39 d43e fa87 a33e c824 b3bd f166 35bd
00000360: 8af3 9cbd ac5c a6be abb0 41bd 2435 e0bd
00000370: e4db 643e 515f b43c c670 a1bd c5b6 553e
00000380: 1975 b2bd 0580 793c 8bc2 a8bd 940e 1f3c
00000390: 6e9d 8bbd 6919 c63d 9be0 953e 5809 6a3d
000003a0: bc32 b8bc af26 80be 7dfe 273e 343b 04bc
000003b0: 13c4 49bd 8b72 3ebd 7f7c 0b3e 3b7b a5bd
000003c0: c3b1 903d 5720 463e 1759 d13d 6353 75bc
000003d0: 5abd 883e fcdc c6bd fa6c a03d 6fbc 82bc
000003e0: 89a2 c73d a371 88bd 1244 493e 8d0a b13d
000003f0: 04cd 433d e4e1 d43a 5f0a 27bc 6b95 c2bd
0.0826956 -0.2847564 -0.029844569 -0.048021737 -0.08643704 -0.08371581 0.4719895 -0.06911911
0.1340327 -0.83813053 -0.02464415 0.13060622 -0.047037903 -0.103582025 -0.10558776 0.011159629
0.061972797 0.032088093 0.0530162 -0.07384745 0.78638095 0.069758125 -0.043856356 -0.11291426
0.14632367 0.06809246 0.022653008 -0.06947641 0.027518248 0.16023506 -0.35858616 -0.030767962
-0.6423881 0.37310502 0.0467109 -0.18471709 -0.17780867 -0.061590843 0.13450465 -0.2214301
0.026428653 -0.21607052 -0.13073395 0.0033577995 0.03962657 0.049110856 -0.026138203 -0.02079161
0.27342096 -0.028811734 0.05592701 0.0706528 -0.14128648 -0.2259145 0.072427824 -0.054134525
0.23448005 0.14974241 0.01807576 -0.086047046 -0.08284194 0.07005961 -0.05725542 0.03943727
0.026014382 -0.1347404 -0.28839663 0.112508014 0.106990516 -0.035726827 -0.10532314 0.1968667
0.008661014 -0.23202398 -0.04119907 -0.033975765 -0.10535184 0.0673974 0.16578773 0.021585368
0.14202365 -0.0065195686 -0.2781462 0.065608084 0.48143852 -0.2929087 -0.2734875 0.0056883716
-0.6624127 -0.05433091 -0.001647557 -0.2844128 0.15908572 -0.0032676826 0.04698572 0.2012837
0.021669976 0.07179974 -0.07683363 0.27470148 0.2797304 -0.11629611 -0.12490307 -0.08063526
-0.12108605 0.22779655 0.26525193 0.015334565 0.11256058 0.029752199 0.055389423 0.1147931
0.16174567 -0.31823337 0.010510251 0.08445699 -0.10096931 -0.24492255 0.053098124 0.018464554
0.19761392 0.07083078 0.16239803 0.05127865 -0.008578705 0.00129654 -0.04947617 0.09511002
-0.044045664 -0.04746195 -0.29608682 0.049560636 0.29748034 0.26240143 -0.14663886 0.19387539
-0.10126809 -0.11203979 -0.22167574 0.24312788 -0.06534866 -0.03545025 0.20437966 0.012442261
0.004001141 -0.09761653 -0.08816787 0.026240079 0.2899427 -0.04233177 -0.050899018 -0.06392835
0.07753244 -0.053367544 -0.30253178 -0.011968303 -0.06929765 0.031510394 -0.021119835 -0.12214316
0.07721496 0.19019783 0.002052579 -0.045585617 0.06565492 0.085441485 0.060150407 -0.30526644
0.05852067 -0.05753333 0.06983495 -0.080538824 0.28184932 0.013544199 0.075204976 -0.103235565
-0.02038217 0.04888134 0.16360085 0.13225219 -0.43078327 -0.015867611 -0.3623654 0.067937
-0.24867396 0.04390088 0.13605496 -0.019488677 0.08849158 -0.07338845 -0.042328812 -0.30948865
-0.043231763 0.18684344 -0.48268753 0.327259 -0.07438012 0.08473831 -0.06353568 -0.35590246
-0.087678544 -0.049375262 0.033874776 0.04565371 -0.054753806 -0.018171865 -0.0343208 0.030096138
-0.6722092 -0.0046879463 0.20391361 -0.11319432 0.4145035 0.3193968 -0.0874725 -0.044287626
-0.07663639 -0.32492578 -0.047287624 -0.10947636 0.22349507 0.022018107 -0.07882838 0.20870502
-0.08713741 0.015228276 -0.08240231 0.009708066 -0.06817137 0.09672815 0.29272923 0.057137817
-0.02248513 -0.25029513 0.16405673 -0.008070756 -0.049259257 -0.046495955 0.1362171 -0.08080145
0.07065155 0.19348274 0.10222071 -0.014973494 0.26706964 -0.09710118 0.07833286 -0.015958993
0.09747798 -0.066622995 0.19654873 0.086445905 0.04780294 0.0016241637 -0.010195344 -0.095011555

network_smart.layer2.0.bias f4 [128]
00000000: f72b 89bc 7287 f33d 5d0f 18be 0dc4 d63b
00000010: c333 523d bc06 033e f3df a1be e465 ae3d
00000020: 68f5 253d 1969 7ebd 6419 b53d a3ab 543d
00000030: d215 d23d 9d2c babd 7128 7a3d b717 253e
00000040: 1011 11bc 4028 5f3c 5ef5 e03c e143 9cbd
00000050: 6403 2dbc 11c3 ce3d 5386 c8bd 6bf1 3f3e
00000060: a272 9d3d e794 923d 891b 123e a71a 013c
00000070: b132 c83d a174 6f3c 3efd 0bbd 9527 41be
00000080: 7a93 c8be b23b 9e3d b510 f73d 1569 003e
00000090: 70ca e7bd de09 42bd 8d67 013e 84f6 d63d
000000a0: 9ca2 36bd 0f59 fc3d de47 053c 49fa 833d
000000b0: 568d 743b a32c 4b3d cbf3 38be 1ee9 e8bd
000000c0: b894 3e3d 250c 2b3d b7b3 8dbd 476b 01be
000000d0: 8f9b 7e3c e08c f7bd 334a 223e 6053 ab3c
000000e0: edb3 ff3d 79e9 ca3c 3f45 dc3d edfc 3bbd
000000f0: 68c3 4c3d 6446 e6bd c8a4 193e 0f56 6cbd
00000100: c019 2a3d d7e3 9e3d b7db bebd bb02 20be
00000110: 89d5 173d ba6f b43d ccbf b93c 1e0b 14be
00000120: b445 853c d30e 8e3d c9d1 f9bd 3c27 02bd
00000130: ae18 af3d de07 363e abac 86ba ec84 91be
00000140: aea1 b83d 5c4a 92bd d897 cd3d 3b4e 013d
00000150: 735f 0ebe 98c3 a7bd 1565 82bd 1f5b 8dbb
00000160: 6e8c 073d b517 b3bd 4808 6ebd d8ab 4c3e
00000170: 6dd8 553d 30d7 a83c 4ad4 8b3c 0384 c03d
00000180: 45e4 2dbe 7fb1 22bd 6f6d 963d 24cb 0b3e
00000190: 1944 dcbb 1e92 983d 3a76 9dbd d5da 38be
000001a0: cb42 debd d412 823d 8d3f 7ebd bf73 933c
000001b0: daf4 963d 0009 d73c cab3 98bd 3cfa 71bd
000001c0: 528f ed3c a68d 233d 2013 c6bb f301 98be
000001d0: 9b9d 1ebc aedb 89bd f3d5 4bbc e06c 9abd
000001e0: 6df4 113d 22e8 0fbe f140 f8bc 31fa 12be
000001f0: 42ac efbc f967 81bd 2e4c 9abc 4231 743c
-0.016744597 0.118910685 -0.1484961 0.006554133 0.051318895 0.12795538 -0.31616172 0.08515528
0.04051724 -0.062111948 0.088427335 0.051921498 0.10258068 -0.090905406 0.061073724 0.16122328
-0.008854166 0.013620436 0.02746075 -0.076301344 -0.01055989 0.100958 -0.09791245 0.18744437
0.0768788 0.07157307 0.14268316 0.00787989 0.097752936 0.014615209 -0.034177057 -0.18862756
-0.39175016 0.0772623 0.120637335 0.12540086 -0.11317909 -0.04737269 0.12637158 0.10496238
-0.04458867 0.12321674 0.00813481 0.064442225 0.0037315688 0.049603116 -0.1806175 -0.113725886
0.046528548 0.04175963 -0.069190435 -0.1263858 0.015540018 -0.12087417 0.15848617 0.02091378
0.1248549 0.024769532 0.10755395 -0.045895506 0.04999104 -0.11243895 0.15004265 -0.05769926
0.041528463 0.07758301 -0.09319251 -0.15626042 0.037068877 0.08810373 0.022674464 -0.14457366
0.016268589 0.06936421 -0.121982165 -0.031775698 0.08549629 0.17776439 -0.0010274848 -0.28421724
0.09015213 -0.07143089 0.100387275 0.031568747 -0.13903598 -0.081916034 -0.06366936 -0.004313841
0.03309291 -0.08744756 -0.058113366 0.19987428 0.052208353 0.020610422 0.017069 0.09400179
-0.16981609 -0.039720055 0.073450916 0.13651711 -0.006721985 0.07449745 -0.076885656 -0.18052228
-0.108525835 0.063512474 -0.062072325 0.017999528 0.073709205 0.026249409 -0.07456167 -0.059076533
0.028999005 0.03993001 -0.0060447603 -0.29688987 -0.009681131 -0.06731354 -0.012441146 -0.075402975
0.035633493 -0.14053395 -0.030304404 -0.14353253 -0.029256944 -0.06318659 -0.018835153 0.014904322

network_smart.layer3.0.weight f4 [48, 128]
00000000: 3bda 233d 0955 baba 5b25 abbe a24b 1fbe
00000010: 4d7b 723e 6d03 0f3d 87fe 85bc a4c7 723e
00000020: 2be9 bcbe 485e 26bc 44a9 35bd 3f86 b73e
00000030: 28d6 9a3d f515 6d3d 2e65 7cbe 5858 783d
00000040: 040a 85bb ddd0 483e 6f96 073e 1b44 54bd
00000050: 3966 a3bd fd20 9cbd 5b5f 6dbe dd70 64bd
00000060: f2ed ad3e c405 06be 3443 253e 3c5d 4dbe
00000070: 60f0 113e cdbc bb3d ce8e 30be 3b14 67be
00000080: ac69 913e 5b67 843d 90e6 46be 453d d13d
00000090: ed6c 6abe 0cc2 313e 7166 233e a148 c0bd
000000a0: 2c09 a4bd a946 373d c087 45be 79f1 f2bc
000000b0: 0976 cdbd ab8b 5bbd 20c8 423d 3778 cdbd
000000c0: 2c84 823e bccd d73c 3d86 f8bb da1c febc
000000d0: f32b bf3d c699 c53e deca f83d 99e0 07bc
000000e0: d867 f83d c5a0 d03d 2a3f 733d e890 a1bd
000000f0: 0713 dd3d f649 d8bd 2188 2c3c a9c9 5abd
00000100: 0f31 2a3e e0d6 c93d 7754 36bf 8638 8dbe
00000110: 5ddc d0bd d68f ba3b c0c6 9c3c 9c80 033d
00000120: 89bd f43d 6562 b9bd 87f5 2fbd ba16 213e
00000130: 0013 163e a18f 2e3d 6ac4 b93d 8ef5 cdbe
00000140: d6a1 b4bc 7796 86bd cc41 863d 3c59 d8bd
00000150: 62d9 1bbf 90ea 063d 81f9 02be 174a 103e
00000160: 9086 8bbd d67d 55be ab67 7a3d 621b fb3c
00000170: 2b1e 043d f6e1 80bc 3070 2cbe a0d0 06bd
00000180: e413 ad3e 863a 77be b874 cc3d 920b bf3d
00000190: 891b 173e a8c6 bd3d dcb0 68be e193 1cbe
000001a0: a2cb f23c 8c9a a33d 76ab b43d fc19 9bbc
000001b0: dee5 403e 8deb 3dbd 75df 2f3d 6701 80bd
000001c0: 6d7a 533e ab6d a8be 817e 0e3e b05f 703d
000001d0: 97c0 43bd 6e89 913d 56ee 1abc 852f 09bd
000001e0: 4625 a73e 1e6c c33e 2f69 1f3e 554d 18be
000001f0: 12b4 813d 0680 923d fcc7 84be b0e6 883d
00000200: ff4f d03d 42c2 0b3d 8968 5bbd 6ddd ca3d
00000210: c8a9 dabd 60f8 eb3c b868 ccbd b31f 50bf
00000220: 5210 a33e ed58 583d 1608 42be b9c3 64bc
00000230: 4315 783e 5757 a5be 6123 833d 2027 bebd
00000240: 443f 7abe 6e11 343d 4037 693d fef4 733c
00000250: 5451 fc3c 45fd 6fb9 8fe5 bc3d 67f3 98bc
00000260: bb33 19bf d2f9 cc3d 8483 313d 55e4 f73d
00000270: c378 c8bd ceda 303f 8c19 8dbd a0e5 223d
00000280: c252 9abd e22c d8be 6b33 963e 9c55 7abf
00000290: b120 85bd 70fb 863e da25 d03d d518 303f
000002a0: 143f d23d 2f07 ee3c 2494 19be 9bb9 e8bd
000002b0: 9dd4 9e3d a163 0a3d 936a ab3d ad7d 7cbe
000002c0: 897b 1b3e ba7d f1bc af13 133d 80ae 2bbd
000002d0: fd5b 02be 6058 c53e efbe 03bf c01c 44bb
000002e0: 67a2 aabd 1315 4b3b 03a4 c9bd e393 663e
000002f0: 6773 57c0 52f2 923e d517 22bc 4e18 9a3d
00000300: 24ff efbc 7641 b63c f787 313f f2b7 b33d
00000310: 350b 6cbd 55cd ab3d 1806 fdbc 3cbb 4b3e
00000320: b2ae 25be 6088 d73c 6f5a 90bd d9bd 42be
00000330: 9559 19bd 5da2 52bc 14c1 48bd dddd 1bbe
00000340: 32e1 a73d 35cc 5b3d c7d4 2bb6 4d32 ce3d
00000350: 4058 833e b5d9 773d 762c 503e 760f 03bd
00000360: ebab 5cbe 9322 69be 9876 5fbd 39ff 083e
00000370: 7414 96bf 397a 3a3f 0130 d03d 0093 0bbe
00000380: 944a db3d 20ad 8bbf a1c5 53bd 228d 0bbd
00000390: feeb d3bd a704 843e 1ecc bf3e 2c79 2b3e
000003a0: f906 17be 6d1d 48bf 49d1 54bd ca4f ca3f
000003b0: 140b 943d 4de7 6bbd 94e6 453d 0c44 a1bd
000003c0: eb78 243c 8f33 273f 801b 1dbe b488 adb9
000003d0: 9d5f b13d c319 a1bd 244d 043c c34b e13d
000003e0: c779 1fbf d55e 053d 4722 943e d09c 86bf
000003f0: fc18 d53d a6ee ac3c ee1f be3c 61a1 06bb
0.040003043 -0.0014216016 -0.33426937 -0.15556195 0.23679848 0.034915376 -0.01635672 0.2370897
-0.36896643 -0.010154314 -0.044350877 0.3584461 0.07560378 0.057882268 -0.24647972 0.060631126
-0.004060032 0.19610925 0.1324098 -0.051822763 -0.07978482 -0.076234795 -0.23180906 -0.055771697
0.339706 -0.13088137 0.16138917 -0.20055097 0.14251852 0.0916687 -0.17241976 -0.22566311
0.28400934 0.06465026 -0.1942389 0.10216764 -0.22893114 0.1735918 0.15957047 -0.09388853
-0.08009562 0.04474512 -0.19290066 -0.029656159 -0.10032279 -0.053599995 0.047554135 -0.10032695
0.25491464 0.026343219 -0.007584362 -0.031019617 0.093345545 0.38593882 0.12148069 -0.008293294
0.121291816 0.10186914 0.05938641 -0.07888967 0.10794645 -0.10560982 0.010530503 -0.053414974
0.16620277 0.09855437 -0.71222633 -0.27582186 -0.10198281 0.005693416 0.01913774 0.032105073
0.119502135 -0.090519704 -0.042958762 0.15731326 0.14655685 0.042617444 0.09070666 -0.40226406
-0.022049826 -0.06571668 0.065555185 -0.10563895 -0.60878575 0.03293854 -0.1279049 0.14090763
-0.06812775 -0.20848784 0.06113402 0.030652706 0.032255333 -0.015732747 -0.16839671 -0.032913804
0.33804238 -0.24143419 0.099832 0.09328379 0.14756598 0.09266406 -0.22723716 -0.15290786
0.029638115 0.07988462 0.08821766 -0.018933289 0.18837687 -0.046367217 0.042937715 -0.062502675
0.2065217 -0.3289617 0.13915445 0.058685005 -0.04779109 0.07106291 -0.009456238 -0.033492584
0.32645625 0.38168424 0.15567468 -0.1487325 0.06333174 0.07153325 -0.25933826 0.06684625
0.10171508 0.034120806 -0.05356649 0.09905515 -0.106769145 0.028804958 -0.09980911 -0.8129837
0.3184839 0.05281918 -0.18948397 -0.01396268 0.2422686 -0.32293198 0.06403232 -0.09284806
-0.24438196 0.043961935 0.056937456 0.014889954 0.030800499 -0.00022887166 0.09223472 -0.01867075
-0.5984456 0.10008587 0.043338314 0.12104098 -0.097886585 0.6908387 -0.06889638 0.03976977
-0.07535316 -0.42221743 0.29336104 -0.9778688 -0.06500376 0.26363707 0.101634696 0.6878789
0.102659374 0.02905616 -0.14997917 -0.113635264 0.077553965 0.03378642 0.08369937 -0.24657317
0.15183844 -0.029478896 0.035907444 -0.041914463 -0.12730403 0.38543987 -0.51463217 -0.0029924363
-0.08331757 0.0030987903 -0.09845736 0.22517352 -3.3664186 0.287005 -0.009893377 0.07524167
-0.029296465 0.022248011 0.6934809 0.08775319 -0.057627875 0.08388773 -0.030886695 0.19895643
-0.16179922 0.026310146 -0.07048499 -0.19017734 -0.037438948 -0.012856093 -0.04901226 -0.15221353
0.081972495 0.053661544 -2.5604838e-06 0.10068188 0.25653267 0.060510356 0.2032946 -0.031997167
-0.21549957 -0.22767095 -0.05455646 0.1337861 -1.1724992 0.72842747 0.10165406 -0.13630295
0.10707584 -1.0912209 -0.051702145 -0.03407014 -0.10347746 0.257848 0.37460417 0.16745442
-0.14748754 -0.781699 -0.051957402 1.58056 0.072286755 -0.057593632 0.0483156 -0.07874307
0.010038595 0.6531305 -0.15342522 -0.00033098983 0.08660815 -0.07866242 0.008075032 0.110007785
-0.6229519 0.032561142 0.28932402 -1.0516605 0.10405156 0.02110989 0.023208585 -0.0020542967

network_smart.layer3.0.bias f4 [48]
00000000: ca6c f5bc 9457 1c3d a443 943d 1003 c33d
00000010: e77d c33d ddaa 1abc f6e8 f13b 8af6 babb
00000020: 6a14 0e3e 3287 913d 309e 67bc f432 5ebd
00000030: 9e1e e63d ea2e 2c3e ae37 63bd 1c19 9abc
00000040: e600 a83c 154b d13c 7954 30bd ca3d 963d
00000050: 0b27 b9bd e7c0 0f3c ab24 f9bc 6efa c73d
00000060: a3cf 1ebe 0243 47bd c2f5 f63d 2b17 b1bc
00000070: 36f4 b23d ce40 923d 92b3 1d3d 6de2 b03d
00000080: 9bc1 0f3d 602b 06be 1e78 713b e882 e93c
00000090: 465d b9bd 0e41 bbbd 1bc4 e5bd 3eaf 293d
000000a0: 258c a5bd 537a 073d 7e6e c0bd 63b4 d13d
000000b0: fa55 253d cfe2 123e 3e8c 063d aaee cbbd
-0.029959101 0.03816946 0.07239464 0.095220685 0.09545498 -0.009440151 0.0073825074 -0.0057056593
0.13874975 0.071058646 -0.014136836 -0.05424781 0.112363085 0.16814771 -0.055473022 -0.018810801
0.02050824 0.025548497 -0.04304931 0.07336004 -0.0904065 0.008774019 -0.030412992 0.097645625
-0.15508895 -0.048647888 0.12058593 -0.021617493 0.08737986 0.07141267 0.03850133 0.08636937
0.035096746 -0.13102484 0.0036845277 0.028504804 -0.090509936 -0.091432676 -0.11219045 0.04142689
-0.08083371 0.03307564 -0.09396075 0.10239484 0.040365197 0.14344333 0.03284859 -0.09957631

fc_smart.weight f4 [64, 48]
00000000: 3833 7f3e de22 28c0 c906 0fbe 2c01 95be
00000010: 7298 efbe 76ec 93bf 7411 403e c064 f83e
00000020: b1ab ea3e 1e54 093f 4bbe 9f3e 3c37 4c3f
00000030: 47e2 24bd 119d 3fbd effb bc3e cdfe 30bf
00000040: 2f67 9d3d a955 843f a7b7 ae3e 8afe ea3d
00000050: 041b 9f3c 1b0c 62bf 9f8b 233f afc5 e03e
00000060: cd4e a23e e165 36bf 619f b73e 22ce 13bf
00000070: 7b76 4bbe 5d36 dcbd e8c7 28bf b7be 6b3e
00000080: f268 653e 1909 4a3f 4e2c f73e cab8 933f
00000090: 2e41 8bbe b29e 1ebf 31d9 3a3f 4e15 283f
000000a0: b766 ff3e b48f f53b 475a e93c 489a 5cbe
000000b0: f3c7 31be 3792 f0bd f720 3dbe a26d 9cbe
000000c0: 68e4 d13d 50ce d0bf 7c57 31bd 6b8a cb3d
000000d0: 1e57 3f3e 532f 293f 2ae5 6e3c 93f7 09bf
000000e0: 33ab cdbe 120b dabe 31e6 46be ee22 d4be
000000f0: 9b10 11be 9729 623e dd0c 50be f8c9 4e3e
00000100: 0d4c f6be 28af 63bf ee07 fdbe 7906 b13e
00000110: 7b93 45bc e63b 3e3f 3bb5 dabe 9294 a3be
00000120: 205b 2ebf ea02 ab3f 5f73 aabe a53c fa3d
00000130: 5985 653d 5996 c93c af73 283f 02da 0ebf
00000140: c14e b0be c969 98be e9dd 92be ac12 3ebf
00000150: 8fb8 c23d 30d4 d33e b884 67bf 506a e7be
00000160: 9103 a6be a3af 203e 1a83 163d a00c 423e
00000170: d047 a4bc b893 3ebe 3854 d03d b8b5 bb3e
00000180: 59b6 2d3e bd69 0fc0 33bd 26be 1d5c 08be
00000190: bf3a 41be 2d6e b8be d67d dc3d fceb 60be
000001a0: 6910 a83b 4cf8 b03d 9087 073e cc52 043f
000001b0: 0639 28be 65b7 763e a2a3 713e d363 c6be
000001c0: 2330 a2be c2a2 363e 1832 5fbe 5f92 d33e
000001d0: 5552 0fbe 03d3 a9bd 63bb 163e 870e e33d
000001e0: 1ab0 25bf b155 163f 1f5a 933b 7c4f a1be
000001f0: 2cd8 2dbe 9ec6 49be d006 b4bd 0f33 95be
00000200: 776f d3bd 062c 9a3e 1bbe 393e fffa 923e
00000210: 5b77 85be 861d 8abd 3107 2cbe 0e39 d63d
00000220: f07d cc3c 0aba 403e 1d81 3fbd 6fb0 e93d
00000230: 7f3d 4cbe be6c 56be 6f9c 13be 5a62 00bc
00000240: b0b2 703c d18b cabf 554d d0bd 36e2 cb3d
00000250: 5ddf 623e 56c9 353f 4581 f7bc 785f 2dbf
00000260: f2c5 ddbe 8004 dfbe 2e6c 30be 2ac7 6bbe
00000270: abd3 22be e16a a13e 33df 1dbe 14a6 423e
00000280: 331f f7be 6e58 5cbf f80c 14bf 7599 c43e
00000290: feb8 063e d2e3 493f 76eb e6be b171 a8be
000002a0: 0430 3bbf c3e4 bd3f 2286 bdbe 901c 0e3e
000002b0: e1cb 2f3d e31f dbbc eca3 1d3f 9042 19bf
000002c0: 53ad b9be 404e b6be 25d9 8fbe 97a0 57bf
000002d0: a44e d838 4a7d fe3e 9274 7abf 41f4 00bf
000002e0: 3589 d7be 5223 603e c59b 8abd 0db9 843e
000002f0: d3f2 26bd 01d3 38be 1d18 3a3d f4a3 b63e
00000300: a565 643d ffc8 cfbf 5b50 3ebc 2a03 073e
00000310: 8102 453e f678 313f 81fe 973a 331a 32bf
00000320: 70c7 d0be e592 e2be ff79 3bbe aa75 b4be
00000330: c44e 05be 8768 883e 11b9 26be 0e2a 603e
00000340: 356e eebe 6f86 6abf 255b 06bf 2ac5 b73e
00000350: ad17 033e 29fb 443f fc0e e3be e9ff 98be
00000360: 057c 59bf 521d b93f deb5 b9be 9810 073e
00000370: 9b9f 923d 7662 d6bd b9b4 1c3f c2ec 12bf
00000380: f03d b0be d386 b8be d287 99be bc6c 53bf
00000390: e26c 683d 2908 f23e e51f 6bbf c4d6 00bf
000003a0: ff67 c3be b9c9 353e a6d6 023e d117 853e
000003b0: 3f1c 57bd 17a6 2cbe 72ac 8c3d 3ba4 ba3e
000003c0: f70f 6e3e a204 29c0 40a3 f5bd 3667 89be
000003d0: d458 d9be 4bdd 84bf 43da 1f3e f338 c63e
000003e0: 8a4e cb3e 6e6c f43e 23e5 913e de6a 4a3f
000003f0: c683 9dbd ef57 61bb 0e46 c33e be3e 22bf
0.24921882 -2.6271281 -0.13967432 -0.29102457 -0.46795994 -1.1556537 0.18756658 0.48514366
0.45834115 0.5364398 0.3119987 0.7977178 -0.040254857 -0.04678065 0.3691096 -0.69138795
0.07685696 1.0338641 0.3412449 0.11474331 0.019422062 -0.8829972 0.6388492 0.4390082
0.31700745 -0.71249205 0.35863784 -0.5773641 -0.19869415 -0.107525565 -0.6593003 0.2302197
0.22403315 0.7892013 0.4827599 1.1540768 -0.27198166 -0.619609 0.7298766 0.6565751
0.49883053 0.0074939374 0.02848543 -0.21543229 -0.17361431 -0.11746638 -0.18469606 -0.30552393
0.10248643 -1.6312962 -0.043296322 0.099385105 0.18685576 0.66087836 0.014581004 -0.53893393
-0.40169677 -0.4258657 -0.19423749 -0.414329 -0.1416649 0.22086178 -0.20317407 0.20194232
-0.48104897 -0.8893914 -0.49420112 0.3457525 -0.012059088 0.7431015 -0.42716393 -0.31949288
-0.68107796 1.3360264 -0.33291146 0.12218598 0.056035373 0.024607824 0.6580152 -0.55801404
-0.34435084 -0.29768208 -0.2868493 -0.7424724 0.09507858 0.41372824 -0.9043689 -0.45198298
-0.32424596 0.15692 0.036746122 0.18950129 -0.020053774 -0.18611038 0.101723135 0.36662078
0.16964091 -2.2408288 -0.16283111 -0.13316388 -0.18870066 -0.36021557 0.10766189 -0.21965021
0.0051289094 0.08641109 0.13235307 0.5168884 -0.16428003 0.24093397 0.23597577 -0.38748035
-0.3167735 0.17835525 -0.21796453 0.4132261 -0.13996251 -0.082922004 0.1471992 0.11086755
-0.64721835 0.58724505 0.0044968273 -0.31505954 -0.16976994 -0.19704673 -0.08790362 -0.29140517
-0.103239946 0.30111712 0.18138926 0.2870712 -0.26067623 -0.067439124 -0.16799618 0.10460101
0.024962395 0.18820968 -0.04675399 0.11410605 -0.19945334 -0.2093992 -0.14415143 -0.007835949
0.01469104 -1.5823919 -0.10171 0.09955256 0.22155519 0.7101034 -0.030213008 -0.677238
-0.43315083 -0.4355812 -0.17228767 -0.23025194 -0.15901057 0.31526855 -0.15417175 0.19008666
-0.4826599 -0.86072433 -0.5783229 0.38398328 0.13156506 0.7886325 -0.45101517 -0.3289924
-0.7312014 1.4835438 -0.37016398 0.13878083 0.042919043 -0.026748603 0.6157825 -0.5986719
-0.36265048 -0.35606575 -0.28095356 -0.84229416 0.000103143306 0.49704963 -0.9783412 -0.503727
-0.42096868 0.21888474 -0.06767992 0.25922433 -0.04075892 -0.18049242 0.045433152 0.3567196
0.055761 -1.6233214 -0.011615838 0.131848 0.19239236 0.69325197 0.0011596234 -0.69571227
-0.4077716 -0.44252697 -0.18308257 -0.3524602 -0.13018328 0.26642248 -0.16281535 0.21891043
-0.46568456 -0.9161138 -0.52482826 0.35892612 0.12802 0.7694574 -0.4434737 -0.29882744
-0.84954864 1.4462073 -0.36271566 0.13189924 0.071593486 -0.10467999 0.6121326 -0.57392514
-0.34422255 -0.36040363 -0.29986435 -0.8258779 0.056744464 0.4727185 -0.9184554 -0.50327706
-0.3816528 0.17752732 0.12777194 0.25994733 -0.052517172 -0.16860233 0.06868829 0.36453423
0.23248278 -2.6409078 -0.11994028 -0.26836556 -0.42450583 -1.0380033 0.15610604 0.38715324
0.39708358 0.47738975 0.2849513 0.79069316 -0.076911494 -0.0034384688 0.38139385 -0.63376987

fc_smart.bias f4 [64]
00000000: 70bf 89bd 62b2 b63d 12b3 eb3c ca09 23bd
00000010: ced4 d8bd e5d4 e8bd f4be 1f3d c96c abbd
00000020: 2b8d 833d 0e8a c2bd 959a e7bc f144 243d
00000030: b7ed 36bd 3b26 97bd 218b 81bd 7afe 8cba
00000040: 8842 813d 93b3 673c cb10 b7bd 685b a2bd
00000050: 4d94 183d 4460 c93c 4d3a 453d 894e 953c
00000060: 5c02 133d 99eb b9bc 9877 8dbd fd87 e9bc
00000070: 3812 9b3d b210 2c3d f34f 543d 722a 45bd
00000080: cc57 28bd a59b efbb cdeb 58bd ab0a 49bd
00000090: f469 89bd 3ebd a83c e2b0 553c 32d2 d5bc
000000a0: f60e 763c f36f b73d 1712 d2bd 94a7 103c
000000b0: 74fc 2abd da21 06be 3e3b ab3c 69c7 75bd
000000c0: 4252 443c 0cab 613d 69c8 febd 7b6c 23bc
000000d0: 3d2b 153c 3b50 f3bc aa12 edbc 5828 20bb
000000e0: b577 be3d 5c32 993c b136 a6bd 6585 17bd
000000f0: 3d71 0bbe 491f b9bd 7799 c83c 3d37 60bd
-0.06725967 0.089207426 0.02877191 -0.039804257 -0.10587464 -0.113687314 0.039000466 -0.083703585
0.0642341 -0.09498988 -0.028271953 0.04010481 -0.044660296 -0.07380339 -0.06325365 -0.0010756992
0.06311518 0.014141935 -0.0893875 -0.079275906 0.037250806 0.024582036 0.048151303 0.018225925
0.035890922 -0.02269535 -0.06907576 -0.028507227 0.07571834 0.04200811 0.051834058 -0.048136182
-0.041099355 -0.0073122554 -0.052959252 -0.04908244 -0.06709662 0.02059805 0.01304266 -0.026101205
0.015018215 0.089568995 -0.102573566 0.008829016 -0.041744664 -0.13098851 0.020902272 -0.060004625
0.011982502 0.055094764 -0.12440569 -0.009974594 0.009104547 -0.029701343 -0.028939564 -0.002443811
0.09300176 0.018700771 -0.081159 -0.03699245 -0.13617416 -0.0903917 0.02448724 -0.05474018

network_aging.lstm.weight_ih_l0 f4 [128, 5]
00000000: 1918 e9bd 3bda c63d 0943 643e e6d6 303e
00000010: 83fb 453e ae28 b03d b348 05be f75e b4bd
00000020: 937b 053e 252b 17be c775 2f3e c338 4c3e
00000030: e756 97bd bdc1 c3bd 919b 8e3c ac45 303e
00000040: 3880 d7bd 2776 b4bd fcd7 193d 7469 0a3e
00000050: efb1 353e 8eb7 d5bd 3a10 3a3e 5771 b8bd
00000060: aab0 49bd b2a6 eabd 7a88 443e e231 3d3d
00000070: 0678 353d 3d68 ba3d 00cf d33d e7f8 cabd
00000080: 7a58 323e 018a c33c 99ed b03d ffbc bc3d
00000090: e02c db3d f69e f6bd c384 b2bd 5f7b 79ba
000000a0: 9867 693e 7a1e e4bd 329b 53bd 53eb a23d
000000b0: 1a8f 1a3e 8e38 1ebd ca6f 333e dc59 37bd
000000c0: 7209 ed3c 40aa 22bd 0d4a 78bd 9932 ea3d
000000d0: 090c eabc 20e5 1d3e 5a0d 233e 6008 88bd
000000e0: a187 443e ed5f a4bd bdc3 893d d757 05bc
000000f0: bd7d 253e e8eb 023e 87a7 fa3d da6b c83d
00000100: 0ca3 453e b764 993d a5fb 9e3d 6d95 c13c
00000110: afd3 13be 89c7 de3d 6a1f 343d ede8 89bd
00000120: 5e98 5cbd 935d 3abc f1e8 0bbe 13f8 673d
00000130: 3cf6 32bd 6fe6 4d3e 75c8 803d 5343 c6bd
00000140: 4cb0 e4bd 37a1 523e 0c55 6abd 074c 923d
00000150: 42b9 df3d a94e 6cbd 9de2 523e 809a d5bd
00000160: ee4c bcbd d08a 423e 82fc 91bd e498 c13b
00000170: d15a 7abd 1e84 d2bc ebc9 ce3b a646 52bd
00000180: 223f 5f3d 2d8f 3a3c 0ed2 2dbd 7287 20bd
00000190: 2572 14be 8234 10bd 7a32 26be eddd 31bd
000001a0: dc41 1abd 2ad7 eebd b8c4 3abc 0235 483e
000001b0: 461c 723d 6c4c 63bd 7510 6a3d ab67 263e
000001c0: 1fe4 0bbe 1926 19bd eb06 6abd 4cb6 813d
000001d0: fbf6 d23c b780 a23d 3a4a 7bbd ac5c f83d
000001e0: 1a92 033e b688 873d 00b3 413e 19ad c73c
000001f0: 947e cd3d f3da a13d 198b c1bb fe87 4b3e
00000200: 745d a3bd 6336 fcbd 9e25 a63d cddf 443d
00000210: f023 1b3e 7f44 e9bd 7a28 13be 9c27 03be
00000220: 1025 f43d 1b56 f2bd 81f1 ae3a 89f9 e83d
00000230: cd39 cf3c 779b d03c 247f bebd 18e9 d2bd
00000240: 74e0 0b3c 9c85 adbd 9ba3 a2bd 1d6e 8f3d
00000250: ec04 863d afd5 3dbd b660 233e 1e57 e6bd
00000260: 3257 2b3e 35a7 2cbd 1bab 363d 02bb dabc
00000270: 01ff 573e 2ace 1d3e b26d dc3c 5f2a f3bd
00000280: a096 f53c cc0d efbd b84b b63c a118 27bd
00000290: 711f a13d 4fbe cebd fe3f 3cbc a06f 0a3e
000002a0: 821d a5bd c754 103e e07b db3d d89e d1bd
000002b0: b4e7 94bd d831 c83c 6711 7d3d 516f 0e3e
000002c0: 6be1 543d 7ce2 04bc 6e2a 563e 1aa5 543e
000002d0: b0cc 893d 79aa 0a3e 6501 c93d a0e4 153e
000002e0: cbe3 08be db91 013e 9ab6 363e 726d e53d
000002f0: 0faf f83d 6295 1c3e 91fc 2c3d 517f 323e
00000300: 3ba0 463e e2f5 0dbd 14e0 3e3e 6f03 893d
00000310: 8ce1 cb3d 5311 7f3d b277 fc3c da7b f9bd
00000320: 8b0b 943d 627a 5e3e b850 4c3e fe72 0a3d
00000330: 2569 193e a404 0fbd 662b 253e 0c68 073e
00000340: 9366 d93d d61c 793d 725f e43c 9e85 653e
00000350: 0786 3f3c f8f8 113e 50a8 0c3d 196a d13d
00000360: 3d61 e6bd 8f3a 5e3e 9578 373e 2ad5 5cbd
00000370: 0e11 2c3e aa5b c6bd 6dff 953c 5ae1 cf3d
00000380: f7dc 283e dae6 6d3d 380d 53bd 0061 8d3d
00000390: ff8a 103e a4b7 4fbd 77d5 b1bd 5673 383e
000003a0: d2cc 82bd 6f05 c0bd 6858 573c dba0 ad3b
000003b0: 3755 d23d fa1c b83d 9741 293e 5445 febd
000003c0: 13c1 513d 4f7d c53d 17b8 90bc d061 8e3c
000003d0: 2c03 e53d 3d5c 3d3e b88d a83d c748 d0bd
000003e0: c0fd 89bd 1986 6d3d 3ebf 4f3e 402e 4c3e
000003f0: a6ca f23d 8af0 2bbd 95d0 96bd ab24 d7bd
-0.113815494 0.09709593 0.22291197 0.17269477 0.19334225 0.08601509 -0.13016014 -0.088071756
0.13035421 -0.14762552 0.17134772 0.19943528 -0.07389622 -0.09558437 0.017408164 0.17214078
-0.10522503 -0.08811598 0.037559494 0.1351679 0.17743658 -0.10435401 0.18170252 -0.09005993
-0.049240746 -0.11457576 0.19192687 0.04619015 0.044303916 0.09101913 0.103422165 -0.099107556
0.17416564 0.023869516 0.08639068 0.09215736 0.107019186 -0.12042038 -0.087167285 -0.000951698
0.22793424 -0.111386254 -0.051661678 0.07955041 0.15093651 -0.038628154 0.17523113 -0.04476343
0.028935168 -0.039713144 -0.060617495 0.11435432 -0.028570192 0.15419436 0.15923062 -0.066422224
0.19192363 -0.08026109 0.06726787 -0.008138618 0.16161247 0.12785304 0.122389846 0.09786196
0.19300479 0.07489913 0.07762841 0.023630822 -0.1443622 0.10877902 0.04397527 -0.0673388
-0.053856246 -0.011374849 -0.13663079 0.056633066 -0.04369186 0.20107435 0.06288234 -0.0968081
-0.111664385 0.20569311 -0.057210013 0.07143407 0.10924007 -0.057692204 0.20594259 -0.10429859
-0.09194361 0.18998265 -0.0712824 0.0059081186 -0.061121766 -0.025697764 0.0063106916 -0.051336907
0.054503568 0.011386675 -0.042436652 -0.03919167 -0.14496668 -0.035206325 -0.16230193 -0.043424536
-0.037660465 -0.11662133 -0.0113994405 0.19551471 0.059108995 -0.055492803 0.0571446 0.16250484
-0.1366124 -0.03738985 -0.057135504 0.063335985 0.025752535 0.07934707 -0.061350085 0.12127051
0.12848702 0.066178724 0.1891594 0.024374532 0.100339085 0.079030894 -0.0059064743 0.19876096
-0.07976809 -0.12315061 0.08112644 0.048064996 0.15150428 -0.11390018 -0.1437091 -0.12808079
0.119211316 -0.118328296 0.001334712 0.1137572 0.025296116 0.025464756 -0.09301594 -0.10298365
0.0085374005 -0.084727496 -0.079413615 0.07003424 0.065439075 -0.046346363 0.15954861 -0.11247085
0.16732481 -0.04215165 0.044596773 -0.0267005 0.2109337 0.15410677 0.026907776 -0.11873316
0.02997905 -0.116725534 0.022252902 -0.040794972 0.07867325 -0.10094892 -0.011489866 0.13519144
-0.08062269 0.1409484 0.10716987 -0.10235375 -0.07270756 0.02443783 0.061784174 0.13909651
0.051972788 -0.008110639 0.20914623 0.20766106 0.06728494 0.13541593 0.09814719 0.14637995
-0.13368146 0.12653296 0.17843094 0.11202516 0.12142765 0.1529136 0.042233054 0.1743138
0.1939706 -0.03465832 0.18640167 0.06690108 0.09955129 0.06227238 0.030818794 -0.12181826
0.07228764 0.21726373 0.19952667 0.03380107 0.14981516 -0.034916535 0.16129836 0.13223284
0.106152676 0.060818516 0.027877543 0.22414252 0.011689669 0.1425513 0.034340203 0.10225315
-0.112490155 0.21702026 0.17917092 -0.053914227 0.16803381 -0.09685452 0.018310273 0.10150404
0.16490541 0.058081485 -0.05152628 0.06903267 0.14115523 -0.050712243 -0.08683293 0.18012747
-0.063867226 -0.093760364 0.013143636 0.0052987165 0.1027016 0.08989902 0.16528927 -0.12415567
0.05120952 0.09643041 -0.017665906 0.017380625 0.111822456 0.18492217 0.08230156 -0.10170131
-0.06737852 0.057989214 0.20287797 0.19939518 0.11855058 -0.041977443 -0.073640026 -0.10505041

network_aging.lstm.weight_hh_l0 f4 [128, 32]
00000000: 9013 00be 01d9 04be e4e1 633e 480e 7fbe
00000010: f51a dfbd 2e55 e1bd bc8a d83d 0c3b f83c
00000020: 0d55 91bc 9508 193e 5ed2 01be 4be3 d83d
00000030: 0a94 4a3e 8785 d83d 3603 88bd e20b f0bd
00000040: 0823 52be af23 9d3d c089 0f3d 8de1 033e
00000050: 981e 3b3e 9cd8 b5bd e6a5 68bd 2f7f 0a3e
00000060: 9022 89bc c32b 68be 494a b9bd 82b4 323d
00000070: 1ff2 5abd fa05 1e3d 5dbe aabc c9a9 78be
00000080: 8020 6fbd 849d 063e 3def 5f3b 467a 983d
00000090: 159d 46be d61c 14bd 18ec 08bd da3f 02bd
000000a0: ded4 963d 6e43 46be b1a7 ba3d 1c87 b0bd
000000b0: 04ce 44be ee13 e7bd 2fac dabd 9649 433e
000000c0: 7fc2 393e 57a7 bcbc d68f debc 1ace 0bbd
000000d0: 5b05 b2bd 08a6 5abd 43e6 16be 5002 1abd
000000e0: a0d2 4b3e 9fde 69bc 5b3a 6abe 26cd 583c
000000f0: f6eb 8a3d a4df b5bd 097e dd3d a503 723d
00000100: 9cb2 36be 7901 a6bd 15b9 d23d cad8 d5bd
00000110: cd4d 6dbd 59d4 a63d 0f0b 9cbd c748 783e
00000120: 24ce 3cbd c1f3 533e ad90 3b3d 6a27 0b3e
00000130: 7f3d 80bd 54e3 2c3e e196 803e 68e4 fe3c
00000140: 454a f7bd c513 203d 9ac9 633d d7b7 6e3e
00000150: 77e6 2c3e c67b 1cbe c016 14be 9d15 033e
00000160: f617 ba3c e385 3cbd a887 55bd 568a 883d
00000170: dac4 203d db67 ebbd 5d6b d0bb 2122 c2bd
00000180: 7179 6a3d 7a88 1b3e e90f 623e f420 00be
00000190: 033e 383e 4b45 d1bc b25a b83c 55c9 50bb
000001a0: 131d 5cbe bbc5 053e 8b36 04be 70dc 033e
000001b0: 96a8 b6bd 6fa6 063e 456b 503e cfb7 14be
000001c0: 01d5 84be fbd0 0d3e b3da 3abe ae59 303e
000001d0: efd8 cebd b8a5 483d a379 b33d be3a 213e
000001e0: b4eb 173c ed33 0dbe b17d 9b3c 21b3 b13d
000001f0: 6166 88bb f61e f53d 64e3 cfbd 2f2f 6ebd
00000200: a96e 23be 7ffd 493e 3cc9 94bd 7a1c b8bd
00000210: d4f7 033c 753b a23d 7871 53bd a733 143e
00000220: bcd7 19bc fb4a 493e 4458 d4bd a516 bfbd
00000230: eaf4 d93d 7df0 443e 3667 adbd 4de4 463d
00000240: f191 84bd 00e6 f8bc 7b21 3cbe 53e3 ea3d
00000250: 5a3a ba3d e883 11be f198 d8bd aeba 2f3d
00000260: 8026 913c a928 8f3d b74b 7a3d 7f34 adbc
00000270: 007b 21be 356a c33d c8a9 c43c 7acf 6dbe
00000280: ea9a e63d abd4 543c 5737 863e 2c9b 9ebd
00000290: 88fa 8d3d 1790 19be aed1 2a3e eb0a 563d
000002a0: 8023 373d 0735 a2bd 8096 c43d 6e52 113d
000002b0: 0608 063d 7ebe 013d 98de bf3c 6bc6 043e
000002c0: 5fdc 2b3d f129 543e fbda 7ebe bb42 6a3d
000002d0: fefd 923c 9b57 2fbc e57a 183d c656 363e
000002e0: 0686 263d 46b8 d3bd 8908 aabd 7961 963d
000002f0: dd4a 2cbe 8363 bc3d 095d 5bbc a949 15be
00000300: a74c 1cbe b492 fd3d cef5 173c 27a9 fbbd
00000310: fca6 11bd e045 16be 689b 39bd 3c3f c2bd
00000320: b847 48bd 5051 aa3d 5647 3bbe a696 e9bd
00000330: 225a b1bd 6eaf 973d f080 92bd c9df ff3c
00000340: 5723 303d 342e 0a3e a4ff 7cbd d6ac bebc
00000350: c9d6 8db9 7bed bcbc 3c41 4d3d 0f8b c7bd
00000360: ec23 23be 3ee1 52be b790 143e 2c16 44bd
00000370: aaf7 abbd a5c6 493e 1221 0dbe f9ed 69be
00000380: 36fc 57be b92b c83d 2c32 f73d 2ac7 9f3d
00000390: 5196 8c3d c1ff 2dbe 2c04 583d 37be 433d
000003a0: 58bb 4dbe ed60 8a3d 9562 72be 8920 cbbd
000003b0: 4997 b53d 4bd9 7fbd f0e1 18bd b127 a5ba
000003c0: 84d0 1dbc cd20 31bd c75e 843d 190c 6e3e
000003d0: 770e d23d fe67 b0bd f327 7fbd b5b7 603e
000003e0: ebe4 2abe e08b 33bd f25d 473e 1874 7dbd
000003f0: 32f0 79be 9a9a 523e 31bb 8e3d a0b8 17be
-0.12507463 -0.12973405 0.22254139 -0.24907792 -0.108938135 -0.11002575 0.105733365 0.030301593
-0.01774075 0.1494468 -0.12677905 0.10590228 0.19783035 0.10572343 -0.066412374 -0.117210165
-0.20521176 0.07672822 0.035043478 0.1287901 0.1827339 -0.088792056 -0.056798838 0.13525079
-0.016740113 -0.22672944 -0.09047372 0.043629177 -0.05345356 0.03857992 -0.020842725 -0.24283518
-0.058380604 0.13146025 0.0034169697 0.07445197 -0.1939586 -0.036160313 -0.03342828 -0.031799175
0.0736482 -0.1936166 0.09114016 -0.0861952 -0.19219214 -0.11283098 -0.10677373 0.1907104
0.181406 -0.023029013 -0.027168196 -0.0341321 -0.08692428 -0.053380996 -0.14736275 -0.03759986
0.19904566 -0.014274268 -0.22873823 0.013232505 0.06783287 -0.08880547 0.10815055 0.059085507
-0.17841572 -0.0810575 0.10289208 -0.1044174 -0.057935525 0.08145971 -0.07619297 0.24246512
-0.04609503 0.20698453 0.04579227 0.13589254 -0.062617294 0.16883594 0.2511511 0.031114772
-0.12074713 0.039081354 0.055612184 0.23312317 0.1688479 -0.15281591 -0.14461803 0.12801214
0.022716504 -0.04602612 -0.052131325 0.066670105 0.039250232 -0.11494418 -0.006360455 -0.09479166
0.05724472 0.1518878 0.22076382 -0.1251257 0.17992406 -0.025545737 0.022504184 -0.0031858284
-0.21495466 0.1306371 -0.12911431 0.12877059 -0.08918874 0.13149427 0.2035342 -0.14523242
-0.2594376 0.13849251 -0.1824749 0.1722171 -0.100999705 0.048986167 0.08763435 0.15745065
0.009272505 -0.1378934 0.018980833 0.08676744 -0.004162595 0.11968796 -0.10150793 -0.058150467
-0.15960182 0.19725607 -0.07264945 -0.089898065 0.008054692 0.07921497 -0.051621884 0.14472829
-0.009389814 0.19657509 -0.10368398 -0.09330491 0.10642417 0.19232364 -0.084669515 0.04855757
-0.064731486 -0.03038311 -0.18372147 0.1146914 0.09093161 -0.14210474 -0.10576046 0.04290264
0.017718554 0.06990177 0.061107364 -0.021143196 -0.15769577 0.09541742 0.02400674 -0.23223677
0.11260016 0.012990157 0.26214096 -0.077444404 0.06932551 -0.14996372 0.16681549 0.052256506
0.04471159 -0.079202704 0.09599018 0.035479 0.032722495 0.031675808 0.02342157 0.12966315
0.04195821 0.20719124 -0.24888222 0.057192545 0.017943379 -0.010702039 0.037226576 0.17806539
0.04065516 -0.10337882 -0.08302409 0.0734281 -0.16825433 0.09198668 -0.0133888805 -0.1457888
-0.15263616 0.12381497 0.009274913 -0.122881226 -0.03555964 -0.14675093 -0.045314223 -0.09484717
-0.04889652 0.083162904 -0.18288931 -0.11405687 -0.086597696 0.074065074 -0.07153499 0.031234639
0.043002453 0.13494188 -0.061767235 -0.023275774 -0.00027053643 -0.023062458 0.05011104 -0.0974332
-0.15931672 -0.20593736 0.1450833 -0.047872707 -0.083968475 0.19704683 -0.13782147 -0.22844686
-0.21092305 0.097739644 0.120701164 0.078016594 0.06864608 -0.16992094 0.052738354 0.047788825
-0.20090997 0.067567684 -0.23670419 -0.09918315 0.08866746 -0.062463086 -0.037324846 -0.001260033
-0.0096322335 -0.043244172 0.0646339 0.23246802 0.10256665 -0.08613585 -0.062293958 0.21945079
-0.16688888 -0.043834567 0.19469431 -0.061878294 -0.24408033 0.20566788 0.06969298 -0.14816523

network_aging.lstm.bias_ih_l0 f4 [128]
00000000: a281 b5bd abfe da39 6586 463e b284 60bd
00000010: 9e45 ea3d 9007 403d c50d 56bd eea4 043e
00000020: 5ae6 05bd adea 3a3e acc1 b2bd d56e 533e
00000030: 67fc f93d e2bf 233b db4a 3abd 5d02 36bc
00000040: 39f7 143e d2f4 b8bd 3225 22bd 564c 54bd
00000050: 6757 7fbd 936d 433d 2f7c 96bc 5fae a53c
00000060: 8092 073e f043 073e 3178 183d e392 433e
00000070: 09fe 9abd a292 3b3e 6c6f 2a3d 8a44 2e3e
00000080: d52e 83bd 8458 1a3d 6279 82bd 64fb 2e3d
00000090: f2bb 173d 3f42 9f3d aa8f 053e 4498 83bd
000000a0: 1c6b 333e 894c 24bd 6e82 0e3e 6171 073e
000000b0: f284 ecbd e143 573d ef5d 8dbd 64a0 f43c
000000c0: 6bf0 5a3e f814 033c 66e5 353d efa7 b93a
000000d0: 300f 25bd 7c94 1d3e 6b57 433e d473 373e
000000e0: 7d59 1e3e d7cd 66bd b72c 623e 6cbb 0f3e
000000f0: 149c 513e e923 c43d df6c 51bd 44b2 bf3d
00000100: 2fc8 05be 284a f13d 83f0 f33d 795d 32be
00000110: efc9 623e c18c 48be 2c02 473e d871 453e
00000120: 5c67 41be a018 2d3e 9f2e 44be 981d 273e
00000130: ea48 253e 9056 b93d f539 0a3d d877 28be
00000140: eef7 38bd 7dee 6d3e efe1 95bd 048d 593e
00000150: 620b 02be a9c3 893d 31e1 1ebd acfd 983d
00000160: 0fcb a3bd dbb1 a4bc 0422 463e 7d31 2d3e
00000170: 2e32 cebd b2fd 123c 1e0a 85ba d140 b13d
00000180: 8730 503e 748b e43d bd04 873e 78a3 2a3e
00000190: 8a4a 233e 642f 8e3d e186 cf3d 6564 4b3e
000001a0: 596b 663e 6239 3c3e 6329 4c3d dbc5 b13d
000001b0: cdc9 a93d 5d7d 773d 31bb 403e 96ff 47bc
000001c0: 7267 583e 4a33 ab3d cc6c e33a 3068 153e
000001d0: 6a29 ac3d 77eb 8d3e eff2 27bd 189a 323d
000001e0: 6ab8 f13c 831c 843e 50da 8c3d e653 033d
000001f0: a3ed 6b3d 8d11 953d 660c c93c 694e 763e
-0.08862616 0.00041769943 0.19387205 -0.054814048 0.1143906 0.046882212 -0.052259225 0.1295354
-0.032690383 0.18253584 -0.08728346 0.20647748 0.12206345 0.0024986197 -0.045481544 -0.011108962
0.14547433 -0.09031071 -0.039586253 -0.051830612 -0.062339213 0.04771192 -0.018369762 0.020224748
0.13239479 0.1320951 0.037224 0.19099002 -0.075679846 0.18317655 0.041610166 0.17018333
-0.06405417 0.03768207 -0.06370808 0.042720214 0.037044473 0.07776307 0.13043085 -0.06425527
0.17521328 -0.040112052 0.13916942 0.13226844 -0.11548795 0.05255497 -0.06902682 0.029861636
0.21380775 0.008000605 0.044408225 0.0014164428 -0.040297687 0.15388674 0.19076316 0.17915279
0.15463825 -0.056348648 0.2208737 0.1403634 0.20469695 0.09577162 -0.05112922 0.09360173
-0.13064645 0.11781722 0.11911108 -0.1741847 0.22147344 -0.19584943 0.19434422 0.19281709
-0.18887085 0.16903925 -0.1915841 0.16319883 0.16141096 0.090497136 0.03374668 -0.16451967
-0.04515832 0.23235507 -0.07318484 0.212452 -0.12699655 0.06726772 -0.038788978 0.07470259
-0.07997715 -0.02010434 0.19348913 0.1691341 -0.10068165 0.0089716185 -0.001015011 0.08654941
0.20331012 0.11159411 0.26370803 0.16663921 0.15946403 0.06942633 0.10133148 0.19862516
0.22501887 0.18381265 0.049844157 0.08680316 0.082904436 0.06042229 0.18821408 -0.0122069325
0.21133211 0.08359392 0.001735115 0.14590526 0.084063366 0.27718708 -0.041003164 0.043603987
0.02950688 0.25803003 0.06877577 0.032062434 0.057599675 0.07278738 0.024542045 0.24053349
