trained_model/mc1_mc2/60_days_lookahead/pnet_checkpoint/pnet_2650.pth (torch, 545278 bytes, 36 tensors)

network_smart.layer1.0.weight f4 [128, 330]
00000000: c533 b1bb 3939 cdbb a721 41bd a3fb 24bb
00000010: 8dc0 4dbc 674a c23c 8f9c 463d 14dc 1f3c
00000020: c3f7 74bc 2157 3abd 2b1a f33c 865a b6bb
00000030: 94a9 4cbd 842a 1cbd 2fab c83c 04cf 7abb
00000040: 4dd8 483d 6205 c63b b3bc b63c 39a1 4a3d
00000050: 0817 133d 5882 483c b9b2 423c e2ea 1c3d
00000060: 70f6 adbc fdaa 403d 66b3 49bc 438b efbc
00000070: 05ff d3bb f7f6 49bc c8d8 613d 22f2 48bd
00000080: a9e6 ca3c 5caa f7bc 606d 8bbc dc0a 00bd
00000090: 68e6 00bc 6cf1 173d 0eb2 3739 e990 603d
000000a0: 937b 0bbd a29b 233d f3f5 3d3d 1daf 32bd
000000b0: df61 c7bc b5b8 67bd 5ab8 ccbc 510b a13c
000000c0: a94d d83c 3dbe 8f3c 9fb2 4bbd 3835 16bd
000000d0: e957 cfba 8fef 603d b9d0 af3b 02e5 323d
000000e0: 9014 9fbc 02fe 46bd 56e5 613c 0011 47bd
000000f0: ae5e 0ebd ee7d 163d 3609 9cbc d424 96bb
00000100: bca4 0b3d daa6 f0bc 1b89 15bd d1e7 c43c
00000110: b8af 3fbd f1b2 d5bc 4278 9dbb 0766 aebc
00000120: 2a98 8a3c dc56 e9bb 9685 52bd b4df 81bb
00000130: abba 89bc 9f44 d33c bbe1 afbb dfc5 bb39
00000140: 03b6 13bd cb71 34bd 3aec 253d ebef 0a3d
00000150: 878e 59bd 59d3 aabc ce26 a7bb 0f9f 18bc
00000160: dbe5 a3bc aa9d 9d3c a423 2b3d 76f2 07bd
00000170: eed9 53bd 55e8 3c3d f326 383c ed8c 383b
00000180: a5f3 ddbc 50c5 bfbc 5b6d 2d3d d13e 89bc
00000190: 4616 debb 5247 273c d352 2d3d 8e66 493d
000001a0: 02fa 5bbd 3d7a 94bc 3900 a6bc 5734 0b3c
000001b0: da0f 503c 0ba8 343d 1408 80bc e09e 0c3d
000001c0: 8db9 5a3d bca4 47bc baf6 9abc 9204 59bd
000001d0: a1d5 c6bc fab8 ce3b 0543 30bb a926 5d3d
000001e0: 7f65 1f3d cdb9 763b e700 fd3c 3566 20bd
000001f0: e4e3 0abd e04c ef3c ac3a 233d d26b 2b3d
00000200: 2d15 cebc 13bc 55bd 3600 b6bc 2af7 4b3c
00000210: 92c4 53bc 90de 63bd b38b 493b 10ac 603d
00000220: f5c3 e93b 200e fb3b e72d 153b 58a6 473d
00000230: 0478 59bb adb3 433d 64ac d13b 95bc 5bbd
00000240: dc93 453d c0e4 c03b 6446 07bc afaf e4bc
00000250: 3580 0fbd 4d92 1c3d 1c1e 61bd b6c7 94bc
00000260: 10cb 21bd 91ae 2dbd f95d dd3c bbd8 073d
00000270: dd8c 28bd 4cab 303d c7c6 3bbd 187d eabc
00000280: 69ec 0c3d 8b90 783c 6a3d 5ebd 6e23 08bd
00000290: b165 183d c197 abba da01 243c f5b9 ce3c
000002a0: ae45 4bbc 604b ce3c 1d2b 55bd d1fc 1bbd
000002b0: 3e81 bc3b 662c 51bd 064c 4bbd 9b22 edbc
000002c0: 70b4 e6bc 1a95 1dbd 4b41 d83c 8132 9e3c
000002d0: f84e 84ba 83a3 0a3d 80f3 a73c b04e e9ba
000002e0: d777 5cbd 563f a4bc 3f13 28bd c0f9 25bd
000002f0: bd8d 69bd 303d 34bd 5cc8 4e3c e664 c13c
00000300: 2db0 cebc 3c59 9bbc 8487 fbbc badb 97bc
00000310: 727c 573c ff8e 283d 58bf 6cbc 4fb9 2cbc
00000320: 3d2b 37bd 0c47 1d3d 6097 a6bc 0e11 383c
00000330: 47e0 653d 6ea1 03bd cd1e 3b3d 5608 4f3d
00000340: e204 cc3c c1db ccba d214 d3bc da02 e3bc
00000350: 533a c9bc e489 ecbc da0c baba 36c7 223d
00000360: 0c2c ee3c 33ee abbc e0d4 3bba fb0a 2fbd
00000370: 7630 7eba 8634 2c3d 4a30 8d3c de86 37bd
00000380: 7b56 2f3c 9f8b a93b b34f 3a3d e028 4bb9
00000390: 3ef3 623d 2b62 823c 0c80 ea3c 6086 f43c
000003a0: 5a92 1fbc 2c9a d93b 42d9 4fbd ec69 8ebc
000003b0: 2483 c93c a791 25bd e7f1 323d 5bae abbc
000003c0: 385f 2ebd 7abe 21bb b6a0 11bd ef3c b2bc
000003d0: affd c83c 48e1 1dbc c1e3 eabb a429 823c
000003e0: 0910 09bd 85f8 0abd 070d c2ba 82c2 cbbc
000003f0: 1c9a 3abd ac18 f1bc 7b92 32bc 40e2 66bc
-0.0054077827 -0.006262925 -0.047151234 -0.0025174401 -0.012558115 0.023717118 0.04848915 0.009757061
-0.014951649 -0.04549325 0.029675564 -0.0055649905 -0.04996641 -0.038126484 0.02449569 -0.0038270364
0.049034405 0.006043122 0.022306776 0.04947016 0.035910636 0.012238108 0.011883431 0.03830994
-0.021235675 0.047038067 -0.012310838 -0.02924121 -0.0064696097 -0.012326947 0.05513838 -0.04905904
0.02476819 -0.0302326 -0.017019928 -0.031260356 -0.007867433 0.037095472 0.0001751857 0.054825697
-0.034053396 0.039943345 0.046377134 -0.043624032 -0.02433866 -0.056572635 -0.02499025 0.019658716
0.026404219 0.017546767 -0.049730893 -0.036671847 -0.0015819046 0.05491596 0.005365458 0.04367543
-0.019418985 -0.048582084 0.013787588 -0.048600197 -0.034758262 0.03674119 -0.01904736 -0.004582027
0.03409265 -0.029376436 -0.036507707 0.02403632 -0.046798438 -0.026086302 -0.0048055956 -0.021288885
0.01691826 -0.00712095 -0.05139693 -0.003963435 -0.016812643 0.025789557 -0.0053674853 0.00035814845
-0.03606225 -0.044053834 0.040508486 0.03392021 -0.05311444 -0.020852732 -0.0051010614 -0.009315266
-0.020007065 0.01924022 0.041782036 -0.033190213 -0.051721506 0.046120007 0.011239755 0.002816017
-0.027093718 -0.023409516 0.042340618 -0.016753586 -0.0067775575 0.010209875 0.042315315 0.04917007
-0.053705223 -0.018124694 -0.020263778 0.0084963655 0.012699092 0.04410557 -0.015628852 0.034331203
0.05339961 -0.012185272 -0.018916477 -0.052982874 -0.024271788 0.006308672 -0.0026895416 0.053991947
0.038915154 0.0037647367 0.03088422 -0.039159972 -0.03390874 0.029211462 0.039850876 0.041850872
-0.025156582 -0.052181315 -0.022216897 0.012449065 -0.012925284 -0.055632174 0.0030753433 0.05485159
0.0071339556 0.007661596 0.0022762956 0.048742622 -0.0033183107 0.047778774 0.0063987244 -0.053646643
0.048236713 0.005886644 -0.0082565285 -0.027915804 -0.035034377 0.03822546 -0.054960355 -0.018161636
-0.039500296 -0.042402808 0.027022349 0.033165675 -0.041149963 0.04313211 -0.045843866 -0.028624102
0.034405146 0.0151711805 -0.054257788 -0.033236913 0.037206355 -0.0013091491 0.010010207 0.025235156
-0.01240675 0.025182426 -0.05204307 -0.0380829 0.0057527116 -0.051067732 -0.04963305 -0.028947165
-0.028162211 -0.038472272 0.026398322 0.019311192 -0.0010094335 0.033847343 0.020501852 -0.001779994
-0.053825226 -0.020049732 -0.04103398 -0.040521383 -0.057019938 -0.044003665 0.012621012 0.023607682
-0.025230492 -0.018963449 -0.030704267 -0.018537391 0.013152229 0.041151997 -0.014449917 -0.010542228
-0.04471897 0.038397834 -0.020335853 0.011234535 0.05612209 -0.032136373 0.04568367 0.05054506
0.024904672 -0.0015629457 -0.025766764 -0.02771132 -0.024563944 -0.028874345 -0.0014194504 0.039740764
0.029073738 -0.020987606 -0.0007165205 -0.04273508 -0.00096965523 0.042042278 0.01723494 -0.044806354
0.010701771 0.005174115 0.045486163 -0.00019374816 0.055407755 0.01591595 0.02862551 0.029849231
-0.009739483 0.006640693 -0.050744303 -0.017384492 0.024598666 -0.040422108 0.043687727 -0.020957163
-0.042571276 -0.0024680183 -0.035553657 -0.021757571 0.024535028 -0.009636231 -0.0071682637 0.015888996
-0.033462558 -0.033928413 -0.0014804908 -0.024873022 -0.045557126 -0.02943071 -0.0108991815 -0.014092028

network_smart.layer1.0.bias f4 [128]
00000000: ef86 39bd 878f 8dbd 632e 823d 3775 09bd
00000010: 5416 8fbe 1108 a83d 5ec5 8e3d b029 e53d
00000020: e0ee 763e 2b52 abbd bb9e 3a3e 930f 0ebd
00000030: 5b38 053c 8a5c a0bd c76f 933d f6d7 b7bc
00000040: 34eb a8bd f0c5 64bd 58b4 063e 177a 04bd
00000050: 9037 5dbd 33f6 19bc ba31 c53d b849 babe
00000060: eb22 213e d808 afbc 27b2 113d c51d a6bd
00000070: 905d 343e 94c8 313c fdc8 85bd a736 eebe
00000080: 38d7 803d 5de6 773e 9b96 0d3e b986 8a3d
00000090: 5e4f 113e 8586 1fbd a96d 883d a9a0 043e
000000a0: 241a cb3d 16ef 863d ae6f b43c 37c8 0dbd
000000b0: 665a df3d d9f0 9cbd 0e71 96bd b4f5 e83d
000000c0: 48b4 483d 7653 f9bc 620b 1f3e 07af bbba
000000d0: 1783 f3bd a3f1 143a 5fbc 383e 837f b9ba
000000e0: 274e 49be ad3c bd3d 2890 c83d 12a9 42bd
000000f0: c487 fb3d 27af 853d 696a aebd b664 3dbd
00000100: e3f9 4fbd 8b93 91be 56bd 7a3d 259c df3c
00000110: a1e3 343e e884 bcbd bd13 db3d e1cc d23d
00000120: 3343 7fbc 681b 85bd 82c4 abbe eadc 1cbd
00000130: 1f21 b9bb 8c6e e3bc dc3d 1d3e 0fbd c6be
00000140: 98e8 e6be 3b55 0cbe 6f78 003d f7df ba3d
00000150: a669 663c 6c62 093e 720d be3d 9064 02bd
00000160: 5a0a 94bc f7fc d8bd b01f 0a3d b369 9cbd
00000170: b98c 073e 47ea 72bd c9bc 4dbc 28e4 123e
00000180: 2429 533e 22cb 00bd 8fe7 1bbd 5e86 9cbd
00000190: 46c1 2cbe f25f 96bd 5061 5f3d 5f84 e4bc
000001a0: 090f 2ebd 2673 453d 7e0c 0e3d 9e8c 0abd
000001b0: 0ffe 47be 3f18 82be 0268 7ebd 2a34 d6bc
000001c0: 31dd 353c 7d32 37bd 3329 873c 3513 20be
000001d0: 0ffd 26bd 0bc5 bcba 180b 71be 85c7 aebc
000001e0: 63fc 903d f847 43bc b6e4 babd cb8d acba
000001f0: 181e c33c 12ca ddbd 6be3 24be 5aaf abbe
-0.0452947 -0.06912141 0.06356504 -0.03355905 -0.27946723 0.082046635 0.069712386 0.11189592
0.24114561 -0.08365282 0.18224613 -0.03468282 0.008131112 -0.078301504 0.07199054 -0.022441845
-0.082479864 -0.05585283 0.13154733 -0.032342996 -0.054008067 -0.009397077 0.09628625 -0.36384368
0.15735976 -0.021366522 0.03557029 -0.08111147 0.17613816 0.010851044 -0.06532476 -0.4652607
0.0629105 0.2420897 0.13826983 0.067639776 0.14190432 -0.038946647 0.06661541 0.12951912
0.09917095 0.06588571 0.02202591 -0.034614768 0.10905914 -0.076631255 -0.07345782 0.11374989
0.049000055 -0.030435305 0.15531686 -0.001431913 -0.11890238 0.00056817586 0.18040608 -0.0014152381
-0.19658719 0.092400886 0.097931206 -0.04752452 0.122817546 0.06527548 -0.0851639 -0.046238624
-0.05077542 -0.2843288 0.06121572 0.027296135 0.17664959 -0.09205037 0.10697124 0.10292984
-0.015579986 -0.06499368 -0.3354836 -0.038296618 -0.0056497003 -0.027762674 0.15355629 -0.38816115
-0.4509933 -0.13704388 0.031364854 0.09124749 0.0140632745 0.13416451 0.09279908 -0.031834185
-0.018071342 -0.10595124 0.033721626 -0.07637348 0.13237275 -0.059305456 -0.012557217 0.14344847
0.20621163 -0.031443723 -0.03806263 -0.07642816 -0.16870603 -0.07342519 0.054536164 -0.02789515
-0.042494807 0.048205517 0.034679882 -0.03382551 -0.1953051 -0.25409123 -0.06211091 -0.02614792
0.011100099 -0.044725884 0.016499138 -0.15632327 -0.04076868 -0.0014401985 -0.23539388 -0.021335373
0.07079389 -0.011919014 -0.091256544 -0.0013164816 0.02381806 -0.108295575 -0.16102378 -0.3353222

network_smart.layer2.0.weight f4 [128, 128]
00000000: 505c a93d f5b5 b8be 4d42 603d 71b2 44bd
00000010: e705 b1bd 8c96 f1bd 7819 cb3e 8e61 63bd
00000020: 6890 413e fa58 5dbf cc1e 43bd 135c 263e
00000030: c60b 8fbc d022 d4bd e392 05bd 1daf c3bc
00000040: b9bd 363e c813 5b3c 039a 953d 553d 97bd
00000050: 7399 ba3f 59dd 8e3d ae3c 1d3c af35 d4bd
00000060: 7bc9 2b3e 1c8d bd3d 2add 9b3d 8979 adbd
00000070: bd4a b53d 3227 243e 9ac8 d3be 7534 07bd
00000080: 86bb 1dbf 121e be3e 98b8 063d aaba 31be
00000090: 6d19 2bbe ae46 7cbd 7d7e e93d 3e2c 69be
000000a0: e314 083c ff59 86be 5322 0abe 870e 5c3b
000000b0: b03b c13b 8325 793d c321 1abe 41d5 863d
000000c0: fc84 923e fe71 a3bc d148 573d 7109 bb3d
000000d0: d2e5 94be 096a 65be e00b 9d3d 35b1 7fbd
000000e0: 522a 273e 5b1d 273e 0eb0 d03c d71a bebd
000000f0: 50bf acbd 4125 993c 589a c1bd 1f52 2c3d
00000100: c217 123d 9fa6 0abe 2880 aabe ddd8 e53d
00000110: ba2d d33d 8551 b5bd 48c1 d9bd 1469 473e
00000120: ede6 0d3c 25c5 7fbe 1eb3 a5bb 2c2a 0bbd
00000130: 4e25 b0bd a607 8a3d f244 033e 81bc 0b3d
00000140: 435c 783d 4495 11bc 73b0 c7be b20e be3d
00000150: 0719 093f fd82 b2be dc5e 90be 8565 ba3b
00000160: d7d5 30bf 6e11 b5bc fe78 8cbc 0af6 97be
00000170: c43f 2f3e 9e26 56bb 1974 403d 16dd 403e
00000180: 60bb 723c be0b 933d f35a 9dbd 13a1 893e
00000190: b0df 993e 5995 eebd fd54 5abe 1924 a5bd
000001a0: c074 0dbe 47a9 bf3e 3ef7 843e 319b dd3a
000001b0: 6e84 ee3d f6b5 4a3d 9ffb 753d 2e6f 103e
000001c0: 9420 643e e770 d1be 26bc 7d3c 1501 b93d
000001d0: 761d d1bd a96b 79be 706c 2b3d fa42 973c
000001e0: a648 193e ba0f 913d 0bae 2c3e e794 9b3d
000001f0: a01a c63b 7886 303e 421f 4fbd 86e4 c33d
00000200: 3a69 34bd 1e3f 0cbd 0b88 a9be 1800 4b3d
00000210: fe6b 9c3e 1f68 923e afc3 1dbe a3ac 103e
00000220: a867 f4bd aa40 02be 5aa6 8fbe 356b 883e
00000230: a0a6 3cbd 4834 11bd 2b36 8c3e 638f ab3c
00000240: df63 423c 5457 afbd cb28 d5bd 6ff5 d63c
00000250: 5899 ff3e 1464 2dbd 47b2 6bbd e0ae 6dbd
00000260: c5da 853d 30c5 48bd ea5f 95be 9207 4abc
00000270: 03a6 72bd 5993 243d 72d7 6ebd 1f7a 25be
00000280: eaa6 0e3e 0cd6 753e 82c2 a33c b26c 16bd
00000290: 8487 8a3d f2fb ae3d 54eb 3d3d 826f 9dbe
000002a0: 6c42 523d 0e41 b7bd 0cbb 763d 8af1 a4bd
000002b0: 900b a53e 7c23 af3c 78be f93c 21e6 86bd
000002c0: 2430 d6bc 0053 4f3d 0955 383e 507c 1a3e
000002d0: daf3 e6be b837 f0bc 031e d3be 3fc1 903c
000002e0: 7ceb 9abe 337e 563d 6580 2d3e f1da 98bc
000002f0: 9426 723d a455 f1bd 4616 81bd 2b0c d4be
00000300: d5c6 20bd f81d 9e3e c47b 09bf 01b0 b73e
00000310: 6839 aebd b95c 993d 9e34 76bd f729 a4be
00000320: cf90 b3bd a141 16bd 0249 743b 62ff 3a3d
00000330: 011c 24bd 2add 94bc af94 9dbc de39 b03c
00000340: 8306 22bf 5b43 013b 06c8 763e 3420 cebd
00000350: ff74 f33e 538b 963e 06e2 77bd f166 35bd
00000360: cccd ebbd 7e97 58be 8cb0 cbbc e282 aabd
00000370: 897b 653e 515f b43c c670 a1bd dacb 323e
00000380: b765 b0bd 0580 793c 8bc2 a8bd 1756 4a3c
00000390: 0ef7 a1bd 9b92 c13d 721f 9e3e 5809 6a3d
000003a0: bbb8 08bb df1b 82be e852 233e f814 f23b
000003b0: f924 b5bd 944a a3bd b42c dc3d ac2c 99bd
000003c0: 8111 323e 01d2 3f3e 2ca1 063d bd92 bfbd
000003d0: 86bb 943e acbd aebd a190 c33d 6fbc 82bc
000003e0: c2c1 c23d a371 88bd 1244 493e 5ecf a53d
000003f0: a52a 733d bd44 a93c 1bc9 dcba 516e a5bd
0.0826956 -0.36076322 0.05475073 -0.048021737 -0.08643704 -0.11796293 0.3966787 -0.055512957
0.18902743 -0.8646389 -0.047636792 0.16246061 -0.017461669 -0.103582025 -0.032610785 -0.023887211
0.17845811 0.013371415 0.07304766 -0.07384745 1.4578079 0.069758125 0.009596987 -0.10361802
0.16776077 0.0925543 0.07610543 -0.084704466 0.08852146 0.16030577 -0.41363984 -0.03300901
-0.61614263 0.37132317 0.032890886 -0.17356363 -0.16708918 -0.061590843 0.11401079 -0.22770783
0.008305761 -0.26240537 -0.13489656 0.0033577995 0.005897008 0.06082679 -0.15051942 0.06583644
0.28617084 -0.019951817 0.052559678 0.0913266 -0.2908159 -0.2240373 0.076682806 -0.062424857
0.16324738 0.16319792 0.025474574 -0.09282463 -0.084349275 0.018694522 -0.09453267 0.042070504
0.03566719 -0.13540123 -0.333009 0.11223004 0.10311456 -0.08853439 -0.106325686 0.19473678
0.008661014 -0.24977548 -0.005056753 -0.033975765 -0.08600865 0.0673974 0.1281927 0.03411532
0.060634863 -0.008885685 -0.39001808 0.09280147 0.53553814 -0.3486556 -0.28197372 0.0056883716
-0.69076294 -0.022103038 -0.017147537 -0.296799 0.17114168 -0.0032676826 0.04698572 0.18834338
0.0148151815 0.07179974 -0.07683363 0.26880702 0.30053473 -0.116495796 -0.21321483 -0.08063526
-0.13814068 0.37433836 0.2596988 0.0016907213 0.11646353 0.049489938 0.060054418 0.14104912
0.22278053 -0.4090645 0.015486753 0.090334095 -0.10210697 -0.24357475 0.04185146 0.018464554
0.1496912 0.07083078 0.16863267 0.0759676 0.0060456544 0.17238796 -0.05056692 0.09565072
-0.044045664 -0.03423988 -0.33111605 0.049560636 0.30551142 0.28595063 -0.15406679 0.14128356
-0.11933833 -0.1271998 -0.28056604 0.26644292 -0.046057343 -0.03545025 0.27385077 0.020942396
0.011864631 -0.085615784 -0.10408171 0.026240079 0.4992168 -0.04233177 -0.057543065 -0.058028102
0.065358676 -0.049016178 -0.2917474 -0.012330906 -0.059240352 0.040179584 -0.058310933 -0.16159867
0.1393086 0.24007434 0.01999021 -0.036724754 0.06764129 0.085441485 0.046367005 -0.30749136
0.051332876 -0.08947955 0.060236976 -0.080538824 0.32235384 0.021379225 0.03048633 -0.06586862
-0.026146002 0.050616264 0.18001188 0.15086484 -0.4510792 -0.029323444 -0.41233835 0.017670272
-0.30257785 0.052366447 0.1694351 -0.018659087 0.059118822 -0.11783913 -0.063030764 -0.41415533
-0.03925212 0.3088224 -0.53704476 0.35876468 -0.08507043 0.074883886 -0.060108773 -0.32063267
-0.087678544 -0.036683682 0.0037274961 0.04565371 -0.04006577 -0.018171865 -0.019235937 0.021511968
-0.63291186 0.0019723985 0.2409974 -0.10064736 0.47550198 0.2940317 -0.060518287 -0.044287626
-0.11513862 -0.2115154 -0.024864458 -0.08325745 0.22410406 0.022018107 -0.07882838 0.17460576
-0.086131506 0.015228276 -0.08240231 0.012349627 -0.0790845 0.09451791 0.30883366 0.057137817
-0.002086206 -0.2541189 0.15949595 0.0073877536 -0.088449426 -0.07973209 0.10750714 -0.074792236
0.1738949 0.18732454 0.03286855 -0.0935416 0.2904932 -0.08532271 0.0954907 -0.015958993
0.095096126 -0.066622995 0.19654873 0.08096193 0.05936684 0.02066266 -0.0016844602 -0.08077682

network_smart.layer2.0.bias f4 [128]
00000000: b908 97bc 264f f63d e1e6 1abe 4c40 ba3a
00000010: b1c5 473d 19ea 013e 1e2d a9be 9cd6 b93d
00000020: 866b 2b3d fd98 88bd eb16 b63d c15a 683d
00000030: 2917 d63d 8471 b5bd 7094 893d 5088 353e
00000040: fa24 86bc a93f 613c b0bb b93c e143 9cbd
00000050: 5f3d ecbb c13c e63d dcfc d7bd 1d5c 4c3e
00000060: b876 a73d a8cc a13d f3c6 183e 0a3a 053c
00000070: 1e10 c53d e24c 763c e290 00bd a50a 52be
00000080: 05af dabe 21a9 9c3d 3ec3 053e 9eeb f43d
00000090: 55e0 00be 4ecb 6ebd c191 0b3e d974 e43d
000000a0: 1d24 56bd 8b58 fa3d 87c6 8b3b e43f 903d
000000b0: f150 083c 5e1e 6f3d 3a7c 4abe b287 fbbd
000000c0: 04ed 473d 02e4 3a3d bdd1 99bd 46ef 0ebe
000000d0: a5fc b13c 60e7 21be 7425 283e 3930 b83c
000000e0: 8088 063e 7ba1 8c3c 9111 ea3d 1653 2abd
000000f0: 6a20 433d 1571 f5bd a0c8 193e 0f56 6cbd
00000100: 89d2 1f3d 10ea af3d cf5d debd e620 2abe
00000110: 5ec1 253d 82e8 ab3d 9b23 d93c 84cc 20be
00000120: 4692 b43c ed04 aa3d e035 0bbe 8638 31bd
00000130: e915 b93d 353d 3e3e 292e c738 9a58 a3be
00000140: 4617 c63d 5c4a 92bd 7959 e83d 7c95 de3c
00000150: f631 1bbe 98c3 a7bd 3490 8cbd b51f 08bc
00000160: 954a f33c 953e 9bbd 4808 6ebd 2739 573e
00000170: c13a 6d3d 18f6 b53c e34e 813c b307 b43d
00000180: 832b 38be e385 1dbd cb6e a53d 009d 093e
00000190: 50ca ccbb 4c56 a93d b5a6 a4bd 3dfd 42be
000001a0: 4619 f9bd 90f2 6e3d 8d3f 7ebd ab40 723c
000001b0: add2 9c3d 821f c93c cab3 98bd 1004 89bd
000001c0: 3c2e cb3c 5510 2d3d 06ad 86bc 98c3 a9be
000001d0: 0af5 82bc d9c2 89bd 4984 b6bb a36f 9dbd
000001e0: e683 183d cd5c 23be abd7 01bd 0a25 1ebe
000001f0: 800e 1fbd 0969 83bd af06 47bc 9b36 953b
-0.018436776 0.12026815 -0.15127136 0.0014209836 0.048772518 0.12686957 -0.33042234 0.090741366
0.04185059 -0.06669805 0.0889109 0.056727175 0.10453636 -0.08859542 0.06717765 0.1772778
-0.016375054 0.013748088 0.022672504 -0.076301344 -0.0072094644 0.11242057 -0.10546276 0.19957013
0.08176941 0.07900363 0.14919643 0.008131513 0.09622215 0.015032979 -0.03138817 -0.20511873
-0.42711654 0.07649446 0.1306276 0.11959003 -0.12585576 -0.058299355 0.1362982 0.111550994
-0.052280534 0.122239195 0.0042656097 0.07043436 0.008320079 0.05837857 -0.19773951 -0.12281741
0.04881002 0.0456276 -0.075107075 -0.13958463 0.021726916 -0.15810919 0.16420537 0.022483932
0.13138008 0.017166844 0.11429132 -0.041583143 0.047638334 -0.11984459 0.15017939 -0.05769926
0.03901914 0.08589566 -0.10857736 -0.16614112 0.040467612 0.08393957 0.026506236 -0.15703017
0.022042405 0.08301721 -0.1359477 -0.043266796 0.09037382 0.18578036 9.4976574e-05 -0.31903535
0.09672408 -0.07143089 0.113451906 0.02717089 -0.15155777 -0.081916034 -0.06863442 -0.008308341
0.02969865 -0.07580296 -0.058113366 0.21017896 0.05791736 0.022212073 0.015784686 0.08790531
-0.17985348 -0.038457762 0.08077773 0.13438797 -0.0062497035 0.08268413 -0.08039609 -0.19041915
-0.12163024 0.058336794 -0.062072325 0.014785926 0.07657371 0.024551157 -0.07456167 -0.06690228
0.02480232 0.042251904 -0.016439926 -0.3315704 -0.015985984 -0.06726617 -0.005569969 -0.07687309
0.037235163 -0.1595337 -0.031699818 -0.15443817 -0.038832188 -0.06416518 -0.01214759 0.0045536286

network_smart.layer3.0.weight f4 [48, 128]
00000000: 07a4 363d e7c0 913c f01d b0be 299d ffbd
00000010: e02d 5e3e a8f5 5a3d b713 0e3e 5da9 a93e
00000020: b51d b7be e75e a03a d812 74bd 0a45 ac3e
00000030: fdfc 8f3d 1cef 3e3d 1d81 83be 27a0 643d
00000040: b430 e7ba ada2 6f3e 17a1 1d3e 1b44 54bd
00000050: 470d 9ebd db30 dcbd 47b8 0dbe de2b 28bd
00000060: d5fe b43e 085c 11be c825 1b3e 772d 85be
00000070: 57df 103e ac9e b93d 008e 5ebe 0c05 5abe
00000080: 6f61 733e c401 5e3d 4eea 47be 5d47 e23d
00000090: 89b6 86be 1ace 4b3e 3ba3 253e 38f8 f2bd
000000a0: d36c 83bd a46f 6b3d e356 7cbe bb6a e4bc
000000b0: 0e02 b5bd 0a31 1fbd 9ceb 3e3d 5d9e e6bd
000000c0: e78a 6d3e 683f bb3c 3d86 f8bb 6e0b 39bd
000000d0: 6d87 8c3d 3dc4 c53e 9eb0 0e3e 51fe 703b
000000e0: 7e98 e93d c882 dc3d 36ac 8c3d 753f 2dbd
000000f0: 552c 013e a20c afbd aac4 6d3c a9c9 5abd
00000100: af75 1c3e 1a60 d03d 1d44 2ebf 1def d2be
00000110: a87b 7cbd 008b f53c 365e 0c3d 37a1 9a3d
00000120: 3af5 093e adf6 99bd 83fa 96bd c29f 043e
00000130: 18ac 203e 2b6b 6a3d e510 983d 3609 ebbe
00000140: ffbe 29bb 7796 86bd 9179 843d cf88 dabd
00000150: 51f8 27bf 90ea 063d 52a4 d0bd 79b7 073e
00000160: 23a2 c0bd 7259 7fbe ab67 7a3d 4292 9f3c
00000170: be4c 023d ab3c 1ebd 96da 2cbe d815 18bd
00000180: 4133 b93e 3cd1 65be c748 ed3d 6a95 ab3d
00000190: b5ba 343e d542 f73d e93d 30be 6f28 38be
000001a0: e6c9 da3c ce10 ac3d 76ab b43d 5980 bebc
000001b0: 4217 603e fe0b fcbc 75df 2f3d e5c5 81bd
000001c0: 2fba 6e3e 6590 a0be 8dac 143e 49a4 be3d
000001d0: fad6 9dbd 9c18 703d a6ba 4ebd e45f b0bb
000001e0: 718d ae3e 93f0 ee3e a83f 2b3e 49f3 89be
000001f0: e9c6 803d e701 b23d 6e5f 86be de41 cf3d
00000200: 056f 8e3d 8044 7f3d 6e66 57bd 835f bd3d
00000210: 873d b0bd a8a9 0b3d b868 ccbd b4dc 63bf
00000220: 4c22 c13e ed58 583d cdac 33be 95c1 93bc
00000230: aa86 8e3e dbe0 debe 4672 233d 0deb cdbd
00000240: 109e 87be 0161 dc3d 6b10 8e3d fef4 733c
00000250: fbd0 c03c e6fc 563b bd23 f83d a7a9 afbc
00000260: 690b 1fbf f1a4 8c3d 9317 103d 794d c83d
00000270: 5704 d9bd f011 273f c790 aebd 3d7a 673d
00000280: 05dd a1bd 1d63 f0be b244 9d3e a395 82bf
00000290: fe70 f5bd 103a b63e 0544 043e 1a1b 4d3f
000002a0: be3c 583d bac2 9c3c 7456 37be 8de9 febd
000002b0: 8654 bf3d f5f3 433d 916c b23d bd82 a2be
000002c0: 2129 533e 6287 09bd af13 133d 08b1 16bd
000002d0: bd0b 66bd f574 b13e e9a1 ecbe 4dcd a5ba
000002e0: e0d7 b2bd 910f 32bc fde5 7fbd f70d 7c3e
000002f0: bc38 62c0 625a 9d3e 8a2a f6bb 4e18 9a3d
00000300: a275 3abd d794 e73b 2211 3d3f 2ecc c33d
00000310: b076 983a a06a 053e f49f 36bd e776 613e
00000320: 11e7 18be 87a4 943d 00cf d1bd 0a60 52be
00000330: fa91 50bd a740 8a3c 1e16 05bd b718 71be
00000340: 1ed6 0e3e 35cc 5b3d e2d7 183b 427a b03d
00000350: 3899 603e b5d9 773d db00 433e 8ec1 29bd
00000360: e9af 66be 61bb 4dbe 9876 5fbd 5a56 133e
00000370: 442b 9abf 37c3 483f de1b d83d c831 e9bd
00000380: ea3e 0c3e 1113 9bbf 3d03 4cbd 8477 68bd
00000390: ac7a 1abe 8aff 8b3e e44b b83e 33ea 133e
000003a0: da82 43be b6d0 5bbf 49d1 54bd e1eb d33f
000003b0: 6b14 a03d af00 7dbd 94e6 453d 0c44 a1bd
000003c0: 6cd2 273c 49b7 1b3f 191b 33be cb88 693d
000003d0: 65ad c33d 518e dabd 1849 e9bc c426 263e
000003e0: f150 22bf 22a4 debd d4fc a73e 68d4 8ebf
000003f0: 71bc e03d 113c 333c c393 8abc 1c8a dc3d
0.044590022 0.017792178 -0.3439784 -0.12481148 0.21697187 0.053456932 0.13874708 0.33137026
-0.35764852 0.0012235314 -0.059588283 0.33646423 0.070306756 0.04661475 -0.25684443 0.055816796
-0.0017638416 0.234019 0.15393482 -0.051822763 -0.07717376 -0.10751506 -0.13839827 -0.04105746
0.3535067 -0.14195263 0.15151131 -0.2601125 0.14147697 0.090634674 -0.21733856 -0.21290988
0.23767637 0.054200903 -0.19522974 0.11048768 -0.26311138 0.1990284 0.16175549 -0.1186375
-0.06417241 0.057479516 -0.2464252 -0.027882924 -0.088382825 -0.038865127 0.046611413 -0.11260674
0.23197518 0.022857383 -0.007584362 -0.045176916 0.06861768 0.3862628 0.13934562 0.0036772678
0.11406039 0.10767132 0.06868784 -0.042296845 0.12614568 -0.085473314 0.01451222 -0.053414974
0.15279268 0.1017458 -0.6807268 -0.41198054 -0.061641365 0.029973507 0.034269534 0.075502805
0.13472453 -0.07517753 -0.07372 0.12951568 0.15690649 0.05723111 0.074250974 -0.45905465
-0.0025901196 -0.06571668 0.064684995 -0.106706254 -0.65613276 0.03293854 -0.101875916 0.13253583
-0.09405925 -0.24936464 0.06113402 0.01947892 0.03181147 -0.038632076 -0.16880259 -0.037130207
0.36171916 -0.22443098 0.11586147 0.08378108 0.17649348 0.12073294 -0.17211117 -0.17984174
0.0267076 0.08401643 0.08821766 -0.02325456 0.21883872 -0.030767437 0.042937715 -0.063365735
0.23313211 -0.31360164 0.14518948 0.09308679 -0.07707019 0.05861722 -0.05047097 -0.005382525
0.34092286 0.4666792 0.16723502 -0.26943424 0.06287939 0.08691769 -0.26244682 0.10119985
0.06954769 0.062321186 -0.05258792 0.09246733 -0.086054854 0.034097344 -0.09980911 -0.8900864
0.3772148 0.05281918 -0.17546387 -0.018036643 0.27837116 -0.43530926 0.0399039 -0.10054598
-0.2648778 0.107606895 0.06936725 0.014889954 0.02353715 0.0032804548 0.121161915 -0.021443201
-0.62126786 0.068673976 0.035178732 0.09780402 -0.10596531 0.65261745 -0.08523708 0.05651306
-0.07903484 -0.46950617 0.30716473 -1.0201916 -0.11984442 0.35591173 0.12916572 0.8011948
0.052792303 0.019135822 -0.17904073 -0.1244689 0.093422934 0.047840077 0.08712114 -0.3174037
0.20621158 -0.033576377 0.035907444 -0.036789924 -0.05616354 0.34659544 -0.46217278 -0.0012649685
-0.08732581 -0.010867969 -0.062475193 0.24614702 -3.5347128 0.3073302 -0.0075123953 0.07524167
-0.04552234 0.0070673036 0.7385427 0.095604286 0.0011632051 0.13028955 -0.044586137 0.22018014
-0.14931895 0.072579436 -0.1024456 -0.20544448 -0.050920464 0.016876532 -0.032491796 -0.23544584
0.13948867 0.053661544 0.0023322036 0.08617069 0.21933448 0.060510356 0.19043295 -0.041444354
-0.22528042 -0.2009101 -0.05455646 0.1438841 -1.2044454 0.78422874 0.1055219 -0.11386448
0.13695875 -1.2115194 -0.049807776 -0.056754604 -0.15085858 0.27343398 0.359954 0.14444809
-0.19092885 -0.8586534 -0.051957402 1.655636 0.078163944 -0.06176823 0.0483156 -0.07874307
0.01024304 0.60826546 -0.17490806 0.05701522 0.09554557 -0.10671676 -0.028477237 0.16225725
-0.63404757 -0.108711496 0.3281008 -1.1158571 0.10973442 0.010939614 -0.016916161 0.1076853

network_smart.layer3.0.bias f4 [48]
00000000: 58c9 eabc a670 263d 65a2 9e3d b83e de3d
00000010: d64b be3d 7a9a 63bc 7b32 003c 688a 7fbb
00000020: e3e8 0f3e 77a0 923d 5555 83bb 0718 3ebd
00000030: aef4 003e 1672 393e a6eb 31bd d643 48bc
00000040: b29a e43c ac38 ed3c f2ec 27bd 5221 993d
00000050: 0b27 b9bd 45f0 1d3c 7c59 bbbc e4df d63d
00000060: d2de 09be 76e8 60bd 4934 fa3d 419f b3bc
00000070: 4e34 b53d 57a6 813d baa5 203d 98af bb3d
00000080: fe4e 303d b54d fcbd c0c8 d53a 707b 003d
00000090: 6ea9 01be c543 babd debb eabd 145a 403d
000000a0: e82e 8bbd f043 0b3d 7ac0 ddbd 48d9 d53d
000000b0: dec9 193d 7063 193e 5064 f83c 0f56 c1bd
-0.028660461 0.040634774 0.07745818 0.108518064 0.09291808 -0.013891811 0.0078245355 -0.0038992409
0.14053683 0.071595125 -0.004007975 -0.046409633 0.12593338 0.18109927 -0.043437622 -0.012223205
0.027905796 0.028957687 -0.040997453 0.074770585 -0.0904065 0.009639804 -0.022869818 0.104919225
-0.13463905 -0.054909192 0.12217004 -0.021926524 0.08847867 0.06330555 0.03922055 0.09164351
0.043044083 -0.12319509 0.0016310439 0.03136772 -0.12662289 -0.09094957 -0.11461614 0.046960905
-0.06796056 0.034000337 -0.108277276 0.10441834 0.03754603 0.14979339 0.03032127 -0.094402425

fc_smart.weight f4 [64, 48]
00000000: c327 8d3e 873a 35c0 c09e 11be 46de 95be
00000010: ad2d f5be eed5 96bf 3aa6 443e 58c5 063f
00000020: feae e93e 68c2 123f 3dbd ad3e 74cb 663f
00000030: 5474 45bd bddd 69bd 7c87 e83e eb5e 38bf
00000040: b224 d93d 4bcc 893f 2527 b63e 1057 053e
00000050: 041b 9f3c 0662 6dbf b21d 353f 635c ee3e
00000060: c0d7 143f bc52 44bf 7994 c43e 6caa 0fbf
00000070: 1ae3 59be 0c04 c8bd 095b 2fbf 9a89 5b3e
00000080: 8ec5 6c3e affa 4f3f a23d 023f e5ed 9a3f
00000090: b7cf 9ebe a77f 23bf abff 443f c988 353f
000000a0: 3c32 083f 6f27 eabb c989 db3c 6384 57be
000000b0: b210 43be d251 dfbd 228d 5fbe 2744 c3be
000000c0: 8eb7 b2bb 6fb1 e6bf 359b 6cbd f3f4 0f3e
000000d0: 9524 6c3e 82a9 2d3f fc5f 093c 9123 20bf
000000e0: 3809 d0be 0b63 e3be c068 54be 87e6 e7be
000000f0: fb6b 46be 4b19 7f3e c097 79be e46f 523e
00000100: fadb eabe a8fb 5ebf 2a8c fcbe 3516 aa3e
00000110: 7b93 45bc d252 3e3f 9221 eebe ee6e a3be
00000120: 1d6d 6dbf a895 a43f 6f18 b8be d3b2 f53d
00000130: ab5d 913d fcc2 06bc a8de 263f 1bb4 07bf
00000140: b7dd a4be ebae 8cbe a12f 92be b633 53bf
00000150: 99f4 973d bd31 eb3e 315f 74bf 012b f8be
00000160: 72fd bcbe 765f 593e 81bc 553d 9f19 5a3e
00000170: fba5 0fbd e3c0 29be eef1 c33d 8c0f bd3e
00000180: 80ad 263e 75bc 21c0 0916 1fbe 22a7 cabd
00000190: aed2 34be f1c9 b3be 2e5b 203e 7e24 4fbe
000001a0: 3f5a 0c3b de31 b33d cb2b 093e 7074 ee3e
000001b0: 58c7 53be 85a3 693e 46b9 7e3e 809a ccbe
000001c0: 8fec 9fbe e475 1a3e a353 3bbe f9ef d43e
000001d0: 5552 0fbe bc17 f3bd ffbe 2b3e 4cfc f53d
000001e0: fd20 29bf 70d8 fd3e deb3 f33b 014d a5be
000001f0: 8720 30be 5a40 42be 3f0d 35bd cf92 8abe
00000200: d54a bdbd f18a bc3e 20d0 373e 10c2 953e
00000210: 7f09 83be 281f 76bd 9d48 22be c34c 0d3e
00000220: de22 633d 663b 5c3e 58e3 25bd c4d3 a03d
00000230: 4302 42be 6eed 63be b276 17be a4b3 17bd
00000240: 7c03 33bd 4f91 e4bf 3040 b0bd b9c4 173e
00000250: e3da 813e 56b9 3b3f bd44 463b 83ad 39bf
00000260: 0b89 e3be 9d14 efbe 5c68 4abe f903 c0be
00000270: 7f1b 57be b18e a43e d872 4fbe d474 593e
00000280: c478 00bf a5cd 66bf adbb 0fbf b9c0 bf3e
00000290: feb8 063e 3f56 4b3f 7949 01bf 4ca0 aabe
000002a0: f0e7 83bf 16be b43f a60f c5be 809f 103e
000002b0: 01fd 1c3d e012 66bd 4882 293f e114 12bf
000002c0: 224f b3be 0523 a3be 8f25 96be 75ad 63bf
000002d0: e3a7 ad3c ee77 073f 8600 83bf cfcf 06bf
000002e0: 3bd5 debe 104e 853e a52d 58bd 5076 8a3e
000002f0: 8e8a 19bd ee6a 3dbe eec4 8c3d 6552 bd3e
00000300: e36e 0abd 6b04 e9bf 712e eabc 7951 273e
00000310: fba1 7b3e c9b9 393f 1b59 b53b c6d2 3cbf
00000320: 9e19 dbbe 003d edbe a7bb 42be 4984 d3be
00000330: 1c59 46be 4f16 8f3e 5ac3 57be 8727 733e
00000340: 0cba eebe aab3 6abf 5819 07bf 025d b53e
00000350: ad17 033e 1d6c 453f afd1 fcbe 461e a5be
00000360: 5300 8bbf c9c4 af3f 8d02 c1be 87bc 0d3e
00000370: 4389 6c3d d644 c4bd cc60 263f 3be7 0abf
00000380: e140 abbe c0d1 aabe c8d4 9cbe b6df 5ebf
00000390: ffb4 8f3d 1a95 023f bb91 7cbf 7f54 07bf
000003a0: 7218 d3be dc8c 6d3e eba0 133e 09da 863e
000003b0: 7741 49bd 5405 20be c9a5 a13d 13d5 bc3e
000003c0: 50e5 833e 9c21 37c0 1864 0bbe 5610 88be
000003d0: 5428 e0be dd00 88bf 1eab 383e 56fc d93e
000003e0: 8579 c93e 424c 023f 3b0d a03e 68b6 5c3f
000003f0: 4d3e 99bd c442 63bc add3 e23e e591 2bbf
0.27569398 -2.8316972 -0.14220715 -0.29271144 -0.4788641 -1.1784036 0.19204035 0.5264487
0.4564132 0.5732789 0.3393344 0.90154195 -0.048206642 -0.05709623 0.45415866 -0.72019833
0.10602702 1.076547 0.3557674 0.13021493 0.019422062 -0.92727697 0.70748436 0.4655486
0.5814171 -0.7668874 0.38394526 -0.5611942 -0.21278039 -0.09766397 -0.68498284 0.2143921
0.23122236 0.8124189 0.50875294 1.210385 -0.3101785 -0.63866657 0.7695262 0.7091184
0.5320165 -0.007145814 0.0267991 -0.21046595 -0.19049338 -0.10904278 -0.21831182 -0.38137934
-0.0054540103 -1.8022898 -0.057765204 0.14058284 0.2306083 0.67836773 0.008384701 -0.6255427
-0.40632033 -0.444115 -0.20743084 -0.45293066 -0.19377129 0.24911992 -0.24374294 0.20550495
-0.45870954 -0.87102747 -0.49325687 0.33220068 -0.012059088 0.74345124 -0.46509987 -0.3192057
-0.9274462 1.2858171 -0.3595614 0.11996999 0.07097944 -0.008225199 0.65183496 -0.53009194
-0.32200405 -0.27477202 -0.28551963 -0.8250078 0.074197 0.45936385 -0.9545775 -0.4847031
-0.36912113 0.21227822 0.052181724 0.21298836 -0.0350704 -0.16577487 0.09567629 0.36925924
0.16277122 -2.5271275 -0.1553575 -0.09895159 -0.17658493 -0.35115007 0.15659782 -0.20228764
0.0021416096 0.08749746 0.13395612 0.4657321 -0.20681512 0.22816284 0.24875364 -0.39961624
-0.31235167 0.15084034 -0.18293624 0.41589335 -0.13996251 -0.11869761 0.16772078 0.120110124
-0.6606596 0.4957919 0.0074372133 -0.32285312 -0.17199908 -0.1896986 -0.044202086 -0.2706513
-0.09242789 0.36824754 0.17950487 0.2924962 -0.25593182 -0.060088307 -0.15848012 0.13798814
0.055453174 0.21507034 -0.040500015 0.07852891 -0.18946175 -0.22258541 -0.14791372 -0.037036553
-0.043704495 -1.7856845 -0.08605993 0.14821137 0.2536231 0.73329675 0.0030253374 -0.7253038
-0.44440493 -0.46695414 -0.19766372 -0.3750303 -0.21006583 0.32140115 -0.20258653 0.21235973
-0.50184274 -0.9015754 -0.56145746 0.37451723 0.13156506 0.79428476 -0.50502735 -0.33325422
-1.0305157 1.412051 -0.384885 0.14123344 0.03832722 -0.056170344 0.6621442 -0.5706311
-0.3502131 -0.31862655 -0.2932553 -0.8893655 0.021198219 0.52917373 -1.0234535 -0.5266084
-0.43522057 0.2603612 -0.052777905 0.2704339 -0.03748565 -0.18497822 0.06873499 0.36976925
-0.033797156 -1.8204473 -0.028586598 0.16339673 0.2457351 0.7254911 0.005534304 -0.73759115
-0.42792982 -0.46335602 -0.19016896 -0.41311863 -0.1936993 0.27946708 -0.21070614 0.23745547
-0.46626318 -0.91680396 -0.52773046 0.35422522 0.12802 0.7711809 -0.49378726 -0.3224966
-1.0859474 1.3731929 -0.3769726 0.13841449 0.05774809 -0.09583442 0.6499145 -0.5425908
-0.33447936 -0.33363152 -0.3063109 -0.87060106 0.07016944 0.5100876 -0.9865987 -0.52863306
-0.41229588 0.23198265 0.14416854 0.26338223 -0.049134698 -0.15627033 0.07892949 0.36881313
0.2576089 -2.8614264 -0.13612401 -0.26574963 -0.43780768 -1.0625263 0.18034026 0.4257533
0.39350525 0.5089761 0.31260094 0.8621583 -0.07482586 -0.013870899 0.4430212 -0.6701949

fc_smart.bias f4 [64]
00000000: dd6c 8cbd cb18 b83d 19c9 e03c 31e2 20bd
00000010: 63c7 d7bd 0d4d ecbd 4892 193d c2b1 abbd
00000020: af99 873d 88da c3bd bbe2 f6bc 8fdd 1f3d
00000030: 47e2 34bd 20b8 99bd 4aef 80bd f0c3 56b9
00000040: a6c6 833d 141b 843c a6d5 b3bd 9687 9fbd
00000050: b8aa 123d 6e55 bc3c db1f 493d d771 983c
00000060: 2b5a 163d 28c9 bbbc 14a1 8cbd fa01 e1bc
00000070: 02ab 983d 8110 2f3d 4b62 4f3d 30af 46bd
00000080: de26 20bd ac44 11bc 0bd4 58bd 2ad7 51bd
00000090: a363 86bd d267 a53c c334 663c ecbc dfbc
000000a0: 1417 603c f8f5 b33d f259 d1bd aef8 f73b
000000b0: 7c9b 2cbd a8e1 05be 3e3d b03c 5466 78bd
000000c0: 730d 503c 515b 5e3d e6e7 00be 5ebb 0cbc
000000d0: 5211 333c ebbf febc 6301 fabc 6152 f0ba
000000e0: 0238 bc3d 2b66 a33c 5bb6 a9bd ed52 11bd
000000f0: ce75 0cbe 3071 b9bd 6aec b73c 1b01 5abd
-0.068567015 0.08989104 0.02743964 -0.039278213 -0.10536077 -0.11538134 0.03749302 -0.08383514
0.0662111 -0.09563166 -0.03013741 0.039029654 -0.044161107 -0.07505822 -0.06295641 -0.00020481623
0.064343736 0.016126193 -0.087809846 -0.07789533 0.03580734 0.022989955 0.049102645 0.01860897
0.036707085 -0.022923067 -0.06866661 -0.027466763 0.07454492 0.04274035 0.05063085 -0.048506916
-0.039099567 -0.00886647 -0.052936595 -0.051230587 -0.06561973 0.020191107 0.014050665 -0.027311765
0.013677377 0.08787149 -0.10222234 0.0075674867 -0.04214047 -0.13074362 0.021513578 -0.060644463
0.012698519 0.054286305 -0.12588462 -0.008589594 0.010929422 -0.031097373 -0.03051824 -0.0018335098
0.0919037 0.019946178 -0.08286735 -0.035479475 -0.13716814 -0.09054792 0.022451598 -0.05322371

network_aging.lstm.weight_ih_l0 f4 [128, 5]
00000000: 1918 e9bd 3bda c63d 0943 643e e6d6 303e
00000010: 83fb 453e ae28 b03d b348 05be f75e b4bd
00000020: 937b 053e 252b 17be c775 2f3e c338 4c3e
00000030: e756 97bd bdc1 c3bd 919b 8e3c ac45 303e
00000040: 3880 d7bd 2776 b4bd fcd7 193d 7469 0a3e
00000050: efb1 353e 8eb7 d5bd 3a10 3a3e 5771 b8bd
00000060: aab0 49bd b2a6 eabd 7a88 443e e231 3d3d
00000070: 0678 353d 3d68 ba3d 00cf d33d e7f8 cabd
00000080: 7a58 323e 018a c33c 99ed b03d ffbc bc3d
00000090: e02c db3d f69e f6bd c384 b2bd 5f7b 79ba
000000a0: 9867 693e 7a1e e4bd 329b 53bd 53eb a23d
000000b0: 1a8f 1a3e 8e38 1ebd ca6f 333e dc59 37bd
000000c0: 7209 ed3c 40aa 22bd 0d4a 78bd 9932 ea3d
000000d0: 090c eabc 20e5 1d3e 5a0d 233e 6008 88bd
000000e0: a187 443e ed5f a4bd bdc3 893d d757 05bc
000000f0: bd7d 253e e8eb 023e 87a7 fa3d da6b c83d
00000100: 0ca3 453e b764 993d a5fb 9e3d 6d95 c13c
00000110: afd3 13be 89c7 de3d 6a1f 343d ede8 89bd
00000120: 5e98 5cbd 935d 3abc f1e8 0bbe 13f8 673d
00000130: 3cf6 32bd 6fe6 4d3e 75c8 803d 5343 c6bd
00000140: 4cb0 e4bd 37a1 523e 0c55 6abd 074c 923d
00000150: 42b9 df3d a94e 6cbd 9de2 523e 809a d5bd
00000160: ee4c bcbd d08a 423e 82fc 91bd e498 c13b
00000170: d15a 7abd 1e84 d2bc ebc9 ce3b a646 52bd
00000180: 223f 5f3d 2d8f 3a3c 0ed2 2dbd 7287 20bd
00000190: 2572 14be 8234 10bd 7a32 26be eddd 31bd
000001a0: dc41 1abd 2ad7 eebd b8c4 3abc 0235 483e
000001b0: 461c 723d 6c4c 63bd 7510 6a3d ab67 263e
000001c0: 1fe4 0bbe 1926 19bd eb06 6abd 4cb6 813d
000001d0: fbf6 d23c b780 a23d 3a4a 7bbd ac5c f83d
000001e0: 1a92 033e b688 873d 00b3 413e 19ad c73c
000001f0: 947e cd3d f3da a13d 198b c1bb fe87 4b3e
00000200: 745d a3bd 6336 fcbd 9e25 a63d cddf 443d
00000210: f023 1b3e 7f44 e9bd 7a28 13be 9c27 03be
00000220: 1025 f43d 1b56 f2bd 81f1 ae3a 89f9 e83d
00000230: cd39 cf3c 779b d03c 247f bebd 18e9 d2bd
00000240: 74e0 0b3c 9c85 adbd 9ba3 a2bd 1d6e 8f3d
00000250: ec04 863d afd5 3dbd b660 233e 1e57 e6bd
00000260: 3257 2b3e 35a7 2cbd 1bab 363d 02bb dabc
00000270: 01ff 573e 2ace 1d3e b26d dc3c 5f2a f3bd
00000280: a096 f53c cc0d efbd b84b b63c a118 27bd
00000290: 711f a13d 4fbe cebd fe3f 3cbc a06f 0a3e
000002a0: 821d a5bd c754 103e e07b db3d d89e d1bd
000002b0: b4e7 94bd d831 c83c 6711 7d3d 516f 0e3e
000002c0: 6be1 543d 7ce2 04bc 6e2a 563e 1aa5 543e
000002d0: b0cc 893d 79aa 0a3e 6501 c93d a0e4 153e
000002e0: cbe3 08be db91 013e 9ab6 363e 726d e53d
000002f0: 0faf f83d 6295 1c3e 91fc 2c3d 517f 323e
00000300: 3ba0 463e e2f5 0dbd 14e0 3e3e 6f03 893d
00000310: 8ce1 cb3d 5311 7f3d b277 fc3c da7b f9bd
00000320: 8b0b 943d 627a 5e3e b850 4c3e fe72 0a3d
00000330: 2569 193e a404 0fbd 662b 253e 0c68 073e
00000340: 9366 d93d d61c 793d 725f e43c 9e85 653e
00000350: 0786 3f3c f8f8 113e 50a8 0c3d 196a d13d
00000360: 3d61 e6bd 8f3a 5e3e 9578 373e 2ad5 5cbd
00000370: 0e11 2c3e aa5b c6bd 6dff 953c 5ae1 cf3d
00000380: f7dc 283e dae6 6d3d 380d 53bd 0061 8d3d
00000390: ff8a 103e a4b7 4fbd 77d5 b1bd 5673 383e
000003a0: d2cc 82bd 6f05 c0bd 6858 573c dba0 ad3b
000003b0: 3755 d23d fa1c b83d 9741 293e 5445 febd
000003c0: 13c1 513d 4f7d c53d 17b8 90bc d061 8e3c
000003d0: 2c03 e53d 3d5c 3d3e b88d a83d c748 d0bd
000003e0: c0fd 89bd 1986 6d3d 3ebf 4f3e 402e 4c3e
000003f0: a6ca f23d 8af0 2bbd 95d0 96bd ab24 d7bd
-0.113815494 0.09709593 0.22291197 0.17269477 0.19334225 0.08601509 -0.13016014 -0.088071756
0.13035421 -0.14762552 0.17134772 0.19943528 -0.07389622 -0.09558437 0.017408164 0.17214078
-0.10522503 -0.08811598 0.037559494 0.1351679 0.17743658 -0.10435401 0.18170252 -0.09005993
-0.049240746 -0.11457576 0.19192687 0.04619015 0.044303916 0.09101913 0.103422165 -0.099107556
0.17416564 0.023869516 0.08639068 0.09215736 0.107019186 -0.12042038 -0.087167285 -0.000951698
0.22793424 -0.111386254 -0.051661678 0.07955041 0.15093651 -0.038628154 0.17523113 -0.04476343
0.028935168 -0.039713144 -0.060617495 0.11435432 -0.028570192 0.15419436 0.15923062 -0.066422224
0.19192363 -0.08026109 0.06726787 -0.008138618 0.16161247 0.12785304 0.122389846 0.09786196
0.19300479 0.07489913 0.07762841 0.023630822 -0.1443622 0.10877902 0.04397527 -0.0673388
-0.053856246 -0.011374849 -0.13663079 0.056633066 -0.04369186 0.20107435 0.06288234 -0.0968081
-0.111664385 0.20569311 -0.057210013 0.07143407 0.10924007 -0.057692204 0.20594259 -0.10429859
-0.09194361 0.18998265 -0.0712824 0.0059081186 -0.061121766 -0.025697764 0.0063106916 -0.051336907
0.054503568 0.011386675 -0.042436652 -0.03919167 -0.14496668 -0.035206325 -0.16230193 -0.043424536
-0.037660465 -0.11662133 -0.0113994405 0.19551471 0.059108995 -0.055492803 0.0571446 0.16250484
-0.1366124 -0.03738985 -0.057135504 0.063335985 0.025752535 0.07934707 -0.061350085 0.12127051
0.12848702 0.066178724 0.1891594 0.024374532 0.100339085 0.079030894 -0.0059064743 0.19876096
-0.07976809 -0.12315061 0.08112644 0.048064996 0.15150428 -0.11390018 -0.1437091 -0.12808079
0.119211316 -0.118328296 0.001334712 0.1137572 0.025296116 0.025464756 -0.09301594 -0.10298365
0.0085374005 -0.084727496 -0.079413615 0.07003424 0.065439075 -0.046346363 0.15954861 -0.11247085
0.16732481 -0.04215165 0.044596773 -0.0267005 0.2109337 0.15410677 0.026907776 -0.11873316
0.02997905 -0.116725534 0.022252902 -0.040794972 0.07867325 -0.10094892 -0.011489866 0.13519144
-0.08062269 0.1409484 0.10716987 -0.10235375 -0.07270756 0.02443783 0.061784174 0.13909651
0.051972788 -0.008110639 0.20914623 0.20766106 0.06728494 0.13541593 0.09814719 0.14637995
-0.13368146 0.12653296 0.17843094 0.11202516 0.12142765 0.1529136 0.042233054 0.1743138
0.1939706 -0.03465832 0.18640167 0.06690108 0.09955129 0.06227238 0.030818794 -0.12181826
0.07228764 0.21726373 0.19952667 0.03380107 0.14981516 -0.034916535 0.16129836 0.13223284
0.106152676 0.060818516 0.027877543 0.22414252 0.011689669 0.1425513 0.034340203 0.10225315
-0.112490155 0.21702026 0.17917092 -0.053914227 0.16803381 -0.09685452 0.018310273 0.10150404
0.16490541 0.058081485 -0.05152628 0.06903267 0.14115523 -0.050712243 -0.08683293 0.18012747
-0.063867226 -0.093760364 0.013143636 0.0052987165 0.1027016 0.08989902 0.16528927 -0.12415567
0.05120952 0.09643041 -0.017665906 0.017380625 0.111822456 0.18492217 0.08230156 -0.10170131
-0.06737852 0.057989214 0.20287797 0.19939518 0.11855058 -0.041977443 -0.073640026 -0.10505041

network_aging.lstm.weight_hh_l0 f4 [128, 32]
00000000: 9013 00be 01d9 04be e4e1 633e 480e 7fbe
00000010: f51a dfbd 2e55 e1bd bc8a d83d 0c3b f83c
00000020: 0d55 91bc 9508 193e 5ed2 01be 4be3 d83d
00000030: 0a94 4a3e 8785 d83d 3603 88bd e20b f0bd
00000040: 0823 52be af23 9d3d c089 0f3d 8de1 033e
00000050: 981e 3b3e 9cd8 b5bd e6a5 68bd 2f7f 0a3e
00000060: 9022 89bc c32b 68be 494a b9bd 82b4 323d
00000070: 1ff2 5abd fa05 1e3d 5dbe aabc c9a9 78be
00000080: 8020 6fbd 849d 063e 3def 5f3b 467a 983d
00000090: 159d 46be d61c 14bd 18ec 08bd da3f 02bd
000000a0: ded4 963d 6e43 46be b1a7 ba3d 1c87 b0bd
000000b0: 04ce 44be ee13 e7bd 2fac dabd 9649 433e
000000c0: 7fc2 393e 57a7 bcbc d68f debc 1ace 0bbd
000000d0: 5b05 b2bd 08a6 5abd 43e6 16be 5002 1abd
000000e0: a0d2 4b3e 9fde 69bc 5b3a 6abe 26cd 583c
000000f0: f6eb 8a3d a4df b5bd 097e dd3d a503 723d
00000100: 9cb2 36be 7901 a6bd 15b9 d23d cad8 d5bd
00000110: cd4d 6dbd 59d4 a63d 0f0b 9cbd c748 783e
00000120: 24ce 3cbd c1f3 533e ad90 3b3d 6a27 0b3e
00000130: 7f3d 80bd 54e3 2c3e e196 803e 68e4 fe3c
00000140: 454a f7bd c513 203d 9ac9 633d d7b7 6e3e
00000150: 77e6 2c3e c67b 1cbe c016 14be 9d15 033e
00000160: f617 ba3c e385 3cbd a887 55bd 568a 883d
00000170: dac4 203d db67 ebbd 5d6b d0bb 2122 c2bd
00000180: 7179 6a3d 7a88 1b3e e90f 623e f420 00be
00000190: 033e 383e 4b45 d1bc b25a b83c 55c9 50bb
000001a0: 131d 5cbe bbc5 053e 8b36 04be 70dc 033e
000001b0: 96a8 b6bd 6fa6 063e 456b 503e cfb7 14be
000001c0: 01d5 84be fbd0 0d3e b3da 3abe ae59 303e
000001d0: efd8 cebd b8a5 483d a379 b33d be3a 213e
000001e0: b4eb 173c ed33 0dbe b17d 9b3c 21b3 b13d
000001f0: 6166 88bb f61e f53d 64e3 cfbd 2f2f 6ebd
00000200: a96e 23be 7ffd 493e 3cc9 94bd 7a1c b8bd
00000210: d4f7 033c 753b a23d 7871 53bd a733 143e
00000220: bcd7 19bc fb4a 493e 4458 d4bd a516 bfbd
00000230: eaf4 d93d 7df0 443e 3667 adbd 4de4 463d
00000240: f191 84bd 00e6 f8bc 7b21 3cbe 53e3 ea3d
00000250: 5a3a ba3d e883 11be f198 d8bd aeba 2f3d
00000260: 8026 913c a928 8f3d b74b 7a3d 7f34 adbc
00000270: 007b 21be 356a c33d c8a9 c43c 7acf 6dbe
00000280: ea9a e63d abd4 543c 5737 863e 2c9b 9ebd
00000290: 88fa 8d3d 1790 19be aed1 2a3e eb0a 563d
000002a0: 8023 373d 0735 a2bd 8096 c43d 6e52 113d
000002b0: 0608 063d 7ebe 013d 98de bf3c 6bc6 043e
000002c0: 5fdc 2b3d f129 543e fbda 7ebe bb42 6a3d
000002d0: fefd 923c 9b57 2fbc e57a 183d c656 363e
000002e0: 0686 263d 46b8 d3bd 8908 aabd 7961 963d
000002f0: dd4a 2cbe 8363 bc3d 095d 5bbc a949 15be
00000300: a74c 1cbe b492 fd3d cef5 173c 27a9 fbbd
00000310: fca6 11bd e045 16be 689b 39bd 3c3f c2bd
00000320: b847 48bd 5051 aa3d 5647 3bbe a696 e9bd
00000330: 225a b1bd 6eaf 973d f080 92bd c9df ff3c
00000340: 5723 303d 342e 0a3e a4ff 7cbd d6ac bebc
00000350: c9d6 8db9 7bed bcbc 3c41 4d3d 0f8b c7bd
00000360: ec23 23be 3ee1 52be b790 143e 2c16 44bd
00000370: aaf7 abbd a5c6 493e 1221 0dbe f9ed 69be
00000380: 36fc 57be b92b c83d 2c32 f73d 2ac7 9f3d
00000390: 5196 8c3d c1ff 2dbe 2c04 583d 37be 433d
000003a0: 58bb 4dbe ed60 8a3d 9562 72be 8920 cbbd
000003b0: 4997 b53d 4bd9 7fbd f0e1 18bd b127 a5ba
000003c0: 84d0 1dbc cd20 31bd c75e 843d 190c 6e3e
000003d0: 770e d23d fe67 b0bd f327 7fbd b5b7 603e
000003e0: ebe4 2abe e08b 33bd f25d 473e 1874 7dbd
000003f0: 32f0 79be 9a9a 523e 31bb 8e3d a0b8 17be
-0.12507463 -0.12973405 0.22254139 -0.24907792 -0.108938135 -0.11002575 0.105733365 0.030301593
-0.01774075 0.1494468 -0.12677905 0.10590228 0.19783035 0.10572343 -0.066412374 -0.117210165
-0.20521176 0.07672822 0.035043478 0.1287901 0.1827339 -0.088792056 -0.056798838 0.13525079
-0.016740113 -0.22672944 -0.09047372 0.043629177 -0.05345356 0.03857992 -0.020842725 -0.24283518
-0.058380604 0.13146025 0.0034169697 0.07445197 -0.1939586 -0.036160313 -0.03342828 -0.031799175
0.0736482 -0.1936166 0.09114016 -0.0861952 -0.19219214 -0.11283098 -0.10677373 0.1907104
0.181406 -0.023029013 -0.027168196 -0.0341321 -0.08692428 -0.053380996 -0.14736275 -0.03759986
0.19904566 -0.014274268 -0.22873823 0.013232505 0.06783287 -0.08880547 0.10815055 0.059085507
-0.17841572 -0.0810575 0.10289208 -0.1044174 -0.057935525 0.08145971 -0.07619297 0.24246512
-0.04609503 0.20698453 0.04579227 0.13589254 -0.062617294 0.16883594 0.2511511 0.031114772
-0.12074713 0.039081354 0.055612184 0.23312317 0.1688479 -0.15281591 -0.14461803 0.12801214
0.022716504 -0.04602612 -0.052131325 0.066670105 0.039250232 -0.11494418 -0.006360455 -0.09479166
0.05724472 0.1518878 0.22076382 -0.1251257 0.17992406 -0.025545737 0.022504184 -0.0031858284
-0.21495466 0.1306371 -0.12911431 0.12877059 -0.08918874 0.13149427 0.2035342 -0.14523242
-0.2594376 0.13849251 -0.1824749 0.1722171 -0.100999705 0.048986167 0.08763435 0.15745065
0.009272505 -0.1378934 0.018980833 0.08676744 -0.004162595 0.11968796 -0.10150793 -0.058150467
-0.15960182 0.19725607 -0.07264945 -0.089898065 0.008054692 0.07921497 -0.051621884 0.14472829
-0.009389814 0.19657509 -0.10368398 -0.09330491 0.10642417 0.19232364 -0.084669515 0.04855757
-0.064731486 -0.03038311 -0.18372147 0.1146914 0.09093161 -0.14210474 -0.10576046 0.04290264
0.017718554 0.06990177 0.061107364 -0.021143196 -0.15769577 0.09541742 0.02400674 -0.23223677
0.11260016 0.012990157 0.26214096 -0.077444404 0.06932551 -0.14996372 0.16681549 0.052256506
0.04471159 -0.079202704 0.09599018 0.035479 0.032722495 0.031675808 0.02342157 0.12966315
0.04195821 0.20719124 -0.24888222 0.057192545 0.017943379 -0.010702039 0.037226576 0.17806539
0.04065516 -0.10337882 -0.08302409 0.0734281 -0.16825433 0.09198668 -0.0133888805 -0.1457888
-0.15263616 0.12381497 0.009274913 -0.122881226 -0.03555964 -0.14675093 -0.045314223 -0.09484717
-0.04889652 0.083162904 -0.18288931 -0.11405687 -0.086597696 0.074065074 -0.07153499 0.031234639
0.043002453 0.13494188 -0.061767235 -0.023275774 -0.00027053643 -0.023062458 0.05011104 -0.0974332
-0.15931672 -0.20593736 0.1450833 -0.047872707 -0.083968475 0.19704683 -0.13782147 -0.22844686
-0.21092305 0.097739644 0.120701164 0.078016594 0.06864608 -0.16992094 0.052738354 0.047788825
-0.20090997 0.067567684 -0.23670419 -0.09918315 0.08866746 -0.062463086 -0.037324846 -0.001260033
-0.0096322335 -0.043244172 0.0646339 0.23246802 0.10256665 -0.08613585 -0.062293958 0.21945079
-0.16688888 -0.043834567 0.19469431 -0.061878294 -0.24408033 0.20566788 0.06969298 -0.14816523

network_aging.lstm.bias_ih_l0 f4 [128]
00000000: a281 b5bd abfe da39 6586 463e b284 60bd
00000010: 9e45 ea3d 9007 403d c50d 56bd eea4 043e
00000020: 5ae6 05bd adea 3a3e acc1 b2bd d56e 533e
00000030: 67fc f93d e2bf 233b db4a 3abd 5d02 36bc
00000040: 39f7 143e d2f4 b8bd 3225 22bd 564c 54bd
00000050: 6757 7fbd 936d 433d 2f7c 96bc 5fae a53c
00000060: 8092 073e f043 073e 3178 183d e392 433e
00000070: 09fe 9abd a292 3b3e 6c6f 2a3d 8a44 2e3e
00000080: d52e 83bd 8458 1a3d 6279 82bd 64fb 2e3d
00000090: f2bb 173d 3f42 9f3d aa8f 053e 4498 83bd
000000a0: 1c6b 333e 894c 24bd 6e82 0e3e 6171 073e
000000b0: f284 ecbd e143 573d ef5d 8dbd 64a0 f43c
000000c0: 6bf0 5a3e f814 033c 66e5 353d efa7 b93a
000000d0: 300f 25bd 7c94 1d3e 6b57 433e d473 373e
000000e0: 7d59 1e3e d7cd 66bd b72c 623e 6cbb 0f3e
000000f0: 149c 513e e923 c43d df6c 51bd 44b2 bf3d
00000100: 2fc8 05be 284a f13d 83f0 f33d 795d 32be
00000110: efc9 623e c18c 48be 2c02 473e d871 453e
00000120: 5c67 41be a018 2d3e 9f2e 44be 981d 273e
00000130: ea48 253e 9056 b93d f539 0a3d d877 28be
00000140: eef7 38bd 7dee 6d3e efe1 95bd 048d 593e
00000150: 620b 02be a9c3 893d 31e1 1ebd acfd 983d
00000160: 0fcb a3bd dbb1 a4bc 0422 463e 7d31 2d3e
00000170: 2e32 cebd b2fd 123c 1e0a 85ba d140 b13d
00000180: 8730 503e 748b e43d bd04 873e 78a3 2a3e
00000190: 8a4a 233e 642f 8e3d e186 cf3d 6564 4b3e
000001a0: 596b 663e 6239 3c3e 6329 4c3d dbc5 b13d
000001b0: cdc9 a93d 5d7d 773d 31bb 403e 96ff 47bc
000001c0: 7267 583e 4a33 ab3d cc6c e33a 3068 153e
000001d0: 6a29 ac3d 77eb 8d3e eff2 27bd 189a 323d
000001e0: 6ab8 f13c 831c 843e 50da 8c3d e653 033d
000001f0: a3ed 6b3d 8d11 953d 660c c93c 694e 763e
-0.08862616 0.00041769943 0.19387205 -0.054814048 0.1143906 0.046882212 -0.052259225 0.1295354
-0.032690383 0.18253584 -0.08728346 0.20647748 0.12206345 0.0024986197 -0.045481544 -0.011108962
0.14547433 -0.09031071 -0.039586253 -0.051830612 -0.062339213 0.04771192 -0.018369762 0.020224748
0.13239479 0.1320951 0.037224 0.19099002 -0.075679846 0.18317655 0.041610166 0.17018333
-0.06405417 0.03768207 -0.06370808 0.042720214 0.037044473 0.07776307 0.13043085 -0.06425527
0.17521328 -0.040112052 0.13916942 0.13226844 -0.11548795 0.05255497 -0.06902682 0.029861636
0.21380775 0.008000605 0.044408225 0.0014164428 -0.040297687 0.15388674 0.19076316 0.17915279
0.15463825 -0.056348648 0.2208737 0.1403634 0.20469695 0.09577162 -0.05112922 0.09360173
-0.13064645 0.11781722 0.11911108 -0.1741847 0.22147344 -0.19584943 0.19434422 0.19281709
-0.18887085 0.16903925 -0.1915841 0.16319883 0.16141096 0.090497136 0.03374668 -0.16451967
-0.04515832 0.23235507 -0.07318484 0.212452 -0.12699655 0.06726772 -0.038788978 0.07470259
-0.07997715 -0.02010434 0.19348913 0.1691341 -0.10068165 0.0089716185 -0.001015011 0.08654941
0.20331012 0.11159411 0.26370803 0.16663921 0.15946403 0.06942633 0.10133148 0.19862516
0.22501887 0.18381265 0.049844157 0.08680316 0.082904436 0.06042229 0.18821408 -0.0122069325
0.21133211 0.08359392 0.001735115 0.14590526 0.084063366 0.27718708 -0.041003164 0.043603987
0.02950688 0.25803003 0.06877577 0.032062434 0.057599675 0.07278738 0.024542045 0.24053349
