trained_model/mc1_mc2/60_days_lookahead/pnet_checkpoint/pnet_online_1700.pth (torch, 545278 bytes, 36 tensors)

network_smart.layer1.0.weight f4 [128, 330]
00000000: 5ffc 2d3d 7639 5d3d ae65 d13e 8083 edbd
00000010: f1d7 5340 ec6a 47be a39e 13c0 c03b e23c
00000020: 1ec1 ecbd f350 5140 7494 9f3f 4ab4 0dbd
00000030: 7a50 adba 4da8 be3e 068f b2bd 6e1f 5640
00000040: 2fae 58be db13 17c0 82c9 21bc 6df6 6ebe
00000050: 9455 5340 8762 983f 0d9c 35bd 6658 323d
00000060: dbad 0c3f c835 1bbe beb9 4c40 b198 30be
00000070: fb93 14c0 5612 8e3b cca2 3e3e 0583 4f40
00000080: 0876 a43f 10c6 813b 4389 353c 05f0 fe3e
00000090: 62e1 17be 5110 4e40 19f8 00be d4cc 18c0
000000a0: b8ee 173d 3706 52be 5932 4f40 d524 a23f
000000b0: f533 6f3b 2eb6 9e3d eaf9 cc3e 8ca8 34be
000000c0: 92de 4940 7202 82bd 113e 12c0 a28a 13bd
000000d0: 0e10 b63d 38d8 4c40 6193 a13f 7fb5 333d
000000e0: 16d4 5d3d b941 cd3e 1c38 25be 785c 5040
000000f0: bcc5 91bd af15 13c0 4944 ddbc 3976 88bd
00000100: b859 5040 bb97 9f3f 8505 3bbd c1b7 313d
00000110: 17c7 023f e284 85bd c983 4b40 69a0 0ebd
00000120: 61de 12c0 bc2f 1c3d 3e4e d83d 744e 4d40
00000130: e9ff a73f 8f16 13bd fe68 983d 2329 d43e
00000140: 4b93 87bd d46d 4d40 a3c8 93bd 3b11 11c0
00000150: 012c ba3d 34c8 d13e 0a8a 4d40 37c2 ad3f
00000160: 5830 fd3c 9cf1 c03c 14e8 903e 0b2a b2bd
00000170: 81b6 4b40 5695 26bd e38f 12c0 188f 323d
00000180: 9e80 00bf 6655 4f40 af8b a53f caa5 4d3c
00000190: 2b4e 093e 217b 733e e55d 14be cf6e 4d40
000001a0: 1b36 8ebc e984 10c0 a024 7bbc ffd0 e2bd
000001b0: 7a8f 5040 75c4 ae3f 48e8 4dbb 7980 5a3d
000001c0: 5cf2 a13e 288c aebd f577 4a40 30d2 9dbd
000001d0: aae2 11c0 b4a8 c73d 5d3b 143e e5d4 4940
000001e0: 9038 a93f 1565 753c 34bd 693d cfa9 4f3e
000001f0: 850d eabd 2ac4 4340 cc36 23bd 8a2c 14c0
00000200: 731e 973d 5db4 2b3e 09f1 4640 ec93 af3f
00000210: 4cb0 acbc 469e 9c3d 9db4 873d db8f 9cbd
00000220: 6857 4740 86f9 2abd 8f22 14c0 b800 973d
00000230: 0be9 babd 0db7 4940 b95d bc3f 67d2 a9bb
00000240: d719 ef3d 0465 2d3e 5682 c1bd c3e0 4e40
00000250: 2f17 613b e997 13c0 7906 e93d 3b7b f73d
00000260: b85b 5240 941e d73f 690e 4d3d 3632 153e
00000270: 9e96 053e 58ca d8bd 470e 5540 5fc9 da3b
00000280: c3c0 10c0 1a4f dd3d d518 8a3d e2dd 4f40
00000290: 7f12 d93f 20c4 02bd 3411 773d bf47 103e
000002a0: 2ef8 28be ad43 5740 b23d 72bd 904c 12c0
000002b0: 95c7 ce3d c165 0b3d 32ac 5640 d325 e73f
000002c0: 7a45 17bb a27e 023e aba9 053d a4d4 1ebe
000002d0: d901 5d40 1512 96bd f814 15c0 740e 133e
000002e0: 37f0 5ebb 7b03 5e40 e90d ef3f fa6c f8bc
000002f0: fef8 1e3e 5219 ccbc 9639 f0bd c1fd 8d40
00000300: b0a5 2cbb 42b1 14c0 64ad b53d 28fc 963e
00000310: 3aa2 8f40 3098 0840 6cf9 513c 29d6 073e
00000320: b79f eb3d 967f 22be b1a7 8f40 35ab 953b
00000330: cf58 16c0 5fc7 c33d 27a0 8ebd 6645 9240
00000340: e06f 1040 9d3a 163d 6291 f63d 8d55 2f3e
00000350: dae7 e0bc 784a 9140 65ec 16bd 8324 16c0
00000360: 868d ae3d 7785 3a3e 569c 8f40 df64 1540
00000370: f516 11bd dfa0 e83d 3b8d 043e 951e babd
00000380: 1d20 8240 11bc 73bd a9a5 16c0 cee0 d83d
00000390: bb34 a03d 836e 8440 afa9 2d40 b211 193d
000003a0: 38ca f93d 6826 a03d d7cb 4cbd a658 8540
000003b0: dda1 b2ba 8aca 16c0 0473 213e adac f23d
000003c0: f6df 8540 3704 4740 b831 f0bc 0a4d 5a3e
000003d0: 140f ae3d b3aa 8bbd 2cb5 8940 e1d8 9a39
000003e0: 3f95 15c0 88f8 053e 0321 3bbd 497f 8940
000003f0: 83dc 5040 61c5 983c 3a11 123e 3501 e33c
0.042477008 0.054009877 0.40897888 -0.11597347 3.310055 -0.19474381 -2.3065574 0.027616382
-0.11560272 3.2705657 1.2467179 -0.034595765 -0.0013222836 0.37237778 -0.08718686 3.3456683
-0.21160196 -2.360587 -0.009874703 -0.23336191 3.3020983 1.1905068 -0.044338275 0.043541335
0.5495278 -0.15157235 3.1988368 -0.17245747 -2.321532 0.004335682 0.1861679 3.2423718
1.284852 0.0039603785 0.011080089 0.49792495 -0.1483207 3.2197459 -0.12594642 -2.3875017
0.037092894 -0.20510183 3.237448 1.266749 0.0036499475 0.07749592 0.4003442 -0.1764242
3.1542096 -0.06348123 -2.2850382 -0.036020882 0.08889781 3.200697 1.2623101 0.04387426
0.05415734 0.40089205 -0.16134685 3.2556438 -0.07117793 -2.2981985 -0.0270101 -0.06663174
3.255476 1.246818 -0.04565956 0.043388132 0.51085037 -0.06519486 3.1799185 -0.034820948
-2.294823 0.03813146 0.105617985 3.2079134 1.3124973 -0.035910185 0.07441901 0.41437635
-0.06619891 3.2098284 -0.07216003 -2.2666767 0.09090424 0.40973055 3.2115502 1.3574895
0.030906841 0.023552708 0.28302062 -0.08699425 3.1830142 -0.04066976 -2.2900321 0.043593496
-0.50196254 3.2395873 1.2933253 0.012551734 0.13408725 0.23777439 -0.14488943 3.2098882
-0.017359784 -2.2581122 -0.015328556 -0.11075019 3.258757 1.3653704 -0.0031418968 0.053345177
0.31630218 -0.085228264 3.1635716 -0.07706106 -2.2794595 0.097489744 0.1447577 3.153619
1.3220387 0.014977713 0.057065204 0.2027962 -0.1142836 3.058848 -0.03984718 -2.3152184
0.073788546 0.16768022 3.1084616 1.3717017 -0.021080159 0.07647376 0.06626246 -0.07644626
3.1147099 -0.04174187 -2.3146093 0.07373184 -0.09126481 3.1517975 1.4716102 -0.0051825526
0.116748504 0.16933066 -0.09448688 3.2324684 0.0034346094 -2.3061469 0.11378188 0.12084051
3.286848 1.6806207 0.05006257 0.14569935 0.13045737 -0.10585469 3.3289964 0.0066768373
-2.2617652 0.10806103 0.067430176 3.2479177 1.695877 -0.03192532 0.06031914 0.14089869
-0.16500923 3.3635056 -0.05914087 -2.285923 0.10096661 0.034032587 3.35426 1.8058418
-0.0023082183 0.12743619 0.03263251 -0.15510803 3.4532378 -0.073276676 -2.3294048 0.14360982
-0.003401769 3.4689624 1.867612 -0.030325402 0.1552467 -0.024914417 -0.11729734 4.437226
-0.0026343875 -2.323319 0.08870962 0.29489255 4.488553 2.1342888 0.012815814 0.1326529
0.115050726 -0.15868983 4.48922 0.0045675286 -2.3491704 0.095595114 -0.069641404 4.5709715
2.2568283 0.03667699 0.12039448 0.17122479 -0.027454305 4.5403404 -0.036846537 -2.3459785
0.08523087 0.18214975 4.487834 2.3342817 -0.035422284 0.11358809 0.129445 -0.09087864
4.06642 -0.059505526 -2.353861 0.10589753 0.078225575 4.13849 2.7134817 0.03737039
0.12196773 0.078198254 -0.049999084 4.1670713 -0.0013628561 -2.356112 0.15766531 0.118493415
4.183589 3.1096323 -0.029320583 0.2131845 0.0849897 -0.06819668 4.3033657 0.00029534756
-2.3372343 0.13083088 -0.04568578 4.2967877 3.263459 0.018648805 0.14264384 0.027710536

network_smart.layer1.0.bias f4 [128]
00000000: f1b0 4bbd cb69 8fbd 98db d23d 76f7 eabd
00000010: 7cd1 f03d 3c36 8ebe 0975 823d eef1 383c
00000020: 5b93 a2bc 1dc2 b6bd 008c 923c ce59 88bd
00000030: 8401 a2bd 4009 63bd 4708 fabd c367 1abe
00000040: 92d8 95be 8430 02be 4765 443b 95f4 723e
00000050: 8137 92bc 162a 823d 3a9c e33d dde3 18bd
00000060: 4dce 2c3e ae53 b3be e94b 533e 1530 9cbd
00000070: b06d 13bc 915b 18bc c857 5d3d 8b8e ad3d
00000080: 865d c43d 6d14 3d3e c8c2 dfbd 43a8 263e
00000090: bed6 043e 5cf0 a6bd 89f0 343e eb99 47bc
000000a0: ebfe c3bc 3aa3 173d 0586 f93d 6778 21bc
000000b0: 5e41 97bc 4bf1 4b3e 55c1 d63c b95c bb3d
000000c0: 53f4 96bd 8d20 ef3d 2482 133e aa03 02ba
000000d0: 3b6c e43d 1c63 ea3d de15 17bd 5ebb 333e
000000e0: 7f2f 2cbd 402c 053b 8b53 96bc 7aea 563c
000000f0: c556 c7bd a443 933b 202f 36be e449 0a3d
00000100: 0884 10be 5898 de3d d872 183e a195 aabe
00000110: e4b0 9b3d da98 a1bc fe4d 083e eca9 f3bc
00000120: 87e2 133e 7a32 d63d 314f 1cbe fc94 1fbd
00000130: 0fc5 143e a027 3dbc 95a5 c23d a02d b7bb
00000140: 2e89 bd3d e160 28be 7551 093e 07e3 2e3d
00000150: cda9 1e3e e211 89be c1a4 3e3e 23cd e6bd
00000160: 5491 0e3e cf70 963d ff34 16bd b2a9 0c3d
00000170: e0c1 823d a38b 513d 3130 0d3e 5a30 f03d
00000180: ed62 df3d 7e37 cfbd 5fa6 ef3d 0bd2 18bd
00000190: af55 a5be bcfa fc3d 7064 67bd cc85 8e3b
000001a0: e733 ae3c 8f5b 9dbe 1a15 f93d c0bd dc3d
000001b0: eb76 89bc 52a4 9bbb 0d6d 013e cef6 913d
000001c0: 63f2 09bd ad31 c1bc 6b5f f23c 60db 5abc
000001d0: 3a98 3bbc ccb5 4ebd bb82 243e 2702 4d3b
000001e0: fd96 7c3d fc03 353b 7f7e b33d 651b aabe
000001f0: 7758 64bd a31b 2cbd 7d78 103e 5e99 073e
-0.04972929 -0.070026 0.102957904 -0.11472981 0.11758706 -0.27775753 0.06369979 0.011288149
-0.019845655 -0.08923743 0.017889023 -0.06657754 -0.07910445 -0.055428743 -0.1220861 -0.15078644
-0.29266793 -0.1271382 0.0029967593 0.23726113 -0.017848732 0.063556835 0.11113782 -0.037326682
0.16875573 -0.3502478 0.20634426 -0.076263584 -0.0089983195 -0.009299175 0.054038793 0.084744535
0.09588151 0.18464823 -0.109258235 0.16275124 0.12972543 -0.08151314 0.17669882 -0.012182693
-0.023925265 0.0370209 0.12183765 -0.009855366 -0.018463787 0.19916265 0.026215235 0.09148545
-0.0737082 0.116761304 0.14405113 -0.00049596524 0.11153456 0.11444685 -0.03688609 0.17551944
-0.042037483 0.0020320565 -0.018350383 0.013117427 -0.09733347 0.0044941474 -0.17791414 0.033761874
-0.14112866 0.10868901 0.1488756 -0.33317283 0.076020986 -0.019726206 0.13311002 -0.029744111
0.14441882 0.104588464 -0.15264584 -0.038960442 0.14528297 -0.011545092 0.095042385 -0.0055901557
0.092546806 -0.16443206 0.1340998 0.04269698 0.15494461 -0.26771456 0.18617536 -0.112695955
0.13922626 0.07345735 -0.036671635 0.03434152 0.06384635 0.05115856 0.13787915 0.11727972
0.109075405 -0.10118006 0.11701655 -0.037309688 -0.32291934 0.12352511 -0.05649227 0.004349446
0.021264983 -0.30733916 0.12162228 0.107783794 -0.016780337 -0.004749813 0.12639256 0.071271524
-0.033678424 -0.023583258 0.029586514 -0.013357967 -0.011449868 -0.050466344 0.16065495 0.00312818
0.06166743 0.0027620783 0.087643616 -0.33224025 -0.05574843 -0.042018544 0.14108463 0.13242099

network_smart.layer2.0.weight f4 [128, 128]
00000000: 1294 d33d 898d d53c ec5b d03b 1c22 48be
00000010: 58c2 b73d 5d38 83be d5dc b9bd 75bb 043d
00000020: fc34 0abc e7e0 f63d 6175 d83d 49e7 d9bc
00000030: 11d5 e8bc d0e2 aabd 16ca c5bd 75e9 e13e
00000040: 3227 3bbe cdb2 083d bda5 15bd c11f 583d
00000050: 8b94 563b 5030 803d 91e3 133e 688c a5bd
00000060: 9def 68bd cba3 58bc ec63 253e 7b6c 4d3d
00000070: 5d81 78bd 6741 4ebf 6042 b2be 0472 dcbd
00000080: 48c8 a63d 14ed 8f3d 5e3e 6c3d 4d9e f13d
00000090: 22d3 1e3e 081a 0cbf d220 533b 3865 2fbd
000000a0: b656 913c 6982 11bd 87a5 ccbd 6a72 32bd
000000b0: 4650 853d 3a4b 45bd ad61 1cbf a8d4 c2be
000000c0: 70f9 5fbe edbc 763e 4181 2cbd 6bc2 b83d
000000d0: 4324 2cbe 9b8c 1abe bb47 803d 2904 453e
000000e0: ac5a aabd e1ab 7fbe 9219 053e bebb 35bb
000000f0: f172 1d3c 4eaf 1ebe 9f4b d73e a433 9f3d
00000100: a857 05bd 4133 4dba 35d5 28bd b2f4 a8be
00000110: 7987 81be c2e4 96bd 9f61 8f3d c440 9c3d
00000120: c84b 1e3b c36b d13c 4156 023e 6f15 1fbd
00000130: 2607 813d ea3d 31bd bf6e eabc 93f0 503d
00000140: 4653 0cbe 393d c73d 6ea6 a7bb 4f7b 0f3c
00000150: 0f98 96bd c9e9 223e 1847 363e afe4 043e
00000160: d7d2 033e de8b c7bc 5a87 9bbc b1ee 8cbd
00000170: d8e4 8bbd 812f 033e 954c 2dbd 40ed a4bd
00000180: c917 4d3d f754 a23c 6cf6 ce3d cccc 10be
00000190: 6127 76bf b1a7 1b3d ee51 e0bc 720c 95bd
000001a0: e456 7e3d fab6 a83e 816f 8bbe 2e77 5cbd
000001b0: 8e22 bbbe 2fa5 a33c dfc9 74bd f6d5 3ebe
000001c0: cca8 90bd e312 9c3d ea4a b03d 8bdf 20bb
000001d0: a334 413d 3adf a03d c816 bd3d 4162 a93c
000001e0: 6599 5e3d f537 ba3d d265 58be c32d c83c
000001f0: 8422 823d 850b 35bc f38c 8e3d 15fe 7a3d
00000200: 4192 ce3c 29bd c43d 77a6 eabb 412a 82bf
00000210: 413f 0cbd 5d28 3ebe 3990 d7bd 7e46 54bc
00000220: ad8a aa3d b997 28ba 9c2b 293e da4c 90be
00000230: 62bf a5bd fcf6 59bd 685b 99bd e4a6 743e
00000240: 46d3 12be 01ea ba3d 4f4f 2dbe 2372 8b3d
00000250: fb95 ab3c d5cd 5fbe bdc1 8dbd c1bf 933d
00000260: 9027 92bd 1d50 f5bd 64f4 fe3d c00f 753c
00000270: 1a3c d63c 308e ffbd 803f 8cbe ddb8 993d
00000280: 02b1 0e3e 50ce de3d 19f1 0d3c 73ba cfbd
00000290: 24f4 3d3e ce0e fd3e e093 88bd 23aa 693d
000002a0: 781d 1b3c 30df a8be 64e9 03bd b467 ab3d
000002b0: 784f adbe f4da aebc 03e7 e8bd c58a 56be
000002c0: 6f00 12bd 5253 54be b1cd 083e 2bcc 5a3d
000002d0: 282e f4bc d523 25bd 5b15 12bd 253f 873d
000002e0: 42aa 82bc 4739 00be 9244 cd3d a8d5 14be
000002f0: e804 a83d fea6 4abe 3f61 de3e bb1c 063d
00000300: d23c 3e3e d07b 263d e299 8abd e77b dfbe
00000310: b329 0f3e 6a69 303d e2fd ae39 7e0d 20bd
00000320: 14d4 39bc d39d 4c3e 33f0 fdbc 5bec 60bd
00000330: 303b 2bbd 1768 a7bd 0328 273c 3a16 84bd
00000340: 881d dfbe 9fcc 233e 499c 0b3f 9815 d93c
00000350: c234 0ebe 9e29 39be c5da 683d 9c1f 043e
00000360: 9ff8 213e 2225 ebbe 1ed0 e0bb 6cab 7c3d
00000370: 0bf4 623d 03bf a63d e6af 9c3d fe34 0d3e
00000380: c4fb b03d ee6a 7bbd 6a28 50bd d5ff b13c
00000390: 98a0 ddbe cdc3 38be 9ab3 e8bc 5faf 7f3d
000003a0: 1ff4 3b3c d779 903e 5ded 073e 3164 d1bd
000003b0: 8dec debd 56bb 943d 6041 ad3c 8433 863d
000003c0: 6c0f 99bd 8c14 be3a 1878 5bbd 3a9a b5bc
000003d0: 1d5a 033d e542 893b 3557 7f3b de36 16bd
000003e0: 04c3 f03d f87f 613c b7c7 d6bd 4204 be3d
000003f0: d89b 2a3d 63cf b9bc 45bb c13d 3d48 b6be
0.103309765 0.026068466 0.006358614 -0.19544262 0.08972615 -0.2562894 -0.090753235 0.032405335
-0.008435484 0.120546155 0.10569263 -0.026599543 -0.02842191 -0.08344042 -0.096576855 0.44123426
-0.1827667 0.033373643 -0.036535013 0.052764658 0.0032742347 0.06259215 0.14442278 -0.08083421
-0.056869138 -0.013222645 0.16151398 0.050152283 -0.060670245 -0.80568546 -0.34816265 -0.10763934
0.08143669 0.07027641 0.057676665 0.117977716 0.15510228 -0.5472722 0.0032215607 -0.04282114
0.017741542 -0.03552476 -0.09992509 -0.043566145 0.065094516 -0.048167445 -0.6108654 -0.3805287
-0.21872497 0.24095507 -0.042115454 0.09021457 -0.16810708 -0.15092699 0.062636815 0.19239868
-0.083180755 -0.2496791 0.12998036 -0.0027730311 0.009609924 -0.15496561 0.42049882 0.077735215
-0.0325543 -0.0007827767 -0.041218955 -0.32999188 -0.2529867 -0.07367851 0.070010416 0.076295406
0.0024154056 0.02556408 0.12728216 -0.0388388 0.063001916 -0.043271936 -0.028617261 0.05101068
-0.13703641 0.09728474 -0.0051162755 0.008757426 -0.073532216 0.15909494 0.17800558 0.12977861
0.12873398 -0.024358686 -0.01898544 -0.06881464 -0.06830758 0.1281109 -0.042309362 -0.08053064
0.05007151 0.019815905 0.10105595 -0.14140624 -0.9615384 0.03800172 -0.027382817 -0.072777644
0.062094584 0.329521 -0.27233508 -0.053824596 -0.365498 0.019976227 -0.05976283 -0.18636307
-0.070634454 0.0762079 0.08608039 -0.0024547304 0.04716934 0.07855077 0.09232861 0.020676734
0.054345507 0.09092704 -0.21132591 0.024435883 0.063542396 -0.01105011 0.06960478 0.061277468
0.025216224 0.09606392 -0.0071609574 -1.0169145 -0.03424001 -0.18570085 -0.10525555 -0.01295626
0.083272316 -0.00064313 0.16520542 -0.28183633 -0.08093144 -0.05321406 -0.074881375 0.23891789
-0.14338407 0.09126664 -0.16924785 0.06808879 0.02094554 -0.21855862 -0.06921718 0.072143085
-0.07136452 -0.11978171 0.124489576 0.014957368 0.026151706 -0.12478292 -0.27392197 0.07505963
0.1393471 0.10879195 0.008663439 -0.10142984 0.18550164 0.49425358 -0.0666883 0.05704702
0.009467475 -0.3298278 -0.032205 0.08369389 -0.33849692 -0.02134464 -0.11372187 -0.20951374
-0.035644945 -0.20734909 0.13359715 0.053417366 -0.029807165 -0.040317375 -0.035664897 0.06603841
-0.015950326 -0.1252185 0.100228444 -0.14534628 0.08204061 -0.19790265 0.43433568 0.032742243
0.18577889 0.04064542 -0.06767632 -0.43649217 0.1398075 0.04306928 0.00033377024 -0.039075367
-0.011342067 0.1998208 -0.030998325 -0.054912906 -0.041804492 -0.081741504 0.010202411 -0.06449552
-0.43577218 0.15996026 0.5453535 0.026499555 -0.13887313 -0.18082282 0.05684926 0.12902683
0.15817498 -0.45926768 -0.006860747 0.06168692 0.05540852 0.08141901 0.076507375 0.13789746
0.086417705 -0.061381273 -0.05081979 0.021728436 -0.43286586 -0.18043442 -0.028405953 0.062423106
0.011471777 0.28217956 0.1327414 -0.10224188 -0.10884962 0.07262294 0.021149337 0.065527946
-0.074736446 0.0014501973 -0.053581327 -0.022168268 0.03206836 0.0041888827 0.0038961892 -0.03667342
0.11755946 0.01376342 -0.10487311 0.09278156 0.04165253 -0.022681898 0.09459547 -0.35601988

network_smart.layer2.0.bias f4 [128]
00000000: b8b2 403d cfcb 073d 6ca3 1ebc 1b1e a33d
00000010: 6122 dc3d d973 813d ea6e 903b 9c72 a83d
00000020: b2d7 72be e817 d53d ac16 253c 4838 b0bd
00000030: c563 223d 0279 dfbd 57bd 1f3d c183 54bc
00000040: 724d 81be b104 aa3c 70d2 95bb 6eeb 22be
00000050: 2421 7abd 2962 b5bc 1a40 093c 8cee 7fbe
00000060: 5c35 933d eae8 693d b027 fd3c 26d1 493d
00000070: 693c 9dbb 950e bfbc f6b2 9f3c faa0 053c
00000080: 0a6d 013e 9c60 3dbc 3267 043d 6e14 91bd
00000090: a346 2ebd 9696 c9bd f7eb 0ebe 5eab b0bd
000000a0: 360e 133d d09c a7bc e9f6 deb9 a805 c1bd
000000b0: f8c1 17be b665 10bc 13a2 81bd 1db9 8c3d
000000c0: caf8 febc d150 9f3d cb6c 4cbc b6dc da3a
000000d0: e8fe 223d ee82 063d 8204 f9bc 345c 843d
000000e0: c852 afbc da28 8d3d c124 90bd a8d0 99bd
000000f0: af37 423d 6067 e23d 3190 573c 8364 2fbc
00000100: a371 c43d 3e2a 473d 7ea3 42be 2186 3c3d
00000110: 95cc 6bbd 82d6 53bc fb06 933d a4ee 80bd
00000120: 6ebc 2abe 3eff 75be 99ce 41bd 12a7 4d3d
00000130: a8fb ee3d 257b 33bd 6c39 c7bd 2f0a 753d
00000140: 830e 62bd 4b85 cbbd 9c05 4a3d 275c 013d
00000150: 9812 09be 6357 2d3c ab62 a2bd 3998 ca3c
00000160: 8cdf afbd 447e 0abe b69f 0fbe 5708 93bd
00000170: 07e5 fb3c e853 8abc 5a0c 963d cd77 b8bd
00000180: f68a c03d 0139 1b3e d418 36bb 6eac 92bd
00000190: 6d55 023d 7ce0 b2bd c60f b6bb a8c9 c83d
000001a0: 4685 fab9 cc92 9e3d e3d4 13bd 160e 78be
000001b0: 1f32 413d 71f2 cd3d 9460 613d 2706 23bc
000001c0: 77d5 953d 0e24 26bd 9b9b 93bd 8d26 18be
000001d0: 3f0f 93bd 2398 40bd 3c7b b53d b2f9 6ebe
000001e0: 819f babd 9310 9e3d 1be6 a3bd c7de b2bb
000001f0: 1c05 4c3d b319 9fbc 2e30 883c e979 2abc
0.04704544 0.03315335 -0.0096825175 0.079647265 0.10748745 0.06320924 0.0044077532 0.08224985
-0.23715094 0.104049504 0.010076206 -0.08604485 0.03964593 -0.10911752 0.038998928 -0.012970866
-0.252544 0.02075419 -0.0045722052 -0.15910122 -0.06106676 -0.022141533 0.008377099 -0.24993342
0.07187912 0.05710689 0.030902714 0.049271725 -0.004798461 -0.023322383 0.019494515 0.008156056
0.12639251 -0.011558678 0.032324977 -0.07083975 -0.042547833 -0.09843175 -0.13957201 -0.08626436
0.035902224 -0.020460516 -0.00042527102 -0.09424907 -0.14820087 -0.008813312 -0.06329741 0.06871245
-0.031124491 0.077790864 -0.01247711 0.0016697857 0.03979388 0.032839708 -0.030397657 0.06462899
-0.021401778 0.068925574 -0.0703826 -0.07510501 0.047416385 0.110548735 0.0131569365 -0.010705116
0.09591987 0.04862427 -0.1900768 0.046026353 -0.05756815 -0.012929561 0.07179066 -0.06295517
-0.16673443 -0.24023148 -0.047316168 0.05020816 0.11669093 -0.04381861 -0.09727749 0.059824165
-0.05518962 -0.09937533 0.049321756 0.031582024 -0.13385999 0.010579917 -0.07928976 0.024730789
-0.0858756 -0.13524729 -0.14025769 -0.07179325 0.030748857 -0.016885713 0.073265746 -0.09007225
0.09401505 0.15158464 -0.0027785795 -0.071617946 0.03181975 -0.08734223 -0.0055560796 0.09804088
-0.00047783012 0.07742843 -0.036091696 -0.24224123 0.04716694 0.10056008 0.055023745 -0.009950197
0.07316106 -0.04056173 -0.07207414 -0.14858456 -0.07180642 -0.04702009 0.08861396 -0.23337439
-0.09112454 0.07718005 -0.080028735 -0.005458686 0.04980956 -0.019421434 0.016624536 -0.010405042

network_smart.layer3.0.weight f4 [48, 128]
00000000: bc4c 103e a9a9 c63d 6e9b 1fbe e3e8 12bd
00000010: 40dc 2ebd cf1b 853e ad43 9abe 5ecf 0abe
00000020: d424 8e3d f8c5 86be e039 8d3e 117b debb
00000030: 5d7b 83bc 40c9 4a3e 4b12 72bd 872d 4c3e
00000040: 1a7c 19bf 2c55 af3b 1abe d6bd 824e dc3d
00000050: 5d01 5bbd 0e5c 4a3b 95d0 403b 213f 9fbd
00000060: 171f 863c 01c9 8dbe a02d 80bb 619d 93be
00000070: 09f0 66be 6f18 54be 4f9b 613c d3c2 e33d
00000080: e7d4 82bc 8384 13bf 7cb2 d93d 6475 e1bd
00000090: 6495 c3bd ceaa f5bd 2e3a abbd 5038 b5bf
000000a0: 3246 983c 9cac 483c 15c2 5abd 1768 603b
000000b0: 817f 4c3e 1acf 30be 53e8 0cbf 19aa 223d
000000c0: fd4a d5bd fa7f 1f3e bf12 593e 5001 e73d
000000d0: d165 e0bc b86f fe3d 7915 4a3e 6aba 1e3e
000000e0: 271d e13c 0dde 58be cf7e d7ba 723c 853e
000000f0: cb33 97be 795b d43c 2e16 433e d13a 533d
00000100: d07a d13d 574c 8d3c a6ad 893d bd4c 56be
00000110: 04c0 69be f4c8 fa3c 8284 863c dc8e 013e
00000120: 383a 0cbf 8660 eebf 736c d4bb 0558 503b
00000130: 277d 603d 5951 dd3c 2355 abbd cba4 62bd
00000140: adaa 1ebd 0380 b53d cb04 043d bf8b 993e
00000150: 9c01 b9be 3b66 8d3d e0fc 793f 25bf 043e
00000160: d8d4 233d 9f1c a0be 39d2 223f e13c a1bd
00000170: c5c4 6cbd 9d4e 8d3d 7788 183d bf36 3f3c
00000180: ca96 c2bb cbd8 793b 9e1b 89bf 32b8 8d3d
00000190: d8e5 18bd 4045 62bd b220 ab3d ecba edbe
000001a0: 9b29 ca3d 5f0f 07be e18f 71be 0098 41c0
000001b0: 696d b33d 0094 08bd c499 3fbe 97c5 79be
000001c0: 6c64 8ebc 36e9 01be 67ea 72bc 500f 33bf
000001d0: 1c89 84be 2986 5e3d 10a7 68be 7ae2 043e
000001e0: 80cc 183d 3b80 0abe 7352 123c ca2f 8cbe
000001f0: af7b 013e fcc1 523d 381b 8dbc d121 36bf
00000200: f748 00bf 4161 e7be c16d 523c abce ab3d
00000210: 8c7c e5be 0b03 fb3d 821e ed3e 5546 25bf
00000220: c4c0 2dbf 025c 6c3e 3e39 70bf c6bf 1ebf
00000230: e5ba a8be d096 ab3e 9d47 713d 1518 183d
00000240: 6f89 b83d 0c8d 0fbc 54f7 083e 8449 843d
00000250: 93da e0bd 4ae6 af3d f803 9dbe d7d7 cebc
00000260: 8be5 943c 0536 1ac0 b773 e3be 588a bd3d
00000270: 27cc 593f 8ffa 513e f83d 2d3e 9076 e83d
00000280: 9cda fcbd f607 54be 3d85 f4bd a171 febe
00000290: 2a4f fd3d 43b9 c4be cccb 0ebe 184d 6f3f
000002a0: cf71 553c 7f6d 8d3d cb9c f13d 090b b23e
000002b0: b7e0 70be 291e aebf 590e 65bd cd25 f9ba
000002c0: 2df1 083d 71e7 043e db59 79be 881f 5c3e
000002d0: cc92 0b3e 8f74 14be 2f39 6b3c 7f46 093a
000002e0: 6605 503e 5997 6ec0 34b6 54bc 04c5 0a3f
000002f0: 986a d93c bbbf 163e b680 013f 7213 343e
00000300: c6c1 6b3d e959 e7bd 0376 9f3f 9e37 91bd
00000310: f108 993e d53d 85bd 1ba9 843e 9ae2 48be
00000320: b112 4c3c 2154 e23d 04c0 883d c67a 6abc
00000330: 409d e8bd ef1e 0bbd 0a21 fdbc 282c 4dbe
00000340: baf1 55bd 199e 30be 154a 2dbe 244a d23e
00000350: 3294 2c3e c1d9 413e ba3e 07bf d509 80be
00000360: ce8d 50bd b0a7 ad3d 79d9 793f 0823 893d
00000370: c4bf 01be e358 63bd de32 5fbe 668d 39bd
00000380: 10a4 e03d eadd f93d 3931 12c0 f75e 6bbd
00000390: 6b17 053d 3437 8dbd 0101 643e 0fee 933e
000003a0: 4ebf 7a3d 8da5 fabd e650 073e dbcd 4dbe
000003b0: 2903 063e 9ad5 48bf b106 a2bd be01 073d
000003c0: e6b4 4a3e bdb3 39bf c377 10bd 1c8f 83bd
000003d0: 24c3 5dbc 3a12 c6bd 56a4 d3bd ef8d afbc
000003e0: d5b8 02bd b9ff b1bf cd4d 90bc 4bcb 5a3d
000003f0: b1ca 723e 6556 d7bd c5c1 b4bd 0a14 c13e
0.14091772 0.09700329 -0.15586635 -0.03586663 -0.042690516 0.2599778 -0.30129758 -0.13555667
0.06940618 -0.26322913 0.27583218 -0.006789573 -0.016050035 0.19803333 -0.059099477 0.19939242
-0.5995499 0.0053507295 -0.10485478 0.10757162 -0.053468097 0.0030877623 0.00294212 -0.07775713
0.016372247 -0.27692416 -0.003911689 -0.28831008 -0.22552504 -0.20712446 0.013769939 0.11121144
-0.01597066 -0.5762407 0.10629746 -0.110087186 -0.095499784 -0.11995469 -0.08360706 -1.415781
0.01858816 0.0122481845 -0.053407747 0.003424173 0.19970514 -0.17266503 -0.55042 0.039713
-0.104146935 0.15576163 0.21198557 0.11279547 -0.0273923 0.124236524 0.19734754 0.15500799
0.027479721 -0.21178456 -0.001644099 0.2602268 -0.29531702 0.025922524 0.1905143 0.051569764
0.10228503 0.017248316 0.06722574 -0.20927711 -0.22827154 0.0306134 0.016420607 0.12652153
-0.54776335 -1.8623207 -0.0064826547 0.0031790745 0.054806855 0.027016329 -0.08365848 -0.05533294
-0.038736988 0.08862307 0.032231133 0.2998943 -0.3613404 0.069042645 0.9765148 0.12963541
0.039997905 -0.31271836 0.63602024 -0.0787294 -0.05780484 0.0689976 0.037239518 0.011670767
-0.0059383856 0.0038123603 -1.0711553 0.06919898 -0.03732857 -0.055241823 0.083558455 -0.46431673
0.09871217 -0.13189457 -0.23590042 -3.0249023 0.08761103 -0.03334427 -0.18711 -0.24391781
-0.01738187 -0.12686619 -0.014826394 -0.6994524 -0.25885856 0.054327164 -0.2271998 0.12977019
0.0373044 -0.13525479 0.00893079 -0.2738021 0.12644838 0.05145453 -0.017224893 -0.7114535
-0.50111336 -0.45191386 0.01284355 0.08389028 -0.44821584 0.1225644 0.46312338 -0.64560443
-0.6787226 0.23081973 -0.93837345 -0.62011373 -0.3295509 0.33513498 0.058906186 0.03713234
0.090105884 -0.008761656 0.13375598 0.064593345 -0.1097919 0.08588846 -0.3066709 -0.025249405
0.01817586 -2.409547 -0.4442422 0.092549026 0.85077137 0.20505737 0.1691817 0.11350739
-0.12346384 -0.20706162 -0.11939476 -0.49696067 0.12368615 -0.38422593 -0.1394493 0.9347701
0.013027622 0.0690565 0.11797484 0.34774044 -0.23523222 -1.3602954 -0.055921886 -0.0019008458
0.03343313 0.12978913 -0.24350683 0.21496403 0.13630217 -0.14497589 0.014356895 0.000523664
0.2031456 -3.7279875 -0.012982894 0.5420687 0.026540086 0.14721577 0.5058702 0.17585543
0.057557844 -0.11296446 1.2457889 -0.07090686 0.29889634 -0.06505934 0.25910267 -0.19617692
0.012455628 0.110512026 0.06677249 -0.014311498 -0.11358118 -0.033965047 -0.030899543 -0.20036376
-0.05223248 -0.1724781 -0.16922791 0.4107219 0.16853407 0.18930723 -0.5283009 -0.250075
-0.050916485 0.084792495 0.9759746 0.06696135 -0.12670809 -0.05550469 -0.21796748 -0.045300864
0.109687924 0.1220053 -2.2842543 -0.057463612 0.032493036 -0.06895295 0.22266008 0.28892562
0.0612176 -0.122386076 0.13214454 -0.20098059 0.13087143 -0.7845093 -0.079114325 0.032960646
0.1979557 -0.72539884 -0.035270464 -0.0642378 -0.013535295 -0.09671445 -0.10334079 -0.021429984
-0.03191455 -1.3906165 -0.017615223 0.05341653 0.23710133 -0.10514525 -0.08826021 0.377106

network_smart.layer3.0.bias f4 [48]
00000000: af24 a33d 868e ba3c 1ea8 0fbd 7b9b b93d
00000010: d1ff a43c a8f8 d2bd d9ac a9bd 36ed a2bc
00000020: 83d3 30be eae1 b33d 70dc 993d 8dad 70bd
00000030: d50f 0fbd b0bb 96bd 8cfd 95bd 5751 6cbd
00000040: 62ad a2bd 6051 043d 9b38 453d a7c4 593d
00000050: 13f3 ed3d f409 ea3c 20e8 2bbd f89c ab3d
00000060: 6cff ab3d e362 33bc 4924 273c 6389 abbc
00000070: 3d61 6abd c673 843c 835c bd3d b477 c73c
00000080: efeb f2bd 5c15 afbd f39d a5bd 2846 96bd
00000090: b6e5 98bd 60a3 073e fb2c 753d 4352 a73d
000000a0: fa3e 013e 8775 07be ed8e 97bd f880 04be
000000b0: 6528 773d ba6c 623d 40f8 953d 2ab4 29bd
0.07965981 0.022773039 -0.03507244 0.09062859 0.020141514 -0.10301334 -0.08284921 -0.019888502
-0.17268185 0.08783324 0.07512748 -0.05875926 -0.034927208 -0.07360017 -0.07323751 -0.05769476
-0.079432264 0.032304168 0.048149686 0.053166058 0.11618628 0.0285692 -0.04196942 0.08379549
0.08398327 -0.010948869 0.010201522 -0.020939535 -0.05722164 0.016168486 0.09246161 0.024349071
-0.11861407 -0.08548996 -0.08086767 -0.073376 -0.07465689 0.13245916 0.05985735 0.08169987
0.1262168 -0.13228427 -0.07400308 -0.12939823 0.060341258 0.05527947 0.073227406 -0.041431583

fc_smart.weight f4 [64, 48]
00000000: 61e0 863d 956d aa3f 0128 653f f7d0 84bd
00000010: 4189 923e e7a0 263e 6783 10bd 31ff 12be
00000020: 48b0 8fbd 6ff8 9e3e ae8d 173e 3ef5 283d
00000030: 4ed3 183e c7a4 1e3e 92a1 24be ee8f 5c3d
00000040: 203f 12bf 62d9 c33d a695 63bd 51cb f63e
00000050: 5331 78bd 647f 523f 4791 1dbe ee59 213e
00000060: 4a08 a53e 4c14 263e c83b a43e 84cf b13d
00000070: 416e 963e ecff 773b 4123 93be dc61 3f3d
00000080: 4ca7 833f 7028 c9be 7012 25be ab79 b23d
00000090: 9466 c23e e260 f93e 80f8 c3bd 79f9 cfbe
000000a0: 3e7c 23be 6791 0cbf 87ba 9b3e ed6b c63c
000000b0: e3ee 1bbd 161a a83e f840 d13d 0c93 083d
000000c0: cc9a ebbe 447f 353e e345 763e 0c90 233f
000000d0: a3a2 473f d60f 32be e8ad 813d a71f 12bd
000000e0: b82c 3fbe 6d51 8abe 52b0 453f 76de dc3c
000000f0: b2ad c3be 62f2 d23e 717b 1c3f 5858 843e
00000100: ecd0 3cbf c90c 743d e761 ffbb 7b55 8c3f
00000110: f93e 44be 4f01 963f cac6 d2be 346c 53bd
00000120: dbe9 1f3f f3b0 803e fef5 013f 9639 823e
00000130: 7bc1 e4bf aa2b 76bd 7766 ffbe b5b1 40bf
00000140: c73b 1a3f 6a4b b8be 5324 913e 505e 273c
00000150: 7e21 6bbf 89f4 0b3f e3b7 c6bd e1ac aa3d
00000160: 0433 41be 4fb1 4bbe dc97 d83e 00a9 353d
00000170: 2d6a 57be ac56 d53e c658 eabc 1b6e ffbd
00000180: 06b7 7ebd 0662 963f c3b3 5d3f f069 1e3d
00000190: 25b4 193e 2f02 d23c 472d 00be cec2 47bc
000001a0: 5542 cbbd 9dd3 8e3e 46bb 743e 089e f6bd
000001b0: e8f6 ce3d aae0 583e 12eb ecbd d7eb c33d
000001c0: c48f 22bf 2480 ae3b 480c ad3d 8fbb 153f
000001d0: 6e61 80bd 488b 5a3f a7f1 1bbe 31a5 0e3e
000001e0: 10c6 c23e e42a 2b3e 795e a93e 4f72 c53d
000001f0: 4ee9 85bd 359a 973d 4fbe adbe 547d 2dbd
00000200: f370 853f 9177 e2be b704 69be 3907 79bd
00000210: 6da8 963e e0ac 023f b4c9 83bd f956 bcbe
00000220: 6469 30be 4888 21bf 8fd4 b13e ee79 c63c
00000230: c043 82bd 1db0 c13e 6d96 d63d 004d febd
00000240: bbb6 ca3e 3b87 73bd 8b82 c5be 211d 05bf
00000250: 7337 c3be 4918 c63d d686 d7bd d268 4ebe
00000260: 2340 e43d 6826 7c3b c5bd 16bf c80c c2bd
00000270: 1483 f13d 247e 88be 4071 a1be 43b9 1ebe
00000280: 9d67 423f f479 d2bd 90f4 41bd 4102 66bf
00000290: e3a7 453d b465 69bf e481 803e f761 083e
000002a0: 9c6e 05bf 6ee4 12be b91b ccbe 5634 27be
000002b0: 690a cb3f 8176 a7bc 2b38 e73e 62a5 0c3f
000002c0: 8ef0 58bf 7e4f c63e a80b 99bd b6f2 6a3c
000002d0: aaa9 253f 0cb3 e7be aea2 383d a791 8d3d
000002e0: f827 843e b868 003f 1f20 b6be 3c3b 36be
000002f0: d1e2 9c3d 86fa ddbe ff61 9fbd 1a44 963d
00000300: c2c3 e53e b699 c8bc a302 21bd e408 29bf
00000310: e399 74bf a4cf d2bd 5883 f53d 016e 0a3e
00000320: e26b 283e 80c7 ca3e 411a 4dbf a02a 52bd
00000330: 94b7 ff3e 0d9d d3be d1d5 38bf 291b 67be
00000340: 4e36 2e3f 819a d3bb 5907 013a 22c4 88bf
00000350: 0540 783e 6fda 8bbf 0eeb f23e 59da c03d
00000360: a50d 11bf de13 84be da05 02bf 4e43 89be
00000370: 92be fa3f 844b ef3c ccfa ef3e 1a8a 553f
00000380: 963e 91be 59f8 893e 1a80 e3be 496f 0dbe
00000390: 2c18 803f 7ec8 ebbe e02d 733c 6df5 5abe
000003a0: 8900 e53d 244d 94bd 2eb0 cfbe 4ea5 9ebd
000003b0: 1db3 8c3e b48d aebe 884a ff3d 4a0a f2bd
000003c0: fd70 77bc 83ee a7bf 0daa 7cbf 20ab 2a3d
000003d0: c3ca 8ebe e24c e33c 6afb ba3d 091d 863d
000003e0: e48f d33d f391 a5be ac5e 34be 6bcf 9dbc
000003f0: 4def 20be 7fd1 39be d235 433e 70cc debd
0.06585766 1.3314692 0.89514166 -0.064851694 0.2862034 0.16272317 -0.035281565 -0.1435516
-0.07016045 0.31048915 0.1480014 0.041249506 0.14924356 0.15492545 -0.16077259 0.0538482
-0.5712757 0.09562947 -0.055562638 0.48201993 -0.060593914 0.8222563 -0.1538745 0.15756962
0.32232887 0.1621868 0.3207686 0.086821586 0.29380992 0.003784175 -0.28737834 0.046724185
1.028543 -0.39288664 -0.16120315 0.087146126 0.37968886 0.48706728 -0.09568882 -0.4062002
-0.15965363 -0.54909366 0.30415747 0.024221385 -0.038069617 0.32832402 0.1021747 0.03334336
-0.46016538 0.17724329 0.24050097 0.63891673 0.7798254 -0.17388853 0.06331998 -0.035674717
-0.18669403 -0.27015248 0.7722217 0.026961546 -0.38218457 0.41200548 0.61125857 0.2584865
-0.7375629 0.059582505 -0.0077936533 1.0963587 -0.19164647 1.1719149 -0.4116729 -0.051616862
0.6246621 0.25135002 0.5076598 0.2543456 -1.7871546 -0.060100235 -0.49882862 -0.7527116
0.60247463 -0.35995036 0.28348026 0.010215357 -0.9184798 0.54670006 -0.09703042 0.08333755
-0.18867117 -0.19891857 0.4230336 0.044350624 -0.21036597 0.41667688 -0.028606784 -0.12472173
-0.062186264 1.1748664 0.8660242 0.03867525 0.15010126 0.025635807 -0.12517272 -0.012192441
-0.09924761 0.27895823 0.23899564 -0.12041861 0.101056874 0.21179453 -0.115682736 0.09566467
-0.6350062 0.005325334 0.08449608 0.58489317 -0.06268583 0.85368776 -0.15228902 0.13930203
0.38041735 0.1671558 0.3307989 0.09640943 -0.0653864 0.074024595 -0.33934256 -0.04235585
1.0425094 -0.44231847 -0.22755705 -0.060797904 0.29425374 0.51045036 -0.06434956 -0.36785105
-0.17227703 -0.63098574 0.34732482 0.024228062 -0.063605785 0.37829676 0.1047791 -0.1241703
0.39592537 -0.059455138 -0.3857616 -0.5199757 -0.38128242 0.09672601 -0.10523765 -0.20157173
0.111450456 0.003847504 -0.58883315 -0.09475094 0.11792579 -0.26658738 -0.31531715 -0.15500359
0.7593935 -0.10277167 -0.047352374 -0.8984719 0.048255812 -0.9117081 0.250991 0.1331862
-0.521219 -0.14344952 -0.398649 -0.16328558 1.5862552 -0.02044225 0.4516004 0.54939854
-0.8474206 0.38732523 -0.074729264 0.014340093 0.6471201 -0.4525379 0.04507702 0.069125466
0.25811744 0.5015979 -0.3557138 -0.17796034 0.07660449 -0.43355197 -0.07782363 0.07337208
0.44875914 -0.024487358 -0.039309155 -0.6602919 -0.9554731 -0.102935106 0.119879425 0.13518526
0.16447404 0.3960533 -0.80118185 -0.05131018 0.49944746 -0.41330758 -0.7220126 -0.22568955
0.6805161 -0.0064576273 0.00049220544 -1.0684855 0.24243172 -1.0926036 0.47444957 0.094166465
-0.56661445 -0.25796407 -0.5079018 -0.26809162 1.9589407 0.029210813 0.4687103 0.8341385
-0.28368062 0.26947287 -0.4443367 -0.13811983 1.0007377 -0.460514 0.01484248 -0.21382685
0.11181743 -0.07241276 -0.40564102 -0.07746373 0.27480403 -0.34092486 0.124653876 -0.11818369
-0.015102622 -1.3119663 -0.98696977 0.041667104 -0.2788907 0.027746622 0.09129985 0.06548507
0.10330179 -0.32337913 -0.1761424 -0.019263944 -0.15716286 -0.18146323 0.190635 -0.10878837

fc_smart.bias f4 [64]
00000000: dd83 adba f791 26bd b64c 563d bd65 ffbc
00000010: 3e75 633d 8d15 9f3c 93dc ad3d a8db 53bc
00000020: d233 8fbb 0e8c 7cbd 40b7 463c 0b61 7cbd
00000030: 88f7 7abc 7680 34bd 3459 2abb c426 57bd
00000040: ea0e 7dbd c6e7 fe3d 6312 fabd db36 953c
00000050: a8c5 a83d 8e5b 2bbc a03b 993d d034 7a3c
00000060: 31a5 303d 0fed 81bc d6bd ff3b baff 96bc
00000070: e4dd 18bd da37 81bd e90b aebd fd8b a9bc
00000080: abee 27bd e603 ccbd 0a03 2a3d 3f6d 3a3d
00000090: 773b dbbc 402a aabd c068 45bd a859 bd3d
000000a0: dc18 8bbd c111 a6bc 119d d3bc ffd2 303d
000000b0: 89c3 fd3d 67ca 1ebc 6f38 293d 70b3 e7bc
000000c0: 32d1 683b 08cf 35bd a700 b43c e4a6 833d
000000d0: d343 333b dc27 a13d efe8 913d ba42 71bd
000000e0: 1b05 723d e021 5b3d 185e 2ebd 5e79 aabd
000000f0: cfa8 e0bd ed00 a4bd de7c f0bc d256 8f3c
-0.0013238151 -0.040666547 0.05231925 -0.031176442 0.055531733 0.019419456 0.08489337 -0.012930788
-0.004370191 -0.061657004 0.012128651 -0.061615985 -0.015317805 -0.044067822 -0.002599311 -0.052527204
-0.0617818 0.12446551 -0.12210538 0.018214634 0.08240825 -0.01045884 0.07482076 0.015271381
0.04312629 -0.015860109 0.0078046126 -0.018432487 -0.037320986 -0.06309481 -0.084983654 -0.020696634
-0.040999096 -0.09961681 0.041506805 0.04551434 -0.026761753 -0.0830884 -0.0481956 0.09245616
-0.06791851 -0.020272138 -0.025831731 0.04316997 0.12390811 -0.009691811 0.041313585 -0.028283805
0.003552508 -0.044386894 0.021972967 0.06428316 0.0027353659 0.07868931 0.07124507 -0.058901526
0.0590869 0.053499103 -0.042570204 -0.0832393 -0.10969698 -0.08007989 -0.029356416 0.017497454

network_aging.lstm.weight_ih_l0 f4 [128, 5]
00000000: 305b 1fbd a844 01be 7eec 2b3e d3b3 043e
00000010: 0daf fe3d 7ffb 5a3e 1aeb 193d fe73 d9bd
00000020: 1cf5 163d 7f06 c5bd 5d34 423e 73cb 473d
00000030: 1316 84bd 7576 df3c 54e0 fcbd f70c a1bd
00000040: dd5f 263e 64d2 063e dbf4 e23d 8c6c 853c
00000050: 9b4f 883d e7d0 383e 25e0 8e3d b1e6 313e
00000060: 1eba 5abd 25b1 663d d26e d1bc 6949 703b
00000070: dcc8 083e 5d6d 3e3e 466b 373d 1ec5 b7bd
00000080: 0391 1fbd 17a6 26bd 758b 333e 90dc 253e
00000090: eefc 233e 66ba eebb 7121 fabd 4031 ad3d
000000a0: cd98 8dbd 1001 f63d 50d8 41bd 46e8 803d
000000b0: 4ac2 debd c866 303e 19e8 b63d 5f3b db3c
000000c0: 1b46 19bd 81e1 043d 53be d0bd 2fd1 b1bd
000000d0: bb4c ba3d 5c6c 533d f34a 453e d489 cfbd
000000e0: 7fb2 563e 4002 563e 189d 343d 54ca 153e
000000f0: 2f50 393e 8521 ae3b 6773 0d3e 25ce d9bd
00000100: 3571 90bd fb85 6c3d 1d53 843d d227 423e
00000110: 1c9f 2f3d e865 993d 39e0 ecbd 2e06 683d
00000120: b27a 3b3e dac3 233e 6a5a 793d 8164 c7bd
00000130: ab8d 833d e22a 2d3d c87e c03d 22ef 87bd
00000140: 15bf f53d 9847 943d 280c 3e3e 7a73 b0bd
00000150: fbe4 e5bd 4dbd 663e 5e54 5a3e 2ef5 f9bd
00000160: ff9f f4bc 34b9 0a3e 1188 0abe bcbc 9c3d
00000170: 8587 95bd ee3a e1bd 5a61 fd3c 04c7 9fbc
00000180: 3843 8dbd 54c9 8d3d 8ae8 57bc 8874 fa3d
00000190: 0da5 dabd d46a 303e 63ec 0a3d b916 ae3c
000001a0: 2f01 083e 21a9 843c 105b 4a3e 56ce f23c
000001b0: 6c2d d6bd ce82 d3bd 8efa af3d 8170 063e
000001c0: 653f 0d3e 5e52 ffbd a0dc 343e c0e8 ea3d
000001d0: 3be7 573d 0c44 fd3c 8a15 3c3e 227e 963d
000001e0: f7bf f3bd f85f 503e 8bb3 dbbd 398c e63d
000001f0: 0140 353e 15b5 0fbd a1b6 71bd 7e64 89bd
00000200: 8a36 823d 5123 85bd 0fbe cf3a 7b13 c7bd
00000210: 7894 ac3c 6c81 2abe e47e 093d 69c5 df3d
00000220: 35e4 a3bd 0ad6 a938 4000 09bd 4668 9a3c
00000230: 5a05 2c3e 2ecd 44bc 540e 603d 3b28 1e3e
00000240: 99c1 69bd 4762 1ebd f155 9cbd 44a5 2ebd
00000250: d7b7 f9bc 6ab7 323d 9e2b 933d fb4b c13d
00000260: 0733 df3d 194c 3e3d edd6 b83c 9c1b 173e
00000270: f04c 5a3d 2a0f 443d 9347 9b3d ab8c 203d
00000280: 56c6 09bd bc0d 043e 0f4a 10be eb9e 9c3d
00000290: 8c24 e73c 0a9b 603e 1c6d 783c ead3 5f3e
000002a0: 6ce4 013e c77f fbbd d35a d8bd fed5 88bd
000002b0: 8036 5abd 0702 b13d 407e 54bd 9dad 00be
000002c0: f165 0f3e f86e 15be e14c 043d 95be 0c3e
000002d0: e485 db3d 0454 8bbd c762 393e 74f0 da3c
000002e0: b877 023e 3dea 863d b665 92bd 622c 6e3c
000002f0: 9a89 053d b746 193e 2fbb 113d 359d cd3d
00000300: 1bf7 9ebd 9285 07bc 61d2 95bd df2d 4f3e
00000310: f3c9 643b c4f6 d3bd 025e 0d3d 6911 26bc
00000320: 3c27 5fbc 4538 12bd aeb2 9b3c 0623 8dbc
00000330: 1292 4d3e b5dc 263e 0800 893d 5f71 0a3e
00000340: 0f13 423e d310 9bbc e331 87bd 729a 2f3e
00000350: 2077 f2bb 4afa d0bd a029 68bd 5e01 2e3e
00000360: 9b60 debd edfe a5bc d1a7 183d 49c0 36bd
00000370: e41d 963d 46ae 123e 6f5c 2fbc a2fa 663d
00000380: d263 053e e0a1 89bd ef82 773d edbb 483e
00000390: 7e91 9bbd 838c 033e 3351 393e fd0c 213d
000003a0: e64e e93d 0705 cb3d 6ddd 02be e8d1 eabd
000003b0: 8525 9fbd 0400 3a3c 03d0 c63d ffbf 183e
000003c0: a224 953d 8549 213a 1f83 233e f33b febd
000003d0: 4849 2f3e 1337 323e fd28 4ebd b8f2 8bbd
000003e0: 2c2d d33d e30b 03be f784 893d 2ca7 1e3e
000003f0: ee57 6ebd 2c13 313e 2d4f 69bc 6426 37bd
-0.038905323 -0.12623847 0.16789433 0.12959222 0.12435732 0.21385 0.037577726 -0.10617827
0.03685485 -0.0962038 0.18965288 0.04877801 -0.06449523 0.027278164 -0.12347475 -0.07863801
0.16247506 0.13166195 0.11081859 0.01628711 0.066558085 0.1804844 0.06976346 0.17373158
-0.05340015 0.056321282 -0.025565539 0.003666485 0.13357872 0.18596406 0.04478004 -0.08973144
-0.038956653 -0.04068574 0.17533667 0.16197419 0.16014454 -0.007285404 -0.1221341 0.08456659
-0.0691391 0.120119214 -0.047325432 0.06294303 -0.108769014 0.17226708 0.08930988 0.026761709
-0.037420373 0.03244162 -0.101925515 -0.08682477 0.090966664 0.05161701 0.19266872 -0.101337105
0.20966528 0.20899296 0.04409513 0.14627963 0.18096994 0.0053140544 0.13813554 -0.10635022
-0.070528425 0.05774496 0.06461165 0.18960503 0.042876348 0.0749014 -0.115662046 0.05664652
0.18308523 0.1599268 0.06087724 -0.097359665 0.064235054 0.042277224 0.093991816 -0.06637408
0.11999337 0.07240218 0.18559325 -0.086157754 -0.11225315 0.2253315 0.21321246 -0.122049674
-0.029861448 0.13547212 -0.13528468 0.07653186 -0.07301239 -0.10997568 0.03093021 -0.019504078
-0.068975866 0.06923166 -0.013178 0.12229258 -0.10676012 0.17228252 0.033916842 0.02125107
0.13281702 0.016193928 0.197613 0.029639404 -0.10457882 -0.103276834 0.085927114 0.13128854
0.13793714 -0.12466882 0.17662287 0.11470175 0.052710753 0.030916236 0.18367592 0.07348277
-0.11901849 0.20349109 -0.107276045 0.11257214 0.17700197 -0.035084803 -0.05901206 -0.067086205
0.06358059 -0.06500877 0.0015849489 -0.097205125 0.02106689 -0.16650933 0.033568278 0.10926325
-0.080025114 8.098416e-05 -0.033447504 0.01884855 0.16798916 -0.012011809 0.054701164 0.15445034
-0.057069395 -0.038667943 -0.076335795 -0.04263808 -0.03048317 0.04363195 0.07186054 0.0943832
0.108984046 0.04645929 0.022563422 0.14756626 0.05329603 0.047866024 0.07582011 0.03919665
-0.033636414 0.12895864 -0.14090751 0.07647499 0.02821567 0.21934143 0.015162732 0.21858183
0.12684792 -0.12280231 -0.10564198 -0.06681441 -0.05327463 0.08642965 -0.051878214 -0.12566228
0.14003731 -0.14593112 0.03229988 0.13744576 0.10718897 -0.06803134 0.18104087 0.026725985
0.12740982 0.06587646 -0.07148306 0.014536949 0.03260193 0.14968382 0.035578903 0.100397505
-0.077619754 -0.008271592 -0.07315517 0.20232342 0.003491041 -0.10349801 0.03451348 -0.010135987
-0.013620194 -0.035698194 0.0190061 -0.017228615 0.20075253 0.1629513 0.06689459 0.1351981
0.18952583 -0.01892892 -0.06601312 0.1714876 -0.0073994547 -0.10203989 -0.05668032 0.16992709
-0.1085827 -0.02026316 0.037269417 -0.04461697 0.0732992 0.14324293 -0.01070319 0.056391366
0.1302636 -0.06720328 0.060427602 0.19602938 -0.0759611 0.1284657 0.18097381 0.039319027
0.11392002 0.09913068 -0.1277978 -0.11465818 -0.07770828 0.011352543 0.09707644 0.1491699
0.07282378 0.0006152618 0.15967987 -0.12413778 0.17117798 0.17403822 -0.05033206 -0.06833404
0.1031135 -0.12797503 0.06714814 0.15493459 -0.058189325 0.1729247 -0.014240068 -0.044714347

network_aging.lstm.weight_hh_l0 f4 [128, 32]
00000000: 9169 1bbd e7e7 1dbe 41d1 1e3d 5c79 043e
00000010: e8e2 1c3e 899a 0ebd cbcf d4bc eb4a 0fbc
00000020: fed4 333e 6e16 ea3c b820 dabd f38c 2abe
00000030: 2b1b 22be f226 9bbd 3d54 0c3e d387 2cbe
00000040: 8faa c3bd 5b32 86bd bb73 60bd fb11 0e3e
00000050: f132 993d dc97 13be 5583 153e 49f8 a0bd
00000060: 6745 593d db31 a6bc 2dd3 2dbe 64a6 04be
00000070: 2f5c 8d3c bfd0 82bd 1083 413d 8b71 343d
00000080: d9d7 e1bd a9d4 ddbd 30ad 843d a290 57be
00000090: e774 7d3d 1a0c 5a3e 9452 9e3d dcf6 283e
000000a0: f2d4 953d fa22 0f3e 6b8b de3d d5dd b83d
000000b0: 9b64 62be 7ef9 ccbd de57 45bc 4c12 c43d
000000c0: 91af 093d 2243 00bd da67 ce3d b495 89bc
000000d0: 9c81 32bd 8e21 683e 7fe6 193e 0739 21be
000000e0: c728 7abe ebc3 373e 2c9e 053e 1b26 5e3d
000000f0: d955 d53c f357 f8bd 6ea7 c0bd b325 073e
00000100: 565d 60bd a216 033d 7c71 c33d a759 45be
00000110: 976e c1bd 9220 933c 7e87 cf3c 1923 b83d
00000120: 5259 073e 242e ef3d 5206 863d c95e ddbd
00000130: b63d 86bd 4c3c 1e3d d5dd e0bd cb80 4ebe
00000140: 6d8e 45bd 1cee 57be 7014 0f3d 4b45 923d
00000150: 0236 6fbe a894 d83d 4c30 dd3c ae15 373c
00000160: 1c51 dcbd 8019 623e b15c 5abd b0a4 34be
00000170: f236 20bd 37ce 883d 5467 b4bd cd07 0d3e
00000180: 9f3c c23d a1e8 16bd 7336 d6bd 4379 7e3d
00000190: c1bf 7a3e 3367 a23d 82c9 4e3d f6ba 1f3e
000001a0: 9057 4f3e d491 9b3d e873 28be a61b ccbc
000001b0: 8edf ac3d 7690 623e 2894 c53d 13b1 b03d
000001c0: de56 babc b7a9 d23d ac21 04be 0ec5 c0bc
000001d0: c59e 17be 897c 3d3d 0d1d dcbd b171 58be
000001e0: 1e1c dabc a166 e93d 52d5 11be e270 55be
000001f0: 6f3a 583d 13cc 623b e322 103e eee7 a73d
00000200: f2b5 bc3c 116a 73be eda5 2ebd df85 133e
00000210: 020b d0bd 630a 0eba 07e7 b53d 6c99 4e3d
00000220: 88c3 d33d aafa 9dbc b9c6 0dba 5c1f 0dbe
00000230: c4e7 9b3d 1112 16bd 0640 6bbd 49b8 14be
00000240: 9bb3 35be 1733 d43d 1915 06be 4a68 89bd
00000250: 9b19 2abd d2a0 c7bd 47d2 823d 06cc d3bd
00000260: 6530 f1bb 87bf 63bc bf24 1d3e d432 613d
00000270: 6296 863c bbc2 88bd 0d55 9c3d 74da 3a3e
00000280: c491 23be 6bbf 3ebe 343c 273c 748b 1bbd
00000290: e36e fd3d 5c49 363e 2eee 5a3e 5746 093e
000002a0: 8046 a33c 9249 ea3d 1f97 13be aae5 8c3d
000002b0: 6158 05be fe8e c83c 5209 34be 0ad6 243c
000002c0: 7c12 253c 386a 39be c793 adbd d56d 283d
000002d0: c309 6b3d 8337 2e3e f9e0 1d3e 6b36 7cbe
000002e0: 821f 88bd 1b35 a1bd 8233 433c 2794 3bbe
000002f0: 03fb bebd 0fb6 8bbd 1e3a 1f3e af47 b03d
00000300: e169 29be dfae 28be e3c9 db3d 84ec 3ebe
00000310: 9f1b a2bd 88ca 9b3c 46c1 1b3d 4693 e13d
00000320: 52ca acbc 3d52 abbd 394b ffbd 5cd2 d3bd
00000330: f2ce 30be 61af a53c a68e e9bd d90a 483c
00000340: dabf 26bd c415 4bbd f102 643d 3661 ca3d
00000350: ca3a e6bd 133f 703d 1dc1 313e 3d1e edbd
00000360: 7c0e 023d f1ed 0c3e 6b08 babb e4af dfbd
00000370: f349 e03d 66c8 983d 4c21 583e 9cb5 7b3d
00000380: 1e94 1dbe 5281 8c3d 60d6 393e 3024 be3d
00000390: 9fef e5bd bfee 093e 01b8 ae3c ded1 92bd
000003a0: 2f42 91bd 382f d9bd 5b3c 043d 8397 61be
000003b0: e8e0 903d ab40 103e e035 363e 5533 0ebc
000003c0: 4cc1 c23c 3fff 63be 1c3f 08be 3447 4b3e
000003d0: a668 54be 26e2 763d 6128 163e bfeb e43d
000003e0: 1bbe 95bd 88c3 213d 3489 0cbe 8d30 07be
000003f0: 0b3c 6a3e 5059 753c 38e7 943c a654 313e
-0.037942473 -0.15420495 0.03877378 0.1293692 0.15320933 -0.034815345 -0.02597799 -0.008745889
0.17561719 0.028575148 -0.10650772 -0.1665533 -0.15830676 -0.075757876 0.1370401 -0.16848688
-0.09554016 -0.06552573 -0.05479787 0.13874047 0.074804194 -0.14413399 0.1460088 -0.07859857
0.053044703 -0.020287445 -0.16975088 -0.12954098 0.01725587 -0.063874714 0.04724413 0.044053596
-0.11027498 -0.10831577 0.064783454 -0.21051267 0.061879065 0.21293679 0.07730594 0.1650042
0.07316007 0.13978186 0.108664356 0.09026686 -0.2210869 -0.10008524 -0.012044875 0.09573802
0.0336147 -0.031314023 0.10078402 -0.016795017 -0.043580636 0.2266905 0.15029334 -0.1574441
-0.24429618 0.1794583 0.13048619 0.05423556 0.026041912 -0.1212615 -0.09406935 0.13197975
-0.054776512 0.032004006 0.0954313 -0.19272481 -0.094449215 0.017959867 0.025333162 0.08991069
0.13217667 0.116787225 0.06544174 -0.108090945 -0.06554739 0.038631722 -0.10979811 -0.20166318
-0.04823153 -0.21086925 0.0349316 0.07142123 -0.23360446 0.10575229 0.027000569 0.011174602
-0.10757658 0.2208004 -0.053311054 -0.17640948 -0.0391149 0.06679957 -0.08808771 0.13772507
0.09484219 -0.036842946 -0.10459604 0.062127363 0.24487211 0.0792984 0.05048514 0.15598664
0.20248246 0.07596174 -0.16450465 -0.024915528 0.08441077 0.2212542 0.09647399 0.08627524
-0.0227465 0.10286277 -0.1290347 -0.023531463 -0.1480666 0.046261344 -0.107477285 -0.2113712
-0.026624735 0.11396528 -0.14241531 -0.20843843 0.0527901 0.00346065 0.14075808 0.08198534
0.023035977 -0.2377093 -0.042638708 0.14406537 -0.101583496 -0.0005418418 0.088819556 0.050439283
0.10340029 -0.019284565 -0.0005408335 -0.13781494 0.07612565 -0.036638323 -0.057434104 -0.14523424
-0.17744295 0.10361307 -0.13093986 -0.06709345 -0.041528326 -0.09747471 0.063877635 -0.10341649
-0.0073605054 -0.013900644 0.15346049 0.054980114 0.01642913 -0.06677767 0.0763341 0.18247396
-0.15973574 -0.18627708 0.010207225 -0.03797479 0.123746656 0.17801422 0.21379921 0.13405739
0.019931078 0.11439814 -0.14413117 0.068797424 -0.13021995 0.024482246 -0.1758168 0.0100607965
0.010075208 -0.18106925 -0.08475452 0.04112037 0.057382356 0.17013364 0.15417852 -0.24630134
-0.06646635 -0.07871457 0.011914136 -0.18318234 -0.093252204 -0.06821834 0.15549514 0.086074226
-0.16544296 -0.16472958 0.10731866 -0.18644911 -0.079154246 0.019017473 0.038026117 0.11014418
-0.021092568 -0.08365295 -0.124655195 -0.10342857 -0.17266443 0.020225229 -0.11404161 0.0122096175
-0.040710308 -0.049581304 0.055666868 0.09881823 -0.11241682 0.058653902 0.17358823 -0.11578033
0.031752095 0.13762642 -0.005677273 -0.1092222 0.10951605 0.07460098 0.21106452 0.061452493
-0.15388533 0.068606034 0.18148184 0.09284246 -0.11227345 0.1346998 0.021327974 -0.07168935
-0.07092702 -0.106047094 0.032284122 -0.22030453 0.070741475 0.14087169 0.17793989 -0.008679231
0.023773812 -0.22265337 -0.13305324 0.1985138 -0.20743045 0.060274266 0.14663841 0.111777775
-0.0731165 0.039493114 -0.13724214 -0.13202114 0.22874467 0.014974907 0.01817666 0.17317447

network_aging.lstm.bias_ih_l0 f4 [128]
00000000: 33c7 35bb f1e9 6e3d 9753 af3c 90cc 893d
00000010: e7a0 5d3e 318d ddba bec4 24bd 4e94 ae3d
00000020: 3772 e13d 5516 84bd e3fb 5b3d 7731 86bd
00000030: e206 123d d19c 9d3d b948 3a3e bffd 983c
00000040: 2ca7 f3bd 472b 6dbd b3f3 4c3e a5d8 0d3e
00000050: 61b2 d3bc 59ea 283d d299 e9bd 30cb 88bd
00000060: faea 6b3d 7600 85bd 7c03 aa3c fe04 693e
00000070: fbba 353e 481f f63d 4db6 053e 82ba 3e3e
00000080: 5295 4d3d 97d7 eb3c 8dd2 bebd bcf2 05bd
00000090: e879 e93d ab96 0cbd cd5a 5a3e 3189 e5bd
000000a0: 534b f9bc ecbd 95bd 520b a0bc 8d47 1b3e
000000b0: c405 3fbd bda3 b1bd 2c37 c1bd bb7c 143e
000000c0: b49c 153e 9cb8 7b3d 1391 a03d 3fdd ad3d
000000d0: b40e 213b 7340 c43d 5f5a f9bb d22a 0f3e
000000e0: 6bb4 36bd a921 1d3d 79d4 9f3d 6644 683e
000000f0: df7c 003d 30ce e2bd c586 c63c 7ca9 04ba
00000100: 2262 513d 8927 a8bd e60d 6a3e 22db 263a
00000110: 30fd 20bb 530e a6bd 1c17 373e ef9e 133e
00000120: ce2b 053d bfd2 3d3e dda5 ccbd be3e c4bd
00000130: 67e2 17be 2fb4 463e d1c9 433e 939b 3abe
00000140: e973 9abc f324 ce3d 14b1 fbbd 60a6 413e
00000150: d502 b3bd 3dc2 383e 5d7b 923d d7f3 18be
00000160: 6ea8 5abe 48b2 0bbd 4278 76bb 9286 71be
00000170: 2eee 1a3e c108 2ebe bfe9 df3d 5cf2 5f3e
00000180: ff0b 73bd f291 1a3e 65e3 7a3e 54cf d3bc
00000190: 9e7c 633e c018 973d 1c95 aebd e165 10bb
000001a0: 30f2 743e 8e34 a53d 8c2b 0e3d 42ea a2bd
000001b0: 8d20 073c 96e8 ed3d 0c9b ccbd 13f8 f03c
000001c0: df57 f03c 50d8 9b3b 36fe f33d 4f44 883e
000001d0: 1948 d13c 1bc6 563d 44c3 cdbc efb6 ca3d
000001e0: 2710 693e 9ffc ba3a de61 1b3e 78af d73d
000001f0: 797e 7f3d faa6 3abd 3246 92bc 489b 6e3d
-0.002773714 0.058328573 0.021402163 0.0672847 0.2164341 -0.001690304 -0.04022669 0.085243806
0.11008113 -0.06449572 0.053707015 -0.065524034 0.035651095 0.07695926 0.18191804 0.018675683
-0.1189712 -0.0579026 0.20014839 0.13852175 -0.025841894 0.041239116 -0.11406292 -0.0667938
0.057597138 -0.064942285 0.020753615 0.2275581 0.17747109 0.12017685 0.13057823 0.18625835
0.05019123 0.028789325 -0.09317503 -0.032702193 0.11400205 -0.034323376 0.213237 -0.11207808
-0.030431425 -0.07311615 -0.019536648 0.15164013 -0.046636358 -0.08673809 -0.09434351 0.14500706
0.14610559 0.061455354 0.07840171 0.08489465 0.0024575414 0.09582605 -0.00760965 0.13981178
-0.044605654 0.03836218 0.07804198 0.22682342 0.031369086 -0.110744834 0.024234185 -0.00050606555
0.051118977 -0.08210666 0.22856864 0.0006365051 -0.0024564974 -0.08108201 0.1787991 0.14416097
0.03251248 0.18537425 -0.099925734 -0.095822796 -0.1483246 0.19404672 0.19119956 -0.1822341
-0.018854098 0.10065641 -0.12289634 0.18911123 -0.087407745 0.18042846 0.07152436 -0.14936768
-0.21353313 -0.03410557 -0.00376083 -0.23586491 0.15129921 -0.16995527 0.109332554 0.21869797
-0.059337612 0.15094736 0.24500807 -0.025855698 0.22215506 0.073777676 -0.08524534 -0.002203338
0.23920512 0.08066665 0.0347095 -0.079548374 0.008247507 0.11616628 -0.0999051 0.029415166
0.029338775 0.004756011 0.11913721 0.26614615 0.025547074 0.05243502 -0.025117524 0.09898173
0.22760068 0.0014265961 0.15174052 0.10531515 0.062376473 -0.045569398 -0.017855737 0.058253556
