trained_model/mc1_mc2/60_days_lookahead/pnet_checkpoint/pnet_1750.pth (torch, 545278 bytes, 36 tensors)

network_smart.layer1.0.weight f4 [128, 330]
000000 d5 72 34 3a 6b dc 04 bb a7 21 41 bd ea 34 78 3b
       0.00068835664 -0.002027298 -0.047151234 0.0037873336
000010 8d c0 4d bc 5c 1a c5 3c a9 9d 46 3d 00 49 5d 3c
       -0.012558115 0.02406042 0.0484902 0.013506174
000020 c3 f7 74 bc 21 57 3a bd 2b 1a f3 3c 52 95 0b 3a
       -0.014951649 -0.04549325 0.029675564 0.00053246797
000030 35 50 3b bd 84 2a 1c bd 40 51 fc 3c 04 cf 7a bb
       -0.04573079 -0.038126484 0.030800462 -0.0038270364
000040 45 40 4a 3d 41 0e c6 3b 1f 73 d5 3c 39 a1 4a 3d
       0.0493777 0.0060441797 0.02605587 0.04947016
000050 08 17 13 3d 58 82 48 3c 66 4f 93 3c 41 44 2e 3d
       0.035910636 0.012238108 0.017982196 0.04254556
000060 70 f6 ad bc 02 7e 5a 3d 66 b3 49 bc 4e bb ec bc
       -0.021235675 0.053342827 -0.012310838 -0.028897908
000070 26 f6 d3 bb 0b 8a 0c bc c8 d8 61 3d 22 f2 48 bd
       -0.006468552 -0.008577834 0.05513838 -0.04905904
000080 a9 e6 ca 3c 9e b1 c5 bc c3 23 51 bc dc 0a 00 bd
       0.02476819 -0.024132546 -0.012764874 -0.031260356
000090 1d d2 cc ba 6c f1 17 3d 9d eb 07 3a 03 92 60 3d
       -0.0015626583 0.037095472 0.00051849504 0.054826748
0000a0 bb 40 f8 bc a2 9b 23 3d f3 f5 3d 3d 1d af 32 bd
       -0.030304303 0.039943345 0.046377134 -0.043624032
0000b0 78 66 95 bc f6 4a 56 bd 5a b8 cc bc 62 b1 d4 3c
       -0.018237337 -0.052317582 -0.02499025 0.025963489
0000c0 a9 4d d8 3c 32 8e 92 3c 85 b1 4b bd 02 da 06 bd
       0.026404219 0.01789007 -0.049729843 -0.032922752
0000d0 e9 57 cf ba 8f ef 60 3d b9 d0 af 3b 0c e4 4b 3d
       -0.0015819046 0.05491596 0.005365458 0.04977803
0000e0 25 72 78 bc 02 fe 46 bd bd 98 a4 3c 00 11 47 bd
       -0.015163933 -0.048582084 0.020092363 -0.048600197
0000f0 b6 f6 0c bd 08 7f 16 3d 93 a5 7a bc d4 24 96 bb
       -0.03441497 0.03674224 -0.015298265 -0.004582027
000100 bc a4 0b 3d da a6 f0 bc 82 11 f9 bc 4c eb e7 3c
       0.03409265 -0.029376436 -0.030403856 0.02831044
000110 b8 af 3f bd e0 0c a2 bc 42 78 9d bb 12 96 ab bc
       -0.046798438 -0.01978153 -0.0048055956 -0.020945583
000120 5f 9a 8a 3c 04 fa 5c bb 96 85 52 bd b4 df 81 bb
       0.016919313 -0.0033718357 -0.05139693 -0.003963435
000130 ab ba 89 bc f6 a3 02 3d 0f 4f 8f ba df c5 bb 39
       -0.016812643 0.031894647 -0.0010933595 0.00035814845
000140 fb c5 f3 bc cb 71 34 bd 32 54 27 3d 05 f1 0a 3d
       -0.02975749 -0.044053834 0.04085178 0.03392126
000150 51 33 4a bd 59 d3 aa bc ce 26 a7 bb 0f 9f 18 bc
       -0.049365345 -0.020852732 -0.0051010614 -0.009315266
000160 f6 bf 63 bc 25 a1 c0 3c a4 23 2b 3d e3 3e dc bc
       -0.0139007475 0.02351434 0.041782036 -0.026885455
000170 ee d9 53 bd 4d 50 3e 3d 60 2b 38 3c 4c 20 d7 3b
       -0.051721506 0.0464633 0.01124081 0.0065651294
000180 a5 f3 dd bc 50 c5 bf bc 5b 6d 2d 3d c0 6c 2e bc
       -0.027093718 -0.023409516 0.042340618 -0.010646045
000190 57 d6 22 bb 52 47 27 3c d8 25 47 3d 8e 66 49 3d
       -0.0024846995 0.010209875 0.048620075 0.04917007
0001a0 0a 92 5a bd 08 78 94 bc cd 49 87 bc 57 34 0b 3c
       -0.05336193 -0.018123642 -0.016514683 0.0084963655
0001b0 da 0f 50 3c 0b a8 34 3d 35 fa 1b bc 47 34 1e 3d
       0.012699092 0.04410557 -0.009520103 0.038624074
0001c0 8d b9 5a 3d 32 b1 c0 bb ba f6 9a bc 9a 9c 57 bd
       0.05339961 -0.0058804983 -0.018916477 -0.05263958
0001d0 6c d3 c6 bc 6a c9 24 3c 05 43 30 bb a9 26 5d 3d
       -0.024270736 0.0100577865 -0.0026895416 0.053991947
0001e0 7f 65 1f 3d 6b c9 21 3c d6 15 10 3d 35 66 20 bd
       0.038915154 0.009874682 0.035177074 -0.039159972
0001f0 c0 21 e2 bc e0 4c ef 3c a4 a2 24 3d ec 6c 2b 3d
       -0.027603984 0.029211462 0.04019417 0.041851923
000200 c1 5e af bc 13 bc 55 bd 36 00 b6 bc 2a f7 4b 3c
       -0.021407487 -0.052181315 -0.022216897 0.012449065
000210 5c 49 df bb e4 35 52 bd b3 8b 49 3b 15 7f 7a 3d
       -0.006814165 -0.051320925 0.0030753433 0.06115635
000220 f5 c3 e9 3b 01 27 03 3c a3 3f 15 3b 8e 01 57 3d
       0.0071339556 0.008004905 0.0022773526 0.052491717
000230 04 78 59 bb ad b3 43 3d 64 ac d1 3b 5d b3 42 bd
       -0.0033183107 0.047778774 0.0063987244 -0.047534335
000240 88 3c 57 3d c0 e4 c0 3b fa d1 ff ba af af e4 bc
       0.05254796 0.005886644 -0.0019517534 -0.027915804
000250 3d 18 0e bd 67 93 1c 3d e6 c2 51 bd b6 c7 94 bc
       -0.034691084 0.03822651 -0.05121126 -0.018161636
000260 10 cb 21 bd 91 ae 2d bd 66 b9 07 3d 67 81 19 3d
       -0.039500296 -0.042402808 0.033135794 0.037476923
000270 dd 8c 28 bd 51 7e 4a 3d c7 c6 3b bd 23 ad e7 bc
       -0.041149963 0.04943687 -0.045843866 -0.0282808
000280 83 ed 0c 3d b9 fe 9a 3c 6a 3d 5e bd 6e 23 08 bd
       0.034406196 0.01892029 -0.054257788 -0.033236913
000290 b1 65 18 3d 16 77 9d 3b 58 f0 6a 3c f5 b9 ce 3c
       0.037206355 0.004805456 0.014339529 0.025235156
0002a0 15 f3 c7 bb 60 4b ce 3c 25 c3 53 bd b7 fb 1b bd
       -0.0061019757 0.025182426 -0.051699776 -0.03808185
0002b0 8c ad 1b 3c 66 2c 51 bd 06 4c 4b bd 9b 22 ed bc
       0.009501826 -0.051067732 -0.04963305 -0.028947165
0002c0 d0 9a b4 bc 81 d9 0b bd 4b 41 d8 3c 92 d8 d1 3c
       -0.022046477 -0.034142975 0.026398322 0.025615964
0002d0 f8 4e 84 ba 7b 0b 0c 3d b5 f5 a7 3c 5a 0c 01 3b
       -0.0010094335 0.034190636 0.020502904 0.00196912
0002e0 d7 77 5c bd 56 3f a4 bc 3f 13 28 bd c7 eb 0c bd
       -0.053825226 -0.020049732 -0.04103398 -0.034404542
0002f0 24 d2 57 bd 30 3d 34 bd 3f 0a 9b 3c e6 64 c1 3c
       -0.05269064 -0.044003665 0.018925784 0.023607682
000300 38 e0 cb bc 07 57 9b bc 18 d1 dc bc ba db 97 bc
       -0.02488719 -0.018962396 -0.026955172 -0.018537391
000310 72 7c 57 3c ff 8e 28 3d a9 82 08 bc a7 00 cb bb
       0.013152229 0.041151997 -0.008331933 -0.006195146
000320 3d 2b 37 bd 11 1a 37 3d 60 97 a6 bc fe b0 3d 3c
       -0.04471897 0.044702593 -0.020335853 0.011577843
000330 61 e1 65 3d 71 8c e8 bc cd 1e 3b 3d 56 08 4f 3d
       0.05612314 -0.02838728 0.04568367 0.05054506
000340 e2 04 cc 3c b5 4b 95 3b 59 78 af bc da 02 e3 bc
       0.024904672 0.004556144 -0.02141969 -0.02771132
000350 42 94 95 bc e4 89 ec bc 4e 0d 8d ba 50 c8 22 3d
       -0.018259171 -0.028874345 -0.0010761411 0.039741814
000360 3d 71 06 3d 33 ee ab bc e0 d4 3b ba fb 0a 2f bd
       0.032822836 -0.020987606 -0.0007165205 -0.04273508
000370 c5 c5 a8 3b bf 02 3e 3d 4a 30 8d 3c d9 b3 1d bd
       0.005150529 0.046389338 0.01723494 -0.038501594
000380 7b 56 2f 3c 80 cb b4 3b cd 50 3a 3d 27 01 69 3b
       0.010701771 0.005517423 0.045487214 0.0035553665
000390 3e f3 62 3d 2b 62 82 3c 0c 80 ea 3c cf 55 13 3d
       0.055407755 0.01591595 0.02862551 0.035970505
0003a0 6f 20 b0 bb 2c 9a d9 3b 3d 06 36 bd ec 69 8e bc
       -0.00537496 0.006640693 -0.044439543 -0.017384492
0003b0 19 53 cc 3c 8d 90 25 bd 1d 4d 42 3d 5b ae ab bc
       0.024941968 -0.040421057 0.047436822 -0.020957163
0003c0 38 5f 2e bd 7a be 21 bb f1 19 f1 bc df 7b 8e bc
       -0.042571276 -0.0024680183 -0.029431315 -0.01739305
0003d0 af fd c8 3c 93 54 5a bb c1 e3 ea bb 99 f9 84 3c
       0.024535028 -0.003331457 -0.0071682637 0.016232299
0003e0 f0 0e 09 bd 9f 3a f7 bc 07 0d c2 ba 82 c2 cb bc
       -0.03346151 -0.03017932 -0.0014804908 -0.024873022
0003f0 1c 9a 3a bd fb ee be bc af 20 d6 bb 40 e2 66 bc
       -0.045557126 -0.023307314 -0.006534658 -0.014092028

network_smart.layer1.0.bias f4 [128]
000000 ea b3 1f bd 93 a0 67 bd 48 bb 57 3d 37 75 09 bd
       -0.03898994 -0.05654962 0.05266884 -0.03355905
000010 95 87 8e be af 18 8d 3d 23 fe 55 3d a5 36 d5 3d
       -0.27837816 0.06889474 0.052244317 0.10410813
000020 65 69 54 3e fd 17 8f bd f7 b6 16 3e e9 3d b7 bc
       0.2074333 -0.06986997 0.14718233 -0.022368388
000030 86 6b 93 3b 8a 5c a0 bd 42 11 7d 3d 4d 3c cd bc
       0.004498902 -0.078301504 0.061784036 -0.025053168
000040 4e 9c 95 bd df 5c 43 bd 89 fb f7 3d 17 7a 04 bd
       -0.073052034 -0.04769599 0.121085234 -0.032342996
000050 b4 86 01 bd 33 f6 19 bc ab 62 b3 3d db 31 a1 be
       -0.031622604 -0.009397077 0.08759054 -0.3148335
000060 e6 cb 0c 3e e0 c4 0b bc 13 13 02 3d c5 18 89 bd
       0.13749656 -0.008530825 0.03175647 -0.066941775
000070 29 10 14 3e 86 dc fa 3b 65 8c 5d bd ce 20 bc be
       0.1445929 0.007655683 -0.05408897 -0.36743778
000080 14 1e 41 3d e5 82 56 3e 03 03 f9 3d 5e c9 6c 3d
       0.047147825 0.2094837 0.121587776 0.057809226
000090 3b 7c f9 3d 85 86 1f bd 17 eb 88 3d 1b b7 f1 3d
       0.12181898 -0.038946647 0.06685465 0.11802503
0000a0 53 39 b0 3d 9d 3f 58 3d 95 b2 a0 3c 37 c8 0d bd
       0.08604684 0.05279504 0.019616405 -0.034614768
0000b0 fe 96 ba 3d fc a8 a0 bd ce b4 25 bd 8a ae d0 3d
       0.09110831 -0.07844731 -0.040455632 0.10189541
0000c0 0a fb 58 3d 86 22 f8 bc 96 8c 05 3e 4e 4b d5 39
       0.052973785 -0.0302899 0.1304191 0.00040682632
0000d0 ac 62 a0 bd c8 4d 1a 3b 12 ab 25 3e e4 8e ab 39
       -0.0783132 0.0023544896 0.1617854 0.00032722123
0000e0 ce 6b 16 be 49 c9 a5 3d 02 f1 b0 3d 00 c3 5e bd
       -0.14689562 0.08095033 0.086397186 -0.054385185
0000f0 48 57 f9 3d d0 3f 68 3d 40 9a 93 bd 96 db 18 bc
       0.12174851 0.05670148 -0.07207155 -0.009329697
000100 84 39 85 bd ba 94 5b be be 84 bb 3c e1 dc cb 3c
       -0.06505111 -0.21443453 0.022890445 0.024885597
000110 28 a4 2c 3e c7 ee 91 bd 79 21 b4 3d 70 3c c9 3d
       0.16859496 -0.07125621 0.08795447 0.09825981
000120 33 43 7f bc ae 14 1a bd b3 d0 96 be ea dc 1c bd
       -0.015579986 -0.037617378 -0.294561 -0.038296618
000130 b2 62 bc 3b 8c 6e e3 bc 04 69 18 3e 31 e9 a6 be
       0.00574907 -0.027762674 0.1488381 -0.32599786
000140 66 b8 bb be e5 39 16 be 6a 48 e4 3c e0 4a a7 3d
       -0.36664122 -0.14670523 0.027866561 0.08168578
000150 61 af 3a 3c 59 6f e8 3d 94 f8 98 3d 90 64 02 bd
       0.011394353 0.11349363 0.074692875 -0.031834185
000160 8e e1 f7 bc 68 5f b9 bd cf 48 16 3d 0b 01 77 bd
       -0.03025892 -0.090514004 0.03669053 -0.06030373
000170 4c ef df 3d 47 ea 72 bd c9 bc 4d bc 0e b4 fa 3d
       0.10934314 -0.059305456 -0.012557217 0.12241374
000180 63 de 3a 3e 22 cb 00 bd 8f e7 1b bd cb 35 72 bd
       0.18248896 -0.031443723 -0.03806263 -0.059133332
000190 89 6c 1b be 43 e6 80 bd a0 8e 66 3d 5f 84 e4 bc
       -0.15178122 -0.06293919 0.05628836 -0.02789515
0001a0 3c fb 19 bd e8 94 27 3d d6 b8 32 3d 3d 30 ed bc
       -0.03759311 0.040913492 0.043633305 -0.028953666
0001b0 16 8c 28 be 22 37 62 be ec f3 37 bd 13 98 b3 bc
       -0.16459689 -0.22091344 -0.044910356 -0.0219231
0001c0 01 a8 56 3c d4 88 11 bd 80 81 5b 3c 75 bc 6a be
       0.013101579 -0.03553088 0.013397574 -0.22923453
0001d0 a8 1d 01 bd a8 2b 65 bb 10 7f 5c be 85 c7 ae bc
       -0.031522423 -0.0034968648 -0.21532845 -0.021335373
0001e0 18 14 89 3d f8 47 43 bc 17 21 b9 bd ec 9a 0e 3b
       0.06693286 -0.011919014 -0.090395145 0.002175982
0001f0 92 e9 cc 3c b4 10 8b bd 63 03 18 be c7 59 96 be
       0.025013719 -0.06790295 -0.14845042 -0.2936537

network_smart.layer2.0.weight f4 [128, 128]
000000 80 c0 9c 3d d2 45 56 be cb da 85 bc 71 b2 44 bd
       0.07653904 -0.20925072 -0.01633968 -0.048021737
000010 e7 05 b1 bd cb e1 f7 bd 87 28 08 3f fc c1 6c bd
       -0.08643704 -0.121036135 0.5318684 -0.057802185
000020 2e 4e bd 3d 9a 59 58 bf 10 0d ec bb 21 1c 08 3e
       0.09243427 -0.8451172 -0.0072037056 0.1329198
000030 c9 98 79 bd d0 22 d4 bd 87 0f 15 be e5 9d 1c 3d
       -0.060936723 -0.103582025 -0.14556704 0.038236517
000040 ce e5 22 3a a7 5e 68 3d ef d9 0f 3d 55 3d 97 bd
       0.0006214053 0.056730893 0.035119947 -0.07384745
000050 52 e4 b3 3e 59 dd 8e 3d 9a 7d 8c bd 8b dd ec bd
       0.35135132 0.069758125 -0.06859894 -0.115656935
000060 09 01 02 3e 26 bd 71 3d 77 a1 49 bc 24 75 44 bd
       0.12695707 0.059018277 -0.012306563 -0.047963277
000070 cd 79 88 3c ac 6a 22 3e eb 2a ac be 20 ba 2f bd
       0.016659642 0.15861005 -0.33626494 -0.042902112
000080 d1 84 1f bf 36 65 bc 3e 1a de 77 3d f3 d7 31 be
       -0.62312037 0.36795968 0.060514547 -0.17367534
000090 14 d0 2b be ae 46 7c bd 92 a2 1a 3e 90 64 60 be
       -0.16778594 -0.061590843 0.15101078 -0.21913362
0000a0 85 dd 1b 3d b5 d0 3e be 2d 22 04 be 87 0e 5c 3b
       0.038053054 -0.18634303 -0.12903662 0.0033577995
0000b0 0d 13 83 3d b7 ec 2f 3d 0d 26 48 3c d6 4b 37 bd
       0.06400118 0.04295036 0.012216103 -0.044750057
0000c0 6f 2d 89 3e 25 4b 13 bd 86 49 29 3d 52 79 8e 3d
       0.26792476 -0.035960335 0.041329883 0.06956734
0000d0 b4 be e9 bd 11 75 4d be 3d 53 62 3d b1 ef 4b bc
       -0.11413327 -0.20064189 0.055255163 -0.012447284
0000e0 e2 7e f1 3d c5 10 10 3e b8 87 bc 3c e2 a8 ad bd
       0.11791779 0.14068897 0.023013934 -0.084794775
0000f0 11 35 98 bd cc 32 af 3d a9 1f 75 bd 72 13 bc bd
       -0.074319966 0.085546106 -0.059844647 -0.091833964
000100 d4 da 75 3c 98 89 d2 bd 50 07 84 be 60 16 1e 3e
       0.015005786 -0.1028015 -0.2578683 0.15438223
000110 8b 07 de 3d 02 8c 49 bc f4 9d db bd 05 cd 58 3e
       0.108412825 -0.012301447 -0.107234865 0.21171959
000120 ed e6 0d 3c 46 c5 58 be 48 60 30 bd 2c 2a 0b bd
       0.008661014 -0.21169004 -0.04306057 -0.033975765
000130 36 25 f7 bd a6 07 8a 3d 55 73 2e 3e 68 4d a6 3c
       -0.12067644 0.0673974 0.17036183 0.020300582
000140 ca 68 80 3e 29 6d 66 bc 90 30 4e be d7 b0 70 3d
       0.25079948 -0.014064112 -0.20135713 0.058762398
000150 7c da d4 3e 7d aa 83 be 9c 99 7f be 85 65 ba 3b
       0.4157294 -0.2571601 -0.24960941 0.0056883716
000160 ad d9 34 bf b9 35 80 bd 6c ed a1 3b 07 ff 85 be
       -0.70644647 -0.06260247 0.004941633 -0.26171133
000170 ea c9 3b 3e 9e 26 56 bb 19 74 40 3d c0 2e 4c 3e
       0.18338743 -0.0032676826 0.04698572 0.19939709
000180 40 e6 b1 3c be 0b 93 3d f3 5a 9d bd 5c 82 57 3e
       0.021716237 0.07179974 -0.07683363 0.21045822
000190 80 7d 84 3e 75 13 f3 bd 3e 60 c0 bd 19 24 a5 bd
       0.25877 -0.118689455 -0.09393357 -0.08063526
0001a0 d0 37 00 be ea 9e 0d 3e 76 6d 86 3e b6 09 87 3c
       -0.12521291 0.13830152 0.26255387 0.016484123
0001b0 1f 09 be 3d fa 81 d7 3c e7 7d 59 3d 6c b6 cd 3d
       0.092790835 0.026307095 0.053098585 0.1004456
0001c0 36 f2 21 3e 52 c3 7c be ce 3e 7b 3b 8a 54 a0 3d
       0.15815052 -0.24683884 0.0038336995 0.078286245
0001d0 dc c7 d3 bd c3 ce 68 be 92 8c 3a 3d fa 42 97 3c
       -0.103408545 -0.22735123 0.045544215 0.018464554
0001e0 9f ea 4f 3e ba 0f 91 3d bf d0 20 3e 15 9c 20 3d
       0.20304345 0.07083078 0.1570463 0.03921135
0001f0 f7 0a b5 bc df ec a7 3c 5c f0 5f bd bf ea a5 3d
       -0.022099955 0.020498691 -0.054672584 0.08101415
000200 3a 69 34 bd e6 bb 2b bd 01 89 8f be 18 00 4b 3d
       -0.044045664 -0.04192724 -0.28034213 0.049560636
000210 98 34 8b 3e 67 cc 87 3e e8 75 e4 bd 85 4b 5f 3e
       0.27188563 0.26523134 -0.11155301 0.21806152
000220 13 e0 bb bd 23 64 e1 bd 85 08 3e be 14 c3 49 3e
       -0.09173598 -0.11005428 -0.18557937 0.19703323
000230 9d 04 95 bd 48 34 11 bd c8 3f 2b 3e ac c2 9f 3c
       -0.072762705 -0.03545025 0.1672355 0.019502006
000240 bb ec eb 3b cb 0c d5 bd f6 a7 a5 bd 6f f5 d6 3c
       0.0071998513 -0.10402831 -0.08088677 0.026240079
000250 9a 20 2b 3e 14 64 2d bd a1 6a 3e bd 88 61 84 bd
       0.16711655 -0.04233177 -0.046488408 -0.06463915
000260 cd c0 59 3d f9 ec 42 bd d6 6c 94 be 8f 51 2c bc
       0.053162385 -0.047589276 -0.28989285 -0.010517492
000270 76 03 99 bd 0d a6 e6 3c c4 fa 19 bc c8 7a 93 bd
       -0.07471363 0.028155351 -0.009398166 -0.07201153
000280 15 d3 5f 3d 74 5b 1c 3e 70 45 39 3c 0a fd 4b bd
       0.054644663 0.15269262 0.011308059 -0.049801864
000290 9b 9d 72 3d f2 fb ae 3d 05 97 6f 3d 22 3e 93 be
       0.059232336 0.085441485 0.058493633 -0.2875834
0002a0 26 77 91 3d 81 fc 19 bd 99 01 9c 3d 8a f1 a4 bd
       0.07102804 -0.037594322 0.07617492 -0.080538824
0002b0 76 74 88 3e 66 ad b5 3b 8f 16 ab 3d 6e 98 02 be
       0.26651353 0.0055443523 0.08353912 -0.1275346
0002c0 ad 32 55 3c ef 34 2f 3d 50 70 0c 3e 96 23 0e 3e
       0.01301257 0.04277509 0.13714719 0.13880762
0002d0 00 9f cb be d7 09 c0 bb 6b fe b7 be 5e 98 68 3d
       -0.39769745 -0.005860548 -0.35936293 0.056785934
0002e0 c9 ba 15 be cd a9 26 3d c2 73 9b 3d c4 5a 86 bc
       -0.14622034 0.04068928 0.075904384 -0.016400702
0002f0 0d 1d d5 3d 05 aa 9a bd 75 a1 e3 bc 2d 7a 58 be
       0.104059316 -0.0755196 -0.02778695 -0.21140356
000300 06 af 3a bd 74 27 0b 3d 5b 85 b7 be b4 f7 81 3e
       -0.04557707 0.033973172 -0.3584393 0.25384295
000310 7d 69 58 bd 24 f7 ba 3d 51 a0 09 bd f6 9f bb be
       -0.052834976 0.091291696 -0.033600155 -0.36645478
000320 cf 90 b3 bd 29 d0 84 bd b3 62 0c 3d 62 ff 3a 3d
       -0.087678544 -0.06485016 0.034273814 0.04565371
000330 8f d2 35 bd 2a dd 94 bc 98 53 2e bd 36 d0 73 3c
       -0.044390257 -0.018171865 -0.04256019 0.014881184
000340 bc 3f 2e bf 54 6e 9b bb de 57 36 3e 41 3f ec bd
       -0.68066 -0.0047433767 0.17806956 -0.11535502
000350 0f 4d ce 3e 02 1a 9f 3e c9 3b bf bd f1 66 35 bd
       0.40293166 0.3107453 -0.09337575 -0.044287626
000360 6f e7 6a bd 41 e3 d3 be ec 72 b3 bd 12 31 ce bd
       -0.05734962 -0.41384318 -0.08762154 -0.10067953
000370 ff 88 57 3e 51 5f b4 3c c6 70 a1 bd 98 9f 46 3e
       0.21048354 0.022018107 -0.07882838 0.19396818
000380 8b d7 c3 bd 05 80 79 3c 8b c2 a8 bd 0b 6f 0c 3d
       -0.09562596 0.015228276 -0.08240231 0.034285586
000390 78 6c ab bd fc 92 b8 3d b9 ad 98 3e 58 09 6a 3d
       -0.08370298 0.0901241 0.2982004 0.057137817
0003a0 5f 38 00 bd c3 0e 7c be c1 b8 32 3e 97 a7 2e bc
       -0.03130376 -0.24615006 0.1745329 -0.010660074
0003b0 96 56 28 bd 88 e8 12 bd f5 ec 17 3e d3 a8 ac bd
       -0.0410982 -0.03586629 0.14836486 -0.08430638
0003c0 49 5b 2b bd d5 28 1e 3e 5c 6c f6 3d 85 54 39 b8
       -0.041835103 0.15445264 0.12032387 -4.4186152e-05
0003d0 46 51 7d 3e e4 3d c0 bd ff 04 93 3d 6f bc 82 bc
       0.24738035 -0.09386805 0.07178687 -0.015958993
0003e0 cc c0 d7 3d a3 71 88 bd 12 44 49 3e 0c 53 b1 3d
       0.1053482 -0.066622995 0.19654873 0.08658418
0003f0 c2 db 31 3d fb 5d c3 3c 48 f8 ee bb e2 dd cc bd
       0.043422468 0.023848524 -0.007292781 -0.10003258

network_smart.layer2.0.bias f4 [128]
000000 17 45 87 bc 2e 6c f1 3d 74 2a 18 be 94 62 4e 3c
       -0.016512437 0.11788212 -0.14859945 0.012596745
000010 ed e3 61 3d ee 4e fe 3d ce d5 97 be 85 60 a4 3d
       0.055149008 0.124173984 -0.29655308 0.08026222
000020 d3 a1 26 3d 19 69 7e bd 82 80 bf 3d 79 80 42 3d
       0.04068167 -0.062111948 0.09350683 0.047485802
000030 e2 ae d2 3d 15 cc b7 bd 8e 8c 5d 3d bc ca 1a 3e
       0.102872625 -0.089744724 0.05408912 0.151164
000040 64 56 24 bb 3f 63 6b 3c 20 1c ed 3c e1 43 9c bd
       -0.0025075907 0.014366924 0.028944075 -0.076301344
000050 96 8f 23 bc d3 4a bc 3d 7c af bf bd 98 b7 37 3e
       -0.009982964 0.09193959 -0.09359643 0.17941129
000060 3d 6b 96 3d ef 2b 83 3d ff 90 0d 3e 69 09 be 3b
       0.07344673 0.06404864 0.13824843 0.0057994616
000070 51 e2 c9 3d 8e be 88 3c d0 65 17 bd e7 65 32 be
       0.098576196 0.016692426 -0.03696233 -0.17421685
000080 c2 a9 bc be 53 48 a0 3d bd ca e8 3d fc 4a fb 3d
       -0.36848265 0.07826295 0.11366794 0.122701615
000090 85 aa da bd 1e 30 26 bd ca f5 f0 3d 12 1d d3 3d
       -0.10677055 -0.040573232 0.117656305 0.10308279
0000a0 0f 98 1e bd 36 75 f2 3d e9 b4 59 3c 6d c6 80 3d
       -0.038719233 0.118387625 0.013287761 0.06287847
0000b0 9c a6 d6 3a 05 35 4f 3d 3e 54 2e be 6c 35 da bd
       0.0016376558 0.050587673 -0.17024323 -0.10654721
0000c0 34 13 30 3d 57 a0 26 3d b7 b3 8d bd b9 e9 e4 bd
       0.042987064 0.040680256 -0.069190435 -0.111773916
0000d0 a2 be 5f 3c b2 ee c7 bd ec 55 1b 3e 8a db ae 3c
       0.01365629 -0.097623244 0.15169495 0.021344919
0000e0 b1 9d ef 3d 4a 14 cd 3c 40 85 ce 3d 19 29 32 bd
       0.11699999 0.025034089 0.10084009 -0.043496225
0000f0 01 88 5c 3d aa d8 df bd 51 3f 16 3e 0f 56 6c bd
       0.05384064 -0.10929997 0.14672591 -0.05769926
000100 f7 5f 24 3d 4d 43 92 3d 1c 40 a3 bd 37 1e 15 be
       0.04013058 0.07141743 -0.07971212 -0.14562307
000110 89 b1 07 3d 94 c8 b4 3d c2 61 9b 3c 07 96 0a be
       0.033128295 0.0882732 0.018967513 -0.13533793
000120 2e 5f 36 3c 98 11 8c 3d 2d 27 e9 bd 8f 7d d6 bc
       0.011131091 0.06839293 -0.11384425 -0.026182918
000130 86 bd ac 3d 66 fc 30 3e 1c 09 d6 b8 2e c4 80 be
       0.08434586 0.17283782 -0.00010206012 -0.25149673
000140 06 8e b3 3d 5c 4a 92 bd fc 38 c1 3d 3c 8f 14 3d
       0.08767323 -0.07143089 0.09434697 0.03626941
000150 05 5c 04 be 98 c3 a7 bd 1c a9 5d bd e9 a4 bd ba
       -0.12925728 -0.081916034 -0.054116353 -0.0014468703
000160 f0 16 13 3d c2 12 be bd 48 08 6e bd 02 d2 44 3e
       0.035910547 -0.092809215 -0.058113366 0.19220737
000170 a2 35 34 3d e2 80 9b 3c aa 0c 75 3c 01 c7 cc 3d
       0.04399646 0.018982355 0.014956633 0.099988945
000180 21 32 29 be 1b 1d 17 bd 16 2b 83 3d 15 91 0c 3e
       -0.16523029 -0.03689299 0.06404702 0.1372722
000190 96 2b db bb 5b 7c 8f 3d 20 c8 9d bd 80 69 33 be
       -0.0066885455 0.07006141 -0.077041864 -0.17520714
0001a0 7f 5e cd bd 0f 23 82 3d 8d 3f 7e bd 88 ce 9e 3c
       -0.10027789 0.06354343 -0.062072325 0.019385591
0001b0 cd bd 93 3d cf 8f da 3c ca b3 98 bd e4 df 85 bd
       0.07213936 0.026679901 -0.07456167 -0.065368444
0001c0 1a a6 dd 3c 28 69 1c 3d 69 7a 3b bb 02 7d 87 be
       0.027056742 0.038186222 -0.0028606898 -0.2646256
0001d0 19 ac 9f bb 58 43 87 bd 1f 2e 67 bc 9c c8 99 bd
       -0.0048728106 -0.06604642 -0.014110117 -0.07508966
0001e0 88 c5 1a 3d 90 49 fd bd 3f 4b e6 bc cb 46 0b be
       0.037786037 -0.123675466 -0.028112052 -0.13601224
0001f0 9f 25 b4 bc 68 79 72 bd 35 bc 9c bc 11 25 51 3c
       -0.021990595 -0.059197813 -0.019132713 0.012765185

network_smart.layer3.0.weight f4 [48, 128]
000000 c0 76 e2 3c 38 60 b4 bb 8d ea a8 be aa cf 37 be
       0.027644515 -0.005504634 -0.32991448 -0.17950311
000010 05 7f 6b 3e c9 ae a8 3c 79 fc 74 be fa 4f 42 3e
       0.22997673 0.020591157 -0.23924436 0.18975821
000020 5f fc cc be 48 5e 26 bc 5b 27 13 bd da d3 b3 3e
       -0.40036294 -0.010154314 -0.035926204 0.35122567
000030 03 f5 60 3d dd 1b 3e 3d eb 91 73 be 89 17 68 3d
       0.05492116 0.04641329 -0.23786132 0.05666307
000040 d8 4d 0f 3d 86 50 15 3e 87 b6 ec 3d 1b 44 54 bd
       0.034986347 0.14581499 0.11558252 -0.051822763
000050 a1 bf 81 bd 85 ba 5a bd 6d 7f 9f be b6 d8 5c bd
       -0.063353784 -0.053400535 -0.31151906 -0.05391761
000060 ad 27 a2 3e d9 e2 bb bd 4e d2 26 3e e0 f6 34 be
       0.31670895 -0.09174127 0.16291162 -0.176723
000070 6c 36 0e 3e 27 78 93 3d 57 12 14 be a0 05 6b be
       0.13887948 0.072006516 -0.14460121 -0.22951365
000080 41 c6 6f 3e e0 6b a7 3d e9 aa 48 be 92 e0 bb 3d
       0.23415472 0.081748724 -0.19596447 0.09173693
000090 de 25 5b be 89 cc 1e 3e 19 ca 20 3e 44 85 ce bd
       -0.21401164 0.15507711 0.15702094 -0.10084012
0000a0 0f 78 cc bd 9b 61 e8 3c dc 64 16 be e6 8e e1 bc
       -0.09983837 0.028366854 -0.14686912 -0.02753396
0000b0 85 54 d3 bd 3a af b1 bd ad e2 a4 3d 66 d4 43 bb
       -0.10318855 -0.08676 0.080510475 -0.0029881238
0000c0 03 d5 87 3e 90 27 fd bb 3d 86 f8 bb 7a bd 9f bc
       0.26529703 -0.0077256635 -0.007584362 -0.01949953
0000d0 c7 91 cf 3d e7 79 a2 3e e0 cb e5 3d be 00 19 bb
       0.10135227 0.3173363 0.11220527 -0.002334639
0000e0 e3 22 f0 3d 28 c0 d9 3d ae e7 2d 3d 05 19 1b be
       0.11725404 0.10632354 0.042457275 -0.15146263
0000f0 51 6b 90 3d b2 a4 aa bd 25 b9 3a 3c a9 c9 5a bd
       0.07051719 -0.083321944 0.011396681 -0.053414974
000100 d2 58 38 3e 2f 45 cf 3d c1 98 2a bf e2 49 6d be
       0.18002632 0.101206176 -0.66639334 -0.23172715
000110 3a 0e 01 be 0d 6c 24 3c 09 39 a7 3c cc a1 01 3d
       -0.12603083 0.010035527 0.020412939 0.031648442
000120 7c e0 df 3d 79 86 ad bd 79 4f db bc d9 41 1f 3e
       0.10931489 -0.08472914 -0.026771294 0.15552463
000130 89 7a 0e 3e 7f 6c 35 3d 86 70 dd 3d c7 ce c2 be
       0.13913931 0.044292923 0.10812478 -0.38048384
000140 1e 58 eb bc 77 96 86 bd c3 95 83 3d 77 fd d8 bd
       -0.028728541 -0.06571668 0.06425049 -0.105952196
000150 72 7f 11 bf 90 ea 06 3d 91 4e 85 bd 16 c7 15 3e
       -0.5683509 0.03293854 -0.06509126 0.14626727
000160 9e 39 23 bd 0d 57 4b be ab 67 7a 3d 2b c3 29 3d
       -0.03984987 -0.19857426 0.06113402 0.041445892
000170 0b 62 0e 3d b9 3c b3 bc 3e ee 17 be 19 c4 84 bc
       0.03476147 -0.02187954 -0.14836976 -0.016206788
000180 88 86 ac 3e d0 d7 5c be bd bf c7 3d 18 c1 ba 3d
       0.3369639 -0.21566701 0.09753368 0.09118861
000190 6b fe 0a 3e 04 3a 94 3d d9 60 77 be cb 2d 2e be
       0.13573615 0.07237628 -0.24158038 -0.17009656
0001a0 e8 dc d1 3c 39 5d 97 3d 76 ab b4 3d 95 c4 08 bd
       0.025618032 0.07390828 0.08821766 -0.0333906
0001b0 00 86 1f 3e 6a 04 91 bd 75 df 2f 3d 67 01 80 bd
       0.1557846 -0.0708092 0.042937715 -0.062502675
0001c0 77 e8 43 3e df 5f b2 be c9 3c 18 3e f8 56 98 3c
       0.19131647 -0.3483877 0.14866938 0.018596157
0001d0 a8 97 90 bc 14 b4 a2 3d 6c 66 dc 3c a2 ca 27 bd
       -0.01765044 0.079445034 0.026904307 -0.04096473
0001e0 38 2a a0 3e ff ea a0 3e e0 e5 1d 3e 20 65 c4 bd
       0.3128221 0.31429288 0.15419722 -0.095896006
0001f0 80 ff 6c 3d 40 69 8b 3d 2f c3 8a be 27 3c 18 3d
       0.05786085 0.06807184 -0.27102038 0.03716674
000200 a9 52 f9 3d 9a 09 4d 3c 9e 1e 65 bd 29 68 d1 3d
       0.12173969 0.012514496 -0.055937402 0.10224945
000210 84 1a b8 bd 15 88 cf 3c b8 68 cc bd 10 e8 3d bf
       -0.089894325 0.025333444 -0.09980911 -0.74182224
000220 1d 01 8c 3e ed 58 58 3d 5c 81 44 be 5e 9a 99 bc
       0.273446 0.05281918 -0.19189972 -0.018750366
000230 78 ba 6a 3e 7a 33 8c be d4 f3 a2 3d 9e bc c8 bd
       0.22922695 -0.27383024 0.07956663 -0.09801601
000240 b3 ce 44 be 92 56 00 3d 96 57 61 3d fe f4 73 3c
       -0.19219474 0.03133256 0.05501517 0.014889954
000250 94 a6 17 3d 1b af 94 39 ae 95 04 3d 53 e0 8a bc
       0.037024096 0.00028359224 0.03236931 -0.01695267
000260 7f 0e 10 bf bb 68 f6 3d d9 c2 4d 3d fc cc 08 3e
       -0.5627212 0.120316945 0.05023465 0.13359445
000270 40 8a c1 bd c6 53 33 3f 5a 54 4f bd 7e 75 21 3d
       -0.09450197 0.70049703 -0.050617553 0.03941869
000280 d5 21 97 bd b0 79 c9 be 38 ec 8d 3e 2e ca 70 bf
       -0.073795 -0.39350653 0.27719283 -0.940585
000290 ad 51 65 bd 0d 5e 58 3e 4c 53 81 3d 8f 3b 2e 3f
       -0.055986095 0.21129628 0.06314716 0.6805963
0002a0 a1 e3 d2 3d 81 f2 16 3d 4c 35 fb bd a5 81 f3 bd
       0.10297323 0.036852363 -0.12266025 -0.11889962
0002b0 7e bf 91 3d 1f 78 82 3d f8 71 b3 3d f4 b1 5e be
       0.07116602 0.063705675 0.08761972 -0.21747571
0002c0 78 f4 f0 3d 75 65 f8 bc af 13 13 3d 30 f3 3e bd
       0.11765379 -0.030321816 0.035907444 -0.04661864
0002d0 e8 32 29 be 66 a0 aa 3e de 3f 05 bf ec a2 2a ba
       -0.16523325 0.333255 -0.5205058 -0.00065092626
0002e0 e1 3c cb bd 25 69 2f 3c 3c a1 e0 bd 38 d0 58 3e
       -0.09923721 0.010706221 -0.10968253 0.21173179
0002f0 8e 41 4d c0 18 20 87 3e 23 64 08 bc 4e 18 9a 3d
       -3.2071261 0.26391673 -0.008324656 0.07524167
000300 3c 97 9b bc 25 4a 4d 3c b9 ec 2a 3f 74 0d 93 3d
       -0.018993013 0.012529884 0.6676746 0.071803
000310 ba 40 8f bd 30 a4 45 3d bc c1 30 bd 1d c6 35 3e
       -0.069947675 0.048252285 -0.04315351 0.17751355
000320 b2 f8 28 be 7f 09 27 bd 2c bc 3c bd e5 39 2b be
       -0.1650112 -0.04078054 -0.046077892 -0.16721304
000330 fe 70 14 bd 79 1a a0 bc 89 51 4f bd 85 3b 35 be
       -0.03624057 -0.019543873 -0.050614867 -0.17698486
000340 68 eb 49 3d 35 cc 5b 3d 0c 77 ec bb e1 95 cd 3d
       0.049296767 0.053661544 -0.00721634 0.10038353
000350 71 9d 9a 3e b5 d9 77 3d 46 a7 a5 3d ed 2a c3 bc
       0.30198243 0.060510356 0.080885455 -0.02382418
000360 8c 5b 76 be 1f 0e 71 be 98 76 5f bd 51 45 f8 3d
       -0.2405836 -0.23540543 -0.05455646 0.12122596
000370 94 60 94 bf b8 2c 34 3f 14 cd b9 3d 93 19 18 be
       -1.1591973 0.70380735 0.09072319 -0.14853506
000380 55 b2 d5 3d 0b b5 73 bf 10 55 4b bd 05 00 9b bc
       0.10434405 -0.95198125 -0.04964167 -0.018920908
000390 f9 a3 a7 bd d2 49 81 3e ed 0c cb 3e 00 9c 27 3e
       -0.08185572 0.25251633 0.396583 0.16368103
0003a0 9c 92 00 be 6d 88 36 bf 49 d1 54 bd 3b 5b c2 3f
       -0.12555927 -0.7130192 -0.051957402 1.5184091
0003b0 7b aa 71 3e 36 1f 5f bd 94 e6 45 3d 0c 44 a1 bd
       0.2360019 -0.054473124 0.0483156 -0.07874307
0003c0 9b c2 82 3c b7 19 2c 3f f9 c9 17 be 13 20 33 3c
       0.015961936 0.6722674 -0.1482314 0.01093294
0003d0 78 b8 b5 3d 93 ce 76 bd 6f 33 05 bb 64 b6 a2 3d
       0.08873075 -0.0602556 -0.0020324846 0.079449445
0003e0 3e 16 1b bf 08 d5 59 3d 67 c1 89 3e 52 d0 74 bf
       -0.60580814 0.053181678 0.26905367 -0.9563037
0003f0 43 d8 da 3d ab 5b c0 3c 8e 7f dc 3c 1a 5b 30 bd
       0.1068578 0.02348121 0.026916292 -0.04305563

network_smart.layer3.0.bias f4 [48]
000000 4c 73 e0 bc 5c c1 18 3d 9d 48 91 3d e3 8c af 3d
       -0.027398728 0.037293777 0.07093928 0.08571794
000010 30 2b c7 3d 27 3c 6b bb 2a 1c 91 3b 84 93 14 bc
       0.09725034 -0.0035894008 0.0044284062 -0.009068374
000020 f1 73 0d 3e 0f 59 8e 3d a2 d6 ac bc b1 e4 84 bd
       0.1381376 0.0695058 -0.021098439 -0.06488932
000030 e4 62 cd 3d 6c 75 24 3e b3 32 81 bd 7e 88 af bc
       0.100286275 0.16060418 -0.06308498 -0.02142739
000040 bf ae f3 3b 66 75 ae 3c 2a 61 31 bd 49 15 92 3d
       0.007436603 0.021296214 -0.043305553 0.07132966
000050 0b 27 b9 bd 1c d4 cb 3b cb 23 0e bd c1 5c ba 3d
       -0.0904065 0.006220354 -0.034702104 0.09099723
000060 2d b5 2e be 41 f7 45 bd 7a 38 f5 3d 3b 56 c1 bc
       -0.170613 -0.048331503 0.11973663 -0.023600688
000070 19 39 ae 3d a0 73 a3 3d fd 84 20 3d 4a 23 a8 3d
       0.08506984 0.07981038 0.039189328 0.08209856
000080 c6 1c e7 3c 9b 0f 0e be e6 bb 04 3b 97 bb ea 3c
       0.028211962 -0.1387314 0.0020253598 0.028653903
000090 29 49 a6 bd 16 2f bb bd 0a e9 df bd d9 bb 0f 3d
       -0.08119423 -0.0913984 -0.109331205 0.035091255
0000a0 77 fd b9 bd 04 dc 12 3d 9e 23 af bd c2 05 cc 3d
       -0.09081548 0.035854355 -0.08551715 0.09962036
0000b0 50 af 25 3d 51 d2 0f 3e ff f6 0e 3d fc a7 cc bd
       0.040450394 0.14045073 0.034903523 -0.09992978

fc_smart.weight f4 [64, 48]
000000 6e a0 65 3e 15 94 1d c0 07 98 11 be cb f4 91 be
       0.2242448 -2.4621632 -0.1421815 -0.28507075
000010 7a 76 f0 be f3 a8 8d bf 1f df 3d 3e 6b b8 ef 3e
       -0.4696539 -1.1067184 0.18542145 0.46820387
000020 ab 2a e1 3e 5f ac 01 3f 70 05 95 3e 9d 0c 3c 3f
       0.43977866 0.5065364 0.2910571 0.73456746
000030 fe 1e de bc 7f dc 23 bd 26 d0 a7 3e 42 9b 2d bf
       -0.027114388 -0.040005203 0.32775992 -0.6781503
000040 4b cf c1 3d 9f 1e 80 3f d7 1a 9d 3e 33 31 e0 3d
       0.09463366 1.0009345 0.3068454 0.10946884
000050 04 1b 9f 3c 13 58 59 bf c8 6d 19 3f 06 1e d8 3e
       0.019422062 -0.84900016 0.5993314 0.42210406
000060 8f 69 13 3e d9 55 2c bf 0b 6c af 3e 91 b3 08 bf
       0.14395736 -0.67318493 0.34262118 -0.53398997
000070 56 16 39 be 72 9d 04 be 9a bc 1f bf 05 ec 76 3e
       -0.18074927 -0.12950686 -0.6239716 0.24113472
000080 fd 2d 5b 3e 74 96 2c 3f 8e c7 f7 3e 86 c6 8b 3f
       0.21404262 0.67417073 0.48394436 1.091996
000090 7d 3c f0 bd 1a b2 19 bf 65 6a 34 3f 43 3b 21 3f
       -0.11730287 -0.60037386 0.70474845 0.6298105
0000a0 9d 1e df 3e d1 b1 f5 3a 8e 44 94 3c 72 68 69 be
       0.43578044 0.001874501 0.018099096 -0.22793749
0000b0 54 b6 24 be 19 45 f3 bd ed be 2d be 81 8f 7c be
       -0.16085178 -0.11878414 -0.16967364 -0.24664117
0000c0 1b 8a 26 3e e1 3b c0 bf f1 39 02 bd c7 7a a3 3d
       0.1626362 -1.5018274 -0.03179354 0.07982402
0000d0 75 b9 34 3e 07 56 28 3f 9d 63 89 3c b3 c7 e6 be
       0.17648871 0.6575627 0.016771132 -0.45074233
0000e0 c6 8f c2 be 86 a9 d6 be 38 10 28 be 7a 36 ba be
       -0.38000315 -0.4192621 -0.16412437 -0.36369687
0000f0 3a 5c da bd fe ea 54 3e 2f b4 3e be 80 23 59 3e
       -0.10662122 0.20792767 -0.18623422 0.21204948
000100 a6 33 e9 be 67 ef 69 bf b3 ec f2 be 34 85 b4 3e
       -0.45547217 -0.91380924 -0.47446212 0.35257876
000110 7b 93 45 bc b4 4a 35 3f 26 a0 cb be c1 cb a1 be
       -0.012059088 0.7081711 -0.3977062 -0.31600764
000120 64 99 0b bf 2b 22 ac 3f 5a a7 97 be cb af a6 3d
       -0.5453093 1.3447927 -0.29619867 0.081389986
000130 69 2f 1f 3d 00 b1 4d 3d a1 17 2a 3f 17 05 10 bf
       0.038863573 0.05021763 0.66442305 -0.56257766
000140 bc 79 b8 be 61 f1 c2 be c6 1c 97 be 39 a9 2a bf
       -0.36030376 -0.38074782 -0.2951414 -0.66664463
000150 be 5c aa 3d 1f ac c6 3e 2f 43 58 bf d5 f7 dd be
       0.083184704 0.38803193 -0.84477514 -0.43353143
000160 08 e6 92 be a5 c3 fd 3d ac 30 02 3d c1 90 2b 3e
       -0.28691125 0.12390832 0.0317847 0.16754438
000170 84 a5 4b 3b 64 4e 4b be 6a b7 e4 3d e9 2b b2 3e
       0.0031073997 -0.19854122 0.11167796 0.34799126
000180 b5 72 38 3e fd 99 01 c0 20 d8 18 be 8b b1 1e be
       0.18012507 -2.0250237 -0.14926195 -0.15497415
000190 e6 3d 3b be e2 bb b4 be 69 b5 7e 3d d5 3e 53 be
       -0.18285331 -0.35299593 0.062184725 -0.20629437
0001a0 72 fe 40 3c 9c 4d 8f 3d 7e f6 00 3e 7a 72 04 3f
       0.0117794145 0.06997225 0.1259403 0.5173718
0001b0 c8 10 0d be cb 22 79 3e 8d 77 52 3e 04 4c c9 be
       -0.13775933 0.24329679 0.20553418 -0.39315808
0001c0 02 91 85 be 96 ac 22 3e 6a b2 72 be 1e 15 d1 3e
       -0.26087195 0.15886149 -0.23700872 0.40836424
0001d0 55 52 0f be 1b db a0 bd 59 02 25 3e 3c 00 ed 3d
       -0.13996251 -0.07854291 0.16114177 0.1157231
0001e0 d8 e8 29 bf fb 1d 26 3f cd 1b 03 3c 42 ba 9d be
       -0.66370916 0.64889497 0.008002234 -0.30806166
0001f0 36 c4 2c be 0d af 43 be 9e 5a eb bd 2c be 96 be
       -0.16871724 -0.19109745 -0.11491893 -0.29441965
000200 8b 7b d9 bd a0 5c 5f 3e 2a 6d 47 3e 3a c9 98 3e
       -0.10619267 0.21812677 0.19475237 0.29841024
000210 18 33 3a be 89 34 68 bd 28 42 05 be d7 5a ad 3d
       -0.18183553 -0.056690726 -0.13013518 0.08464592
000220 21 44 b4 bc e6 76 22 3e 07 6b 5c bd 62 b2 02 3e
       -0.022005143 0.15865669 -0.053813007 0.1276336
000230 3e 9a 4f be f9 df 3f be 74 df 0e be 25 4a 7b 3c
       -0.20273682 -0.18737783 -0.13952428 0.015337502
000240 e8 97 27 3d 79 0a b8 bf 45 92 d1 bd bf 3c 95 3d
       0.040916353 -1.4378196 -0.10232977 0.07286977
000250 eb 7f 55 3e b9 64 31 3f 0b e2 66 bd 3d bc 1a bf
       0.20849578 0.69294316 -0.056367915 -0.6044348
000260 36 61 d7 be 02 38 de be ef 62 21 be c6 f8 14 be
       -0.42066354 -0.43402106 -0.15760396 -0.14548025
000270 37 30 fc bd 95 be a2 3e bd 3c 00 be 28 98 2b 3e
       -0.12313884 0.31786028 -0.1252317 0.16757262
000280 e6 74 df be e1 f4 62 bf 0a 85 0f bf 2a c1 c8 3e
       -0.43643874 -0.88654906 -0.56062376 0.39209872
000290 fe b8 06 3e b2 20 41 3f af b2 c6 be 45 f2 a3 be
       0.13156506 0.75440514 -0.388082 -0.32020774
0002a0 d7 ff 14 bf 45 20 c1 3f e9 c1 b1 be f9 5b d3 3d
       -0.5820288 1.5087973 -0.34718254 0.10320277
0002b0 04 01 60 3d 77 62 91 3b db 20 14 3f df e3 1a bf
       0.05468847 0.0044367868 0.57862633 -0.60503954
0002c0 27 95 bb be f2 70 c7 be cc 6e 8c be 3f c0 4a bf
       -0.36637232 -0.38953358 -0.2742828 -0.79199594
0002d0 87 b7 7b bb 56 f9 f7 3e 87 87 66 bf 29 d6 fa be
       -0.0038408951 0.48432416 -0.9005055 -0.48991516
0002e0 f3 a4 d4 be 93 d6 42 3e da 45 94 bd f9 99 62 3e
       -0.41532096 0.19027166 -0.07239886 0.22129048
0002f0 f1 d5 d1 bc 98 1f 2f be 75 6a 01 3d af df ac 3e
       -0.02561471 -0.17101896 0.031595666 0.33764407
000300 6d 11 f1 3d 45 a5 bd bf e6 ed 48 3b c9 e1 eb 3d
       0.11770902 -1.4816061 0.0030659377 0.115176745
000310 85 e9 24 3e 0a a9 30 3f f3 a8 d1 bb 15 b0 1c bf
       0.16104706 0.69007933 -0.006398314 -0.6120618
000320 1b 6a c3 be 09 95 e5 be a4 53 32 be 12 71 a2 be
       -0.3816689 -0.44840267 -0.17414719 -0.3172689
000330 2f 14 b4 bd cb 94 85 3e 6d 1c 17 be 6c 6d 55 3e
       -0.08792912 0.26090083 -0.14756937 0.20842522
000340 a4 cd d8 be f1 11 72 bf d9 23 06 bf ec 41 b6 3e
       -0.4234439 -0.94558626 -0.5239845 0.3559717
000350 ad 17 03 3e 28 51 3d 3f e1 91 c6 be ca 1c 8e be
       0.12802 0.7395196 -0.38783172 -0.2775634
000360 a5 b4 3b bf 5f 95 b9 3f fe bd ac be de c7 a9 3d
       -0.73322517 1.449871 -0.33738703 0.08290075
000370 cd 18 a4 3d bc 4c ca bd 76 10 14 3f ec b2 14 bf
       0.08012543 -0.09877917 0.5783762 -0.58085513
000380 64 ef b3 be 42 9d c7 be 52 a7 8f be ce 47 4b bf
       -0.35143578 -0.38987166 -0.28057343 -0.7940644
000390 75 5e 0b bd 77 2f ea 3e 15 28 5b bf 31 0b f6 be
       -0.034025628 0.45739338 -0.85608035 -0.48055413
0003a0 d4 99 bf be 28 76 1d 3e f4 e0 fb 3d bd 43 7d 3e
       -0.3742205 0.15377104 0.12298766 0.24732871
0003b0 83 a6 25 bd c4 ea 30 be d8 34 88 3d 47 19 ad 3e
       -0.040442 -0.17277056 0.06650704 0.33808348
0003c0 33 da 5d 3e 6e 82 1d c0 8f a7 d0 bd c0 62 89 be
       0.21665268 -2.4610858 -0.10188209 -0.26833153
0003d0 de 13 d2 be 43 dc 7f bf 18 b2 04 3e 78 b2 b7 3e
       -0.41030782 -0.9994547 0.12958562 0.35878348
0003e0 a3 c4 c3 3e cd 49 e9 3e ff 5c 84 3e 1c e6 3a 3f
       0.3823596 0.45564118 0.258522 0.7300737
0003f0 f7 29 a6 bd 05 8d 28 3b 73 f3 aa 3e 61 6f 1d bf
       -0.08113473 0.002571882 0.33388862 -0.61498076

fc_smart.bias f4 [64]
000000 98 5f 83 bd b5 1f ae 3d ad cc ea 3c e8 9f 32 bd
       -0.064147174 0.085021414 0.02866205 -0.04360953
000010 08 e2 e1 bd 5a 1a e3 bd 46 90 29 3d 65 1a b1 bd
       -0.1102944 -0.110890105 0.041397355 -0.086476125
000020 7d a9 78 3d 26 67 ba bd 21 ed d4 bc 1d 9f 32 3d
       0.06070851 -0.09101705 -0.025991978 0.043608773
000030 d6 05 45 bd 6a 5e 92 bd 0f 3b 8a bd 5a 82 c8 bb
       -0.04810127 -0.07146914 -0.06749546 -0.0061190547
000040 28 f5 74 3d ba 89 41 3c e0 b0 b7 bd fd ef a8 bd
       0.05980411 0.011812622 -0.08969283 -0.08248899
000050 48 9b 29 3d 90 0f d7 3c 4e e5 3e 3d 7e 71 6d 3c
       0.041407853 0.026252538 0.0466054 0.014492391
000060 3d 53 02 3d d6 55 97 bc b0 6b 97 bd 4c ba 04 bd
       0.031817663 -0.018473547 -0.07393587 -0.03240423
000070 60 9a 9d 3d 1e 0b 16 3d b5 f4 64 3d e3 0d 34 bd
       0.0769546 0.036631696 0.055897433 -0.043958556
000080 04 20 30 bd 5c 98 b8 bb 7c 3a 48 bd 1e 86 41 bd
       -0.042999282 -0.005633397 -0.0488839 -0.047247045
000090 7c 02 94 bd 87 8f c6 3c 6b f4 05 3c 42 9f ae bc
       -0.07227036 0.024238361 0.00817595 -0.021316174
0000a0 78 29 91 3c ed 2d bb 3d 15 00 d8 bd a4 98 3b 3c
       0.01771997 0.09139619 -0.10546891 0.011449967
0000b0 f2 da 26 bd 42 88 09 be aa c5 92 3c 48 2a 6a bd
       -0.040736146 -0.13430884 0.01791652 -0.05716923
0000c0 5d e3 0d 3c 59 5f 71 3d f1 2b fd bd 66 74 5a bc
       0.008660165 0.05892882 -0.12361897 -0.013333416
0000d0 7a 9b d1 3b 85 4d db bc 65 a4 d2 bc f0 92 63 3a
       0.006396708 -0.026770363 -0.025713155 0.0008681258
0000e0 dd 09 c0 3d 7f 55 67 3c f9 ee 9f bd aa 6a 1d bd
       0.09376881 0.014119505 -0.07809252 -0.0384318
0000f0 69 9a 06 be d5 0a b1 bd b3 6c e2 3c 9f 5d 6e bd
       -0.1314484 -0.08644644 0.027639722 -0.058194753

network_aging.lstm.weight_ih_l0 f4 [128, 5]
000000 19 18 e9 bd 3b da c6 3d 09 43 64 3e e6 d6 30 3e
       -0.113815494 0.09709593 0.22291197 0.17269477
000010 83 fb 45 3e ae 28 b0 3d b3 48 05 be f7 5e b4 bd
       0.19334225 0.08601509 -0.13016014 -0.088071756
000020 93 7b 05 3e 25 2b 17 be c7 75 2f 3e c3 38 4c 3e
       0.13035421 -0.14762552 0.17134772 0.19943528
000030 e7 56 97 bd bd c1 c3 bd 91 9b 8e 3c ac 45 30 3e
       -0.07389622 -0.09558437 0.017408164 0.17214078
000040 38 80 d7 bd 27 76 b4 bd fc d7 19 3d 74 69 0a 3e
       -0.10522503 -0.08811598 0.037559494 0.1351679
000050 ef b1 35 3e 8e b7 d5 bd 3a 10 3a 3e 57 71 b8 bd
       0.17743658 -0.10435401 0.18170252 -0.09005993
000060 aa b0 49 bd b2 a6 ea bd 7a 88 44 3e e2 31 3d 3d
       -0.049240746 -0.11457576 0.19192687 0.04619015
000070 06 78 35 3d 3d 68 ba 3d 00 cf d3 3d e7 f8 ca bd
       0.044303916 0.09101913 0.103422165 -0.099107556
000080 7a 58 32 3e 01 8a c3 3c 99 ed b0 3d ff bc bc 3d
       0.17416564 0.023869516 0.08639068 0.09215736
000090 e0 2c db 3d f6 9e f6 bd c3 84 b2 bd 5f 7b 79 ba
       0.107019186 -0.12042038 -0.087167285 -0.000951698
0000a0 98 67 69 3e 7a 1e e4 bd 32 9b 53 bd 53 eb a2 3d
       0.22793424 -0.111386254 -0.051661678 0.07955041
0000b0 1a 8f 1a 3e 8e 38 1e bd ca 6f 33 3e dc 59 37 bd
       0.15093651 -0.038628154 0.17523113 -0.04476343
0000c0 72 09 ed 3c 40 aa 22 bd 0d 4a 78 bd 99 32 ea 3d
       0.028935168 -0.039713144 -0.060617495 0.11435432
0000d0 09 0c ea bc 20 e5 1d 3e 5a 0d 23 3e 60 08 88 bd
       -0.028570192 0.15419436 0.15923062 -0.066422224
0000e0 a1 87 44 3e ed 5f a4 bd bd c3 89 3d d7 57 05 bc
       0.19192363 -0.08026109 0.06726787 -0.008138618
0000f0 bd 7d 25 3e e8 eb 02 3e 87 a7 fa 3d da 6b c8 3d
       0.16161247 0.12785304 0.122389846 0.09786196
000100 0c a3 45 3e b7 64 99 3d a5 fb 9e 3d 6d 95 c1 3c
       0.19300479 0.07489913 0.07762841 0.023630822
000110 af d3 13 be 89 c7 de 3d 6a 1f 34 3d ed e8 89 bd
       -0.1443622 0.10877902 0.04397527 -0.0673388
000120 5e 98 5c bd 93 5d 3a bc f1 e8 0b be 13 f8 67 3d
       -0.053856246 -0.011374849 -0.13663079 0.056633066
000130 3c f6 32 bd 6f e6 4d 3e 75 c8 80 3d 53 43 c6 bd
       -0.04369186 0.20107435 0.06288234 -0.0968081
000140 4c b0 e4 bd 37 a1 52 3e 0c 55 6a bd 07 4c 92 3d
       -0.111664385 0.20569311 -0.057210013 0.07143407
000150 42 b9 df 3d a9 4e 6c bd 9d e2 52 3e 80 9a d5 bd
       0.10924007 -0.057692204 0.20594259 -0.10429859
000160 ee 4c bc bd d0 8a 42 3e 82 fc 91 bd e4 98 c1 3b
       -0.09194361 0.18998265 -0.0712824 0.0059081186
000170 d1 5a 7a bd 1e 84 d2 bc eb c9 ce 3b a6 46 52 bd
       -0.061121766 -0.025697764 0.0063106916 -0.051336907
000180 22 3f 5f 3d 2d 8f 3a 3c 0e d2 2d bd 72 87 20 bd
       0.054503568 0.011386675 -0.042436652 -0.03919167
000190 25 72 14 be 82 34 10 bd 7a 32 26 be ed dd 31 bd
       -0.14496668 -0.035206325 -0.16230193 -0.043424536
0001a0 dc 41 1a bd 2a d7 ee bd b8 c4 3a bc 02 35 48 3e
       -0.037660465 -0.11662133 -0.0113994405 0.19551471
0001b0 46 1c 72 3d 6c 4c 63 bd 75 10 6a 3d ab 67 26 3e
       0.059108995 -0.055492803 0.0571446 0.16250484
0001c0 1f e4 0b be 19 26 19 bd eb 06 6a bd 4c b6 81 3d
       -0.1366124 -0.03738985 -0.057135504 0.063335985
0001d0 fb f6 d2 3c b7 80 a2 3d 3a 4a 7b bd ac 5c f8 3d
       0.025752535 0.07934707 -0.061350085 0.12127051
0001e0 1a 92 03 3e b6 88 87 3d 00 b3 41 3e 19 ad c7 3c
       0.12848702 0.066178724 0.1891594 0.024374532
0001f0 94 7e cd 3d f3 da a1 3d 19 8b c1 bb fe 87 4b 3e
       0.100339085 0.079030894 -0.0059064743 0.19876096
000200 74 5d a3 bd 63 36 fc bd 9e 25 a6 3d cd df 44 3d
       -0.07976809 -0.12315061 0.08112644 0.048064996
000210 f0 23 1b 3e 7f 44 e9 bd 7a 28 13 be 9c 27 03 be
       0.15150428 -0.11390018 -0.1437091 -0.12808079
000220 10 25 f4 3d 1b 56 f2 bd 81 f1 ae 3a 89 f9 e8 3d
       0.119211316 -0.118328296 0.001334712 0.1137572
000230 cd 39 cf 3c 77 9b d0 3c 24 7f be bd 18 e9 d2 bd
       0.025296116 0.025464756 -0.09301594 -0.10298365
000240 74 e0 0b 3c 9c 85 ad bd 9b a3 a2 bd 1d 6e 8f 3d
       0.0085374005 -0.084727496 -0.079413615 0.07003424
000250 ec 04 86 3d af d5 3d bd b6 60 23 3e 1e 57 e6 bd
       0.065439075 -0.046346363 0.15954861 -0.11247085
000260 32 57 2b 3e 35 a7 2c bd 1b ab 36 3d 02 bb da bc
       0.16732481 -0.04215165 0.044596773 -0.0267005
000270 01 ff 57 3e 2a ce 1d 3e b2 6d dc 3c 5f 2a f3 bd
       0.2109337 0.15410677 0.026907776 -0.11873316
000280 a0 96 f5 3c cc 0d ef bd b8 4b b6 3c a1 18 27 bd
       0.02997905 -0.116725534 0.022252902 -0.040794972
000290 71 1f a1 3d 4f be ce bd fe 3f 3c bc a0 6f 0a 3e
       0.07867325 -0.10094892 -0.011489866 0.13519144
0002a0 82 1d a5 bd c7 54 10 3e e0 7b db 3d d8 9e d1 bd
       -0.08062269 0.1409484 0.10716987 -0.10235375
0002b0 b4 e7 94 bd d8 31 c8 3c 67 11 7d 3d 51 6f 0e 3e
       -0.07270756 0.02443783 0.061784174 0.13909651
0002c0 6b e1 54 3d 7c e2 04 bc 6e 2a 56 3e 1a a5 54 3e
       0.051972788 -0.008110639 0.20914623 0.20766106
0002d0 b0 cc 89 3d 79 aa 0a 3e 65 01 c9 3d a0 e4 15 3e
       0.06728494 0.13541593 0.09814719 0.14637995
0002e0 cb e3 08 be db 91 01 3e 9a b6 36 3e 72 6d e5 3d
       -0.13368146 0.12653296 0.17843094 0.11202516
0002f0 0f af f8 3d 62 95 1c 3e 91 fc 2c 3d 51 7f 32 3e
       0.12142765 0.1529136 0.042233054 0.1743138
000300 3b a0 46 3e e2 f5 0d bd 14 e0 3e 3e 6f 03 89 3d
       0.1939706 -0.03465832 0.18640167 0.06690108
000310 8c e1 cb 3d 53 11 7f 3d b2 77 fc 3c da 7b f9 bd
       0.09955129 0.06227238 0.030818794 -0.12181826
000320 8b 0b 94 3d 62 7a 5e 3e b8 50 4c 3e fe 72 0a 3d
       0.07228764 0.21726373 0.19952667 0.03380107
000330 25 69 19 3e a4 04 0f bd 66 2b 25 3e 0c 68 07 3e
       0.14981516 -0.034916535 0.16129836 0.13223284
000340 93 66 d9 3d d6 1c 79 3d 72 5f e4 3c 9e 85 65 3e
       0.106152676 0.060818516 0.027877543 0.22414252
000350 07 86 3f 3c f8 f8 11 3e 50 a8 0c 3d 19 6a d1 3d
       0.011689669 0.1425513 0.034340203 0.10225315
000360 3d 61 e6 bd 8f 3a 5e 3e 95 78 37 3e 2a d5 5c bd
       -0.112490155 0.21702026 0.17917092 -0.053914227
000370 0e 11 2c 3e aa 5b c6 bd 6d ff 95 3c 5a e1 cf 3d
       0.16803381 -0.09685452 0.018310273 0.10150404
000380 f7 dc 28 3e da e6 6d 3d 38 0d 53 bd 00 61 8d 3d
       0.16490541 0.058081485 -0.05152628 0.06903267
000390 ff 8a 10 3e a4 b7 4f bd 77 d5 b1 bd 56 73 38 3e
       0.14115523 -0.050712243 -0.08683293 0.18012747
0003a0 d2 cc 82 bd 6f 05 c0 bd 68 58 57 3c db a0 ad 3b
       -0.063867226 -0.093760364 0.013143636 0.0052987165
0003b0 37 55 d2 3d fa 1c b8 3d 97 41 29 3e 54 45 fe bd
       0.1027016 0.08989902 0.16528927 -0.12415567
0003c0 13 c1 51 3d 4f 7d c5 3d 17 b8 90 bc d0 61 8e 3c
       0.05120952 0.09643041 -0.017665906 0.017380625
0003d0 2c 03 e5 3d 3d 5c 3d 3e b8 8d a8 3d c7 48 d0 bd
       0.111822456 0.18492217 0.08230156 -0.10170131
0003e0 c0 fd 89 bd 19 86 6d 3d 3e bf 4f 3e 40 2e 4c 3e
       -0.06737852 0.057989214 0.20287797 0.19939518
0003f0 a6 ca f2 3d 8a f0 2b bd 95 d0 96 bd ab 24 d7 bd
       0.11855058 -0.041977443 -0.073640026 -0.10505041
