trained_model/mc1_mc2/60_days_lookahead/pnet_checkpoint/pnet_online_2750.pth (torch, 545278 bytes, 36 tensors)

network_smart.layer1.0.weight f4 [128, 330]
000000 a8 c9 29 3d 06 5f 24 3c b5 ab d0 3e bb 86 13 be
       0.04145208 0.010032421 0.40756002 -0.14406864
000010 7d 75 80 40 fb 24 63 be b8 2a 24 c0 86 be 75 bc
       4.014342 -0.22182076 -2.5651073 -0.014999038
000020 05 55 9d bd 2a 64 7e 40 e7 fe ea 3f b6 d3 14 bd
       -0.07682232 3.9748635 1.835904 -0.036334716
000030 bf fe 1e bd 6e fe e5 3e 0a 07 da bd 33 03 82 40
       -0.038817164 0.44920677 -0.10645874 4.0628905
000040 e5 ec 66 be 5c 89 27 c0 b4 36 46 bd e2 34 6d be
       -0.22551306 -2.6177588 -0.048392013 -0.23164704
000050 0a 9e 80 40 81 bb e5 3f 8b 5e 42 bd 9f 56 ff 3b
       4.019292 1.7947847 -0.047453444 0.0077923085
000060 ef e8 2d 3f 28 a9 2e be ef 99 76 40 95 a3 32 be
       0.67933553 -0.17056715 3.8531454 -0.17445214
000070 38 c1 24 c0 ea 48 01 bd 41 db 72 3e 36 63 79 40
       -2.5742931 -0.031563677 0.23716451 3.8966804
000080 6a 72 f1 3f 2f cb f8 3a 01 e7 86 bc 37 1a 26 3f
       1.8863041 0.0018981452 -0.016467573 0.6488375
000090 f2 5e 2a be be 2e 77 40 62 51 f5 bd 0e e8 2a c0
       -0.16637781 3.862228 -0.11978413 -2.6704135
0000a0 ac 48 ca 3b e8 a2 37 be c6 50 78 40 49 3d ef 3f
       0.006173214 -0.17933238 3.87993 1.8690578
0000b0 de 22 1c 3b 24 bc 63 3d a4 97 f0 3e fb 9d 45 be
       0.0023824493 0.055599347 0.46990693 -0.19298546
0000c0 3f 8c 72 40 18 01 3e bd e6 2d 21 c0 63 dc 64 bd
       3.78981 -0.04638776 -2.5184264 -0.05587424
0000d0 9f d4 0e 3e e5 85 75 40 44 24 ee 3f 1c 67 2e 3d
       0.13948296 3.8362973 1.8604817 0.0425788
0000e0 71 53 29 3d 15 51 ed 3e ad 08 34 be a5 76 78 40
       0.04133934 0.46350923 -0.17581435 3.8822415
0000f0 ca 83 52 bd e3 52 23 c0 53 83 39 bd 02 e1 0f bd
       -0.051395215 -2.551934 -0.045291256 -0.035126694
000100 e5 73 78 40 15 fb eb 3f 22 e9 3c bd df b6 e7 3c
       3.8820736 1.8435999 -0.04612077 0.028285442
000110 5a 67 2b 3f e0 af 85 bd 9e fd 73 40 6f e2 21 bc
       0.66954577 -0.06527686 3.8123546 -0.009880646
000120 2c 19 23 c0 f0 dc b0 3c 7d 89 24 3e 49 c8 75 40
       -2.5484114 0.021589726 0.16068073 3.8403494
000130 2a 14 f5 3f 42 ea 17 bd 6e 5a 74 3d a7 a0 04 3f
       1.9146779 -0.03708864 0.059656553 0.51807636
000140 6c 12 a8 bd 87 43 74 40 15 5d 36 bd ac 44 21 c0
       -0.08206639 3.8166215 -0.044522364 -2.5198164
000150 5f 87 9d 3d 9b 9e ea 3e bd 5f 74 40 2c 03 fb 3f
       0.076918356 0.4582413 3.8183434 1.9610343
000160 b3 ad 04 3d 9d c2 69 3c 44 8e 87 3e 8f ea cf bd
       0.032392215 0.014267591 0.26475728 -0.101521604
000170 af 29 73 40 5a c8 0d bc 99 8a 23 c0 5f 1d eb 3c
       3.7994192 -0.008653725 -2.5553343 0.028700529
000180 0c d1 f2 be 94 c8 76 40 ce 43 f3 3f d9 01 45 3c
       -0.47425115 3.8559923 1.9005067 0.012024366
000190 b3 bf fa 3d 78 e4 78 3e 33 f0 11 be 4e 4e 75 40
       0.12243595 0.24305904 -0.14251785 3.8329043
0001a0 47 69 83 3c b6 35 21 c0 6a ac f3 bc 10 90 bd bd
       0.016041411 -2.5189033 -0.0297453 -0.09255993
0001b0 f9 6e 78 40 d7 be fb 3f fa b7 02 bc b7 f7 33 3d
       3.8817732 1.9667615 -0.007978434 0.04393741
0001c0 75 23 ad 3e 61 55 a0 bd 98 6f 6e 40 a2 20 2a bd
       0.33816114 -0.07828785 3.7255611 -0.041535027
0001d0 be 14 22 c0 d3 7a af 3d b4 2d 60 3e 88 cc 6d 40
       -2.532516 0.08568349 0.21892434 3.7156086
0001e0 9b 98 f4 3f 93 51 66 3c 7f 8b 37 3d 4e aa 44 3e
       1.9109071 0.014057535 0.04481077 0.19205591
0001f0 b8 b8 e3 bd 94 22 69 40 46 a0 30 3b 23 43 24 c0
       -0.11119217 3.6427355 0.0026951 -2.5665977
000200 e8 15 8d 3d 11 15 51 3e 73 4f 6c 40 79 e4 fb 3f
       0.06888944 0.20418192 3.6923492 1.9679099
000210 4d 28 ba bc a9 c3 86 3d ad e9 bf 3c a7 d1 98 bd
       -0.022724295 0.06580288 0.023426855 -0.07461863
000220 37 39 69 40 37 2e 06 bc 59 97 24 c0 ec 32 9e 3d
       3.644117 -0.008189729 -2.5717375 0.07724556
000230 b0 ac 88 bd dc 98 6b 40 0f 6f 05 40 ae 6b c8 bb
       -0.066735625 3.6812048 2.0849035 -0.006116352
000240 3b d2 e0 3d 59 8f 71 3e eb c6 9d bd 5d d1 70 40
       0.10977598 0.23589839 -0.07703956 3.7627785
000250 b5 26 1b 3d be c8 23 c0 a4 b3 fd 3d ca 1d 2e 3e
       0.03787871 -2.5591273 0.12387779 0.17003551
000260 52 4c 74 40 0d 08 14 40 59 15 46 3d e9 1d 12 3e
       3.8171582 2.3129914 0.048360202 0.14269222
000270 f9 94 5b 3e 4e 94 cd bd cd 68 78 40 12 6d 3a 3d
       0.21443547 -0.100380525 3.8813965 0.045514174
000280 13 84 20 c0 d1 43 f3 3d 3b 79 f1 3d 68 38 73 40
       -2.5080612 0.11878169 0.11790701 3.8003178
000290 e4 e3 14 40 ab 84 0b bd bd 8c 53 3d a9 7f 6f 3e
       2.3264093 -0.03406207 0.05164789 0.23388542
0002a0 fd 20 29 be c6 eb 7c 40 64 92 a1 bc 71 6a 22 c0
       -0.1651649 3.9518905 -0.019723125 -2.5377467
0002b0 1c 77 e7 3d 59 cc 40 3c 4b 54 7c 40 0c 05 1d 40
       0.11302015 0.01176747 3.9426448 2.453433
0002c0 41 f3 c6 3b 3a 83 00 3e a2 57 2c 3e 79 30 1b be
       0.0060714786 0.12550059 0.16830304 -0.1515521
0002d0 70 8f 81 40 1d a7 cf bc 2c 69 25 c0 2d 44 26 3e
       4.0487595 -0.02534824 -2.5845442 0.16236944
0002e0 dc 95 28 3d 47 10 82 40 06 da 21 40 97 b3 02 bd
       0.041158542 4.064487 2.528932 -0.03190955
0002f0 2b 14 19 3e 84 b2 2d 3d 7b 10 d9 bd 94 2e a5 40
       0.149491 0.042406574 -0.105988465 5.161936
000300 4d 3d 3c 3d 78 b1 24 c0 9b 4f dc 3d 56 1d d3 3e
       0.0459569 -2.5733318 0.10757371 0.4123332
000310 0d d3 a6 40 c7 0d 35 40 df 29 28 3c 02 53 00 3e
       5.213263 2.828966 0.010263889 0.12531665
000320 ba bb 8c 3e db 61 23 be 78 e1 a6 40 81 0e 58 3d
       0.27486974 -0.15955298 5.215023 0.052748207
000330 68 8c 26 c0 00 d2 eb 3d f4 46 bb bd 2d 7f a9 40
       -2.6023197 0.11514664 -0.091443926 5.2967744
000340 77 2b 3f 40 b9 28 09 3d b2 fe ec 3d e2 8d da 3e
       2.987028 0.0334861 0.11572017 0.42686373
000350 c2 12 13 ba 26 8c a8 40 92 2a 9d 3c a2 4f 26 c0
       -0.00056104 5.267108 0.019185338 -2.5986104
000360 49 c9 dc 3d 45 d9 62 3e 04 de a6 40 89 0c 46 40
       0.107805796 0.22153194 5.2146015 3.094515
000370 c7 c4 17 bd 9a bc e8 3d 94 cb bf 3e e0 fa 07 be
       -0.037052896 0.11364098 0.37460005 -0.13279295
000380 17 d8 93 40 8d 9c 0f bb ab e5 26 c0 a5 79 02 3e
       4.620128 -0.002191338 -2.6077678 0.12741716
000390 f5 07 f6 3d 7d 26 96 40 e7 6b 65 40 62 f7 09 3d
       0.120132364 4.6921983 3.5847108 0.03368319
0003a0 fa 23 f5 3d ae f8 96 3e 64 75 4d bd 92 94 97 40
       0.119697526 0.29486603 -0.05016078 4.736886
0003b0 9b 6e 8d 3d 76 1d 27 c0 43 0f 3b 3e c6 7d 01 3e
       0.06905862 -2.6111732 0.1826754 0.12645635
0003c0 e2 1b 98 40 fa 44 81 40 32 0a 06 bd 73 43 62 3e
       4.7534037 4.03967 -0.032724567 0.22096042
0003d0 43 fc 8c 3e 57 dc 8a bd bb f7 a2 40 5b 2a 9e 3d
       0.2753621 -0.06780308 5.0927405 0.077229224
0003e0 83 dc 25 c0 ae d2 1e 3e 64 dd 48 bc d8 c1 a2 40
       -2.591584 0.15510055 -0.012259815 5.0861626
0003f0 bb b4 86 40 9d ef 6a 3c 72 0b 1d 3e 50 e6 32 3e
       4.209562 0.014339355 0.15336397 0.1747067

network_smart.layer1.0.bias f4 [128]
000000 a1 bc 3c bd 84 2d 8c bd 0d e8 f4 3d 93 cf 27 be
       -0.046078328 -0.06844619 0.11958323 -0.16387777
000010 26 80 0f 3e ca e6 9f be e1 79 90 3d 1f 4d 32 3c
       0.14013728 -0.31230766 0.070544966 0.010882645
000020 5b 93 a2 bc 85 ca cc bd d6 07 ff 3c 66 86 84 bd
       -0.019845655 -0.09999565 0.031131666 -0.06470947
000030 54 24 cd bd f8 0c b6 bd db 6b 19 be b4 ba 25 be
       -0.10016695 -0.08889192 -0.1498255 -0.16184503
000040 5a b2 b2 be c2 ac 21 be c4 9b 1d bb b2 d7 90 3e
       -0.34901696 -0.15788558 -0.0024049142 0.28289562
000050 81 37 92 bc 8a 1f 90 3d c9 16 ee 3d dd e3 18 bd
       -0.017848732 0.070372656 0.1162544 -0.037326682
000060 0c 54 59 3e 13 ae d9 be 78 3c 6b 3e 9a 12 e6 bd
       0.21223468 -0.4251562 0.22972286 -0.11234017
000070 b0 6d 13 bc 20 58 e6 bb f9 9d a9 3d e0 fa cb 3d
       -0.0089983195 -0.0070295483 0.08282084 0.0995996
000080 d0 88 e5 3d 82 b5 69 3e 3c 28 db bd 08 68 3c 3e
       0.112077355 0.22823146 -0.107010335 0.1839906
000090 f9 01 37 3e db 93 f1 bd 1f b3 59 3e eb 99 47 bc
       0.17871846 -0.11795779 0.21259736 -0.012182693
0000a0 32 04 9d bd bc f9 56 3d 3d 96 1e 3e ae 2d f7 bc
       -0.07666816 0.05248426 0.15486999 -0.030173149
0000b0 b2 b2 aa bc 35 c9 6f 3e f7 1f fa 3c e0 40 e4 3d
       -0.020837162 0.23416598 0.03053282 0.111451864
0000c0 6c f1 d9 bd ce a3 14 3e 3d 6c 3a 3e c4 b5 a4 bb
       -0.10641751 0.14515612 0.18205352 -0.005026551
0000d0 38 9f 01 3e 2e a1 0e 3e de 15 17 bd c2 38 55 3e
       0.12658393 0.13928673 -0.03688609 0.20822433
0000e0 7f 2f 2c bd 61 ab 69 3b 88 77 8d bc 42 75 6b 3c
       -0.042037483 0.0035655128 -0.017268911 0.014371218
0000f0 d9 16 c2 bd bf a9 55 3c 6a 50 64 be e7 13 2b 3d
       -0.09477014 0.013040959 -0.222963 0.041767027
000100 18 d6 66 be 95 95 13 3e 13 9e 37 3e b5 d8 d5 be
       -0.22542608 0.1441253 0.17931394 -0.41766897
000110 f6 1a ab 3d 42 a2 36 bd e0 fc 20 3e ec a9 f3 bc
       0.08354752 -0.044588335 0.15721464 -0.029744111
000120 b4 96 3e 3e 48 28 1d 3e da 5a 3c be a2 c2 2a bd
       0.18612176 0.15347397 -0.18394032 -0.041689523
000130 9e e5 24 3e a0 27 3d bc b7 22 e3 3d a0 2d b7 bb
       0.16103217 -0.011545092 0.11090606 -0.0055901557
000140 40 77 00 3e 0a 89 3e be cc 9b 22 3e 12 6e 66 3d
       0.1254549 -0.18606964 0.15879744 0.056257315
000150 8c f6 34 3e 25 ec af be ba 7b 79 3e 03 fe 01 be
       0.17672175 -0.3435985 0.24363604 -0.12694554
000160 86 c9 33 3e 3d a0 d1 3d 5d 60 16 bd c3 41 1e 3d
       0.17557344 0.10235641 -0.036712993 0.038636934
000170 8b b6 62 3d d8 ed 60 3d b7 05 31 3e c2 b2 0c 3e
       0.055349868 0.054914325 0.17287336 0.13740066
000180 7d 2c 00 3e 12 f1 f9 bd fa 6a 1e 3e 5a ff 40 3d
       0.12516971 -0.12204184 0.15470496 0.047118522
000190 5c 7c ca be de c4 1a 3e e9 e1 87 bd ce 07 80 3a
       -0.39548004 0.15114161 -0.06634886 0.0009767951
0001a0 24 1c b4 3c 70 c8 db be 42 c5 15 3e bb 6c 0e 3e
       0.021986075 -0.4292636 0.14626029 0.13908665
0001b0 12 b6 fc b8 52 a4 9b bb 38 0d 11 3e a4 3b b4 3d
       -0.000120502096 -0.004749813 0.14165199 0.08800438
0001c0 63 f2 09 bd 52 5f 82 bc fa 34 a4 3c 83 d0 8a bc
       -0.033678424 -0.015914593 0.020044792 -0.01694513
0001d0 0f 17 e4 ba 42 c0 0c be 94 11 41 3e e1 84 47 3b
       -0.0017401892 -0.13745216 0.18854362 0.0030444192
0001e0 55 d3 af 3d 09 de a7 3a 2d e0 cd 3d c1 93 c9 be
       0.0858523 0.001280726 0.10052524 -0.3937054
0001f0 77 58 64 bd b1 c3 44 bd 7b 99 30 3e ca fb 14 3e
       -0.05574843 -0.04803819 0.17246048 0.14549175

network_smart.layer2.0.weight f4 [128, 128]
000000 5c ce 05 3e 13 0c 84 3c d3 30 e7 3c 7f 5c 31 bf
       0.13067001 0.016119039 0.028221523 -0.6928176
000010 b7 20 7f 3d 21 6e 65 be a6 89 95 bd cf 2c 83 3d
       0.06228706 -0.22405292 -0.07301645 0.06405031
000020 fc 34 0a bc c7 36 6c 3e 3d 76 ed 3d be 7e e0 3d
       -0.008435484 0.23067771 0.11594818 0.10961674
000030 34 81 00 bd 15 33 b3 bc 45 94 d2 bd 84 90 5a 3e
       -0.031373218 -0.021874944 -0.102821864 0.21344191
000040 75 13 97 3d 47 3a 25 be 42 35 17 bd 8f 8d 5a 3d
       0.07376758 -0.16135512 -0.036916025 0.053357657
000050 8b 94 56 3b 8d 84 6d 3d 9b f5 4b 3e 68 8c a5 bd
       0.0032742347 0.05798774 0.1991791 -0.08083421
000060 a2 95 d3 bd af 40 27 3a c8 10 3f 3e 85 08 bc 3c
       -0.103312746 0.0006380183 0.18658745 0.022953281
000070 5d 81 78 bd 91 3a 7b bf 94 f6 a8 be 86 45 97 bd
       -0.060670245 -0.9813624 -0.33000624 -0.073863074
000080 89 16 b4 3d d6 5e a1 3d 80 30 20 3d 1f 1d 1f 3e
       0.08793361 0.07879417 0.039108753 0.15538453
000090 dc 44 ab 3d f3 85 ec be 3c 26 ba bc 38 65 2f bd
       0.08362743 -0.46195945 -0.02272331 -0.04282114
0000a0 b0 04 56 3d f8 82 8b bd 68 88 a9 bd 7b 69 81 bd
       0.052250564 -0.0681209 -0.082779706 -0.06318947
0000b0 9f 7f 99 3d 0b df cf bd d5 7e 22 bf c9 59 bd be
       0.07495045 -0.10149964 -0.6347478 -0.36982563
0000c0 48 19 1a be 73 d1 af 3e 8a e3 a1 3c b9 d3 d2 3d
       -0.15048707 0.34339485 0.01976182 0.10294289
0000d0 64 32 39 be 55 b0 35 be bb 47 80 3d 67 c3 30 3e
       -0.18085629 -0.17743047 0.062636815 0.1726204
0000e0 ac 5a aa bd 98 c8 2e be 44 86 fb 3d 50 45 07 3e
       -0.083180755 -0.17068708 0.122814685 0.13210034
0000f0 6e 8f e6 3c 1d d9 17 be d6 02 1e 3f 93 43 b8 3d
       0.028144564 -0.14828916 0.6172308 0.08997264
000100 1f 00 23 be 04 fe 8e bc 11 f0 4b bd fb d6 06 bf
       -0.15918015 -0.017455108 -0.049789492 -0.52671784
000110 4e bb 88 be 15 f4 61 bd f7 4d bb 3c c4 40 9c 3d
       -0.26705402 -0.055164415 0.022864325 0.076295406
000120 15 42 6d bc e5 8a 0a ba 48 f3 81 3d ae 76 9d bc
       -0.014481087 -0.0005284979 0.0634523 -0.01922163
000130 7c 0a 32 3d ea 3d 31 bd 4e e4 c7 bc 93 f0 50 3d
       0.04346703 -0.043271936 -0.024400856 0.05101068
000140 45 ed e3 bd 93 54 97 3d 86 b6 75 3d 1d 04 72 3d
       -0.1112924 0.07389178 0.05998852 0.059085954
000150 c3 fa e6 bd 38 a3 86 3e 86 5f 6b 3e e5 5b 16 3b
       -0.11278298 0.262964 0.22985658 0.0022942957
000160 b9 26 57 3e 4b b3 cc bc bd 0f 0c bd ab ec e5 bd
       0.21010865 -0.024987837 -0.034194697 -0.112267815
000170 22 f2 86 bd e1 0e d2 3d 94 3c 1b be f5 70 19 be
       -0.06589152 0.10256744 -0.15159827 -0.14984496
000180 ab ae a2 3d 2a e3 04 3c 88 ff 17 3e fd 48 93 bc
       0.079434715 0.008110801 0.14843571 -0.01797914
000190 58 74 cb bf 13 db c8 3c b5 b9 03 be 4a 64 22 bd
       -1.589488 0.024518525 -0.1286381 -0.039646424
0001a0 a8 ed c7 3d 56 3c a5 3e aa 5b 6b be 31 dd e3 bc
       0.09762126 0.32272595 -0.22984186 -0.027815433
0001b0 e8 93 b4 be 2f a5 a3 3c 3e ce 62 bd d6 80 94 be
       -0.35269094 0.019976227 -0.05537247 -0.29004544
0001c0 cc a8 90 bd f1 89 33 bd 7a e4 83 3d 0f 6c 15 bc
       -0.070634454 -0.043832723 0.06440063 -0.009120001
0001d0 37 f9 11 3d fe 6e fa bc 1f 73 a1 3d e8 87 9a 3d
       0.03563806 -0.030570503 0.07883286 0.07545453
0001e0 15 f3 0d 3d 8f 52 fb 3d b7 7d 68 be 5c e4 76 3d
       0.03465565 0.12271606 -0.22704206 0.060276374
0001f0 84 22 82 3d 11 6a e7 3d bd ca 70 3d fc e8 93 3d
       0.063542396 0.112995274 0.058787096 0.072221726
000200 d2 fa 00 3d aa 69 c2 3d a3 2e bb bc 8a ae 7a bf
       0.0314892 0.0949281 -0.022849387 -0.97922575
000210 9c 28 82 bd 01 a8 b6 be 4a 56 c9 bd 1b 03 2d bc
       -0.06355402 -0.35675052 -0.098309115 -0.010559822
000220 ad 8a aa 3d 94 a9 08 3d 1d 9a a8 3e ab 02 b7 be
       0.083272316 0.033364847 0.3293008 -0.35744223
000230 76 a4 a3 bd 02 36 3c bd 43 e4 18 be e4 a6 74 3e
       -0.07990353 -0.045949943 -0.14930825 0.23891789
000240 e0 81 87 bd 0e e1 e2 3d 9a 50 59 be 18 05 ab 3d
       -0.066165686 0.11078082 -0.21222153 0.08350581
000250 fb 95 ab 3c eb 8d 84 be 49 c6 ca bd c1 bf 93 3d
       0.02094554 -0.25889525 -0.09901101 0.072143085
000260 6d 97 a1 bd 1f e8 35 bd 09 a4 fc 3d 88 91 b1 3d
       -0.0789021 -0.04441082 0.12335975 0.08670336
000270 1a 3c d6 3c f2 00 1d be aa 7f bd be 23 6b 92 3d
       0.026151706 -0.15332392 -0.37011462 0.07149341
000280 81 d8 4b 3e 27 56 00 3e 7d e7 ad 3c 06 c9 f8 bd
       0.19906808 0.12532865 0.021228546 -0.12147717
000290 69 b8 8d 3e 2c 9d fd 3e db ac 25 be 23 aa 69 3d
       0.27679756 0.49533975 -0.1617922 0.05704702
0002a0 43 15 05 3b f4 d6 03 bf e6 27 45 bd 39 83 d9 3d
       0.0020306862 -0.5149987 -0.048133753 0.10620732
0002b0 67 8e be be fb ff db bc db 08 77 be f0 7d 2e be
       -0.3721802 -0.02685546 -0.24124472 -0.17040229
0002c0 40 89 3d 3d 62 24 06 be 2d df 8e 3e a5 da 3a 3d
       0.04627347 -0.13099816 0.27904645 0.045618672
0002d0 e4 f3 be bd f8 99 b9 bd 5b 15 12 bd ed a1 b2 3d
       -0.09323862 -0.0906257 -0.035664897 0.08722291
0002e0 42 aa 82 bc 5e d5 47 be 62 4c f1 3d b4 f0 49 be
       -0.015950326 -0.19514987 0.11782147 -0.19720727
0002f0 94 fa ba 3d 6f 6b 9d be b6 88 1d 3f b5 ab 8a 3d
       0.09129825 -0.30746028 0.6153673 0.06771032
000300 9d 41 3a 3e 12 11 dd 3c 5b 34 8b bc a1 0b da be
       0.18189092 0.026985679 -0.016992738 -0.42586997
000310 b8 87 25 3e 7e 98 77 bd 3d 36 82 3d 7e 0d 20 bd
       0.16165054 -0.060448162 0.063580014 -0.039075367
000320 b3 5f e4 bc ed 8b 72 3e e6 36 1b be dd c0 5c bd
       -0.027877664 0.2368619 -0.15157661 -0.053894866
000330 87 05 da bc 17 68 a7 bd 45 3d a1 bb 3a 16 84 bd
       -0.026613964 -0.081741504 -0.004920634 -0.06449552
000340 85 71 db be 7e 8d 3f 3e 34 d5 18 3f eb 1b 03 3d
       -0.42860046 0.18706319 0.5970032 0.032009047
000350 2e c1 12 be 8d 86 1b be c2 8a 6d 3d 12 91 81 3e
       -0.14331505 -0.15188046 0.057993658 0.25305992
000360 9b e7 40 3e 48 4b 08 bf cf 31 34 3c 52 11 71 bd
       0.1883835 -0.5323987 0.010998203 -0.05885441
000370 01 68 43 3d 53 3c b6 3d f2 91 51 3d cf 02 1e 3e
       0.047706608 0.08898225 0.051164575 0.15430759
000380 82 1b e9 3d 93 26 cf bd 34 da af 3c 90 14 9f 3c
       0.113822 -0.10114779 0.021466352 0.019418985
000390 83 c3 43 bf 57 56 0a be 86 b0 8d bd a2 03 0c 3d
       -0.764702 -0.13509499 -0.06918435 0.034183152
0003a0 41 1d bc bc ff 27 98 3e 48 45 58 3e 14 bb 97 bd
       -0.022963168 0.29718015 0.21120179 -0.07408729
0003b0 ad 6a b8 3e 56 bb 94 3d 24 b7 0f bd 9c eb 59 3d
       0.36018887 0.07262294 -0.035086766 0.05320321
0003c0 6c 0f 99 bd e6 61 96 bd c2 3b 70 bd c1 06 4e 3d
       -0.074736446 -0.073428914 -0.05865074 0.05029941
0003d0 22 1f 24 3e 6b fa 52 3d ae e2 88 3c d8 15 4d bc
       0.16027501 0.05150835 0.016709652 -0.012517415
0003e0 b4 09 01 3e 8f 6e 8e 3d 02 c6 f8 bd 72 c2 0c 3e
       0.12601358 0.06954681 -0.12147142 0.1374605
0003f0 d8 9b 2a 3d 54 3a cd bd 88 a9 14 3e 74 e7 ed be
       0.04165253 -0.10020891 0.14517796 -0.46465647

network_smart.layer2.0.bias f4 [128]
000000 bc fc 80 3d d4 be 37 3d 3c 0b ea bb 2a 29 ad 3d
       0.06298205 0.044859722 -0.0071424525 0.08455117
000010 10 9d f3 3d 27 24 8e 3d 40 18 ed 3b 44 db c7 3d
       0.11895192 0.06940489 0.007235557 0.097586185
000020 c7 f8 84 be b8 e3 f3 3d 51 c0 37 3c 45 fe e1 bd
       -0.25971052 0.11908668 0.011215285 -0.11034826
000030 cb 36 19 3d c1 10 d1 bd ea fd 6c 3d 1c 24 be bc
       0.03740577 -0.10208274 0.05785934 -0.023210578
000040 4a 88 97 be 19 82 aa ba 22 9e 49 bb a3 f7 31 be
       -0.29596168 -0.0013008743 -0.003076442 -0.17379622
000050 ef 6d 88 bd 29 62 b5 bc 7c b6 a0 3c 22 32 91 be
       -0.06661593 -0.022141533 0.019618265 -0.2835856
000060 52 4c b4 3d 8e 90 7c 3d fe 84 53 3c 62 3a 7e 3d
       0.088036194 0.061661296 0.012910126 0.062067397
000070 c6 cd c6 ba 7c ba ff bc 2f 4a 98 3c b4 c5 36 3c
       -0.0015167526 -0.031216852 0.018590061 0.011155535
000080 3a c0 05 3e 93 2b 0c bb 2f 13 c2 3b d2 f5 8a bd
       0.1306161 -0.0021388277 0.005922697 -0.06785168
000090 db 59 39 bd 0b a7 03 be 04 a6 1f be 2f b1 f4 bd
       -0.04525171 -0.1285669 -0.15590674 -0.119478576
0000a0 f8 b8 21 3d d0 9c a7 bc d1 dc 2f bc 3b cf fd bd
       0.03948304 -0.020460516 -0.010733799 -0.12393042
0000b0 86 53 28 be 81 87 cf bb f3 0d 67 bd 9f 31 7b 3d
       -0.16438112 -0.006333292 -0.056409787 0.06132662
0000c0 c2 1d 36 bd 69 3b cc 3d 66 ae 81 bc 37 bc d1 3b
       -0.044461973 0.09972269 -0.01583023 0.006400611
0000d0 74 5e 5e 3d 69 74 13 3d 81 4c 0b bd 66 3d 9d 3d
       0.054289296 0.03599969 -0.034008507 0.076777264
0000e0 74 56 2d bd d6 04 94 3d c1 24 90 bd 64 d1 b9 bd
       -0.042318776 0.07227485 -0.0703826 -0.09073141
0000f0 83 b6 81 3d 8b b2 f3 3d c6 4a 0b 3c ae de 09 bc
       0.063336395 0.11899289 0.008501714 -0.008414907
000100 90 53 ee 3d ea 4a 3a 3d 74 71 67 be c6 85 29 3d
       0.11637032 0.0454816 -0.22601873 0.041387342
000110 eb c4 81 bd 40 d8 9d bc 96 49 ac 3d 02 f2 8a bd
       -0.06336387 -0.019268155 0.08412473 -0.067844406
000120 e5 9b 49 be ca ef 98 be 26 db 12 bd 45 c0 94 3d
       -0.19688375 -0.29870445 -0.035853527 0.07263235
000130 db 53 01 3e 5a 1f 4a bd f2 c5 ca bd c6 8e 82 3d
       0.12629645 -0.049346305 -0.09901036 0.06374888
000140 83 0e 62 bd e2 6c f0 bd ca 3f 3c 3d 9f bb 0e 3d
       -0.05518962 -0.11739518 0.04595927 0.0348469
000150 6f d3 2b be c6 49 9b 3c ed 5b c6 bd a0 19 a5 3c
       -0.16779874 0.018956076 -0.09685502 0.02015382
000160 24 ab 91 bd 79 4f 13 be 16 79 1c be d8 69 92 bd
       -0.071127206 -0.14385785 -0.15280566 -0.07149094
000170 16 7a 27 3d a8 8d 9f bc 9e a8 91 3d 9e 75 c5 bd
       0.040887915 -0.019476727 0.07112239 -0.09641574
000180 6f d5 e3 3d e8 29 33 3e 66 71 26 bc 6e ac 92 bd
       0.111246936 0.17496455 -0.010158872 -0.071617946
000190 0c c1 12 3d 7c e0 b2 bd 5e 01 69 bc 20 eb df 3d
       0.035828635 -0.08734223 -0.014221517 0.109335184
0001a0 d4 0b be bb db eb 98 3d e8 dd f8 bc b9 c1 85 be
       -0.00579975 0.07466861 -0.03037925 -0.2612436
0001b0 ca 14 07 3d 89 0b d5 3d 56 e5 89 3d 45 a3 8f bc
       0.03297881 0.10402591 0.067331955 -0.017533908
0001c0 00 6a b4 3d b5 c3 10 bd 31 7c c6 bd 17 f7 30 be
       0.088092804 -0.03534289 -0.096916564 -0.17281757
0001d0 3b 0d 9c bd 75 fb 3e bd 9e 00 dc 3d 20 68 85 be
       -0.07619711 -0.046626527 0.10742305 -0.26056004
0001e0 a1 f1 c5 bd 75 dd ae 3d 1b e6 a3 bd d1 2a 8c 3c
       -0.09665228 0.08538333 -0.080028735 0.01711026
0001f0 ec 96 4b 3d ff d5 25 bd 77 a7 e6 3c 5e c5 87 bc
       0.049704477 -0.040487286 0.028156025 -0.016573604

network_smart.layer3.0.weight f4 [48, 128]
000000 96 6b f0 3d 8b ca 35 3e 49 5f 34 be 63 86 41 bd
       0.117392704 0.17753045 -0.17614473 -0.0472473
000010 7a 1c fe bc ae 4c 90 3e 35 d5 7a be 86 13 39 be
       -0.031019438 0.28183502 -0.24495395 -0.18073854
000020 b6 f0 d8 bd a5 98 8c be b5 54 9f 3e 1a 7a c5 3d
       -0.10592787 -0.2746021 0.31119314 0.0964243
000030 87 c8 69 3d 45 1f 77 3e 23 09 49 bd 8e 8e 22 3e
       0.057076003 0.24133022 -0.04908098 0.15874693
000040 ec b0 68 bf e5 ea 97 3b d9 bf 17 be 4c de b2 3b
       -0.9089496 0.004636156 -0.14819278 0.0054586288
000050 43 0e 5f bc 0e 5c 4a 3b 0f b7 c0 bc 88 0d 7a bd
       -0.01361424 0.0030877623 -0.02352479 -0.06104806
000060 5a 88 71 3c 8e 67 4b be 0d 7c 8a bc 22 f5 aa be
       0.014741981 -0.19863722 -0.016904855 -0.33390146
000070 65 80 e4 be e4 36 66 be e6 96 32 bd 25 de 93 3d
       -0.44629207 -0.22481877 -0.04360094 0.07220105
000080 bd 55 8f bc 6f b0 24 bf b9 6e cc 3d fc f7 5f be
       -0.017496938 -0.64331716 0.09982056 -0.21871942
000090 7f 08 43 be 6b 7d 57 3c a7 8d 18 3d 69 dc d9 bf
       -0.1904621 0.013152461 0.037244465 -1.7020389
0000a0 d2 34 4c bd 9c ac 48 3c 13 db 47 be 68 b9 13 bc
       -0.04985506 0.0122481845 -0.19517164 -0.009016372
0000b0 45 74 b5 3e 26 79 cb bd 1e ce 17 bf 65 95 00 3d
       0.3544027 -0.099352166 -0.59298885 0.031392474
0000c0 b0 41 db bd 3e 0e 38 3e dd a4 85 3e c3 c9 d4 3c
       -0.10705888 0.17974183 0.26102343 0.025975114
0000d0 b0 f5 56 3c 12 2d cd 3d 0a 52 3d 3e 57 a0 18 3e
       0.0131201 0.10018362 0.18488327 0.14904915
0000e0 2a 19 1a bc 3b 2b 5d be cf 7e d7 ba 90 4e 69 3e
       -0.009405414 -0.21598522 -0.001644099 0.22783875
0000f0 70 7f 85 be 1f b1 9d 3c cf be 85 3e d2 ec 8c 3c
       -0.2607379 0.019249497 0.26122138 0.017202768
000100 93 72 ff 3d 9a aa ba 3c 5c 69 cc 3d 51 9a 4f be
       0.12473025 0.022786427 0.09981033 -0.20273711
000110 0b 7a 42 be f4 c8 fa 3c 17 0a 52 bd b6 8e db 3d
       -0.18991868 0.0306134 -0.051279154 0.10720579
000120 ed b6 1a bf 04 06 1a c0 d9 b1 e3 bc b4 0d 15 3d
       -0.6043537 -2.4066172 -0.027794765 0.03639002
000130 70 7f 81 3d 59 51 dd 3c fc 2f cc bd 7f 53 61 bc
       0.06323135 0.027016329 -0.0997009 -0.013752817
000140 ad aa 1e bd e9 1f 41 3e f6 d3 a9 3b bc 83 a2 3e
       -0.038736988 0.18859829 0.0051827384 0.3174113
000150 32 6e a0 be f6 f7 8d 3d dc e8 4c 3f 46 3a 16 3e
       -0.31334072 0.069320604 0.80042815 0.14670667
000160 ac 1f b7 3d 2b ea 4c be 1c f1 5d 3f d7 85 72 bd
       0.08941588 -0.20011203 0.8669603 -0.05920967
000170 74 78 27 3c 9f 5e e5 3d 23 37 5f 3d bf 36 3f 3c
       0.010221589 0.11199688 0.05449594 0.011670767
000180 bf e4 26 3c 76 f2 05 3d 10 0c 7f bf 32 b8 8d 3d
       0.010186373 0.032701932 -0.9962778 0.06919898
000190 4e d3 3d bd 40 45 62 bd c6 5a e1 3d ca 77 cb be
       -0.046344094 -0.055241823 0.11003642 -0.3973983
0001a0 fc db dd 3d 7d d4 18 be 58 5c a6 be d4 30 7e c0
       0.10832974 -0.14924808 -0.32492328 -3.9717302
0001b0 e7 c6 18 3d 8a 30 86 bc 02 be 09 be a2 04 9b be
       0.037299063 -0.016380567 -0.13451388 -0.30276972
0001c0 25 e1 9b bd 9f d8 0d be 55 0d e8 3c 17 3a c5 be
       -0.07611302 -0.13852166 0.02832667 -0.38520882
0001d0 8d 6f 63 be a0 bc 76 3d 3b ba 81 be 7a e2 04 3e
       -0.22210522 0.06023848 -0.25337395 0.12977019
0001e0 80 cc 18 3d 99 28 41 be 73 52 12 3c 5b 1b a3 be
       0.0373044 -0.18863143 0.00893079 -0.31856808
0001f0 64 43 f8 3d 68 18 e5 3d a8 9f 81 bb ed 01 1f bf
       0.12122229 0.11186296 -0.0039558 -0.62112314
000200 78 50 fc be 6d 01 40 bf 44 be 8e bc 7d 7b 91 3e
       -0.49280143 -0.75002176 -0.01742471 0.28414527
000210 67 dd 03 bf 31 9d 20 3e 6a e0 f0 3e e5 6b 0f bf
       -0.5150971 0.15684964 0.47046214 -0.5602401
000220 c8 de 1e bf 83 8d 40 3e 51 44 93 bf 69 f6 4a bf
       -0.6205869 0.18803982 -1.1505224 -0.7928224
000230 65 ef c0 be 72 86 97 3e e9 92 90 3d ad 52 fe 3a
       -0.37682644 0.2959476 0.07059271 0.0019403301
000240 d2 a5 24 3e bf f8 2b bd ed da 0a 3e c2 95 dc 3d
       0.1607888 -0.04198527 0.13560076 0.107707515
000250 9f 37 c8 bd 4a e6 af 3d 85 fb d1 be f4 55 ac 39
       -0.09776234 0.08588846 -0.41012207 0.00032870437
000260 53 c8 a0 3b 0f 29 6d c0 5c 0a fc be f0 09 bf 3d
       0.004906693 -3.705631 -0.49226654 0.09328067
000270 b0 25 75 3f 15 10 4a 3e 95 6d c4 3d f3 aa ed 3d
       0.9576063 0.19732697 0.095912136 0.116048716
000280 46 d6 03 be f2 7b 03 bf 7b be 26 be 62 8a 1a bf
       -0.12874708 -0.51361 -0.162836 -0.60367405
000290 7b d7 0a 3e 44 79 49 be d9 48 5a be 7b 7d 6d 3f
       0.13558762 -0.19675165 -0.21316852 0.92769593
0002a0 9d 9d 68 3d 7f 6d 8d 3d 6b 42 b2 be 37 03 6f 3e
       0.056790937 0.0690565 -0.34816298 0.2334107
0002b0 e6 fc 77 be 94 bb d5 bf d6 2b 20 3d 50 4b 18 3b
       -0.24217567 -1.6697869 0.039104305 0.002323825
0002c0 21 37 65 bd 3f 74 79 3e d5 1b 8b be 9f 87 c2 3e
       -0.05596078 0.2436075 -0.27169672 0.37994096
0002d0 0f f2 20 3e 36 8d 44 be 0b c5 b4 3c a3 59 bc bc
       0.15717338 -0.19194493 0.022066614 -0.02299196
0002e0 65 85 6c 3e 9c ce 99 c0 34 b6 54 bc 7e 99 14 3f
       0.23097761 -4.806471 -0.012982894 0.5804671
0002f0 94 e1 1f bd 60 10 6e 3e 49 83 0b 3f 3e 67 30 3e
       -0.039033487 0.23248434 0.544972 0.17226884
000300 ee 9d 73 bd 47 bb 62 bc dd a9 ec 3f d0 7a dc 3d
       -0.059476785 -0.013838596 1.8489338 0.10765612
000310 1a 93 b1 3e d5 3d 85 bd 52 e2 a0 3e c4 3d 41 be
       0.34682542 -0.06505934 0.3142267 -0.18871218
000320 37 d0 69 bb 72 d0 15 3d a6 3f 35 3d 64 1f 41 bc
       -0.0035677084 0.036575742 0.044250153 -0.011787269
000330 84 20 4e be ef 1e 0b bd 18 c8 d5 bd 13 95 6f be
       -0.20129591 -0.033965047 -0.104385555 -0.23396711
000340 ba f1 55 bd 44 57 18 be 23 ad 35 be b2 d7 f3 3e
       -0.05223248 -0.14877039 -0.17741828 0.476255
000350 7b 12 54 3d df 79 03 3e be ee 2c bf 13 80 80 be
       0.051775437 0.12839459 -0.6755179 -0.25097713
000360 b0 d7 d8 3d e5 5b 86 3d 76 23 30 3f 7b 58 89 3d
       0.10588014 0.06560496 0.6880411 0.067063294
000370 0c 6a 1d be 3c fd 13 bd 52 28 5f bd 66 8d 39 bd
       -0.15372485 -0.036130175 -0.05448181 -0.045300864
000380 4e 9f 24 3e e4 b1 5d 3d 86 30 17 c0 f7 5e 6b bd
       0.16076395 0.054124728 -2.3623366 -0.057463612
000390 aa 4a 28 3e 34 37 8d bd 31 68 0f 3e 43 92 aa 3e
       0.16434732 -0.06895295 0.1400459 0.33314714
0003a0 d1 65 95 3d f2 19 d0 bd b2 d5 97 3e 44 de 67 be
       0.072948106 -0.10161199 0.29655224 -0.22643381
0003b0 aa fb 34 3e ec e5 33 bf 67 37 02 be b4 b6 24 3e
       0.17674127 -0.7027271 -0.12716447 0.1608532
0003c0 88 67 42 3e cc fe 4f bf 4b 83 28 be 5f 20 ff 3e
       0.18984807 -0.81248164 -0.16456334 0.49829385
0003d0 ee 7b 82 bd 76 09 9a bd 74 44 20 be ef 8d af bc
       -0.06371294 -0.07521336 -0.15651113 -0.021429984
0003e0 d5 b8 02 bd e1 80 a9 bf cd 4d 90 bc 84 db a1 3d
       -0.03191455 -1.3242456 -0.017615223 0.079031974
0003f0 2b 1a 2c 3e 6c d8 19 be dd 39 b8 bd c3 91 e3 3e
       0.16806857 -0.15023965 -0.089954115 0.44447145

network_smart.layer3.0.bias f4 [48]
000000 46 dd ab 3d 45 b5 d8 3c cf 7a 3f bd b2 49 e3 3d
       0.08391814 0.026453624 -0.04674798 0.11098041
000010 88 5e b2 3c a8 f8 d2 bd d7 00 b8 bd b1 34 b4 bc
       0.021773592 -0.10301334 -0.08984535 -0.021997781
000020 46 37 46 be 29 cb c3 3d d3 b1 a4 3d 8d ad 70 bd
       -0.19357023 0.09560234 0.0804173 -0.05875926
000030 37 52 17 bd 3f d7 aa bd 87 d0 97 bd f0 5a 8b bd
       -0.03694364 -0.08341836 -0.0741282 -0.06804454
000040 c2 6a ba bd a4 1c 0e 3d 4f 0e 92 3d 19 c7 66 3d
       -0.09102394 0.034695283 0.071316354 0.056342218
000050 77 45 1b 3e 01 f1 2f 3d c3 a4 6e bd 8d 1d d4 3d
       0.15163217 0.04295445 -0.058262598 0.10357199
000060 49 f1 c2 3d f5 61 84 bc 07 07 83 3c 61 03 09 bd
       0.09518678 -0.01615999 0.015994562 -0.033450488
000070 2e b9 88 bd e0 27 32 3c 9c 45 f1 3d 4c 1f 1c 3d
       -0.06675945 0.010873765 0.11780855 0.038115785
000080 4c f9 00 be 40 c7 a5 bd 91 05 e9 bd 28 46 96 bd
       -0.12595099 -0.080946445 -0.11378015 -0.073376
000090 38 31 dc bd 73 1f 18 3e f9 ed a3 3d 0b 86 b3 3d
       -0.10751575 0.14855747 0.08004374 0.08765801
0000a0 1a 8b f7 3d e9 26 26 be ac ea a3 bd f8 80 04 be
       0.120870784 -0.1622578 -0.080037445 -0.12939823
0000b0 fc bc 9e 3d 92 1d 85 3d cd bb af 3d 77 ac 34 bd
       0.0775089 0.06499781 0.08580742 -0.044109788

fc_smart.weight f4 [64, 48]
000000 8d 92 72 bd 4a 79 ea 3f 8d 05 4a 3f 64 7c e9 3d
       -0.059221793 1.8318264 0.7891472 0.11400679
000010 e9 75 20 3e e7 a0 26 3e 42 5b 1f bd 3b 32 55 be
       0.15669979 0.16272317 -0.03890539 -0.20819943
000020 66 6f ac bd 97 d4 97 3e 66 ad 6b 3e 3e f5 28 3d
       -0.08419685 0.2965438 0.23015365 0.041249506
000030 f6 94 07 3e ed 73 0d 3e c0 41 fb bc 7c aa 18 3e
       0.13240418 0.13813753 -0.030671 0.14908785
000040 17 f7 0e bf 76 43 fd 3b 44 e8 99 bd e2 67 e9 3e
       -0.5584578 0.0077289892 -0.07515004 0.4558707
000050 98 02 af bd 32 13 35 3f a6 08 ec bd 9a b4 1a 3e
       -0.085454166 0.70732415 -0.11525087 0.15107957
000060 99 9b c1 3e 46 fe 02 3e 1b 57 52 3e e7 8d 3b 3d
       0.37814024 0.1279231 0.2054104 0.045789625
000070 0c c3 ad 3d 19 a1 8e 3d 0a d0 a1 be 3c 11 08 bd
       0.08484468 0.06964321 -0.31604034 -0.03321956
000080 89 aa bb 3f 7e 21 d0 be 17 02 8d be ab 79 b2 3d
       1.4661418 -0.40650553 -0.27540657 0.087146126
000090 cd 86 9c 3e 79 20 02 3f 1f 06 56 be d7 6c b6 be
       0.30571595 0.508308 -0.20900773 -0.35629913
0000a0 64 3a 31 be 1c 61 31 bf 6a ca ac 3e ed 6b c6 3c
       -0.1730743 -0.692888 0.3374818 0.024221385
0000b0 83 2d b2 bd f8 5b ac 3e 33 8c 2c 3e b5 e6 d1 3c
       -0.08700087 0.33663917 0.16850357 0.025622705
0000c0 32 b4 06 bf cd e4 ec 3e fc 3f af 3e ac f9 31 3f
       -0.52618706 0.4626831 0.34228504 0.69521594
0000d0 d4 28 5e 3f d6 0f 32 be 53 60 69 3d 83 1a cc ba
       0.8678105 -0.17388853 0.056976628 -0.0015571866
0000e0 7c 5d 95 be 8e b8 aa be 2f 46 50 3f 76 de dc 3c
       -0.29172885 -0.3334393 0.8135709 0.026961546
0000f0 01 8e d4 be 45 f1 e4 3e 00 4b 3c 3f b2 1d 70 3e
       -0.4151459 0.44715324 0.7355194 0.23448828
000100 a1 da 8d bf 3a 63 9d 3c f8 b8 c7 bc 13 88 97 3f
       -1.1082345 0.019212354 -0.024380192 1.1838402
000110 c2 de 66 be 9c 72 a0 3f 4c 78 ef be 21 12 88 bd
       -0.22545913 1.2534976 -0.46771467 -0.06644083
000120 80 a1 31 3f ad 92 80 3e d5 49 15 3f 2e ec ab 3e
       0.69387054 0.25111905 0.58315784 0.33578628
000130 51 5f 01 c0 41 a7 7d bc b4 a9 07 bf 0a 02 51 bf
       -2.0214427 -0.015481771 -0.5299332 -0.81643736
000140 64 44 6a 3f 76 96 ed be d0 6d a5 3e 50 5e 27 3c
       0.91510606 -0.46403855 0.32310343 0.010215357
000150 60 c7 84 bf 46 8b 1b 3f bf 3e 10 be 7b e0 55 3d
       -1.0373344 0.6075939 -0.14086436 0.052216034
000160 b9 d9 47 be 04 f2 37 be fa 61 ed 3e 00 a9 35 3d
       -0.19516648 -0.17963415 0.46363813 0.044350624
000170 98 2c 5f be db 4b f0 3e 8d 33 22 bd 0a da fa bd
       -0.21794355 0.46932873 -0.039599944 -0.12248619
000180 91 c2 f5 bd 6b 84 d7 3f 3a c6 52 3f 3f de 36 3e
       -0.12000001 1.6837286 0.8233372 0.17858218
000190 e1 ed 28 3e 2f 02 d2 3c f3 ab f4 bd a6 13 bd bd
       0.16496994 0.025635807 -0.11946859 -0.09232263
0001a0 e5 cd df bd ab 21 8b 3e 52 d8 9f 3e 08 9e f6 bd
       -0.10927943 0.27174124 0.31219727 -0.12041861
0001b0 aa 62 ce 3d e4 1c 31 3e c8 2d b8 3c dd 72 1a 3e
       0.100774124 0.17296177 0.022482768 0.1508288
0001c0 82 68 21 bf 1b 7a bc bc 55 a9 6c 3c 26 f2 0c 3f
       -0.6305009 -0.023007443 0.014444669 0.5505699
0001d0 23 5c b7 bd c7 f9 45 3f ee b7 16 be 82 b1 e0 3d
       -0.089531206 0.77334255 -0.14718601 0.10971357
0001e0 e4 6e e0 3e b7 a6 1a 3e 66 6c 80 3e b1 7f b5 3d
       0.43834603 0.15102659 0.250827 0.08862246
0001f0 40 6f 5d be 1b cc e3 3d 1a 15 b7 be b3 f2 dd bd
       -0.2162447 0.111229144 -0.35758287 -0.10837307
000200 6e cc c5 3f b8 8e e7 be 25 35 88 be 39 07 79 bd
       1.5453012 -0.45226073 -0.26603046 -0.060797904
000210 54 d6 36 3e f3 da 07 3f f8 70 4a be 29 8f b5 be
       0.17855197 0.53068465 -0.19769657 -0.35460785
000220 f7 20 41 be b0 99 47 bf ed 32 be 3e ee 79 c6 3c
       -0.18860231 -0.77968884 0.37148228 0.024228062
000230 a0 36 ad bd e1 20 c6 3e df 5a 39 3e 92 4b 03 be
       -0.084576845 0.3869696 0.18101071 -0.12821797
000240 b7 a0 cc 3e 77 83 02 bf 59 71 00 bf f9 36 03 bf
       0.39966366 -0.5098185 -0.50172955 -0.51255757
000250 b3 8c 04 bf 49 18 c6 3d 90 96 ca bd ae 8f 27 be
       -0.5177719 0.09672601 -0.09891999 -0.16363403
000260 92 f8 58 3e ca 47 cf 3d dd 0b 25 bf c8 0c c2 bd
       0.21188572 0.101211146 -0.64471227 -0.09475094
000270 d6 f8 60 3e c8 40 a5 be de fc e2 be a6 85 37 be
       0.21969923 -0.32275987 -0.44333547 -0.17922077
000280 df 64 69 3f 43 56 21 bd 5a 3e 89 bd ab d5 6e bf
       0.9116954 -0.039388906 -0.06701346 -0.9329478
000290 22 02 10 3e 17 84 80 bf 21 11 a7 3e e9 b3 81 3d
       0.14063314 -1.0040311 0.32630256 0.06333143
0002a0 a5 27 19 bf 0d 82 45 be e4 26 e9 be 60 75 84 be
       -0.5982612 -0.19287892 -0.45537484 -0.258708
0002b0 0a d2 c5 3f 89 fd 53 bd c2 b7 ec 3e c8 b6 11 3f
       1.5454724 -0.05175546 0.46233946 0.5691953
0002c0 1e 9f 90 bf a1 a7 e8 3e 2f 10 c8 bd b6 f2 6a 3c
       -1.1298559 0.4544039 -0.09768712 0.014340093
0002d0 06 a5 2f 3f 63 12 07 bf c1 3b 14 3e bf 63 c8 3d
       0.6861118 -0.5276243 0.1447592 0.0978465
0002e0 e5 56 4d 3e d7 06 00 3f 63 a1 d2 be 3c 3b 36 be
       0.20052679 0.50010437 -0.41138753 -0.17796034
0002f0 93 25 e7 3d 9e b6 e5 be 4e 30 9d bd f6 1e 99 3d
       0.112864636 -0.44865888 -0.07675229 0.074766085
000300 51 c3 0d 3f b7 d0 a2 bd 3d b9 f0 bd 08 5d 3c bf
       0.55376154 -0.079499654 -0.117540814 -0.73579454
000310 75 eb 7b bf a4 cf d2 bd e3 bf 00 3e e0 3c 3c 3d
       -0.98406154 -0.102935106 0.12573199 0.045956492
000320 36 4d 9a 3e d2 ed f8 3e d5 29 53 bf a0 2a 52 bd
       0.30137032 0.48618942 -0.82485706 -0.05131018
000330 24 7d 04 3f 6b a9 ec be f7 c1 5b bf ad aa 60 be
       0.5175345 -0.46223006 -0.8584284 -0.21940108
000340 b3 55 87 3f 42 12 68 3c 9b b7 06 3d 45 b5 96 bf
       1.0573028 0.014164509 0.032889944 -1.1774069
000350 1f e5 78 3e 8a e5 98 bf 7c cc 00 3f dd a3 c9 3d
       0.24306153 -1.194505 0.5031202 0.098457076
000360 17 b8 24 bf f2 f5 7f be 87 b1 15 bf 2b bf b4 be
       -0.643434 -0.24996164 -0.5847401 -0.353021
000370 3c 3e 0c 40 76 73 3b 3d af 0e f8 3e 82 a9 66 3f
       2.1912985 0.04576441 0.48448703 0.901024
000380 98 2b 02 bf 62 2b c2 3e e2 d8 f0 be 49 6f 0d be
       -0.5084777 0.37923723 -0.47040468 -0.13811983
000390 df 7b 9a 3f db 61 07 bf 11 5d ae 3d e1 20 40 be
       1.2069052 -0.5288369 0.08513845 -0.18762542
0003a0 a8 f8 19 3e 43 2e e1 bd 7b b6 d4 be 4e a5 9e bd
       0.15036261 -0.10995152 -0.41545472 -0.07746373
0003b0 b0 17 82 3e 03 87 cd be 94 b4 01 3e ba 19 f5 bd
       0.25408697 -0.40142068 0.12666541 -0.119677976
0003c0 e5 1e a0 3d 1a c5 f0 bf 2c b4 64 bf 00 79 0c be
       0.07818393 -1.8810151 -0.8933742 -0.13718033
0003d0 0a d0 1f be e2 4c e3 3c f3 71 af 3d 57 17 24 3e
       -0.15606704 0.027746622 0.08566656 0.16024528
0003e0 04 b4 c8 3d d9 91 a8 be 5f 43 8b be 6b cf 9d bc
       0.0979996 -0.32923773 -0.27199838 -0.019263944
0003f0 ae a1 13 be c2 75 21 be c3 45 04 3d 2a c1 22 be
       -0.14417145 -0.15767577 0.032293092 -0.15893999

fc_smart.bias f4 [64]
000000 0a 4a 9c 3b bb 2c 17 bd 0c d6 77 3d ba 28 13 bd
       0.0047695683 -0.036907893 0.060506865 -0.03592751
000010 0e f9 53 3d 5c ac 54 3c 4a 4c b2 3d 45 82 33 bc
       0.05175119 0.012980547 0.08705957 -0.010956352
000020 04 75 4f bb cd 79 82 bd e6 65 a5 3b 2b 16 66 bd
       -0.003165544 -0.06370888 0.0050475476 -0.056173485
000030 a4 f3 a5 bc 56 74 2a bd c5 d3 81 bb 4a 91 61 bd
       -0.020257778 -0.041614853 -0.0039620125 -0.0550702
000040 4b 72 89 bd 47 7e 0a 3e 57 d8 f1 bd 6a 84 6d 3c
       -0.06711253 0.13524733 -0.11808842 0.014496902
000050 66 14 93 3d 9b 62 84 bb a8 72 99 3d 31 b3 81 3c
       0.07181625 -0.004040075 0.07492572 0.015832515
000060 4c 96 1e 3d 2a 30 bc bc e6 25 a2 3b 01 7a b3 bc
       0.038717553 -0.022972185 0.0049483655 -0.021908762
000070 81 06 2b bd 87 39 81 bd ca b1 ba bd 9d 4c 39 bc
       -0.04175425 -0.063098006 -0.09115942 -0.01130977
000080 62 75 50 bd 78 c5 be bd a3 99 43 3d 9b a0 3a 3d
       -0.050893195 -0.09315008 0.04775394 0.04556332
000090 b3 ff be bc 4d 00 b7 bd 5f 18 26 bd 89 50 d4 3d
       -0.023315286 -0.08935604 -0.040550586 0.10366923
0000a0 94 65 98 bd 8e 74 b8 bc 17 93 d4 bc 85 3e 39 3d
       -0.074412495 -0.022516515 -0.025949044 0.04522564
0000b0 2f c9 04 3e 8f e3 04 bc c9 53 36 3d e9 94 0d bd
       0.1296737 -0.008110895 0.044513498 -0.03456584
0000c0 dc ae ab 3a 93 bf 32 bd 67 92 a0 3c 28 25 71 3d
       0.0013098377 -0.04363973 0.01960106 0.058873326
0000d0 9a 3b e4 bb ac ee 9e 3d 7f 13 99 3d 02 8b 6f bd
       -0.006965113 0.07760367 0.07474422 -0.058482178
0000e0 03 26 4e 3d 3d b0 66 3d 64 ca 28 bd fc de a9 bd
       0.05032922 0.056320418 -0.04120864 -0.08294484
0000f0 97 4e f0 bd cf d4 a2 bd 1a c1 00 bd 68 65 4b 3c
       -0.1173374 -0.07950746 -0.031434156 0.012414314

network_aging.lstm.weight_ih_l0 f4 [128, 5]
000000 25 5b 1f bd a8 44 01 be 7e ec 2b 3e d3 b3 04 3e
       -0.03890528 -0.12623847 0.16789433 0.12959222
000010 0d af fe 3d 7f fb 5a 3e 1a eb 19 3d fe 73 d9 bd
       0.12435732 0.21385 0.037577726 -0.10617827
000020 1c f5 16 3d 7f 06 c5 bd 5d 34 42 3e 73 cb 47 3d
       0.03685485 -0.0962038 0.18965288 0.04877801
000030 13 16 84 bd 75 76 df 3c 54 e0 fc bd f7 0c a1 bd
       -0.06449523 0.027278164 -0.12347475 -0.07863801
000040 dd 5f 26 3e 64 d2 06 3e db f4 e2 3d 8c 6c 85 3c
       0.16247506 0.13166195 0.11081859 0.01628711
000050 9b 4f 88 3d e7 d0 38 3e 25 e0 8e 3d b1 e6 31 3e
       0.066558085 0.1804844 0.06976346 0.17373158
000060 1e ba 5a bd 25 b1 66 3d d2 6e d1 bc 71 49 70 3b
       -0.05340015 0.056321282 -0.025565539 0.0036664868
000070 dc c8 08 3e 5d 6d 3e 3e 46 6b 37 3d 1e c5 b7 bd
       0.13357872 0.18596406 0.04478004 -0.08973144
000080 03 91 1f bd 17 a6 26 bd 75 8b 33 3e 90 dc 25 3e
       -0.038956653 -0.04068574 0.17533667 0.16197419
000090 ee fc 23 3e 6f ba ee bb 71 21 fa bd 40 31 ad 3d
       0.16014454 -0.007285408 -0.1221341 0.08456659
0000a0 cd 98 8d bd 10 01 f6 3d 50 d8 41 bd 46 e8 80 3d
       -0.0691391 0.120119214 -0.047325432 0.06294303
0000b0 4a c2 de bd c8 66 30 3e 19 e8 b6 3d 5f 3b db 3c
       -0.108769014 0.17226708 0.08930988 0.026761709
0000c0 1b 46 19 bd 81 e1 04 3d 53 be d0 bd 2f d1 b1 bd
       -0.037420373 0.03244162 -0.101925515 -0.08682477
0000d0 bb 4c ba 3d 5c 6c 53 3d f3 4a 45 3e d4 89 cf bd
       0.090966664 0.05161701 0.19266872 -0.101337105
0000e0 7f b2 56 3e 40 02 56 3e 18 9d 34 3d 54 ca 15 3e
       0.20966528 0.20899296 0.04409513 0.14627963
0000f0 2f 50 39 3e c5 21 ae 3b 67 73 0d 3e 25 ce d9 bd
       0.18096994 0.0053140842 0.13813554 -0.10635022
000100 35 71 90 bd fb 85 6c 3d 1d 53 84 3d d2 27 42 3e
       -0.070528425 0.05774496 0.06461165 0.18960503
000110 1c 9f 2f 3d e8 65 99 3d 38 e0 ec bd 3f 06 68 3d
       0.042876348 0.0749014 -0.11566204 0.05664658
000120 b2 7a 3b 3e da c3 23 3e 6a 5a 79 3d 81 64 c7 bd
       0.18308523 0.1599268 0.06087724 -0.097359665
000130 ab 8d 83 3d e2 2a 2d 3d c8 7e c0 3d 22 ef 87 bd
       0.064235054 0.042277224 0.093991816 -0.06637408
000140 15 bf f5 3d 98 47 94 3d 28 0c 3e 3e 7a 73 b0 bd
       0.11999337 0.07240218 0.18559325 -0.086157754
000150 fb e4 e5 bd 4d bd 66 3e 5e 54 5a 3e 2e f5 f9 bd
       -0.11225315 0.2253315 0.21321246 -0.122049674
000160 ff 9f f4 bc 34 b9 0a 3e 11 88 0a be bc bc 9c 3d
       -0.029861448 0.13547212 -0.13528468 0.07653186
000170 85 87 95 bd ee 3a e1 bd 5a 61 fd 3c 04 c7 9f bc
       -0.07301239 -0.10997568 0.03093021 -0.019504078
000180 38 43 8d bd 54 c9 8d 3d 8a e8 57 bc 88 74 fa 3d
       -0.068975866 0.06923166 -0.013178 0.12229258
000190 0d a5 da bd d4 6a 30 3e 63 ec 0a 3d b9 16 ae 3c
       -0.10676012 0.17228252 0.033916842 0.02125107
0001a0 2f 01 08 3e 29 a9 84 3c 10 5b 4a 3e 58 ce f2 3c
       0.13281702 0.016193943 0.197613 0.029639408
0001b0 6c 2d d6 bd ce 82 d3 bd 8e fa af 3d 81 70 06 3e
       -0.10457882 -0.103276834 0.085927114 0.13128854
0001c0 65 3f 0d 3e 5e 52 ff bd a0 dc 34 3e eb e8 ea 3d
       0.13793714 -0.12466882 0.17662287 0.11470207
0001d0 c8 e7 57 3d ba 44 fd 3c 8a 15 3c 3e 22 7e 96 3d
       0.05271128 0.03091656 0.18367592 0.07348277
0001e0 f7 bf f3 bd f8 5f 50 3e 8b b3 db bd 39 8c e6 3d
       -0.11901849 0.20349109 -0.107276045 0.11257214
0001f0 01 40 35 3e 15 b5 0f bd a1 b6 71 bd 7e 64 89 bd
       0.17700197 -0.035084803 -0.05901206 -0.067086205
000200 8a 36 82 3d 51 23 85 bd be 4a cf 3a 0b 16 c7 bd
       0.06358059 -0.06500877 0.0015815122 -0.09721001
000210 47 8e ac 3c a2 81 2a be ec 7e 09 3d 69 c5 df 3d
       0.021063937 -0.16651013 0.033568308 0.10926325
000220 36 e4 a3 bd d6 c5 a9 38 40 00 09 bd 46 68 9a 3c
       -0.08002512 8.095398e-05 -0.033447504 0.01884855
000230 5a 05 2c 3e 2e cd 44 bc 54 0e 60 3d 3b 28 1e 3e
       0.16798916 -0.012011809 0.054701164 0.15445034
000240 99 c1 69 bd 47 62 1e bd f1 55 9c bd 44 a5 2e bd
       -0.057069395 -0.038667943 -0.076335795 -0.04263808
000250 d7 b7 f9 bc 6a b7 32 3d 9e 2b 93 3d fb 4b c1 3d
       -0.03048317 0.04363195 0.07186054 0.0943832
000260 07 33 df 3d 19 4c 3e 3d ed d6 b8 3c 9c 1b 17 3e
       0.108984046 0.04645929 0.022563422 0.14756626
000270 f0 4c 5a 3d 2a 0f 44 3d 93 47 9b 3d ab 8c 20 3d
       0.05329603 0.047866024 0.07582011 0.03919665
000280 2e c6 09 bd c6 0d 04 3e 0c 4a 10 be eb 9e 9c 3d
       -0.033636265 0.12895879 -0.14090747 0.07647499
000290 91 24 e7 3c 0a 9b 60 3e 32 6d 78 3c ea d3 5f 3e
       0.028215678 0.21934143 0.015162753 0.21858183
0002a0 6c e4 01 3e c7 7f fb bd d3 5a d8 bd fe d5 88 bd
       0.12684792 -0.12280231 -0.10564198 -0.06681441
0002b0 80 36 5a bd 07 02 b1 3d 40 7e 54 bd 9c ad 00 be
       -0.05327463 0.08642965 -0.051878214 -0.12566227
0002c0 f6 65 0f 3e f8 6e 15 be e2 4c 04 3d 95 be 0c 3e
       0.14003739 -0.14593112 0.032299884 0.13744576
0002d0 e4 85 db 3d 04 54 8b bd c7 62 39 3e 74 f0 da 3c
       0.10718897 -0.06803134 0.18104087 0.026725985
0002e0 b8 77 02 3e 3d ea 86 3d b6 65 92 bd 65 2c 6e 3c
       0.12740982 0.06587646 -0.07148306 0.014536952
0002f0 9a 89 05 3d b7 46 19 3e 2f bb 11 3d 35 9d cd 3d
       0.03260193 0.14968382 0.035578903 0.100397505
000300 1b f7 9e bd 92 85 07 bc 61 d2 95 bd df 2d 4f 3e
       -0.077619754 -0.008271592 -0.07315517 0.20232342
000310 92 c9 64 3b c4 f6 d3 bd 02 5e 0d 3d 69 11 26 bc
       0.0034910184 -0.10349801 0.03451348 -0.010135987
000320 3b 27 5f bc 45 38 12 bd ae b2 9b 3c 06 23 8d bc
       -0.013620193 -0.035698194 0.0190061 -0.017228615
000330 12 92 4d 3e b5 dc 26 3e 08 00 89 3d 5f 71 0a 3e
       0.20075253 0.1629513 0.06689459 0.1351981
000340 0f 13 42 3e d3 10 9b bc e3 31 87 bd 72 9a 2f 3e
       0.18952583 -0.01892892 -0.06601312 0.1714876
000350 1c 77 f2 bb 4a fa d0 bd a0 29 68 bd 60 01 2e 3e
       -0.007399453 -0.10203989 -0.05668032 0.16992712
000360 94 60 de bd bd fe a5 bc d9 a7 18 3d 48 c0 36 bd
       -0.108582646 -0.02026307 0.037269447 -0.044616967
000370 ee 1d 96 3d 49 ae 12 3e f7 5b 2f bc a3 fa 66 3d
       0.073299274 0.14324297 -0.0107030785 0.05639137
000380 d2 63 05 3e e0 a1 89 bd ef 82 77 3d ed bb 48 3e
       0.1302636 -0.06720328 0.060427602 0.19602938
000390 7e 91 9b bd 83 8c 03 3e 3d 51 39 3e 48 0d 21 3d
       -0.0759611 0.1284657 0.18097396 0.039319307
0003a0 f9 4e e9 3d 07 05 cb 3d 6d dd 02 be e8 d1 ea bd
       0.11392016 0.09913068 -0.1277978 -0.11465818
0003b0 85 25 9f bd 13 00 3a 3c 03 d0 c6 3d ff bf 18 3e
       -0.07770828 0.011352557 0.09707644 0.1491699
0003c0 a2 24 95 3d 16 49 21 3a 1f 83 23 3e f3 3b fe bd
       0.07282378 0.0006152553 0.15967987 -0.12413778
0003d0 48 49 2f 3e 13 37 32 3e fd 28 4e bd b8 f2 8b bd
       0.17117798 0.17403822 -0.05033206 -0.06833404
0003e0 2c 2d d3 3d e3 0b 03 be f7 84 89 3d 2c a7 1e 3e
       0.1031135 -0.12797503 0.06714814 0.15493459
0003f0 ee 57 6e bd 2c 13 31 3e 2d 4f 69 bc 64 26 37 bd
       -0.058189325 0.1729247 -0.014240068 -0.044714347
