trained_model/mc1_mc2/45_days_lookahead/pnet_checkpoint/pnet_2350.pth (torch, 545278 bytes, 36 tensors)

network_smart.layer1.0.weight f4 [128, 330]
0	0x3d23019a	0.03979645
1	0xbec48e6a	-0.38389903
2	0xbef8af8e	-0.48571438
3	0x3d1dda7b	0.038538437
4	0x40355f2c	2.8339338
5	0x3f0164d7	0.50544494
6	0xbf330b67	-0.69939274
7	0x3e950361	0.2910414
8	0x3deb9605	0.11503223
9	0x4038b1a4	2.8858423
10	0xbed80979	-0.42194727
11	0x3ad28847	0.0016062342
12	0xbebd3d17	-0.3696067
13	0xbf0a377b	-0.53990906
14	0x3d9196eb	0.071088634
15	0x403b468b	2.9261806
16	0x3f00fb14	0.50383115
17	0xbf354fd3	-0.7082493
18	0x3e7a03e1	0.24415542
19	0x3d179b04	0.03701307
20	0x4037e699	2.8734496
21	0xbeffca0c	-0.49958837
22	0x3d00c900	0.03144169
23	0xbe9220fd	-0.28540793
24	0xbefdcba1	-0.4956942
25	0x3d33d20e	0.043901496
26	0x403b14b1	2.923138
27	0x3efa9059	0.48938254
28	0xbf31cf6f	-0.69457144
29	0x3e70e0ed	0.23523302
30	0xbd22c79a	-0.039741136
31	0x40378a84	2.8678293
32	0xbeddfb37	-0.43355724
33	0x3ccae38f	0.024766712
34	0xbe921de8	-0.28538442
35	0xbecede92	-0.40404183
36	0x3dcf311f	0.10116791
37	0x4036c98c	2.8560514
38	0x3f0d61ae	0.5522717
39	0xbf2a90e6	-0.6662735
40	0x3e962a74	0.29329264
41	0xbd8768ea	-0.06611808
42	0x4038efe5	2.889642
43	0xbef709f0	-0.4824977
44	0xbcae907a	-0.021309126
45	0xbea8ad3b	-0.32944664
46	0xbe99f695	-0.3007094
47	0x3dde203f	0.10845994
48	0x403beb72	2.9362454
49	0x3f0b0f19	0.5431991
50	0xbf2e9115	-0.6819013
51	0x3e8895d1	0.266768
52	0x3dfb2709	0.12263305
53	0x403a72a8	2.913248
54	0xbed5ddeb	-0.41770872
55	0x3d836971	0.06416596
56	0xbe9d6c92	-0.30746895
57	0xbe6821d3	-0.22669153
58	0x3da43c17	0.08019274
59	0x403a15d4	2.9075823
60	0x3efdfb33	0.49605712
61	0xbf3c4cff	-0.73554987
62	0x3e89fc9e	0.26950544
63	0x3e28d8d5	0.16488965
64	0x403639e5	2.8472836
65	0xbed0af40	-0.40758705
66	0x3d575dd5	0.05257972
67	0xbe897942	-0.26850325
68	0x3cf78c67	0.030218316
69	0x3e64b9b3	0.22336464
70	0x40344860	2.8169174
71	0x3f13799c	0.57607436
72	0xbf3b76f2	-0.7322837
73	0x3e52be7d	0.20580478
74	0x3e1271a9	0.1430117
75	0x4034862e	2.8206897
76	0xbeb573dc	-0.35439956
77	0xbcb571b4	-0.022148944
78	0xbea36eb3	-0.31920394
79	0x3c122120	0.00891903
80	0x3e61e4bb	0.2205991
81	0x40130590	2.2972145
82	0x3f06eb3b	0.52702683
83	0xbf2edd74	-0.6830666
84	0x3e7031e7	0.23456536
85	0x3e2a5232	0.16632918
86	0x40157112	2.3350263
87	0xbf20d550	-0.6282549
88	0x3d549254	0.051897362
89	0xbe81fe01	-0.25389102
90	0x3d17ae01	0.037031177
91	0x3e510d41	0.20415212
92	0x4014013d	2.3125756
93	0x3f12f6de	0.5740794
94	0xbf4092cd	-0.75224
95	0x3e8a000e	0.26953167
96	0x3e5c839f	0.21534584
97	0x40138a99	2.3053343
98	0xbf1f3c5f	-0.62201494
99	0x3ca09a64	0.01960487
100	0xbe7d7b76	-0.24754128
101	0x3d9c0cdb	0.076196395
102	0x3e80b59d	0.2513856
103	0x4019fc58	2.4060268
104	0x3f07a2b7	0.5298266
105	0xbf394dc8	-0.7238431
106	0x3e9e53f9	0.3092344
107	0x3e5f6823	0.21817069
108	0x40177817	2.3667047
109	0xbf141c68	-0.57855844
110	0x3d30c9f4	0.043161348
111	0xbe7ca9df	-0.24674176
112	0xbd9cb5fe	-0.076519
113	0x3e4f28e4	0.20230442
114	0x401d157c	2.4544363
115	0x3f0e5224	0.55594087
116	0xbf31cea2	-0.6945592
117	0x3ecb6588	0.397259
118	0x3e5323f5	0.20619185
119	0x401be817	2.4360406
120	0xbf0abff8	-0.5419917
121	0x3d86083d	0.0654454
122	0xbe964c7f	-0.29355237
123	0xbd7a3465	-0.061085124
124	0x3e95b8af	0.29242465
125	0x4020467d	2.5043023
126	0x3f0c07d1	0.54699427
127	0xbf3879c4	-0.720608
128	0x3eb9a9a5	0.3626224
129	0x3d80e501	0.06293679
130	0x401d9642	2.462296
131	0xbf1a60de	-0.6030406
132	0x3d8446ab	0.06458791
133	0xbe85947b	-0.26089844
134	0xbd81f12b	-0.06344827
135	0x3e827948	0.25483155
136	0x4020d9b4	2.5132875
137	0x3f20060a	0.62509215
138	0xbf38ac1e	-0.7213763
139	0x3eb65e40	0.35618782
140	0x3d4a5939	0.049401496
141	0x401d3231	2.4561884
142	0xbf19c53f	-0.600666
143	0xbc34a9bf	-0.011026799
144	0xbe467b38	-0.19382942
145	0xbc9a563c	-0.018839948
146	0x3e7cdca9	0.2469355
147	0x40216ece	2.522388
148	0x3f1bc8c3	0.60853213
149	0xbf30dd0b	-0.69087285
150	0x3ead27bb	0.33819374
151	0x3e59e0be	0.21277139
152	0x4021e797	2.5297601
153	0xbf0aae71	-0.54172426
154	0xbc865823	-0.016399449
155	0xbe58ed40	-0.21184254
156	0xbdf8130c	-0.12113008
157	0x3e2fa905	0.1715432
158	0x401c3f5a	2.4413667
159	0x3f1ea6e2	0.6197339
160	0xbf2a940b	-0.66632146
161	0x3ec5c43e	0.38626283
162	0x3e9e98c1	0.30975917
163	0x401faa79	2.4947798
164	0xbf062f8d	-0.52416307
165	0x3d22fe10	0.039793074
166	0xbe22baa3	-0.15891509
167	0x3e41d874	0.18930227
168	0x3e650fea	0.22369352
169	0x4021c983	2.5279243
170	0x3f0ee8f6	0.5582422
171	0xbf40b864	-0.7528136
172	0x3ed085aa	0.40726978
173	0x3e894127	0.2680752
174	0x402498fe	2.571838
175	0xbf00e704	-0.503525
176	0x3d5681df	0.05236995
177	0xbdb58dcc	-0.08864936
178	0x3e4dddf7	0.20104204
179	0x3e645453	0.22297792
180	0x401fdeb0	2.4979668
181	0x3f287c21	0.65814406
182	0xbf3c0edc	-0.73460174
183	0x3eee1ff7	0.46508762
184	0x3de5ddef	0.11223971
185	0x401e513b	2.473708
186	0xbf043e1d	-0.5165728
187	0x3bce4c14	0.0062956903
188	0xbdc6d033	-0.097076796
189	0x3ddb945e	0.10721658
190	0x3e809eb0	0.2512107
191	0x4021c519	2.527655
192	0x3f181728	0.59410334
193	0xbf3f8e02	-0.7482606
194	0x3ea828b2	0.32843548
195	0x3e52de07	0.20592509
196	0x40209eb2	2.509686
197	0xbed34469	-0.4126313
198	0x3c1d8734	0.0096147545
199	0xbd8ad623	-0.067791246
200	0x3e73206a	0.23742834
201	0x3e4bdd60	0.19908667
202	0x40234aa2	2.5514302
203	0x3f15d359	0.58525616
204	0xbf336329	-0.7007318
205	0x3e871a89	0.26387432
206	0x3e117c48	0.14207566
207	0x402206ce	2.5316653
208	0xbec01046	-0.37512416
209	0x3d75ad49	0.05997971
210	0xbd73e677	-0.05954596
211	0x3e93c52d	0.2886137
212	0x3e59f7c4	0.21285921
213	0x4016afaa	2.3544717
214	0x3f2a018d	0.66408616
215	0xbf2b5141	-0.6692086
216	0x3e73430a	0.23756042
217	0x3e65663c	0.2240228
218	0x4015eab9	2.3424513
219	0xbe011702	-0.12606433
220	0x3d26edf1	0.040754262
221	0xbde7c300	-0.1131649
222	0x3e39d6e1	0.18148376
223	0x3e11a09c	0.14221424
224	0x40196dce	2.397327
225	0x3f267cd5	0.6503423
226	0xbf3784f1	-0.7168723
227	0x3e8535f8	0.26017737
228	0x3e2dab6e	0.16959926
229	0x40183fc4	2.378892
230	0xbdaee5c5	-0.08539919
231	0xbc2ea5c5	-0.01065964
232	0xbc2e5aba	-0.010641748
233	0x3e956bc3	0.29183778
234	0x3e3a828b	0.1821386
235	0x40187780	2.3822937
236	0x3f277fd0	0.654294
237	0xbf3b34ec	-0.7312763
238	0x3eada34c	0.33913648
239	0x3e77499a	0.2414917
240	0x40163ac2	2.3473363
241	0xbdfb8b45	-0.12282423
242	0x3c69cfb9	0.014270716
243	0xbd8f7321	-0.07004381
244	0x3ebd2a77	0.3694646
245	0x3e293601	0.16524507
246	0x401c70c3	2.4443824
247	0x3f2c77c8	0.6737027
248	0xbf2c2c87	-0.67255443
249	0x3e7b0290	0.24512696
250	0x3da3188e	0.07963668
251	0x401b832b	2.4298809
252	0xbdd86375	-0.10565845
253	0xbd6a33c7	-0.057178285
254	0x3b844493	0.004036495
255	0x3e8b6d8d	0.27232018

network_smart.layer1.0.bias f4 [128]
0	0xbeb775e3	-0.35832128
1	0x3deaefd7	0.11471527
2	0x3e19f16d	0.15033503
3	0x3ccf9aa5	0.025342295
4	0xbce42193	-0.02784804
5	0xbede077b	-0.43365082
6	0xbbd6711e	-0.0065442463
7	0x3ce9fba3	0.028562373
8	0x3dbd67ac	0.092482895
9	0xbc94ff0a	-0.018188018
10	0xbdae08f3	-0.08497801
11	0xbba735ad	-0.005102834
12	0x3db6fc5e	0.08934854
13	0x3d57b0a4	0.052658692
14	0x3cd9474a	0.026523251
15	0x3d98a86d	0.07454
16	0xbecbec4a	-0.39828712
17	0x3d7f7455	0.062366802
18	0x3d3ff4e0	0.04686439
19	0x3d28c312	0.04120166
20	0x3c24a675	0.010049452
21	0x3da3e56d	0.08002744
22	0xbd41cc25	-0.047313828
23	0x3e06e013	0.13171415
24	0x3e2468b7	0.1605557
25	0x3d106bb2	0.035258956
26	0x3e1dc9aa	0.1540896
27	0xbd4f0be2	-0.05054844
28	0xbd19d12e	-0.037553005
29	0x3c55c8f8	0.013048403
30	0xbe6eacdf	-0.23308133
31	0x3da07ac1	0.078359134
32	0xbd83a398	-0.064276874
33	0xbe25349b	-0.16133349
34	0xbd5b1278	-0.05348441
35	0x3d83d6a9	0.064374276
36	0x3d2cba45	0.042169828
37	0x3e1417ab	0.14462154
38	0xbcfe50e2	-0.031044427
39	0x3d66c9b9	0.05634472
40	0xbd589aff	-0.05288219
41	0x3d6aa18d	0.057282973
42	0x3e04fbda	0.12986699
43	0xbc9738e1	-0.01845974
44	0x3dea0de3	0.1142843
45	0x3de82dca	0.113368586
46	0xbd80222c	-0.06256518
47	0x3e0da25b	0.13831465
48	0x3dd175a4	0.10227516
49	0x3d01b161	0.031663302
50	0xbd987fc1	-0.07446242
51	0x3d7f61ac	0.062349007
52	0x3d969086	0.073517844
53	0x3df8fce5	0.12157611
54	0xbd9df00a	-0.077117994
55	0xbe24b379	-0.16084088
56	0x3d60309e	0.054733865
57	0x3bed1d77	0.0072361785
58	0xbcbcfa25	-0.023068497
59	0x3d0f5c92	0.03500039
60	0xbd4b6db7	-0.04966518
61	0xbe65685d	-0.22403093
62	0xbe13c01d	-0.14428754
63	0x3bb84e16	0.005624543
64	0xbdad68c0	-0.08467245
65	0x3e05b72f	0.1305816
66	0x3dc15d30	0.09441602
67	0xbdf1754f	-0.11789953
68	0x3d61496b	0.055001657
69	0xbd1dfffc	-0.038574204
70	0xbd8b3023	-0.06796291
71	0x3e070473	0.13185291
72	0x3ddd9235	0.108189024
73	0x3ddee4ad	0.1088346
74	0x3e414cbe	0.18876931
75	0x3e09fce1	0.13475372
76	0xbd10f674	-0.035391286
77	0x3d706e06	0.058698677
78	0xbd9fe5de	-0.078075156
79	0x3e367ea9	0.17821755
80	0x3dafb626	0.08579664
81	0x3c7a5f98	0.01528158
82	0x3e442199	0.19153441
83	0xbdf36f93	-0.118865155
84	0x3e127ab2	0.14304617
85	0xbdefe9dd	-0.11714528
86	0x3bc0fb96	0.0058893664
87	0xbd9961eb	-0.074893795
88	0x3bf6a1da	0.0075266184
89	0xb923ee79	-0.0001563373
90	0x3dc2b13b	0.0950646
91	0xbe02bade	-0.12766597
92	0x3e6a23a3	0.22865157
93	0x3d865667	0.06559449
94	0xbcd22cb2	-0.025656078
95	0xbd3e0384	-0.04639007
96	0xbd4bdb97	-0.049769964
97	0xbe8f945c	-0.28042877
98	0xbd215047	-0.0393832
99	0x3de1aa4d	0.110188104
100	0xbe826fa2	-0.25475794
101	0x3cc6e710	0.024280101
102	0x3e376a07	0.1791154
103	0xba2ac1a9	-0.0006513843
104	0xbe9514b6	-0.29117364
105	0x3e31560c	0.1731798
106	0xbb41c14c	-0.0029564677
107	0xbdad76bd	-0.08469913
108	0xbde7f141	-0.113253124
109	0xbc1681d5	-0.009186228
110	0xbba5d7ce	-0.0050611263
111	0x3d86bc8d	0.06578932
112	0xbd1be4d9	-0.038060043
113	0xbc6d04ad	-0.014466447
114	0xbdab5dae	-0.08367477
115	0x3c9437c0	0.01809299
116	0x3cce0906	0.025150787
117	0xbbca770f	-0.0061787437
118	0xbe7166a2	-0.23574308
119	0x3dba76a1	0.09104658
120	0x3e2f9cab	0.17149608
121	0x3daeb38d	0.0853034
122	0xbcea0f81	-0.028571846
123	0x3bc70a1e	0.006074204
124	0xbe066efe	-0.13128278
125	0x3d8fa7a7	0.07014399
126	0xbe0b20b7	-0.13586698
127	0xbe6444e5	-0.22291906

network_smart.layer2.0.weight f4 [128, 128]
0	0xbe03ffd5	-0.12890561
1	0xbca5b9a3	-0.02023012
2	0x3e3a17c3	0.18173127
3	0x3d90ccef	0.07070338
4	0x3cc0899c	0.023503117
5	0x3e7185fa	0.23586264
6	0xbd2065b5	-0.039159495
7	0x3db83fa6	0.08996515
8	0x3ecf176e	0.40447563
9	0xbe8417d1	-0.2579942
10	0xbe2d7561	-0.16939308
11	0x3c2506d3	0.010072428
12	0x3e4e4810	0.20144677
13	0xbeb805ad	-0.3594183
14	0xbde4986c	-0.11161885
15	0x3d393dbf	0.0452249
16	0x3db49ad9	0.08818597
17	0x3c901e90	0.017592698
18	0x3ec099e8	0.3761742
19	0x3da29cd2	0.07940067
20	0x3e20d203	0.15705113
21	0xbddc2398	-0.107489765
22	0x3dbd2363	0.09235265
23	0xbe1bf433	-0.15229873
24	0xbdb3f3b0	-0.08786714
25	0x3dd4f33e	0.10397957
26	0xbd72a474	-0.059238866
27	0x3c5c1467	0.013432599
28	0x3c149a58	0.009070002
29	0xbd5caf26	-0.053877972
30	0xbd83d1f9	-0.064365335
31	0xbe87b42f	-0.26504657
32	0x3da2e359	0.079535194
33	0x3bb2a0eb	0.005451312
34	0x3d2275e6	0.039663218
35	0xbe2b3fc0	-0.16723537
36	0x3df42758	0.11921567
37	0x3cc2073e	0.023685094
38	0xbeb9fff7	-0.36328098
39	0xbe199798	-0.14999235
40	0xbda24d51	-0.07924903
41	0x3b26bd5a	0.0025442452
42	0x3e45431b	0.1926388
43	0xbdc286de	-0.0949838
44	0x3db30dac	0.08742842
45	0x3da080eb	0.07837089
46	0xbdafbcb7	-0.085809164
47	0x3ee74367	0.4516861
48	0xbca3f3c9	-0.020013707
49	0x3e13456e	0.14381954
50	0x3e0eff5e	0.13964602
51	0xbce6a7fe	-0.028156277
52	0x3d644f6c	0.055739805
53	0x3d0fb1b7	0.03508159
54	0xbb2db521	-0.0026505666
55	0x3dc3de01	0.09563828
56	0x3d01f311	0.031725947
57	0xbd46ef5f	-0.048568126
58	0xbd8823da	-0.06647463
59	0xbdb197c5	-0.08671526
60	0xbd6aa0ab	-0.05728213
61	0xbce37c02	-0.027769092
62	0xbda38f21	-0.07986284
63	0x3e25557e	0.16145894
64	0x3e4fd235	0.20295031
65	0x3d4a0543	0.049321424
66	0x3c1039fd	0.008802888
67	0xbe9d471c	-0.30718315
68	0x3d29dcc7	0.041470315
69	0xbdbeb73a	-0.093122914
70	0x3e391e72	0.1807802
71	0x3e7d1a65	0.247171
72	0xbd44cf2f	-0.04804915
73	0xbe0593f7	-0.13044725
74	0xbe83fb49	-0.25777653
75	0xbdcabdd5	-0.09899489
76	0xbc038d79	-0.008029335
77	0xbe2f6429	-0.17128052
78	0x3bc3be66	0.005973625
79	0xbe0318b7	-0.12802397
80	0x3d6051a0	0.054765344
81	0x3e1a0299	0.15040053
82	0xbb8c53e4	-0.0042824615
83	0x3c5427be	0.012948928
84	0x3d8a6847	0.067581706
85	0xbd0653fe	-0.032794945
86	0x3e36199b	0.17783205
87	0xbd919ad4	-0.07109609
88	0xbdecec82	-0.11568548
89	0x3c8f1e88	0.017470613
90	0xbcf796e3	-0.030223316
91	0xbe0b653a	-0.13612834
92	0xbec5026b	-0.38478407
93	0x3d36cc17	0.04462823
94	0xbde23acc	-0.11046371
95	0x3da7fa09	0.08201987
96	0x3d64cc84	0.055859104
97	0x3ebb93a0	0.36636066
98	0xbd23896e	-0.039925985
99	0xbd471364	-0.048602477
100	0xbd2678dc	-0.040642604
101	0xbd510083	-0.05102588
102	0xbe1f51a7	-0.15558492
103	0xba4d9919	-0.0007842943
104	0xbd082164	-0.03323497
105	0xbdfd2797	-0.12361067
106	0xbcd08fcc	-0.025459193
107	0xbcfea861	-0.031086149
108	0xbcc736b1	-0.024318071
109	0xbec0b674	-0.376392
110	0x3dce61b1	0.10077227
111	0x3de99acf	0.114064805
112	0xbd8f443a	-0.06995435
113	0x3b151217	0.0022746378
114	0x3d7c5d16	0.06161221
115	0xbd038cc6	-0.032116674
116	0xbb58723c	-0.0033027073
117	0xbd8f8dd6	-0.07009475
118	0xbca8698d	-0.020558143
119	0x3ce4c39b	0.027925303
120	0x3cdbd0eb	0.026833018
121	0xbcdbabf1	-0.026815386
122	0x3cb0cc1b	0.0215817
123	0x3d332d2b	0.043744247
124	0xbdd07eed	-0.10180459
125	0xbce707b6	-0.028201919
126	0xbe6ebc37	-0.23313986
127	0xbd50812c	-0.050904438
128	0x3cd97afd	0.026547903
129	0xbdc12f64	-0.09432867
130	0xbcd28ec2	-0.025702838
131	0xbc78bca5	-0.015181695
132	0x3e6ce7ef	0.2313535
133	0x3df0351c	0.1172888
134	0xbc3c7386	-0.011502152
135	0x3cd51fd9	0.026016163
136	0x3d826531	0.06366957
137	0xbe69a8d0	-0.22818303
138	0xbcf3d7ba	-0.029765952
139	0xbd6ab879	-0.057304833
140	0xbb952f07	-0.0045527252
141	0x3f751d1a	0.9574753
142	0x3d84bc4e	0.06481229
143	0xbdb6023f	-0.08887147
144	0xbd742fb4	-0.059615806
145	0xbe040fcb	-0.1289665
146	0xbeba09f2	-0.36335713
147	0x3eb9f1ca	0.36317283
148	0xbe63f51c	-0.2226147
149	0x3e11843e	0.14210603
150	0x3ddde30d	0.10834322
151	0xbbbafa3a	-0.005706099
152	0xbddc5a16	-0.1075937
153	0xbc32c179	-0.010910385
154	0xbdf66c87	-0.12032419
155	0xbd81dd36	-0.06341021
156	0x3d2df5a1	0.042470578
157	0x3d5d7e92	0.054075785
158	0x3e6119a9	0.21982445
159	0xbea51337	-0.32241222
160	0x3d6e92ec	0.058245584
161	0xbe00bb9a	-0.12571564
162	0x3daef79f	0.08543324
163	0xbe7f96c5	-0.24959858
164	0xbd3aa528	-0.04556766
165	0x3d867ba1	0.06566549
166	0xbd677c4e	-0.05651503
167	0xbd7af1de	-0.06126582
168	0x3d82bf73	0.06384172
169	0xbfb3c95d	-1.4045826
170	0xbe19aee8	-0.15008128
171	0xbdadba2d	-0.08482776
172	0xbdf71605	-0.12064747
173	0xbdbe697d	-0.09297464
174	0x3e42f283	0.19037823
175	0xbe47749a	-0.19478074
176	0xbea38cb2	-0.3194328
177	0x3dae20c5	0.08502344
178	0x3dde1967	0.10844689
179	0xbcdd3e65	-0.027007291
180	0x3e2c96e1	0.1685443
181	0xbdf12f89	-0.11776645
182	0x3d9f2849	0.07771356
183	0x3d9de527	0.07709723
184	0x3debf0d7	0.11520546
185	0xbdc7cefd	-0.09756277
186	0xbc8f3875	-0.017482975
187	0x3e36cb39	0.17850961
188	0x3db4bb6f	0.088248126
189	0x3e3170ed	0.17328234
190	0x3d3b1181	0.04567099
191	0xbe15f536	-0.14644322
192	0x3c7e6e3a	0.01552921
193	0xbf121fcd	-0.57079774
194	0x3e00cb76	0.12577614
195	0x3ed13a5f	0.40864846
196	0x3e990479	0.29886225
197	0xbd3531f5	-0.044237096
198	0x3bd08d51	0.0063645025
199	0x3e1740c2	0.14770797
200	0x3d087591	0.033315245
201	0x3e11706a	0.14203039
202	0xbe17709c	-0.14789051
203	0x3f091d9c	0.53560805
204	0x3cb27239	0.021782981
205	0x3d75a8b6	0.05997535
206	0x3d147138	0.036240786
207	0xbc1c0ea2	-0.009524973
208	0x3dcffac7	0.10155254
209	0xbdabf024	-0.083954126
210	0xbe9abeed	-0.3022379
211	0xbda5c9aa	-0.08095105
212	0xbea5eb84	-0.32406247
213	0x3e085d5f	0.13316868
214	0x3d3352b4	0.043780044
215	0xbd812ce4	-0.0630739
216	0x3dcddf3e	0.10052346
217	0xbd874178	-0.06604284
218	0xbe800bc4	-0.25008976
219	0x3d115d9d	0.035489667
220	0xbe31cec0	-0.17364025
221	0xbd59a05d	-0.05313145
222	0xbd2260f3	-0.03964324
223	0x39a0d6b5	0.00030677547
224	0xbd84d700	-0.064863205
225	0xbf5652be	-0.83720005
226	0x3d97f68b	0.07420071
227	0x3f16f15f	0.58962053
228	0xbd666138	-0.05624506
229	0xbd7d30ea	-0.061814226
230	0xbfdca265	-1.7237059
231	0xbd950688	-0.07276636
232	0x3da40ad1	0.080098756
233	0x3d7d7800	0.06188202
234	0x3d9ec3fe	0.07752226
235	0x3e55276b	0.20815818
236	0xbcc04f26	-0.02347524
237	0x3f210c77	0.62909645
238	0x3d48555a	0.048909523
239	0xbc7d1952	-0.015447931
240	0xbd8bf5c6	-0.06833987
241	0x3d6f210d	0.05838113
242	0x3dc83c47	0.09777122
243	0x3e12c42b	0.14332645
244	0x3dd75423	0.10514095
245	0xbd5685ae	-0.05237358
246	0xbebeb7f1	-0.3724971
247	0x3ac082da	0.0014687434
248	0x3db558e6	0.08854847
249	0xbd27a84b	-0.04093198
250	0xbd0efc09	-0.03490833
251	0xbd082cef	-0.033245977
252	0x3dff33c5	0.12461046
253	0x3da25bda	0.079276755
254	0xbe0f5884	-0.1399861
255	0x3eb1706d	0.34656087

network_smart.layer2.0.bias f4 [128]
0	0x3df3094d	0.11867008
1	0xbe8a1121	-0.26966193
2	0x3d3c7b8a	0.046016254
3	0xbc57a228	-0.01316122
4	0xbc37316c	-0.011181217
5	0x3da13bf7	0.078727655
6	0x3d7f8ab4	0.062388137
7	0x3c826e52	0.015921745
8	0xbeabe2b8	-0.3357141
9	0xbdd7ffb6	-0.1054682
10	0x3dbd3cbf	0.09240102
11	0x3df45143	0.11929562
12	0xbdb3f880	-0.08787632
13	0xbd28e3a4	-0.04123272
14	0x3e43f116	0.19134936
15	0xbd90293e	-0.07039116
16	0x3d96390d	0.073351
17	0x3d1aed8c	0.0378242
18	0x3ddbd7fd	0.10734556
19	0xbde7ae25	-0.11312512
20	0x3ddb7515	0.10715691
21	0xbce63189	-0.028099792
22	0xbd1eceb3	-0.038771342
23	0x3e49667b	0.19668
24	0xbd1c29f5	-0.03812595
25	0xbd9aad02	-0.0755253
26	0x3d8ac1f3	0.06775274
27	0xbe9cc017	-0.30615303
28	0x3d2b9182	0.041886814
29	0x3d8b7aae	0.06810509
30	0xbebcdebb	-0.3688868
31	0x3df99f3c	0.12188575
32	0x3df471ba	0.11935754
33	0xbd26c244	-0.04071261
34	0xbcd4617e	-0.025925394
35	0xbda32bf1	-0.079673655
36	0x3d054bf1	0.032543126
37	0x3b0382d9	0.0020067005
38	0x3df7ae6c	0.12093815
39	0x3e33bf97	0.17553554
40	0x3d6ddc48	0.058071405
41	0x3d398cd5	0.045300324
42	0xbcf797f5	-0.030223826
43	0xbd7cce78	-0.06172034
44	0x3b8dd237	0.004328038
45	0xbc28e3f3	-0.010308254
46	0xbc9703e9	-0.018434482
47	0x3db5f824	0.0888522
48	0x3d7ac1dc	0.061220035
49	0x3e3bb0f7	0.18329225
50	0x3cbc8829	0.023014145
51	0xbd55c699	-0.05219135
52	0x3b99b2db	0.0046905107
53	0xbb85dff0	-0.0040855333
54	0x3d89ee4a	0.06734903
55	0x3a13b083	0.0005633907
56	0xbe273928	-0.16330397
57	0xbd337fc4	-0.04382302
58	0x3cfb85af	0.030703394
59	0x3e16521b	0.14679758
60	0x3df5c229	0.11999924
61	0xbdaedc4a	-0.085381106
62	0x3d1f7065	0.038925547
63	0x3d84493b	0.0645928
64	0x3dbf83ea	0.093513325
65	0x3d671442	0.056415804
66	0x3d030d81	0.0319953
67	0x3da2b301	0.079442985
68	0xbe748255	-0.23877843
69	0x3d0e42d2	0.034731694
70	0x3d900f34	0.0703415
71	0x3e0f700b	0.14007585
72	0x3ce911b4	0.028450824
73	0xbe29ed6f	-0.1659448
74	0xbc6dad24	-0.014506612
75	0x3c16fb9a	0.00921526
76	0xbdc4d68a	-0.096112326
77	0x3dfffccd	0.1249939
78	0xbdc1bbde	-0.09459661
79	0x3dd082e5	0.10181216
80	0x3b160726	0.0022892444
81	0xbc0902bc	-0.008362468
82	0xbdd4c50a	-0.10389145
83	0x3d1845b2	0.03717584
84	0x3ce5045d	0.027956182
85	0x3bb7c083	0.005607666
86	0x3cbf4cf5	0.023352126
87	0x3d882a05	0.066486396
88	0x3d592fe6	0.053024195
89	0x3d812f16	0.06307809
90	0xbc0c0d28	-0.008548059
91	0xbbfeb5df	-0.0077731456
92	0xbe9985dc	-0.2998494
93	0x3bde8ad4	0.006791452
94	0x3d043a31	0.03228206
95	0x3d21079c	0.039313897
96	0xbda97f6d	-0.08276258
97	0xbe4f639d	-0.20252843
98	0xbd4209dd	-0.047372688
99	0x3c874fb7	0.016517503
100	0xbe9274c4	-0.2860471
101	0xbd8b1129	-0.067903824
102	0xbdcd267d	-0.10017107
103	0xbd0ae024	-0.033905163
104	0x3db0fe55	0.0864226
105	0x3de6748c	0.11252698
106	0xbd44156b	-0.04787199
107	0x3de79736	0.11308138
108	0x3dfc745e	0.12326883
109	0x3d46b8d6	0.048516117
110	0xbe41f89e	-0.18942496
111	0xbe5c0045	-0.21484478
112	0x3df73210	0.120700955
113	0x3c6ac013	0.014328021
114	0xbdbc50ce	-0.091951
115	0x3cf2f523	0.029657906
116	0x3d4c89a4	0.04993595
117	0x3e0d3466	0.1378952
118	0xbea40fc0	-0.32043266
119	0xbe705c93	-0.23472814
120	0x3d2ff7a5	0.04296078
121	0xbd406078	-0.046967
122	0x3d978b84	0.07399657
123	0xbda6e31d	-0.08148787
124	0x3e03c34c	0.12867469
125	0xbe26b89b	-0.16281359
126	0xbca2d7ac	-0.019878231
127	0x3ccbc3bd	0.024873609

network_smart.layer3.0.weight f4 [48, 128]
0	0x3d2df39c	0.042468652
1	0xbe1640e3	-0.1467319
2	0x3ec107e6	0.3770134
3	0xbf1f7e24	-0.6230185
4	0xbe8b3d61	-0.27195266
5	0xbd42baf0	-0.04754156
6	0x3e5e0fc4	0.21685702
7	0x3d201a0c	0.03908734
8	0xbe90304d	-0.2816185
9	0xbd82017d	-0.0634794
10	0x3e7eb25d	0.24872728
11	0xbbf8d87a	-0.0075941654
12	0xbd1b0b9d	-0.037852872
13	0x3d0fd326	0.035113476
14	0xbe0d07f8	-0.13772571
15	0xb9545069	-0.0002024785
16	0x3dce4b22	0.10072924
17	0x3d6637ae	0.056205444
18	0xbe74ae4a	-0.23894611
19	0xbed7db6b	-0.4215959
20	0xbda481d2	-0.08032574
21	0x3cafa4b0	0.021440834
22	0xbe306fe0	-0.17230177
23	0x3d92e631	0.07172812
24	0x3ebd6454	0.36990607
25	0xbd830b3b	-0.063986264
26	0x3d9be8be	0.076127514
27	0xbc0f547e	-0.008748172
28	0x3d4ed09d	0.050491918
29	0x3e865c25	0.26242176
30	0x3db9581c	0.09050009
31	0x3d71c0cf	0.059021767
32	0x3d8a1f19	0.06744213
33	0x3d47a03d	0.0487368
34	0x3b89f6b8	0.0042103194
35	0x3e6dde91	0.23229434
36	0x3e1e2e96	0.15447459
37	0x3d174967	0.036935236
38	0xbdb261d8	-0.087100685
39	0xbcc10f51	-0.023566874
40	0xbdb44f1d	-0.08804152
41	0x3d82ef4a	0.06393297
42	0x3e14615e	0.14490268
43	0x3d4651f2	0.048417993
44	0xbec11360	-0.37710094
45	0xbd7a0c47	-0.061046865
46	0x3d7003e6	0.058597468
47	0x3cb3f305	0.021966467
48	0xbe55d29c	-0.20881122
49	0xbe15e727	-0.14638959
50	0x3ddb6ec1	0.10714484
51	0xbc11016d	-0.008850438
52	0x3d3b189b	0.045677762
53	0xbcec69f1	-0.02885911
54	0x3e7e8d95	0.24858697
55	0xbe649d99	-0.22325744
56	0x3c820032	0.015869234
57	0x3c1423c0	0.009041727
58	0xbe0e85c8	-0.13918221
59	0xbd53de43	-0.051725637
60	0x3dcb020e	0.09912501
61	0xbcf5712d	-0.029961193
62	0x3e6e587d	0.23275943
63	0xbd5e4e21	-0.05427373
64	0x3cad1a4f	0.021130709
65	0x3d56dd37	0.05245706
66	0xbde1281d	-0.10993979
67	0xbe27bcd8	-0.16380632
68	0x3eb9f273	0.36317787
69	0xbdbf476d	-0.09339795
70	0xbe64de40	-0.22350407
71	0x3d97be6e	0.074093685
72	0x3cf7e23d	0.030259246
73	0x3e13d38a	0.14436164
74	0x3dbbcb2d	0.09169612
75	0xbbead3be	-0.007166355
76	0x3d2028d0	0.03910142
77	0xbc103ec7	-0.00880403
78	0x3d927214	0.07150665
79	0x3e0ff57c	0.14058489
80	0xbbd8b753	-0.006613651
81	0xbcef3c97	-0.029203696
82	0x3e38ab7f	0.1803417
83	0x3f059dec	0.52194095
84	0x3cd9215d	0.026505167
85	0xbe118a63	-0.14212947
86	0xbeb09552	-0.34488922
87	0x3d9188a1	0.07106138
88	0xbd575852	-0.052574463
89	0x3e3888c9	0.1802093
90	0x3df5212d	0.119692184
91	0x3a346805	0.0006881955
92	0xbe1385d7	-0.14406525
93	0xbda6e123	-0.0814841
94	0xbeec9ef2	-0.46215016
95	0xbd251a74	-0.04030843
96	0xbd561298	-0.052263826
97	0xbd9913eb	-0.07474502
98	0xbea679ba	-0.32514745
99	0x3db9f249	0.09079415
100	0xbc3b76cf	-0.0114419
101	0x3dd1a749	0.10236985
102	0xbe72e381	-0.23719598
103	0x3e10ed07	0.14152919
104	0xbb187404	-0.002326251
105	0xbd4ef9b5	-0.050531108
106	0x3e2b0f29	0.16705002
107	0xbeab2c43	-0.33432207
108	0x3d8bebaf	0.068320625
109	0x3e114525	0.14186533
110	0x3e899b42	0.26876265
111	0x3f49b1eb	0.78787106
112	0xbe19b70e	-0.15011236
113	0xbe0d45e2	-0.1379619
114	0xbd3ff1d0	-0.04686147
115	0x3e4e3d3a	0.20140544
116	0x3cd8c40d	0.026460672
117	0xbd5ebafa	-0.054377533
118	0xbde35229	-0.11099655
119	0xbdab363b	-0.08359953
120	0xbdb07c82	-0.08617498
121	0xbc1014fd	-0.0087940665
122	0xbe1739c3	-0.14768128
123	0x3d4a9dc3	0.04946686
124	0xbe64a90e	-0.22330114
125	0x3e3a3be2	0.18186906
126	0xbf386032	-0.7202178
127	0x3e130b55	0.14359792
128	0x3d53fa9a	0.051752664
129	0xc029a5a4	-2.650735
130	0x3e6380eb	0.22217147
131	0xbdb93f49	-0.09045274
132	0xbf35b1f7	-0.7097468
133	0x3d3fe4bd	0.046849
134	0x3d55c422	0.052189
135	0xbbe2f9b7	-0.006926741
136	0xbeac0ddb	-0.3360432
137	0x3d95611e	0.07293914
138	0x3bf2327e	0.007391273
139	0xbd288c99	-0.04114971
140	0x3c87e2e6	0.016587686
141	0x3aa9cb03	0.0012954179
142	0xbdda766d	-0.10667119
143	0xbef264b1	-0.47342446
144	0x3a869398	0.0010267375
145	0xbe05cbc5	-0.13066013
146	0x3ddf61e0	0.1090734
147	0x3c328d38	0.010897927
148	0xbe853eb3	-0.26024398
149	0x3dcba947	0.099443965
150	0xbf119f46	-0.56883657
151	0xbe412a7f	-0.18863867
152	0x3f04473f	0.5167121
153	0xbd342598	-0.043981165
154	0xbc08840b	-0.008332263
155	0xbaaaaf67	-0.0013022245
156	0xbd724bf7	-0.059154477
157	0xbc5555b8	-0.013020925
158	0xbdbb418b	-0.09143361
159	0x3d7bb5cb	0.06145267
160	0xbc0997db	-0.008398022
161	0xbce044f4	-0.02737663
162	0xbd4cc3c0	-0.04999137
163	0x3db317ed	0.08744798
164	0xbe07e21a	-0.13269845
165	0xbd20262c	-0.039098904
166	0xbea61ee4	-0.32445443
167	0x3dd80fca	0.105498865
168	0x3ddda3d7	0.108222656
169	0xbe25a645	-0.16176708
170	0xbdb3fb1c	-0.0878813
171	0x3cca964e	0.024729874
172	0x3c5b9854	0.013403017
173	0x3b400a1c	0.00293029
174	0xbd91d1a6	-0.071200654
175	0xbebfed2c	-0.37485635
176	0x3d87bcd4	0.06627813
177	0xbda1b3f6	-0.07895653
178	0xbd6a6324	-0.057223454
179	0x3d2dc662	0.04242552
180	0xbf01070d	-0.50401384
181	0x3d17525d	0.036943782
182	0xbe1d09de	-0.15335795
183	0x3c1472a4	0.009060536
184	0xbddf216a	-0.10895045
185	0x3deff7cc	0.117171854
186	0x3e20d8e8	0.15707743
187	0x3db1a77e	0.08674525
188	0x3d985648	0.07438332
189	0xbc02ccfe	-0.007983444
190	0x3d109046	0.03529384
191	0xbe30bc08	-0.17259228
192	0x3e2d2703	0.16909413
193	0xbe200064	-0.15625149
194	0x3e4c690f	0.19961952
195	0x3f06646c	0.5249698
196	0x3d2fb492	0.042896815
197	0x3cd539ab	0.026028475
198	0x3c9ef623	0.019404477
199	0x3d517993	0.051141333
200	0x3d3a7382	0.045520313
201	0x3e04251a	0.12904778
202	0xbed93d57	-0.4242961
203	0x3ec2e3d3	0.3806444
204	0x3ccd1499	0.025034236
205	0x3e0a2a70	0.13492751
206	0xbdc82021	-0.09771753
207	0x3df12206	0.117740676
208	0xbe1afb76	-0.15134987
209	0xbf076895	-0.52893955
210	0xbd0a9af1	-0.03383917
211	0x3e19decb	0.15026395
212	0xbed8c400	-0.42337036
213	0x3efdd213	0.49574336
214	0x3d95396b	0.07286342
215	0xbc84289d	-0.016132647
216	0x3e12f488	0.14351094
217	0xbe35bc83	-0.17747693
218	0xbe1d0292	-0.15333012
219	0xb7e1e4a1	-2.6928554e-05
220	0xbeaf70a6	-0.3426563
221	0xbd7ef761	-0.062247638
222	0xbcec5750	-0.028850228
223	0x3d72fc97	0.05932292
224	0x3dcded9b	0.10055085
225	0xbcff10d4	-0.031135954
226	0xbf94ca4f	-1.162424
227	0x3e240817	0.16018711
228	0x3f006332	0.5015136
229	0x3d1d7d47	0.038449552
230	0x3e3490ce	0.17633364
231	0xbe616391	-0.22010638
232	0x3d87f9fc	0.066394776
233	0xbeb1945b	-0.346835
234	0xbcf302e7	-0.02966447
235	0xbe1eec7c	-0.15519899
236	0xbd177da5	-0.03698506
237	0x3c1df736	0.009641459
238	0x3e010ffe	0.12603757
239	0x3f3366e7	0.7007889
240	0x3ca75ea7	0.020430876
241	0xbc8d8e6c	-0.017279826
242	0x3e3568e8	0.177158
243	0xbdc714dc	-0.097207755
244	0xb9a0f4ab	-0.0003069987
245	0xbea8a5ad	-0.329389
246	0xbc87c493	-0.016573226
247	0x3db3b162	0.087740675
248	0x3e3b522f	0.1829307
249	0x3dad00d6	0.08447425
250	0x3de63450	0.112404466
251	0xbc909555	-0.017649332
252	0x3e3bfe8e	0.18358824
253	0x3c88d290	0.016701967
254	0xbeac3b4a	-0.33638984
255	0xbd0d3cf8	-0.034481972

network_smart.layer3.0.bias f4 [48]
0	0x3d87a5c7	0.066234164
1	0x3da8268c	0.08210477
2	0xbdb404e4	-0.08789995
3	0x3de83ef0	0.113401294
4	0x3d8290fc	0.0637531
5	0x3b9285f2	0.004471534
6	0x3cf4c034	0.029876806
7	0x3d0c35da	0.034231044
8	0xbcb8585d	-0.022503072
9	0x3d82b8b3	0.06382885
10	0x3cc97a1c	0.02459436
11	0xbd9f0885	-0.07765297
12	0xbb5bca5f	-0.003353737
13	0xbd3c8597	-0.04602584
14	0x3c8374e4	0.016046949
15	0x3cf886aa	0.03033765
16	0xbd5a68dd	-0.05332266
17	0xbcec5a44	-0.028851636
18	0xbd605e17	-0.05477723
19	0x3d0cef34	0.03440781
20	0x3c3bf5a6	0.011472141
21	0x3deaa799	0.11457748
22	0xbd21aac0	-0.03946948
23	0xbddedea4	-0.10882309
24	0x3e034789	0.12820257
25	0x3d7daca2	0.061932214
26	0x3dbb2f56	0.09139888
27	0x3d866cc0	0.06563711
28	0x3d9f6569	0.07783014
29	0xbea1e237	-0.316179
30	0xbc9b63b2	-0.018968437
31	0xba7a384c	-0.0009545132
32	0xbd9585e7	-0.073009305
33	0xbbc57909	-0.0060263914
34	0x3cea0593	0.028567111
35	0x3d7f9e4c	0.062406823
36	0x3bb0e24d	0.005398071
37	0x3dfcf48b	0.1235133
38	0xbd4c3109	-0.04985145
39	0x3dcb815b	0.09936782
40	0xbd6bc523	-0.05756105
41	0x3de21690	0.1103946
42	0xbde02ee5	-0.109464444
43	0x3dc2c60a	0.09510429
44	0x3d722b34	0.059123233
45	0x3dba6f86	0.09103303
46	0x3df5812b	0.119875275
47	0x3a5b3275	0.00083617057

fc_smart.weight f4 [64, 48]
0	0x3ebeb49c	0.3724717
1	0x3f7ac85c	0.97961974
2	0xbfb4dee8	-1.4130526
3	0x3b8f655a	0.0043760957
4	0x3df97937	0.12181323
5	0x3fe3bb90	1.7791615
6	0xbdb178ba	-0.08665605
7	0x3ee3f440	0.44522285
8	0x3eb575f3	0.3544155
9	0xbd9c7e74	-0.076413065
10	0x3ec54da4	0.38535798
11	0x3d88099a	0.06642456
12	0xbf0d2a4d	-0.5514267
13	0x3eba78a4	0.36420166
14	0x3f12292d	0.5709408
15	0xbdb661bc	-0.0890536
16	0xbf840113	-1.0312828
17	0x3fa41a5e	1.2820547
18	0xbe1843f7	-0.14869677
19	0x3d9d378c	0.0767661
20	0x3df3d8f9	0.119066186
21	0xbe32461f	-0.17409562
22	0x3f0734dc	0.5281503
23	0x3ce7c4e0	0.02829212
24	0x3f001e6f	0.5004644
25	0xbdf19b76	-0.1179723
26	0x3f900506	1.1251533
27	0x3ec430f6	0.38318604
28	0x3f7221a3	0.94582576
29	0xbee4b3f2	-0.44668537
30	0xbf35e64f	-0.7105455
31	0xbed1f97c	-0.41010654
32	0x3eff239e	0.4983186
33	0xbfb09857	-1.379649
34	0xbea4b2ef	-0.32167765
35	0x3d67cdcf	0.05659276
36	0xbda88396	-0.08228223
37	0x3f2165c8	0.6304593
38	0x3da5d990	0.080981374
39	0xbf4d09f6	-0.80093324
40	0xbf50c89d	-0.8155611
41	0xbe8af571	-0.27140382
42	0xbf013a9c	-0.50480056
43	0xbe7dabab	-0.24772517
44	0x3d842b49	0.064535685
45	0x3e04f76e	0.12985012
46	0x3f677b1e	0.90422237
47	0x3da4ddb7	0.08050101
48	0x3ea33b2d	0.31881085
49	0x3f5b5e7e	0.8569106
50	0xbfa0c0c7	-1.2558831
51	0xbda53dd8	-0.080684364
52	0x3dfce464	0.123482496
53	0x3fd70865	1.6799437
54	0xbd451301	-0.048113827
55	0x3ecdd4cb	0.4020141
56	0x3ebcc684	0.36870205
57	0xbdded4e8	-0.108804524
58	0x3eb75c89	0.35812786
59	0xbe15dfc2	-0.14636138
60	0xbef4e150	-0.4782815
61	0x3e907b64	0.2821914
62	0x3f09fa6f	0.53897756
63	0x3d45119b	0.048112493
64	0xbf7ec0ee	-0.9951314
65	0x3f94ef00	1.1635437
66	0xbcc77747	-0.024348868
67	0x3dde786e	0.10862814
68	0xbd303777	-0.043021645
69	0xbd88cd60	-0.06679797
70	0x3ef4742a	0.47744876
71	0x3d744935	0.05964013
72	0x3ef31e22	0.47483927
73	0xbe32d70c	-0.17464846
74	0x3f881173	1.0630325
75	0x3ea64cc2	0.32480437
76	0x3f62a3bf	0.88531107
77	0xbeb8bcf6	-0.36081666
78	0xbf17c3dc	-0.5928323
79	0xbec9aa2f	-0.39387652
80	0x3ee7e361	0.45290664
81	0xbf9d92d4	-1.2310433
82	0xbe9b6db6	-0.3035714
83	0x3de1b465	0.11020736
84	0xbde1e7c0	-0.11030531
85	0x3f184d0c	0.59492564
86	0x3d9e2b8b	0.07723149
87	0xbf303bed	-0.6884144
88	0xbf3b2ed4	-0.7311833
89	0xbe97e8ff	-0.2966995
90	0xbf0c7643	-0.54867953
91	0xbe6eb85b	-0.23312514
92	0x3d98c111	0.074586995
93	0x3e1a9d71	0.15099122
94	0x3f54d4b0	0.83137035
95	0xbc778ff8	-0.015110008
96	0x3eb3143e	0.3497638
97	0x3f65fd9e	0.89840114
98	0xbfa84120	-1.3144875
99	0x3bd4d8b0	0.0064955577
100	0x3de044fd	0.109506585
101	0x3fd3139e	1.6490362
102	0xbd6d80b3	-0.057984065
103	0x3ed4b5ec	0.41545045
104	0x3eae4b2a	0.3404172
105	0xbe1bb2dd	-0.1520495
106	0x3eb87b73	0.36031684
107	0x3df711ea	0.12063964
108	0xbefe3aba	-0.4965418
109	0x3ea00903	0.31256875
110	0x3f0829df	0.5318889
111	0x3ccd9898	0.025097176
112	0xbf7c6b03	-0.98600787
113	0x3f98cebb	1.1938089
114	0xbd9d8a65	-0.07692412
115	0x3d964bb2	0.073386565
116	0x3d78fea9	0.060789738
117	0xbe147900	-0.14499283
118	0x3efd7874	0.4950596
119	0x3dd34156	0.10315196
120	0x3ef38f58	0.475703
121	0xbe36e967	-0.17862473
122	0x3f89a9fb	1.0754999
123	0x3eba6c2b	0.3641065
124	0x3f6148ff	0.8800201
125	0xbece1b2a	-0.402551
126	0xbf1d2d07	-0.6139683
127	0xbecacc76	-0.39609116
128	0x3eeda1ae	0.46412414
129	0xbfa2d319	-1.2720672
130	0xbe9a5c8b	-0.3014873
131	0x3da7874c	0.08180103
132	0xbdf57661	-0.119854696
133	0x3f1826e8	0.59434366
134	0x3d98e19d	0.07464907
135	0xbf3c7bc4	-0.7362635
136	0xbf40c1de	-0.7529582
137	0xbe8cbe2d	-0.27488843
138	0xbefa4431	-0.4888015
139	0xbe60fc08	-0.21971142
140	0x3d8c88ca	0.06862028
141	0x3dfe2f9d	0.12411425
142	0x3f57b979	0.84267384
143	0x3db8dfaf	0.09027039
144	0x3ebca747	0.36846372
145	0x3ed1b7ca	0.40960532
146	0xbf4c6053	-0.7983448
147	0xbc982871	-0.018573971
148	0xbe58f8ca	-0.21188655
149	0x3c8b40f5	0.016998747
150	0xbe6c2828	-0.23062193
151	0x3e80cef6	0.251579
152	0xbe8cb129	-0.27478912
153	0xbdff4b86	-0.12465577
154	0xbbaeacf5	-0.0053306767
155	0xbdd72dfe	-0.10506819
156	0xbe8b7e21	-0.27244666
157	0x3e766924	0.24063545
158	0xbcac1cf2	-0.021009896
159	0xbd03e7ea	-0.032203592
160	0x3db27a45	0.08714727
161	0x3ee76d3d	0.4520053
162	0x3ddcd1c5	0.10782198
163	0xbe663af5	-0.22483428
164	0x3d724974	0.05915208
165	0xbd582069	-0.052765284
166	0x3e411c9c	0.1885857
167	0x3d7b3b60	0.06133592
168	0x3c8cf877	0.017208321
169	0xbe1ba874	-0.15200979
170	0x3e28f67f	0.16500281
171	0x3eed4c9e	0.46347517
172	0x3ca02368	0.019548133
173	0xbe9f38d7	-0.31098053
174	0xbecadcc1	-0.39621547
175	0xbc4927a6	-0.012277519
176	0x3e7b5a10	0.24546075
177	0xbf0ed31d	-0.55790883
178	0xbc276d74	-0.010218967
179	0xbe96a154	-0.2941996
180	0xbe463638	-0.1935662
181	0x3d25eaf8	0.040507287
182	0x3c8839ef	0.016629187
183	0xbf1887dd	-0.5958231
184	0xbea799d8	-0.3273456
185	0x3df4c7c9	0.119521685
186	0x3f1b4a46	0.6066021
187	0x3deb5a9a	0.1149189
188	0xbd8c6bd6	-0.068565056
189	0xbe566be5	-0.20939596
190	0x3e22a149	0.15881838
191	0xbd6ba595	-0.05753096
192	0x3e3d251c	0.18471187
193	0x3f3abde9	0.7294603
194	0xbf7f4687	-0.9971699
195	0xbdf6d52a	-0.120523766
196	0x3e5de9e6	0.21671256
197	0x3fd75380	1.6822357
198	0x3d29a36c	0.041415617
199	0x3ea013b7	0.3126504
200	0x3eef5387	0.46743414
201	0xbdd6c929	-0.10487587
202	0x3ebc9e7c	0.36839664
203	0x3e1f7695	0.15572579
204	0xbec98601	-0.3936005
205	0x3e73fd6a	0.23827139
206	0x3f1066ce	0.5640687
207	0x3cb930df	0.022606311
208	0xbf85f1ca	-1.0464413
209	0x3f81c13f	1.0137099
210	0xbcaa013a	-0.020752538
211	0x3e3698ea	0.1783177
212	0xbdff5b5c	-0.12468597
213	0xbd6886e6	-0.056769274
214	0x3ed4d1a4	0.41566193
215	0x3d9d8562	0.076914564
216	0x3ef63951	0.48090604
217	0xbd2f963d	-0.042867888
218	0x3f82f83c	1.0232005
219	0x3e2bf22c	0.167916
220	0x3f62d536	0.88606584
221	0xbe5f18f4	-0.21786863
222	0xbeef60f6	-0.46753663
223	0xbecf0673	-0.40434608
224	0x3ebe8281	0.37208942
225	0xbf865c46	-1.049691
226	0xbe9186a6	-0.2842304
227	0x3e553508	0.20821011
228	0xbc376157	-0.011192641
229	0x3f14e6f1	0.5816489
230	0x3d8cf85a	0.06883307
231	0xbf0085f0	-0.5020437
232	0xbf1ff8ab	-0.6248881
233	0xbea93599	-0.33048704
234	0xbf413c33	-0.7548248
235	0xbe8df4d9	-0.27725866
236	0x3dccb7a6	0.09995966
237	0x3e655e2e	0.22399208
238	0x3f49e053	0.78857917
239	0xbc854025	-0.016265938
240	0xbeabd16f	-0.33558223
241	0xbe966c95	-0.29379717
242	0x3f27a30c	0.65483165
243	0x3d732066	0.05935707
244	0x3e796b58	0.24357355
245	0x3e8369f1	0.25666764
246	0x3e7385c4	0.23781496
247	0xbe542a23	-0.20719199
248	0x3eb60628	0.35551572
249	0x3e0a5eb8	0.13512695
250	0x3d84030b	0.06445893
251	0x3b39a611	0.0028327743
252	0x3e5b9e21	0.2144704
253	0xbe611a1c	-0.21982616
254	0x3dd750e2	0.10513474
255	0x3d436d22	0.0477115

fc_smart.bias f4 [64]
0	0xbd8235c0	-0.06357908
1	0xbdcad0f4	-0.09903136
2	0xbd6b143d	-0.057392348
3	0x3dd16bf3	0.10225668
4	0xbd722b9a	-0.059123613
5	0xbdb7eb3f	-0.089804165
6	0x3dc76536	0.09736101
7	0x3bf8d573	0.0075938045
8	0xbd66f2fd	-0.056384075
9	0xbba11ceb	-0.0049167774
10	0xbe105ea2	-0.140986
11	0x3dfb0723	0.122572206
12	0x3d381ff6	0.044952355
13	0x3da09f98	0.0784294
14	0xbd8fcc4f	-0.07021391
15	0xbd205cfc	-0.039151177
16	0x3de0b30d	0.10971651
17	0x3c9b9235	0.018990615
18	0x3c05e179	0.008171433
19	0xbd83b87b	-0.06431671
20	0xbd16a160	-0.036774993
21	0xbcb90c3e	-0.022588845
22	0x3d1befcb	0.03807048
23	0xbd512a79	-0.051065896
24	0xbdae31bd	-0.085055806
25	0x3d2c8d01	0.04212666
26	0xbb862ec2	-0.0040949294
27	0x3d92fc82	0.07177068
28	0x3d8718ca	0.06596525
29	0x3ca757a4	0.020427532
30	0xbdbe1bbb	-0.09282633
31	0x3d92a3d2	0.071601525
32	0x3d1ea459	0.038730953
33	0x3d995d35	0.07488481
34	0x3d3a24a6	0.045445107
35	0x3dc92268	0.098210156
36	0x3bc7f270	0.006101899
37	0x3cce14ea	0.025156457
38	0x3d233329	0.039843712
39	0xbd55d8fe	-0.052208893
40	0x3af0ae3e	0.0018362475
41	0xbd58ccaa	-0.052929558
42	0x3da54860	0.08070445
43	0x3ae69232	0.0017591177
44	0x3d1b92b7	0.037981715
45	0xbe19079f	-0.14944313
46	0xbd7360ff	-0.059418675
47	0xbd90d18e	-0.070712194
48	0x3dd901d9	0.105960555
49	0x3c886160	0.016647995
50	0xbd96d336	-0.07364504
51	0xbdbb6313	-0.09149756
52	0xbce385a0	-0.027773678
53	0xbd8858d6	-0.06657569
54	0x3c9aa175	0.018875817
55	0x3d6ca3d1	0.057773415
56	0x3dac397c	0.08409402
57	0x3dd93d42	0.10607387
58	0x3db8eb71	0.09029282
59	0xbd81b4ff	-0.063333504
60	0xbca8d7a6	-0.020610642
61	0x3dcaac67	0.098961644
62	0x3d55cda3	0.052198064
63	0xbccb09b2	-0.024784897

network_aging.lstm.weight_ih_l0 f4 [128, 5]
0	0xbdb44af6	-0.0880336
1	0x3d3f2638	0.046667308
2	0x3cbb24af	0.02284464
3	0x3dd366c7	0.103223376
4	0x3d558a32	0.052133746
5	0x3e2a2053	0.16613893
6	0xbd62d974	-0.05538316
7	0x3c3ba915	0.0114538865
8	0xbdb3531c	-0.08756086
9	0x3d316180	0.043305874
10	0x3e395a17	0.18100773
11	0x3dea7965	0.114489354
12	0x3e63abe1	0.22233535
13	0x3dbb0a40	0.091328144
14	0xbdfabd90	-0.122431874
15	0x3dc2b9cd	0.09508095
16	0x3daeeb6a	0.085409954
17	0xbdbba717	-0.09162729
18	0xbe1b6d69	-0.15178455
19	0x3e2a08de	0.16604945
20	0x3e6f9c2a	0.23399416
21	0xbd634b50	-0.055491745
22	0xbc4c08c1	-0.012453259
23	0x3dcc34a4	0.09970978
24	0xbd7fa0f7	-0.062409367
25	0x3b7fe536	0.0039046532
26	0xbd84859d	-0.06470797
27	0x3db10cf1	0.086450465
28	0x3da70762	0.08155705
29	0xbd95fe4d	-0.07323895
30	0xbdf73cf4	-0.12072173
31	0xbe065082	-0.13116649
32	0xbd83b16f	-0.06430327
33	0x3dccef07	0.10006528
34	0xbc833c90	-0.01602009
35	0x3e26ce6c	0.16289681
36	0xbdb62209	-0.088932104
37	0x3e19bedf	0.15014218
38	0x3d91e628	0.07123977
39	0xbd1fc739	-0.039008353
40	0x3e07d561	0.13264991
41	0x3db9fdb8	0.09081596
42	0x3e371612	0.17879513
43	0x3e459db6	0.19298443
44	0xbe074ec4	-0.1321364
45	0xbd6624ae	-0.056187324
46	0xbcf04666	-0.029330444
47	0x3db51534	0.08841935
48	0xbdb67f38	-0.08910984
49	0x3e1c123b	0.1524133
50	0x3e4c0020	0.19921923
51	0x3df358e1	0.11882187
52	0x3cb658ee	0.022259202
53	0x3d153dab	0.036435764
54	0x3e47d501	0.19514848
55	0xbd671ad1	-0.05642206
56	0xbc825bd2	-0.015912924
57	0xbde7da29	-0.113209076
58	0x3ddaf9fb	0.10692211
59	0x3e379f54	0.17931873
60	0x3e41573b	0.18880932
61	0xbda114b2	-0.078652754
62	0x3d8003ce	0.06250726
63	0x3c1a344f	0.009411885
64	0xbdc2fe3a	-0.09521146
65	0x3d8cc671	0.06873787
66	0x3e091e54	0.13390476
67	0xbdbe8037	-0.09301799
68	0x3e61e054	0.2205823
69	0xbd2bd5c1	-0.0419519
70	0x3e125ed8	0.14293993
71	0x3e231fe7	0.15930139
72	0xbd9fe12e	-0.078066215
73	0xbd129aaa	-0.03579203
74	0x3e00e18d	0.12586041
75	0x3d2dd71a	0.042441465
76	0xbc76a4d4	-0.0150539465
77	0xbda5d43d	-0.08097122
78	0xbe13f011	-0.14447047
79	0xbcb765d4	-0.022387423
80	0xbcfd08e9	-0.030888038
81	0x3c1af84b	0.009458612
82	0x3cd99379	0.026559578
83	0xbd2d74bb	-0.04234765
84	0xbe2308d0	-0.1592133
85	0x3dcdc092	0.100464955
86	0x3c935ce9	0.017988639
87	0x3e1d39fb	0.15354149
88	0x3e17468d	0.14773007
89	0xbd177620	-0.036977887
90	0x3da89222	0.082309976
91	0xbe02e8ae	-0.12784073
92	0xbd871ac0	-0.06596899
93	0x3ce41e67	0.027846528
94	0x3de13ea7	0.10998278
95	0x3cb784d9	0.022402214
96	0xbdbebd66	-0.09313469
97	0xbd5e6932	-0.05429954
98	0xbdba1880	-0.09086704
99	0xbd5cea5a	-0.053934433
100	0xbd3a1ab9	-0.04543564
101	0x3e423289	0.1896459
102	0xbd80a008	-0.062805235
103	0xbe04c3d9	-0.12965335
104	0xbde59584	-0.112101585
105	0x3e340f3c	0.17583936
106	0xbdfc21dc	-0.12311146
107	0x3d91a2f2	0.071111575
108	0xbc43b9ae	-0.011946125
109	0x3b9ae4d1	0.004726984
110	0x3da1d7b0	0.07902467
111	0x3d975f0d	0.073911764
112	0xbdd2a7ed	-0.102859356
113	0x3d9bf073	0.076142214
114	0xbe20d24b	-0.1570522
115	0x3de49159	0.11160535
116	0x3dc71066	0.09719925
117	0x3dfff3a0	0.1249764
118	0x3d90e7a8	0.07075435
119	0x3d26e162	0.040742286
120	0xbdae5884	-0.08512977
121	0x3de36791	0.11103738
122	0xbd762398	-0.06009254
123	0xbdaa535c	-0.08316681
124	0x3e401592	0.18758228
125	0x3e0c829c	0.13721699
126	0x3e0ec5bb	0.13942616
127	0xbd8482a7	-0.064702325
128	0xbdb6b0cc	-0.0892044
129	0x3c316be5	0.010828947
130	0x3e37be0c	0.17943591
131	0x3d8b96e1	0.06815887
132	0x3dfcdbd1	0.12346614
133	0x3d08fa75	0.03344198
134	0x3e425fd9	0.18981875
135	0xbce6f46e	-0.028192725
136	0xbdcc28a5	-0.0996869
137	0x3dd61540	0.10453272
138	0xbe0ebef7	-0.13940035
139	0x3dc6697d	0.09688089
140	0x3c9dfe43	0.01928628
141	0x3df462d4	0.119329125
142	0x3d65be29	0.056089554
143	0xbe025775	-0.12728675
144	0x3d62cbf0	0.05537027
145	0xbd9a9872	-0.07548608
146	0xbdc1dcc9	-0.094659396
147	0xbc436c1e	-0.011927633
148	0xbd487dd4	-0.048948124
149	0x3e393504	0.1808663
150	0xbdf97c69	-0.121819325
151	0x3de19a23	0.11015727
152	0x3dd38bbc	0.103293866
153	0x3e27e3fc	0.16395563
154	0xbdb164a6	-0.08661775
155	0xbe00c3a3	-0.1257463
156	0x3e0a96ea	0.13534132
157	0xbe0681c8	-0.13135445
158	0x3db01037	0.08596843
159	0x3d11d530	0.035603702
160	0x3deecec4	0.11660531
161	0xbdd1d2d3	-0.1024529
162	0xbc2d4657	-0.010575852
163	0x3caa43f8	0.020784363
164	0x3ddd8dcc	0.10818061
165	0x3d1d1629	0.03835121
166	0x3d829593	0.06376185
167	0x3db427dd	0.08796666
168	0xbe05143c	-0.12996
169	0xbda62303	-0.08112147
170	0x3dfb9ce5	0.12285785
171	0x3e7ae8da	0.24502888
172	0xbcad8de3	-0.02118582
173	0x3d893955	0.06700388
174	0xbdd02ee0	-0.10165191
175	0x3e5e579b	0.21713106
176	0xbd94cbb1	-0.072654136
177	0x3e16c1dd	0.1472239
178	0xbde52cc1	-0.11190177
179	0xbd49f682	-0.049307354
180	0xbdb77630	-0.08958089
181	0x3d914348	0.07092911
182	0x3da5bb48	0.08092362
183	0x3d1b264c	0.03787832
184	0x3e46bf9a	0.19409028
185	0x3e7029d7	0.2345346
186	0x3bcedbc3	0.0063128187
187	0x3ddda6a0	0.10822797
188	0x3d31011c	0.04321395
189	0x3e051528	0.12996352
190	0xbd50bbc5	-0.05096032
191	0x3d586208	0.052827865
192	0x3e0faea2	0.14031461
193	0xbdc7bedc	-0.097532004
194	0xbd3d3d0f	-0.04620081
195	0xbdb2fa1d	-0.087391116
196	0xba895cf9	-0.0010479979
197	0x3dcc3094	0.09970203
198	0xbe1730bf	-0.14764689
199	0xbcf22029	-0.02955635
200	0x3d098ae0	0.033579707
201	0xbd839387	-0.06424623
202	0xbe11bfc8	-0.14233315
203	0xbd23e336	-0.040011607
204	0x3d411346	0.04713752
205	0xbdd7aaeb	-0.10530647
206	0x3e5b6665	0.21425779
207	0xbcc49dc1	-0.024001004
208	0xbe001e1c	-0.12511486
209	0x3db66bbf	0.0890727
210	0xbaebe536	-0.0017997387
211	0xbd0e496f	-0.034738
212	0x3bd2c5ac	0.0064322557
213	0x3d0b36c4	0.033987775
214	0xbd57e3f1	-0.052707616
215	0xbda1bbec	-0.078971714
216	0x3e3169b4	0.17325479
217	0xbd7a97e0	-0.061179996
218	0xbddd1dac	-0.10796675
219	0x3de9d4f6	0.11417572
220	0x3b563bad	0.0032689378
221	0x3e15d7c6	0.14633092
222	0xbdcd3a7a	-0.10020919
223	0x3e281e46	0.16417798
224	0x3d45fc16	0.04833611
225	0x3df2b284	0.118504554
226	0xbd7831c8	-0.06059435
227	0x3cbec959	0.02328937
228	0x3e23c854	0.15994388
229	0x3e0951e3	0.13410144
230	0xbdef0f89	-0.11672885
231	0x3dfe259b	0.124095164
232	0xbd998160	-0.074953794
233	0x3d4c5a96	0.049891077
234	0xbe22fc6b	-0.15916602
235	0x3ccac410	0.024751693
236	0xbcdd4448	-0.027010098
237	0x3d9d7cd1	0.076898225
238	0xbd5cc66b	-0.053900164
239	0x3d753c7b	0.05987213
240	0xbd3528a5	-0.044228215
241	0x3dc68953	0.09694161
242	0x3d774e2d	0.06037729
243	0x3e1bdb05	0.15220268
244	0x3ddd3bab	0.108023964
245	0x3e4afa85	0.19822128
246	0x3c2fa65e	0.010720817
247	0xbdc91844	-0.098190814
248	0x3d8bb3d2	0.068214074
249	0x3e271eb3	0.16320305
250	0x3e36bfd7	0.17846619
251	0xbd67c95c	-0.056588516
252	0x3c2ac49b	0.010422851
253	0xbd2e399d	-0.042535413
254	0x3e3d2495	0.18470986
255	0x3e2c9212	0.16852596

network_aging.lstm.weight_hh_l0 f4 [128, 32]
0	0xbc8f573b	-0.01749765
1	0xbd6f25bc	-0.058385596
2	0xbceab162	-0.028649036
3	0x3e50dc02	0.20396426
4	0xbe755533	-0.23958282
5	0x3d1fba96	0.0389963
6	0xbd9fc3fb	-0.07801052
7	0x3d8cc1e4	0.06872919
8	0x3d0a5e58	0.03378138
9	0xbda94089	-0.08264262
10	0x3e626b0f	0.22111152
11	0x3d9dd6e7	0.07707005
12	0x3e23176e	0.15926906
13	0x3db4128f	0.08792602
14	0xbdbee996	-0.09321897
15	0x3e100573	0.14064579
16	0xbbe50eb0	-0.0069902763
17	0xbd00924e	-0.031389527
18	0xbdcf2a01	-0.101154335
19	0x3d168a2b	0.03675286
20	0xbd36314c	-0.044480607
21	0xbcd8891b	-0.026432564
22	0xbe1b43bc	-0.15162557
23	0xbbeacf20	-0.0071658045
24	0x3da875cf	0.08225595
25	0x3d226201	0.039644245
26	0x3e1f3b29	0.15549912
27	0x3d224f59	0.039626453
28	0xbe19a1b6	-0.15003094
29	0x3da3f112	0.08004965
30	0xbd30827d	-0.043093193
31	0xbc50559b	-0.012715722
32	0xbdb794a9	-0.089639015
33	0x3ca93ea3	0.02065975
34	0x3e0236f7	0.1271628
35	0x3d27e25c	0.040987357
36	0xbddfc2b2	-0.10925807
37	0x3e363817	0.17794834
38	0xbd9dc48e	-0.077035055
39	0xbdae30b5	-0.08505384
40	0xbe03b40f	-0.12861656
41	0x3dfbc49e	0.12293361
42	0xbd69954f	-0.057027157
43	0x3c53dca7	0.012931026
44	0x3e0a6640	0.13515568
45	0x3d97b9fa	0.07408519
46	0xbe4475e3	-0.19185595
47	0x3e21e394	0.1580947
48	0xbd9ac919	-0.075578876
49	0xbda8f7b6	-0.08250372
50	0xbdd4f782	-0.10398771
51	0x3e291731	0.16512753
52	0xbdff8563	-0.124766134
53	0xbd03c993	-0.032174658
54	0x3d3c26b7	0.04593536
55	0x3d44cba7	0.04804578
56	0x3ded2b7a	0.11580558
57	0xbd88366f	-0.066510074
58	0x3de27ac3	0.11058571
59	0xbd9b90fb	-0.07596012
60	0xbe33dcda	-0.17564717
61	0x3cb3d914	0.021954097
62	0xbda29b0a	-0.079397276
63	0x3e345a70	0.17612624
64	0xbd996eeb	-0.07491859
65	0x3d88cf1c	0.06680128
66	0xba015935	-0.00049342524
67	0x3dad0b50	0.08449423
68	0xbde521e4	-0.11188105
69	0xbc897b47	-0.016782416
70	0xbe54b23b	-0.20771115
71	0x3d12de0a	0.035856284
72	0x3c4e35f0	0.012586102
73	0x3d63dd9e	0.055631272
74	0x3d2c2b2c	0.04203336
75	0xbe4fcb59	-0.20292415
76	0xbd203a6d	-0.03911822
77	0xbddcb4f4	-0.107767016
78	0xbe82481d	-0.25445643
79	0x3e5e3b19	0.21702231
80	0xbe35e2b8	-0.17762268
81	0xbdb42626	-0.08796339
82	0x3d445117	0.047928896
83	0x3e6d82a9	0.23194374
84	0xbd8491cf	-0.06473123
85	0xbdf98fa7	-0.12185603
86	0x3cb1831b	0.021668961
87	0x3d935222	0.071934
88	0x3e01dbee	0.12681553
89	0xbbf2c2c4	-0.007408472
90	0x3da50a7d	0.08058641
91	0xbdc66fb0	-0.096892715
92	0xbe11b6c6	-0.14229879
93	0x3d979660	0.07401729
94	0x3e74f88c	0.23922938
95	0x3df32b65	0.11873511
96	0x3ca238bb	0.019802442
97	0xbc5bdeac	-0.013419788
98	0x3e450a1a	0.19242135
99	0xbbd6f0bf	-0.006559461
100	0xbdee9a57	-0.11650532
101	0x3c6428a9	0.01392571
102	0xbe53aba9	-0.20670952
103	0xbe2d6ab0	-0.1693523
104	0xbd841d5e	-0.06450914
105	0x3abb28fc	0.0014279182
106	0x3e6ec8dc	0.2331881
107	0xbdcee583	-0.1010237
108	0x3defb8fe	0.11705206
109	0xbd8899a6	-0.06669931
110	0xbd2029ea	-0.039102472
111	0xbce5ea92	-0.028065953
112	0x3dcaf481	0.09909917
113	0x3cfd0622	0.030886713
114	0xbb876d43	-0.004132898
115	0xbb2e4e84	-0.0026597092
116	0x3dcd27d9	0.10017366
117	0xbdacb035	-0.08432046
118	0x3d45ea26	0.048319004
119	0xbe42161a	-0.18953744
120	0x3e2da452	0.16957214
121	0x3dc4d6e2	0.09611298
122	0x3d22646a	0.039646544
123	0x3d5e0da0	0.054212213
124	0xbe11824b	-0.14209859
125	0xbe57a5d8	-0.21059358
126	0xbdc27afe	-0.09496115
127	0x3e1a36c8	0.1505996
128	0xbcacfeea	-0.021117646
129	0x3dc5b80c	0.09654245
130	0x3d60ce2e	0.05488413
131	0xbdb399e9	-0.087695904
132	0x3d9a4907	0.0753346
133	0x3cf9b3c3	0.030481225
134	0xbd6fe4b3	-0.058567714
135	0xbdd53955	-0.10411326
136	0xbe8327b6	-0.25616235
137	0x3db0843a	0.0861897
138	0xbde9d177	-0.114169054
139	0xbe0ea4a3	-0.13929991
140	0x3d91f3a8	0.07126552
141	0xbd89201d	-0.06695578
142	0xbe048c33	-0.12944107
143	0xbbf19ad1	-0.007373192
144	0x3d8e1737	0.06938022
145	0xbd92568e	-0.07145415
146	0x3e2cec15	0.16886933
147	0xbd30c84e	-0.043159775
148	0xbe5c0b1c	-0.21488613
149	0xbe1116c4	-0.1416884
150	0xbd26f393	-0.040759634
151	0x3d2193ee	0.039447717
152	0x3e4092c8	0.18805993
153	0x3e00a858	0.12564218
154	0x3e69897b	0.22806351
155	0x3d998129	0.074953385
156	0xbd96cf88	-0.07363802
157	0xbe5a0a37	-0.21292959
158	0xbb0425f5	-0.0020164226
159	0x3e1ccdc7	0.15312873
160	0x3d8c6a8f	0.06856262
161	0x3d5d1a8b	0.05398039
162	0xbcfebbff	-0.031095503
163	0xbe1cba27	-0.15305386
164	0xbd3221cc	-0.043489262
165	0xbd38da7e	-0.045130245
166	0x3d3aeedf	0.04563796
167	0xbe0babc8	-0.13639748
168	0x3d4a886b	0.049446505
169	0x3d9bb81e	0.07603477
170	0x3db81585	0.089884795
171	0x3e0fe28d	0.14051266
172	0x3e5391db	0.20661108
173	0x3d9f3e3c	0.07775542
174	0xbddd79f3	-0.108142756
175	0xbc17cd9d	-0.009265331
176	0xbe2630c8	-0.16229546
177	0xbd88e4fe	-0.06684302
178	0xbd01d847	-0.0317004
179	0xbdd891d1	-0.10574687
180	0xbce23890	-0.027614862
181	0xbe46a116	-0.19397387
182	0x3cc69fcf	0.024246125
183	0xbe5e70ac	-0.21722668
184	0x3e755551	0.23958327
185	0xbdcd13ef	-0.10013568
186	0xbd6a3e0c	-0.05718808
187	0x3ddcfb87	0.107901625
188	0x3d5bf2a1	0.053698186
189	0xbdf2e8f5	-0.11860839
190	0x3e7e3aa1	0.24827053
191	0x3d4d7886	0.05016377
192	0x3d081b9d	0.03322946
193	0x3c9202de	0.017823633
194	0x3e1b49a0	0.15164804
195	0x3d8d75c1	0.069072254
196	0x3d8b3b0c	0.06798372
197	0x3d52ebb5	0.05149432
198	0x3ccb9878	0.024852976
199	0x3ca89b05	0.020581732
200	0xbe391e7d	-0.18078037
201	0x3e17cb2d	0.14823599
202	0x3c9fc0df	0.019501148
203	0xbdcd54d1	-0.10025943
204	0xbd4f7067	-0.050644305
205	0xbcf1488b	-0.029453536
206	0xbdc210b2	-0.09475841
207	0x3dd6e985	0.10493759
208	0x3d172f0d	0.036910105
209	0x3e6cde7d	0.23131748
210	0x3dbf55d7	0.093425445
211	0x3dbeffe5	0.09326152
212	0xbe545f34	-0.20739442
213	0xbe2939a0	-0.16525888
214	0xbe3971bd	-0.18109794
215	0x3d76d4b1	0.060261432
216	0x3ceaaf5b	0.02864807
217	0x3e5754f5	0.21028502
218	0xbd3a15c3	-0.04543091
219	0xbe4f413e	-0.20239732
220	0xbe58b749	-0.21163668
221	0x3a12d839	0.00056016777
222	0x3d9914f1	0.074746974
223	0x3dd3332a	0.10312493
224	0xbd9512da	-0.07278986
225	0xbdb04232	-0.08606376
226	0xbd82b23f	-0.06381654
227	0xbacd0d08	-0.0015644142
228	0xbe07a1da	-0.13245335
229	0x3e519f63	0.20470957
230	0xbe2263d9	-0.15858401
231	0xbe41fd9d	-0.18944402
232	0xbe26d2bf	-0.16291331
233	0x3e47a0a6	0.19494876
234	0xbd9d3e73	-0.07677927
235	0xbe360b0c	-0.17777652
236	0x3ce2933d	0.0276581
237	0xbdbd6963	-0.092486165
238	0xbe2e593d	-0.17026229
239	0xbda59f70	-0.08087051
240	0xbca1febb	-0.019774785
241	0x3cf14df6	0.02945612
242	0x3ddc2192	0.107485905
243	0x3d8f12b9	0.06985993
244	0x3c2580bc	0.010101493
245	0xbdc9547a	-0.09830566
246	0x3d4283df	0.047489043
247	0xbe5352ad	-0.20637007
248	0xbd92177c	-0.071333855
249	0x3c906f91	0.017631324
250	0xbd843950	-0.06456244
251	0x3dbf8f27	0.09353476
252	0x3b805757	0.0039166617
253	0xbc93acce	-0.018026736
254	0xbdc0b0bc	-0.094087094
255	0x3e59c33f	0.21265887
