trained_model/mc1_mc2/45_days_lookahead/pnet_checkpoint/pnet_online_1500.pth (torch, 545278 bytes, 36 tensors)

network_smart.layer1.0.weight f4 [128, 330]
0	0x3c83efab	0.016105494
1	0xbed4961a	-0.41520768
2	0x3f3e6887	0.74378246
3	0xbcfaf047	-0.030632151
4	0x3f18cca0	0.5968723
5	0xbcd254d0	-0.025675207
6	0x3f51ad27	0.81904835
7	0xbd9b8820	-0.07594323
8	0x3d338f9b	0.043838125
9	0x3f2c1d8a	0.67232573
10	0x3d664807	0.056221034
11	0xbd0dfbde	-0.034664027
12	0x3e371c47	0.1788188
13	0x3f44dd4d	0.7690018
14	0x3d176f68	0.03697148
15	0x3f30738b	0.68926305
16	0xbe13bd2f	-0.14427637
17	0x3f58faa7	0.84757465
18	0xbd309af1	-0.043116514
19	0x3d866b89	0.065634795
20	0x3f344826	0.7042259
21	0x3d5de346	0.054171823
22	0x3d649521	0.055806283
23	0xbd151629	-0.036398087
24	0x3f2f94b0	0.68586254
25	0xbd091e4f	-0.03347617
26	0x3f30aa4b	0.69009846
27	0xbe2c5cac	-0.16832227
28	0x3f4a79f2	0.79092324
29	0xbdaa5c1f	-0.08318352
30	0xbed68a0b	-0.41902193
31	0x3f303968	0.68837595
32	0x3e0332e8	0.12812388
33	0xbb0ff170	-0.0021963976
34	0xbead05fd	-0.3379363
35	0x3f08a8a7	0.53382343
36	0x3cd62a75	0.026143292
37	0x3f5b3567	0.8562836
38	0xbde45a89	-0.11150081
39	0x3f5251d2	0.821561
40	0xbd9aca5e	-0.0755813
41	0x3dafdb19	0.085867114
42	0x3f6d39e6	0.9266647
43	0x3d982faf	0.0743097
44	0x3c726448	0.014794417
45	0xbee60d82	-0.4493218
46	0x3eeb21c7	0.45924208
47	0x3cb6b99a	0.022305299
48	0x3f5e8784	0.8692553
49	0xbdf45ffb	-0.11932369
50	0x3f504a2d	0.81363183
51	0xbe3229bb	-0.17398731
52	0x3b99de4e	0.0046956902
53	0x3f56be5d	0.8388422
54	0x3d2ec717	0.042670336
55	0xbd0b1fb1	-0.03396577
56	0xbf1cb6f6	-0.61216676
57	0x3f07f5e4	0.53109574
58	0x3d3c4be8	0.045970827
59	0x3f9c9681	1.223343
60	0xbdf98f30	-0.12185514
61	0x3f4b1bc2	0.7933923
62	0xbe047024	-0.12933403
63	0xbe6c40fb	-0.23071663
64	0x3f94ccad	1.1624962
65	0x3d4e2d14	0.05033596
66	0x3cbc6085	0.022995243
67	0x3e3c0f1e	0.18365142
68	0x3f037c1a	0.5136124
69	0x3d238c11	0.0399285
70	0x3fa78091	1.308611
71	0xbe148012	-0.1450198
72	0x3f479cd1	0.7797366
73	0xbd8f0ece	-0.06985246
74	0x3d9dbdba	0.07702203
75	0x3fa22aab	1.2669271
76	0x3dd8137b	0.105505906
77	0x3cd781f2	0.02630708
78	0x3eb93f50	0.36181116
79	0x3f082af2	0.5319053
80	0x3cbc4ebd	0.022986764
81	0x3fa52111	1.2900716
82	0xbe73d745	-0.23812588
83	0x3f447cf0	0.7675314
84	0xbc136dca	-0.008998344
85	0x3db8fa63	0.090321325
86	0x3fb21508	1.3912668
87	0x3e0c57fd	0.1370544
88	0x3c714e96	0.014728209
89	0x3e83a116	0.25708836
90	0x3ef91b08	0.48653436
91	0xbd28825d	-0.04113995
92	0x3fadef86	1.3588722
93	0xbe1080c0	-0.14111614
94	0x3f4f340e	0.80938804
95	0xbc37bfe9	-0.011215189
96	0x3ddbeb41	0.107382305
97	0x3fb44cc4	1.4085927
98	0x3cfd402b	0.030914387
99	0xbce55671	-0.02799532
100	0x3e789052	0.24273804
101	0x3f03147d	0.5120314
102	0xbd510dda	-0.0510386
103	0x3fba311e	1.4546239
104	0xbd4abe97	-0.049498167
105	0x3f4b9c5c	0.7953546
106	0xbd63d146	-0.0556195
107	0x3da4a679	0.08039565
108	0x3fbf5757	1.4948529
109	0x3da5febe	0.08105229
110	0xbdc6672f	-0.096876495
111	0xbd403ddf	-0.046934005
112	0x3ef3607b	0.47534546
113	0x3d3fcafd	0.046824444
114	0x3fcc5117	1.5962247
115	0xbda1c155	-0.07898203
116	0x3f460df1	0.7736502
117	0x3cf9f1ba	0.030510772
118	0x3d38e5d5	0.04514106
119	0x3fc3e789	1.5305034
120	0x3e018602	0.12648776
121	0xbd10ccca	-0.035351552
122	0xbd1986b8	-0.037481993
123	0x3ef1ae7c	0.47203434
124	0xbd699672	-0.05702824
125	0x3fe34fd6	1.7758739
126	0xbd8c1a3a	-0.0684094
127	0x3f467ca9	0.77533966
128	0x3c33938c	0.010960471
129	0x3cc35a9f	0.023846922
130	0x3fdc3dbe	1.7206342
131	0x3d8a2427	0.06745177
132	0xbcdbfa9b	-0.026852896
133	0x3da669f3	0.08125677
134	0x3ef26ecb	0.47350153
135	0xbc964505	-0.018343458
136	0x40124777	2.2856119
137	0xbd88e765	-0.0668476
138	0x3f538313	0.8262188
139	0xbd2f5cfc	-0.042813286
140	0x3d4ef86d	0.050529886
141	0x40149ddd	2.3221352
142	0x3db25d45	0.08709196
143	0x399b5296	0.00029625435
144	0x3cd937b2	0.026515815
145	0x3f006d97	0.5016722
146	0x3c5979d8	0.013273679
147	0x402adb9c	2.669654
148	0xbd1235ae	-0.035695724
149	0x3f49a1fb	0.7876279
150	0x3d59e3e5	0.053195853
151	0x3d07cacf	0.033152398
152	0x402ec942	2.7310338
153	0x3dc41623	0.09574535
154	0xbd9664f5	-0.07343475
155	0x3cf0c3f3	0.02939031
156	0xbe20cca0	-0.15703058
157	0x3b836d25	0.004010814
158	0x403df90e	2.968326
159	0xbdab1650	-0.08353865
160	0x3f56726a	0.8376833
161	0xbd4b9ce5	-0.049710173
162	0x3db10180	0.08642864
163	0x403c5f47	2.9433153
164	0x3e0f403d	0.13989349
165	0x3bad2d10	0.005284913
166	0xbd795552	-0.060872383
167	0xbe08a5a0	-0.13344431
168	0xbcb1bb98	-0.021695897
169	0x403ef768	2.9838505
170	0xbd0a7e40	-0.033811808
171	0x3f4c7616	0.79867685
172	0x3ded1675	0.11576549
173	0x3d7b989b	0.061424833
174	0x40420373	3.0314605
175	0x3db12574	0.08649722
176	0xbdac0179	-0.083987184
177	0xbde824d3	-0.11335149
178	0xbde67adc	-0.11253902
179	0x3bf8a9ab	0.0075885854
180	0x40605dfd	3.5057366
181	0xbdaa6edd	-0.08321927
182	0x3f510fe9	0.816649
183	0x3dca252c	0.09870371
184	0x3dd2b57f	0.10288524
185	0x40634455	3.5510457
186	0x3e15012c	0.14551228
187	0xbcb1acda	-0.021688867
188	0xbdfa8c71	-0.12233818
189	0xbdd1c1eb	-0.10242065
190	0x3e51bc0d	0.20481892
191	0x40684ee4	3.629815
192	0x3d6a29e8	0.05716887
193	0x3f762deb	0.96163815
194	0x3e05d6be	0.13070199
195	0x3eaacaa5	0.3335773
196	0x406a74f7	3.663389
197	0x3e20fd0b	0.15721528
198	0xbca3aae1	-0.019978942
199	0xbe6ff82e	-0.23434517
200	0xbdc02a73	-0.093830965
201	0xbe0f44d6	-0.13991103
202	0x406fc6f6	3.7465186
203	0xbd499d81	-0.049222473
204	0x3f540be4	0.82830644
205	0x3d2e7f4e	0.042601876
206	0xbdb18c39	-0.086693235
207	0x406adbd3	3.669667
208	0x3e27c57d	0.1638393
209	0xbd07915c	-0.03309761
210	0xbed74432	-0.42044216
211	0xbe070965	-0.13187177
212	0x3d24ea3d	0.04026245
213	0x40856f5f	4.169845
214	0x3d189cdc	0.037258968
215	0x3f4dbdd4	0.8036778
216	0x3d9ce3b9	0.07660622
217	0x3dcd068b	0.100110136
218	0x40867447	4.201694
219	0x3e7259c6	0.23667058
220	0xbdbbe97e	-0.091753945
221	0xbeff8a08	-0.49909997
222	0xbfbd92dd	-1.4810444
223	0xc02ea644	-2.728898
224	0x408aa3db	4.332502
225	0xbc317ec8	-0.01083345
226	0x3f4d0f1b	0.80101174
227	0xbde4f080	-0.11178684
228	0x3e7fcd6c	0.24980706
229	0x408bdb1a	4.370496
230	0x3e05f8e9	0.13083233
231	0xbe2ccc1f	-0.16874741
232	0xbea032ed	-0.31288853
233	0xbd9cf21a	-0.07663365
234	0x3d39c81b	0.04535685
235	0x409060f5	4.5118356
236	0xbcc78e2a	-0.024359781
237	0x3f527439	0.8220859
238	0x3c455a6e	0.012045486
239	0x3cbe62b4	0.023240425
240	0x408f8633	4.4851317
241	0x3e72c9dd	0.23709817
242	0xbd9cf1f2	-0.07663335
243	0xbf2aaf44	-0.66673684
244	0xbe1538ff	-0.14572524
245	0xbe93bf97	-0.2885711
246	0x408f7f9d	4.484328
247	0xbe2fd78b	-0.17172067
248	0x3f4f39d8	0.8094764
249	0xbd435993	-0.047692847
250	0xbebe054f	-0.37113425
251	0x40905d49	4.5113873
252	0x3e3324fa	0.17494574
253	0xbe179e97	-0.14806591
254	0xbf19f021	-0.6013203
255	0xbe1414e8	-0.144611

network_smart.layer1.0.bias f4 [128]
0	0x3d9ba9e8	0.076007664
1	0xbb801e69	-0.003909875
2	0x3d1a670f	0.03769594
3	0xbbaf1a16	-0.005343686
4	0x3e0a8dc1	0.13530637
5	0x3df6599a	0.12028809
6	0x3cf458a6	0.029827427
7	0xbddd496f	-0.10805022
8	0xbc891283	-0.01673246
9	0xbb2ff3b3	-0.0026848137
10	0xbd276ca7	-0.040875103
11	0x3d0ec893	0.03485925
12	0x3da40be8	0.080100834
13	0x3db18182	0.0866728
14	0xbe0760a2	-0.13220456
15	0xbd81f3a1	-0.06345297
16	0x3c3391b4	0.010960031
17	0x3cc56167	0.024094297
18	0x3d4e992c	0.050439045
19	0xbb87ae66	-0.004140663
20	0xbab75867	-0.0013988138
21	0x3e14b245	0.1452113
22	0xbeaeaae1	-0.34114745
23	0x3e146fb5	0.14495738
24	0xbe0ad815	-0.13558991
25	0x3dfa5b9d	0.12224505
26	0xbe2c1286	-0.16803941
27	0x3e173e19	0.14769782
28	0x3e253153	0.16132097
29	0x3dc0df3d	0.09417579
30	0x3dac5f0b	0.084165655
31	0xbe47a815	-0.19497712
32	0xbd0f39e4	-0.03496732
33	0x3e020381	0.12696649
34	0x3dae225c	0.08502647
35	0x3de66ac3	0.11250832
36	0x3deb73e0	0.11496711
37	0x3e545aca	0.20737758
38	0x3e4ceeeb	0.20013015
39	0x3df40c29	0.11916382
40	0x3c94391d	0.01809364
41	0xbdda91a8	-0.10672313
42	0x3df94d12	0.12172903
43	0xbdbecbe7	-0.09316235
44	0x3db2bd67	0.08727532
45	0xbc8c32e9	-0.01711412
46	0x3d2f7916	0.042840086
47	0xbd8ffde0	-0.07030845
48	0x3c7088a6	0.014681017
49	0x3d19e4c6	0.03757169
50	0xbd4ee7b5	-0.05051394
51	0x3ded39ee	0.11583315
52	0xba1e1480	-0.00060302764
53	0xbc831b3c	-0.016004197
54	0xbca71819	-0.020397233
55	0xbec639f0	-0.38716078
56	0x3e0ed7c9	0.13949503
57	0xbccdbf58	-0.025115654
58	0xbe4e52fc	-0.20148844
59	0xbc16decf	-0.009208395
60	0x3df41e6d	0.11919866
61	0x3deba224	0.11505535
62	0x3d838a37	0.06422847
63	0xbc1a3c2a	-0.009413758
64	0x3ddc88d7	0.10768288
65	0xbdd270a0	-0.10275388
66	0xbb54b4b3	-0.0032456338
67	0xbcc58e7e	-0.024115797
68	0x3d6e3585	0.05815651
69	0x3e7ad68a	0.24495903
70	0xbe36fcce	-0.17869875
71	0x3d3122be	0.043246023
72	0xbdf267cd	-0.11836205
73	0xbe30e44a	-0.17274585
74	0x3d81ca9f	0.06337475
75	0xbde05c98	-0.10955161
76	0xbd39752d	-0.045277763
77	0x3dd76159	0.105166145
78	0x3e0ce91c	0.13760799
79	0xbd1fbfa1	-0.03900111
80	0x3c030a11	0.0079980055
81	0xbe76bb63	-0.2409492
82	0xbceab828	-0.028652266
83	0xbe8405b5	-0.25785604
84	0xbdbb307a	-0.091401055
85	0xbe055e7b	-0.13024323
86	0xbb9384d9	-0.0045019207
87	0xbd0c8699	-0.03430805
88	0x3d397272	0.04527516
89	0xbd9cb6b2	-0.07652034
90	0xbc73ee70	-0.014888391
91	0x3d53aad9	0.051676605
92	0xbd54aa7d	-0.051920403
93	0x398d11d2	0.00026906893
94	0x3d4810ec	0.048844263
95	0x3d766844	0.06015803
96	0xbd22d06f	-0.03974956
97	0xbd02b2dd	-0.03190886
98	0xbd35c5e5	-0.04437818
99	0xbbb142cd	-0.0054095746
100	0x3e4647be	0.19363305
101	0xbeb38575	-0.35062757
102	0xbc600558	-0.013673149
103	0x3d24e9da	0.04026208
104	0x3b876c86	0.00413281
105	0xbe5a101f	-0.21295212
106	0x3cf77449	0.030206816
107	0xbd291fcd	-0.041290093
108	0xbc084cb2	-0.008319067
109	0x3ce85ff4	0.028366067
110	0x3c511831	0.012762115
111	0xbde805d6	-0.11329238
112	0xbcd9e423	-0.026598042
113	0x3e1ad875	0.15121634
114	0xbe476e60	-0.19475698
115	0xbce9d6b4	-0.028544761
116	0x3b8e262c	0.0043380465
117	0xbd4e0edf	-0.05030715
118	0x3da6479d	0.08119128
119	0xbc206aaf	-0.00979106
120	0x3e00b8db	0.12570517
121	0xbe4a903a	-0.1978158
122	0xbb1250ec	-0.0022326065
123	0x3e2a3d7b	0.16625015
124	0x3e34b27d	0.17646213
125	0x3cd945e3	0.026522582
126	0xbd6e60dd	-0.058197845
127	0x3ddd3f9f	0.108031504

network_smart.layer2.0.weight f4 [128, 128]
0	0x3c46de92	0.012138026
1	0x3d8d8e6c	0.069119304
2	0xbd8f13d5	-0.069862045
3	0xbd2fb6ad	-0.042898823
4	0xbc990eae	-0.018683758
5	0x3d987dcc	0.07445869
6	0x3da0c1ca	0.07849462
7	0xbd6c95b1	-0.057759944
8	0x3a907ab6	0.0011022899
9	0xbda34575	-0.07972232
10	0xbdb64acf	-0.08900987
11	0x3c90beed	0.017669166
12	0xbc9952a3	-0.018716162
13	0x3ca5056a	0.020144183
14	0xbd933794	-0.07188335
15	0xbd42b6e0	-0.047537684
16	0xbd1cad8c	-0.038251445
17	0x3c22a888	0.009927876
18	0x3d71b763	0.05901278
19	0xbda150d3	-0.07876744
20	0x3d387ec6	0.045042776
21	0xbd0b8b20	-0.034068227
22	0x3d6669c3	0.056253206
23	0xbd1bd5a4	-0.03804554
24	0xbd61e8a1	-0.055153493
25	0xbd2f32d2	-0.042773075
26	0x3d2820d8	0.041046947
27	0x3d382be2	0.044963725
28	0xbc65b46b	-0.014020066
29	0xbd9893d9	-0.07450075
30	0x3d534796	0.05158194
31	0x3d375652	0.044760056
32	0xbd901c9f	-0.07036709
33	0xbd10ff3a	-0.035399653
34	0xbd5c43fc	-0.053775772
35	0x3c6b42c2	0.014359178
36	0xbd8c1981	-0.06840802
37	0xbda381af	-0.079837196
38	0xbd0bf61f	-0.034170266
39	0x3d281edf	0.041045066
40	0x3da4fe65	0.080563344
41	0xbc61a75b	-0.013772811
42	0xbd3bbb95	-0.04583319
43	0xbdd1af12	-0.1023847
44	0x3cd87d79	0.026427018
45	0x3c871e61	0.016493978
46	0xbd4e36fb	-0.050345402
47	0xbd87ad61	-0.06624866
48	0xbccbf686	-0.024897825
49	0xbcc07f22	-0.023498122
50	0x3d659900	0.056054115
51	0x3d8d6165	0.06903342
52	0xbb0d610d	-0.002157274
53	0x3d0c0cab	0.03419177
54	0xbbe20a17	-0.0068981755
55	0xbcdd32f7	-0.027001841
56	0x3d0de6cf	0.034643944
57	0xbcce1044	-0.02515424
58	0x3da5b75d	0.080916144
59	0xbd661e3a	-0.05618117
60	0xbd276f59	-0.040877674
61	0x3da6e5f9	0.081493326
62	0x3d92721e	0.071506724
63	0x3d1a1c14	0.037624434
64	0x3d377858	0.044792503
65	0xbdacde22	-0.08440806
66	0xbce24894	-0.027622499
67	0x3d123e22	0.035703786
68	0xbd406fdd	-0.04698168
69	0x3d447128	0.047959477
70	0xbd42724a	-0.047472276
71	0x3c4156a3	0.011800441
72	0xbca3a70e	-0.019977119
73	0x3c525576	0.012837758
74	0x3d70fb83	0.05883361
75	0xbdba4045	-0.0909429
76	0x3d904497	0.070443325
77	0xbc95a9d2	-0.018269453
78	0x3cefc8ea	0.029270608
79	0xbd96bb41	-0.073599346
80	0x3bbf3ff2	0.0058364803
81	0xbdaa59a5	-0.083178796
82	0xbcfa0976	-0.03052209
83	0xbd9e83ff	-0.0774002
84	0xbda9ae5e	-0.08285211
85	0x3cb2c102	0.021820549
86	0xbdae242f	-0.08502995
87	0xbc3ead77	-0.011638037
88	0x3d87e17d	0.06634805
89	0xbcfe3aa8	-0.031033829
90	0xbd0634e0	-0.03276527
91	0xbd8e0310	-0.06934178
92	0x3da42e4d	0.08016644
93	0xbd4046e3	-0.046942603
94	0xbdaeeddd	-0.085414626
95	0x3d95105c	0.07278511
96	0x3d11930b	0.03554062
97	0xbd89753a	-0.06711812
98	0xbd89fd97	-0.067378215
99	0x3b564f8d	0.0032701225
100	0xbc910e97	-0.017707152
101	0xbda5d0c7	-0.08096462
102	0x3bf69c99	0.007525992
103	0xbc187dae	-0.009307308
104	0xbdbcb9f1	-0.09215153
105	0x3d555397	0.05208167
106	0xbd8f25c3	-0.06989624
107	0xbca1c3f0	-0.01974675
108	0x3c0d33d6	0.008618316
109	0xbd0a288e	-0.033730082
110	0x39f0dfd6	0.00045943138
111	0x3cca5e41	0.024703147
112	0x3d2bb055	0.04191621
113	0xbd8dbb48	-0.06920487
114	0xbc91a5ed	-0.017779315
115	0x3d826cc5	0.063684024
116	0x3d742c49	0.059612546
117	0xbd50fae3	-0.051020514
118	0x3a89b341	0.0010505692
119	0x3d9ed96f	0.07756316
120	0xbd69343c	-0.05693458
121	0xbdaadc99	-0.08342857
122	0x3d90ea28	0.07075912
123	0xbd88a916	-0.066728756
124	0x3cda3038	0.02663432
125	0x3d450ab1	0.0481059
126	0xbd02beb4	-0.03192015
127	0x3d7bdb4c	0.061488435
128	0xbf30769e	-0.68930995
129	0x3f8140e6	1.009793
130	0xbde1c7f2	-0.11024465
131	0xbbd3cb79	-0.006463465
132	0x3e11aa14	0.14225036
133	0x3e2e56f3	0.17025356
134	0xbf4f345a	-0.8093926
135	0x3da1b5d2	0.078960076
136	0x3d85f011	0.0653993
137	0x3e1aa950	0.1510365
138	0x3d6f1424	0.058368817
139	0x3e1a95e4	0.15096241
140	0x3d44e6fd	0.04807185
141	0xbe835687	-0.25651953
142	0xbd84e8a8	-0.06489688
143	0x3d9b2034	0.07574502
144	0x3d247267	0.040148165
145	0x3dcc5542	0.09977199
146	0x3db5f9f8	0.088855684
147	0xbda9e616	-0.082958385
148	0xbb8b069f	-0.0042427327
149	0x3dc00316	0.093755886
150	0xbdca8d15	-0.098901905
151	0x3be846de	0.007088526
152	0x3e61cedf	0.22051571
153	0x3b5d6554	0.003378232
154	0x3d616279	0.05502555
155	0x3e482663	0.19545893
156	0xbc34a726	-0.011026179
157	0xbc92dbe6	-0.017927121
158	0x3d8c8928	0.06862098
159	0xbeeb074f	-0.45904014
160	0x3dacfc80	0.08446598
161	0xbca43364	-0.020044036
162	0x3dc54f24	0.096342355
163	0xbefa21fe	-0.4885406
164	0x3defc068	0.117066205
165	0xbe96fe60	-0.29490948
166	0xbb738454	-0.003715773
167	0xbcf8835f	-0.03033608
168	0xbdc0082f	-0.09376561
169	0x3d704192	0.058656283
170	0xbe309333	-0.17243652
171	0x3de24cdf	0.11049818
172	0xbcb048b8	-0.02151905
173	0x3bef6566	0.007305789
174	0x3cf2f2a4	0.029656716
175	0x3e0c23c9	0.13685526
176	0x3c745e42	0.014915051
177	0x3e259fe9	0.16174282
178	0x3da455d7	0.08024185
179	0x3c40326f	0.011730774
180	0xbe9fdeaf	-0.31224582
181	0xbe041f96	-0.12902674
182	0x3d332742	0.04373861
183	0xbef1a1cc	-0.47193754
184	0x3d611199	0.054948423
185	0xbd8084c8	-0.06275326
186	0x3e2442c0	0.16041088
187	0xbd9b75e8	-0.07590848
188	0x3e257279	0.16156949
189	0xbe6a8695	-0.22902901
190	0xbd9d4785	-0.07679657
191	0xbe7e6b05	-0.24845512
192	0x3ec30252	0.38087708
193	0x3d7509b3	0.059823703
194	0x3e020291	0.12696292
195	0xbd045ccf	-0.03231507
196	0x3d70383e	0.058647387
197	0xbf2764c3	-0.65388125
198	0x3d83051d	0.0639746
199	0xbd684ebd	-0.056715716
200	0x3c42dd17	0.011893532
201	0x3b9b60e1	0.0047417735
202	0x3ccbea08	0.024891868
203	0xbdfb2f1a	-0.12264843
204	0xbe8c3c08	-0.2738955
205	0x3d28432c	0.041079685
206	0xbca177bc	-0.019710414
207	0xbd434021	-0.04766858
208	0x3cc43ff0	0.023956269
209	0x3e66c154	0.22534686
210	0x3c730eaa	0.014835039
211	0xbf0038ca	-0.50086653
212	0x3d1650f3	0.036698293
213	0xbd06c624	-0.032903805
214	0xbe8f1fb0	-0.27953863
215	0x3c785f40	0.015159428
216	0xbfa1e213	-1.2647117
217	0xbd52c505	-0.051457424
218	0xbb1fa787	-0.0024361329
219	0x3de565c5	0.112010516
220	0xbd2c6f60	-0.042098403
221	0x3d60af08	0.054854423
222	0x3dd682cd	0.10474167
223	0xbda65518	-0.08121699
224	0xbcc4ec57	-0.024038477
225	0xbcfe5182	-0.031044725
226	0x3c9aaa68	0.018880084
227	0x3d740a1a	0.059579946
228	0x3d0d3403	0.03447343
229	0x3e3e78c1	0.18600751
230	0xbdc1a629	-0.09455521
231	0x3d8a86ff	0.0676403
232	0x3e7cdbf4	0.2469328
233	0x3d80308c	0.062592596
234	0xbc4f56e0	-0.01265499
235	0x3dba09e7	0.0908392
236	0x3e29ee40	0.16594791
237	0xbf6d9e52	-0.928197
238	0xbd6ac842	-0.057319887
239	0xbecc6fd9	-0.39929083
240	0xbcfe4281	-0.03103757
241	0x3b856d0a	0.0040718364
242	0x3cf1204b	0.029434344
243	0xbc51cae2	-0.012804719
244	0x3d7049d3	0.058664154
245	0xbcc5e753	-0.024158156
246	0xbd2477e4	-0.0401534
247	0x3b470067	0.003036523
248	0xbc752303	-0.014961961
249	0xbc9c8a70	-0.01910898
250	0x3d7102d7	0.0588406
251	0x3dd42d3a	0.10360189
252	0x3d6bc229	0.057558212
253	0x3c7f7222	0.015591176
254	0x3cebeb6f	0.028798787
255	0xbd896607	-0.06708913

network_smart.layer2.0.bias f4 [128]
0	0xbc822604	-0.015887268
1	0x3dbff138	0.09372181
2	0xbe38d7dd	-0.18051095
3	0xbd6149b5	-0.055001933
4	0xbe0a03f0	-0.13478065
5	0xbe212f07	-0.15740596
6	0x3d3161e3	0.043306243
7	0xbc5584e1	-0.013032169
8	0xbd3177f1	-0.043327276
9	0x3d6a6a96	0.057230555
10	0x3d989f70	0.07452285
11	0x3dbebb09	0.09313018
12	0xbd68e76a	-0.05686132
13	0x3d55b083	0.052170288
14	0x3d59e552	0.053197213
15	0x3dc50340	0.096197605
16	0xbc896207	-0.016770376
17	0xbc129065	-0.008945559
18	0x3da478d9	0.08030862
19	0x3c9939e8	0.01870437
20	0xbdc271b9	-0.09494347
21	0xbeafd17e	-0.34339517
22	0x3c8314ea	0.016001184
23	0xbdd515e4	-0.10404566
24	0x3d0cf2b9	0.034411166
25	0x3d95c422	0.073128
26	0xbd99e78b	-0.075148664
27	0xbe1b39fb	-0.15158837
28	0x3db3dfc6	0.08782916
29	0xbe2cbc0f	-0.16868614
30	0xbd5fe1ce	-0.054658704
31	0x3d05f2f3	0.032702398
32	0xbadfd4df	-0.001707699
33	0x3cd50644	0.026003964
34	0x3d3ff1e9	0.046861563
35	0x3bbc762f	0.0057513933
36	0xbe1b5700	-0.15169907
37	0xbe35dd39	-0.17760171
38	0x3d4f1a87	0.050562408
39	0x3dc571b3	0.09640827
40	0x3c752385	0.014962082
41	0x3dbb46ce	0.09144364
42	0x3d9c339b	0.076270305
43	0xbe3edfd9	-0.18640079
44	0x3d49584d	0.049156476
45	0xbd96ebc8	-0.073691905
46	0xbdb254f1	-0.087076075
47	0x3ca61767	0.020274831
48	0xbd9ec0de	-0.0775163
49	0xbd37e2e3	-0.04489411
50	0x3d8b6205	0.06805805
51	0xbd143b7b	-0.036189537
52	0xbdb28f6a	-0.0871876
53	0x3daafe73	0.083493136
54	0x3d9bf1a6	0.0761445
55	0x3d420f25	0.047377724
56	0xbd39b0d4	-0.045334652
57	0x3db774fb	0.08957859
58	0x3d90d7ae	0.07072388
59	0x3cdf09b0	0.027226299
60	0x3d88ff2a	0.06689294
61	0xbcdd2df8	-0.026999459
62	0x3d719c22	0.05898679
63	0x3de2a3c9	0.11066396
64	0xbc31d380	-0.010853648
65	0xbd445354	-0.04793103
66	0x3db8be4f	0.090206735
67	0xbe4de60e	-0.2010729
68	0xbc618c10	-0.013766304
69	0x3de00247	0.10937934
70	0x3d988dd0	0.074489236
71	0x3d7b6818	0.06137857
72	0x3d8b4ae9	0.06801397
73	0xbe0cc717	-0.13747822
74	0xbcac26e0	-0.02101463
75	0x3de4c97b	0.11171242
76	0xbb7c4184	-0.0038491199
77	0x3c671ef9	0.014106506
78	0xbe24f788	-0.1611005
79	0x3cf8cb1d	0.03037029
80	0x3dc5d2a4	0.09659317
81	0x3da7056d	0.08155332
82	0x3d7c91b6	0.0616624
83	0xbba33e22	-0.004981772
84	0x3d010054	0.031494454
85	0x3dcad13a	0.09903188
86	0xbd962f44	-0.07333234
87	0x3d240c37	0.04005071
88	0x3df5523e	0.11978577
89	0x3d4d3981	0.050103668
90	0xbe0753fd	-0.13215633
91	0xbdbc4955	-0.091936745
92	0x3ca035c8	0.019556895
93	0xbe0d8968	-0.13821948
94	0x3de79a3e	0.11308716
95	0x3d8c727c	0.06857774
96	0x3d31e57c	0.043431744
97	0xbdb742a3	-0.08948257
98	0xbce94803	-0.02847672
99	0x3e1eae1e	0.15496108
100	0x3d8cda0c	0.06877527
101	0xbe8bf359	-0.27334097
102	0x3a663b2f	0.0008782623
103	0x3d750d5c	0.059827194
104	0x3c9b0f26	0.018928122
105	0x3d5a4ef9	0.05329797
106	0xbd905cb3	-0.07048931
107	0x3d5eb8dc	0.054375514
108	0x3d70e880	0.05881548
109	0x3d801cb5	0.062554754
110	0x3d6d8e54	0.057997063
111	0x3d91ae9d	0.07113383
112	0x3d9836cb	0.07432326
113	0x3d9f1722	0.07768084
114	0xbd44ea9e	-0.04807531
115	0x3be2b012	0.006917962
116	0xbdd7e15f	-0.10541033
117	0x3bf8f2d0	0.007597305
118	0xbd8d2ed0	-0.068936944
119	0x3cdebd5d	0.027189905
120	0x3d127eb0	0.03576535
121	0xbd0e4d18	-0.03474149
122	0xbc7e5694	-0.0155235715
123	0xbe00517d	-0.12531085
124	0xbd2bc266	-0.04193344
125	0xbd8a954c	-0.06766757
126	0xbd65da27	-0.05611625
127	0x3d8c5931	0.068529494

network_smart.layer3.0.weight f4 [48, 128]
0	0x3c1dbcca	0.00962753
1	0xbdb87650	-0.09006941
2	0xbed0271a	-0.40654832
3	0x3c9258c7	0.017864598
4	0x3dd19e78	0.10235304
5	0xbe9e667d	-0.30937567
6	0x3e6df303	0.23237233
7	0xbc864b5c	-0.016393356
8	0x3c774225	0.015091454
9	0xbf801af1	-1.0008222
10	0xbc694976	-0.014238706
11	0xbe9ae436	-0.30252236
12	0xbca251bb	-0.019814363
13	0xbe885f52	-0.26635224
14	0x3ddab1fc	0.10678479
15	0xbea99407	-0.33120748
16	0x3b8e11db	0.0043356246
17	0x3e4ae494	0.19813758
18	0x3eed12ee	0.46303505
19	0x3e090f0d	0.13384648
20	0x3d9ce350	0.07660544
21	0xbd83f30d	-0.06442843
22	0xbf2619e8	-0.6488328
23	0x3d1f81e8	0.038942248
24	0x3df1593e	0.117846
25	0xbbc4e963	-0.006009267
26	0xbc6a063e	-0.014283715
27	0x3de051aa	0.10953076
28	0x3b9fb594	0.0048739407
29	0x3db65e94	0.08904758
30	0xbe005acf	-0.1253464
31	0x3e070db3	0.1318882
32	0x3cfc64a2	0.030809704
33	0xbe5042e9	-0.20338024
34	0x3d3e7ace	0.046503834
35	0x3d2ab0cc	0.041672513
36	0x3d9013ad	0.07035003
37	0x3c99d1ce	0.0187768
38	0xbd32ae45	-0.043623228
39	0xbea44e33	-0.3209091
40	0xbe81a5d3	-0.25321826
41	0xbc03da2b	-0.008047621
42	0x3d7f88c6	0.062386297
43	0xbf3bfdaa	-0.73433936
44	0x3e35bc0b	0.17747514
45	0x3e9f709f	0.3114061
46	0x3d424591	0.047429625
47	0x3da0b13e	0.07846306
48	0x3b787f9d	0.003791786
49	0xbd1bf42c	-0.038074657
50	0x3c899545	0.01679481
51	0x3eae3414	0.34024107
52	0xbdaeff82	-0.08544828
53	0x3d33a6dd	0.043860305
54	0xbdc0da01	-0.09416581
55	0x3ddf14b6	0.10892622
56	0xbe43cddf	-0.19121502
57	0xbf9a2c77	-1.204482
58	0xbed1f488	-0.41006875
59	0xbf4c8191	-0.798852
60	0x3d09ff76	0.033690892
61	0xbe84364a	-0.2582267
62	0xbd9eba16	-0.07750337
63	0xbd7ada21	-0.06124318
64	0x3f12137c	0.5706098
65	0xbcaaf23b	-0.020867458
66	0xbdf0ce80	-0.11758137
67	0xbefff3f8	-0.4999082
68	0xbe9433d4	-0.28945792
69	0xbd107945	-0.0352719
70	0x3de2a6b7	0.110669546
71	0xbc268864	-0.010164354
72	0x3e2f952d	0.1714675
73	0x3e02eef9	0.12786473
74	0xbc292d13	-0.010325688
75	0xbdeb4a16	-0.1148874
76	0x3c97436c	0.018464766
77	0xbd24d0d5	-0.04023822
78	0xbeabb652	-0.33537537
79	0x3dfed0a5	0.124421395
80	0x3d9e7567	0.077372365
81	0xbfe7c4d0	-1.8106937
82	0x3dc44405	0.09583286
83	0xbd7b5ca7	-0.061367657
84	0xbdfffb61	-0.124991186
85	0x3de35397	0.11099928
86	0xbdccea18	-0.10005587
87	0xbd93285e	-0.07185434
88	0xbf30bdad	-0.6903942
89	0x3f012139	0.5044132
90	0x3daafa6b	0.08348545
91	0x3e4ffb02	0.20310596
92	0xbeb03938	-0.34418654
93	0xbdc18357	-0.09448879
94	0x3e2d3094	0.16913062
95	0x3cb5a8fc	0.022175305
96	0x3d93459d	0.07191012
97	0x3bbb024d	0.0057070614
98	0x3daecd38	0.08535236
99	0xbe9912b3	-0.2989708
100	0xbe259dd3	-0.16173486
101	0x3de0dc8f	0.10979568
102	0x3cc80d93	0.024420535
103	0xbf004d54	-0.50117993
104	0x3cdf463c	0.02725517
105	0x3dc860eb	0.09784111
106	0xbf17c6af	-0.5928754
107	0xbcfc7b98	-0.030820653
108	0x3d63e2ed	0.055636335
109	0xbe605f17	-0.21911274
110	0xbe2ac818	-0.16677892
111	0xbf03a8ca	-0.51429427
112	0xbe6901f6	-0.22754654
113	0x3d1d4cac	0.038403198
114	0xbd7edeac	-0.062224075
115	0xbcaf88dc	-0.021427564
116	0x3dcad131	0.09903181
117	0x3db59d58	0.088679016
118	0xbced865a	-0.028994728
119	0x3d012ef5	0.031538922
120	0xbb43c4d7	-0.0029871964
121	0x3de69d4b	0.1126047
122	0x3f246f7c	0.6423261
123	0x3de905ab	0.11378034
124	0xbd7d8e51	-0.0619033
125	0x3e5ff7f2	0.21871927
126	0xbd96f0cb	-0.07370146
127	0x3e08dc57	0.13365303
128	0x3ccaa8ea	0.024738748
129	0x3d7034e3	0.058644187
130	0xbf5789a6	-0.8419441
131	0x3d968f80	0.07351589
132	0x3e599410	0.21247888
133	0xbf868738	-1.0510015
134	0x3e3d4a4c	0.18485373
135	0xbd8b3fc6	-0.06799273
136	0xbd9122a0	-0.07086682
137	0x3cb7908a	0.022407789
138	0x3c1439f8	0.009047024
139	0xbc47c400	-0.012192726
140	0xbc3b36c5	-0.011426632
141	0x3f00f3a1	0.5037175
142	0x3e31c105	0.17358787
143	0xbc7b7f72	-0.01535021
144	0x3d2914ca	0.04127959
145	0xbdc1b6ad	-0.09458671
146	0xbdfe69a4	-0.12422493
147	0x3d119249	0.0355399
148	0xbcdb59e9	-0.026776271
149	0x3f40014c	0.7500198
150	0xbe8fd73e	-0.28093904
151	0x3e7abb5c	0.24485534
152	0xbe59ec04	-0.21281439
153	0x3d010326	0.031497143
154	0x3dd584d1	0.10425723
155	0xbdec70c4	-0.11544946
156	0x3c9f9198	0.019478604
157	0xbdb29f16	-0.087217495
158	0xbf74686b	-0.9547183
159	0xbf0c35ca	-0.54769576
160	0xbe833545	-0.2562658
161	0xbf3ab768	-0.72936106
162	0xbcccc39e	-0.024995621
163	0x3d8efd89	0.06981952
164	0xbd64956b	-0.05580656
165	0x3de7bf24	0.11315754
166	0xbd95a706	-0.07307248
167	0xbec9a0f6	-0.39380616
168	0xbe80d4c8	-0.2516234
169	0x3d771c6e	0.060329847
170	0xbda3573e	-0.079756245
171	0xbc099f7b	-0.0083998395
172	0xbcb01de2	-0.021498624
173	0xbe65a7f6	-0.22427353
174	0xbdc065c5	-0.09394411
175	0xbcfa60e5	-0.030563781
176	0x3ce98822	0.028507296
177	0xbcd83804	-0.026393898
178	0x3e1177f9	0.14205922
179	0x3e770f41	0.24126913
180	0xbcaec0b3	-0.02133212
181	0xbd0cb81e	-0.034355275
182	0x3da024e3	0.078195356
183	0xb9b20488	-0.00033954182
184	0xbf1a60b6	-0.6030382
185	0xbeac8ecf	-0.33702704
186	0x3f109e7b	0.5649182
187	0xbf5396be	-0.8265189
188	0x3db72121	0.08941866
189	0xbedf3d3d	-0.4360141
190	0xbef207f4	-0.47271693
191	0x3d89983c	0.067184895
192	0x3eb5a5d3	0.35478076
193	0x3ecc2ab4	0.3987633
194	0xbc31f13a	-0.010860736
195	0xbd79bdf3	-0.060972165
196	0x3f278bd5	0.6544774
197	0x3c05483f	0.008134901
198	0x3ce26fb4	0.027641155
199	0x3dfdd0fa	0.12393375
200	0x3cc5d042	0.024147157
201	0x3daebfd4	0.08532682
202	0xbf49c8f2	-0.78822243
203	0x3df71550	0.12064612
204	0xbce96611	-0.028491052
205	0xbcb3d98a	-0.021954317
206	0x3f28a7ea	0.65881217
207	0xbdeb4391	-0.11487497
208	0x3df3c2fd	0.119024254
209	0xbede9e3b	-0.43480095
210	0x3d1da80b	0.038490336
211	0x3d8f3e28	0.06994277
212	0xbdd771b7	-0.10519736
213	0x3dd23a7f	0.102650635
214	0x3f5613da	0.8362404
215	0xbf89a720	-1.0754128
216	0x3d8147ae	0.063125
217	0x3e52d879	0.2059039
218	0x3e5696aa	0.20955911
219	0xbd93d523	-0.07218387
220	0x3f26e2bd	0.65189725
221	0xbd0f3e67	-0.03497162
222	0x3b95168e	0.004549808
223	0x3e014499	0.12623824
224	0x3e29fbe8	0.16600001
225	0xbc230b60	-0.0099514425
226	0xbd01ad0f	-0.031659182
227	0x3ceaf55d	0.028681451
228	0x3e437cba	0.19090548
229	0xbd48b732	-0.049002834
230	0x3d4eca14	0.050485685
231	0x3f52f25d	0.82401067
232	0xbd049360	-0.03236711
233	0x3d625361	0.055255298
234	0xbf5bf76b	-0.85924405
235	0xbc70c35e	-0.014695017
236	0x3d880417	0.06641405
237	0x3ce1e99c	0.027577214
238	0x3d6a7be5	0.05724706
239	0x3d4255e2	0.047445185
240	0xbd8c14b2	-0.06839885
241	0x3c62d559	0.013844811
242	0x3db6f718	0.08933848
243	0xbe2bbe2c	-0.16771764
244	0xbd81c707	-0.063367896
245	0x3d5a6999	0.053323362
246	0x3d047be5	0.032344718
247	0xbe66dd3e	-0.22545335
248	0xbd75864a	-0.05994252
249	0xbe02dead	-0.12780257
250	0x3dadd8be	0.08488606
251	0xbe93324f	-0.2874932
252	0x3d3e6c10	0.046489775
253	0x3dc295d5	0.095012344
254	0xbf901b0f	-1.1258258
255	0xbcfbab9a	-0.030721474

network_smart.layer3.0.bias f4 [48]
0	0xbdba46c4	-0.09095529
1	0x3bbc29ab	0.005742272
2	0xbdb43fc1	-0.088012226
3	0x3d8b284f	0.06794798
4	0x3da41d51	0.08013404
5	0xbd3401a7	-0.04394689
6	0xbd099041	-0.033584837
7	0x3cee15a7	0.029063059
8	0xbd4ea692	-0.050451823
9	0x3d95d9d4	0.07316938
10	0x3d7fa2ce	0.062411122
11	0xbe9978ea	-0.29975063
12	0xbe6b10c8	-0.2295562
13	0x3dd1ed4d	0.1025034
14	0xbccff38e	-0.02538469
15	0xbdafbf1c	-0.08581373
16	0x3bee299e	0.0072681447
17	0x3d9adaab	0.07561239
18	0xbe609319	-0.21931113
19	0x3b131cab	0.0022447507
20	0xbdcc23e6	-0.099677846
21	0x3cc71244	0.024300702
22	0x3cffd790	0.031230718
23	0x3c87c36a	0.016572673
24	0x3d717770	0.058951795
25	0x3c41a1d4	0.011818368
26	0x3d5b8e43	0.05360247
27	0xbd8db241	-0.06918765
28	0xbca83029	-0.020530777
29	0xbc548f97	-0.012973688
30	0x3da345a5	0.07972268
31	0x3dd43568	0.10361749
32	0xbd228741	-0.03967977
33	0x3dc3726b	0.09543308
34	0x3dc18b3d	0.09450386
35	0xbcf2a8b2	-0.029621456
36	0xbdac9e52	-0.08428635
37	0x3d5c8817	0.053840723
38	0x3d91dc6d	0.07122121
39	0xbd99c3db	-0.075080596
40	0xbd641fd4	-0.055694416
41	0xbe91dd3e	-0.28489107
42	0x3d9a93be	0.07547711
43	0x3d06ccc2	0.032910116
44	0x3d8ce3c9	0.06879384
45	0x3d93c548	0.07215363
46	0x3af49da6	0.0018662706
47	0xbd90fa40	-0.070789814

fc_smart.weight f4 [64, 48]
0	0xbef095ca	-0.4698928
1	0xbf02fd83	-0.5116808
2	0xbf17609e	-0.591318
3	0x3dc5d7a6	0.09660272
4	0xbd933308	-0.07187468
5	0x3ef4d749	0.478205
6	0x3e890df1	0.2676845
7	0x3d9cae39	0.07650418
8	0x3ca407ab	0.020023188
9	0x3f129120	0.57252693
10	0x3e4eaab9	0.20182313
11	0xbe72aa1c	-0.23697704
12	0xbe93a634	-0.2883774
13	0xbdd98026	-0.106201455
14	0x3e217c91	0.15770175
15	0xbe12f727	-0.14352094
16	0x3cfd346c	0.030908786
17	0x3e935a43	0.28779802
18	0xbcd27983	-0.025692707
19	0xbe29dc81	-0.16588022
20	0x3d18a4f5	0.03726669
21	0xbf79d2ad	-0.9758709
22	0x3d92bc3f	0.07164811
23	0xbd409231	-0.04701442
24	0xbe0f765e	-0.14009997
25	0x3eb7cd5f	0.35898873
26	0x3f411f96	0.7543882
27	0x3ebc0649	0.36723545
28	0x3e6d8d56	0.23198447
29	0xbf17037f	-0.5898971
30	0xbe64c34e	-0.22340128
31	0x3ef6e100	0.48218536
32	0x3e5c9b7e	0.2154369
33	0xbdd8daf6	-0.105886385
34	0x3f3cb6b2	0.7371627
35	0x3e88a3aa	0.26687366
36	0xbc993206	-0.01870061
37	0x3ecba759	0.39776114
38	0x3e00627b	0.12537567
39	0xbd0b1072	-0.03395123
40	0xbf6aef25	-0.91771156
41	0xbeb0763e	-0.34465212
42	0x3deac32c	0.11463007
43	0xbf11744a	-0.5681807
44	0xbdecd8cc	-0.11564788
45	0xbd844687	-0.064587645
46	0x3eb704c9	0.35745838
47	0xbd5195dd	-0.05116831
48	0xbedd7a4c	-0.43257368
49	0xbefb2761	-0.4905348
50	0xbf137815	-0.57605106
51	0x3db33866	0.087509915
52	0xbe0ee3c5	-0.13954075
53	0x3ee52cd2	0.44760758
54	0x3e83a3d7	0.25710937
55	0x3c0b9060	0.008518308
56	0x3e04faec	0.12986344
57	0x3f08fbd7	0.5350928
58	0x3e600f16	0.21880755
59	0x3eb83e5d	0.3598508
60	0x3f0235f3	0.5086357
61	0xbd6c3579	-0.057668183
62	0x3ea9f264	0.33192742
63	0xbe2d5ff2	-0.16931131
64	0x3dc00c70	0.09377372
65	0x3e8be06c	0.27319658
66	0x3c7299e6	0.0148072
67	0xbe32562f	-0.17415689
68	0xba8688da	-0.0010264174
69	0xbf7133e1	-0.94219786
70	0x3d5314bd	0.05153345
71	0xbd6bce9a	-0.057570077
72	0xbdbd26fa	-0.0923595
73	0x3eab619f	0.33472916
74	0x3f3f2a5a	0.74674
75	0x3ec2718b	0.3797725
76	0x3e834a7c	0.25642765
77	0xbf0b96d4	-0.5452702
78	0xbe712a77	-0.23551355
79	0x3ef1424a	0.47120887
80	0x3e4d40e8	0.20044291
81	0xbda94608	-0.082653105
82	0x3f3570f4	0.7087548
83	0x3e69c7d7	0.22830139
84	0xbdc44fa5	-0.095855035
85	0x3ec4a46d	0.38406697
86	0x3de103c5	0.10987047
87	0xbe05dbfc	-0.13072199
88	0xbf6c573f	-0.92320627
89	0xbea7483b	-0.32672295
90	0x3dc34dcc	0.09536323
91	0xbf114f86	-0.5676197
92	0xbe1916ae	-0.14950058
93	0xbd8af2cc	-0.06784591
94	0x3e974d79	0.29551294
95	0xbcfabd87	-0.030607952
96	0x3ee78185	0.45216003
97	0x3f0f595b	0.5599572
98	0x3f05ebdf	0.52313036
99	0xbe02262f	-0.12709878
100	0xbd1235dc	-0.035695896
101	0xbf120d1b	-0.5705125
102	0xbe886c0c	-0.26644933
103	0x3d4de70c	0.05026917
104	0xbd61402d	-0.054992843
105	0xbf0ae5da	-0.54256976
106	0xbeb214d6	-0.34781522
107	0x3e820e63	0.254016
108	0x3ecf7743	0.40520677
109	0xbdc76b03	-0.09737208
110	0xbccd6df4	-0.025076844
111	0x3e179ae7	0.14805184
112	0x3d50f681	0.051016334
113	0xbea3c853	-0.31988773
114	0xbc56ba67	-0.013105965
115	0xbddf2a3f	-0.1089673
116	0x3d0247a9	0.03180662
117	0x3f488014	0.7832043
118	0xbb3ec170	-0.0029106997
119	0x3e248f2d	0.16070242
120	0x3e110abf	0.14164256
121	0xbece0403	-0.40237436
122	0xbf3ba74c	-0.7330215
123	0xbea68ee7	-0.325309
124	0xbea096f6	-0.31365174
125	0x3f0b5b4e	0.54436195
126	0x3e33ae7c	0.1754703
127	0xbec381a3	-0.38184842
128	0xbe489901	-0.19589616
129	0x3e3c5a66	0.1839386
130	0xbf4a5141	-0.79030234
131	0xbe90de8a	-0.28294784
132	0x3d5ccc23	0.053905617
133	0xbed5001c	-0.41601646
134	0xbda02e61	-0.07821346
135	0xbdcd0213	-0.10010161
136	0x3f3dfec6	0.7421688
137	0x3ea74d63	0.3267623
138	0xbc8d8f7b	-0.01728033
139	0xbf532d00	-0.8249054
140	0x3e2f21bb	0.17102711
141	0x3e3121ef	0.17298101
142	0xbe992dda	-0.29917794
143	0x3d238a77	0.039926972
144	0xbec1c116	-0.37842625
145	0xbf42c098	-0.76075125
146	0xbe8f12c0	-0.27943993
147	0xbe510bca	-0.20414653
148	0xbe4378ba	-0.19089022
149	0x3f786aa3	0.97037715
150	0x3e2a06a5	0.16604097
151	0xbd961755	-0.07328669
152	0xbe0300f9	-0.1279334
153	0x3f1628db	0.5865609
154	0x3e9fc0f6	0.31201905
155	0x3f324c58	0.6964774
156	0x3f1128b8	0.56702757
157	0xbd2b5a34	-0.04183407
158	0xbf901911	-1.125765
159	0xbd9b3ab7	-0.07579558
160	0xbe1372de	-0.14399287
161	0x3eb5fb47	0.35543272
162	0xbd9b0927	-0.07570105
163	0x3f30e746	0.69102895
164	0xbd74b92d	-0.05974691
165	0xbf26faa1	-0.6522618
166	0xbdb7de32	-0.08977927
167	0xbe853ba8	-0.26022077
168	0xbdb3f8d2	-0.08787693
169	0x3f1abfe0	0.6044903
170	0x3f700185	0.9375232
171	0x3dc082e6	0.09399967
172	0x3edd66d7	0.43242523
173	0xbee0272f	-0.43779895
174	0xbdb7c099	-0.08972282
175	0x3ef0cacd	0.47029725
176	0x3e887557	0.26652023
177	0xbdae2936	-0.08503954
178	0x3f570169	0.83986527
179	0x3ee54dd3	0.44785938
180	0x3de8c9df	0.11366629
181	0x3eda7b13	0.42672023
182	0x3cbf904f	0.023384241
183	0xbda1f198	-0.079074085
184	0xbf564b28	-0.8370843
185	0xbe482cd4	-0.1954835
186	0xbd076ec6	-0.033064626
187	0x3f3cdc21	0.7377339
188	0xbe83cef0	-0.25743818
189	0xbdd08612	-0.10181822
190	0x3f0b53f1	0.5442496
191	0xbd330501	-0.043705944
192	0x3ea00cbe	0.31259722
193	0x3dead7dc	0.11466953
194	0x3f01e047	0.50732845
195	0xbe30aa3a	-0.17252436
196	0xbd9c19fc	-0.076221436
197	0x3e0a621f	0.13513993
198	0xbe77c239	-0.24195184
199	0xbe21928a	-0.15778556
200	0x3ccc4a7e	0.024937864
201	0xbe920698	-0.28520656
202	0xbdb482f4	-0.0881404
203	0x3d7c06ff	0.06153011
204	0x3e52ad09	0.2057382
205	0xbd9aa28d	-0.07550535
206	0xbf65fcf0	-0.89839077
207	0x3ddb8d6a	0.10720332
208	0xbccd39f8	-0.025052056
209	0xbe0ac949	-0.13553347
210	0x3d93c405	0.07215122
211	0x3f1ebb29	0.62004334
212	0xbc8b837f	-0.017030476
213	0x3f3564c0	0.7085686
214	0xbe257027	-0.16156064
215	0xbdc709eb	-0.097186886
216	0x3e42b1a0	0.19013071
217	0xbd5d8ad2	-0.054087467
218	0xbe867bb6	-0.2626626
219	0xbec7c18d	-0.39014855
220	0xbcb85ce3	-0.02250523
221	0x3ec0fac6	0.37691325
222	0x3e07054a	0.13185611
223	0xbe60690e	-0.21915075
224	0xbd8f2f50	-0.06991446
225	0x3cbd2f5f	0.023093877
226	0xbea978f2	-0.33100086
227	0xbd5654c0	-0.052326918
228	0x3d722e3e	0.05912613
229	0xbe3bc1f9	-0.18335713
230	0xbddbfef3	-0.10741987
231	0x3d845986	0.06462388
232	0x3f115888	0.5677571
233	0x3e07e1c6	0.1326972
234	0xbe87ec2f	-0.2654738
235	0x3f464ff1	0.7746573
236	0xbd308f69	-0.043105517
237	0x3c814804	0.01578141
238	0xbce83707	-0.028346552
239	0xbc8ba0e1	-0.017044486
240	0xbeb3b24e	-0.35096973
241	0xbf1a7b57	-0.6034445
242	0xbebe1d2a	-0.37131625
243	0xbde0a264	-0.109684736
244	0xbde8df71	-0.11370743
245	0x3f3e6151	0.74367243
246	0x3e220cc2	0.15825179
247	0xbd8839c3	-0.06651642
248	0x3e00068b	0.12502496
249	0x3f03b042	0.51440823
250	0x3e9c2155	0.3049418
251	0xbed17c36	-0.40915078
252	0xbecacbf3	-0.39608726
253	0x3cbe43e7	0.023225738
254	0xbebaefaf	-0.3651099
255	0xbdc73cd3	-0.09728398

fc_smart.bias f4 [64]
0	0xbce1559a	-0.027506638
1	0x3d36235d	0.04446732
2	0x3de71d4a	0.11284883
3	0xbdcd153b	-0.10013815
4	0x3d3d11f3	0.046159696
5	0xbd27ea49	-0.040994916
6	0x3d8b9e8a	0.06817348
7	0x3de58ed2	0.112088814
8	0x3d673b9f	0.056453343
9	0x3b3ab11e	0.0028486918
10	0x3bfc596b	0.007701089
11	0xbdce7ef7	-0.1008281
12	0x3c318f00	0.0108373165
13	0x3da3158f	0.07963096
14	0xbcca4a4d	-0.024693632
15	0x3ca13a69	0.019681172
16	0xbbbbb037	-0.0057277936
17	0x3cdd8fb0	0.027046055
18	0xbcc50c71	-0.024053784
19	0x3d45f312	0.048327513
20	0x3d2b3e6a	0.04180757
21	0x3d5e474c	0.054267213
22	0x3db6dfe7	0.08929425
23	0xbd667ece	-0.056273274
24	0xbdfd1bb0	-0.123587966
25	0xbceb6c0b	-0.028738042
26	0x3d77f3e8	0.06053534
27	0x3d2aee51	0.041731182
28	0xbe10ea7a	-0.14151946
29	0x3ca0e8aa	0.019642193
30	0xbc99a461	-0.01875514
31	0x3d4b8220	0.049684644
32	0xbc86314a	-0.016380925
33	0x3c8f5e8e	0.017501142
34	0x3d476894	0.048683718
35	0x3d059665	0.03261413
36	0x3ce8d7e5	0.028423259
37	0x3d97dc64	0.07415083
38	0x3d7c1e8c	0.06155257
39	0xbd01aa14	-0.03165634
40	0x3c08ff9a	0.008361721
41	0x3d0ff028	0.03514114
42	0x3be23106	0.0069028167
43	0x3dac5782	0.08415128
44	0xbdc899ca	-0.09794958
45	0xbc034318	-0.008011602
46	0x3cd47c0e	0.02593806
47	0xbd003b67	-0.03130665
48	0xbd39d794	-0.045371607
49	0xbd937db0	-0.07201707
50	0xba6e0d23	-0.0009080937
51	0x3d973f43	0.07385113
52	0xbcaa739c	-0.02080708
53	0x3dc2ad7d	0.095057465
54	0x3dbcb471	0.09214104
55	0x3dc31546	0.09525542
56	0xbc4d5e04	-0.012534622
57	0xbd99c417	-0.07508104
58	0x3df34c74	0.11879817
59	0x3d6a716f	0.057237085
60	0x3bd3ae41	0.0064599817
61	0x3d164d95	0.03669508
62	0x3def8e49	0.116970606
63	0xbdc19869	-0.09452898

network_aging.lstm.weight_ih_l0 f4 [128, 5]
0	0x3da1ff9d	0.079100825
1	0xbcdffcb8	-0.027342185
2	0x3e1ff86a	0.15622106
3	0x3e49bc83	0.19700818
4	0x3e12ba3f	0.1432886
5	0x3e1d0eb9	0.15337647
6	0x3a9a837d	0.0011788454
7	0x3d533f35	0.05157395
8	0x3e437389	0.19087042
9	0xbd7ec4f2	-0.06219954
10	0xbdd19d28	-0.10235053
11	0x3e23976a	0.15975729
12	0x3e0a2f3a	0.13494578
13	0xbd9e51ad	-0.07730422
14	0xbde255af	-0.11051499
15	0x3dd2ab0c	0.10286531
16	0x3d9cf361	0.07663608
17	0x3dcdfde0	0.100581884
18	0x3e13e465	0.14442594
19	0xbd5b0b17	-0.053477373
20	0x3c28bd64	0.0102990605
21	0x3dd740d7	0.10510414
22	0x3bbc5bb9	0.005748239
23	0x3cbdfa31	0.02319059
24	0xbb8c797a	-0.004286942
25	0x3e46c211	0.19409968
26	0xbd095c66	-0.033535384
27	0x3dd8cb6e	0.10585676
28	0xbd9f68ba	-0.07783647
29	0xbd88d8ea	-0.06681998
30	0xbd7e4a17	-0.062082376
31	0x3d9565e3	0.07294824
32	0xbcf94c52	-0.0304319
33	0x3e258546	0.16164121
34	0x3e259748	0.1617099
35	0x3c564278	0.013077371
36	0x3c297150	0.010341957
37	0x3e33b91c	0.17551082
38	0x3d4a5661	0.049398784
39	0xbd03f0cf	-0.032212075
40	0xbce6f015	-0.028190652
41	0xbd6a9917	-0.057274904
42	0xbb846f37	-0.004041578
43	0xbde46459	-0.11151952
44	0x3d21508b	0.039383452
45	0x3e0c4128	0.1369673
46	0xbde2d8cc	-0.11076507
47	0x3e24d591	0.16097094
48	0xbe0f2c21	-0.13981678
49	0x3e11c1a8	0.1423403
50	0x3e395cf1	0.1810186
51	0xbd3a2fc9	-0.045455728
52	0x3cea233b	0.028581252
53	0x3e3993f9	0.18122853
54	0xbe1457fa	-0.14486685
55	0xbd81c75f	-0.06336855
56	0xbbcb19fe	-0.006198167
57	0x3d9704db	0.07373973
58	0xbd1a0668	-0.037603766
59	0xbe1cc1bf	-0.15308283
60	0x3e0826f1	0.13296105
61	0xbc1ddd5d	-0.009635297
62	0xbccf5d80	-0.025313139
63	0xbdcd66f0	-0.100293994
64	0xbd3c0dbb	-0.045911532
65	0x3c3519c1	0.0110535035
66	0xbdeca959	-0.11555738
67	0x3d16ccba	0.036816336
68	0x3dc9498e	0.098284826
69	0x3ce9d152	0.028542195
70	0xbcb6e299	-0.022324847
71	0x3dd78a31	0.10524405
72	0xbc207105	-0.009792571
73	0x3e28521a	0.1643757
74	0x3de574ad	0.11203895
75	0xbd90ddbe	-0.07073544
76	0x3e53363d	0.20626159
77	0x3c5b4b74	0.013384689
78	0x3d9b86a3	0.07594039
79	0xbdd98397	-0.10620802
80	0xbe06e986	-0.1317502
81	0x3de91175	0.11380283
82	0x3d711f6e	0.058867864
83	0x3e35d0c4	0.17755419
84	0x3e250fcd	0.16119309
85	0x3e56c3cf	0.20973133
86	0xbdb669ed	-0.089069225
87	0xbcb7770c	-0.022395633
88	0x3d344470	0.04401058
89	0x3e0c7bb1	0.1371906
90	0x3dd16918	0.10225123
91	0xbd0ea3fb	-0.034824353
92	0x3e12e798	0.14346159
93	0x3dc50e2e	0.09621845
94	0xbccfc6a6	-0.025363278
95	0x3bbf1eba	0.0058325203
96	0x3cabe13c	0.020981424
97	0xbdaa4330	-0.08313596
98	0x3e32aac1	0.1744795
99	0x3d11e2a8	0.035616547
100	0x3d4185e1	0.047246817
101	0xbd3aabd0	-0.04557401
102	0x3d5d40ea	0.054016985
103	0xbe0e9ddb	-0.13927405
104	0x3e1a55cc	0.15071791
105	0x3e0b40ce	0.1359894
106	0xbdc2e43a	-0.09516187
107	0x3e111936	0.14169773
108	0x3d54e6b5	0.051977832
109	0xbd504a1c	-0.050851926
110	0xbcca5841	-0.024700286
111	0x3e33482b	0.17507999
112	0xbcfaf322	-0.030633513
113	0x3d80073d	0.062513806
114	0xbe1b58d9	-0.15170611
115	0x3d74646d	0.059666086
116	0xbe13a810	-0.1441958
117	0x3e0a365a	0.13497296
118	0x3c92cf62	0.017921153
119	0xbd0ede32	-0.03487987
120	0x3e0d0cc2	0.13774398
121	0xbdfabff0	-0.122436404
122	0x3d62a832	0.055336185
123	0xbd332500	-0.043736458
124	0xbe18b58b	-0.14913003
125	0xbd59bc63	-0.053158175
126	0xbce57420	-0.028009474
127	0x3df88ccf	0.12136232
128	0xbdb67180	-0.08908367
129	0xbc11639e	-0.008873848
130	0x3d82e915	0.06392113
131	0x3e2083a3	0.15675215
132	0xbd972fcf	-0.07382166
133	0xbe163a60	-0.14670706
134	0xbe06eb92	-0.131758
135	0x3df000e7	0.11718922
136	0x3e180e83	0.14849286
137	0x3de07a0b	0.10960778
138	0x3d2dacd2	0.042401142
139	0xbe19b9ca	-0.15012279
140	0x3e515859	0.20443858
141	0xbd8b784c	-0.06810054
142	0x3dc2f222	0.095188394
143	0xbda81ab8	-0.08208221
144	0xbdc205e1	-0.094737776
145	0x3e0119ca	0.12607494
146	0x3cdca312	0.026933227
147	0xbe04750d	-0.12935276
148	0x3e16bbeb	0.14720123
149	0xbe168452	-0.14698914
150	0x3e150ed9	0.14556445
151	0xbd4f6074	-0.050629094
152	0x3e2c36ae	0.16817734
153	0x3dcde2d7	0.10053032
154	0x3e3ae597	0.18251644
155	0x3d8c7e4c	0.06860027
156	0x3e4f7353	0.20258836
157	0xbd501dcd	-0.05080967
158	0x3e09df3e	0.13464066
159	0x3e0edf90	0.1395247
160	0x3dd6f5d1	0.104961045
161	0xbcbc16ff	-0.022960184
162	0x3e2ec3a4	0.17066818
163	0xbddac29f	-0.10681652
164	0xbe1f1b07	-0.15537654
165	0xbd5eb37d	-0.054370392
166	0xbbc0ea4d	-0.005887306
167	0xbc71a745	-0.014749353
168	0xbdf46f86	-0.11935334
169	0x3d53bfc5	0.051696558
170	0x3e3f3d2e	0.18675682
171	0x3e6c986d	0.23105021
172	0x3e4e6dfc	0.20159143
173	0x3da95a8f	0.08269226
174	0x3e4c7f30	0.19970393
175	0x3e44ee3e	0.19231507
176	0x3e524695	0.20534737
177	0x3cdf5aaf	0.027264921
178	0xbdacb11a	-0.08432217
179	0xbd82da3d	-0.06389282
180	0x3e62fbfc	0.22166437
181	0x3a9b2aae	0.0011838281
182	0x3d7806da	0.06055341
183	0x3d9172cc	0.07101974
184	0xbda98f03	-0.082792304
185	0x3d5304de	0.051518314
186	0x3e0bc20d	0.13648243
187	0x3df9c913	0.12196555
188	0x3dd6a2ce	0.10480271
189	0xbd95f0a3	-0.073212884
190	0x3e082fbb	0.13299458
191	0x3d4dd564	0.050252333
192	0xbddebaf6	-0.10875504
193	0x3e2d72a2	0.1693826
194	0x3b3599ab	0.0027710001
195	0x3e0dec1f	0.13859604
196	0x3c1cabb4	0.009562422
197	0x3d03197b	0.032006722
198	0x3c40e607	0.011773593
199	0x3de87eec	0.113523334
200	0xbd9f567b	-0.07780167
201	0x3e321bdf	0.17393444
202	0xbc9b45ad	-0.018954122
203	0xbd6e0935	-0.05811425
204	0xbe26043d	-0.16212554
205	0xbd8abe0a	-0.06774528
206	0x3e0f7158	0.14008081
207	0x3dd3be39	0.103390165
208	0xbc910118	-0.017700717
209	0x3e1c8103	0.15283589
210	0x3e2dbed5	0.16967328
211	0xbced782a	-0.028987963
212	0x3e1d8466	0.15382537
213	0xbde21baf	-0.110404365
214	0x3d8e6984	0.06953719
215	0x3e11ca8d	0.14237423
216	0x3cd981cb	0.026551148
217	0x3e71a9f1	0.23599984
218	0xbdeb810e	-0.114992246
219	0xbe21577a	-0.15756026
220	0x3caff457	0.021478815
221	0x3dbb5275	0.09146587
222	0x3e050a79	0.12992276
223	0x3bb60195	0.005554388
224	0x3e2c8106	0.16846094
225	0xbd9bdbac	-0.076102585
226	0xbd587bd3	-0.052852463
227	0x3d79669b	0.060888868
228	0x3b83b995	0.004019926
229	0xbd126a7f	-0.035746094
230	0xbc4f4675	-0.012651076
231	0xbc280e64	-0.010257337
232	0xbc6e4474	-0.014542688
233	0x3e5ca1f9	0.21546163
234	0xbd173d44	-0.03692366
235	0xbb70d1f2	-0.003674623
236	0xbcb96825	-0.022632668
237	0xbcd35ea3	-0.025801962
238	0xbd26871a	-0.040656187
239	0x3ccbde4a	0.02488627
240	0x3e5789b0	0.21048617
241	0x3d1b3c3b	0.037899237
242	0xbdcf2cca	-0.10115965
243	0x3ded2a1f	0.115802996
244	0x3e21fcfb	0.1581916
245	0x3c7fe3db	0.01561829
246	0xbd6f9905	-0.05849554
247	0xbdfd6016	-0.123718426
248	0x3dee6809	0.11640937
249	0xbda3f2bc	-0.08005282
250	0x3d323118	0.04350385
251	0xbd424fe4	-0.04743947
252	0x3d4ad0e3	0.049515616
253	0x3e3f7540	0.18697071
254	0xbe105ee3	-0.14098696
255	0x3b7f8fbe	0.003899559

network_aging.lstm.weight_hh_l0 f4 [128, 32]
0	0xbde71cac	-0.112847656
1	0xbe6c2020	-0.2305913
2	0xbe69e8b7	-0.2284268
3	0xbd1e6ec8	-0.038679868
4	0x3ddea044	0.10870412
5	0x3db9a38a	0.09064396
6	0x3cff4e48	0.031165257
7	0x3da573c7	0.080787234
8	0xbe1960e8	-0.14978373
9	0x3dbe0728	0.09278709
10	0x3e0f2501	0.1397896
11	0x3e5a9868	0.21347201
12	0x3dcce542	0.10004665
13	0xbdf8821b	-0.12134191
14	0xbd3d9203	-0.046281826
15	0xbdb9a2a1	-0.09064222
16	0xbdca2b75	-0.0987157
17	0x3e4ca918	0.19986379
18	0xbdc2ddf5	-0.09514991
19	0xbdea4c4c	-0.11440334
20	0x3d9c3ceb	0.07628807
21	0x3d29e683	0.0414796
22	0x3dbe70d7	0.09298866
23	0xbd9e2922	-0.07722689
24	0x3cdd2578	0.026995406
25	0xbca7d11f	-0.020485459
26	0x3deb756f	0.11497008
27	0xbb9c2a83	-0.00476581
28	0xbcd1a471	-0.025591107
29	0xbc86800b	-0.016418478
30	0xba818b91	-0.0009883513
31	0x3e248683	0.16066937
32	0xbe50d9c5	-0.20395572
33	0xbe16f5d8	-0.1474222
34	0xbdd3ede1	-0.10348106
35	0x3d9a840f	0.075447194
36	0xbdd3b753	-0.10337701
37	0xbc53e0ce	-0.012932016
38	0x3e61ce17	0.22051273
39	0x3d2a4cd5	0.04157718
40	0x3dcc52d9	0.099767394
41	0x3e3e3a10	0.18576837
42	0x3e1545a9	0.14577354
43	0x3e1ab44e	0.15107843
44	0xbc28398f	-0.010267629
45	0xbe586799	-0.2113327
46	0xbe61244b	-0.21986501
47	0x3e12a0b5	0.14319117
48	0x3dee9450	0.11649382
49	0x3dcf2ff9	0.10116572
50	0xbd1e9c4c	-0.038723275
51	0x3b01f3a2	0.0019829054
52	0xbe650d6a	-0.22368398
53	0x3dc0af64	0.09408453
54	0x3cbac5ec	0.022799455
55	0xbdf847bb	-0.121230565
56	0xbddb1eeb	-0.106992565
57	0x3dfa0c58	0.12209386
58	0x3cd79f7c	0.026321165
59	0xbbf8725d	-0.0075819925
60	0xbd937676	-0.07200329
61	0x3d3f2acc	0.046671674
62	0xbd283804	-0.041069046
63	0x3d35fd5f	0.044431087
64	0xbd08426e	-0.033266477
65	0xbdbcc22e	-0.09216724
66	0x3cb1a19d	0.021683509
67	0xbbd83261	-0.0065978025
68	0xbdc58d80	-0.096461296
69	0x3db8dda8	0.090266526
70	0x3e60fce7	0.21971475
71	0xbe73abce	-0.23796007
72	0xbd00fcc7	-0.031491067
73	0xbdc95553	-0.098307274
74	0xbbdf84e3	-0.0068212613
75	0x3e59590d	0.21225376
76	0xbe33c183	-0.17554288
77	0xbe072736	-0.13198552
78	0x3d7ed52a	0.062215008
79	0xbdc95854	-0.098313004
80	0x3e2eeb35	0.17081912
81	0x3e235456	0.1595014
82	0x3cca5f29	0.024703579
83	0x3e43a413	0.19105558
84	0x3dbfb3e0	0.0936048
85	0x3e1c464b	0.1526119
86	0xbd08cab0	-0.033396423
87	0x3e78bbb6	0.24290356
88	0xbe420402	-0.18946841
89	0x3dd66928	0.10469276
90	0xbd12b860	-0.035820365
91	0x3d3ed86c	0.046593115
92	0x3d2ce67a	0.042211987
93	0xbdade20d	-0.084903814
94	0x3d5e3ca1	0.05425704
95	0x3d91315a	0.07089491
96	0x3cc5382e	0.02407464
97	0xbe469a99	-0.19394912
98	0xbe830747	-0.2559149
99	0xbe24289e	-0.16031119
100	0xbe269017	-0.16265903
101	0xbdbce0e0	-0.09222579
102	0x3d9697d0	0.07353175
103	0x3dc63130	0.096773505
104	0x3d3070c5	0.043076295
105	0x3e66153f	0.22469042
106	0xbde00f0d	-0.10940371
107	0x3e65e477	0.22450434
108	0x3d91ba34	0.071155936
109	0xbcc9972f	-0.024608223
110	0x3da95877	0.082688265
111	0x3e459ac9	0.19297327
112	0x3e025e75	0.12731345
113	0x3beca0f6	0.0072213365
114	0xbd08774f	-0.033316907
115	0xbce1e658	-0.027575657
116	0xbd0c7979	-0.034295533
117	0x3c9f36cc	0.019435309
118	0xbdcae317	-0.09906595
119	0xbd7a5327	-0.061114457
120	0xbe272d5a	-0.16325894
121	0x3d694e8d	0.056959677
122	0xbd952dd6	-0.07284133
123	0xbdc81fce	-0.09771691
124	0x3cdcdfc3	0.026962167
125	0x3e2e5e55	0.17028172
126	0x3e39fdec	0.1816327
127	0x3d21de4f	0.03951865
128	0xbdf3cd82	-0.11904432
129	0xbe7a6030	-0.24450755
130	0x3d738a99	0.05945835
131	0x3d8e33aa	0.06943448
132	0x3d55731b	0.052111726
133	0xbcb80808	-0.022464767
134	0x3d9634d2	0.073342934
135	0xbd8afade	-0.0678613
136	0xbc7c75e3	-0.015408966
137	0x3e7dd3a1	0.24787761
138	0xbd4dc2f2	-0.050234742
139	0xbd413e86	-0.047178768
140	0xbc686c1e	-0.014185933
141	0xbdc9383c	-0.09825179
142	0xbde0d132	-0.10977401
143	0xbd7ef8ca	-0.062248982
144	0xbd8cb09f	-0.06869625
145	0x3cd8827c	0.026429407
146	0x3c974ef2	0.018470261
147	0xbda1d45f	-0.07901835
148	0xbdf080ad	-0.11743293
149	0xbdeaa4e5	-0.114572324
150	0x3e6ff49a	0.23433152
151	0x3c61209f	0.013740688
152	0xbd3be5c5	-0.045873422
153	0xbd66c036	-0.05633565
154	0xbcee1e12	-0.029067073
155	0xbe8b1cbc	-0.2717036
156	0x3d74eb1a	0.059794523
157	0x3e27319a	0.16327515
158	0x3c009f57	0.00785049
159	0x3e3aea73	0.18253498
160	0xbdd6f69e	-0.10496257
161	0xbb4a24ae	-0.0030844617
162	0x3d7c4530	0.06158942
163	0xbdb0dca9	-0.086358376
164	0xbe6437c7	-0.22286902
165	0x3da1a072	0.07891931
166	0x3e6c71b1	0.23090245
167	0x3db2be96	0.08727758
168	0xbe27d7d9	-0.16390933
169	0x3d8e7cf9	0.069574304
170	0x3e0a12d0	0.13483739
171	0x3d0ef71d	0.034903634
172	0x3c148c20	0.0090666115
173	0xbe21e360	-0.15809393
174	0xbdb2155d	-0.08695481
175	0xbce4375c	-0.027858429
176	0xbd84f7b0	-0.06492555
177	0x3e2cee38	0.16887748
178	0xbd59ed48	-0.053204805
179	0xbdd0f65c	-0.10203239
180	0x3da06c6e	0.07833181
181	0x3d934977	0.07191747
182	0xbde5a84c	-0.11213741
183	0x3e3e57bb	0.18588154
184	0xbe5adefb	-0.21374123
185	0xbe5f2605	-0.21791847
186	0xbdd2a381	-0.10285092
187	0xbe310f27	-0.17290936
188	0x3d0f13cd	0.034930993
189	0x3e09c55d	0.13454194
190	0xbdbb3ba0	-0.09142232
191	0x3e3ee2b0	0.18641162
192	0xbe378e60	-0.17925406
193	0x3cbffab4	0.023434974
194	0x3dda16dc	0.10648891
195	0xbd263bee	-0.040584497
196	0xbdaed81d	-0.08537314
197	0x3ddd935e	0.10819124
198	0x3df757ed	0.120773174
199	0xbd9db95f	-0.07701372
200	0xbd735d57	-0.059415188
201	0x3caf7570	0.021418303
202	0x3d8a9001	0.06765748
203	0x3e6400d5	0.22265942
204	0xbdb57fd2	-0.088622704
205	0xbdb53dc3	-0.08849671
206	0xbe6841f2	-0.22681406
207	0x3e41e895	0.18936379
208	0xbd2d649b	-0.042332273
209	0xbdaf9ee5	-0.085752286
210	0x3d2d8862	0.042366393
211	0xbd10d57f	-0.035359856
212	0xbda80672	-0.08204354
213	0x3e4f8b12	0.20267895
214	0x3e0ce5d5	0.13759549
215	0x3e020805	0.12698372
216	0x3cb7da83	0.022443062
217	0x3d9bd4d0	0.0760895
218	0xbd24a03e	-0.04019188
219	0xbe5c7d31	-0.21532132
220	0xbbc3cc62	-0.005975292
221	0xbd8fdade	-0.070241675
222	0xbce28382	-0.027650598
223	0x3d8ca76c	0.06867871
224	0x3d0c9ab4	0.034327224
225	0xbe6e8fa2	-0.23296979
226	0xbe129d2f	-0.14317773
227	0xbe17951f	-0.14802979
228	0x3ac188c9	0.0014765497
229	0x3e419773	0.1890543
230	0xbd9d97b5	-0.076949514
231	0xbe50b6d0	-0.20382237
232	0xbe69ea04	-0.22843176
233	0x3ded8364	0.115973264
234	0x3dde6c90	0.108605504
235	0x3e4b6cd9	0.19865741
236	0x3d3e4432	0.046451755
237	0xbc99c2ea	-0.0187697
238	0xbde5441d	-0.11194632
239	0xbd95350a	-0.07285507
240	0x3e2d1ae1	0.16904785
241	0x3d3c166e	0.045919828
242	0xbb5ac90f	-0.0033384
243	0xbe351935	-0.17685397
244	0x3cead6c6	0.028666865
245	0x3e179d26	0.14806041
246	0x3da76333	0.081732176
247	0x3b8644bb	0.004097549
248	0xbd068e09	-0.0328503
249	0xbdf7d4ee	-0.1210116
250	0x3d9706ed	0.07374368
251	0xbd23bfb5	-0.039977748
252	0x3ddf1b74	0.10893908
253	0xbc2cbe27	-0.010543383
254	0x3e22fac9	0.1591598
255	0xbdaf9086	-0.085724875
