trained_model/mc1_mc2/45_days_lookahead/pnet_checkpoint/pnet_online_450.pth (torch, 545278 bytes, 36 tensors)

network_smart.layer1.0.weight f4 [128, 330]
00000000: a3e9 a13c 4b60 7fbe 23ad e13e 47f0 fabc
00000010: a5e3 0c3e 93b5 0c3e de24 893e 90ee 09bd
00000020: 9b8f 333d 9927 5a3e 1046 633d 9169 7dbc
00000030: f71b 9ebd 1e97 ee3e 686f 173d 442c 483e
00000040: 773b 783d 0bc0 973e 6dd5 98bc 896b 863d
00000050: 8f7e 573e 4fe1 5a3d c26e 323d c54f 0ebe
00000060: 7004 c43e 4f1e 09bd 3007 493e 3f46 fb3c
00000070: 947e 753e a823 f8bc 8ddc d3be 9c43 473e
00000080: e172 023e a0f7 bb3b 30f6 95be aff6 603e
00000090: 752a d63c f0ca 643e 3a90 983d a070 8a3e
000000a0: 2e55 a0bc 19db af3d 9c6e 963e 0daf 963d
000000b0: 0ba2 493d 55bc a8be 8e96 143e 9ab9 b63c
000000c0: 9113 723e a49a 603d 8761 863e 0647 d0bd
000000d0: 4ede 993b ffee 523e 20c5 2b3d f972 13bb
000000e0: be75 babe 682b 5e3e e84b 3c3d ec50 ab3e
000000f0: 5efd 3e3d cb2a 783e a5e1 91bd a4b9 11be
00000100: 872a 8c3e 554b 4b3d 780e eb3c 3d49 3ebe
00000110: 5944 4c3e 118c 233d 6d2c c33e 9ff7 b73c
00000120: fc23 6a3e 25b1 86bd babd 9d3d 4dd4 ad3e
00000130: d992 d63d 9e55 b03c cb10 26be 9dff 5e3e
00000140: bd4e bc3c fb9c 963e 29bc debc 1ac0 5d3e
00000150: 8510 3dbc 63fa b83d 496d ca3e f697 0b3e
00000160: e3a9 c33c 1c3d fcbd 8189 303e 5d82 28bd
00000170: c3dc a23e ca5b 563c f45e 843e 347c 96bb
00000180: 41eb db3d ce51 bc3e b43b f73c 51f6 323c
00000190: a169 b4bd e1a5 4a3e da0d 51bd 18d0 b33e
000001a0: e5ab 4f3d c865 7a3e f1ba 66bd 79a6 a43d
000001b0: 8269 c83e 1c7e a43d ef77 86bd 60c6 34be
000001c0: 5214 253e fdca 3f3d 3033 da3e 56e1 1f3d
000001d0: 7f4f 643e ba4c f43c d5e5 383d 958d b83e
000001e0: fbc5 003e 8c12 31bb 2dc7 ccbd 3db0 213e
000001f0: 7296 69bd e323 f33e fb5f 233d 0714 663e
00000200: 4649 283c 9f5a c33c 85db d63e 85a3 883d
00000210: 164f b53b fef7 09be f530 233e 0545 96bc
00000220: 6f50 113f dce5 0b3d c22b 8d3e fc04 7abd
00000230: 6df8 4e3d 13aa 1a3f a3dc b03d 7863 be3c
00000240: 6c1f 69be 170a 403e d879 593c ea9e 1b3f
00000250: 4bfe ad3d 95eb 723e e43b 0f3d cfca 073d
00000260: d055 2b3f 8195 c23d 55bb 5abd 6553 31be
00000270: 62d3 28bd 256d 833b df1a 403f 10c6 563d
00000280: 821f 933e e52a 89bd 8001 b13d c2b3 393f
00000290: 3680 0e3e 62a6 683c 59ae 4fbe d46f 90bc
000002a0: 98bb b1bc 56fc 2f3f 769f c13d 8062 7e3e
000002b0: a79b 583d 9b98 7b3d 822c 3c3f d2a4 af3d
000002c0: 55e0 9bbd 8f20 3dbe 9388 563b aba9 f83b
000002d0: fedf 503f 3947 1f3d 5e70 883e 1815 083d
000002e0: 7fb5 d23d 8e79 5c3f 2541 143e 485e 9abb
000002f0: 059c 77be ed7b 0abb 9276 a03d d928 553f
00000300: 16e1 0f3e 6dac a33e 3292 4c3d 28aa 4d3e
00000310: 68c1 5d3f 28cf fa3d d873 9fbb 029f 6dbe
00000320: 997d 1e3d 251e 3bbd ae3d 6b3f 2613 143d
00000330: 23e6 893e 1a78 e0bc 31da cd3c 8390 573f
00000340: 0b7e 043e f20f d1bc 2177 86be e28d 83bc
00000350: 3dea 243d ee1b 7f3f 7a6e fb3d c3ff 813e
00000360: 28a7 333c 8b06 cd3d 08a2 833f 4d79 4c3e
00000370: 4362 82bd d0b7 a7be 3d1a 82be 116e 44bf
00000380: b891 853f ce87 af3d d9a8 803e f654 c1bd
00000390: 8027 f23d a36e 8a3f 1089 e93d 02a4 17be
000003a0: 36bc 8abe 0e7a 203d 1bc8 393d e7fc 8e3f
000003b0: 1c52 813d 407a 8b3e fa55 56bc b462 be3c
000003c0: 0992 8b3f 64e9 4c3e 5fe8 59bd 8fa8 a9be
000003d0: 9e0a f5bc 97bf 93be a04d 853f d2bd 753d
000003e0: 4a1b 853e af03 97bd 4f05 bebe 4ac4 883f
000003f0: 8144 0d3e b58b f4bd 0ea7 a8be 03ea ebbc
0.019764727 -0.24939077 0.44077405 -0.030632151 0.13758714 0.1374114 0.2678594 -0.033674777
0.043838125 0.21304168 0.05548674 -0.0154670635 -0.077201776 0.46599668 0.03697148 0.19548136
0.060603585 0.29638705 -0.018656457 0.065634795 0.21044372 0.053437527 0.043562658 -0.13897617
0.38284636 -0.03347617 0.19631648 0.030673144 0.23974067 -0.03029044 -0.41379204 0.19459385
0.12739135 0.0057363063 -0.2928939 0.21969102 0.026143292 0.2234304 0.07449384 0.2703905
-0.019571867 0.085867114 0.29381263 0.07357607 0.0492268 -0.32956186 0.14510557 0.022305299
0.23640276 0.054834977 0.26246282 -0.10169797 0.0046956902 0.20598982 0.04193604 -0.002249895
-0.36417955 0.21696246 0.045970827 0.33460176 0.04662835 0.24235074 -0.071231164 -0.14230973
0.27376196 0.04963239 0.028693423 -0.18582626 0.19947948 0.0399285 0.38119832 0.022456942
0.2286529 -0.065767564 0.07702203 0.33951035 0.10477228 0.0215252 -0.16217344 0.21777196
0.022986764 0.29416642 -0.027189331 0.21655312 -0.011539583 0.090321325 0.39536503 0.13632187
0.02388472 -0.12316343 0.17239954 -0.04113995 0.31809053 0.013083408 0.25853693 -0.004592443
0.107382305 0.36781162 0.030179836 0.010922984 -0.088092096 0.1978984 -0.0510386 0.351197
0.05070104 0.24452889 -0.056330625 0.08039565 0.39142996 0.08031866 -0.06565844 -0.17653799
0.16121033 0.046824444 0.42617178 0.039033256 0.2229595 0.029821742 0.04514106 0.3604552
0.12575524 -0.0027019111 -0.09998927 0.15789886 -0.05702824 0.47488317 0.039886456 0.22468577
0.010271376 0.023846922 0.41964355 0.06671814 0.0055331094 -0.13473508 0.15936644 -0.018343458
0.56763357 0.034154758 0.27572447 -0.06103991 0.050529886 0.6041576 0.08635833 0.02324079
-0.22765893 0.18753849 0.013273679 0.6078936 0.08495768 0.2372268 0.034969226 0.033152398
0.66927814 0.09501172 -0.05340131 -0.17316969 -0.041217215 0.004010814 0.75041 0.05243498
0.28734976 -0.066976346 0.08642864 0.72539914 0.13916096 0.014199825 -0.20281352 -0.017631449
-0.021695897 0.6874441 0.09454243 0.24842262 0.052882817 0.061424833 0.73505414 0.08576359
-0.07611147 -0.18469451 0.0032735213 0.0075885854 0.81591785 0.038886283 0.2664823 0.03322324
0.10288524 0.8612298 0.14477976 -0.004710946 -0.2418061 -0.0021130994 0.078351155 0.83265454
0.14050707 0.31967488 0.04994411 0.2008444 0.8662324 0.12246543 -0.0048661046 -0.23205188
0.038693998 -0.045683045 0.9189099 0.036151074 0.26933393 -0.027401019 0.025128456 0.8420488
0.12938707 -0.025520299 -0.26262763 -0.016058866 0.04026245 0.9965199 0.12276931 0.25390443
0.010965146 0.100110136 1.0283823 0.19968148 -0.06366398 -0.32757425 -0.25410643 -0.7673045
1.0435095 0.085708246 0.2512882 -0.09440033 0.1182394 1.0815014 0.11403096 -0.14808658
-0.2709672 0.0391789 0.04535685 1.117093 0.06314489 0.27241707 -0.013082022 0.023240425
1.0903941 0.20010906 -0.053200122 -0.33136413 -0.02991229 -0.2885711 1.0414314 0.05999548
0.25997382 -0.073737495 -0.37113425 1.0684903 0.13795663 -0.119407095 -0.32939953 -0.028798109

network_smart.layer1.0.bias f4 [128]
00000000: a29c 633d dd52 eebb c86b f33c ddaf 40bb
00000010: 8a5a ab3d 0bd7 853d 5b86 563c 3764 b6bd
00000020: e40a f1ba c8e3 d93b 949c 07bd c6db 533d
00000030: 94d0 433d 01a1 b33d 27a8 10bd a1f3 81bd
00000040: 1034 a53b 490a 243c 93a6 be3c d57a 1ebd
00000050: d6ba 3a38 882e b83d 350b 60be 0835 f83d
00000060: 7933 e9bd be21 b13d bb82 a9bd 03ed cf3d
00000070: a829 dc3d 020b a43d 3bec b33d 5321 e5bd
00000080: e439 0fbd c559 d53d 7a7a 3b3d 7ce5 953d
00000090: 33e0 a33d f0fe 193e f5a7 e13d 7fa4 a93d
000000a0: 6d19 4d3b c822 a1bd c858 863d 6b25 84bd
000000b0: f2c9 803d 08a1 d03b 63ca 143d eb9d 2ebd
000000c0: 5bde d63b dd37 0a3d 3bfe 76bd 7e62 873d
000000d0: 8dab 943b 1e8b 2dbd 1918 a7bc c79d 6bbe
000000e0: 0ba9 b43d 58bf cdbc b0d6 f2bd cfde 16bc
000000f0: 3e47 873d 6fa5 763d 6c70 433d c1f7 c3b9
00000100: 8fbb 893d fc2f b1bd 2834 ac3b 7e8e c5bc
00000110: 5505 033d fcd2 ef3d 2ff6 0fbe fe44 d23c
00000120: 154a a5bd 6859 0fbe 9edc 263d 6d7b afbc
00000130: 9e7e d4bc aa6c 963d e11a ab3d a1bf 1fbd
00000140: d6a4 013b 307b 10be 4ef4 2fbd b398 3dbe
00000150: df56 1fbd 8371 10be 12ac d0ba 9986 0cbd
00000160: 83b4 793c c639 7abd 4528 00bc 4cf6 eb3c
00000170: 7daa 54bd affe b73a edc0 e63c e90c 093d
00000180: 6fd0 22bd ddb2 02bd 361a 60bd 330c b3bc
00000190: 27aa 573d 2de6 57be 41c5 39bc f339 a23c
000001a0: f3d4 833b 8331 fbbd 4dbc c83c adfa aebc
000001b0: abcc 03bc 4d25 aa3c 025b 85bb b129 c3bd
000001c0: 23e4 d9bc 3e99 fc3d 2c33 17be 9094 93bc
000001d0: 623c 893c 3626 dfbc c17a 643d af6a 20bc
000001e0: 2324 d33d 9ae0 02be ec50 12bb 37bd c13d
000001f0: 2b9f d33d d684 b53c ec64 99bd 0288 be3d
0.0555693 -0.0072730617 0.02971448 -0.0029401698 0.08366878 0.06535157 0.013093556 -0.08905833
-0.0018390086 0.006649468 -0.03310831 0.051723264 0.047806337 0.087709434 -0.035316613 -0.06345297
0.0050416067 0.010012218 0.023272788 -0.03869136 4.451986e-05 0.0899325 -0.21879275 0.1211949
-0.11386771 0.08649014 -0.08276888 0.10152628 0.10750133 0.08009912 0.08785292 -0.11187997
-0.03496732 0.10417513 0.0457711 0.07319161 0.08001747 0.15038657 0.110183634 0.08283328
0.0031295673 -0.07867962 0.065599024 -0.064524494 0.06288518 0.0063668527 0.036325824 -0.04263107
0.0065572686 0.03374468 -0.060301047 0.06610583 0.004537052 -0.042369 -0.020397233 -0.23009406
0.08821305 -0.025115654 -0.11857355 -0.009208395 0.06605385 0.060216364 0.047714636 -0.0003737789
0.06725227 -0.086517304 0.005255241 -0.024115797 0.031987507 0.11710164 -0.14058755 0.025667664
-0.08070771 -0.1399895 0.04073774 -0.021421159 -0.025939282 0.07344945 0.08354736 -0.03900111
0.0019782088 -0.14109492 -0.042957596 -0.18515281 -0.038901206 -0.14105801 -0.0015920422 -0.03430805
0.015240791 -0.061090253 -0.007822101 0.028803967 -0.051920403 0.0014037694 0.028168166 0.033459578
-0.03974956 -0.03190886 -0.054712497 -0.021856403 0.052652504 -0.21083899 -0.011338533 0.019803023
0.0040231883 -0.12265303 0.024503851 -0.021359766 -0.008044402 0.02076974 -0.004069687 -0.095294364
-0.026598042 0.12333916 -0.14765614 -0.018015176 0.016752426 -0.0272399 0.05578113 -0.00979106
0.10309627 -0.12780991 -0.0022326065 0.09459918 0.10333093 0.022158068 -0.074899524 0.09303285

network_smart.layer2.0.weight f4 [128, 128]
00000000: 92de 463c 182a 9a3d d513 8fbd 69e4 1cbd
00000010: 94da 8abc cc7d 983d cac1 a03d 0f31 54bd
00000020: 172c 5bba 4350 99bd 62f0 abbd 42e5 ad3c
00000030: 1496 7cbc bc7b cc3c 9437 93bd e0b6 42bd
00000040: c725 07bd c02a 793c 98ea 803d 7fd2 95bd
00000050: c67e 383d 20d3 0fbd c369 663d 3601 08bd
00000060: a1e8 61bd d232 2fbd d820 283d e22b 383d
00000070: 6bb4 65bc dd94 8fbd 0a6b 673d 5256 373d
00000080: 9f1c 90bd 3aff 10bd 828d 43bd 635d 9e3c
00000090: 8119 8cbd 76a4 abbd 2bd8 f5bc f8fd 233d
000000a0: 65fe a43d 5ba7 61bc 95bb 3bbd 47b9 c5bd
000000b0: c1a2 fc3c bbad b33c 4343 3bbd b2c4 78bd
000000c0: 8143 edbc 7f06 99bc 93be 7a3d 6a7e 843d
000000d0: 05ad 463b ab0c 0c3d 170a e2bb f732 ddbc
000000e0: 5d11 0c3d 4410 cebc 5db7 a53d 3a1e 66bd
000000f0: 596f 27bd f9e5 a63d 5a8c 9c3d 894e 2e3d
00000100: 5878 373d c027 a5bd 851b b0bc 223e 123d
00000110: 56c4 2fbd eb39 583d 4a72 42bd a356 413c
00000120: 717d 67bc 6868 9a3c 83fb 703d 4540 babd
00000130: 9744 903d 9dd9 61bc 844f d13c 41bb 96bd
00000140: 651a 133c a559 aabd 7d1f d0bc ff83 9ebd
00000150: 5eae a9bd abec de3c c7bb a3bd 77ad 3ebc
00000160: 7de1 873d 9847 cebc e034 06bd 1003 8ebd
00000170: 4d2e a43d e346 40bd dded aebd 5c10 953d
00000180: 0b93 113d 3a75 89bd 97fd 89bd 4414 f93b
00000190: e017 7ebc c7d0 a5bd 999c f63b f2c2 91bb
000001a0: 9768 b5bd 9753 553d af75 95bd f0c3 a1bc
000001b0: e391 6a3c 376f e9bc bea7 b23b 3c5c f13c
000001c0: 55b0 2b3d 48bb 8dbd eda5 91bc c56c 823d
000001d0: 3af4 833d 2166 39bd 41b3 893a 6fd9 9e3d
000001e0: 6a85 57bd 99dc aabd 28ea 903d 16a9 88bd
000001f0: 635c ae3c b10a 453d b4be 02bd 0b7d 7b3d
00000200: d809 ebbe 2e9c bfbe 9b02 0dbe 5359 4ebd
00000210: 3ca2 c23d 9aa4 343d 901a 6ebe a77e 8b3d
00000220: 2eb6 2a3d 0840 e53d 069a db3b 5425 0f3e
00000230: abea 043d 0a26 5dbe e2da a3bd 3420 9b3d
00000240: 2068 463d a2e9 063d fbda 453d a3e3 a8bd
00000250: 74f2 e1ba a97f 573d 4ca4 58be 034f 10bd
00000260: f9fb 463d f064 67bc f5c1 82ba 430c ed3c
00000270: ca59 12bc 8e98 cd3c 6c8c f53c 027f cbbe
00000280: 80fc ac3d c888 543c 74fc 193d da7d a6be
00000290: 1f5e 073e 44df 8bbe 4e42 97bc afdc d8bd
000002a0: ed77 7cbd 141c 7f3d bdff 203d 8e71 b03d
000002b0: 3b53 26bd ff68 14bc d3ba 243d 4030 9cbe
000002c0: 8471 fc3b a1e4 da3d 060e a73d da40 9bbc
000002d0: 8c02 96be f210 1dbe 4227 333d b98b d1be
000002e0: b7c9 a23d c884 80bd f977 963d e875 9bbd
000002f0: 8dab 1f3d 4930 edbd 847b 1fbe 24c0 a1be
00000300: ca01 643e edeb b83d 1a89 853d cf5c 04bd
00000310: d8f3 8a3d 1dd5 fbbe 7228 583d ffd6 69be
00000320: 1def a53c 353c 0c3c cbee 6cbd d88b 5dbd
00000330: e618 9fbe 7460 80bb f135 b9bc 2140 43bd
00000340: 5dc1 81bb 394e 6e3d 3fa1 f0bb cf05 b7be
00000350: c0fc 223d 3264 25bd 9485 9fbe 405f 783c
00000360: e53b 05bf 3efa 88bd 8383 093c bfe1 993d
00000370: 606f 2cbd 571a 553d b5c1 67bd f23c 5dbd
00000380: 57ec c4bc 8251 febc 6665 033e e382 523d
00000390: e358 3c3d 3fc6 2abe 0243 eebd 752b 7f3d
000003a0: d6af f43d 1dfe 493d 8d21 aabb 5806 ba3d
000003b0: ad16 4b3d e48b 10bf e8b4 31bd de5b bbbe
000003c0: 8142 febc 0f29 b93c d1eb edbc 6d0d 1bbc
000003d0: 7183 25bc fedb cfbc ed40 38bd 6700 473b
000003e0: 46d4 6c3d c5c2 76bc d702 713d c01c a23d
000003f0: c880 823d 22fd f33d 2b4f eb3d f01f 68bd
0.012138026 0.0752756 -0.069862045 -0.038303766 -0.01694993 0.07445869 0.07849462 -0.0518046
-0.0008360757 -0.07486012 -0.08395459 0.021227483 -0.015416641 0.024961345 -0.07188335 -0.047537684
-0.03299501 0.015207946 0.06294745 -0.073155396 0.045042776 -0.035113454 0.056253206 -0.03320428
-0.055153493 -0.042773075 0.041046947 0.044963725 -0.014020066 -0.07010815 0.056498565 0.044760056
-0.07036709 -0.035399653 -0.047742374 0.01933164 -0.06840802 -0.08380978 -0.030010303 0.040037125
0.080563344 -0.013772811 -0.04583319 -0.096544795 0.030839326 0.021933427 -0.045718443 -0.06073446
-0.028962852 -0.018679855 0.061216902 0.06469424 0.003031553 0.03419177 -0.0068981755 -0.027001841
0.034196246 -0.02515424 0.080916144 -0.05618117 -0.040877674 0.081493326 0.076439574 0.042555366
0.044792503 -0.08064222 -0.021497497 0.035703786 -0.04291185 0.05278961 -0.047472276 0.011800441
-0.014129029 0.018848613 0.05883361 -0.0909429 0.070443325 -0.013784793 0.025550611 -0.073599346
0.008978461 -0.083178796 -0.02540564 -0.0774002 -0.08285211 0.027212461 -0.079948 -0.011638037
0.06634805 -0.025180623 -0.03276527 -0.06934178 0.08016644 -0.046942603 -0.085414626 0.07278511
0.03554062 -0.06711812 -0.067378215 0.007601293 -0.015508622 -0.08096462 0.007525992 -0.004448288
-0.088578396 0.05208167 -0.07297837 -0.01974675 0.014317009 -0.028495414 0.0054521253 0.029462926
0.04191621 -0.06920487 -0.017779315 0.063684024 0.06443067 -0.045263413 0.0010505692 0.07756316
-0.052617468 -0.08342857 0.07075912 -0.066728756 0.021284288 0.0481059 -0.03192015 0.061398547
-0.45905948 -0.37423843 -0.13770525 -0.050378155 0.095036 0.04410229 -0.2325232 0.068112664
0.041677646 0.111938536 0.0067017106 0.13979083 0.03245036 -0.21596542 -0.08000733 0.07574502
0.048439145 0.032937653 0.04830454 -0.08246543 -0.0017238394 0.05261198 -0.21156424 -0.0352316
0.048580144 -0.0141231865 -0.0009976017 0.02893651 -0.00893254 0.025097158 0.029974185 -0.39745337
0.08446598 0.012972064 0.037594274 -0.32517892 0.13219498 -0.27318776 -0.018464234 -0.10588967
-0.061637808 0.062282637 0.03930639 0.08615409 -0.04060672 -0.009058236 0.040217232 -0.30505562
0.007703962 0.10688139 0.08156972 -0.018951822 -0.29298818 -0.15338495 0.04373861 -0.40926912
0.0794863 -0.06275326 0.07347102 -0.07590848 0.038981963 -0.11581475 -0.15574461 -0.31591904
0.22266307 0.09029374 0.06520291 -0.03231507 0.06784791 -0.4918603 0.052772947 -0.22835921
0.02025562 0.008559276 -0.05784492 -0.054088444 -0.31073684 -0.003917748 -0.02260873 -0.04766858
-0.0039598183 0.058180068 -0.007343441 -0.3574662 0.039791822 -0.040378757 -0.311566 0.015159428
-0.52044517 -0.06688355 0.008393171 0.07513761 -0.042098403 0.052027073 -0.056581218 -0.0540132
-0.024038477 -0.031044725 0.12831649 0.051394355 0.045983206 -0.16677187 -0.116338745 0.062297303
0.119476005 0.049314607 -0.005191988 0.09083241 0.049582172 -0.56463456 -0.043385416 -0.36593527
-0.03103757 0.022602586 -0.02904311 -0.00946365 -0.010102139 -0.025373455 -0.044983793 0.003036523
0.057819627 -0.015061085 0.0588406 0.0791564 0.06372219 0.119135156 0.114897095 -0.056671083

network_smart.layer2.0.bias f4 [128]
00000000: 38a7 37bc fb65 803d 6183 27be 786e 47bd
00000010: fcf3 12be 4d58 fcbd d4b6 253d eabe c1bc
00000020: bd78 17bd 429e 873d 2e5b 723d 264d 7a3d
00000030: 8b88 81bd 73ed 833d a99a 4f3c a0e4 3e3d
00000040: 9a47 d8ba 007a 05bc b22d 8e3d f1dc 263c
00000050: b971 c2bd 1cc3 0abe 1134 c73c 9a42 e5bd
00000060: 77dc 583c 6d7d 943c ad24 67bd 9d4e ddbd
00000070: 36fc 693d 33d3 e6bd d23e cabc 39ea 2a3d
00000080: 1798 a33b c12e 1d3d 1da9 4b3d c026 1e3d
00000090: 4a35 e8bd 39dd 35be 23c2 543d b641 b03d
000000a0: 547f 343d 8322 bc3d 9f67 943d f597 0ebe
000000b0: 3f2a 873d 588e 97bd 2bc1 b3bd 3a87 823b
000000c0: dec0 9ebd f02d 1bbd b18e 783d 79a7 c3bc
000000d0: 6a8f b2bd 0727 a43d 6047 893d bbcf ca3c
000000e0: 9dd5 42bd 70cb a83d f47d 8c3d 6124 503d
000000f0: 4bb5 243d 44ff 37bc 6675 653d 840e cb3d
00000100: 9a8a df3a 50a1 12bd f25e 823d 3cf6 d2bd
00000110: b9a8 93bc a523 9e3d 96b7 ab3d f181 953d
00000120: 3f56 2d3d 4757 89bd 0e9b 243c f0c6 9d3d
00000130: 1e90 1fbc 176f 53bc 63c8 c6bd c73a 5e3d
00000140: b6f1 7d3d ef39 853d 0fe1 923d 959a a73a
00000150: e037 963c dd32 853d 03b3 23bd 797a e73c
00000160: 1eba bb3d 0dd7 6e3d 24ee fdbd 0fee afbd
00000170: 8595 863c 2ac9 b1bd 23ae d13d c269 863d
00000180: 4459 8d3c a342 b7bd 8fdb 9ebc 4913 d03d
00000190: 0163 af3d 2580 27be ec22 ec3b 8290 a03d
000001a0: c14c a73c 629e 123d b75d fabc 6f8e 9d3c
000001b0: 5a9c b13c 714d 163d 6e79 203d e2e7 6d3d
000001c0: abf3 033d 3e06 833d 1b06 20bd dca7 88bc
000001d0: 1a6e bebd d4dd 013c d02e 8dbd 13c6 ef3c
000001e0: 99a3 1d3d 6601 20bd 7552 d7bb b797 f6bd
000001f0: 6ce2 11bd dbb1 69bd 7bd8 84bc 903d d83c
-0.011209302 0.06269451 -0.16358711 -0.048689336 -0.14350885 -0.123215295 0.04045756 -0.023650605
-0.03698038 0.06621982 0.059168987 0.06110873 -0.06324872 0.06441774 0.012671151 0.046604753
-0.0016500831 -0.008146763 0.069423094 0.0101845125 -0.09494347 -0.13550991 0.02431682 -0.11194344
0.013236157 0.018126214 -0.05643146 -0.1080601 0.057125293 -0.11270752 -0.024688158 0.04172728
0.0049924958 0.038374666 0.049721826 0.038611174 -0.11338289 -0.17760171 0.051942956 0.08606283
0.044066742 0.0918627 0.07246327 -0.13925155 0.06599855 -0.07400197 -0.08777078 0.0039834054
-0.0775163 -0.037885606 0.060682956 -0.023883568 -0.0871876 0.080152564 0.06703067 0.024757257
-0.047567 0.082419276 0.06859961 0.050815944 0.040211957 -0.011230294 0.056020163 0.09914878
0.0017054856 -0.03579837 0.06365766 -0.10300872 -0.01802479 0.077216424 0.083846256 0.07300175
0.04231858 -0.067061 0.010046734 0.0770396 -0.00973895 -0.012904904 -0.097061895 0.054255273
0.06199809 0.065051906 0.07171833 0.0012787158 0.01833719 0.06503842 -0.03996564 0.028256642
0.091663584 0.058310557 -0.12398937 -0.08590328 0.016428718 -0.08680947 0.10238292 0.065631405
0.01725448 -0.08948257 -0.019391803 0.10159928 0.08563805 -0.16357477 0.0072063114 0.07840063
0.020422341 0.035795577 -0.030562265 0.019232957 0.021681 0.036694948 0.039178304 0.05808247
0.0322148 0.06397675 -0.039068323 -0.016681604 -0.09298344 0.007926423 -0.068936944 0.029269254
0.038486097 -0.039063834 -0.006571109 -0.12040656 -0.035616323 -0.05705438 -0.016216507 0.026396543

network_smart.layer3.0.weight f4 [48, 128]
00000000: cabc 1d3c 3678 97bd 784d f1be c758 923c
00000010: 2114 023e 61a6 5bbe e782 283e 8004 bbba
00000020: 2542 773c b2c4 fa3c dbb8 b6bc 6bac 52bd
00000030: 590c acbc e629 b53b 8898 873d 4310 16be
00000040: ff78 373c 285f ea3d 4e84 dc3e 6b52 9e3d
00000050: 50e3 9c3d 8abf 6dbd 93b0 2bbf 34ed d73c
00000060: b6b7 aa3d b33b adbc 28c4 b6bc 4450 33be
00000070: 6d9e 2b3d 0a2a 553d c369 03be eea0 edbc
00000080: b48d f8bc e0f1 19be 97c4 933c 2ae7 133c
00000090: e763 ff3c ced1 993c f555 2c3c 2507 a5be
000000a0: c6de 30be 4079 70be 3340 723d 8696 37bf
000000b0: 5832 f43d 48ab 253e acab 8f3c 8ced 733d
000000c0: 9d7f 783b c801 08bd 2fbf 913d ca93 7d3e
000000d0: 82ff aebd 1ea4 7d3d a821 44bd 4319 953d
000000e0: e82a 8d3d 63d1 56bf 4ea1 e4be 8298 d4bd
000000f0: 2c29 ecbc 0a0d 72be 0181 3a3d 6dd8 463d
00000100: 3627 0d3f 3ef9 00bd baa3 093a 12a5 5ebe
00000110: 004f 10be f426 15bd 2400 d03d 71a9 2ebd
00000120: b6b7 003e b3cb ed3d d47e 3f3d 0c6a 57bd
00000130: 11fb f2bb 6e8c 903d ec8e 6fbd 8f5e 083e
00000140: 7a4e b4bc a398 3abf c742 903d a75c 7bbd
00000150: 8b4e 92be 8b23 013e 4a28 503b 965a 07be
00000160: 2f3d 1ebf 4562 3e3e 0c1b 213e f28b 243e
00000170: 9065 1cbe 5401 66bc fb43 473d 2309 6d3c
00000180: 4787 af3d 4d02 bb3b 219f 963d ca24 8cbc
00000190: 14b4 ccbd 7ca1 0d3e 7aaa 43bc 1b38 d0bd
000001a0: d70e 773c 2e0f b33d 0b22 2ebe 6214 05bd
000001b0: f036 8c3d 2014 b9bd ae03 e4bd 9f0b 43be
000001c0: 7b48 c1bd a623 e93c 068c 81bd 9312 61bd
000001d0: c6e2 5e3d dd85 663d 5a86 edbc c7fd e53c
000001e0: 43c7 db3c d2e2 fc3d 5136 6c3e ac2a 673e
000001f0: 4d05 86bd c809 3f3e f481 8a3c 232d b53d
00000200: eaa8 ca3c ccd1 973d 9314 1cbe 808f 963d
00000210: 441a 4c3e 76a6 62bf 5726 da3d 3c5d c7bd
00000220: a022 91bd 537d 433c eb90 aebc ef53 ac3d
00000230: 1a39 c9bc 3ab0 d63e 20d9 c93d 17fb 093d
00000240: 15dc f6bb 7d96 08bd 41c6 a9bd 2e8a c13c
00000250: e959 dbbc 0501 823e 2e04 94be d6d2 5c3e
00000260: e4dc 21be bbe8 1b3d 3465 a13d 3889 1dbe
00000270: f9c2 ca3c 021c 5cbd f1ef 9abd 4d34 b0be
00000280: 6678 6cbe ea2e 05bf 9fe2 ecbc c254 743c
00000290: f17e 563b 24bf e73d 82d2 f9bd 233f 02be
000002a0: 5bcd 24be 69e8 203d 5a61 7abd 834e 863d
000002b0: 89e6 bbbd 6806 02be 8e72 9fba cfe2 03bd
000002c0: 2288 e93c fedc c2bc 67ce e63d 0d87 043e
000002d0: b3c0 aebc 802a 85bd 470a ee3d 66c9 633d
000002e0: 19b9 06bf 83ca 57be f3c6 cd3e e12c 24bf
000002f0: 7935 4d3d 4cb9 61be 0692 b5be 51d8 203d
00000300: 3972 783e 4385 e83d 8f2d 383d eeca b1bd
00000310: bb6c a63e c0c7 9f3c c8b1 d8b7 f1bb b23d
00000320: ca64 243c 8bac 4f3d 0089 14bf 16e0 9e3d
00000330: a999 34bd 5b51 cabd 59c7 263e 5fc8 48bd
00000340: b6b7 bd3d ddea 93be 4747 2a3d b3a9 923d
00000350: a30f 67bd 45a1 a03d 322b ba3d de2d 93bf
00000360: 4ed1 273d d07f 4e3e 7c91 693d ccdd dbbd
00000370: 9c85 bb3e cf9a f73c 77b1 cbbc 09d9 c23d
00000380: 761a bc3d 600b 23bc 5113 95bc bbdc 48bd
00000390: 1ab3 e83d 14d5 e83c d914 dc3c 8143 3f3f
000003a0: 197e 54bd bd61 b83c 4d0c 69bf edda 793c
000003b0: b120 903d 16dc 2a3d dc06 893d 5f7b 3a3d
000003c0: 89d6 66bd 7206 57bc f5b4 bb3d 5468 9fbd
000003d0: 9604 583c eaf2 783d e57b 043d 5a25 ebbd
000003e0: 02cb 423d b33f 65be a7e7 793d eeef 48be
000003f0: 89fe 2a3d 7e69 283e d925 e0be 6d3c 243b
0.00962753 -0.07395975 -0.47129416 0.017864598 0.12702991 -0.21450187 0.16456185 -0.0014268309
0.015091454 0.03061137 -0.022304943 -0.05143396 -0.021001982 0.0055286763 0.0662089 -0.14654641
0.011198281 0.11443931 0.4306969 0.07730564 0.07660544 -0.058043994 -0.67066306 0.026358224
0.08335821 -0.02114663 -0.022310331 -0.17511088 0.041899133 0.052042045 -0.12833314 -0.029007401
-0.030341007 -0.15033674 0.018038077 0.009027282 0.031175567 0.0187768 0.010518541 -0.32232013
-0.17272481 -0.23483753 0.059143256 -0.71714056 0.11923665 0.1617862 0.017537914 0.059552714
0.003791786 -0.033204824 0.071165435 0.24763408 -0.08544828 0.061924092 -0.04788366 0.07280209
0.06892949 -0.8391325 -0.44654316 -0.10380651 -0.028828226 -0.23637787 0.045533184 0.048546243
0.55137956 -0.031487696 0.00052505324 -0.21742657 -0.14092636 -0.0364141 0.10156277 -0.04264206
0.1257008 0.11611118 0.046751812 -0.05259137 -0.0074151834 0.07058035 -0.05848591 0.13317321
-0.022010077 -0.72889155 0.07043987 -0.061367657 -0.2857555 0.12611215 0.0031762295 -0.1321815
-0.6181211 0.18592174 0.15732974 0.1606901 -0.15273118 -0.014038403 0.048648816 0.01446751
0.08570724 0.0057070614 0.0735457 -0.017107386 -0.09995285 0.13831133 -0.0119425 -0.10166951
0.015079222 0.0874313 -0.17005174 -0.03249014 0.06846416 -0.09037042 -0.11133514 -0.19047402
-0.09437653 0.028459381 -0.063255355 -0.054949354 0.054415487 0.056280006 -0.028994728 0.028075112
0.026828414 0.1234795 0.23067595 0.22574872 -0.0654398 0.18656075 0.01690767 0.088465
0.024738748 0.074130625 -0.15242223 0.07351589 0.19931895 -0.8853525 0.10651844 -0.0973458
-0.07086682 0.011931735 -0.021309337 0.084144466 -0.024563361 0.41931325 0.098558664 0.033686724
-0.00753356 -0.03334664 -0.08289767 0.02362546 -0.026776271 0.25391403 -0.2890944 0.21564803
-0.1580692 0.038063746 0.07880631 -0.15384376 0.024751173 -0.053737648 -0.075652964 -0.34414902
-0.23092803 -0.5202471 -0.028916655 0.014912786 0.0032729472 0.11315754 -0.12198354 -0.12719397
-0.16093962 0.039284144 -0.061127998 0.06557944 -0.091748305 -0.12697756 -0.0012164877 -0.032198723
0.028507296 -0.023787018 0.11269837 0.12942143 -0.02133212 -0.06502247 0.11623054 0.05561199
-0.52626187 -0.21073346 0.4019085 -0.6413098 0.050099824 -0.22043341 -0.3546297 0.039268795
0.24262322 0.11353543 0.044965323 -0.08681284 0.3250483 0.019504428 -2.5831992e-05 0.08727253
0.010033796 0.05070166 -0.58021545 0.07757585 -0.044091854 -0.098787986 0.16286983 -0.049019214
0.09263556 -0.28890124 0.04157188 0.07161274 -0.056411397 0.0784326 0.0909027 -1.1498373
0.040971093 0.20165944 0.05702351 -0.10735664 0.36625373 0.030225186 -0.024864895 0.095140524
0.091847345 -0.0099514425 -0.018197687 -0.04903863 0.11362286 0.028421916 0.02686541 0.7471238
-0.05187807 0.022507543 -0.91034395 0.01524995 0.070374854 0.041713797 0.066907614 0.045527812
-0.05635694 -0.013124095 0.09165374 -0.07783571 0.013184687 0.060778536 0.032344718 -0.114817336
0.047556885 -0.2238758 0.061011937 -0.19622776 0.04174665 0.16446492 -0.43778875 0.002506043

network_smart.layer3.0.bias f4 [48]
00000000: 0aef a0bd 142f 2cbc 5bbc d1bd 5b28 a83d
00000010: 07bf a53d 75b3 08bd 5932 1dbd 468e 313d
00000020: 443b 34bd 4147 393d c825 2c3d 98bd 3dbe
00000030: 3368 0ebe 651e cb3d c39e 9fbd 9afc a8bd
00000040: 0fdc 893c 3f40 803d 2fbb 59be 57ae dcba
00000050: e623 ccbd 05d8 f13c 9b22 283d 6ff3 533c
00000060: bb41 4b3d 877f d53c a603 133d 98ae 9cbd
00000070: a374 0cbd 53d9 a8bb 746e 6c3d 540d 973d
00000080: a95b 28bd 0665 b33d cdfe 8d3d f034 39bd
00000090: 3050 a1bd 3bd3 d63c 4137 a03d dbc3 99bd
000000a0: e6c7 4cbd 86c1 37be 83e5 753d 93f3 c83c
000000b0: be83 6e3d bd0d 7f3d a283 01bc 498f 6ebd
-0.07858093 -0.010509271 -0.10241004 0.08210822 0.08093076 -0.03337427 -0.038378093 0.043348573
-0.044001833 0.04523397 0.04202822 -0.18529356 -0.13906936 0.09917907 -0.07793953 -0.08251305
0.016828565 0.06262254 -0.21262811 -0.0016836625 -0.099677846 0.029521951 0.041048627 0.012936457
0.049623232 0.026061786 0.03589215 -0.076504886 -0.03429092 -0.00515286 0.057722524 0.07375589
-0.04110304 0.08759503 0.06933365 -0.0452165 -0.07876623 0.02622377 0.07823039 -0.075080596
-0.049995326 -0.17944917 0.060033333 0.024530208 0.058231108 0.06226896 -0.007904919 -0.058242116

fc_smart.weight f4 [64, 48]
00000000: 744d 9dbe 74c8 13be 101e dfbe ff82 4b3d
00000010: f492 05bd 961e 7f3c ab31 403e fa30 853d
00000020: f1ee 8f3c 9bdd f13e a76b bb3d 1dfd a9be
00000030: 9008 81be e1d5 01be 3040 9bbd 5fe9 16be
00000040: ad48 043d 7cf9 573e 90bf d5bc 64bd 98bc
00000050: f5a4 183d 955b 35bf 675f e43c 728a b2bd
00000060: 0b16 e7bd ac5b 25bd 88f4 083f 21b8 333e
00000070: 5483 bc3d bb76 e8be bb9e 29be a89f cd3e
00000080: 9f64 383e 5899 73bd 5120 d83e 7921 453e
00000090: 9b3b 98bc 0329 943e 58e5 ff3d 7210 0bbd
000000a0: b4ab 4fbe b26a 9abe abef 8abd 8805 a7be
000000b0: b732 0dbc 1b3c 3bbd 4807 683e 711c 52bd
000000c0: 2fb9 afbe b2b3 53be a82e b9be 80ad 043d
000000d0: 4aab 28be 7494 cabd 33fe 053e 8245 0abc
000000e0: eda8 003e 06e5 1b3f eb50 3a3e 21ea bbbd
000000f0: c6dc d0bd abdd 71bd 5a57 ba3e e970 2abe
00000100: 091c 003e 5988 003e 84e9 893d 8d1c 7c3b
00000110: da88 86ba b47e 1ebf 965a b63a 4538 7bbd
00000120: 19bb 05bd 5b56 2c3c e2a3 c73e d63e 3a3e
00000130: bf60 6a3e 4e51 b6be 0a9f 58be a39c 733e
00000140: 51e2 0e3e abd2 e4bc 5966 083f 8b00 8c3d
00000150: fcd6 c4bd 697a 5c3e 0ce8 ac3d fcdb 05be
00000160: d3d0 9dbd 9acc e5bd 06c7 8abc 7cff 66be
00000170: 3b1b e0bd a41d abbc 482d 8e3e c308 f8bc
00000180: c68e 803e 1ddf 363e 881f cc3e e5fb 20be
00000190: 5742 2fbd 15db 58bc b6d1 e9bd e1ea cb3d
000001a0: 81cd 51bd 8ada 11bf 2a48 96be 1e5d 9f3e
000001b0: 3fdf 9f3e 35c3 e7bd e4e4 bdbd ef34 e23d
000001c0: 57c8 c33c 875c 96be fcac b33d 1950 e73d
000001d0: a947 023d a9ec 2c3e 29fa 37bc 0c23 bf3d
000001e0: 5887 0a3e 2306 d3bd e702 f5be 8fad 54be
000001f0: d0da 65be e20e 903e ce7b ec3d e93d 71bd
00000200: e9ce b43b 7170 3d3e 6cbf c2be 8255 55be
00000210: 3124 5c3d 77e5 b3be 18fb e9bd 1302 cdbd
00000220: ec95 14bd 9ffb 233e 335c ab3d 80c9 0ebe
00000230: 5fe4 643d 3843 3d3e d560 55be efbb 233d
00000240: f35d 92be 949d 97be 67fe 59be 681e 15be
00000250: abea 55be 00f2 453e c07e 303d 6194 02bd
00000260: 2cb4 06be 85f7 de3e 5e94 943d 1913 0d3f
00000270: 568c 843e dcd3 3cbc d26d 8ebe 5f4b 6f3c
00000280: 2e3e 07be e30e a63e 0649 01be 505a 443c
00000290: 2db9 74bd 1a02 1dbe b70e c53c 009f bebd
000002a0: 7de6 88bd e70f b53d f03a e63e 335b 973d
000002b0: d3db aa3e 43e7 acbe 3e8b 053d 7594 3f3e
000002c0: 7621 223e edb0 0fbd d6be d03e f591 de3e
000002d0: e618 e93d 3bfa bc3e f643 6a3d 98f1 a1bd
000002e0: 8e02 8cbd 5fa5 573d e8af 4dbd 15b6 23bc
000002f0: edab 8bbd 3abb 5ebd 06f1 b83e d1a7 31bd
00000300: 0f7b a53e 8727 82bd e69f 873e 0836 99bd
00000310: 3b6d 86bd 00a3 9fbd 792e febd 52f5 50be
00000320: bb48 e03c d9e2 83be 61ae a0bd 05aa 593e
00000330: d09e 423e ea4e ebbd 45b0 afbe e7ed d03d
00000340: e98f a2bc b001 76bd 049c 1f3e 9e7d a9bd
00000350: 7f83 8bbc 6a05 fa3e 3e45 e2bd 7bbf 8a3c
00000360: bb49 da3d e3bf fe3d 21d8 b2bd 0514 88be
00000370: dd25 9dbd 3631 3e3e 8fc7 babc 3fc9 f3bd
00000380: c611 243d d2c4 82bd b825 a9be 48b0 fcbc
00000390: e1c2 723d 1be2 a3bd 715a 34bd 8659 843d
000003a0: 44c6 ebbd 9b8a 78bd 9ce5 38be f0a1 413e
000003b0: af39 7dbd 4fed cbbc 55a6 76bd ebab 8dbc
000003c0: 6094 bdbe 9a60 45be 96b0 3abe 20dd 8dbd
000003d0: cd40 3cbe 8061 963e 778e bf3d 56ea 37bd
000003e0: 5ef0 ff3d 0c12 e23e f54e 723e 5c30 e7be
000003f0: db12 a0be ffc5 8e3d b67e 423e fed4 44bd
-0.30723155 -0.14431936 -0.43577623 0.049685474 -0.03261085 0.015571257 0.18768947 0.06503482
0.01756999 0.47239384 0.091513924 -0.33200923 -0.25201845 -0.12679245 -0.07580602 -0.14737462
0.03229587 0.21091264 -0.02609232 -0.018644996 0.03726669 -0.7084287 0.027877523 -0.087178126
-0.11283501 -0.04037063 0.53498125 0.17550708 0.09204736 -0.45403084 -0.16564457 0.4016087
0.18007134 -0.059472412 0.42212155 0.1925105 -0.01858311 0.2893754 0.12494916 -0.03395123
-0.20280343 -0.30159527 -0.06783994 -0.32621408 -0.008618048 -0.045711618 0.22659028 -0.051296655
-0.3432097 -0.20674017 -0.36168408 0.032392025 -0.16471592 -0.098915964 0.1308525 -0.0084394235
0.1256444 0.6089634 0.1819493 -0.09175516 -0.10198359 -0.05904929 0.3639477 -0.16644634
0.12510695 0.12552013 0.06733993 0.0038469166 -0.0010264174 -0.61912084 0.0013912495 -0.06133296
-0.032649133 0.010518636 0.3899222 0.18188033 0.22888468 -0.35608906 -0.21154419 0.23790221
0.1395352 -0.027932486 0.5328117 0.06836041 -0.096113175 0.21531071 0.08442697 -0.13072199
-0.07705846 -0.11220665 -0.016940605 -0.22558397 -0.10942694 -0.020888157 0.27768922 -0.030277615
0.25108927 0.17858548 0.39867806 -0.1572109 -0.042787876 -0.013235827 -0.11416952 0.09956909
-0.051221374 -0.5697409 -0.29351932 0.3112573 0.3122501 -0.1131653 -0.09272173 0.110452525
0.02389924 -0.29367468 0.087732285 0.11294574 0.03180662 0.16887154 -0.011229076 0.093328565
0.13528192 -0.10303905 -0.47853777 -0.20769332 -0.22446752 0.28136355 0.11547051 -0.058896933
0.0055178297 0.18499924 -0.38036668 -0.208334 0.053745452 -0.35136005 -0.114248455 -0.10010161
-0.03627579 0.16013955 0.08367195 -0.13944054 0.055881854 0.18482673 -0.2083772 0.03997415
-0.28587303 -0.2961241 -0.21288453 -0.1456238 -0.208903 0.19330597 0.04308963 -0.031879786
-0.13154668 0.43548217 0.07254861 0.55107266 0.25888318 -0.011525121 -0.2781816 0.014605372
-0.13207313 0.32433233 -0.12625512 0.011984423 -0.05974691 -0.15332833 0.024054868 -0.093076706
-0.06684587 0.08840924 0.4496684 0.07390442 0.33370838 -0.3377019 0.032603495 0.18708976
0.15833077 -0.03508084 0.40770596 0.4347073 0.11381702 0.3690966 0.05719372 -0.079074085
-0.06836425 0.052647945 -0.050216585 -0.009992142 -0.068199016 -0.054377772 0.36121386 -0.043372933
0.3232045 -0.063551955 0.2648918 -0.07481009 -0.06563803 -0.07794762 -0.12411208 -0.20406082
0.02737843 -0.2575901 -0.0784576 0.21256264 0.19005895 -0.11489661 -0.3431417 0.10201626
-0.019844012 -0.060060203 0.15586859 -0.08275913 -0.017030476 0.48832256 -0.11048363 0.016937008
0.10658594 0.12438943 -0.087326296 -0.26577774 -0.076732375 0.1857346 -0.022800235 -0.11903619
0.040056013 -0.06385197 -0.3303659 -0.030845776 0.059267882 -0.080021106 -0.044031564 0.06462388
-0.115124255 -0.06067906 -0.18056339 0.1890943 -0.06182259 -0.024893431 -0.06021722 -0.017293891
-0.37027264 -0.19275132 -0.18231425 -0.06926942 -0.18384095 0.29371262 0.09353345 -0.044901215
0.12497018 0.44154394 0.23662932 -0.45154083 -0.31264386 0.069713585 0.18993649 -0.048054688

fc_smart.bias f4 [64]
00000000: d114 70bc a5eb 5f3d d4a5 053e 6b59 cbbd
00000010: 2894 513d 869c 1ebd e03c a33d 3d7a d63d
00000020: c86e 483d b24e 4c3d 3f36 54bc a3a5 e2bd
00000030: de18 62bb 5c2e 8b3d 0e10 6cbd 3c79 603c
00000040: cc46 ad3b f33d ad3c c581 16bd 596e 9f3d
00000050: b283 5c3c 0c5d 943d e971 ac3d ded1 70bd
00000060: 2052 e4bd cada 01bd 106b 7e3d 8d3d 1d3d
00000070: a86a 08be 05bb 793b e1dc 38bd 5b5d b83c
00000080: 11bb b739 1f76 febc 2e87 4e3d bd95 273d
00000090: 8674 3e3c 76e3 953d dcbc c03d c0b7 51bd
000000a0: 2a66 833c 85f7 d13c 8b22 633c 571c cd3d
000000b0: 4b10 c4bd 7d00 6abd ba52 ec3c 3a13 65bd
000000c0: f249 9abd 0628 c4bd 2bf3 59bd a71c bf3d
000000d0: e210 8dbc dbc2 b83d 1f63 d03d 95ca 813d
000000e0: 83d0 2b3d 7182 d1bd 8cfb f73d 9d84 753d
000000f0: 8df8 7c3c 2da0 943d 0fd5 d23d 9762 c9bd
-0.0146534005 0.054668088 0.1305154 -0.099291645 0.051166683 -0.03872349 0.07970595 0.10472534
0.048933774 0.049879737 -0.012952386 -0.11066749 -0.0034499685 0.06795952 -0.0576325 0.0137007795
0.0052879807 0.021147704 -0.03674485 0.07784719 0.013459133 0.0724431 0.08420164 -0.058793895
-0.111484766 -0.031702794 0.06211382 0.038388778 -0.13321936 0.0038105857 -0.04513252 0.022505453
0.00035043855 -0.031062184 0.050421886 0.040914286 0.011624461 0.07318775 0.09411022 -0.05120063
0.016039927 0.025630722 0.013863216 0.10015171 -0.0957342 -0.057129372 0.02884804 -0.05592654
-0.07533635 -0.09577946 -0.05321042 0.09331637 -0.017219964 0.09021541 0.10175156 0.063374676
0.0419469 -0.10229958 0.12108526 0.059940923 0.0154401185 0.072571136 0.10294544 -0.09833258

network_aging.lstm.weight_ih_l0 f4 [128, 5]
00000000: dbec a13d d04f e0bc c3f4 1f3e f7ba 493e
00000010: 4ab9 123e c009 1d3e 048d 973a 892f 533d
00000020: 2d72 433e b9c6 7ebd 42a5 d1bd 0793 233e
00000030: 922b 0a3e 8a55 9ebd 6856 e2bd dd91 d23d
00000040: ffcf 9c3d 5fe4 cd3d b0e0 133e b70e 5bbd
00000050: f57f 283c 1837 d73d 45fb bb3b d4ec bd3c
00000060: cf89 8cbb 19c0 463e cc69 09bd 49c7 d83d
00000070: ab6a 9fbd 99d8 88bd 1474 7ebd 5f50 953d
00000080: 8977 f9bc 9282 253e 5096 253e 7144 563c
00000090: 9f7c 293c c4b9 333e 8958 4a3d def0 03bd
000000a0: fc57 e7bc 19dc 6abd 25d7 85bb 706e e4bd
000000b0: a949 213d d93e 0c3e 65e1 e2bd 5bd3 243e
000000c0: f82c 0fbe f5c1 113e b45b 393e e634 3abd
000000d0: d220 ea3c 5593 393e 2459 14be cbd0 81bd
000000e0: 0fca cbbb 8efd 963d 380c 1abd aac1 1cbe
000000f0: 1113 083e 257f 1fbc 42e9 cfbc cd76 cdbd
00000100: 0718 3cbd 3a24 353c 57a6 ecbd 74d1 163d
00000110: 704b c93d 66d1 e93c b25a b6bc f2b6 d73d
00000120: d987 1fbc 2758 283e cc76 e53d dbfa 90bd
00000130: ac23 533e d4a0 5a3c 5b7f 9b3d 6386 d9bd
00000140: a5ea 06be aa10 e93d fb20 713d 3dd0 353e
00000150: 250e 253e edbf 563e a86f b6bd d388 b7bc
00000160: fe3f 343d 147c 0c3e ba18 d13d 427d 0fbd
00000170: 75c6 123e 50f5 c43d 0adf cfbc 467e bd3b
00000180: 6162 ab3c 985a aabd d4a4 323e 09dc 113d
00000190: c353 3f3d 8bca 3dbd d346 5b3d 32c7 0ebe
000001a0: cd4a 1a3e 7f3f 0b3e 26eb c2bd 1617 113e
000001b0: 47e1 543d 6c4a 50bd 2373 cabc 8744 333e
000001c0: c909 fbbc f004 803d d958 1bbe 0d4c 743d
000001d0: caad 13be 9934 0a3e cdc4 923c cee1 0ebd
000001e0: bc02 0d3e afdd fabd 497d 623d a036 33bd
000001f0: 07b6 18be 45e4 59bd 9fde e5bc c17b f83d
00000200: bc77 b6bd ba72 11bc 7201 843d 8d55 213e
00000210: 9f15 96bd b00e 16be 20ea 06be 3de8 ef3d
00000220: 4cfe 173e e763 e03d 439d 2d3d 75ba 19be
00000230: 7c53 513e 9e82 8bbd 9dec c23d c91b a8bd
00000240: 8d06 c2bd 1a0c 013e 6418 dc3c 4d7c 04be
00000250: c2ba 163e e485 16be fb0e 153e ca68 4fbd
00000260: 1135 2c3e 5ee1 cd3d 97e5 3a3e c98f 8c3d
00000270: 2c7f 4f3e 9cfc 4fbd 5ce2 093e e2df 0e3e
00000280: e4a4 d63d e285 bdbc 48af 2e3e 60ca dabd
00000290: 441d 1fbe 9948 5fbd 3f2d c7bb 3f72 73bc
000002a0: 7a81 f4bd e0b6 533d 322e 3f3e a085 6c3e
000002b0: b25e 4e3e e048 a93d 3b7c 4c3e 66c0 443e
000002c0: 7d04 523e d1db dd3c 66d8 acbd 75e2 82bd
000002d0: 9cf0 623e 3216 953a 91e8 773d ef6a 913d
000002e0: 5e91 a9bd e5a1 523d c7a7 0b3e b8aa f93d
000002f0: 7194 d63d 23f4 95bd f709 083e 7022 4d3d
00000300: 96e9 debd b268 2d3e 6478 343b 3fea 0d3e
00000310: e28f 1c3c 121f 033d d60d 413c 9f80 e83d
00000320: 8f8d 9fbd 41fa 313e 37f0 9bbc a62b 6ebd
00000330: 7507 26be 23f7 8abd d746 0f3e a07a d33d
00000340: 4a78 91bc f87f 1c3e e4ae 2d3e 4606 eebc
00000350: a97c 1d3e 2d20 e2bd 1f66 8e3d 12c3 113e
00000360: 3623 d93c 11a3 713e bb86 ebbd 9657 21be
00000370: eeb5 ae3c 7aec ba3d c3e9 043e c62e b43b
00000380: 357d 2c3e b8cc 9bbd 294c 58bd 3090 793d
00000390: 5a47 843b d66b 12bd ecf4 4bbc c458 23bc
000003a0: 0a01 6bbc dcb6 5c3e 4626 17bd 62f6 7dbb
000003b0: 9b8b bbbc 2ea4 d4bc dcbe 26bd 5bbe cb3c
000003c0: ad7a 573e bcfe 1a3d 4239 cfbd ec24 ed3d
000003d0: 5dfa 213e eef7 7f3c 42a1 6fbd 5966 fdbd
000003e0: 4564 ee3d 38f2 a3bd f259 2e3d 809b 47bd
000003f0: 5360 473d 8721 3f3e db72 10be f9bd 6f3b
0.07906505 -0.027381808 0.15620713 0.19700228 0.14328495 0.1533575 0.0011562412 0.051559005
0.19086523 -0.062201235 -0.102365986 0.15974055 0.13493183 -0.07731159 -0.11051637 0.102817275
0.076568596 0.10053324 0.1444118 -0.05348083 0.010284414 0.10508555 0.005736741 0.023184218
-0.004288889 0.19409217 -0.03354816 0.105848856 -0.07784017 -0.06681938 -0.06212242 0.0729072
-0.030452507 0.1616309 0.16170621 0.013077841 0.010344653 0.17551333 0.04940084 -0.03221213
-0.028240196 -0.057338808 -0.004084485 -0.11153877 0.03937689 0.1369585 -0.11078147 0.1609625
-0.13981998 0.14234145 0.18101388 -0.045460604 0.028580103 0.18122609 -0.1448713 -0.06338652
-0.0062191556 0.073725805 -0.03760931 -0.15308252 0.13288523 -0.009734903 -0.02537978 -0.10032425
-0.04592135 0.011056 -0.11555164 0.036820844 0.09828842 0.028542232 -0.022260044 0.10532941
-0.009736978 0.16439877 0.11204299 -0.07079097 0.20619076 0.0133440085 0.075926505 -0.10621335
-0.13175447 0.113801315 0.058869343 0.17755218 0.16118677 0.20971651 -0.089080155 -0.02240411
0.04400634 0.13719207 0.10209794 -0.035031565 0.14333518 0.09617102 -0.025374908 0.005782875
0.020920934 -0.08318061 0.1744569 0.035610233 0.04671074 -0.04633574 0.05353434 -0.13943174
0.15067597 0.1359844 -0.09517507 0.14168963 0.051972654 -0.050852224 -0.024713105 0.1750661
-0.030644314 0.06250942 -0.15170611 0.05964284 -0.14421764 0.13496627 0.017916108 -0.034883313
0.13770574 -0.12249314 0.055295262 -0.043753266 -0.14913188 -0.05319621 -0.028060256 0.12132979
-0.08909556 -0.008877451 0.06445588 0.15755291 -0.07328343 -0.1465404 -0.13175249 0.11714218
0.148431 0.10956555 0.042386305 -0.15012534 0.20442003 -0.068120226 0.09517787 -0.082084246
-0.09473906 0.12602273 0.0268671 -0.12938042 0.1471968 -0.14699513 0.14556496 -0.050637044
0.16817118 0.10052751 0.18251644 0.06863362 0.20263356 -0.050778016 0.13465255 0.13952592
0.10480669 -0.02313513 0.17059052 -0.10683131 -0.15538508 -0.054512594 -0.006078392 -0.014858781
-0.11938758 0.051688075 0.18669966 0.23097849 0.20153311 0.08265853 0.19969265 0.19214019
0.20509525 0.027082356 -0.08439712 -0.063908495 0.22162098 0.0011374413 0.060524527 0.07100474
-0.0827968 0.051423926 0.1363822 0.12190765 0.10477532 -0.07321956 0.13285051 0.05008167
-0.10884397 0.1693447 0.0027537579 0.13858889 0.009555789 0.032012053 0.011783084 0.113526575
-0.07790672 0.1738062 -0.019035442 -0.058147095 -0.16213782 -0.06785419 0.13991867 0.10326123
-0.017757554 0.15283191 0.16961247 -0.029055726 0.15379585 -0.11041293 0.06953072 0.1423457
0.026506048 0.23597361 -0.11500307 -0.15756068 0.021326985 0.091271356 0.12979798 0.00549874
0.16844638 -0.076074064 -0.052807007 0.060928524 0.004036826 -0.03574737 -0.012448531 -0.009969894
-0.014343509 0.2155413 -0.036901735 -0.0038751592 -0.022893718 -0.025957193 -0.04070936 0.024871042
0.21042891 0.03784059 -0.10118343 0.11579308 0.15818162 0.015623076 -0.058503397 -0.12373037
0.11640219 -0.08005184 0.042566247 -0.04873228 0.048675846 0.18665133 -0.14106314 0.0036581738

network_aging.lstm.weight_hh_l0 f4 [128, 32]
00000000: d715 e5bd bb79 6bbe 1b3f 6abe a992 1cbd
00000010: ba0c e13d 50f5 b93d 7a1d ff3c 9b47 a53d
00000020: 1346 18be 4117 be3d b7f1 0e3e b0d2 593e
00000030: ffb6 cc3d 79dd f7bd 8fe3 37bd 7703 bbbd
00000040: 9928 ccbd 2c7e 4b3e 4034 c3bd 9b5f e9bd
00000050: 3c58 9d3d c318 283d 4b8e bd3d 07ee 9dbd
00000060: c0ac d63c e33f 9bbc 2b42 ec3d 2b48 6dbb
00000070: 36e5 cebc c489 8abc 1c1f bbba 8cc9 233e
00000080: 00f1 50be 7c54 15be bfe9 d3bd 3cb5 993d
00000090: 44e7 d5bd fa31 7fbc 2984 603e 1906 2c3d
000000a0: 4b79 cf3d 5255 3d3e bf23 153e 920c 1a3e
000000b0: 01e2 28bc 12e0 57be 6ebf 61be 2bd3 113e
000000c0: 6cab ee3d abd7 d23d 8115 18bd 1c13 203b
000000d0: 051a 64be 75d4 c13d 52ac ac3c 86c5 f9bd
000000e0: 358d dbbd ba21 fd3d 5556 e33c 25ff 02bc
000000f0: c76e 94bd 8f11 3c3d eb33 28bd 5c87 323d
00000100: 7e63 08bd 4157 babd 7f16 b53c 422d ddbb
00000110: 1ea6 c6bd db6b b83d 7aa0 5f3e cdd4 72be
00000120: 5a87 fbbc 875e cabd 58c8 d9bb 873c 5a3e
00000130: afde 33be 2e99 06be 9e2f 7f3d e954 cabd
00000140: c2a0 2e3e d7eb 233e d04e c43c b012 443e
00000150: e978 bf3d cb5a 1c3e 70eb 0bbd d37e 783e
00000160: d862 42be 0d3d db3d d27e 0dbd 9bb0 3c3d
00000170: 1f64 2c3d 2b02 aebd fdc6 5f3d 2fef 903d
00000180: c9ff c93c 14eb 45be 06b1 82be 676f 24be
00000190: 2966 26be 8354 bcbd 896a 963d 4b79 c73d
000001a0: 095b 353d 7668 663e 4f8d dfbd b928 653e
000001b0: 2150 923d edcb c7bc 1e27 ac3d 5bdb 443e
000001c0: 7987 023e 195b aa3b 2c70 0bbd da2e e5bc
000001d0: 636b 0abd bef1 9f3c da16 cabd c56d 7cbd
000001e0: 7329 26be 38d0 6b3d 3117 95bd 9dce c6bd
000001f0: 2083 d83c a110 2d3e 0e9c 393e 0264 1e3d
00000200: f285 f3bd 51f7 79be f468 733d 2054 8f3d
00000210: cda9 563d 1279 c0bc f864 953d dd67 8abd
00000220: 5e26 70bc 1c3b 7d3e 7455 4fbd 23ff 3ebd
00000230: 5a77 6abc 8a73 c8bd d4da debd 38a8 81bd
00000240: 4557 8dbd 75b6 dc3c 5680 943c edad a3bd
00000250: f3bd eebd 4d78 eabd 7044 6f3e 95d7 623c
00000260: c7f8 3bbd 49d1 62bd 8e91 edbc 43d5 8abe
00000270: ad1e 723d de34 263e 2ba0 fc3b 11e4 3a3e
00000280: f393 d7bd 47ff 23bb 238a 803d 75ed afbd
00000290: 6424 63be 5212 a03d 63b4 6c3e 4659 b23d
000002a0: 4be1 26be 5f33 8f3d c9bd 093e d1bf 103d
000002b0: 7901 0c3c c3ca 21be fbb7 b1bd a5ff ecbc
000002c0: 7f4a 84bd f4fe 2c3e 30f5 59bd d64d d0bd
000002d0: 610e a23d 18f3 913d d6f4 e6bd e35d 3e3e
000002e0: aa8b 59be 75bf 5dbe 7b4a d1bd 25e8 30be
000002f0: a7f5 0c3d 1136 0a3e cc38 bcbd 0367 3e3e
00000300: 8457 36be 3428 cc3c 1108 db3d 6ea6 23bd
00000310: 235f afbd f050 dc3d a60e f63d c329 9cbd
00000320: bbed 72bd d385 a93c b1ae 893d 893d 633e
00000330: c852 b3bd e0af b5bd 18a8 67be 5ced 413e
00000340: 0f53 32bd d240 b1bd 47dc 303d 334a 11bd
00000350: 54be a6bd 6eab 4e3e 91a0 0a3e 4823 013e
00000360: 575c b73c 580c 9e3d f756 20bd 5781 5cbe
00000370: 4ba2 d4bb 17d0 90bd 0221 e1bc c5b4 8d3d
00000380: 4b14 0f3d a25f 6ebe fa5a 12be 5db2 17be
00000390: 67bf 843a 9440 413e d24a 9dbd c8f8 50be
000003a0: e30c 6abe 747b ed3d 7291 de3d a89c 4b3e
000003b0: 134e 3c3d 78f1 99bc 4f35 e4bd 12ab 96bd
000003c0: a1a2 2c3e c4e7 3d3d 0836 61bb de19 35be
000003d0: 9403 ed3c 4369 183e 31f2 a53d 0b7e 853b
000003e0: d4ac 05bd 1b71 f6bd 185d 973d 289f 23bd
000003f0: bc11 df3d 7a0f 36bc 523b 233e f941 afbd
-0.11185806 -0.22995655 -0.22875635 -0.038225804 0.109887555 0.09079993 0.031141985 0.08070298
-0.14870481 0.09281779 0.13959394 0.21271777 0.09995841 -0.121027894 -0.04489475 -0.0913152
-0.09968681 0.1987235 -0.0953145 -0.113951884 0.07682845 0.04103924 0.09255656 -0.07711416
0.02620542 -0.018951362 0.11536058 -0.0036206346 -0.02525578 -0.016911395 -0.0014276239 0.15994853
-0.20404434 -0.1458301 -0.10347318 0.07505271 -0.10444501 -0.01557588 0.21925415 0.041998003
0.10130557 0.18489578 0.14564417 0.15043858 -0.01030779 -0.2108157 -0.22045681 0.1424071
0.1165379 0.10295042 -0.037129883 0.0024425453 -0.2227555 0.09464351 0.021078262 -0.12195878
-0.107202925 0.123599485 0.027751127 -0.0079954015 -0.072476916 0.045915183 -0.041065138 0.04358612
-0.03329801 -0.090986736 0.022105454 -0.00674978 -0.09699653 0.09004947 0.2183856 -0.2371399
-0.03070419 -0.09881311 -0.0066461973 0.21312152 -0.17565416 -0.13144371 0.06230127 -0.098794766
0.17053512 0.16007935 0.023963362 0.19147754 0.09349234 0.1526901 -0.034160078 0.2426713
-0.18983018 0.10705004 -0.034544773 0.04606686 0.04208767 -0.08496507 0.05463313 0.07076871
0.0246581 -0.19327956 -0.25525683 -0.16058122 -0.16249909 -0.09195807 0.07344539 0.09739932
0.04427627 0.22500786 -0.10915624 0.22378816 0.071441896 -0.024389232 0.084058985 0.19224302
0.12746991 0.005198848 -0.034042522 -0.027976442 -0.03379382 0.019524451 -0.0986764 -0.061628122
-0.16226749 0.05757162 -0.07279814 -0.09707377 0.026429713 0.16900875 0.18125936 0.038669594
-0.118907824 -0.2441075 0.059426263 0.069984674 0.05240803 -0.02349523 0.07294649 -0.067580916
-0.014657585 0.2472958 -0.050618604 -0.046630036 -0.014310682 -0.09787662 -0.10881582 -0.06330913
-0.06901411 0.026942471 0.018127602 -0.07992158 -0.11657324 -0.11448727 0.2336595 0.013845344
-0.04589155 -0.05537537 -0.02900007 -0.2711583 0.059111286 0.16231105 0.007709523 0.18251063
-0.10526266 -0.0025023983 0.062763475 -0.08590213 -0.2218185 0.07815994 0.23115687 0.08708434
-0.1629688 0.0699222 0.13451304 0.03533918 0.008545273 -0.15800004 -0.086776696 -0.028930495
-0.064595215 0.16894132 -0.053212345 -0.10171096 0.07912899 0.071264446 -0.112771675 0.18590502
-0.21244684 -0.21655066 -0.10219284 -0.17276056 0.03441396 0.13497187 -0.09190521 0.18593983
-0.17806822 0.024921514 0.10694898 -0.03995364 -0.08563068 0.10757625 0.12014513 -0.07625153
-0.05930875 0.020693695 0.06722773 0.22191443 -0.08756024 -0.08871436 -0.22622716 0.18938202
-0.043536242 -0.086549416 0.043178823 -0.035471153 -0.08141771 0.20182583 0.13537814 0.12611115
0.022382898 0.07717198 -0.039145436 -0.21533714 -0.0064890734 -0.0707094 -0.02748156 0.06919245
0.034931462 -0.23278669 -0.14292517 -0.14814134 0.0010127843 0.18872291 -0.076802865 -0.20407403
-0.22856478 0.115958124 0.10867585 0.19883978 0.045972895 -0.0187919 -0.1114298 -0.07356848
0.16858913 0.046363607 -0.003436448 -0.17685649 0.02893237 0.14883904 0.08102835 0.0040738634
-0.032635525 -0.12033292 0.07390803 -0.039946705 0.108920544 -0.011112088 0.15940598 -0.08557505

network_aging.lstm.bias_ih_l0 f4 [128]
00000000: cb9c 243e fe10 603d 50db 683e d99f 563e
00000010: d284 53bd c8c9 d4bd 75b7 dfbd 638d 2b3e
00000020: 862d a03d 05f8 553e cb76 9f3d 1524 a03d
00000030: e709 96bd 41c7 d33d 5fe1 4f3e f03e 603e
00000040: a2fd 48bc f57c 97bd 8266 cebb 395a eaba
00000050: 0986 483d 5a7e 163e 1dd7 32bd 9164 313d
00000060: 9358 f43d 75ca 203e c605 11be b422 873d
00000070: 7520 d5bd c37c b53c 321b 373e de26 aa3d
00000080: 0762 c23d 0958 a13d 4e48 dbbd c7e9 863d
00000090: b6d5 b6bd 3507 553e 17cf 0e3e f09b d53d
000000a0: d059 e1bd 1ff7 303e f5ce 573e 2037 3e3d
000000b0: 8e2a f1ba 8521 9f3b eec9 c43d 3ced 053d
000000c0: 9e43 ca3d d348 c73d 5fc7 e53d afec c43d
000000d0: 1b25 293e 7e00 2b3e 6b44 813d f3f4 be3d
000000e0: 1287 c93d b479 67bd 347c b5bd 8f4f 05be
000000f0: e5e4 413d 7744 b6bd b5c3 eb3c c230 9bbd
00000100: 9b2c 6dbe 7524 2cbe ec5d e93b 9578 62be
00000110: 05da cdbd e10e eb3d a50c 803d 9882 60be
00000120: d589 1abd d9ae 943d f77e f83a c35a 833e
00000130: 9c71 17be 51d1 21be e95d 6bbe 5cd7 563d
00000140: beaa 30bc fab1 2f3e 551c 11be 780a 7abc
00000150: 9302 40bb 41cb 743d 3570 303e e238 673d
00000160: 991f 533b bd3b 95bd e5c7 543e 8ca5 cebd
00000170: 8cd2 373d e97a 4d3e d52c 4d3e 049b c93c
00000180: 2980 093e eaa1 903d 96ee 063e 40b2 c93d
00000190: 9dac 053e 68cb 373e 4645 2c3e 7e8e 203e
000001a0: 9c7e b8bc c9ab e93d e486 803e 2def 863e
000001b0: 3a58 1a3e ae6d 183e 9661 89bd 5f25 543e
000001c0: ffd9 cf3d 210b 523e 0b7e b83d 09ef 403b
000001d0: 78b0 cdbb 4c2f 123d 1aa7 893d 50ce 62bd
000001e0: 8fdd 113d 71c7 483d f712 d13d 3a65 a43c
000001f0: f018 593e bceb 4cbc d34a 853e 1c6b 753e
0.16075437 0.054703705 0.22739911 0.20959415 -0.05164034 -0.10390049 -0.109236635 0.16753154
0.07821183 0.20895393 0.0778633 0.07819382 -0.073261075 0.10340739 0.20300816 0.21899009
-0.012267502 -0.073968805 -0.006298841 -0.0017879672 0.04895595 0.14696637 -0.04366218 0.0433088
0.11930957 0.15702231 -0.14162359 0.06598416 -0.10406581 0.022154218 0.17881468 0.083081946
0.094913535 0.078781195 -0.107071504 0.06587558 -0.08927481 0.2080353 0.13946186 0.10430133
-0.110034585 0.17281769 0.21075042 0.04643929 -0.0018399523 0.0048562908 0.096088275 0.032696947
0.09876178 0.09730687 0.11219668 0.09615456 0.16518061 0.16699407 0.06311878 0.09324064
0.09840216 -0.05651255 -0.088615805 -0.1301863 0.04733743 -0.088997774 0.028779844 -0.07577659
-0.23161547 -0.16810782 0.007121792 -0.22116311 -0.100513496 0.11477447 0.06252412 -0.21924818
-0.037729103 0.07259912 0.0018958737 0.25655183 -0.14789432 -0.15802504 -0.22985043 0.052451476
-0.010782896 0.17157736 -0.14170964 -0.015261285 -0.002929841 0.05976415 0.17230304 0.056450732
0.0032214879 -0.07286785 0.20779379 -0.10090169 0.044878528 0.20066418 0.20036633 0.02461005
0.13427795 0.07062133 0.13176951 0.098484516 0.13054128 0.17948687 0.168233 0.15679356
-0.02252131 0.114097185 0.25102913 0.26354352 0.15072718 0.1488559 -0.06708066 0.20717381
0.10149001 0.20512058 0.09008416 0.002943935 -0.00627714 0.035689637 0.06721325 -0.055372536
0.035611685 0.049018327 0.102086954 0.0200678 0.21200919 -0.012507375 0.2603365 0.2396664
