trained_model/mc1_mc2/45_days_lookahead/pnet_checkpoint/pnet_online_1800.pth (torch, 545278 bytes, 36 tensors)

network_smart.layer1.0.weight f4 [128, 330]
0	0x3cb4f28f	0.022088317
1	0xbf102293	-0.56302756
2	0x3f4b4170	0.79396725
3	0xbcfaf047	-0.030632151
4	0x3f40a378	0.75249434
5	0xbd937ff3	-0.07202139
6	0x3f6a8900	0.91615295
7	0xbda96c51	-0.08272613
8	0x3d338f9b	0.043838125
9	0x3f53f462	0.82794774
10	0x3d664dd9	0.056226585
11	0xbd113e96	-0.035460077
12	0x3e2e2587	0.17006503
13	0x3f51b636	0.81918657
14	0x3d176f68	0.03697148
15	0x3f5af4ad	0.85529596
16	0xbe45938f	-0.1929457
17	0x3f71d67a	0.9446789
18	0xbd3200c7	-0.043457773
19	0x3d866b89	0.065634795
20	0x3f5ec948	0.8702588
21	0x3d5de918	0.054177374
22	0x3d7a1b14	0.06106098
23	0xbd98c2c4	-0.074590236
24	0x3f3c6d99	0.7360473
25	0xbd091e4f	-0.03347617
26	0x3f5b2b6d	0.8561314
27	0xbe5d9aea	-0.21641126
28	0x3f6355c5	0.8880275
29	0xbdb8dadc	-0.09026119
30	0xbed68a0b	-0.41902193
31	0x3f5aba8a	0.85440886
32	0x3e033457	0.12812935
33	0xbb088778	-0.0020832699
34	0xbec8ce63	-0.3921996
35	0x3f0e5f0b	0.55613774
36	0x3cd62a75	0.026143292
37	0x3f89c9a3	1.076466
38	0xbe19e67d	-0.1502933
39	0x3f6b2d63	0.9186613
40	0xbdab6b13	-0.08370032
41	0x3dafdb19	0.085867114
42	0x3f92cbe8	1.1468477
43	0x3d983296	0.074315235
44	0x3c130742	0.008973898
45	0xbf072d99	-0.5280395
46	0x3ef68f0d	0.48156014
47	0x3cb6b99a	0.022305299
48	0x3f8b729a	1.0894349
49	0xbe1498ae	-0.14511368
50	0x3f6925c0	0.91073227
51	0xbe3dd035	-0.18536456
52	0x3b99de4e	0.0046956902
53	0x3f878e22	1.059025
54	0x3d2ecce9	0.042675886
55	0xbd1df1cb	-0.03856067
56	0xbf3c5af7	-0.735763
57	0x3f0dac48	0.55341005
58	0x3d3c4be8	0.045970827
59	0x3fc09bc7	1.504754
60	0xbe1545cf	-0.14577411
61	0x3f63f37c	0.890434
62	0xbe0d418b	-0.13794534
63	0xbe881585	-0.26578918
64	0x3fb8d1f3	1.4439071
65	0x3d4e1dec	0.050321504
66	0x3cbfd59e	0.02341729
67	0x3e588877	0.21145807
68	0x3f09327e	0.5359267
69	0x3d238c11	0.0399285
70	0x3fcd31a7	1.6030778
71	0xbe2e8966	-0.17044601
72	0x3f60772c	0.8768184
73	0xbd889841	-0.06669665
74	0x3d9dbdba	0.07702203
75	0x3fc7dbc1	1.5613939
76	0x3dd81662	0.10551144
77	0x3cf89029	0.030342178
78	0x3ed8ebcb	0.42367396
79	0x3f0de156	0.5542196
80	0x3cbc4ebd	0.022986764
81	0x3fcced87	1.6009988
82	0xbe8da638	-0.27665877
83	0x3f5d55b4	0.864589
84	0xbb84b368	-0.004049707
85	0x3db8fa63	0.090321325
86	0x3fd9e17e	1.702194
87	0x3e0c596c	0.13705987
88	0x3c44ef7f	0.012019991
89	0x3e982276	0.29713792
90	0x3f02440f	0.508851
91	0xbd28825d	-0.04113995
92	0x3fd760a8	1.6826372
93	0xbe3ed5fe	-0.18636319
94	0x3f680b52	0.90642273
95	0xbbfbe3b5	-0.007687057
96	0x3ddbeb41	0.107382305
97	0x3fddbde6	1.7323577
98	0x3cfd4bdb	0.03091996
99	0xbd1bbd97	-0.038022604
100	0x3e81b7c3	0.25335512
101	0x3f08cae1	0.5343457
102	0xbd510dda	-0.0510386
103	0x3fe6094f	1.7971591
104	0xbda54f8c	-0.08071813
105	0x3f647344	0.8923838
106	0xbd50c521	-0.050969247
107	0x3da4a679	0.08039565
108	0x3feb2f88	1.837388
109	0x3da601a5	0.081057824
110	0xbdd4563d	-0.10368011
111	0xbda50c1a	-0.08058949
112	0x3efecdd7	0.49766418
113	0x3d3fcafd	0.046824444
114	0x3ffafc3a	1.9608223
115	0xbdf4a424	-0.1194537
116	0x3f5ee321	0.8706532
117	0x3d113c41	0.035457853
118	0x3d38e5d5	0.04514106
119	0x3ff292ac	1.8951011
120	0x3e018771	0.12649323
121	0xbd2919b8	-0.041284293
122	0xbd9d069a	-0.07667275
123	0x3efd1bc2	0.4943524
124	0xbd699672	-0.05702824
125	0x400b28b2	2.1743588
126	0xbdd87400	-0.10569
127	0x3f5f5244	0.872349
128	0x3c82508b	0.015907547
129	0x3cc35a9f	0.023846922
130	0x40079fbe	2.119125
131	0x3d8a270e	0.0674573
132	0xbd01de4f	-0.03170615
133	0x3d7e0c03	0.062023174
134	0x3efddc11	0.4958196
135	0xbc964505	-0.018343458
136	0x40318ec5	2.774339
137	0xbde02559	-0.109446235
138	0x3f6c56dd	0.9232004
139	0xbd10065e	-0.035162322
140	0x3d4ef86d	0.050529886
141	0x4033e52b	2.8108623
142	0x3db2602c	0.087097496
143	0xbb42540d	-0.002965215
144	0x3cd09be8	0.025464967
145	0x3f0623fa	0.52398646
146	0x3c5979d8	0.013273679
147	0x40502a6b	3.252589
148	0xbd9ee5b9	-0.0775866
149	0x3f62747d	0.88458997
150	0x3d793a83	0.060846817
151	0x3d07cacf	0.033152398
152	0x40541811	3.313969
153	0x3dc4190a	0.09575088
154	0xbd9b8602	-0.07593919
155	0x3c5b8d2c	0.013400357
156	0xbe0e60e6	-0.13904151
157	0x3b836d25	0.004010814
158	0x406587d3	3.586415
159	0xbe024384	-0.12721068
160	0x3f6f4400	0.93463135
161	0xbd2bdedf	-0.041960593
162	0x3db10180	0.08642864
163	0x4063ee0c	3.5614042
164	0x3e0f41ac	0.13989896
165	0x3bba55eb	0.0056865118
166	0xbd9cf8d3	-0.07664647
167	0xbdec73bf	-0.11545514
168	0xbcb1bb98	-0.021695897
169	0x4067c7e0	3.6215744
170	0xbd9c3577	-0.07627385
171	0x3f65468a	0.8956076
172	0x3e04f331	0.12983395
173	0x3d7b989b	0.061424833
174	0x406ad3eb	3.6691844
175	0x3db1285b	0.08650275
176	0xbdacf0a5	-0.08444337
177	0xbe04ae4f	-0.12957118
178	0xbdc1a315	-0.094549336
179	0x3bf8a9ab	0.0075885854
180	0x4087d251	4.2444234
181	0xbe008021	-0.12548877
182	0x3f69df35	0.9135621
183	0x3de65d8d	0.11248312
184	0x3dd2b57f	0.10288524
185	0x40894578	4.28973
186	0x3e15029b	0.14551775
187	0xbcd46a50	-0.0259296
188	0xbe01f0b4	-0.12689477
189	0xbdb09531	-0.08622206
190	0x3e43324b	0.19062154
191	0x408c7bb5	4.390101
192	0x3cfd6810	0.03093341
193	0x3f8badbd	1.0912396
194	0x3e19ce93	0.15020208
195	0x3ea28895	0.3174483
196	0x408d8eb7	4.4236712
197	0x3e2746c4	0.16335589
198	0xbcb6d953	-0.022320425
199	0xbe8892d7	-0.2667453
200	0xbd9b5701	-0.07584954
201	0xbe0f44d6	-0.13991103
202	0x40907b26	4.515033
203	0xbd94e124	-0.07269505
204	0x3f6d2eb5	0.92649394
205	0x3d726227	0.059175637
206	0xbdb18c39	-0.086693235
207	0x408e05ab	4.438192
208	0x3e2e117f	0.16998862
209	0xbd053e5f	-0.032530185
210	0xbef5e5f6	-0.4802701
211	0xbde93b04	-0.113882095
212	0x3d24ea3d	0.04026245
213	0x40a08ac6	5.01694
214	0x3c9279fe	0.017880436
215	0x3f681f1c	0.9067247
216	0x3dbb5a50	0.09148085
217	0x3dcd068b	0.100110136
218	0x40a18fae	5.048789
219	0x3e78a5c8	0.2428199
220	0xbdbc1446	-0.09183554
221	0xbf12d498	-0.5735564
222	0xbfce877b	-1.6135095
223	0xc04ec6d5	-3.2308857
224	0x40a6c8de	5.21202
225	0xbd0330ff	-0.03202915
226	0x3f65d88c	0.8978355
227	0xbde17541	-0.110086925
228	0x3e70f850	0.23532224
229	0x40a8001d	5.250014
230	0x3e097fdf	0.13427685
231	0xbe2a2dbf	-0.16619013
232	0xbeb0b485	-0.34512725
233	0xbd7034a3	-0.05864395
234	0x3d39c81b	0.04535685
235	0x40ad9311	5.4242024
236	0xbd38bc64	-0.04510154
237	0x3f6b3cca	0.9188963
238	0x3c8943da	0.016755987
239	0x3cbe62b4	0.023240425
240	0x40acb84f	5.3974986
241	0x3e7915df	0.2432475
242	0xbd9b206e	-0.07574545
243	0xbf449601	-0.7679139
244	0xbe02cd3d	-0.12773605
245	0xbe93bf97	-0.2885711
246	0x40ad128c	5.408514
247	0xbe75a63f	-0.23989199
248	0x3f68004c	0.90625453
249	0xbd2f5416	-0.0428048
250	0xbebe054f	-0.37113425
251	0x40adf038	5.4355736
252	0x3e3970fc	0.18109506
253	0xbe1920c7	-0.1495391
254	0xbf2ccbf3	-0.674987
255	0xbe01a923	-0.12662177

network_smart.layer1.0.bias f4 [128]
0	0x3d9d71e8	0.076877415
1	0xbbac755a	-0.005263013
2	0x3d1e42de	0.03863799
3	0xbc16b62c	-0.009198707
4	0x3e13796f	0.14401792
5	0x3e06b42d	0.13154669
6	0x3d089d38	0.03335306
7	0xbdd76310	-0.105169415
8	0xbc5fd584	-0.013661746
9	0xbb2af65a	-0.0026086778
10	0xbd268348	-0.040652543
11	0x3d07db29	0.03316799
12	0x3db47926	0.0881217
13	0x3dbd58c3	0.092454456
14	0xbe1c9e1b	-0.15294687
15	0xbd81f3a1	-0.06345297
16	0x3c38f1a1	0.011288078
17	0x3cbb4614	0.022860564
18	0x3d4363a7	0.047702458
19	0xbaa76cb3	-0.0012773484
20	0xbb42cdef	-0.0029724797
21	0x3e18e149	0.1492969
22	0xbeb94ba7	-0.3619053
23	0x3e1ebfd9	0.15502872
24	0xbe07fcc4	-0.13280016
25	0x3e05565f	0.13021229
26	0xbe34c29d	-0.17652364
27	0x3e24b23d	0.16083618
28	0x3e331e0b	0.17491929
29	0x3dcfbbf4	0.10143271
30	0x3db8d8bb	0.09025713
31	0xbe562f82	-0.2091656
32	0xbd0f39e4	-0.03496732
33	0x3e0bc582	0.13649562
34	0x3db9891a	0.09059353
35	0x3df9e267	0.12201386
36	0x3dff4341	0.124639995
37	0x3e60e3cb	0.21961896
38	0x3e5e1053	0.21685915
39	0x3dfd280f	0.12361156
40	0x3ca2f0c9	0.019890206
41	0xbdde7837	-0.10862773
42	0x3e0ac383	0.13551144
43	0xbdc19789	-0.09452731
44	0x3dbd62d8	0.092473686
45	0xbcb7093b	-0.022343269
46	0x3d307bcd	0.043086816
47	0xbd9cea66	-0.076618955
48	0x3c748495	0.014924188
49	0x3d06445b	0.032780033
50	0xbd4f1dc9	-0.050565515
51	0x3e018c09	0.12651075
52	0xbac784ae	-0.0015222037
53	0xbc8f2cdc	-0.017477445
54	0xbca71819	-0.020397233
55	0xbed183df	-0.40920922
56	0x3e1ad646	0.15120801
57	0xbccdbf58	-0.025115654
58	0xbe5c5f0b	-0.21520631
59	0xbc16decf	-0.009208395
60	0x3e02ef42	0.12786582
61	0x3e003634	0.12520677
62	0x3d8ded29	0.0693
63	0xbc259bc6	-0.01010794
64	0x3df434ba	0.11924119
65	0xbdd904ea	-0.105966404
66	0xbb18bcbc	-0.0023305854
67	0xbcc58e7e	-0.024115797
68	0x3d7fde5e	0.062467925
69	0x3e839e5d	0.2570676
70	0xbe45e892	-0.19327
71	0x3d3aec56	0.045635544
72	0xbe01289b	-0.12613146
73	0xbe36b8f5	-0.17843993
74	0x3d8df6b6	0.06931822
75	0xbdfcc500	-0.12342262
76	0xbd68c1c0	-0.0568254
77	0x3ddc8e55	0.10769335
78	0x3e1a6d8a	0.15080848
79	0xbd1fbfa1	-0.03900111
80	0x3bc93511	0.006140359
81	0xbe855e94	-0.2604872
82	0xbcda9ed8	-0.02668707
83	0xbe899d7e	-0.2687797
84	0xbdcac52b	-0.09900888
85	0xbe042b98	-0.12907255
86	0xbbb3011b	-0.0054627783
87	0xbd0c8699	-0.03430805
88	0x3d62d173	0.055375528
89	0xbda54d9d	-0.08071444
90	0xbc78c860	-0.015184492
91	0x3d61940d	0.055072833
92	0xbd54aa7d	-0.051920403
93	0x3b991515	0.0046717026
94	0x3d595f78	0.05306956
95	0x3d8a8c72	0.06765069
96	0xbd22d06f	-0.03974956
97	0xbd02b2dd	-0.03190886
98	0xbd3c2d04	-0.045941368
99	0x3aaf8547	0.001339116
100	0x3e51dba2	0.2049394
101	0xbec2d76b	-0.38054976
102	0xbc8d786c	-0.017269336
103	0x3d2a0e6c	0.04151766
104	0x3b935535	0.0044962415
105	0xbe6778f0	-0.22604728
106	0x3cd7f886	0.026363622
107	0xbd44701a	-0.04795847
108	0xbc2d3066	-0.010570621
109	0x3cf435b9	0.029810773
110	0x3c5d1e7d	0.0134960385
111	0xbdf43e65	-0.11925963
112	0xbcd9e423	-0.026598042
113	0x3e1fe834	0.15615922
114	0xbe42d3a1	-0.19026043
115	0xbd063795	-0.03276785
116	0x3c311131	0.010807321
117	0xbd55f99c	-0.05224
118	0x3db41c70	0.087944865
119	0xbc206aaf	-0.00979106
120	0x3e0b7dbc	0.13622183
121	0xbe5175e8	-0.20455134
122	0xbb1250ec	-0.0022326065
123	0x3e321c36	0.17393574
124	0x3e474e82	0.19463542
125	0x3cefdc31	0.0292798
126	0xbd40b84d	-0.047050763
127	0x3de744ad	0.11292396

network_smart.layer2.0.weight f4 [128, 128]
0	0x3c46de92	0.012138026
1	0x3d8d8e6c	0.069119304
2	0xbd8f13d5	-0.069862045
3	0xbd2fb6ad	-0.042898823
4	0xbc990eae	-0.018683758
5	0x3d987dcc	0.07445869
6	0x3da0c1ca	0.07849462
7	0xbd6c95b1	-0.057759944
8	0x3a907ab6	0.0011022899
9	0xbda34575	-0.07972232
10	0xbdb64acf	-0.08900987
11	0x3c90beed	0.017669166
12	0xbc9952a3	-0.018716162
13	0x3ca5056a	0.020144183
14	0xbd933794	-0.07188335
15	0xbd42b6e0	-0.047537684
16	0xbd1cad8c	-0.038251445
17	0x3c22a888	0.009927876
18	0x3d71b763	0.05901278
19	0xbda150d3	-0.07876744
20	0x3d387ec6	0.045042776
21	0xbd0b8b20	-0.034068227
22	0x3d6669c3	0.056253206
23	0xbd1bd5a4	-0.03804554
24	0xbd61e8a1	-0.055153493
25	0xbd2f32d2	-0.042773075
26	0x3d2820d8	0.041046947
27	0x3d382be2	0.044963725
28	0xbc65b46b	-0.014020066
29	0xbd9893d9	-0.07450075
30	0x3d534796	0.05158194
31	0x3d375652	0.044760056
32	0xbd901c9f	-0.07036709
33	0xbd10ff3a	-0.035399653
34	0xbd5c43fc	-0.053775772
35	0x3c6b42c2	0.014359178
36	0xbd8c1981	-0.06840802
37	0xbda381af	-0.079837196
38	0xbd0bf61f	-0.034170266
39	0x3d281edf	0.041045066
40	0x3da4fe65	0.080563344
41	0xbc61a75b	-0.013772811
42	0xbd3bbb95	-0.04583319
43	0xbdd1af12	-0.1023847
44	0x3cd87d79	0.026427018
45	0x3c871e61	0.016493978
46	0xbd4e36fb	-0.050345402
47	0xbd87ad61	-0.06624866
48	0xbccbf686	-0.024897825
49	0xbcc07f22	-0.023498122
50	0x3d659900	0.056054115
51	0x3d8d6165	0.06903342
52	0xbb0d610d	-0.002157274
53	0x3d0c0cab	0.03419177
54	0xbbe20a17	-0.0068981755
55	0xbcdd32f7	-0.027001841
56	0x3d0de6cf	0.034643944
57	0xbcce1044	-0.02515424
58	0x3da5b75d	0.080916144
59	0xbd661e3a	-0.05618117
60	0xbd276f59	-0.040877674
61	0x3da6e5f9	0.081493326
62	0x3d92721e	0.071506724
63	0x3d1a1c14	0.037624434
64	0x3d377858	0.044792503
65	0xbdacde22	-0.08440806
66	0xbce24894	-0.027622499
67	0x3d123e22	0.035703786
68	0xbd406fdd	-0.04698168
69	0x3d447128	0.047959477
70	0xbd42724a	-0.047472276
71	0x3c4156a3	0.011800441
72	0xbca3a70e	-0.019977119
73	0x3c525576	0.012837758
74	0x3d70fb83	0.05883361
75	0xbdba4045	-0.0909429
76	0x3d904497	0.070443325
77	0xbc95a9d2	-0.018269453
78	0x3cefc8ea	0.029270608
79	0xbd96bb41	-0.073599346
80	0x3bbf3ff2	0.0058364803
81	0xbdaa59a5	-0.083178796
82	0xbcfa0976	-0.03052209
83	0xbd9e83ff	-0.0774002
84	0xbda9ae5e	-0.08285211
85	0x3cb2c102	0.021820549
86	0xbdae242f	-0.08502995
87	0xbc3ead77	-0.011638037
88	0x3d87e17d	0.06634805
89	0xbcfe3aa8	-0.031033829
90	0xbd0634e0	-0.03276527
91	0xbd8e0310	-0.06934178
92	0x3da42e4d	0.08016644
93	0xbd4046e3	-0.046942603
94	0xbdaeeddd	-0.085414626
95	0x3d95105c	0.07278511
96	0x3d11930b	0.03554062
97	0xbd89753a	-0.06711812
98	0xbd89fd97	-0.067378215
99	0x3b564f8d	0.0032701225
100	0xbc910e97	-0.017707152
101	0xbda5d0c7	-0.08096462
102	0x3bf69c99	0.007525992
103	0xbc187dae	-0.009307308
104	0xbdbcb9f1	-0.09215153
105	0x3d555397	0.05208167
106	0xbd8f25c3	-0.06989624
107	0xbca1c3f0	-0.01974675
108	0x3c0d33d6	0.008618316
109	0xbd0a288e	-0.033730082
110	0x39f0dfd6	0.00045943138
111	0x3cca5e41	0.024703147
112	0x3d2bb055	0.04191621
113	0xbd8dbb48	-0.06920487
114	0xbc91a5ed	-0.017779315
115	0x3d826cc5	0.063684024
116	0x3d742c49	0.059612546
117	0xbd50fae3	-0.051020514
118	0x3a89b341	0.0010505692
119	0x3d9ed96f	0.07756316
120	0xbd69343c	-0.05693458
121	0xbdaadc99	-0.08342857
122	0x3d90ea28	0.07075912
123	0xbd88a916	-0.066728756
124	0x3cda3038	0.02663432
125	0x3d450ab1	0.0481059
126	0xbd02beb4	-0.03192015
127	0x3d7bdb4c	0.061488435
128	0xbf3e935c	-0.744436
129	0x3f8b6f3b	1.089332
130	0xbdc4ce9d	-0.09609721
131	0x3c9477d6	0.018123548
132	0x3e08826b	0.13331
133	0x3e35f96c	0.17770928
134	0xbf531dd7	-0.82467407
135	0x3da92b27	0.08260184
136	0x3d938b18	0.072042644
137	0x3e1e3949	0.1545154
138	0x3d866a03	0.06563189
139	0x3e1bc5d1	0.1521218
140	0x3d6a6a7a	0.05723045
141	0xbe89ee84	-0.26939785
142	0xbd9079e7	-0.07054501
143	0x3d9b2034	0.07574502
144	0x3ccceb9a	0.025014687
145	0x3dc9445f	0.09827494
146	0x3dc521a5	0.09625558
147	0xbda3d4a2	-0.07999541
148	0xbb2710e4	-0.0025492245
149	0x3dd2cd3f	0.10293054
150	0xbd1008c7	-0.03516462
151	0x3c5bf6af	0.013425513
152	0x3e4e4028	0.20141661
153	0x3be4349e	0.0069642803
154	0xbe0d55d6	-0.13802275
155	0x3e5c786c	0.21530312
156	0xbc057040	-0.008144438
157	0xbcd36ac3	-0.025807744
158	0x3dbab4c6	0.09116511
159	0xbee47b06	-0.4462511
160	0x3dacfc80	0.08446598
161	0xbd15f5df	-0.036611434
162	0x3dbecd35	0.09316484
163	0xbef98a1f	-0.4873819
164	0x3de400b5	0.11132947
165	0xbe95c457	-0.29251358
166	0xbc9f90e8	-0.019478276
167	0xbc5e0ff7	-0.013553611
168	0xbdc8decc	-0.0980812
169	0x3d704192	0.058656283
170	0xbe3e4916	-0.18582568
171	0x3de9a742	0.11408855
172	0xbcb2a8e1	-0.021809043
173	0xbc48997c	-0.012243625
174	0x3d113770	0.03545326
175	0x3e68b3d0	0.22724843
176	0x3d188781	0.0372386
177	0x3e2516c2	0.16121963
178	0x3d916399	0.07099075
179	0x3cf28e9d	0.029609019
180	0xbe9da2f9	-0.307884
181	0xbe0dbcc8	-0.13841546
182	0x3d332742	0.04373861
183	0xbef3b6cb	-0.47600397
184	0x3d6f77c9	0.058463845
185	0xbd8084c8	-0.06275326
186	0x3c60a29f	0.013710647
187	0xbd9b75e8	-0.07590848
188	0x3e05affb	0.13055412
189	0xbe85095c	-0.25983703
190	0xbda53d0a	-0.08068283
191	0xbe7ad1ef	-0.24494146
192	0x3eb92978	0.3616445
193	0x3d3b9185	0.045793075
194	0x3e03175d	0.12801881
195	0xbd045ccf	-0.03231507
196	0x3d8002ee	0.06250559
197	0xbf27b995	-0.6551755
198	0x3d82fa9f	0.063954584
199	0xbd56e532	-0.05246467
200	0x3c538e1e	0.012912301
201	0x3bd6725f	0.006544396
202	0x3d382a7a	0.044962384
203	0xbe0bba47	-0.13645278
204	0xbe67feb7	-0.2265576
205	0x3d3fdd1d	0.04684173
206	0xbcdb0325	-0.026734898
207	0xbd434021	-0.04766858
208	0x3d0d33aa	0.0344731
209	0x3d0bcced	0.03413098
210	0x3ca706e6	0.020389032
211	0xbf07dd9e	-0.53072536
212	0x3d6bbe02	0.057554252
213	0xbd11fdb4	-0.03564234
214	0xbe8e9264	-0.27846062
215	0x3c785f40	0.015159428
216	0xbf90d8d2	-1.1316168
217	0xbd4a8d9c	-0.049451455
218	0x3b318773	0.002708879
219	0x3dfa97dc	0.12235996
220	0xbd2c6f60	-0.042098403
221	0x3d51103b	0.05104087
222	0x3de19447	0.1101461
223	0xbda2b52e	-0.079447135
224	0xbcc4ec57	-0.024038477
225	0xbcfe5182	-0.031044725
226	0x3c05b0fd	0.008159873
227	0x3d7e4439	0.06207678
228	0x3cfae2af	0.03062567
229	0x3e83052e	0.2558989
230	0xbdf3eb78	-0.119101465
231	0x3d923f42	0.07140972
232	0x3e8b5ce7	0.27219316
233	0xbe6c46f4	-0.23073941
234	0xbc7da3ce	-0.015480949
235	0x3dcaa7de	0.098952994
236	0x3e2d393d	0.16916366
237	0xbf6d57fb	-0.9271237
238	0xbd92382e	-0.07139622
239	0xbecd6bb8	-0.40121245
240	0xbcfe4281	-0.03103757
241	0x3a537aea	0.0008067327
242	0xbdc9f964	-0.098620206
243	0xbcadd8e3	-0.021221584
244	0x3d90d3a0	0.07071614
245	0xbcbadd8e	-0.022810724
246	0xbd3c739f	-0.046008702
247	0x3b470067	0.003036523
248	0xbc9f1b85	-0.019422302
249	0xbc05ff70	-0.008178577
250	0x3d7102d7	0.0588406
251	0x3dd83ef5	0.10558883
252	0x3d648dbe	0.05579924
253	0xbc264317	-0.010147831
254	0x3cc9e337	0.024644477
255	0xbd87b9fd	-0.06627271

network_smart.layer2.0.bias f4 [128]
0	0xbc822604	-0.015887268
1	0x3dcbb574	0.09946719
2	0xbe373637	-0.17891775
3	0xbd6149b5	-0.055001933
4	0xbe07f6e0	-0.13277769
5	0xbe2c5986	-0.16831025
6	0x3d2c96ee	0.042136125
7	0xbc449dc4	-0.012000505
8	0xbd3177f1	-0.043327276
9	0x3d5ef8c1	0.05443645
10	0x3db1d43a	0.08683057
11	0x3db9cb9d	0.09072039
12	0xbd59d0f2	-0.05317778
13	0x3d3df714	0.04637821
14	0x3d845187	0.064608626
15	0x3dcc2b6e	0.09969221
16	0xbc9ed86f	-0.019390313
17	0xbb50e8c5	-0.0031877023
18	0x3dab8e61	0.08376766
19	0x3c878a27	0.016545368
20	0xbdc271b9	-0.09494347
21	0xbeb994d4	-0.3624636
22	0x3c829777	0.015941365
23	0xbdd2ce91	-0.10293306
24	0x3d1c82c5	0.03821065
25	0x3d9fb809	0.07798774
26	0xbda10dd0	-0.07863963
27	0xbe2acab8	-0.16678894
28	0x3db62a25	0.08894757
29	0xbe34b4f8	-0.17647159
30	0xbd64d6ac	-0.05586879
31	0x3cef6d9c	0.02922707
32	0xbad1420b	-0.0015965117
33	0x3cb6a1a5	0.022293875
34	0x3d0f4874	0.034981206
35	0x3a6520e0	0.00087405555
36	0xbe21fc6c	-0.15818948
37	0xbe35dd39	-0.17760171
38	0x3d6d31c1	0.057908777
39	0x3dc323d2	0.095283166
40	0x3bfdca77	0.007745083
41	0x3db82447	0.08991294
42	0x3da17fcb	0.07885703
43	0xbe42aa62	-0.19010308
44	0x3d461a05	0.048364658
45	0xbd9b98ad	-0.0759748
46	0xbdb95315	-0.0904905
47	0x3cacf11c	0.021111064
48	0xbd9ec0de	-0.0775163
49	0xbd37e2e3	-0.04489411
50	0x3d8143d3	0.063117646
51	0xbd30ed3c	-0.043194994
52	0xbdb28f6a	-0.0871876
53	0x3dac223d	0.08404968
54	0x3d9fc35f	0.07800936
55	0x3d46290f	0.048379
56	0xbd3e539d	-0.04646646
57	0x3db8f18b	0.09030446
58	0x3d948712	0.07252325
59	0x3cc7022f	0.024293033
60	0x3d991207	0.074741416
61	0xbcd7e34e	-0.026353505
62	0x3d808d5b	0.062769614
63	0x3ddc551f	0.10758423
64	0xbc4dddd6	-0.012565097
65	0xbd5a9f5a	-0.053374626
66	0x3dc1da72	0.09465493
67	0xbe5e607b	-0.21716492
68	0xbc5dd0df	-0.013538568
69	0x3df369ba	0.118854
70	0x3d9881c2	0.07446624
71	0x3d965b2b	0.07341608
72	0x3d8fec84	0.07027534
73	0xbe16be52	-0.14721039
74	0xbce0fc0f	-0.02746394
75	0x3df5214f	0.11969244
76	0xbab6e635	-0.0013954105
77	0x3c8c0f85	0.017097244
78	0xbe310f98	-0.17291105
79	0x3ce76587	0.028246654
80	0x3dd96960	0.10615802
81	0x3db11a4c	0.08647594
82	0x3d80b9c1	0.0628543
83	0xbba33e22	-0.004981772
84	0x3d0d6a6c	0.03452532
85	0x3dd9d768	0.106367886
86	0xbd99ec0c	-0.075157255
87	0x3d26143e	0.04054665
88	0x3dfe6387	0.12421327
89	0x3d35b8bc	0.04436563
90	0xbe063f85	-0.13110168
91	0xbdbf1722	-0.09330584
92	0x3ca8e96c	0.020619117
93	0xbe16765a	-0.14693585
94	0x3dea886f	0.11451804
95	0x3d8af2b6	0.06784575
96	0x3d33195d	0.04372536
97	0xbdb742a3	-0.08948257
98	0xbd0a269a	-0.03372822
99	0x3e26ea1d	0.16300245
100	0x3d8ba2d3	0.06818166
101	0xbe97e41f	-0.2966623
102	0x3adf2d6c	0.0017027087
103	0x3d57600f	0.052581843
104	0x3c77f31c	0.015133645
105	0x3d65d307	0.056109454
106	0xbda1a656	-0.07893054
107	0x3d5eb72c	0.054373905
108	0x3d76a76e	0.060218267
109	0x3d8e7cdc	0.06957409
110	0x3d7aaf06	0.06120207
111	0x3d8f1f94	0.06988445
112	0x3daf7ac2	0.08568336
113	0x3d9f5aab	0.077809654
114	0xbd4e7dee	-0.050413065
115	0xbab6b39b	-0.0013939025
116	0xbddc1bd2	-0.10747494
117	0x3c1fb42f	0.009747549
118	0xbd8d2ed0	-0.068936944
119	0x3d04ff9e	0.032470338
120	0x3d09faa5	0.0336863
121	0xbd16378c	-0.036674067
122	0xbc8ed5f4	-0.017436005
123	0xbe06aac9	-0.13151087
124	0xbd31dc61	-0.04342306
125	0xbd89055b	-0.066904746
126	0xbd85e046	-0.065369174
127	0x3da9663d	0.082714535

network_smart.layer3.0.weight f4 [48, 128]
0	0x3c1dbcca	0.00962753
1	0xbdb0edcc	-0.08639106
2	0xbea612dd	-0.32436267
3	0x3c9258c7	0.017864598
4	0x3dc2867e	0.094983086
5	0xbebf98cf	-0.3742127
6	0x3e70aec2	0.23504165
7	0xbcb1f583	-0.021723514
8	0x3c774225	0.015091454
9	0xbfbef1a8	-1.4917498
10	0xbc8e6ee1	-0.017386856
11	0xbeb03b14	-0.34420073
12	0xbb8eca56	-0.0043576164
13	0xbea6140b	-0.32437167
14	0x3dd7842f	0.10523259
15	0xbe8bde3a	-0.27317983
16	0xbccfad6f	-0.025351254
17	0x3e5193c0	0.20466518
18	0x3f051adc	0.5199411
19	0x3e0b07b5	0.13577159
20	0x3d9ce350	0.07660544
21	0xbd6aac1e	-0.05729305
22	0xbf22ac84	-0.6354449
23	0x3d52d0ab	0.051468533
24	0x3e07a10a	0.13245025
25	0xbc9af660	-0.018916309
26	0xbbf56c08	-0.007489685
27	0x3dd3f0d5	0.103486694
28	0xbbee0a16	-0.007264386
29	0x3da00086	0.078126
30	0xbdf51f17	-0.119688205
31	0x3e605384	0.21906859
32	0x3d5f6c45	0.054546613
33	0xbe4a1094	-0.19732887
34	0x3d5526b6	0.05203887
35	0x3d580c68	0.052746207
36	0x3d8fb553	0.07017007
37	0x3c99d1ce	0.0187768
38	0xbd8658ce	-0.06559907
39	0xbea0740b	-0.31338534
40	0xbe81a5d3	-0.25321826
41	0xbca6b263	-0.020348733
42	0x3d83db4d	0.06438313
43	0xbf41889a	-0.7559906
44	0x3dbb7266	0.09152679
45	0x3ea5e447	0.32400724
46	0x3bde2048	0.0067787506
47	0x3db016d3	0.085981034
48	0x3b787f9d	0.003791786
49	0xbd1bf42c	-0.038074657
50	0x3d6f9f52	0.05850155
51	0x3eb9101b	0.361451
52	0xbdaeff82	-0.08544828
53	0x3d3db407	0.046314266
54	0xbdc56ff0	-0.09640491
55	0x3dcdc906	0.10048108
56	0xbe44490d	-0.19168492
57	0xbf87e3d6	-1.0616405
58	0xbeee99d5	-0.4660174
59	0xbf9f63f5	-1.245238
60	0x3d519c1f	0.05117428
61	0xbea36e74	-0.31920207
62	0xbdd23c36	-0.102653906
63	0xbcf7e5d8	-0.030260965
64	0x3f21fb6e	0.63274276
65	0xbc3506e6	-0.011049008
66	0xbdd6df64	-0.10491827
67	0xbf0792ad	-0.52958184
68	0xbe992324	-0.29909623
69	0xbd09fc1f	-0.033687707
70	0x3ddd3456	0.10800998
71	0x3bc8adb5	0.006124223
72	0x3e24d4ba	0.16096774
73	0x3df43c98	0.1192562
74	0xbc869f30	-0.016433328
75	0xbe3b1e33	-0.18273239
76	0x3cab2130	0.020889848
77	0xbd0a5049	-0.033767972
78	0xbf06c79b	-0.52648324
79	0x3d604955	0.054757435
80	0x3db5fcae	0.088860855
81	0xc000bf95	-2.0116932
82	0x3dc66fac	0.096892685
83	0xbd7b5ca7	-0.061367657
84	0xbdb772f0	-0.089574695
85	0x3db948ef	0.09047114
86	0xbde91f80	-0.11382961
87	0x3d629d49	0.05532578
88	0xbf262fec	-0.6491687
89	0x3f254762	0.64562047
90	0x3d985928	0.0743888
91	0x3e4c99e5	0.19980581
92	0xbec70d3d	-0.38877288
93	0xbd08c234	-0.03338833
94	0x3e69191e	0.22763488
95	0x3cd946ab	0.026522955
96	0x3d4c048a	0.049809016
97	0x3bbb024d	0.0057070614
98	0x3dae67fe	0.08515929
99	0xbeb6bddd	-0.3569173
100	0xbe33b74b	-0.1755039
101	0x3ddea156	0.10870616
102	0x3ce6f79e	0.028194245
103	0xbef9fdce	-0.4882645
104	0x3ce2fc5e	0.027708229
105	0x3dcc7b31	0.099844344
106	0xbf186fc3	-0.59545535
107	0xbcdcd850	-0.026958615
108	0x3d2d66ae	0.04233425
109	0xbe7b495c	-0.24539703
110	0xbe36d799	-0.17855681
111	0xbee1e366	-0.44118804
112	0xbe6da4d4	-0.23207408
113	0x3d173a7b	0.036921006
114	0xbd598c24	-0.053112164
115	0xbdd7e1a4	-0.105410844
116	0x3df23b8d	0.11827765
117	0x3de853c6	0.113441035
118	0xbced865a	-0.028994728
119	0x3d45225c	0.04812847
120	0x3c263bab	0.010146062
121	0x3dd05c86	0.101738974
122	0x3f311a11	0.691804
123	0x3da99b2f	0.08281552
124	0xbd68e833	-0.056862067
125	0x3e4b3f4e	0.19848368
126	0xbd96f0cb	-0.07370146
127	0x3e17edbb	0.1483678
128	0x3ccaa8ea	0.024738748
129	0x3d5ab218	0.0533925
130	0xbf5b45d6	-0.85653436
131	0x3d968f80	0.07351589
132	0x3e643f92	0.22289875
133	0xbf70c1af	-0.9404554
134	0x3e4b7ce0	0.19871855
135	0xbd783667	-0.060598757
136	0xbd9122a0	-0.07086682
137	0x3cc1ad15	0.023642102
138	0x3bfe41e5	0.00775932
139	0xbcd90fda	-0.026496816
140	0xbbfff121	-0.007810727
141	0x3f0e2402	0.55523694
142	0x3e3ba500	0.18324661
143	0xbbeda3b8	-0.007252183
144	0x3d67e5c4	0.056615606
145	0xbdf5f4d8	-0.12009591
146	0xbe1ef92f	-0.15524743
147	0x3ce6ac8d	0.02815845
148	0xbcdb59e9	-0.026776271
149	0x3f4d8597	0.80281967
150	0xbe8e054c	-0.27738416
151	0x3e818625	0.25297657
152	0xbe58dce6	-0.21178016
153	0x3ce68dcb	0.028143784
154	0x3de7e822	0.11323573
155	0xbdbc5177	-0.09195226
156	0x3ba3711b	0.0049878485
157	0xbdb36dc6	-0.08761172
158	0xbf771292	-0.9651271
159	0xbf103484	-0.5633013
160	0xbe8bd215	-0.27308717
161	0xbf3900bd	-0.7226675
162	0xbc9adc74	-0.018903948
163	0x3da493c0	0.080359936
164	0xbd2c0640	-0.041998148
165	0x3de7bf24	0.11315754
166	0xbd83a2f8	-0.06427568
167	0xbed666f4	-0.41875422
168	0xbe6b58db	-0.22983114
169	0x3d8bbafe	0.06822775
170	0xbdb1acd5	-0.08675543
171	0xbcba33e9	-0.02272983
172	0xbb7086b3	-0.003670138
173	0xbe7bd22c	-0.24591893
174	0xbdda436e	-0.106573924
175	0xbcf9863c	-0.030459516
176	0x3ce98822	0.028507296
177	0xbcd83804	-0.026393898
178	0x3e250b4d	0.16117592
179	0x3e86e9e3	0.26350316
180	0xbcaec0b3	-0.02133212
181	0xbd09e6bc	-0.03366731
182	0x3d91b735	0.07115022
183	0xbc1ace6e	-0.009448631
184	0xbf1bd54e	-0.6087235
185	0xbea8c190	-0.32960176
186	0x3f113b96	0.56731546
187	0xbf3a6ce1	-0.72822386
188	0x3dbc7270	0.09201515
189	0xbee25ef9	-0.44213083
190	0xbef7e38a	-0.48415786
191	0x3da75e93	0.081723355
192	0x3eb782ee	0.3584208
193	0x3ed12a94	0.40852797
194	0xbc6ef5cb	-0.014584969
195	0xbd6b751d	-0.057484735
196	0x3f404cf9	0.7511745
197	0x3c824a9f	0.015904723
198	0x3d0ba6d1	0.034094635
199	0x3e0e578e	0.13900587
200	0x3c9e786c	0.019344531
201	0x3dc0b34b	0.094091974
202	0xbf49761d	-0.7869585
203	0x3df32692	0.11872591
204	0xbce63137	-0.02809964
205	0xbc4b9a7a	-0.012426967
206	0x3f2385ff	0.63876337
207	0xbe0320a4	-0.1280542
208	0x3e02d95f	0.12778233
209	0xbecfd049	-0.40588596
210	0x3cf8ceba	0.030372012
211	0x3d8f3e28	0.06994277
212	0xbdcbdd13	-0.09954276
213	0x3dce77da	0.100814536
214	0x3f72f75e	0.949087
215	0xbf789c26	-0.97113264
216	0x3d932f4e	0.07186757
217	0x3e4f79d8	0.20261323
218	0x3e718295	0.2358497
219	0xbd4e929b	-0.050432783
220	0x3f2f4b81	0.68474585
221	0xbdf098ff	-0.11747932
222	0xbb41b8e0	-0.0029559657
223	0x3e0d1cb1	0.13780476
224	0x3e2ab0ec	0.16669053
225	0xbc230b60	-0.0099514425
226	0xbd0a0a0e	-0.033700995
227	0x3ce6e961	0.028187456
228	0x3e3c9e08	0.18419659
229	0xbd0c20bb	-0.0342109
230	0x3d76b4d2	0.060231037
231	0x3f5b0a7b	0.85562867
232	0xbce44490	-0.027864724
233	0x3d62acc6	0.05534055
234	0xbf5de15d	-0.86672
235	0xbc9d1808	-0.019176498
236	0x3d5cf56f	0.053945
237	0x3d0c49af	0.034249958
238	0x3d58e60a	0.052953757
239	0x3d23b35b	0.03996597
240	0xbd806b42	-0.06270458
241	0x3c8cbb32	0.017179105
242	0x3dc2ab1e	0.09505294
243	0xbea89777	-0.32928059
244	0xbd683ac9	-0.056696687
245	0x3d75d597	0.06001815
246	0x3d047be5	0.032344718
247	0xbe82b3f4	-0.25527918
248	0xbd8a50b6	-0.06753676
249	0xbdd35017	-0.1031801
250	0x3dc41bf9	0.09575648
251	0xbea1daaf	-0.31612155
252	0x3d566d43	0.052350294
253	0x3dbeb9e6	0.09312801
254	0xbf9973b0	-1.198843
255	0xbd245ad4	-0.040125683

network_smart.layer3.0.bias f4 [48]
0	0xbdb67a92	-0.08910097
1	0x3bea16d6	0.0071438355
2	0xbdb0356e	-0.08603941
3	0x3d8b6bf9	0.068077035
4	0x3da571ec	0.080783695
5	0xbd2d4303	-0.042300235
6	0xbd020aaf	-0.03174847
7	0x3cfb2cee	0.030661073
8	0xbd4ea692	-0.050451823
9	0x3d98e867	0.07466202
10	0x3d82c6f2	0.06385602
11	0xbea3c713	-0.3198782
12	0xbe7c8a89	-0.24662222
13	0x3dcefb94	0.101065785
14	0xbc9bd5d7	-0.019022865
15	0xbdb80708	-0.08985716
16	0x3b16c088	0.002300294
17	0x3d9e34d1	0.07724918
18	0xbe5a92f5	-0.21345122
19	0xbb210dbc	-0.0024574837
20	0xbdcc23e6	-0.099677846
21	0x3cc91b62	0.02454919
22	0x3d070559	0.032964084
23	0x3c9d479f	0.01919919
24	0x3d808e02	0.06277086
25	0x3b2947a5	0.0025830057
26	0x3d5eaca5	0.054363865
27	0xbd8972b3	-0.0671133
28	0xbc928bff	-0.017889021
29	0xbc823018	-0.015892074
30	0x3da91ffc	0.08258054
31	0x3dd7919b	0.10525819
32	0xbd204ff9	-0.039138768
33	0x3dca3d11	0.09874929
34	0x3dc4f37d	0.09616754
35	0xbcbdc3a2	-0.023164574
36	0xbdac9e52	-0.08428635
37	0x3d63c88a	0.05561117
38	0x3d9ab77a	0.075545266
39	0xbd99c3db	-0.075080596
40	0xbd60b49a	-0.054859735
41	0xbe9a5890	-0.30145693
42	0x3dab7a6a	0.08372958
43	0x3d13d96b	0.036096018
44	0x3d90dcb5	0.070733465
45	0x3d9a89ca	0.075458124
46	0x3b888b19	0.0041669724
47	0xbd90fa40	-0.070789814

fc_smart.weight f4 [64, 48]
0	0xbef3298b	-0.47492632
1	0xbf09be07	-0.53805584
2	0xbf1fd22a	-0.6243006
3	0x3ddb6c23	0.10713985
4	0xbd84a4ca	-0.064767435
5	0x3f13faeb	0.57804745
6	0x3e8d338a	0.27578384
7	0x3d9aa502	0.07551004
8	0x3ca407ab	0.020023188
9	0x3f18951b	0.59602517
10	0x3e5e3a1f	0.21701859
11	0xbe3b0bdd	-0.18266244
12	0xbeae03c0	-0.33987236
13	0xbdcac563	-0.0990093
14	0x3e838bd5	0.2569262
15	0xbe2a600e	-0.16638204
16	0x3ce87585	0.02837635
17	0x3e9abb60	0.3022108
18	0xbd0deba2	-0.034648545
19	0xbdb6c35d	-0.08923981
20	0x3d18a4f5	0.03726669
21	0xbf82f3cb	-1.023065
22	0x3db437fd	0.087997414
23	0xbd9e74b0	-0.077371
24	0xbe09621f	-0.13416336
25	0x3ed9d650	0.4254632
26	0x3f557f0e	0.83396995
27	0x3ec5e89d	0.38654032
28	0x3e8f1d8c	0.2795223
29	0xbf18477b	-0.5948407
30	0xbe5fbe27	-0.21849881
31	0x3f02a355	0.51030475
32	0x3e66b67e	0.22530553
33	0xbde48302	-0.111578
34	0x3f36da0d	0.7142647
35	0x3e898314	0.26857817
36	0xbc993206	-0.01870061
37	0x3ec949b8	0.39314055
38	0x3dec5ae2	0.11540772
39	0xbd0b1072	-0.03395123
40	0xbf7a79ee	-0.978423
41	0xbeb8abcc	-0.3606857
42	0x3e175491	0.14778353
43	0xbf15300b	-0.5827643
44	0xbe0829d3	-0.13297205
45	0xbd812cd2	-0.06307377
46	0x3ec25237	0.3795335
47	0xbd5195dd	-0.05116831
48	0xbee39461	-0.44449142
49	0xbf04b2ef	-0.5183553
50	0xbf18e819	-0.5972915
51	0x3dce7325	0.10080556
52	0xbdf8f44e	-0.121559724
53	0x3f0efe18	0.55856466
54	0x3e8b4e13	0.27208003
55	0x3c42e522	0.01189545
56	0x3e04faec	0.12986344
57	0x3f1019fe	0.5628966
58	0x3e6a2ce4	0.22868687
59	0x3edd8093	0.43262157
60	0x3f2666a4	0.6500037
61	0xbd65d3aa	-0.05611006
62	0x3ead12ce	0.3380341
63	0xbe2f2f48	-0.1710788
64	0x3da39b89	0.0798865
65	0x3e94bb1a	0.29048997
66	0xbb61cddb	-0.0034454975
67	0xbdb9f89c	-0.090806216
68	0xba8688da	-0.0010264174
69	0xbf7e4621	-0.9932576
70	0x3d97f7db	0.074203216
71	0xbda3461d	-0.079723574
72	0xbdc81de9	-0.0977133
73	0x3ecf0d0f	0.4043965
74	0x3f5298c2	0.8226434
75	0x3ec66e4e	0.3875603
76	0x3e95b4fc	0.29239643
77	0xbf0ff77a	-0.56236994
78	0xbe670130	-0.22559047
79	0x3effa0e7	0.49927446
80	0x3e57646d	0.21034403
81	0xbdac888a	-0.0842448
82	0x3f2d1105	0.67604095
83	0x3e775877	0.2415484
84	0xbdc44fa5	-0.095855035
85	0x3ec1a851	0.37823728
86	0x3dd6950c	0.10477647
87	0xbe05dbfc	-0.13072199
88	0xbf79e08c	-0.97608256
89	0xbebb0c6e	-0.3653292
90	0x3dfefb79	0.12450308
91	0xbf174ba2	-0.5909978
92	0xbe191814	-0.14950591
93	0xbd868b96	-0.06569593
94	0x3ea188e6	0.31549758
95	0xbcfabd87	-0.030607952
96	0x3eeef845	0.4667379
97	0x3f173d9d	0.5907839
98	0x3f0a797b	0.54091614
99	0xbdf39ff8	-0.11895746
100	0xbcbda662	-0.023150627
101	0xbf2cb0a2	-0.6745702
102	0xbe8d2aad	-0.27571622
103	0x3d13b97d	0.036065567
104	0xbd61402d	-0.054992843
105	0xbf0f4f99	-0.5598083
106	0xbeaf32ba	-0.3421839
107	0x3e574d07	0.21025477
108	0x3eed96f1	0.46404222
109	0xbdccb20c	-0.09994897
110	0x3d4c68a1	0.04990447
111	0x3e32b946	0.17453489
112	0x3d7358db	0.05941091
113	0xbea9d763	-0.3317214
114	0xbc7cef5f	-0.01543793
115	0xbe2f745c	-0.17134231
116	0x3d0247a9	0.03180662
117	0x3f5e6324	0.86870027
118	0xbcb9604d	-0.022628928
119	0x3e362f44	0.17791468
120	0x3e095011	0.13409449
121	0xbeeb7890	-0.4599042
122	0xbf532739	-0.82481724
123	0xbea771b9	-0.3270395
124	0xbeb01c45	-0.34396568
125	0x3f0f6f40	0.5602913
126	0x3e36ac03	0.17839055
127	0xbedf3736	-0.4359681
128	0xbe62fa0b	-0.22165696
129	0x3e39fd48	0.18163025
130	0xbf40cd47	-0.7531323
131	0xbe97d014	-0.2965094
132	0x3d5ccc23	0.053905617
133	0xbed410c9	-0.41419056
134	0xbd72df7a	-0.059295155
135	0xbdcd0213	-0.10010161
136	0x3f5778f9	0.84168965
137	0x3eb404cd	0.35159913
138	0xbd80d97e	-0.06291483
139	0xbf66470a	-0.89952147
140	0x3e42def9	0.1903037
141	0x3e230a11	0.15921809
142	0xbea9829e	-0.33107466
143	0x3d238a77	0.039926972
144	0xbecb3e74	-0.39696085
145	0xbf4c7d11	-0.79878336
146	0xbea01cbe	-0.3127193
147	0xbe42c6a5	-0.1902109
148	0xbe3d8618	-0.18508184
149	0x3f87c13d	1.0605847
150	0x3e383938	0.17990577
151	0xbdb392f2	-0.08768262
152	0xbe0300f9	-0.1279334
153	0x3f1bccc9	0.6085935
154	0x3eb4262f	0.35185382
155	0x3f378a36	0.7169527
156	0x3f30e9c5	0.69106704
157	0xbd1741db	-0.03692804
158	0xbf9a52c9	-1.2056514
159	0xbe03fd1f	-0.12889527
160	0xbe0b1a64	-0.13584286
161	0x3eb77d67	0.35837862
162	0xbd57500c	-0.052566573
163	0x3f4c58c8	0.7982297
164	0xbd74b92d	-0.05974691
165	0xbf381729	-0.7191034
166	0xbdd057af	-0.10172974
167	0xbea36177	-0.31910297
168	0xbdb57613	-0.088604115
169	0x3f2a5a6d	0.6654423
170	0x3f7b2c45	0.98114425
171	0x3dd24536	0.10267107
172	0x3edd5f63	0.43236837
173	0xbee51e65	-0.44749752
174	0xbdd0fa6e	-0.10204016
175	0x3f003118	0.5007491
176	0x3e93e537	0.28885815
177	0xbdc9fe42	-0.09862949
178	0x3f65f788	0.8983083
179	0x3ee64d2f	0.4498076
180	0x3de8c9df	0.11366629
181	0x3ee27d4b	0.44236216
182	0x3ca45052	0.020057831
183	0xbda1f198	-0.079074085
184	0xbf5f2503	-0.8716585
185	0xbe8fa047	-0.2805197
186	0xbd5ccec2	-0.053908117
187	0x3f5db83b	0.8660924
188	0xbe947050	-0.28991938
189	0xbddd2185	-0.10797409
190	0x3f0eff2b	0.55858105
191	0xbd330501	-0.043705944
192	0x3e9e4641	0.30912974
193	0x3dea4778	0.11439413
194	0x3f0531b4	0.52028966
195	0xbe3e41eb	-0.18579833
196	0xbda52fe2	-0.080657735
197	0x3d4dd7da	0.05025468
198	0xbe65529f	-0.22394799
199	0xbe1349d9	-0.1438364
200	0x3ccc4a7e	0.024937864
201	0xbe9a2258	-0.30104327
202	0xbda04f55	-0.078276314
203	0x3d0b965c	0.03407894
204	0x3e888b62	0.2666884
205	0xbd870dd0	-0.065944314
206	0xbf82f248	-1.0230188
207	0x3dcf40d1	0.101197846
208	0xbd13721f	-0.035997506
209	0xbe167948	-0.14694703
210	0x3dab5d33	0.08367386
211	0x3f155770	0.58336544
212	0xbc8b837f	-0.017030476
213	0x3f34f73a	0.7068974
214	0xbe36988a	-0.17831627
215	0xbdc313d7	-0.095252685
216	0x3e35c90c	0.17752475
217	0xbdaa87b1	-0.08326662
218	0xbeacdf56	-0.33764142
219	0xbece2d36	-0.40268868
220	0xbd7eaa2e	-0.062174015
221	0x3ec53296	0.38515157
222	0x3e179197	0.14801632
223	0xbe6ffe53	-0.2343686
224	0xbdb0c0d4	-0.08630529
225	0x3cfd351a	0.03090911
226	0xbe7f56fd	-0.24935527
227	0xbd1bb461	-0.03801382
228	0x3d722e3e	0.05912613
229	0xbe3c4bd9	-0.18388309
230	0xbddf8822	-0.10914637
231	0x3d845986	0.06462388
232	0x3f179abd	0.59220487
233	0x3e0e25cc	0.13881606
234	0xbe91749e	-0.28409284
235	0x3f5d84aa	0.86530554
236	0xbcd73d35	-0.026274303
237	0x3c8515e0	0.016245782
238	0xbd72c019	-0.05926523
239	0xbc8ba0e1	-0.017044486
240	0xbebf7ddd	-0.37400714
241	0xbf235870	-0.6380682
242	0xbec4c5e8	-0.3843224
243	0xbdcb131e	-0.09915756
244	0xbddfd43c	-0.10929152
245	0x3f4d925d	0.8030146
246	0x3e3c33cc	0.18379134
247	0xbd8397ed	-0.06425462
248	0x3e00068b	0.12502496
249	0x3f09070a	0.53526366
250	0x3ea1d55b	0.3160809
251	0xbeb64154	-0.35596716
252	0xbeeccf0a	-0.46251708
253	0x3ccb782c	0.024837576
254	0xbf0d1cea	-0.55122244
255	0xbe0c5f02	-0.13708118

fc_smart.bias f4 [64]
0	0xbcf2e02f	-0.029647915
1	0x3d2c98fb	0.04213808
2	0x3dddffa0	0.10839772
3	0xbdc9f392	-0.098609105
4	0x3d2edda4	0.04269184
5	0xbd1ba388	-0.037997752
6	0x3d89c268	0.06726533
7	0x3de6e292	0.112736836
8	0x3d6ccfdf	0.05781543
9	0xbb84019a	-0.0040285112
10	0x3bdc27a2	0.006718592
11	0xbdc86038	-0.09783977
12	0x3c3ca4e8	0.011513926
13	0x3daa63be	0.083198056
14	0xbca130b4	-0.019676544
15	0x3cb4d6c0	0.022075057
16	0xbbf511c9	-0.007478927
17	0x3ccfea15	0.025380174
18	0xbcc1225d	-0.023575956
19	0x3d3c68ea	0.04599849
20	0x3d344e49	0.04401997
21	0x3d58a750	0.052893937
22	0x3db6c091	0.08923448
23	0xbd629268	-0.055315405
24	0xbdfbe3f8	-0.12299341
25	0xbcc95060	-0.024574459
26	0x3d804033	0.06262245
27	0x3d23c59c	0.039983377
28	0xbe14e78d	-0.14541455
29	0x3cc68c2e	0.024236765
30	0xbc8f43a6	-0.017488312
31	0x3d56af25	0.052413125
32	0xbca7cb5e	-0.020482715
33	0x3cbb9c7d	0.022901768
34	0x3d4e0f21	0.050307397
35	0x3d0e0dfb	0.0346813
36	0x3ce3d52d	0.027811611
37	0x3d99a9b0	0.075030684
38	0x3d7698e6	0.06020441
39	0xbcf5383b	-0.02993404
40	0x3b702abe	0.003664657
41	0x3d156860	0.036476493
42	0x3c301154	0.010746319
43	0x3da0780e	0.078353986
44	0xbdc8fa64	-0.09813383
45	0xb96e7930	-0.00022742595
46	0x3cc67ee4	0.024230428
47	0xbceefdcf	-0.02917376
48	0xbd2b3441	-0.04179788
49	0xbd8f94a4	-0.07010773
50	0x3c0a40d0	0.008438304
51	0x3d882d2b	0.0664924
52	0xbcbc6869	-0.022999005
53	0x3dc0c17e	0.09411906
54	0x3db3d85b	0.08781501
55	0x3dcc4129	0.09973366
56	0xbc9f860b	-0.019473096
57	0xbd8bb3f1	-0.068214305
58	0x3df2d744	0.11857465
59	0x3d5e167a	0.054220654
60	0x3c10ff69	0.008849957
61	0x3d0cc341	0.034365896
62	0x3dead42b	0.11466249
63	0xbdbcf91b	-0.092272006

network_aging.lstm.weight_ih_l0 f4 [128, 5]
0	0x3da1ffa6	0.07910089
1	0xbcdffab7	-0.02734123
2	0x3e1ff86a	0.15622106
3	0x3e49bc83	0.19700818
4	0x3e12ba3f	0.1432886
5	0x3e1d0eb9	0.15337647
6	0x3a9a8de3	0.0011791553
7	0x3d533f40	0.05157399
8	0x3e437389	0.19087042
9	0xbd7ec4f2	-0.06219954
10	0xbdd19d28	-0.10235053
11	0x3e23976a	0.15975729
12	0x3e0a2f3a	0.13494578
13	0xbd9e51ad	-0.07730422
14	0xbde255af	-0.11051499
15	0x3dd2ab1d	0.102865435
16	0x3d9cf39c	0.07663652
17	0x3dcdfdee	0.10058199
18	0x3e13e465	0.14442594
19	0xbd5b0b17	-0.053477373
20	0x3c28c15b	0.010300006
21	0x3dd740d5	0.105104126
22	0x3bbc600d	0.005748755
23	0x3cbdfa34	0.023190595
24	0xbb8c7963	-0.0042869314
25	0x3e46c212	0.1940997
26	0xbd095c3a	-0.03353522
27	0x3dd8cb75	0.10585681
28	0xbd9f68ba	-0.07783647
29	0xbd88d8ea	-0.06681998
30	0xbd7e49a4	-0.062081948
31	0x3d9565f0	0.07294834
32	0xbcf94b65	-0.030431459
33	0x3e258546	0.16164121
34	0x3e259748	0.1617099
35	0x3c5642f4	0.013077486
36	0x3c2971ff	0.01034212
37	0x3e33b91c	0.17551082
38	0x3d4a5661	0.049398784
39	0xbd03f0cf	-0.032212075
40	0xbce6eef2	-0.02819011
41	0xbd6a98a5	-0.05727448
42	0xbb846ced	-0.0040413053
43	0xbde46459	-0.11151952
44	0x3d21508b	0.039383452
45	0x3e0c4128	0.1369673
46	0xbde2d8c8	-0.11076504
47	0x3e24d591	0.16097094
48	0xbe0f2c21	-0.13981678
49	0x3e11c1a8	0.1423403
50	0x3e395cf1	0.1810186
51	0xbd3a2f99	-0.04545555
52	0x3cea2387	0.028581394
53	0x3e3993f9	0.18122853
54	0xbe1457fa	-0.14486685
55	0xbd81c764	-0.06336859
56	0xbbcb1877	-0.006197985
57	0x3d9704e1	0.073739775
58	0xbd1a0668	-0.037603766
59	0xbe1cc1bf	-0.15308283
60	0x3e0826f1	0.13296105
61	0xbc1dd680	-0.00963366
62	0xbccf5c49	-0.02531256
63	0xbdcd66f0	-0.100293994
64	0xbd3c0dbb	-0.045911532
65	0x3c351ae0	0.011053771
66	0xbdeca953	-0.115557335
67	0x3d16ccc2	0.036816366
68	0x3dc9498e	0.098284826
69	0x3ce9d152	0.028542195
70	0xbcb6e027	-0.022323681
71	0x3dd78a03	0.105243705
72	0xbc206dff	-0.00979185
73	0x3e28521a	0.1643757
74	0x3de574ad	0.11203895
75	0xbd90dda8	-0.070735276
76	0x3e53363f	0.20626162
77	0x3c5b4e1e	0.013385324
78	0x3d9b86a4	0.0759404
79	0xbdd98397	-0.10620802
80	0xbe06e98b	-0.13175027
81	0x3de911c8	0.11380345
82	0x3d711fc4	0.058868185
83	0x3e35d0c4	0.17755419
84	0x3e250fcd	0.16119309
85	0x3e56c3d0	0.20973134
86	0xbdb669fb	-0.08906933
87	0xbcb776ec	-0.022395574
88	0x3d344478	0.04401061
89	0x3e0c7bb1	0.1371906
90	0x3dd1698d	0.1022521
91	0xbd0ea364	-0.03482379
92	0x3e12e7a7	0.14346181
93	0x3dc50e33	0.09621849
94	0xbccfc6bc	-0.025363319
95	0x3bbf2295	0.00583298
96	0x3cabe21d	0.020981843
97	0xbdaa432d	-0.08313594
98	0x3e32aac1	0.1744795
99	0x3d11e2a8	0.035616547
100	0x3d41871d	0.047247995
101	0xbd3aaa92	-0.045572825
102	0x3d5d4177	0.05401751
103	0xbe0e9ddb	-0.13927405
104	0x3e1a55cc	0.15071791
105	0x3e0b40ce	0.1359894
106	0xbdc2e43a	-0.09516187
107	0x3e111936	0.14169773
108	0x3d54e6b5	0.051977832
109	0xbd504a1c	-0.050851926
110	0xbcca57b6	-0.024700027
111	0x3e33482b	0.17507999
112	0xbcfaf2f1	-0.030633422
113	0x3d80073d	0.062513806
114	0xbe1b58d9	-0.15170611
115	0x3d74656f	0.059667047
116	0xbe13a811	-0.14419581
117	0x3e0a365e	0.13497302
118	0x3c92cf3a	0.017921079
119	0xbd0ede32	-0.03487987
120	0x3e0d0cc2	0.13774398
121	0xbdfabfdc	-0.122436255
122	0x3d62a85f	0.055336352
123	0xbd3324ff	-0.043736454
124	0xbe18b58b	-0.14913003
125	0xbd59bc58	-0.053158134
126	0xbce57371	-0.028009148
127	0x3df88ccf	0.12136232
128	0xbdb67180	-0.08908367
129	0xbc11639e	-0.008873848
130	0x3d82f7b1	0.063949
131	0x3e2090df	0.15680264
132	0xbd971b8a	-0.073782995
133	0xbe16370f	-0.1466944
134	0xbe06ebc1	-0.1317587
135	0x3df000f4	0.11718932
136	0x3e180e8a	0.14849296
137	0x3de07a14	0.109607846
138	0x3d2dacd5	0.042401154
139	0xbe19b9ca	-0.15012279
140	0x3e515859	0.20443858
141	0xbd8b784c	-0.06810054
142	0x3dc2f222	0.095188394
143	0xbda81ab8	-0.08208221
144	0xbdc205e1	-0.094737776
145	0x3e0119e2	0.1260753
146	0x3cdca6c2	0.026934985
147	0xbe047513	-0.12935285
148	0x3e16bbec	0.14720124
149	0xbe168452	-0.14698914
150	0x3e150ed9	0.14556445
151	0xbd4f6062	-0.050629027
152	0x3e2c36ae	0.16817734
153	0x3dcde2d7	0.10053032
154	0x3e3ae597	0.18251644
155	0x3d8c7e2c	0.06860003
156	0x3e4f7350	0.20258832
157	0xbd501e2d	-0.050810028
158	0x3e09df3e	0.13464066
159	0x3e0edf90	0.1395247
160	0x3dd6f667	0.10496216
161	0xbcbc1426	-0.022958826
162	0x3e2ec3b9	0.1706685
163	0xbddac29e	-0.106816515
164	0xbe1f1b07	-0.15537654
165	0xbd5eb2aa	-0.054369606
166	0xbbc0e088	-0.005886141
167	0xbc71a4c3	-0.014748755
168	0xbdf46f86	-0.11935334
169	0x3d53bfc5	0.051696558
170	0x3e3f3d2e	0.18675682
171	0x3e6c986d	0.23105021
172	0x3e4e6dfc	0.20159143
173	0x3da95a8f	0.08269226
174	0x3e4c7f30	0.19970393
175	0x3e44eea2	0.19231656
176	0x3e52470d	0.20534916
177	0x3cdf5ad4	0.02726499
178	0xbdacb099	-0.08432121
179	0xbd82da43	-0.06389286
180	0x3e62fbfb	0.22166435
181	0x3a9b5fee	0.0011854151
182	0x3d78071f	0.060553666
183	0x3d9172d2	0.07101978
184	0xbda98f03	-0.082792304
185	0x3d5305cd	0.051519204
186	0x3e0bc21d	0.13648267
187	0x3df9c923	0.12196567
188	0x3dd6a2ce	0.10480271
189	0xbd95f0a3	-0.073212884
190	0x3e082fec	0.1329953
191	0x3d4dd8f9	0.05025575
192	0xbddeba50	-0.1087538
193	0x3e2d72a2	0.1693826
194	0x3b359e89	0.0027712903
195	0x3e0dec1c	0.138596
196	0x3c1cafc2	0.009563388
197	0x3d0319c3	0.03200699
198	0x3c40e6d6	0.011773786
199	0x3de87eec	0.113523334
200	0xbd9f566b	-0.07780155
201	0x3e321be2	0.17393449
202	0xbc9b4523	-0.018953865
203	0xbd6e0933	-0.05811424
204	0xbe26043d	-0.16212554
205	0xbd8abd8e	-0.06774436
206	0x3e0f7229	0.14008392
207	0x3dd3bf26	0.10339193
208	0xbc91004b	-0.017700335
209	0x3e1c8103	0.15283589
210	0x3e2dbed5	0.16967328
211	0xbced7457	-0.02898614
212	0x3e1d8466	0.15382537
213	0xbde21baf	-0.110404365
214	0x3d8e6984	0.06953719
215	0x3e11ca8d	0.14237423
216	0x3cd9829d	0.02655154
217	0x3e71a9f1	0.23599984
218	0xbdeb810e	-0.114992246
219	0xbe21577a	-0.15756026
220	0x3caff7c1	0.021480443
221	0x3dbb5299	0.09146614
222	0x3e050a79	0.12992276
223	0x3bb6061e	0.0055549284
224	0x3e2c8106	0.16846094
225	0xbd9bdabd	-0.076100804
226	0xbd587915	-0.052849848
227	0x3d79683e	0.06089043
228	0x3b83bed0	0.0040205494
229	0xbd126a7d	-0.035746086
230	0xbc4f3cdb	-0.012648786
231	0xbc280191	-0.01025428
232	0xbc6e3b63	-0.014540526
233	0x3e5ca1fc	0.21546167
234	0xbd173d13	-0.03692348
235	0xbb7094b6	-0.0036709732
236	0xbcb95f04	-0.022628315
237	0xbcd35971	-0.025799485
238	0xbd2686b4	-0.040655807
239	0x3ccbde93	0.024886405
240	0x3e5789f2	0.21048716
241	0x3d1b3f56	0.0379022
242	0xbdcf2c74	-0.10115901
243	0x3ded2a2a	0.11580308
244	0x3e21fcfb	0.1581916
245	0x3c7fe557	0.015618644
246	0xbd6f989b	-0.058495145
247	0xbdfd601b	-0.12371846
248	0x3dee680b	0.11640938
249	0xbda3f2bc	-0.08005282
250	0x3d323498	0.04350719
251	0xbd424af4	-0.047434762
252	0x3d4ad472	0.04951901
253	0x3e3f75c1	0.18697263
254	0xbe105ef2	-0.14098719
255	0x3b7fa96a	0.003901089

network_aging.lstm.weight_hh_l0 f4 [128, 32]
0	0xbde720e0	-0.11285567
1	0xbe6c1fa0	-0.23058939
2	0xbe69f018	-0.22845495
3	0xbd1e7f2f	-0.03869551
4	0x3ddea901	0.10872079
5	0x3db9aca5	0.090661325
6	0x3cff5e84	0.031172998
7	0x3da56f2b	0.08077844
8	0xbe196144	-0.1497851
9	0x3dbe094d	0.09279118
10	0x3e0f25b7	0.13979231
11	0x3e5a9ca8	0.21348822
12	0x3dcce204	0.100040466
13	0xbdf8870f	-0.121351354
14	0xbd3d8997	-0.046273794
15	0xbdb99bc2	-0.090629116
16	0xbdca28c8	-0.0987106
17	0x3e4cae27	0.19988309
18	0xbdc2daa1	-0.095143564
19	0xbdea40b4	-0.114381224
20	0x3d9c35ae	0.07627426
21	0x3d29ef97	0.041488256
22	0x3dbe6b74	0.09297839
23	0xbd9e219d	-0.07721255
24	0x3cdd1cc7	0.026991261
25	0xbca7d1fe	-0.020485874
26	0x3deb7704	0.1149731
27	0xbb9cb031	-0.004781746
28	0xbcd17a4d	-0.025571013
29	0xbc868016	-0.016418498
30	0xba7e6c90	-0.0009705508
31	0x3e2485cb	0.16066663
32	0xbe50d85e	-0.20395038
33	0xbe16f4ba	-0.14741793
34	0xbdd3fdfd	-0.10351179
35	0x3d9a7dd8	0.07543534
36	0xbdd3b7fd	-0.10337827
37	0xbc5400e8	-0.012939669
38	0x3e61d68e	0.22054502
39	0x3d2a42d4	0.04156764
40	0x3dcc53bc	0.099769086
41	0x3e3e3a2e	0.18576881
42	0x3e1547e0	0.145782
43	0x3e1ab707	0.15108882
44	0xbc284227	-0.010269678
45	0xbe586a63	-0.21134333
46	0xbe612518	-0.21986806
47	0x3e12a785	0.14321716
48	0x3deea1d4	0.1165196
49	0x3dcf3580	0.10117626
50	0xbd1ea76f	-0.038733896
51	0x3b04a3d8	0.002023926
52	0xbe65053e	-0.22365281
53	0x3dc0ad44	0.09408048
54	0x3cbad5c5	0.022807011
55	0xbdf8474d	-0.121229745
56	0xbddb1dc5	-0.106990375
57	0x3dfa169e	0.12211345
58	0x3cd7be22	0.02633578
59	0xbbf83dc0	-0.0075757205
60	0xbd9375fb	-0.07200237
61	0x3d3f29d7	0.04667076
62	0xbd282bb8	-0.04105732
63	0x3d35e843	0.044410955
64	0xbd08444e	-0.033268265
65	0xbdbcc645	-0.092175044
66	0x3cb17ae1	0.021665039
67	0xbbd83116	-0.0065976484
68	0xbdc592f6	-0.09647171
69	0x3db8d631	0.09025229
70	0x3e60fd68	0.21971667
71	0xbe73ad91	-0.23796679
72	0xbd010138	-0.031495303
73	0xbdc951a4	-0.09830025
74	0xbbdf647c	-0.0068173986
75	0x3e595c41	0.21226598
76	0xbe33c3ea	-0.17555204
77	0xbe072687	-0.13198291
78	0x3d7ed8a7	0.062218335
79	0xbdc9508d	-0.09829817
80	0x3e2eecba	0.17082492
81	0x3e2354d0	0.15950322
82	0x3cca621a	0.024704982
83	0x3e43a6ca	0.19106594
84	0x3dbfb419	0.09360523
85	0x3e1c4844	0.15261942
86	0xbd08cd03	-0.03339864
87	0x3e78be47	0.24291335
88	0xbe42050d	-0.18947239
89	0x3dd66645	0.10468725
90	0xbd12adc1	-0.035810236
91	0x3d3ecf4a	0.046584405
92	0x3d2cf330	0.04222411
93	0xbdadddd0	-0.08489573
94	0x3d5e4d3e	0.054272883
95	0x3d91356e	0.07090269
96	0x3cc525d1	0.024065884
97	0xbe469c71	-0.19395615
98	0xbe8309cd	-0.25593415
99	0xbe242bf2	-0.16032389
100	0xbe26932c	-0.16267079
101	0xbdbcdc01	-0.0922165
102	0x3d969dc8	0.07354313
103	0x3dc63d43	0.096796535
104	0x3d3082c9	0.043093476
105	0x3e66156e	0.22469112
106	0xbde00e35	-0.1094021
107	0x3e65ee19	0.22454108
108	0x3d91b208	0.07114035
109	0xbcc97b1b	-0.024594834
110	0x3da957c8	0.08268696
111	0x3e459af7	0.19297396
112	0x3e025e04	0.12731177
113	0x3bed40fd	0.007240413
114	0xbd087087	-0.03331044
115	0xbce1f140	-0.027580857
116	0xbd0c8452	-0.034305878
117	0x3c9f3801	0.019435884
118	0xbdcae2d6	-0.09906547
119	0xbd7a4522	-0.061101086
120	0xbe272c92	-0.16325596
121	0x3d69519d	0.056962598
122	0xbd952de2	-0.07284142
123	0xbdc81a25	-0.09770612
124	0x3cdcef6f	0.02696964
125	0x3e2e5de0	0.17027998
126	0x3e3a0131	0.18164517
127	0x3d21eda9	0.03953329
128	0xbdf3d88f	-0.1190654
129	0xbe7a6331	-0.24451901
130	0x3d737aec	0.0594434
131	0x3d8e2941	0.06941462
132	0x3d5567e0	0.052101016
133	0xbcb7f8ca	-0.022457499
134	0x3d964018	0.07336444
135	0xbd8b07c2	-0.06788589
136	0xbc7cc357	-0.015427432
137	0x3e7dd92d	0.24789877
138	0xbd4db697	-0.05022296
139	0xbd412a45	-0.047159452
140	0xbc689066	-0.0141945835
141	0xbdc93cd8	-0.09826058
142	0xbde0d302	-0.109777465
143	0xbd7ee5b6	-0.06223079
144	0xbd8cafd0	-0.06869471
145	0x3cd8a94a	0.02644791
146	0x3c974e47	0.018469943
147	0xbda1c5df	-0.07899069
148	0xbdf08af1	-0.11745251
149	0xbdea9d3c	-0.11455771
150	0x3e6ff57e	0.23433492
151	0x3c610e0d	0.01373626
152	0xbd3be856	-0.04587587
153	0xbd66c9ae	-0.05634468
154	0xbcee17c1	-0.029064061
155	0xbe8b1de1	-0.27171233
156	0x3d750044	0.059814706
157	0x3e273429	0.16328491
158	0x3c01064c	0.007875036
159	0x3e3aec66	0.18254241
160	0xbdd6faa9	-0.104970284
161	0xbb4b98c3	-0.0031066395
162	0x3d7c398c	0.06157832
163	0xbdb0e777	-0.086378984
164	0xbe643cdb	-0.2228884
165	0x3da19b54	0.078909546
166	0x3e6c7aa1	0.23093654
167	0x3db2b2d1	0.08725513
168	0xbe27da2a	-0.16391817
169	0x3d8e8eb0	0.06960809
170	0x3e0a16e4	0.13485295
171	0x3d0f095c	0.034921035
172	0x3c14a8c3	0.009073439
173	0xbe21e78d	-0.15810986
174	0xbdb21471	-0.08695305
175	0xbce41eab	-0.027846655
176	0xbd84f69c	-0.064923495
177	0x3e2cf120	0.16888857
178	0xbd59f1dc	-0.05320917
179	0xbdd0e149	-0.1019922
180	0x3da06bdd	0.07833073
181	0x3d9341a2	0.07190253
182	0xbde5a7b8	-0.112136304
183	0x3e3e5ce8	0.18590128
184	0xbe5adc6b	-0.21373145
185	0xbe5f2a04	-0.21793371
186	0xbdd29b7a	-0.10283561
187	0xbe310f9c	-0.17291111
188	0x3d0f1a7f	0.034937378
189	0x3e09c4d2	0.13453987
190	0xbdbb3035	-0.09140054
191	0x3e3ee7c6	0.18643102
192	0xbe378fe9	-0.17925991
193	0x3cbfeac2	0.023427371
194	0x3dda0a30	0.10646474
195	0xbd26306d	-0.040573526
196	0xbdaed333	-0.08536377
197	0x3ddd92ad	0.10818992
198	0x3df752ef	0.12076365
199	0xbd9dc9d2	-0.0770451
200	0xbd736e8b	-0.059431594
201	0x3cafbdd5	0.021452824
202	0x3d8a9391	0.06766427
203	0x3e6404ac	0.22267407
204	0xbdb58145	-0.08862547
205	0xbdb5438c	-0.08850774
206	0xbe683f1b	-0.22680323
207	0x3e41ef5f	0.18938969
208	0xbd2d63eb	-0.042331617
209	0xbdaf9dfa	-0.085750535
210	0x3d2d7849	0.04235104
211	0xbd10ba54	-0.035333946
212	0xbda80184	-0.08203414
213	0x3e4f8ee3	0.2026935
214	0x3e0ce6d5	0.1375993
215	0x3e0209ed	0.12699099
216	0x3cb7d375	0.022439698
217	0x3d9bd2b2	0.07608546
218	0xbd249864	-0.040184394
219	0xbe5c7ef9	-0.21532811
220	0xbbc35af3	-0.0059617697
221	0xbd8fda4c	-0.07024059
222	0xbce24564	-0.027620979
223	0x3d8ca717	0.06867807
224	0x3d0c948d	0.034321357
225	0xbe6e910a	-0.23297516
226	0xbe129ff6	-0.14318833
227	0xbe17943b	-0.14802639
228	0x3ac12058	0.0014734371
229	0x3e419715	0.1890529
230	0xbd9d9387	-0.07694154
231	0xbe50b81c	-0.20382732
232	0xbe69ea86	-0.2284337
233	0x3ded8a09	0.11598594
234	0x3dde6ea4	0.10860947
235	0x3e4b6df4	0.19866163
236	0x3d3e42af	0.046450313
237	0xbc99c7cc	-0.018772028
238	0xbde54779	-0.11195273
239	0xbd952cd8	-0.07283944
240	0x3e2d1b99	0.16905059
241	0x3d3c1e75	0.045927484
242	0xbb5b52c4	-0.003346608
243	0xbe35153a	-0.17683879
244	0x3ceae0ed	0.028671706
245	0x3e179e6a	0.14806524
246	0x3da767c6	0.0817409
247	0x3b865949	0.004099999
248	0xbd068ee2	-0.032851107
249	0xbdf7d5e1	-0.12101341
250	0x3d970a57	0.07375019
251	0xbd23c204	-0.03997995
252	0x3ddf1da1	0.10894323
253	0xbc2ce1e1	-0.010551901
254	0x3e22fcea	0.15916792
255	0xbdaf9006	-0.08572392
