trained_model/mc1_mc2/45_days_lookahead/pnet_checkpoint/pnet_2850.pth (torch, 545278 bytes, 36 tensors)

network_smart.layer1.0.weight f4 [128, 330]
000000 81 50 33 3d 53 c4 e9 be 9e bb 01 bf f3 ee 80 3c
       0.043777946 -0.45657596 -0.50676906 0.01573894
000010 7d c5 3a 40 74 ae 15 3f 3f 29 4e bf cf 12 a5 3e
       2.9183037 0.5846932 -0.80531687 0.32240912
000020 ce de 05 3e f5 17 3e 40 fe 34 81 bf de d7 b7 3b
       0.13073274 2.9702122 -1.0094297 0.00561045
000030 c7 35 dc be eb 50 0e bf 14 ed 45 3d bc ee 40 40
       -0.4300978 -0.5559222 0.0483218 3.0145712
000040 44 f2 15 3f 0a 6a 50 bf 55 6b 8c 3e a7 6c 5e 3d
       0.58572793 -0.814118 0.27425638 0.054302838
000050 ca 8e 3d 40 72 75 8b bf b4 4c 10 3d 62 cb ad be
       2.9618402 -1.0895216 0.0352294 -0.3394423
000060 0b 2a 03 bf 5c 9b ac 3c 30 a6 40 40 ff 1d 12 3f
       -0.5123603 0.021070175 3.0101433 0.5707702
000070 c2 ec 4c bf e2 b7 87 3e 7a 8e c0 bc 03 1c 3d 40
       -0.80048764 0.2650748 -0.023505438 2.9548347
000080 de 24 83 bf f5 0e e8 3c 26 49 ad be 08 0a d6 be
       -1.0245626 0.028327445 -0.3384487 -0.41804528
000090 53 da a0 3d 93 4f 3c 40 b2 4a 22 3f 14 81 44 bf
       0.07854142 2.9423568 0.63395226 -0.7675946
0000a0 11 9b a4 3e ea b0 46 bd ec 75 3e 40 5d 0d 8a bf
       0.32149556 -0.048508562 2.9759474 -1.0785328
0000b0 9e 6a 90 bc 31 10 c1 be 15 5b 93 be b9 dd af 3d
       -0.017628964 -0.37707666 -0.28780428 0.08587212
0000c0 dd 6e 41 40 d5 b6 20 3f 4c aa 49 bf 50 72 97 3e
       3.0223916 0.6277898 -0.7877548 0.295794
0000d0 a4 93 13 3e 13 f6 3f 40 a5 bb 7d bf fe d7 8a 3d
       0.14411789 2.9993942 -0.9911445 0.067794785
0000e0 50 d0 b4 be 7f bb 5c be 67 9f 6b 3d 1e 63 40 40
       -0.3531518 -0.21555899 0.057525065 3.0060496
0000f0 7f f8 16 3f dc 60 57 bf f5 df 98 3e 7b 71 3c 3e
       0.58972925 -0.8413217 0.29858366 0.18402664
000100 2f 87 3c 40 3e 90 58 bf 32 b4 64 3d b2 9e a0 be
       2.945751 -0.84595096 0.05583591 -0.31371075
000110 4f 25 50 3d eb d5 4d 3e ec ee 39 40 be 55 2a 3f
       0.05081683 0.20101134 2.9052076 0.6653708
000120 4d 89 56 bf 77 c0 70 3e 02 0a 1e 3e ba 2c 3a 40
       -0.83803254 0.2351092 0.15433505 2.90898
000130 c2 ef 4b bf 5a 13 98 bc 4d 68 b8 be 44 43 d1 3c
       -0.79662716 -0.018563915 -0.36017075 0.02554477
000140 3c 36 4b 3e 39 79 16 40 2a dd 1d 3f da ee 49 bf
       0.19844908 2.3511488 0.61665595 -0.78880084
000150 01 5c 88 3e 1e ee 3e 3e bb e4 18 40 02 a2 8e bf
       0.26632693 0.18645522 2.3889606 -1.1143191
000160 0d bc 62 3d c7 8d 94 be cd ab 40 3d 1b 57 3a 3e
       0.05535512 -0.29014418 0.047038842 0.1819729
000170 dc 78 17 40 be 3f 2a 3f 95 54 5b bf 03 de 9a 3e
       2.3667517 0.6650351 -0.85675937 0.30247506
000180 45 1c 70 3e 38 02 17 40 cd 22 8e bf 8b 09 ba 3c
       0.23448284 2.3595104 -1.110437 0.022709629
000190 ab ba 91 be ea 71 df 3d fd b4 6a 3e ed 7d 1d 40
       -0.2846273 0.10910399 0.22920604 2.460811
0001a0 32 d0 1f 3f 91 9e 54 bf 49 58 af 3e c9 00 73 3e
       0.62427056 -0.83054453 0.34247044 0.23730768
0001b0 ac f9 1a 40 f8 92 87 bf e3 27 3f 3d c1 35 91 be
       2.4214888 -1.0591726 0.0466689 -0.28361323
0001c0 c0 37 41 bd b1 72 38 3e af 4e 21 40 21 6e 26 3f
       -0.047172308 0.18012501 2.5204275 0.65011793
0001d0 64 cb 4c bf 3f 06 dd 3e 5d 82 64 3e 4a 21 20 40
       -0.7999785 0.43168828 0.22315355 2.5020318
0001e0 a7 83 83 bf 54 da 8c 3d 4c 1e a7 be 1e 60 c2 bc
       -1.0274552 0.0687758 -0.32640302 -0.023727473
0001f0 53 57 8a 3e ad c6 24 40 e5 ad 23 3f a4 85 53 bf
       0.27019748 2.5746262 0.63937217 -0.82625794
000200 5a 29 ca 3e b3 4a a4 3d 72 16 22 40 2e b5 8c bf
       0.39484674 0.0802206 2.53262 -1.0992792
000210 7f 5d 8a 3d 10 03 97 be 45 d2 d2 bc 28 58 6e 3e
       0.06756114 -0.29494524 -0.02573503 0.23275816
000220 88 65 25 40 21 ab 37 3f be b4 53 bf fa f6 c6 3e
       2.584322 0.71745497 -0.82697666 0.38860303
000230 e3 57 94 3d 05 be 21 40 6f 53 8c bf 76 1c fe bb
       0.072433256 2.5272229 -1.0962962 -0.0077548577
000240 a9 a4 60 be 3d 9a ab 3c 8d 4f 66 3e ed 07 26 40
       -0.21937813 0.02094757 0.22491284 2.5942338
000250 81 79 33 3f 0c db 4b bf f7 5e be 3e b2 83 76 3e
       0.70107275 -0.79631114 0.37181827 0.24073675
000260 b6 80 26 40 cd 82 85 bf db 49 6c bc 23 de 6f be
       2.601606 -1.0430542 -0.014421905 -0.23424582
000270 2b b5 e6 bd 9b 57 19 3e 0c 7c 20 40 16 15 37 3f
       -0.11265024 0.14974825 2.5075712 0.7151655
000280 ae e9 45 bf e3 14 d7 3e e3 66 ac 3e 2b e7 23 40
       -0.7730969 0.42008123 0.33672246 2.5609844
000290 19 14 83 bf 92 37 2d 3d 13 e6 36 be 10 8a 57 3e
       -1.0240508 0.042289324 -0.17861204 0.2104876
0002a0 f7 16 4e 3e fa 09 27 40 40 d6 29 3f 4a cd 5b bf
       0.20125948 2.609984 0.66342545 -0.8586012
0002b0 df be e1 3e 37 20 8c 3e 75 d9 29 40 a3 a8 80 bf
       0.44090936 0.27368328 2.6538975 -1.0051464
0002c0 ad 1b 61 3d a2 15 d0 bd f2 ec 64 3e 2d 9e 4d 3e
       0.054958034 -0.10160376 0.22356012 0.2007987
0002d0 39 3c 24 40 0d 60 44 3f ca 13 57 bf f3 9b ff 3e
       2.5661757 0.7670906 -0.8401457 0.49923667
0002e0 ac 87 06 3e c4 ae 22 40 57 94 82 bf 57 23 0f 3c
       0.13137692 2.5419168 -1.020152 0.008736453
0002f0 85 11 db bd f9 83 06 3e 4e a2 6a 3e 0f b1 27 40
       -0.10696701 0.13136281 0.22913477 2.6201818
000300 42 cf 33 3f df 88 5a bf 96 66 b8 3e 58 ad 6a 3e
       0.70238125 -0.853651 0.36015767 0.22917688
000310 a8 8a 26 40 83 69 3f bf 25 a1 3d 3c 53 63 8f bd
       2.602213 -0.74770373 0.011574064 -0.070013665
000320 79 27 87 3e 3a 27 35 3e 41 fd 28 40 c3 99 2f 3f
       0.26397303 0.17690745 2.6404574 0.68593997
000330 f2 5d 4e bf 91 db 97 3e ee 14 25 3e 6d b9 27 40
       -0.806121 0.29659703 0.16121265 2.6206925
000340 f8 9e 34 bf d1 2c 7d 3d ef fd 75 bd 27 ef a4 3e
       -0.7055507 0.06181032 -0.060056623 0.3221371
000350 9e 41 43 3e 53 99 1e 40 6d b8 42 3f ac 49 46 bf
       0.19068 2.4781082 0.7606266 -0.77456164
000360 87 df 89 3e e2 fe 78 3e 62 d4 1d 40 ff c0 bb bd
       0.2692835 0.2431598 2.4660878 -0.091676705
000370 ad fb 2c 3d c0 7f dc bd 3b 35 59 3e f7 ea f5 3d
       0.042232204 -0.10766554 0.21211712 0.120077066
000380 64 87 21 40 c9 24 3f 3f b4 1b 52 bf b4 87 95 3e
       2.5238886 0.74665505 -0.8207352 0.29205096
000390 d5 44 43 3e 5a 59 20 40 32 87 5a bd 9a 82 1a bc
       0.19069226 2.5054536 -0.05335159 -0.009430552
0003a0 33 0c 2d ba 3f 0b a5 3e 5c bb 23 3e 9f 61 20 40
       -0.0006601244 0.32235143 0.1598944 2.5059583
0003b0 1c a9 40 3f 6d 24 56 bf 9f 10 be 3e e2 f7 84 3e
       0.7525804 -0.8364933 0.37122056 0.2597037
0003c0 e1 24 1e 40 a6 b3 ea bd 56 3e 77 3c 87 91 69 bd
       2.471001 -0.114600465 0.015090546 -0.05702355
0003d0 31 1e cd 3e db 7f 12 3e dc d2 24 40 29 ac 45 3f
       0.40062097 0.14306585 2.5753698 0.7721582
0003e0 f6 15 47 bf 81 0f 8e 3e b8 f4 c7 3d 44 e5 23 40
       -0.77767885 0.27746204 0.09763473 2.5608683
0003f0 c7 2b c8 bd d1 c1 68 bd f9 63 89 3c 81 f4 9a 3e
       -0.09773975 -0.056825463 0.016771303 0.30264667

network_smart.layer1.0.bias f4 [128]
000000 6f f2 c8 be 69 e4 00 3e fe 32 2e 3e 97 1f d4 3c
       -0.39247462 0.12587132 0.1701164 0.02589397
000010 e5 73 fa bc e8 fe ef be a5 7b 78 bb 68 4a 1a 3d
       -0.030572841 -0.46874166 -0.0037915495 0.037668616
000020 de 54 d0 3d 3c 85 b6 bc c5 d9 bd bd 15 de c8 bb
       0.10172437 -0.022280328 -0.09270052 -0.00612999
000030 d2 8d be 3d df d5 68 3d 6d 09 e7 3c 8f 7f 6a 3d
       0.09304394 0.05684459 0.028202737 0.057250556
000040 3b 0e de be 47 1f 8a 3d 6c 19 60 3d 6a a6 36 3d
       -0.43370232 0.06744247 0.054711744 0.0445923
000050 0f c3 38 3c 07 1a ad 3d a6 4b 40 bd d8 ae 05 3e
       0.011276974 0.0845223 -0.046947144 0.13054979
000060 0f bf 2b 3e d6 bb 19 3d 4d ca 30 3e e2 0b 4f bd
       0.16772102 0.03753265 0.17264672 -0.05054844
000070 2e d1 19 bd 1f bf 6b 3c 60 38 7f be a9 e6 ad 3d
       -0.037553005 0.014388829 -0.24923849 0.084912606
000080 98 a3 83 bd 08 b1 34 be 78 12 5b bd 5c f7 88 3d
       -0.064276874 -0.17645657 -0.05348441 0.06687805
000090 e0 80 28 3d 46 0e 21 3e 45 d6 0e bd 05 a4 7b 3d
       0.04113853 0.15728101 -0.034872312 0.061435718
0000a0 07 ff 67 bd ff ad 80 3d ce 89 0e 3e 2b f3 6a bc
       -0.056639697 0.06283187 0.13919756 -0.014340202
0000b0 4a fe fe 3d be 93 f6 3d ea 22 89 bd 42 fd 1a 3e
       0.124508455 0.12039898 -0.066961125 0.15135673
0000c0 d6 c8 fd 3d c8 e6 06 3d b0 90 a5 bd 1f 61 8d 3d
       0.12391822 0.032934934 -0.080842376 0.0690329
0000d0 11 e5 98 3d 27 32 0a 3e da 17 a9 bd 80 8d 33 be
       0.07465566 0.13495694 -0.082565024 -0.17534447
0000e0 02 19 76 3d d1 cb fb 3b 25 fa bc bc 63 fb 21 3d
       0.060082443 0.007684209 -0.023068497 0.03954638
0000f0 76 6d 44 bd ef ec 79 be c3 28 15 be 60 ca d7 3b
       -0.047955953 -0.24406789 -0.1456633 0.0065854043
000100 e4 00 cc bd a8 22 0c 3e e0 f2 cd 3d aa e6 05 be
       -0.099611074 0.13685095 0.1005609 -0.13076273
000110 29 08 6e 3d 67 d9 15 bd 96 e5 9a bd cd 6d 12 3e
       0.05811325 -0.036584284 -0.07563321 0.14299698
000120 6c 0a e3 3d 11 7d eb 3d 54 ee 4f 3e 6d ad 17 3e
       0.11085972 0.11498464 0.20305759 0.1481225
000130 74 f6 10 bd 19 e7 76 3d cb 90 bb bd 66 13 42 3e
       -0.035391286 0.060278986 -0.091584764 0.18952712
000140 bb 31 c4 3d b9 b0 84 3c c6 49 51 3e 42 45 09 be
       0.09579798 0.01619755 0.20438299 -0.13405326
000150 48 49 22 3e 09 ba ff bd 1b a1 da 3b d4 15 9d bd
       0.15848267 -0.12486655 0.0066720373 -0.07670179
000160 42 f8 c4 3b cc d5 9f ba 18 8c cc 3d cd b6 0a be
       0.00601104 -0.0012194454 0.09987658 -0.13546295
000170 06 4b 7f 3e 67 72 8a 3d f7 b0 c5 bc e7 b4 68 bd
       0.24930963 0.06760102 -0.024132235 -0.056813147
000180 97 db 4b bd 04 5a 9d be 32 b3 24 bd df 00 f4 3d
       -0.049769964 -0.3073274 -0.040209956 0.11914229
000190 49 2a 85 be 32 0d db 3c c3 44 42 3e e8 d8 43 3b
       -0.26008824 0.02673969 0.18971543 0.0029883925
0001a0 35 50 9e be 5c 75 3d 3e 4c c1 41 bb 7d c0 c1 bd
       -0.30920568 0.185018 -0.0029564677 -0.09460542
0001b0 9c 91 02 be fc 4e f9 bb b6 4d e2 bb 91 94 96 3d
       -0.12750858 -0.0076082926 -0.0069062365 0.073525555
0001c0 d9 e4 1b bd ad 04 6d bc 3a 75 b3 bd 00 d5 a7 3c
       -0.038060043 -0.014466447 -0.087625936 0.020487309
0001d0 3c 64 d9 3c 0f 77 ca bb ef b7 87 be 88 ec c6 3d
       0.026537053 -0.0061787437 -0.26507518 0.097130835
0001e0 14 39 3a 3e 6b 80 bb 3d 81 0f ea bc 16 53 e1 3b
       0.18185836 0.09155353 -0.028571846 0.0068763597
0001f0 fa 06 11 be 4e 08 a9 3d f4 f7 e0 bd f4 83 72 be
       -0.14162818 0.08253537 -0.10984793 -0.23683149

network_smart.layer2.0.weight f4 [128, 128]
000000 37 d8 06 be b2 d6 ca bc 77 17 3b 3e 5e 2d 97 3d
       -0.13168417 -0.024760578 0.1827067 0.073817
000010 1d d3 ff bb 34 1c 76 3e 75 6a 44 bd 99 27 ba 3d
       -0.007807149 0.24034196 -0.047953088 0.09089584
000020 1b f5 d5 3e a2 c1 7f be ec 60 3e be 91 98 3b 3c
       0.41788563 -0.24976209 -0.1859166 0.011449949
000030 aa 0d 67 3e b9 0e ab be 9b ef f8 bd 7c 17 ae 3c
       0.22563806 -0.3340967 -0.12155076 0.021251433
000040 58 2c 14 3e 66 34 32 3d 70 c3 e4 3e d4 3d 14 3e
       0.14470041 0.043507002 0.44680357 0.1447671
000050 bf b4 22 3e 46 6a 1f be 66 4d d2 3d 4a 2c 34 be
       0.15889262 -0.15567884 0.10268669 -0.1759502
000060 b7 64 b3 bd a1 46 07 3e db 62 72 bd 67 14 5c 3c
       -0.08759444 0.13210537 -0.059176307 0.013432599
000070 58 9a 14 3c 86 88 7a bd 26 90 7f bd 93 d0 80 be
       0.009070002 -0.061165355 -0.06239333 -0.2515913
000080 59 e3 a2 3d e8 1f 12 3c e6 75 22 3d 07 fe 2a be
       0.079535194 0.00891874 0.039663218 -0.16698466
000090 f7 ff ab 3d 19 b9 1d 3d c2 d2 e0 be 9a 01 2e be
       0.08398431 0.0385066 -0.43910795 -0.16992798
0000a0 dd 73 9d bd 4b ef ea bc f3 f1 42 3e 94 2d ba bd
       -0.07688115 -0.028678557 0.19037609 -0.090907246
0000b0 bb 24 94 3d ef 78 98 3d 1a 4c a0 bd 50 55 db 3e
       0.07233568 0.07444941 -0.07827015 0.42838526
0000c0 ff 73 bd bc 13 9f 32 3e 0d 8d fe 3d 2f 35 4b bd
       -0.0231266 0.17443494 0.12429247 -0.049611267
0000d0 ad cf 82 3d 05 61 d8 bb 8c 79 bd 3b ac 7b ae 3d
       0.06387267 -0.0066033625 0.005782312 0.08519682
0000e0 73 4e a9 3b f9 7a 40 bd da 23 88 bd 8a 40 8f bd
       0.0051668226 -0.046992276 -0.06647463 -0.06994732
0000f0 80 07 68 bd 84 51 31 bd ba ab af bd 4c 80 32 3e
       -0.056647778 -0.04329063 -0.08577676 0.17431754
000100 52 b2 73 3e 31 cb 4b 3d 4f e5 0b bc e4 0b 4a be
       0.23798493 0.049754325 -0.008538558 -0.19731098
000110 ec 58 3d 3d b7 dd d5 bd 52 15 38 3e 2a 3b 87 3e
       0.04622738 -0.104426794 0.17976883 0.26412326
000120 48 a6 41 bd 99 71 02 be 71 3e 83 be 38 f4 c1 bd
       -0.04727772 -0.12738647 -0.25633577 -0.09470409
000130 79 8d 03 bc 5c b5 63 be 52 71 b6 3c 33 39 f7 bd
       -0.008029335 -0.22237152 0.022270832 -0.12071457
000140 61 93 43 3d 02 ba 29 3e 5a 65 07 3c 49 99 83 3c
       0.047747973 0.16574863 0.00826391 0.016064303
000150 07 89 86 3d ef 07 08 bd 1a 49 54 3e 1b c5 93 bd
       0.06569105 -0.03321069 0.20731011 -0.07215329
000160 02 39 00 be b0 d9 97 3c af 35 96 bc d6 4a 0d be
       -0.12521747 0.018536419 -0.018336145 -0.13798079
000170 75 42 ca be 2a 4b 5e 3d 98 9a eb bd ec 19 9b 3d
       -0.39503828 0.0542709 -0.11504096 0.075733036
000180 84 cc 64 3d 38 2f bd 3e 4a d5 88 bc 9d 24 11 bd
       0.055859104 0.36950088 -0.016703267 -0.035435308
000190 3a b7 23 bd 64 7a 49 3b 6c bc f6 bd 72 65 07 3c
       -0.03996966 0.0030743117 -0.12047657 0.008263933
0001a0 5b ce 40 bd 73 b3 d0 bd cc 8f d0 bc 6d 26 a5 bd
       -0.047071796 -0.10190477 -0.025459193 -0.0806397
0001b0 42 78 b4 bc d1 99 cc be 2f f8 0e 3e 17 4b f2 3d
       -0.02203 -0.39961103 0.13961862 0.118307285
0001c0 3a 44 8f bd 17 12 15 3b 28 2d 51 3d ca 03 36 bd
       -0.06995435 0.0022746378 0.051068455 -0.044437207
0001d0 c0 56 03 3c d6 8d 8f bd 59 57 b2 3c c5 37 f3 3c
       0.008016288 -0.07009475 0.021770166 0.029689679
0001e0 71 0b 29 3d 9b 25 59 bd 1b cc b0 3c 85 6d 16 3d
       0.041270677 -0.05301438 0.0215817 0.03672554
0001f0 52 5c ce bd e4 38 e3 bc f7 08 68 be c1 43 a1 bd
       -0.100762025 -0.027737089 -0.2265967 -0.07874251
000200 ca 3e f2 3c 7b 52 94 bd c2 8e d2 bc de 55 be bc
       0.029570956 -0.072422944 -0.025702838 -0.023234304
000210 86 98 78 3e d5 4b 03 3e b6 2f cd ba 9d 5f 90 3c
       0.24276933 0.12821896 -0.0015654478 0.017623717
000220 b3 c5 6a 3d 9f 13 8e be b1 98 de bc 44 4a 83 bd
       0.057317447 -0.27749345 -0.027172418 -0.064106494
000230 a7 19 ff ba 1f 55 5f 3f 8f 94 71 3d b6 8c 11 be
       -0.0019462601 0.8723926 0.058979567 -0.14213833
000240 20 68 cf bd 2f 03 1a be a4 55 b9 be da cb b2 3e
       -0.10127282 -0.15040277 -0.3619815 0.3492115
000250 fe 39 80 be 55 72 22 3e 06 e5 d1 3d bb aa 5c 3c
       -0.25044245 0.15863927 0.10248761 0.01346844
000260 68 3d f0 bd a7 f7 89 3c 77 f9 5f bd 36 dd 81 bd
       -0.11730462 0.016841723 -0.054681268 -0.06341021
000270 a1 f5 2d 3d 21 e8 da 3c 18 c5 78 3e 0b 40 9c be
       0.042470578 0.026722016 0.24293935 -0.3051761
000280 ec 92 6e 3d 33 65 ec bd 9f f7 ae 3d 16 e9 53 be
       0.058245584 -0.1154274 0.08543324 -0.20694384
000290 7f dc 4d bd 1e 98 83 3d 5b 5a 13 bd 54 50 4b bd
       -0.05025911 0.064254984 -0.03597484 -0.049637154
0002a0 7a be 47 3d 88 8d c6 bf 07 25 28 be 70 0c a9 bd
       0.048765637 -1.5511942 -0.16420375 -0.082543254
0002b0 05 16 f7 bd 04 34 a5 bd b4 bd 44 3e 72 8d 1b be
       -0.12064747 -0.08066562 0.19212991 -0.15190676
0002c0 73 4c b0 be ec 02 c8 3d c3 cb ff 3d f8 69 5f bd
       -0.34433326 0.09766182 0.12490036 -0.05454442
0002d0 08 db 2d 3e a2 93 f8 bd 0d ec a3 3d fc e8 b9 3d
       0.16978085 -0.12137534 0.080040075 0.09077641
0002e0 1a d7 10 3e 9e 78 c7 bd 75 38 8f bc 43 39 41 3e
       0.14144555 -0.09739803 -0.017482975 0.188695
0002f0 46 ea a9 3d 69 3f 31 3e 34 c7 06 3d dc fc 23 be
       0.08296637 0.17309345 0.03290482 -0.16014427
000300 fd ce ab 3c 9a 2e 21 bf c7 ee fd 3d 8d 47 c4 3e
       0.020972723 -0.62961733 0.12399059 0.3833584
000310 8a 82 b0 3e 62 63 76 bd c5 a4 49 3b 82 85 1e 3e
       0.34474593 -0.060153373 0.0030768376 0.15480617
000320 84 a4 d9 3c c3 af 0a 3e 73 27 59 be f6 4b 08 3f
       0.026567705 0.1354361 -0.21206455 0.5324091
000330 39 72 b2 3c dd 1e 5a 3d 80 97 c4 3b 69 02 03 bc
       0.021782981 0.05325209 0.0059995055 -0.00799618
000340 f3 93 e9 3d 5d 03 bd bd 64 44 92 be db 4d a4 bd
       0.11405172 -0.09229157 -0.28567803 -0.08022662
000350 47 74 53 be 82 ca 0d 3e ee 32 2b 3d ca b8 94 bd
       -0.20649825 0.13846782 0.041796617 -0.07261808
000360 ee a7 e5 3d cc fd 94 bd f4 fd 7e be 1a 63 d1 3c
       0.11213671 -0.072749704 -0.24901563 0.02555995
000370 6d b7 6f be 2e 48 3d bd 82 b3 03 bd 20 41 4c 3c
       -0.23409815 -0.046211414 -0.032153614 0.012466699
000380 00 d7 84 bd 73 ea 67 bf 76 19 ab 3d e9 98 0d 3f
       -0.064863205 -0.90592116 0.08354466 0.5531145
000390 f2 8a 7f bd ea 30 7d bd e9 9a da bf 28 03 9f bd
       -0.062388368 -0.061814226 -1.7078525 -0.07764274
0003a0 ce 90 ab 3d d7 42 9c 3d fe c3 9e 3d 68 30 3e 3e
       0.08377229 0.07629936 0.07752226 0.18573153
0003b0 04 dd ce bc c4 8c 2b 3f c7 85 50 3d 6c e8 e3 bb
       -0.025251873 0.67011666 0.05090883 -0.006955197
0003c0 c6 f5 8b bd 0d 21 6f 3d 0a fe c5 3d 3a 8f fb 3d
       -0.06833987 0.05838113 0.09667595 0.12283178
0003d0 ff 1b d3 3d ae 85 56 bd ad e0 da be 8a f1 8d ba
       0.10308074 -0.05237358 -0.4274954 -0.001082943
0003e0 79 90 9e 3d 87 36 2d bd 09 fc 0e bd 06 d8 33 bd
       0.077424 -0.04228833 -0.03490833 -0.043907188
0003f0 1d 97 eb 3d 1e 83 b7 3d 03 2d 38 be 67 dc c0 3e
       0.11503432 0.089605555 -0.1798592 0.37668154

network_smart.layer2.0.bias f4 [128]
000000 50 cc f9 3d 3c e3 94 be f2 ab 38 3d 3d 0d 6d bc
       0.12197173 -0.29079616 0.045085855 -0.014468488
000010 60 8e cb bb 00 2e a0 3d 0c aa 8c 3d b2 8c 6d 3c
       -0.006212041 0.07821274 0.06868371 0.014498876
000020 ff dc be be b6 ff d7 bd 5d 24 cd 3d 90 04 02 3e
       -0.37277982 -0.1054682 0.10016701 0.12697053
000030 b9 15 ad bd a4 e3 28 bd ad 0f 56 3e 00 37 98 bd
       -0.08451409 -0.04123272 0.20904417 -0.074323654
000040 73 16 98 3d a9 cd 52 3d 74 d9 d8 3d 24 14 fe bd
       0.07426157 0.051465664 0.10588351 -0.12406185
000050 98 ae e9 3d 06 40 97 bc 44 0d 1d bd 8a 2f 52 3e
       0.11410254 -0.018463146 -0.03834273 0.20525947
000060 4a 06 39 bd 02 ad 9a bd 03 2d 98 3d b0 36 a6 be
       -0.045172013 -0.0755253 0.0743046 -0.32463598
000070 c9 a1 39 3d 8e bc 9a 3d af 42 c6 be f4 f8 ee 3d
       0.045320306 0.07555495 -0.3872275 0.11668578
000080 86 69 f9 3d 44 c2 26 bd 41 b4 df bc 7c 55 a1 bd
       0.1217833 -0.04071261 -0.027307631 -0.07877633
000090 3b 04 0d 3d cf ad a9 39 33 52 08 3e fc 89 3d 3e
       0.034427863 0.0003236369 0.13312607 0.18509668
0000a0 e8 d1 7a 3d 65 2d 50 3d 57 1a a8 bc 78 ce 7c bd
       0.06123534 0.05082454 -0.020520372 -0.06172034
0000b0 3b 26 fa 3a 61 3a 68 bc e9 03 97 bc 5a 47 c4 3d
       0.001908488 -0.014174075 -0.018434482 0.09583922
0000c0 4a b8 8b 3d e1 ae 48 3e 92 a2 d5 3c 99 c6 55 bd
       0.0682226 0.19597961 0.026078496 -0.05219135
0000d0 85 3e 74 3b 09 62 9b ba 39 2a 8a 3d a9 5b 01 bb
       0.003726871 -0.0011854778 0.067463346 -0.0019738472
0000e0 ac 92 2b be f0 b8 3b bd 5c 13 05 3d 20 7a 1e 3e
       -0.1675517 -0.045830667 0.032489166 0.15476274
0000f0 c5 a6 fd 3d ad ac c2 bd 19 57 1d 3d c7 43 89 3d
       0.123853244 -0.095055915 0.03841314 0.067023806
000100 e7 82 c1 3d 89 36 70 3d 52 37 13 3d e7 b3 a9 3d
       0.09448796 0.05864576 0.03594143 0.08286267
000110 54 fa 85 be 31 8e 14 3d 61 c2 88 3d 44 d7 14 3e
       -0.26167548 0.036268417 0.066777 0.14535242
000120 fb c0 f0 3c 2e 17 34 be a3 0e 91 bc 16 2c 8a 3c
       0.029388895 -0.17586967 -0.017707175 0.016866725
000130 8a d6 c4 bd 8f c3 02 3e 20 48 d0 bd ae 27 de 3d
       -0.096112326 0.12769912 -0.10170007 0.10847412
000140 5f 16 ec 3a c1 10 e3 bb c1 39 fa bd 5a 3b 12 3d
       0.0018012038 -0.0069294875 -0.12218047 0.035701133
000150 0d 75 9e 3c bd 60 2e 3c af d7 a8 3c 3c 02 a6 3d
       0.019342924 0.010643181 0.020610658 0.08105895
000160 91 84 5b 3d 2f 04 93 3d 3d 75 00 bc 64 24 3a bc
       0.053593222 0.07178532 -0.007840452 -0.011361215
000170 90 79 a4 be 1b df 48 3a 13 3b f2 3c e4 0d 16 3d
       -0.32123995 0.000766264 0.029569184 0.03663434
000180 a8 7d b1 bd 7e fb 5e be ee c6 45 bd 63 16 8a 3c
       -0.08666545 -0.21775624 -0.048285417 0.016856378
000190 76 01 99 be 20 54 88 bd 85 ca d2 bd 3b 10 13 bd
       -0.29883927 -0.066566706 -0.10292534 -0.03590415
0001a0 91 2d c2 3d 81 b4 f1 3d a4 4b 46 bd 6e f8 f1 3d
       0.09481347 0.118020065 -0.04841198 0.11814962
0001b0 0d fe fe 3d 74 02 5b 3d c6 f7 44 be 2a 02 65 be
       0.124508 0.053469136 -0.19235143 -0.22364107
0001c0 e8 cc 00 3e 92 6b 8a 3c e2 7c b6 bd 06 03 1e 3d
       0.12578166 0.016896997 -0.08910538 0.038577102
0001d0 b9 0f 57 3d a0 07 15 3e 3f e1 af be 89 dd 7b be
       0.05250523 0.1455369 -0.34351537 -0.24596228
0001e0 2e 35 43 3d 78 60 40 bd 3e 27 95 3d 1d e3 a6 bd
       0.047658138 -0.046967 0.072828755 -0.08148787
0001f0 c3 8a 0c 3e fd 06 2b be eb 9c b0 bc 2d 07 d2 3c
       0.13724808 -0.16701885 -0.0215592 0.025638187

network_smart.layer3.0.weight f4 [48, 128]
000000 40 6e 6f 3d 2b eb 13 be 79 81 d6 3e de 34 23 bf
       0.058454752 -0.14445178 0.41895655 -0.63752544
000010 44 10 89 be 24 37 54 bc a1 6d 7e 3e 16 30 de 3c
       -0.26770222 -0.0129526 0.24846508 0.027122539
000020 4a e0 72 be 7d 01 82 bd de be 7b 3e 73 3a 0d bc
       -0.23718372 -0.0634794 0.24584529 -0.008619892
000030 df 90 83 bd 26 d3 0f 3d ad a9 e6 bd e2 9f 1e bc
       -0.06424116 0.035113476 -0.11262832 -0.009681674
000040 ad fc b5 3d 5c 81 8a 3d b5 0b 86 be b4 57 a8 be
       0.08886085 0.067629546 -0.26180807 -0.32879412
000050 46 14 d6 bd 21 f8 f5 3c bb 77 3c be 0b d7 92 3d
       -0.104530856 0.030025544 -0.18405049 0.071699224
000060 ad df a8 3e 3b 0b 83 bd 03 14 c2 3d f3 e2 18 bc
       0.3298315 -0.063986264 0.09476473 -0.009331453
000070 a9 59 44 3d ec 90 9b 3e c7 4b 82 3d d5 c0 86 3d
       0.04793707 0.30384004 0.0636211 0.065797485
000080 c9 22 9e 3d 3d a0 47 3d 7f 2d d0 3b 49 2c 7a 3e
       0.077214785 0.0487368 0.00635308 0.24430956
000090 f9 b9 24 3e 39 d2 83 3c 56 98 d0 bd fd 1f 92 bc
       0.16086568 0.016091453 -0.10185306 -0.017837519
0000a0 d2 3b 9b bd 87 a5 94 3d 94 81 0e 3e f2 51 46 3d
       -0.07579769 0.07258134 0.13916618 0.048417993
0000b0 f7 f6 9b be 95 aa c4 bd e6 03 70 3d 61 56 c7 3c
       -0.30461857 -0.096028484 0.058597468 0.02433318
0000c0 65 63 69 be 44 25 25 be b0 18 f5 3d 6d 01 11 bc
       -0.22791822 -0.16127497 0.119675994 -0.008850438
0000d0 4b 56 a7 3c 3a 68 15 bd 6c 5b 5d 3e 23 21 5f be
       0.02042689 -0.03647635 0.21616906 -0.21789984
0000e0 01 1c b6 3d 56 4d 0e 3d f7 a7 ea bd e7 e7 28 bd
       0.0889206 0.034741722 -0.11457818 -0.041236784
0000f0 ca c9 01 3e 72 6d 06 bd 03 2b 6e 3e 96 82 5f bd
       0.12674633 -0.03281922 0.23258595 -0.054567896
000100 91 c8 d6 3b a8 7b 3f 3d 9c 91 56 be b9 0d 6e be
       0.006554671 0.046748787 -0.20953983 -0.23247422
000110 73 f2 b9 3e fb 85 a9 bd f1 d6 87 be 41 9f 92 3d
       0.36317787 -0.08277508 -0.26531175 0.071592815
000120 8f be ba 3c f6 c8 1d 3e 97 15 c7 3d ae 81 72 bd
       0.022795944 0.15408692 0.09720915 -0.059205703
000130 d0 28 20 3d 9e 63 5f 3c 96 5d 60 3d 57 f3 20 3e
       0.03910142 0.01363459 0.05477675 0.15717827
000140 a7 86 99 bc b4 69 9a bc 40 19 52 3e 1e 12 20 3f
       -0.018740965 -0.018849231 0.20517445 0.62527645
000150 b7 12 92 3c c9 71 1e be da a6 ab be 9b 45 51 3d
       0.01783119 -0.15473093 -0.33525735 0.05109177
000160 91 3c 62 bd 32 b0 40 3e d4 6f 00 3e 8d 9f 32 3c
       -0.055233542 0.18817213 0.12542659 0.010902298
000170 74 01 60 be b6 81 fa bd 4a d0 fe be 12 eb 39 bd
       -0.21875554 -0.12231772 -0.49768287 -0.045390196
000180 e3 49 65 bd 34 a8 d7 bd eb 7d b1 be 31 d2 e5 3d
       -0.055978667 -0.10530129 -0.3466638 0.112217315
000190 2b c1 43 3b 00 b3 e4 3d 0f db 87 be df 33 15 3e
       0.0029869776 0.11166954 -0.26534316 0.14570569
0001a0 fa e6 b0 3b a4 06 4d bd 4a b0 33 3e 5b 53 cc be
       0.0053986283 -0.05005516 0.17547718 -0.39907345
0001b0 18 9a fe 3d 28 99 08 3e 67 c3 8f 3e 1e 22 48 3f
       0.12431735 0.13339674 0.28078768 0.7817706
0001c0 04 95 1c be ac d7 16 be 7e 85 ab bc 31 fb 65 3e
       -0.1529122 -0.1473071 -0.020937677 0.22459103
0001d0 63 08 db bb 4c d9 11 bd 29 52 e3 bd 76 c8 ec bd
       -0.0066843494 -0.03560762 -0.11099655 -0.115616724
0001e0 b8 46 c1 bd fd 14 10 bc d7 2e 1f be c3 9d 4a 3d
       -0.09437317 -0.0087940665 -0.15545212 0.04946686
0001f0 a8 12 88 be 1d 54 43 3e a8 82 46 bf 5a 69 f3 3d
       -0.26576734 0.19075055 -0.77543116 0.118853286
000200 61 47 8c 3d ad 03 33 c0 3a cf 50 3e f5 8d bf bd
       0.06849552 -2.7970994 0.2039155 -0.09353248
000210 71 d0 32 bf 63 fc 1d 3d 35 3a 47 3d a5 7c bf bb
       -0.69849306 0.038570773 0.048639495 -0.005843716
000220 db 0d ac be 1e 61 95 3d 5d ec 36 3c 22 8e 25 bd
       -0.3360432 0.07293914 0.011164752 -0.04041875
000230 f3 03 9b 3c 03 cb a9 3a 10 b4 e3 bd ce d4 e9 be
       0.018922782 0.0012954179 -0.111183286 -0.4567017
000240 f8 ad f7 3c e3 dc 12 be db ea d1 3d 38 8d 32 3c
       0.030234322 -0.14342074 0.10249873 0.010897927
000250 e6 e7 9a be 59 61 cc 3d 8c c8 1e bf be d3 34 be
       -0.3025505 0.09979505 -0.6202476 -0.17658898
000260 7a 23 1f 3f 98 25 34 bd a3 09 5c bc 67 af aa ba
       0.6216351 -0.043981165 -0.013430032 -0.0013022245
000270 9c 1e 8d bd a3 a7 1f bd 0e e8 ba bd 52 48 59 3d
       -0.06890604 -0.03897823 -0.09126292 0.053047486
000280 45 d9 f7 bc f4 44 e0 bc 6e 1a 36 bd c9 7f bc 3d
       -0.03025497 -0.02737663 -0.0444588 0.092040606
000290 37 6f 1b be 4d 04 0e bd d6 ec b6 be fe 57 d7 3d
       -0.15179144 -0.03467207 -0.35727566 0.1051483
0002a0 ff b2 ef 3d 62 21 27 be bd 1c c0 bd 4e 96 ca 3c
       0.11704063 -0.16321328 -0.093804814 0.024729874
0002b0 57 8f 27 3d 77 74 14 bc a6 d1 91 bd 74 76 c0 be
       0.040908184 -0.0090609705 -0.071200654 -0.37590373
0002c0 c7 9d 9c 3d e7 e0 bf bd b0 ca 6b bd 62 c6 2d 3d
       0.07647281 -0.093690686 -0.057566345 0.04242552
0002d0 de 62 06 bf 42 95 33 3d 80 33 0e be 14 33 78 3c
       -0.5249461 0.043843515 -0.13886833 0.015148897
0002e0 e8 7c cf bd 1e b9 09 3e 3d 39 29 3e 35 76 bc 3d
       -0.10131246 0.13449523 0.16525741 0.09202234
0002f0 2b ec cd 3d 8d 74 50 bc 11 21 b9 3c 82 4e 2e be
       0.10054811 -0.0127231 0.022598775 -0.17022136
000300 d5 69 29 3e e1 73 37 be ce 9e 40 3e 23 d6 07 3f
       0.16544278 -0.17915298 0.18810579 0.5306112
000310 92 b4 2f 3d 63 62 23 3d 49 d0 47 bc 20 13 8b 3d
       0.042896815 0.03988875 -0.012195655 0.06790757
000320 1f 0a 39 3d ef 29 eb 3d 03 e3 c2 be c8 53 ba 3e
       0.045175668 0.114826076 -0.3806382 0.36392045
000330 99 14 cd 3c ba fe 17 3e e3 ed 9c bd 76 2f 1c 3e
       0.025034236 0.14843264 -0.07662561 0.1525248
000340 35 9a 03 be 81 b5 0a bf ec e7 2c bd 98 de 11 3e
       -0.12851794 -0.54183203 -0.042213365 0.14245069
000350 a2 10 e9 be 89 ea f1 3e e1 7c 95 3d 4b 51 8b 3c
       -0.45520502 0.4724925 0.072992094 0.017006537
000360 e1 83 24 3e 5b b1 42 be c5 3e 35 be e7 ba 08 3d
       0.16065933 -0.19012968 -0.17699726 0.03338137
000370 a6 70 af be 86 77 ad bd 46 11 51 bd c6 53 62 3d
       -0.3426563 -0.08470063 -0.051041864 0.055255674
000380 82 f7 c2 3d b2 71 37 be 29 27 95 bf 77 fb 2a 3e
       0.095198646 -0.17914465 -1.1652576 0.16697489
000390 96 a1 ec 3e ff 82 29 3d a1 e4 41 3e d0 3e 7c be
       0.4621703 0.041384693 0.18934871 -0.24633336
0003a0 64 d1 bb 3d e0 c0 b1 be a8 34 da 3c 2c f4 26 be
       0.091707975 -0.34717464 0.026636437 -0.16304082
0003b0 8c a3 c4 bc 6a 75 7e 3c b2 b1 f5 3d 13 8f 35 3f
       -0.024003766 0.015530923 0.11996783 0.7092144
0003c0 d1 fa 42 3d 62 37 35 bc 18 c8 34 3e 31 cb f6 bd
       0.04760248 -0.011060568 0.17654455 -0.120504744
0003d0 09 c4 aa 3c c6 c0 a9 be 93 c4 87 bc f6 d3 a2 3d
       0.02084543 -0.33154887 -0.016573226 0.079505846
0003e0 0b 76 4b 3e d6 00 ad 3d a3 64 e2 3d 55 95 90 bc
       0.19869249 0.08447425 0.11054351 -0.017649332
0003f0 41 f9 45 3e 9b e5 fc 3c 80 7c 9d be 8b 25 73 bd
       0.19333364 0.030871203 -0.30759048 -0.059361976

network_smart.layer3.0.bias f4 [48]
000000 13 ab 98 3d 99 a1 b1 3d 6c c7 b8 bd 51 e4 e9 3d
       0.07454505 0.086734004 -0.09022412 0.11420501
000010 cb 15 91 3d 49 4d cb 3b a2 a9 1d 3d 3f 76 1f 3d
       0.07084235 0.0062042815 0.038491853 0.038931128
000020 1b b1 d3 bc 94 7f 87 3d b5 60 fd 3c 85 08 9f bd
       -0.025841286 0.066161305 0.030929903 -0.07765297
000030 a2 ed 12 bb d1 ca 35 bd 16 8f da 3c c8 03 16 3d
       -0.0022419472 -0.044382874 0.026679557 0.0366247
000040 4b 9b 88 bd 0c 41 d4 bc 17 5e 60 bd e9 ee 0a 3d
       -0.06670245 -0.025909923 -0.05477723 0.03391925
000050 a6 f5 3b 3c 92 d3 f1 3d 70 26 10 bd a4 de de bd
       0.011472141 0.11807932 -0.035192907 -0.10882309
000060 43 f3 09 3e c6 2d 84 3d 18 f9 cd 3d eb 04 85 3d
       0.13471703 0.06454043 0.100572765 0.06495079
000070 e5 b3 a4 3d e1 5a a9 be 85 7a b7 bc 55 de 5c ba
       0.08042125 -0.33077148 -0.022397289 -0.0008425464
000080 87 92 95 bd 4a c1 10 bc 90 23 d7 3c 13 df 72 3d
       -0.073033385 -0.008835146 0.026262075 0.05929477
000090 34 a1 f0 3b 31 29 02 3e 3e df 9c bd 03 d0 c4 3d
       0.0073434357 0.12711026 -0.076597676 0.096099876
0000a0 5a a5 79 bd 10 ae e6 3d 53 60 e5 bd db 0c c1 3d
       -0.060948707 0.112636685 -0.11200013 0.0942628
0000b0 e7 ed 86 3d b7 33 cf 3d d7 54 ff 3d 75 32 5b 3a
       0.06588345 0.10117286 0.12467354 0.00083617057

fc_smart.weight f4 [64, 48]
000000 19 85 da 3e 57 88 7d 3f d3 41 bb bf ed 63 53 bb
       0.4267967 0.99036163 -1.4629463 -0.0032255605
000010 13 4f 23 3e 5d 8f ec 3f f4 23 c5 bd 1c 83 e2 3e
       0.15948133 1.8481251 -0.09625998 0.44240654
000020 27 82 c1 3e e1 f4 0e be 08 de c8 3e 9a 09 88 3d
       0.3779461 -0.13960601 0.39231896 0.06642456
000030 39 e2 10 bf 3c 56 bc 3e d4 9f 22 3f 1e 05 a9 bd
       -0.5659519 0.36784542 0.6352513 -0.08252929
000040 e1 c0 8a bf 4c 6e a8 3f f7 43 18 be 41 9b f7 3d
       -1.0840112 1.315866 -0.14869677 0.12090159
000050 f9 d8 f3 3d 31 21 33 be e1 f1 0d 3f e0 c4 e7 3c
       0.119066186 -0.1749313 0.554472 0.02829212
000060 14 42 09 3f 52 b5 02 be ad 28 96 3f 9e 0e c6 3e
       0.5361645 -0.1276448 1.1731163 0.38683027
000070 93 cb 7f 3f b0 db c8 be ff 62 32 bf d5 49 df be
       0.99920005 -0.39230108 -0.69682306 -0.43611017
000080 0c 4f 03 3f cd d2 b2 bf c8 63 a2 be ab 5e 14 3d
       0.5129249 -1.3970581 -0.31716752 0.036223095
000090 aa e9 0c be 07 ea 21 3f 55 49 77 3d 17 01 55 bf
       -0.13761011 0.6324772 0.06037267 -0.8320479
0000a0 2d d4 51 bf d6 dc 9b be 7b 21 0e bf 30 67 80 be
       -0.8196438 -0.30441922 -0.5551984 -0.25078726
0000b0 b7 62 b9 3d 4f 95 23 3e 2a b9 79 3f b7 dd a4 3d
       0.090520315 0.15974925 0.9754816 0.08050101
0000c0 0f 5c b9 3e 8b 1b 61 3f c5 2e a7 bf c0 f6 b2 bd
       0.36203048 0.8793265 -1.3061148 -0.0873847
0000d0 5c e4 20 3e e9 a5 df 3f 43 0a 82 bd 69 53 cf 3e
       0.15712112 1.7472507 -0.063496135 0.40493324
0000e0 35 e3 c7 3e 63 4f 02 be 43 38 be 3e c2 df 15 be
       0.39040533 -0.12725596 0.371523 -0.14636138
0000f0 4a ad ff be ac 7b 98 3e 7f a0 16 3f e7 d2 d9 3c
       -0.49936897 0.29781854 0.5883865 0.026589824
000100 53 05 84 bf 8a aa 98 3f 47 77 c7 bc 30 c2 11 3e
       -1.0314125 1.1927044 -0.024348868 0.14234233
000110 77 37 30 bd 8c 68 98 bd 5c d4 01 3f 35 49 74 3d
       -0.043021645 -0.07441816 0.5071466 0.05964013
000120 84 62 02 3f 91 53 29 be 16 7b 8c 3f a3 22 a6 3e
       0.5093157 -0.16535784 1.0975063 0.324483
000130 64 78 70 3f 52 ce 9f be ab 37 1a bf e3 cc d4 be
       0.939337 -0.31212097 -0.6024119 -0.41562566
000140 6d 45 f0 3e 4b a9 a1 bf a2 82 99 be 45 dd b3 3d
       0.46927968 -1.2629789 -0.29982477 0.08782438
000150 38 55 02 be 71 6e 18 3f 42 f6 8a 3d 1d f3 38 bf
       -0.12727821 0.5954352 0.06785251 -0.7224596
000160 d7 c0 3d bf 4c a4 a2 be 10 7a 18 bf e0 fe 77 be
       -0.74122375 -0.31765974 -0.5956125 -0.24218321
000170 78 a0 cc 3d 66 21 36 3e d0 1b 66 3f f8 8f 77 bc
       0.099915445 0.17786178 0.8988619 -0.015110008
000180 81 65 c9 3e 4e 3f 6a 3f dd 6c ae bf 77 ff 2e ba
       0.39335254 0.91502845 -1.3626972 -0.00066756405
000190 e7 81 15 3e fd d2 dd 3f c1 36 9c bd 2c ac d6 3e
       0.14600335 1.7330014 -0.07627631 0.41928232
0001a0 64 a3 b8 3e b2 b6 23 be 15 7b be 3e ea 11 f7 3d
       0.36062157 -0.15987661 0.3720328 0.12063964
0001b0 03 8e 04 bf 93 92 a5 3e 8c 8f 15 3f 2f 91 91 bb
       -0.5177919 0.3233839 0.5842216 -0.004442356
0001c0 bc 5e 83 bf 5d ca 9c 3f 65 8a 9d bd 46 0c e0 3d
       -1.0263286 1.2249256 -0.07692412 0.10939841
0001d0 a9 fe 78 3d 36 89 15 be a6 d2 05 3f 56 41 d3 3d
       0.060789738 -0.14603123 0.5227455 0.10315196
0001e0 fc b9 02 3f 44 5f 30 be fd cc 8d 3f 23 46 ba 3e
       0.5106504 -0.17223841 1.1078182 0.36381635
0001f0 ab 8a 6f 3f 6e 0a b2 be 98 0a 20 bf 7d 86 d6 be
       0.93570966 -0.34773582 -0.62516165 -0.4189948
000200 ab 0b f6 3e 8f a3 a6 bf be 06 99 be 5b db 69 3d
       0.48055777 -1.3018664 -0.29887956 0.05709396
000210 17 fa 14 be 66 7b 18 3f fa db 7e 3d 18 f0 44 bf
       -0.14548527 0.5956329 0.062221505 -0.76928854
000220 e4 a3 42 bf ad da 99 be b6 25 09 bf 18 1f 6a be
       -0.7603133 -0.3004965 -0.5357317 -0.22863424
000230 67 ba bd 3d 83 e5 1f 3e 0a 78 69 3f af df b8 3d
       0.09264069 0.15614896 0.9119879 0.09027039
000240 c7 1e be 3e 5d ab c8 3e 77 f6 45 bf d2 78 d7 bb
       0.37132856 0.3919324 -0.773292 -0.006575682
000250 f4 53 2d be 78 9e 0c 3e 03 d6 69 be eb 69 75 3e
       -0.16926557 0.13732326 -0.22835545 0.23966186
000260 4b 12 83 be fb 7a fe bd c9 ff 23 3b fe 2d d7 bd
       -0.25599894 -0.124258004 0.0025024286 -0.10506819
000270 5a 0b 8a be ab c7 77 3e 39 08 73 3c 82 bd 8c bd
       -0.26961786 0.24197261 0.014833503 -0.06872083
000280 dd 9c 62 3a 60 d4 f9 3e c5 d1 dc 3d d9 2d 7b be
       0.000864459 0.48794842 0.10782198 -0.24529208
000290 74 49 72 3d 0d c1 4b bd 70 f5 55 3e 60 3b 7b 3d
       0.05915208 -0.049744654 0.20894408 0.06133592
0002a0 ea 9a 44 3d 71 bc 16 be ab 2c 34 3e 16 1b e5 3e
       0.0479993 -0.14720322 0.17595164 0.44747227
0002b0 d4 dc 51 3d 63 76 8c be e6 07 ba be 9f ba 15 bd
       0.05123599 -0.27434072 -0.3633415 -0.03655493
0002c0 fc 28 73 3e 21 64 09 bf ed 28 95 bc 51 60 98 be
       0.23746103 -0.5366841 -0.018207991 -0.29760984
0002d0 98 68 46 be 5c 1b 80 3d 44 b0 4e bd db 08 10 bf
       -0.19375837 0.062552184 -0.05046107 -0.5626351
0002e0 54 b3 9d be 50 44 b0 3d a8 82 0b 3f 6a 61 ae 3d
       -0.3080088 0.086067796 0.5449624 0.08514674
0002f0 d5 8e 91 bd e9 38 30 be df 58 3d 3e 95 a5 6b bd
       -0.07107321 -0.1720921 0.18490933 -0.05753096
000300 7c 11 6a 3e 99 8a 41 3f 6b 8d 86 bf c9 da f8 bd
       0.22858232 0.7560211 -1.0511907 -0.12151105
000310 7b c7 71 3e f2 2d dc 3f 98 33 ad 3c ba ce a3 3e
       0.23611252 1.7201521 0.021142766 0.31993657
000320 f5 82 fb 3e 4b f9 cf bd 65 7e c3 3e 95 76 1f 3e
       0.4912335 -0.10154971 0.3818237 0.15572579
000330 4c e6 d3 be 28 96 74 3e 02 3b 1b 3f 92 59 8b 3c
       -0.4138664 0.23885405 0.60636914 0.017010484
000340 1b 56 87 bf 3d 44 84 3f 3a 01 aa bc e5 68 6f 3e
       -1.0573152 1.0333325 -0.020752538 0.23379858
000350 5c 5b ff bd b4 b0 74 bd 16 53 e1 3e 62 85 9d 3d
       -0.12468597 -0.05973883 0.44008702 0.076914564
000360 e9 ce 00 3f d2 c1 68 bd 79 82 87 3f fe 9b 2b 3e
       0.5031572 -0.056825466 1.0586692 0.16758725
000370 a8 eb 6f 3f 51 4b 4d be fa a0 f9 be 29 4e d2 be
       0.9371896 -0.20048262 -0.48755628 -0.41075256
000380 fc 18 c8 3e 4b 69 8b bf fa 97 93 be 99 7e 45 3e
       0.39081562 -1.0891508 -0.28826886 0.19286574
000390 f4 96 23 bd 1a 99 14 3f c9 18 b1 3d cb 86 09 bf
       -0.039938882 0.58046114 0.086473055 -0.537213
0003a0 95 c7 24 bf eb 2d b3 be 05 c4 4d bf 44 2f 91 be
       -0.6436704 -0.3499597 -0.8037723 -0.28356373
0003b0 6a ce 02 3e 75 f2 79 3e 7a bd 59 3f 25 40 85 bc
       0.12774053 0.24408896 0.85054743 -0.016265938
0003c0 b7 9f ab be d6 82 8a be b9 ab 1c 3f 29 3b 24 3d
       -0.3352029 -0.27052945 0.6119953 0.040095482
0003d0 d0 ac 53 3e 03 b9 13 3e 39 93 71 3e e6 b0 42 be
       0.20671391 0.14426045 0.23591317 -0.19012794
0003e0 af bb ac 3e ce 39 e0 3d 27 26 73 3d 11 a6 39 3b
       0.3373694 0.10948525 0.059362557 0.0028327743
0003f0 12 6d 53 3e 62 6c 59 be 83 66 a1 3d c7 fc 96 3d
       0.20647076 -0.21232751 0.07880881 0.07372432

fc_smart.bias f4 [64]
000000 6d 94 96 bd 43 46 df bd 81 12 89 bd f6 1d cf 3d
       -0.07352529 -0.10902073 -0.066929825 0.101131365
000010 9e 47 8c bd a4 97 ba bd 43 34 d0 3d 0e dc 8a 3c
       -0.068495974 -0.091109544 0.10166218 0.016950633
000020 ab 46 3a bd f5 ec c0 3b 57 5f 1a be f8 7c 06 3e
       -0.04547755 0.0058876225 -0.15075432 0.1313361
000030 3f f6 40 3d 1e 89 9b 3d 98 7d 84 bd 09 87 eb bc
       0.04710984 0.075945124 -0.064692676 -0.028750913
000040 2f c1 d0 3d bf 16 c8 3c a7 b8 56 3b 3a f5 99 bd
       0.10193097 0.024424909 0.003276387 -0.075174764
000050 59 ea 36 bd cf 81 76 bc cb 43 d5 3c 45 2a 74 bd
       -0.044657085 -0.015045597 0.026033303 -0.059610624
000060 10 b0 c2 bd a4 96 22 3d eb d5 d7 bb 08 08 a8 3d
       -0.095062375 0.039694443 -0.0065867803 0.08204657
000070 f8 a3 81 3d 34 5e 96 3c a7 4e d4 bd 47 e4 88 3d
       0.06330103 0.018355466 -0.10366564 0.066841654
000080 b7 95 e0 3c cc d5 84 3d 26 0f 1b 3d 3e eb e0 3d
       0.02741514 0.06486091 0.037856244 0.10982369
000090 44 7a f3 3b 9d e8 97 3c b6 1d f3 3c 9b 83 7b bd
       0.0074303467 0.018543536 0.029677253 -0.061404806
0000a0 fc 92 22 3c 55 4d 3a bd bc 22 b9 3d 60 c7 48 3c
       0.009922739 -0.045483906 0.09039828 0.012254566
0000b0 cf 1d 48 3d 88 82 22 be af 18 8d bd 5e 9a 87 bd
       0.048856553 -0.15870106 -0.06889474 -0.0662124
0000c0 55 34 c6 3d 75 1e eb 3c 57 83 84 bd 0e c7 cf bd
       0.0967795 0.028701046 -0.064703636 -0.101453885
0000d0 90 f2 1b bd a3 42 98 bd 31 4d f3 3b b4 71 51 3d
       -0.038073123 -0.07434585 0.0074249734 0.051133826
0000e0 f0 56 bf 3d 1f dd e8 3d f3 c8 cb 3d 74 d5 61 bd
       0.09342754 0.113703005 0.099504374 -0.055135205
0000f0 ac 91 51 bc c5 bd e0 3d 2b 41 68 3d 6d 3e b9 bc
       -0.012791079 0.10973696 0.056702774 -0.022612775

network_aging.lstm.weight_ih_l0 f4 [128, 5]
000000 f0 4a b4 bd b4 26 3f 3d 94 25 bb 3c c9 66 d3 3d
       -0.08803356 0.04666777 0.022845067 0.10322339
000010 38 8a 55 3d 53 20 2a 3e 7e d9 62 bd 29 a9 3b 3c
       0.05213377 0.16613893 -0.055383198 0.011453905
000020 1c 53 b3 bd 80 61 31 3d 17 5a 39 3e 65 79 ea 3d
       -0.08756086 0.043305874 0.18100773 0.114489354
000030 e1 ab 63 3e 40 0a bb 3d 90 bd fa bd b2 b9 c2 3d
       0.22233535 0.091328144 -0.122431874 0.09508075
000040 54 eb ae 3d 32 a7 bb bd 69 6d 1b be de 08 2a 3e
       0.08540979 -0.09162749 -0.15178455 0.16604945
000050 2a 9c 6f 3e 50 4b 63 bd c4 08 4c bc a4 34 cc 3d
       0.23399416 -0.055491745 -0.012453262 0.09970978
000060 f7 a0 7f bd b1 e9 7f 3b e5 85 84 bd e0 0c b1 3d
       -0.062409367 0.0039049203 -0.06470851 0.08645034
000070 63 07 a7 3d 4d fe 95 bd f4 3c f7 bd 82 50 06 be
       0.08155706 -0.07323895 -0.12072173 -0.13116649
000080 6f b1 83 bd 07 ef cc 3d 90 3c 83 bc 6b ce 26 3e
       -0.06430327 0.10006528 -0.01602009 0.1628968
000090 2c 22 b6 bd df be 19 3e 2a e6 91 3d 3a c7 1f bd
       -0.088932365 0.15014218 0.071239784 -0.039008357
0000a0 61 d5 07 3e b6 fd b9 3d 12 16 37 3e b6 9d 45 3e
       0.13264991 0.09081595 0.17879513 0.19298443
0000b0 c4 4e 07 be b7 24 66 bd 75 46 f0 bc 29 15 b5 3d
       -0.1321364 -0.056187358 -0.029330472 0.088419266
0000c0 38 7f b6 bd 3b 12 1c 3e 20 00 4c 3e ce 58 f3 3d
       -0.08910984 0.1524133 0.19921923 0.118821725
0000d0 a0 58 b6 3c a9 3d 15 3d 01 d5 47 3e b6 14 67 bd
       0.022259057 0.036435757 0.19514848 -0.056416236
0000e0 db 46 82 bc cc d7 e7 bd 36 fa da 3d 70 9f 37 3e
       -0.015902927 -0.11320457 0.10692255 0.17931914
0000f0 3b 57 41 3e b2 14 a1 bd ce 03 80 3d 4f 34 1a 3c
       0.18880932 -0.078652754 0.06250726 0.009411885
000100 3a fe c2 bd 71 c6 8c 3d 54 1e 09 3e 37 80 be bd
       -0.09521146 0.06873787 0.13390476 -0.09301799
000110 54 e0 61 3e c1 d5 2b bd d8 5e 12 3e e7 1f 23 3e
       0.2205823 -0.0419519 0.14293993 0.15930139
000120 2e e1 9f bd aa 9a 12 bd 8d e1 00 3e 18 d7 2d 3d
       -0.078066215 -0.03579203 0.12586041 0.042441458
000130 5e a5 76 bc 3d d4 a5 bd 11 f0 13 be d4 65 b7 bc
       -0.015054075 -0.08097122 -0.14447047 -0.022387423
000140 e9 08 fd bc 41 f8 1a 3c 79 93 d9 3c bb 74 2d bd
       -0.030888038 0.009458602 0.026559578 -0.04234765
000150 d0 08 23 be ab c0 cd 3d 94 5e 93 3c fd 39 1d 3e
       -0.1592133 0.10046514 0.017989434 0.15354152
000160 8d 46 17 3e 1a 76 17 bd 22 92 a8 3d ae e8 02 be
       0.14773007 -0.036977865 0.082309976 -0.12784073
000170 c1 1a 87 bd 58 1e e4 3c a7 3e e1 3d 78 84 b7 3c
       -0.065969 0.0278465 0.10998278 0.022402033
000180 7d bd be bd 55 69 5e bd 80 18 ba bd 5a ea 5c bd
       -0.09313486 -0.05429967 -0.09086704 -0.053934433
000190 b9 1a 3a bd 89 32 42 3e 08 a0 80 bd d9 c3 04 be
       -0.04543564 0.1896459 -0.062805235 -0.12965335
0001a0 84 95 e5 bd 3c 0f 34 3e dc 21 fc bd f2 a2 91 3d
       -0.112101585 0.17583936 -0.12311146 0.071111575
0001b0 ae b9 43 bc d1 e4 9a 3b b0 d7 a1 3d 0d 5f 97 3d
       -0.011946125 0.004726984 0.07902467 0.073911764
0001c0 ed a7 d2 bd 73 f0 9b 3d 4b d2 20 be 61 91 e4 3d
       -0.102859356 0.076142214 -0.1570522 0.11160541
0001d0 fe 10 c7 3d 48 f3 ff 3d 3e e7 90 3d 2d e1 26 3d
       0.09720038 0.12497574 0.07075356 0.040742088
0001e0 84 58 ae bd 91 67 e3 3d 98 23 76 bd 5c 53 aa bd
       -0.08512977 0.11103738 -0.06009254 -0.08316681
0001f0 92 15 40 3e 9c 82 0c 3e bb c5 0e 3e a7 82 84 bd
       0.18758228 0.13721699 0.13942616 -0.064702325
000200 cc b0 b6 bd e5 6b 31 3c 0c be 37 3e e1 96 8b 3d
       -0.0892044 0.010828947 0.17943591 0.06815887
000210 d1 db fc 3d 75 fa 08 3d d9 5f 42 3e 96 f3 e6 bc
       0.12346614 0.03344198 0.18981875 -0.028192323
000220 d1 28 cc bd 46 15 d6 3d f7 be 0e be 7d 69 c6 3d
       -0.099687226 0.10453276 -0.13940035 0.09688089
000230 26 fe 9d 3c d4 62 f4 3d 29 be 65 3d 75 57 02 be
       0.019286226 0.119329125 0.056089554 -0.12728675
000240 f0 cb 62 3d 72 98 9a bd c9 dc c1 bd ff 6b 43 bc
       0.05537027 -0.07548608 -0.094659396 -0.011927604
000250 d4 7d 48 bd 04 35 39 3e 69 7c f9 bd 23 9a e1 3d
       -0.048948124 0.1808663 -0.121819325 0.11015727
000260 bc 8b d3 3d fc e3 27 3e a6 64 b1 bd a3 c3 00 be
       0.103293866 0.16395563 -0.08661775 -0.1257463
000270 ea 96 0a 3e c8 81 06 be 37 10 b0 3d 30 d5 11 3d
       0.13534132 -0.13135445 0.08596843 0.035603702
000280 ef ce ee 3d f0 d1 d1 bd d8 3b 2d bc a2 44 aa 3c
       0.11660563 -0.102451205 -0.01057335 0.02078468
000290 da 8d dd 3d fd 15 1d 3d 6d 95 82 3d da 27 b4 3d
       0.10818072 0.038351048 0.06376157 0.087966636
0002a0 3c 14 05 be 03 23 a6 bd e5 9c fb 3d da e8 7a 3e
       -0.12996 -0.08112147 0.12285785 0.24502888
0002b0 f1 8d ad bc 55 39 89 3d e0 2e d0 bd 8e 57 5e 3e
       -0.021185847 0.06700388 -0.10165191 0.21713087
0002c0 a2 ca 94 bd d9 c1 16 3e d3 2c e5 bd 75 f6 49 bd
       -0.07265212 0.14722385 -0.1119019 -0.049307305
0002d0 30 76 b7 bd 48 43 91 3d 48 bb a5 3d 4c 26 1b 3d
       -0.08958089 0.07092911 0.08092362 0.03787832
0002e0 9a bf 46 3e cc 29 70 3e ee de ce 3b 59 a6 dd 3d
       0.19409028 0.23453444 0.0063131964 0.10822744
0002f0 e2 00 31 3d 28 15 05 3e c5 bb 50 bd 08 62 58 3d
       0.043213733 0.12996352 -0.05096032 0.052827865
000300 a2 ae 0f 3e dc be c7 bd 0f 3d 3d bd 34 fa b2 bd
       0.14031461 -0.097532004 -0.04620081 -0.08739129
000310 62 1b 89 ba a1 30 cc 3d bc 30 17 be fb 1f f2 bc
       -0.0010460431 0.09970213 -0.14764684 -0.029556265
000320 45 8f 09 3d 69 91 83 bd ad bf 11 be 76 e3 23 bd
       0.033583898 -0.06424219 -0.14233275 -0.040011846
000330 68 13 41 3d 61 ab d7 bd 31 66 5b 3e e9 9c c4 bc
       0.047137648 -0.10530735 0.21425702 -0.024000602
000340 38 1e 00 be ba 6b b6 3d f4 b6 eb ba de 48 0e bd
       -0.12511528 0.08907266 -0.0017983601 -0.03473746
000350 bd cf d2 3b 94 36 0b 3d 10 e4 57 bd 5f b5 a1 bd
       0.0064334557 0.033987597 -0.05270773 -0.07895922
000360 49 6e 31 3e 7f 89 7a bd 48 1c dd bd 64 d5 e9 3d
       0.17327227 -0.061166283 -0.1079641 0.11417654
000370 01 40 56 3b c6 d7 15 3e 7a 3a cd bd 46 1e 28 3e
       0.0032691958 0.14633092 -0.10020919 0.16417798
000380 16 fc 45 3d af b2 f2 3d 83 2e 78 bd 28 ce be 3c
       0.04833611 0.118504874 -0.060591232 0.023291662
000390 4a c8 23 3e e3 51 09 3e 92 0f ef bd 7e 25 fe 3d
       0.15994373 0.13410144 -0.11672892 0.12409495
0003a0 67 81 99 bd 8e 5a 4c 3d 6b fc 22 be 59 c3 ca 3c
       -0.07495385 0.049891047 -0.15916602 0.024751352
0003b0 2f 45 dd bc 9d 7c 9d 3d 9d c6 5c bd 6a 3c 75 3d
       -0.027010528 0.07689784 -0.05390035 0.05987207
0003c0 b8 28 35 bd 51 89 c6 3d 22 4e 77 3d 05 db 1b 3e
       -0.044228286 0.0969416 0.060377248 0.15220268
0003d0 ab 3b dd 3d 84 fa 4a 3e 75 b5 2f 3c fd 17 c9 bd
       0.108023964 0.19822127 0.010724415 -0.098190285
0003e0 f1 b3 8b 3d b3 1e 27 3e d7 bf 36 3e 0f ca 67 bd
       0.068214305 0.16320305 0.17846619 -0.056589182
0003f0 13 c3 2a 3c ad 39 2e bd 95 24 3d 3e 0d 92 2c 3e
       0.010422486 -0.042535473 0.18470986 0.16852589
