trained_model/mc1_mc2/30_days_lookahead/pnet_checkpoint/pnet_400.pth (torch, 545278 bytes, 36 tensors)

network_smart.layer1.0.weight f4 [128, 330]
0	0x3d29c6dd	0.041449416
1	0x3d9794b4	0.0740141
2	0xbeb8f86d	-0.36127034
3	0xbe308ce8	-0.17241251
4	0xbfc58263	-1.5430416
5	0xbf361072	-0.71118844
6	0xbd628ad2	-0.05530817
7	0xbdcafe02	-0.099117294
8	0x3d31e4cc	0.04343109
9	0xbfc396d2	-1.5280402
10	0xbfb232b3	-1.3921722
11	0xbca40479	-0.020021664
12	0x3d853942	0.06505062
13	0xbed80c02	-0.4219666
14	0xbe855216	-0.2603919
15	0xbfc5b1be	-1.5444868
16	0xbf357252	-0.70877564
17	0x3d58f50d	0.052968074
18	0xbd7ef3fc	-0.0622444
19	0x3c1c3b50	0.009535626
20	0xbfc9974c	-1.5749297
21	0xbfb951eb	-1.4478124
22	0x3c0cacbc	0.008586105
23	0x3df25a90	0.1183368
24	0xbec54a09	-0.38533047
25	0xbe457ff8	-0.19287097
26	0xbfc540fa	-1.5410454
27	0xbf459b1f	-0.7718982
28	0xbcb4a062	-0.022049133
29	0xbd8f4735	-0.069960035
30	0x3e0ba9ee	0.13639042
31	0xbfcba78e	-1.5910509
32	0xbfbec4b9	-1.4903785
33	0x3cdbae27	0.02681644
34	0x3e006302	0.12537768
35	0xbef02cb4	-0.46909106
36	0xbe55f723	-0.20895056
37	0xbfcf7045	-1.6206137
38	0xbf498fc6	-0.78735006
39	0xbcdfd4b7	-0.02732311
40	0xbd7df41e	-0.062000386
41	0xbcbf9332	-0.023385618
42	0xbfd20383	-1.6407322
43	0xbfc5bed8	-1.5448866
44	0x3d14c368	0.036319166
45	0x3e1039c0	0.1408453
46	0xbee4b574	-0.44669688
47	0xbe2770b2	-0.16351584
48	0xbfcd5f84	-1.6044774
49	0xbf439c55	-0.7641042
50	0x3d37502d	0.044754196
51	0xbcc15057	-0.02359788
52	0xbd3cfb23	-0.04613794
53	0xbfcb5cd3	-1.5887703
54	0xbfc7560f	-1.5573138
55	0x3cf627cf	0.03004828
56	0x3d761c63	0.060085665
57	0xbeebc392	-0.46047646
58	0xbe040174	-0.1289118
59	0xbfcc3fd8	-1.5956984
60	0xbf4b6392	-0.7944881
61	0x3cfdf292	0.030999456
62	0xbd91ce7d	-0.07119463
63	0x3e3272bf	0.17426585
64	0xbfd3a439	-1.6534492
65	0xbfcc1f74	-1.5947099
66	0x3d09ec75	0.03367277
67	0x3d9ec624	0.07752636
68	0xbef8ed04	-0.4861833
69	0xbe0d12eb	-0.13776748
70	0xbfd3d679	-1.6549827
71	0xbf4a6072	-0.79053414
72	0x3d099941	0.03359342
73	0xbdb0a629	-0.086254425
74	0x3ea31584	0.31852353
75	0xbfd6d1c6	-1.6782768
76	0xbfcb4642	-1.5880816
77	0x3d479c52	0.048733063
78	0x3ddc30ef	0.10751521
79	0xbf0613e0	-0.52374077
80	0xbe55f702	-0.20895007
81	0xbfd8d01d	-1.6938511
82	0xbf4c51b3	-0.79812163
83	0x3c914b69	0.017736154
84	0xbd9fbb8a	-0.07799442
85	0x3e170462	0.14747766
86	0xbfdaac64	-1.708386
87	0xbfc9162b	-1.570989
88	0xbd68cea8	-0.056837708
89	0x3dbb33ac	0.09140715
90	0xbef8b6ee	-0.48577064
91	0xbe1de63a	-0.15419856
92	0xbfde0070	-1.7343884
93	0xbf49e5b3	-0.7886612
94	0x3d2f1897	0.04274806
95	0xbd941dfd	-0.07232282
96	0xbd97f82b	-0.07420381
97	0xbfd2b218	-1.64606
98	0xbfc91544	-1.5709615
99	0x3cd58558	0.02606456
100	0x3de13dac	0.10998091
101	0xbeff9520	-0.4991846
102	0xbe1e00a6	-0.15429935
103	0xbfd9bbb8	-1.7010412
104	0xbf44f597	-0.7693724
105	0x3d4ddefa	0.050261475
106	0xbd8ba8db	-0.06819316
107	0xbdff51d6	-0.12466781
108	0xbfd8db7f	-1.6941985
109	0xbfc97e4a	-1.5741665
110	0xbcd2e33d	-0.025743121
111	0x3cfee893	0.03111676
112	0xbf03afb6	-0.5143999
113	0xbe07419e	-0.13208625
114	0xbfe3e579	-1.7804404
115	0xbf3db688	-0.74106646
116	0x3d112153	0.03543217
117	0xbdcd9f07	-0.10040098
118	0x3d3a9765	0.045554537
119	0xbfe0a861	-1.7551385
120	0xbfd22a7b	-1.6419214
121	0xbb93c4aa	-0.004509528
122	0x3dc8b46c	0.09800038
123	0xbf010a65	-0.50406486
124	0xbd9f9e22	-0.07793833
125	0xbfe87361	-1.8160211
126	0xbf42b889	-0.7606283
127	0xbcf31e43	-0.029677516
128	0xbdc019a1	-0.09379888
129	0xbde8b6f6	-0.11363022
130	0xbfdcdbaf	-1.7254542
131	0xbfd07baa	-1.6287739
132	0xbb86f58d	-0.0041186274
133	0x3c8676a5	0.016413996
134	0xbee196d0	-0.44060373
135	0xbe2b85ed	-0.16750307
136	0xbfe748ae	-1.8069055
137	0xbf566f19	-0.8376327
138	0xbc35ac65	-0.011088465
139	0xbd53abb9	-0.05167744
140	0x3d6f0e85	0.058363456
141	0xbfea3767	-1.8298157
142	0xbfd3b959	-1.6540939
143	0x3d00adcf	0.031415757
144	0x3b78f5b6	0.0037988252
145	0xbed31b76	-0.4123189
146	0xbe2af6e1	-0.1669574
147	0xbfe4e865	-1.7883421
148	0xbf5157da	-0.81774676
149	0x3c76ae06	0.015056139
150	0xbdcf2e4d	-0.10116253
151	0x3e93f8c3	0.28900728
152	0xbfe443a7	-1.7833146
153	0xbfdca77d	-1.7238613
154	0x3d06c447	0.03290203
155	0x3dc9c2b3	0.09851589
156	0xbed1ff54	-0.41015112
157	0xbdb479db	-0.088123046
158	0xbfe3599a	-1.7761719
159	0xbf409301	-0.7522431
160	0xbcf0e2e9	-0.029405074
161	0xbdd9d21c	-0.10635778
162	0xbdb84c09	-0.089988776
163	0xbfe6421b	-1.7988924
164	0xbfdb6016	-1.7138698
165	0xbc5e36a5	-0.013562833
166	0x3a846014	0.0010099434
167	0xbee91ed2	-0.45531327
168	0xbe218ba9	-0.15775932
169	0xbfe1a93e	-1.7629774
170	0xbf443da8	-0.7665658
171	0x3bd8a073	0.006610924
172	0xbdeb3c6a	-0.114861324
173	0xbd876155	-0.066103615
174	0xbfe643c2	-1.7989428
175	0xbfe01d3a	-1.7508919
176	0xbc6fb4a1	-0.014630468
177	0x3d572bac	0.052531883
178	0xbebf6182	-0.3737908
179	0xbd6fcb17	-0.05854329
180	0xbfeb1376	-1.8365314
181	0xbf54ba93	-0.8309719
182	0x3d29f91b	0.04149733
183	0xbdab8acf	-0.08376085
184	0x3d124924	0.035714284
185	0xbfe28a8e	-1.7698534
186	0xbfe3d274	-1.77986
187	0xbc7a427d	-0.015274641
188	0x3db3ca47	0.08778816
189	0xbec26c0f	-0.37973067
190	0xbd807d79	-0.06273932
191	0xbfeb0488	-1.8360758
192	0xbf5a09ab	-0.85171
193	0x3d0490f1	0.03236479
194	0xbdd22988	-0.10261828
195	0x3e06a4ef	0.13148855
196	0xbfe5250a	-1.7901928
197	0xbfe52e15	-1.7904688
198	0x3ce18442	0.027528886
199	0x3d84ec84	0.06490424
200	0xbecf81c3	-0.40528688
201	0xbd367582	-0.044545658
202	0xbfe875a8	-1.8160906
203	0xbf536c81	-0.8258744
204	0xbcdcaa30	-0.02693662
205	0xbdc59d3b	-0.0964913
206	0x3d8832cb	0.06650313
207	0xbfe6556b	-1.7994817
208	0xbfe7f083	-1.8120273
209	0x3aed2582	0.0018092843
210	0xbcc65740	-0.024211526
211	0xbee0ab37	-0.43880627
212	0xbce43be4	-0.02786059
213	0xbff65d91	-1.9247304
214	0xbf44abde	-0.7682475
215	0x3c42c989	0.01188887
216	0xbda71dfc	-0.08160016
217	0x3e610c21	0.21977283
218	0xbff17b39	-1.886573
219	0xbfe92aae	-1.821615
220	0x3d29a82d	0.04142015
221	0x3d6c00a2	0.05761779
222	0xbeaea458	-0.3410976
223	0xbd83690c	-0.064165205
224	0xbfeee962	-1.8664973
225	0xbf583f0c	-0.844712
226	0xbd493661	-0.049124125
227	0xbdc12b41	-0.09432078
228	0x3d9e5266	0.0773056
229	0xbff6ea03	-1.9290165
230	0xbfeef799	-1.8669311
231	0x3c4e4f59	0.01259216
232	0xbd16bb1f	-0.036799546
233	0xbebdb86f	-0.37054774
234	0xbd8f10f2	-0.06985654
235	0xbffe4341	-1.9864274
236	0xbf501e93	-0.8129665
237	0xbd5a8c70	-0.053356588
238	0xbdfa97d8	-0.12235993
239	0xbd90fec1	-0.070798405
240	0xbffadd15	-1.9598719
241	0xbfeeff43	-1.867165
242	0x3c64208d	0.013923776
243	0x3c873735	0.016505817
244	0xbec60185	-0.38673034
245	0x3cef9cf0	0.029249638
246	0xbffcb5d4	-1.974299
247	0xbf5a56c7	-0.8528866
248	0xbb563291	-0.0032683949
249	0xbd55956f	-0.052144464
250	0x3dde3bd6	0.108512565
251	0xbffa2fd4	-1.9545846
252	0xbff3f652	-1.9059546
253	0xbd043eb2	-0.032286353
254	0xbab71221	-0.0013967195
255	0xbecc3c6c	-0.39889848

network_smart.layer1.0.bias f4 [128]
0	0xbca03ab3	-0.01955924
1	0x3d4b521e	0.04963886
2	0xbc70ddef	-0.014701351
3	0xbd13da8b	-0.03609709
4	0xbb8d896c	-0.0043193605
5	0x3d7fa264	0.062410727
6	0x3cd7a3d6	0.02632324
7	0x3d5bc936	0.053658687
8	0x3d8aca26	0.06776838
9	0xbc88675d	-0.01665085
10	0xbe1c6e4a	-0.15276447
11	0xbd70323f	-0.05864167
12	0xbca55621	-0.020182671
13	0xbb8c765e	-0.0042865714
14	0xbc2ac32e	-0.010422511
15	0x3c70a107	0.014686829
16	0xbd70810c	-0.05871682
17	0xbd2b2da6	-0.04179158
18	0x3dadc580	0.08484936
19	0xbd209757	-0.03920683
20	0xbd31cd8d	-0.04340892
21	0xbcd2784d	-0.02569213
22	0xbd5c1d4e	-0.053738885
23	0xbcc069bb	-0.023487916
24	0x3dcd6009	0.10028083
25	0x3de1980f	0.11015331
26	0xbc46bb83	-0.012129667
27	0x3a862647	0.0010234796
28	0x3d8caf82	0.06869413
29	0xbd665086	-0.056229137
30	0xbda23273	-0.07919779
31	0xbcc5bb97	-0.024137301
32	0xbdb84dba	-0.089992
33	0xbde89d32	-0.113581076
34	0x3e0817d1	0.13290335
35	0xbe0afb39	-0.13572396
36	0xbc2db047	-0.01060111
37	0x3d42a3d8	0.047519535
38	0xbd461f1d	-0.048369516
39	0xbddb8765	-0.10719184
40	0xbdc09a7d	-0.09404466
41	0xbdd656ff	-0.10465812
42	0xbc8f7547	-0.017511977
43	0xbc99f2f9	-0.018792616
44	0x3b010764	0.0019688243
45	0xbcaa893f	-0.020817397
46	0x3d2767b5	0.040870387
47	0x3d051643	0.032491934
48	0x3dcff51b	0.10154172
49	0xbd8b1b9f	-0.06792378
50	0xbd6fa9fb	-0.058511715
51	0xbc9a3cdb	-0.018827846
52	0xbd43835e	-0.047732703
53	0xbc42bdca	-0.01188607
54	0x3d2922ec	0.04129307
55	0xbe0b758c	-0.1361906
56	0x3da79b9d	0.08183978
57	0x3c9eed8b	0.019400379
58	0xbc7939ca	-0.015211532
59	0x3d86dcf7	0.065851144
60	0xbccf088e	-0.025272634
61	0xbc9ff146	-0.019524228
62	0xbcfc7a82	-0.030820135
63	0x3d65360c	0.055959746
64	0x3bd0b9eb	0.0063698194
65	0x3c7dbdae	0.015487118
66	0xbdd1d80f	-0.10246288
67	0x3dfdbf73	0.12390032
68	0xbdbbfcf1	-0.09179104
69	0xbd3e65e4	-0.04648389
70	0xba0e6994	-0.00054326025
71	0x3c84f078	0.016227946
72	0xbd13d492	-0.036091395
73	0x3dc55345	0.09635023
74	0x3db441c3	0.088016056
75	0xbc885c95	-0.016645709
76	0xbd8de1f8	-0.06927866
77	0x3d34e255	0.04416116
78	0x3cc5d4d6	0.02414934
79	0x3d84b74a	0.06480272
80	0xbdfbdb9e	-0.12297748
81	0x3c9f9634	0.019480802
82	0xbd104cea	-0.0352296
83	0xbba22205	-0.004947903
84	0x3d6c2574	0.057652906
85	0xbc7f8c0e	-0.0155973565
86	0xbdcaff82	-0.099120155
87	0x3d8f3e23	0.069942735
88	0x3d999617	0.074993305
89	0x3d3e94ce	0.04652863
90	0xbc9fe14e	-0.019516613
91	0x3dd408ba	0.10353227
92	0x3d0408ff	0.03223514
93	0x3e101aae	0.14072677
94	0xbdb13c34	-0.08654061
95	0xbb30e1e2	-0.0026990105
96	0xbd203d0b	-0.039120715
97	0x3e406f27	0.18792401
98	0x3cc20389	0.023683326
99	0xbb10ab2f	-0.002207469
100	0x3c90b388	0.017663732
101	0x3dab547f	0.08365726
102	0xbd50787c	-0.050896153
103	0x3d697415	0.05699547
104	0x3b942482	0.0045209536
105	0xbc9c81f2	-0.019104932
106	0x3cbd53c8	0.02311124
107	0x3c854418	0.016267821
108	0xbcaf9d88	-0.021437421
109	0xbd6c27b1	-0.05765504
110	0xbd2433f7	-0.04008862
111	0x3debaf03	0.1150799
112	0xbcb8c000	-0.02255249
113	0x3c9dfaac	0.019284569
114	0x3e0c172e	0.13680717
115	0x3dacdec1	0.084409244
116	0xbd1f1c12	-0.03884513
117	0xbe1a37f4	-0.15060407
118	0x3d60c0a2	0.05487121
119	0x3d4206ee	0.04736989
120	0x3d5b0325	0.053469796
121	0x3d485599	0.048909757
122	0xbd13a544	-0.03604628
123	0xbd9756c7	-0.07389598
124	0xbbd17a89	-0.006392781
125	0xbd4368e8	-0.04770747
126	0xbd0b5a91	-0.034021918
127	0xbd31a864	-0.04337348

network_smart.layer2.0.weight f4 [128, 128]
0	0xbdc913c2	-0.09818222
1	0xbd3a5493	-0.045490813
2	0x3c9a2cd0	0.018820196
3	0x3d36873a	0.044562556
4	0x3e6c26d4	0.23061687
5	0xbd27d791	-0.040977065
6	0x3da640c2	0.0811782
7	0xbd7282ee	-0.059206896
8	0xbecbaf3c	-0.3978213
9	0x3d3dc530	0.04633063
10	0x3d8b14a6	0.06791048
11	0x3dd07cf2	0.101800814
12	0xbe02299a	-0.12711182
13	0xbd98c406	-0.074592635
14	0xbd3253cf	-0.043536957
15	0xbd20c193	-0.039247107
16	0x3dae6558	0.085154235
17	0x3db0186c	0.08598408
18	0x3d90e70f	0.07075321
19	0xbbd9304e	-0.006628073
20	0xbe48064e	-0.19533655
21	0x3d8846b8	0.066541135
22	0x3d4ec7e9	0.050483618
23	0x3cea6cb6	0.02861629
24	0xbdb235f3	-0.08701696
25	0x3d810485	0.0629969
26	0xbdf1806b	-0.11792072
27	0xbcd2a829	-0.02571495
28	0xbde4624c	-0.11151561
29	0xbddf9799	-0.10917587
30	0x3cc11fd5	0.023574749
31	0xbd83d639	-0.06437344
32	0x3c8d8323	0.017274445
33	0xbb0e64d0	-0.002172757
34	0xbe186a2b	-0.1488425
35	0xbd188916	-0.03724011
36	0x3bf53deb	0.007484188
37	0x3b0f4822	0.0021863063
38	0x3e32ec0f	0.17472862
39	0x3d56deae	0.052458458
40	0x3d1b216f	0.03787368
41	0xbe027402	-0.12739566
42	0xbc286a50	-0.010279253
43	0xbd91edf4	-0.07125464
44	0xbda98fad	-0.08279357
45	0xbda6f431	-0.081520446
46	0x3d50124d	0.050798703
47	0xbd042dcf	-0.03227025
48	0xbcad7ec5	-0.021178612
49	0xbdb357d2	-0.08756985
50	0x3bb6cb4e	0.005578435
51	0x3d41fdc9	0.04736117
52	0xbc1151ae	-0.008869572
53	0xbd86ab83	-0.06575682
54	0x3c922adc	0.017842703
55	0x3ad526dd	0.0016262193
56	0xbb4a7fbd	-0.0030898892
57	0x3d9c158c	0.07621297
58	0xbcafdea4	-0.021468468
59	0xbcaceb7b	-0.02110838
60	0xbc18143d	-0.009282169
61	0xbd95f0a3	-0.073212884
62	0xbc134487	-0.008988506
63	0xbb2227f7	-0.002474306
64	0xbdb16cb2	-0.0866331
65	0xbe563c7a	-0.20921507
66	0xbc10e716	-0.008844158
67	0xbd91b3af	-0.0711435
68	0x3d1f8847	0.038948324
69	0x3a833318	0.0010009734
70	0xbd3b4497	-0.04571971
71	0xbd98b808	-0.07456976
72	0xbdaaf955	-0.083483376
73	0xbd02f4ce	-0.031971745
74	0xbd078339	-0.033084128
75	0x3caf2cad	0.021383608
76	0xbd81a7f8	-0.063308656
77	0xbd8f8445	-0.0700765
78	0x3cb245c4	0.021761782
79	0x3e1fdf0e	0.15612432
80	0xbdfddae2	-0.12395264
81	0xbc8ed1c5	-0.01743401
82	0xbd8be650	-0.06831038
83	0xbd9786a2	-0.07398726
84	0xbd8f6d58	-0.070032775
85	0x3c2f289e	0.010690836
86	0x3de54219	0.11194248
87	0xbdb52573	-0.088450335
88	0xbdb93304	-0.090429336
89	0x3d9747cf	0.07386743
90	0xbccc138d	-0.024911666
91	0xbc2933ef	-0.010327323
92	0x3d01243b	0.031528693
93	0x3ddd3d25	0.10802678
94	0x3d11725f	0.035509463
95	0x3d93c8d1	0.07216037
96	0xbd04fd12	-0.03246791
97	0xbc9aed79	-0.018912064
98	0xbbb743d3	-0.005592802
99	0xbd9ef786	-0.07762055
100	0x3db4fc9a	0.088372424
101	0xbdb73a4d	-0.08946667
102	0xbd0a34f2	-0.0337419
103	0xbdbc2d34	-0.09188309
104	0xbc8e2c5a	-0.017355133
105	0x3cf63ef8	0.030059323
106	0xbcf2f3d0	-0.029657274
107	0x3e5b41a5	0.2141176
108	0x3d9f056b	0.07764705
109	0x3bdaf4a3	0.006681995
110	0xbd57b059	-0.052658413
111	0xbd8c79ef	-0.068591945
112	0x3d42faec	0.04760258
113	0x3ddd498b	0.10805043
114	0xbd89d6df	-0.067304365
115	0xbc8a7d6b	-0.016905507
116	0xbcd39a63	-0.025830453
117	0xbc40db30	-0.011771008
118	0x3b3c073e	0.002869084
119	0x3d7101d7	0.058839645
120	0x3bda3482	0.0066590915
121	0xbdf4892a	-0.119402245
122	0x3d2d7346	0.04234626
123	0x3d529f8c	0.051421687
124	0xbdb7db34	-0.089773566
125	0x3c70f4db	0.014706816
126	0x3cc757c9	0.024333851
127	0x3d89a516	0.06720941
128	0x3d83b02b	0.06430086
129	0xbd59690e	-0.053078704
130	0x3d7b73eb	0.061389845
131	0x3bbfd33d	0.005854039
132	0x3de17074	0.11007777
133	0x3e05b1d4	0.13056117
134	0xbd05c1e9	-0.03265563
135	0x3bd95c3f	0.006633311
136	0xbed5603a	-0.41674978
137	0xbd9b6ccd	-0.075891115
138	0xbccafd1e	-0.024778899
139	0xbda7504a	-0.08169611
140	0xbdf0bf10	-0.11755192
141	0xbb554ce4	-0.003254705
142	0xbd7f132d	-0.062274147
143	0xbdee6423	-0.11640193
144	0x3cbfef7b	0.023429623
145	0xbd265e77	-0.040617432
146	0x3db37048	0.0876165
147	0xbcf60591	-0.030031951
148	0xbdde5f69	-0.10858042
149	0x3a85b5fa	0.0010201328
150	0x3e058eca	0.13042751
151	0xbe15608f	-0.14587615
152	0x3d9d6376	0.07684986
153	0xbc7b0cf9	-0.015322917
154	0x3da5e72a	0.08100732
155	0x3d00cbd5	0.03144439
156	0x3d2890aa	0.041153587
157	0xbe212f4d	-0.157407
158	0x3da1b694	0.07896152
159	0x3d14d736	0.036338054
160	0x3d69ea1c	0.05710803
161	0xbd216c87	-0.03941014
162	0xbdcb083b	-0.09913679
163	0x3da44fe8	0.080230534
164	0x3d27bf84	0.040954128
165	0x3d4c9d86	0.049954914
166	0xbd879f68	-0.06622201
167	0xbd9eb063	-0.07748487
168	0x3d096d5d	0.033551563
169	0x3d9fb28d	0.07797728
170	0xbd936b50	-0.071982026
171	0x3dedc514	0.11609855
172	0x3d221198	0.03956756
173	0xbccd03eb	-0.025026282
174	0xbd90635f	-0.070502035
175	0xbd0c812c	-0.034302875
176	0x3de6b2c4	0.112645656
177	0xbc72284e	-0.014780117
178	0x3e00c51a	0.12575188
179	0x3dcafddb	0.099117
180	0x3d6de7af	0.05808228
181	0xbc94a2e7	-0.018144084
182	0x3d415030	0.047195613
183	0xbdb2fe88	-0.08739954
184	0xbd9e600c	-0.07733163
185	0xbbc90adb	-0.0061353273
186	0xbce01050	-0.027351528
187	0x3d24831f	0.04016411
188	0xbddce5cf	-0.1078602
189	0xbd4f7f98	-0.050658792
190	0x3d1dbc3f	0.038509604
191	0xbea12d86	-0.31480044
192	0xbd64e00a	-0.055877723
193	0xbd0a0a5f	-0.033701297
194	0x3cac4ed0	0.021033674
195	0xbced4201	-0.028962137
196	0x3d6218a6	0.055199288
197	0x3d1a7578	0.037709683
198	0xbd99c15d	-0.07507584
199	0x3c0b47f1	0.008501039
200	0x3db7dc2d	0.08977542
201	0x3d8587ed	0.065200664
202	0x3a90a741	0.0011036174
203	0x3e1e29e7	0.15445672
204	0xbc33e0e6	-0.010978913
205	0xbd590d57	-0.052991237
206	0x3c7b76d8	0.015348159
207	0xbdd024f2	-0.10163297
208	0xbbcb8ffc	-0.0062122326
209	0x3d794147	0.06085327
210	0xbbaf71be	-0.0053541353
211	0x3d9ea91d	0.077470995
212	0xbd3ad218	-0.045610517
213	0xbdc9af4f	-0.098478906
214	0xbcb7c285	-0.022431621
215	0x3c18624d	0.0093007805
216	0x3d0fa0ee	0.035065584
217	0xbd883266	-0.06650238
218	0xbcbed233	-0.02329359
219	0xbd487375	-0.048938233
220	0xbceb20c4	-0.028702147
221	0x3cbeb94e	0.02328172
222	0xbd592a9b	-0.053019147
223	0x3d916e3c	0.07101104
224	0x3d0f0591	0.034917418
225	0xbce8e678	-0.028430209
226	0x3d4d2bae	0.050090484
227	0xbd0ab317	-0.0338622
228	0x3baf3b96	0.0053476794
229	0xbe8ccc36	-0.2749955
230	0x3d8f78a3	0.070054315
231	0x3d8f2e93	0.06991305
232	0xbd346c96	-0.044048868
233	0x3cc0508d	0.02347591
234	0x3cb081dc	0.021546297
235	0x3da06667	0.07832032
236	0x3d953f20	0.07287431
237	0x3d1ac12a	0.03778187
238	0x3b82125e	0.0039694747
239	0xbc582cf8	-0.013194315
240	0xbd435d3e	-0.047696345
241	0xbebe49b3	-0.37165603
242	0x3e64865e	0.22316882
243	0x3d01ed1a	0.03172026
244	0xbdaf64a0	-0.085641146
245	0x3c872677	0.016497834
246	0xbbade960	-0.0053073615
247	0xbc5aa81e	-0.013345746
248	0xbe02b501	-0.1276436
249	0xbeb31cc3	-0.3498288
250	0xbccae076	-0.024765234
251	0xbbd115d4	-0.006380776
252	0xbe4063ae	-0.18788025
253	0x3d4430ec	0.047898218
254	0xbcf63525	-0.030054638
255	0xbd2b19dc	-0.04177271

network_smart.layer2.0.bias f4 [128]
0	0x3daec9e0	0.08534598
1	0x3cdea729	0.027179318
2	0xbd83919f	-0.064242594
3	0x3d8a65eb	0.067577206
4	0x3d84f084	0.06491187
5	0xbc442edf	-0.011974066
6	0x3d62ee63	0.055403125
7	0xbdc3dba8	-0.095633805
8	0x3d8d53ed	0.06900773
9	0xbd4fcf18	-0.05073461
10	0x3d65ede6	0.05613508
11	0xbd916c8a	-0.0710078
12	0x3c31c743	0.01085073
13	0xbcae2bc4	-0.021261103
14	0x3d531e34	0.051542476
15	0xbdb54e39	-0.088528104
16	0x3df47a59	0.119373985
17	0x3d71394b	0.05889253
18	0xbdc0d8c2	-0.09416343
19	0xbd7c43b9	-0.061588023
20	0x3d993434	0.0748066
21	0x3d156fd1	0.03648359
22	0x3d5242fd	0.051333416
23	0x3e15b76e	0.14620754
24	0xbd5c0df5	-0.053724248
25	0x3da2c910	0.07948506
26	0xbd4adae4	-0.049525157
27	0xbd8cd903	-0.06877329
28	0x3dbe0d54	0.09279886
29	0xbd867fe0	-0.06567359
30	0x3dc60865	0.0966957
31	0xbd08d84d	-0.033409405
32	0x3dadca63	0.08485868
33	0x3d97ac17	0.074058704
34	0x3b71df03	0.0036906607
35	0xbd85d930	-0.06535566
36	0xbcb0e097	-0.021591468
37	0x3e145d24	0.14488655
38	0xbb66c75a	-0.0035214038
39	0x3d92e197	0.07171934
40	0xbdbbf540	-0.09177637
41	0xbcf6659f	-0.030077754
42	0x3dcdcbf1	0.10048664
43	0xbd07bbc5	-0.033138055
44	0xbceaa85c	-0.028644733
45	0xbd63d5bf	-0.055623766
46	0x3d007c1d	0.031368364
47	0x3d763d5b	0.060117107
48	0x3d0e968f	0.034811553
49	0xbda25e7d	-0.079281785
50	0x3d93211a	0.07184048
51	0x3c63ad46	0.013896292
52	0xbd88d2d7	-0.066808395
53	0xbdb62d21	-0.088953264
54	0xbdb0de64	-0.08636168
55	0xbdf781ad	-0.120852806
56	0xbe137169	-0.14398731
57	0xbd8eb303	-0.069677375
58	0xbd0855e3	-0.033285033
59	0xbd82a46c	-0.06379017
60	0xbd838ae5	-0.064229764
61	0x3dcf4bbf	0.10121869
62	0xbc0d3e89	-0.008620867
63	0x3d50abee	0.050945215
64	0x3dc950ce	0.098298654
65	0x3d95c47b	0.07312866
66	0x3cfa668a	0.030566473
67	0x3db5677a	0.08857627
68	0x3d84550c	0.06461534
69	0x3d2fab86	0.042888187
70	0x3ddfca64	0.10927275
71	0xbbcc77e2	-0.006239877
72	0x3d768302	0.060183533
73	0xbdc7c49c	-0.09754297
74	0xbd92da09	-0.07170493
75	0xbd2a859e	-0.041631334
76	0x3cd3deed	0.025863135
77	0xbd745338	-0.059649676
78	0x3dc8c5c1	0.098033436
79	0x3c8266cf	0.015918164
80	0xbd964f3e	-0.07339333
81	0xbda577eb	-0.08079513
82	0xbcd5d420	-0.026102126
83	0x3d998962	0.07496907
84	0x3c981e88	0.018569246
85	0x3d1a5525	0.037678856
86	0x3d35e5c1	0.044408564
87	0x3d06911a	0.032853223
88	0x3d6ec5a3	0.05829395
89	0xbdd7a421	-0.10529352
90	0xbdefcba1	-0.11708761
91	0x3d4abbec	0.049495623
92	0x3dc6144a	0.096718386
93	0x3d9260e2	0.07147385
94	0xbd392217	-0.045198526
95	0xbd7ec6a6	-0.062201165
96	0x3cc0a9da	0.023518492
97	0xbd4e67f1	-0.050392095
98	0xbc498a24	-0.012301002
99	0x3bd07857	0.006362002
100	0x3d566b0d	0.052348185
101	0x3d5a9f3e	0.05337452
102	0x3cb54ca9	0.022131281
103	0x3d3416fc	0.043967232
104	0x3d45b6f5	0.048270185
105	0xbdd4b520	-0.10386109
106	0x3d3eb23a	0.04655669
107	0x3d839512	0.06424917
108	0xbdf10f4a	-0.11770494
109	0xbcc6bf73	-0.024261212
110	0x3da7f658	0.08201283
111	0x3d8bcd7a	0.06826301
112	0x3e04295d	0.12906404
113	0xbd5389d8	-0.05164513
114	0x3da54c0d	0.08071146
115	0xbcf492bd	-0.029855127
116	0xbd092a5a	-0.033487655
117	0xbd3c7fdb	-0.04602037
118	0x3d427864	0.047478095
119	0xbd3cd380	-0.04610014
120	0xbc7155b7	-0.014729909
121	0x3d236b81	0.039897446
122	0xbdc77700	-0.09739494
123	0xbd93b5a8	-0.072123826
124	0x3d149819	0.036277864
125	0xbbb50d26	-0.005525249
126	0xbd595823	-0.05306257
127	0x3c29dd52	0.010367708

network_smart.layer3.0.weight f4 [48, 128]
0	0xbbc2d0b8	-0.0059452914
1	0x3d8739bf	0.06602811
2	0x3e7cb8bf	0.2467985
3	0x3dfff996	0.124987766
4	0x3d12c747	0.035834577
5	0x3c85ad65	0.016318033
6	0x3d3f78a2	0.046745904
7	0x3d309cd2	0.043118306
8	0x3cc0e037	0.023544414
9	0xbd8a93c8	-0.06766468
10	0xbd297953	-0.04137547
11	0xbe0a1038	-0.1348275
12	0x3e18a820	0.14907885
13	0x3e78940b	0.24275224
14	0x3e0f09f8	0.13968647
15	0xbe140521	-0.14455082
16	0xbd05c51a	-0.032658674
17	0x3d7a5879	0.06111953
18	0x3d6d71d2	0.057969876
19	0x3da445dc	0.08021137
20	0x3dd47b29	0.103750534
21	0xbe6d81b3	-0.23194008
22	0x3d5b8003	0.05358888
23	0x3d7d071f	0.06177437
24	0xbb33ac70	-0.0027416013
25	0xbb0dd8e1	-0.0021644162
26	0x3bb9c600	0.0056693554
27	0x3d6dd7d9	0.058067176
28	0xbcf55db2	-0.029951904
29	0xbcae036b	-0.021241864
30	0x3c84b3e4	0.01619906
31	0xbd8cc933	-0.06874313
32	0x3eaf22d6	0.34206265
33	0x3df4b083	0.119477294
34	0xbd1f52c5	-0.038897295
35	0xbd3b288f	-0.045692977
36	0x3d0a0463	0.03369559
37	0x3d7a4d5f	0.061108943
38	0xbd3b8d14	-0.04578884
39	0x3db20f02	0.08694269
40	0x3e896a4f	0.2683892
41	0x3e2b7712	0.1674464
42	0x3e08803e	0.1333017
43	0xbda280aa	-0.07934697
44	0xbd9d966c	-0.07694706
45	0x3c0aa954	0.0084632225
46	0xbd962771	-0.073317416
47	0x3d668df4	0.05628772
48	0x3e6f2e81	0.23357584
49	0xbdce1780	-0.10063076
50	0x3e938791	0.28814366
51	0xbe89d9fb	-0.26924118
52	0xbe39f4a9	-0.18159737
53	0x3d9bdcae	0.07610451
54	0xbe38912e	-0.18024132
55	0xbe891f3a	-0.26781636
56	0xbe443eba	-0.19164553
57	0x3bf6c1d4	0.0075304303
58	0xbe4a9d49	-0.19786562
59	0xbd3b4cd2	-0.04572756
60	0xbdc888ad	-0.09791694
61	0xbd54d870	-0.051964223
62	0x3dafc791	0.08582986
63	0x3e0e46e5	0.13894232
64	0x3d84c8f0	0.06483638
65	0xbd8aa594	-0.06769863
66	0xbcfcf871	-0.030880185
67	0xbddb5342	-0.107092395
68	0xbc1a56bd	-0.009420094
69	0x3d383e90	0.04498154
70	0x3cd83d78	0.026396498
71	0x3c841717	0.016124291
72	0x3c92c184	0.017914541
73	0xbe31a23a	-0.17347041
74	0xbecfff78	-0.40624595
75	0xbd638daa	-0.055555023
76	0xbd826623	-0.06367137
77	0x3da7d122	0.08194186
78	0x3b06de00	0.00205791
79	0x3d137d53	0.03600819
80	0x3e08c9b1	0.13358189
81	0x3d8a2f33	0.06747284
82	0x3e94c1f5	0.29054227
83	0x3da04d94	0.07827297
84	0x3db48684	0.08814719
85	0xbd404b41	-0.046946768
86	0x3e482a5a	0.19547406
87	0x3da62771	0.081129916
88	0x3da51089	0.080597945
89	0xbed5c625	-0.41752735
90	0xbe8c4562	-0.27396685
91	0x3e495e3d	0.19664855
92	0x3e363b36	0.17796025
93	0xbe75eeab	-0.24016826
94	0xbe00b4b4	-0.12568933
95	0x3ee29b52	0.44259125
96	0xbcd54254	-0.026032604
97	0xbe04f0aa	-0.12982431
98	0x3dbf566e	0.09342657
99	0x3e058281	0.13038065
100	0x3d2ea24f	0.04263526
101	0x3c5b613d	0.013389883
102	0xbdf653b1	-0.120276816
103	0x3d0dd979	0.034631226
104	0xbdad6200	-0.08465958
105	0xbe7b4de1	-0.24541427
106	0xbde1c673	-0.11024179
107	0x3e810384	0.25197995
108	0xbd89fbc7	-0.06737476
109	0xbe5a39d0	-0.21311116
110	0x3bae3e66	0.005317497
111	0x3d8241ba	0.063601926
112	0x3e14cbe2	0.145309
113	0xbe062852	-0.13101318
114	0x3aa3f0b4	0.0012507648
115	0xbda5e0e0	-0.08099532
116	0xbe440d54	-0.1914571
117	0xbd95b0cd	-0.07309113
118	0xbd62f2cc	-0.05540733
119	0x3d91e02c	0.071228355
120	0x3d0c4701	0.034247402
121	0x3ea16d23	0.31528577
122	0xbd471049	-0.048599515
123	0xbd834e53	-0.064114235
124	0x3ef83d1c	0.48484123
125	0xbd9480f7	-0.072511606
126	0xbdd18c83	-0.102318786
127	0xbc391343	-0.011296096
128	0x3cc9ea6c	0.024647914
129	0xbd091420	-0.03346646
130	0x3e5c96e0	0.21541929
131	0x3d7de36a	0.061984457
132	0x3cee25ef	0.029070823
133	0xbd9f6dc2	-0.077846065
134	0x3d8c8ba2	0.0686257
135	0x3cf910d0	0.030403525
136	0x3bd32094	0.0064430926
137	0x3d47ed39	0.048810218
138	0x3de0f3b1	0.109839804
139	0x3e643eb0	0.22289538
140	0x3e25d1c5	0.16193302
141	0x3d6d5c92	0.05794961
142	0x3e733c7f	0.23753546
143	0x3d57c82d	0.052681137
144	0xbd3a013d	-0.045411337
145	0xbe042215	-0.12903626
146	0x3d56110a	0.052262343
147	0x3e3dbac8	0.18528283
148	0x3e3525bc	0.17690176
149	0xbc378007	-0.011199958
150	0x3dce22f6	0.10065262
151	0x3dad92bb	0.08475252
152	0x3d7ae6b0	0.061255157
153	0x3c279f03	0.010230782
154	0xbef4b9a4	-0.47797883
155	0xbd86ad24	-0.06575993
156	0x3d988426	0.0744708
157	0x3cbd6eae	0.023124065
158	0x3e523293	0.20527105
159	0x3d872026	0.06597929
160	0x3d154ead	0.036451984
161	0x3e9e4dd7	0.30918762
162	0xbdb274d4	-0.087136894
163	0xbce0f8c0	-0.027462363
164	0xbde3e54d	-0.1112772
165	0x3de687f4	0.112564
166	0xbbebcabe	-0.0071957996
167	0xbe029aa0	-0.12754297
168	0xbdb6a2a9	-0.08917744
169	0x3df2861a	0.11841984
170	0xbe070960	-0.1318717
171	0xbcf61007	-0.03003694
172	0x3c8fd9f1	0.017559977
173	0x3c30d693	0.010793346
174	0xbcac979f	-0.021068392
175	0x3db8d75c	0.090254515
176	0x3dc05565	0.09391288
177	0xbd1f7060	-0.03892553
178	0x3db1cc40	0.08681536
179	0xbd92ab63	-0.07161596
180	0xbbc15005	-0.0058994316
181	0x3d4e751e	0.05040466
182	0x3a39af0c	0.0007083274
183	0x3dd8cccd	0.10585938
184	0xbed7e531	-0.42167047
185	0x3d7015a9	0.058614407
186	0x3d3a7088	0.045517474
187	0xbdea2d6b	-0.11434444
188	0xbe0a2145	-0.13489254
189	0x3e15137b	0.14558212
190	0x3d85fe50	0.06542647
191	0x3c552fa6	0.013011849
192	0xbea6c151	-0.32569364
193	0xbd9f6b3e	-0.07784127
194	0x390a512c	0.00013190944
195	0x3e18ff1e	0.1494107
196	0x3c2cae09	0.01053954
197	0x3dd9b09c	0.10629389
198	0x3e1d869d	0.15383382
199	0x3e103931	0.14084317
200	0xbce398ec	-0.02778288
201	0x3b4cd56e	0.0031255144
202	0xbd22bab7	-0.039728846
203	0xbc87526d	-0.016518796
204	0x3d985f57	0.0744006
205	0xbe5c978f	-0.2154219
206	0x3bdd755b	0.0067583746
207	0xbdadc57f	-0.08484935
208	0xbf44cbf4	-0.7687371
209	0x3e480508	0.1953317
210	0x3dab8c81	0.08376408
211	0x3d92358c	0.071391195
212	0xbe24bed2	-0.16088417
213	0xbdbbb807	-0.0916596
214	0xbdeafa02	-0.114734665
215	0x3d1886de	0.037237994
216	0x3d2ec5b7	0.042669024
217	0xbe6a3cb2	-0.22874716
218	0xbe1ccbe7	-0.15312158
219	0xbe1461d8	-0.1449045
220	0xbf190794	-0.5977719
221	0xbe2ad012	-0.16680935
222	0x3d726299	0.05917606
223	0x3b6bc46a	0.0035975226
224	0xbd33dfb0	-0.043914497
225	0x3db543f1	0.088508494
226	0xbd428b6e	-0.04749625
227	0x3e026d07	0.12736903
228	0xbd9637d7	-0.07334869
229	0x3d97a34a	0.07404192
230	0xbdcd3ff3	-0.10021963
231	0xbdce8e8e	-0.10085784
232	0xbd944ed5	-0.072415985
233	0xbdabf937	-0.08397143
234	0x3bfe1ff8	0.007755276
235	0xbcfaed18	-0.030630633
236	0x3deb6cbd	0.114953496
237	0xbde4e834	-0.11177102
238	0xbc402a3b	-0.0117288185
239	0x3dd0f1b2	0.1020235
240	0x3e2fa690	0.17153382
241	0xbc3f9c21	-0.011694939
242	0x3ceb8d25	0.028753826
243	0xbd82663b	-0.06367155
244	0xbc6e2d9f	-0.014537244
245	0xbd799763	-0.06093539
246	0x3c82ad78	0.015951857
247	0x3d3524b3	0.044224452
248	0xbe0240e0	-0.1272006
249	0x3d90238d	0.07038031
250	0x3b0964e8	0.0020964686
251	0xbdf10796	-0.11769025
252	0x3deb00ac	0.114747375
253	0x3dd33c0c	0.103141874
254	0xbd80300e	-0.06259166
255	0x3dd96587	0.10615068

network_smart.layer3.0.bias f4 [48]
0	0xbd645419	-0.055744264
1	0xbd6ad68e	-0.05733352
2	0x3cae6fed	0.021293605
3	0xbd038f2a	-0.032118954
4	0x3c971df2	0.018446896
5	0xbaeda42a	-0.001813059
6	0xbd933ab1	-0.07188929
7	0x3d96bb64	0.07359961
8	0x3c8e4a47	0.017369403
9	0x3d7df55d	0.062001575
10	0x3adf895b	0.0017054485
11	0x3cb5af8f	0.02217844
12	0x3cd64af9	0.026158797
13	0x3d405141	0.04695249
14	0xbca7ac62	-0.02046794
15	0xbd33f3be	-0.043933623
16	0xbdcb3f13	-0.0992414
17	0xbcc13361	-0.02358407
18	0xbd4307b6	-0.047614776
19	0x3d81c807	0.0633698
20	0x3ce7ceb6	0.02829681
21	0x3d6efda8	0.058347374
22	0x3dc57aef	0.09642588
23	0x3ccf395f	0.025295911
24	0x3d750480	0.059818745
25	0x3c32868d	0.010896337
26	0x3dd7048f	0.10498916
27	0x3daebb29	0.08531792
28	0x3d989f8c	0.07452306
29	0x3d6c0134	0.057618335
30	0x3d36d4f7	0.044636693
31	0xbcc1a33b	-0.023637405
32	0x3c9cb6e5	0.01913018
33	0xbd8caee2	-0.06869294
34	0xbc3187bf	-0.010835587
35	0x3dc2f852	0.095200196
36	0xbace7d2a	-0.0015753855
37	0x3dc0e7d1	0.094192155
38	0x3cb8fa31	0.022580238
39	0x3dbf703f	0.09347581
40	0x3c3faf1e	0.011699466
41	0xbe23a68c	-0.15981501
42	0x3d77a83a	0.060463168
43	0x3b80873f	0.0039223726
44	0x3cf4fa30	0.029904455
45	0x3d93d956	0.07219188
46	0x3c3d8d66	0.011569357
47	0xbccb0f99	-0.024787711

fc_smart.weight f4 [64, 48]
0	0x3ed19d54	0.40940344
1	0x3ebc436d	0.36770192
2	0x3e5094f3	0.2036932
3	0xba7d425c	-0.00096610724
4	0x3e1a5eb5	0.1507519
5	0xbe47af73	-0.19500522
6	0xbd46b48c	-0.048512027
7	0x3d610c02	0.054943092
8	0xbcc34c55	-0.023840109
9	0xbd97691e	-0.073930964
10	0x3f061fd0	0.5239229
11	0x3dfffb13	0.124990605
12	0x3c641342	0.013920607
13	0xbe4d885c	-0.20071548
14	0x3e15033d	0.14552017
15	0x3ce31784	0.027721174
16	0xbe90e8ea	-0.283027
17	0x3ee07aa0	0.43843555
18	0x3e89531d	0.26821223
19	0xbbdf6d2e	-0.006818435
20	0xbdc1515f	-0.094393484
21	0xbe234252	-0.15943268
22	0xbe789660	-0.24276114
23	0xbd587e5d	-0.052854884
24	0xbe0ff417	-0.14057957
25	0x3e819246	0.2530691
26	0xbdedb5e7	-0.11606961
27	0x3e9a3d1b	0.30124745
28	0x3ed9d78b	0.4254726
29	0x3e1ad51b	0.15120356
30	0xbe1bb1af	-0.152045
31	0x3c5eb5fa	0.013593191
32	0xbe4c7ae3	-0.19968753
33	0x3d806baf	0.06270539
34	0x3e2a5d9e	0.16637275
35	0x3d09fb91	0.033687178
36	0xbeecd624	-0.46257126
37	0xbd2bfb14	-0.041987494
38	0xbe2065f0	-0.15663886
39	0xbd0e0c2b	-0.034679573
40	0x3b9cadaa	0.0047814446
41	0xbedfbe8a	-0.43700057
42	0xbdfc2ba6	-0.12313013
43	0x3e7957c6	0.24349889
44	0xbdd21464	-0.102577955
45	0xbdc38cb3	-0.095483206
46	0xbe329581	-0.17439844
47	0xbdb21335	-0.0869507
48	0xbee4f855	-0.44720712
49	0xbecd7a54	-0.4013239
50	0xbe31a331	-0.17347409
51	0xbe6b7b7e	-0.22996327
52	0xbe00abdc	-0.12565559
53	0xbc8bb8a1	-0.017055811
54	0x3dfe7bd8	0.12425965
55	0x3c3e792a	0.011625567
56	0x3e3e2c2f	0.18571542
57	0xbe3f17d7	-0.18661438
58	0xbef149ab	-0.47126517
59	0xbe424e22	-0.18975118
60	0xbd50a292	-0.05093629
61	0x3e13c01d	0.14428754
62	0xbe749109	-0.23883452
63	0xbdb83189	-0.08993823
64	0x3f0a8cc3	0.54121035
65	0xbf00cd22	-0.5031301
66	0xbe907278	-0.28212333
67	0xbd814869	-0.06312639
68	0x3e635556	0.22200522
69	0xbe3a3500	-0.1818428
70	0x3ea46f15	0.32116
71	0x3ea7cd40	0.3277378
72	0x3e4bd386	0.19904909
73	0xbe99bd76	-0.3002736
74	0x3e2837bd	0.16427512
75	0xbee03fc0	-0.43798637
76	0xbed5e985	-0.41779724
77	0xbeee0805	-0.46490493
78	0x3ec43a07	0.3832552
79	0x3e85da28	0.26143003
80	0x3ee22251	0.44166806
81	0xbe2058b4	-0.15658838
82	0xbe05c8db	-0.13064902
83	0xbd9ee88c	-0.077591985
84	0x3e8c6736	0.27422494
85	0xbd8717e2	-0.06596352
86	0x3e110995	0.14163812
87	0x3e7904ca	0.24318233
88	0x3dfe8ae7	0.12428837
89	0x3f07f1eb	0.5310351
90	0x3d372b3a	0.04471896
91	0xbec2cc81	-0.3804665
92	0x3cc363fc	0.023851387
93	0xbca0d4d3	-0.019632732
94	0x3c3200f6	0.010864487
95	0x3e86eaa3	0.2635089
96	0xbec4726d	-0.3836855
97	0xbeab2110	-0.33423662
98	0xbe29357e	-0.16524312
99	0xbe2cfbbe	-0.16892907
100	0xbe69e9a3	-0.22843032
101	0x3e01f6e3	0.12691836
102	0x3e0512ed	0.12995501
103	0x3dc49a55	0.09599749
104	0x3e77953d	0.24178024
105	0xbba9334e	-0.0051635867
106	0xbe93e8f6	-0.28888673
107	0xbe8d8f25	-0.27648273
108	0xbdb1dbff	-0.08684539
109	0x3e7f7606	0.24947366
110	0xbdd82261	-0.10553432
111	0xbe1213bc	-0.1426534
112	0x3ea3c59f	0.3198671
113	0xbf28df0f	-0.6596536
114	0xbe17f96a	-0.14841238
115	0x3e0a697c	0.13516802
116	0x3e605cca	0.21910396
117	0xbd96399d	-0.073352076
118	0x3e2d84ee	0.1694524
119	0x3eec88e0	0.46198177
120	0x3c725d47	0.014792747
121	0xbe8011c2	-0.25013548
122	0xbd000c78	-0.03126189
123	0xbed8f00a	-0.42370635
124	0xbe80902a	-0.25109988
125	0xbed1297d	-0.40851966
126	0x3eadd309	0.3395007
127	0xbd64f024	-0.05589308
128	0x3f0f9d86	0.56099737
129	0xbdbdbe7d	-0.092648484
130	0xbe96ff94	-0.29491866
131	0x3d2d33ee	0.042285852
132	0x3f035a4a	0.51309645
133	0xbe19a35d	-0.15003724
134	0x3d8decd6	0.069299385
135	0x3e2365aa	0.1595675
136	0x3e3b194b	0.18271367
137	0x3f00f743	0.5037729
138	0xbba437c2	-0.0050115297
139	0xbec9851f	-0.39359376
140	0x3c956e25	0.018240998
141	0x3de4c0fd	0.11169622
142	0xbdc01f89	-0.09381015
143	0x3e89c338	0.26906753
144	0xbea9d039	-0.33166674
145	0xbec0a2aa	-0.37624103
146	0xbe1f0d90	-0.15532517
147	0xbe5bacf6	-0.21452698
148	0xbe20879e	-0.15676734
149	0x3cdbe420	0.026842177
150	0xbc02f0f5	-0.007992019
151	0xba867371	-0.0010257793
152	0x3deb79c5	0.11497835
153	0xbb72e789	-0.0037064275
154	0xbf2a73c2	-0.6658288
155	0xbebeb8bb	-0.37250313
156	0xbcae4b1f	-0.021276055
157	0x3e910553	0.28324375
158	0xbdb494b3	-0.088174246
159	0xbda97931	-0.082750686
160	0x3f05cdb8	0.52267027
161	0xbf2294d9	-0.63508373
162	0xbe9e2938	-0.30890822
163	0x3e1154a0	0.14192438
164	0x3c2071d1	0.009792761
165	0xbe0282e7	-0.12745248
166	0x3d8cd882	0.06877233
167	0x3f068944	0.525532
168	0x3e2422c5	0.16028889
169	0xbe9c7606	-0.30558795
170	0xbcc6009a	-0.024170209
171	0xbf0926ec	-0.53575015
172	0xbe80567c	-0.25065982
173	0xbea8c7cf	-0.32964942
174	0x3f06b0d3	0.5261356
175	0x3ddffdba	0.109370664
176	0x3f0fd2d8	0.561811
177	0xbe13f186	-0.14447603
178	0xbe012929	-0.12613358
179	0xbd4d13b1	-0.050067607
180	0x3e81e7b4	0.25372088
181	0x3c9216b2	0.017833088
182	0x3e1c170d	0.15243168
183	0x3e9c070d	0.3047413
184	0x3d8e44a6	0.069466874
185	0x3f20e2fc	0.6284635
186	0x3e00cc99	0.12578048
187	0xbeb3b78e	-0.3510098
188	0x3d7abac5	0.061213274
189	0x3d6928db	0.05692373
190	0xbdcc5b1c	-0.09978315
191	0x3e912b4d	0.28353348
192	0xbeb31c6c	-0.34982622
193	0xbeeb175d	-0.45916262
194	0x3dd7465b	0.10511466
195	0xbe7ba9df	-0.2457652
196	0xbe8b79e0	-0.2724142
197	0x3dd18815	0.10231034
198	0xbd647935	-0.055779655
199	0x3d7d92ff	0.061907765
200	0x3e7b7e1e	0.24559829
201	0x3d2487c1	0.040168528
202	0xbf1a61c1	-0.6030541
203	0xbe53c881	-0.20681955
204	0x3debc39c	0.11511919
205	0x3ecaec37	0.39633343
206	0xbe28357d	-0.16426654
207	0xbe2fa537	-0.17152868
208	0x3f05d7ba	0.522823
209	0xbf151cca	-0.58247054
210	0xbdebebef	-0.1151961
211	0x3db8e8ef	0.090288036
212	0x3d8a5b12	0.067556515
213	0xbc9cce60	-0.019141376
214	0x3e2d3d63	0.16917948
215	0x3ed0da1d	0.40791407
216	0x3ce4aca5	0.027914355
217	0xbe9f281d	-0.31085292
218	0x3d13f512	0.03612239
219	0xbf0c4bc1	-0.5480309
220	0xbe832ee2	-0.25621706
221	0xbe2f7d74	-0.171377
222	0x3edac01c	0.42724693
223	0x3cfed21d	0.03110605
224	0x3f158779	0.5840984
225	0xbe2de3bd	-0.16981407
226	0xbe7c9d2f	-0.24669336
227	0xbe1cdc96	-0.15318522
228	0x3ef29a4f	0.47383353
229	0xbd922e4e	-0.07137738
230	0x3d22aa87	0.03971341
231	0x3e891c27	0.2677929
232	0x3e77ff63	0.24218516
233	0x3eff61c8	0.4987929
234	0x3d9a3511	0.07529653
235	0xbec3414c	-0.38135755
236	0x3e65406b	0.22387855
237	0x3dc9600e	0.09832774
238	0x3e0f6202	0.14002231
239	0x3db83ac1	0.089955814
240	0xbe70defc	-0.23522562
241	0xbecc56f4	-0.3991009
242	0xbce4a8fa	-0.027912606
243	0xbe63f723	-0.22262244
244	0xbe558623	-0.2085195
245	0x3e1571d3	0.14594202
246	0x3db11c3c	0.086479634
247	0x3dcff1d3	0.10153546
248	0x3e45e348	0.19324982
249	0x3e0c58f4	0.13705808
250	0xbeac91f6	-0.3370511
251	0xbeb615a3	-0.35563383
252	0xbd2f80f5	-0.042847592
253	0x3ebedf58	0.37279773
254	0xbdc12ea8	-0.09432727
255	0xbe638a0d	-0.22220631

fc_smart.bias f4 [64]
0	0x3ce4281f	0.027851162
1	0x3ce2be4b	0.02767863
2	0xbdf862ea	-0.12128241
3	0xbd1f374d	-0.0388711
4	0xbd964d52	-0.073389664
5	0xbd398829	-0.045295868
6	0x3d459be0	0.048244357
7	0x3c21aabd	0.009867367
8	0x3e05847e	0.13038823
9	0x3dab59bf	0.08366727
10	0x3dd09e8f	0.10186493
11	0xbdceabc5	-0.10091356
12	0x3d9dba59	0.077015586
13	0xbd0bec07	-0.03416064
14	0x3d228e3b	0.039686423
15	0xbda92ecc	-0.08260879
16	0x3d7f5e83	0.062345993
17	0x3d930d3f	0.07180261
18	0x3e054590	0.13014817
19	0x3ca876f1	0.020564528
20	0x3c8adbff	0.016950605
21	0x3bf3fe8e	0.007446117
22	0x3d7e34e4	0.06206216
23	0xbdc0f905	-0.09422497
24	0x3bda11bf	0.0066549475
25	0x3ca0fb9e	0.01965123
26	0x3da2a4a1	0.07941557
27	0xbc36b964	-0.011152599
28	0x3de47403	0.1115494
29	0x3d344a04	0.0440159
30	0x3dbdd5f7	0.09269326
31	0x3b4325a7	0.0029777081
32	0x3d76607e	0.060150616
33	0x3dbe8280	0.09302235
34	0x3c141060	0.009037107
35	0x3c529843	0.012853685
36	0xbd41a267	-0.04727402
37	0x3dbf0f95	0.09329144
38	0x3d5576fa	0.052115418
39	0xbd2e0140	-0.04248166
40	0x3da9ebc6	0.08296923
41	0x3cb7cb27	0.022435738
42	0xbd060fec	-0.032730028
43	0x3d4756b6	0.04866668
44	0x3c5460a6	0.012962496
45	0x3c746f35	0.014919092
46	0x3caea894	0.021320619
47	0x3d919c78	0.07109922
48	0x3bae6185	0.005321684
49	0x38f3ba61	0.00011621859
50	0x3daaea38	0.08345455
51	0x3d075e75	0.033049066
52	0xbda5cc18	-0.080955684
53	0x3d839d5f	0.064265005
54	0xbd1b49dc	-0.037912235
55	0xbdc2f405	-0.09519199
56	0x3d86bd34	0.065790564
57	0xbd2c842f	-0.042118248
58	0xbd3f48cf	-0.046700295
59	0x3d7ca96a	0.061685003
60	0x3c9ed12b	0.019386848
61	0x3ced166e	0.02894136
62	0x3cec107c	0.028816454
63	0xbcb92a70	-0.022603244

network_aging.lstm.weight_ih_l0 f4 [128, 5]
0	0xbcdd75e6	-0.027033757
1	0x3d791ca5	0.060818333
2	0x3d53419b	0.051576238
3	0x3b57aa1c	0.003290779
4	0x3e2270c4	0.15863329
5	0x3dd60a26	0.104511544
6	0x3e3bce27	0.1834036
7	0xbda41fe3	-0.080138944
8	0x3e0ad8c1	0.13559248
9	0xba5ef335	-0.00085048686
10	0x3e449509	0.19197477
11	0x3e0c1b8f	0.13682388
12	0x3b6701eb	0.0035248946
13	0xbdcb02ee	-0.09912668
14	0x3d6d357e	0.057912342
15	0xbdda2696	-0.10651891
16	0x3e47f69e	0.1952767
17	0x3d8642e2	0.06555726
18	0xbda8eb79	-0.08248038
19	0x3e1105ff	0.14162444
20	0x3e091ff6	0.13391098
21	0x3d132fe2	0.035934336
22	0x3e447db9	0.19188584
23	0xbdc4b54e	-0.096048936
24	0xbd58611d	-0.05282699
25	0x3e0c34bf	0.13691996
26	0x3c7df771	0.015500889
27	0x3de51db3	0.11187305
28	0xbd55cc4f	-0.052196797
29	0xbdab840e	-0.08374797
30	0x3e51315d	0.20428987
31	0xbd221af8	-0.0395765
32	0xbd019d6b	-0.031644266
33	0x3e1d2754	0.15347034
34	0x3cc20bff	0.02368736
35	0x3c9583f6	0.0182514
36	0xbd982aac	-0.07430014
37	0x3dc2f3d4	0.09519163
38	0x3e43738f	0.19087051
39	0x3da5d4b8	0.080972135
40	0x3c069b5a	0.00821575
41	0x3e26914f	0.16266368
42	0x3e116f89	0.14202704
43	0x3df584e5	0.11988238
44	0xbdaf93e1	-0.085731275
45	0xbd9d411b	-0.076784335
46	0xbce6c5db	-0.028170517
47	0xbd803567	-0.06260186
48	0xbdbc0a8f	-0.091817014
49	0x3d191a6f	0.037378725
50	0xbd73e542	-0.05954481
51	0x3c28a557	0.010293326
52	0xbdfb56eb	-0.12272438
53	0xbd4ae25c	-0.04953228
54	0xbdd7038b	-0.10498723
55	0xbe0e2836	-0.13882527
56	0x3da1fc70	0.07909477
57	0xbe0cc157	-0.13745628
58	0xbce13a44	-0.027493604
59	0x3d81fd4d	0.063471414
60	0x3e5061c3	0.20349793
61	0xbdae1990	-0.085009694
62	0x3de8b66f	0.113629214
63	0x3cbdc22a	0.023163874
64	0xbd73042a	-0.059330143
65	0xbde1d581	-0.11027051
66	0xbe0c22e5	-0.13685186
67	0xbe0cbc29	-0.13743652
68	0x3cfcea40	0.030873418
69	0x3e2c0f7f	0.16802786
70	0x3e2be177	0.16785227
71	0xbdfeb384	-0.12436584
72	0xbe166153	-0.14685564
73	0x3c19971f	0.009374409
74	0xbc13c516	-0.009019157
75	0xbc28a8ff	-0.010294198
76	0xb9d9687a	-0.00041467306
77	0xbdd8cfcf	-0.10586511
78	0x3e4b6d65	0.1986595
79	0xbcc622ad	-0.024186457
80	0x3dcfe6cc	0.10151443
81	0x3d1ab92a	0.037774242
82	0xbd7d0a49	-0.061777387
83	0xbcd1311e	-0.025536116
84	0x3de45545	0.11149076
85	0xbde05e0c	-0.10955438
86	0xbe05555b	-0.13020842
87	0x3d7009e5	0.058603186
88	0x3d6dde7a	0.0580735
89	0xbd829069	-0.063752
90	0xbdfa58ee	-0.12223993
91	0x3de0dd86	0.10979752
92	0x3dcdc255	0.100468315
93	0xbde2477a	-0.11048789
94	0xbd454a38	-0.048166484
95	0xbd76bcbe	-0.060238592
96	0x3e06fcfd	0.13182445
97	0xbd611f24	-0.05496134
98	0x3c575023	0.013141665
99	0xbc28cf56	-0.010303339
100	0xbe01d573	-0.1267908
101	0xbde003b9	-0.1093821
102	0x3dc91d02	0.09819986
103	0x3cd76aae	0.026295986
104	0x3dce6405	0.10077671
105	0x3c12190c	0.008917104
106	0xbe27bab4	-0.16379815
107	0xbcd7ab34	-0.026326753
108	0x39308f60	0.0001683808
109	0xbddc4d88	-0.107569754
110	0x3da51852	0.08061279
111	0xbdd9c579	-0.10633368
112	0x3de57f2b	0.11205896
113	0xbde82667	-0.1133545
114	0x3dfccc58	0.12343663
115	0xbdc79804	-0.097457916
116	0x3e2980a3	0.16552977
117	0xbd4548d4	-0.048165157
118	0xbd08d58b	-0.033406775
119	0x3e1aadb3	0.15105323
120	0x3e3a184b	0.1817333
121	0x3cd40770	0.025882453
122	0xbd7f5448	-0.062336236
123	0x3e17c26e	0.14820263
124	0xbdbe4614	-0.0929071
125	0x3e063f38	0.13110054
126	0xbde7c3ab	-0.113166176
127	0x3e2dfcf4	0.16991025
128	0xbb08cd5c	-0.0020874357
129	0xbe12b92c	-0.1432845
130	0xbcec9197	-0.028878016
131	0x3e183e38	0.14867485
132	0x3e4f494a	0.20242801
133	0x3e20277c	0.15640062
134	0x3d614bac	0.055003807
135	0x3d882699	0.06647987
136	0xbdc3239f	-0.095282786
137	0x3cc7cbed	0.024389232
138	0xbe00b13a	-0.12567607
139	0x3e380ba1	0.17973186
140	0x3d74d764	0.059775725
141	0xbda06964	-0.07832602
142	0xbcdc9bc6	-0.026929747
143	0x3e21f132	0.15814665
144	0xbdc15c49	-0.0944143
145	0xbd4f1346	-0.05055549
146	0xbd1ae317	-0.037814226
147	0x3d5f6286	0.05453732
148	0x3d3249d5	0.043527443
149	0x3e101854	0.1407178
150	0x3d7028f4	0.058632806
151	0x3c19436d	0.009354454
152	0xbe01d8eb	-0.12680404
153	0x3d8ea05d	0.069641806
154	0xb8b599d5	-8.659406e-05
155	0xbdb8c3c4	-0.09021714
156	0x3d871065	0.06594924
157	0x3c2efa6a	0.010679821
158	0x3db7521e	0.089512095
159	0x3e12c04f	0.14331172
160	0x3d6fb04c	0.05851774
161	0xbdb2e0c7	-0.08734279
162	0xbca6e01d	-0.020370537
163	0x3e14e92f	0.14542077
164	0x3e1a97f7	0.15097032
165	0xbdb18b5d	-0.086691596
166	0x3da72871	0.081620105
167	0x3d641de6	0.055692576
168	0x3dd2c851	0.102921136
169	0x3d315699	0.043295477
170	0x3e0bc3b5	0.13648875
171	0xbc9415a4	-0.018076725
172	0xbdc6bd4a	-0.09704073
173	0x3b928502	0.004471422
174	0x3dfdca1e	0.123920664
175	0x3e52195b	0.20517485
176	0xbc93a535	-0.018023113
177	0xbde27ec6	-0.11059336
178	0x3e36b919	0.17844047
179	0xbdbff308	-0.093725264
180	0x3d6b4cc0	0.05744624
181	0x3e255ed7	0.1614946
182	0x3e1b7306	0.15180597
183	0xbdeca13f	-0.11554193
184	0xbdcc2b04	-0.09969142
185	0xbd9711d0	-0.07376444
186	0x3d143c65	0.03619041
187	0x3d8afd4f	0.06786596
188	0x3d88be73	0.0667695
189	0xbd9d1283	-0.076695465
190	0x3e21f380	0.15815544
191	0x3c833f90	0.01602152
192	0xbdcb5865	-0.09928969
193	0x3cba2b0e	0.022725608
194	0xbd618190	-0.0550552
195	0x3d8651fd	0.06558607
196	0xbdb45b16	-0.08806436
197	0xbcb1efff	-0.021720884
198	0x3e18e964	0.14932781
199	0x3e126c2d	0.14299078
200	0xbd366edf	-0.04453933
201	0x3e1582eb	0.14600722
202	0x383008b0	4.196976e-05
203	0x3d28961e	0.041158788
204	0xbdbaf308	-0.09128386
205	0x3df61bb9	0.120170064
206	0xbb224484	-0.0024760077
207	0xbc33b0fa	-0.0109674875
208	0xbd1c16f3	-0.038107824
209	0x3de51da0	0.11187291
210	0x3ad81dae	0.0016488337
211	0x3e0fa625	0.14028223
212	0xbdfa2ac2	-0.12215187
213	0x3d5d33f5	0.05400463
214	0xbe09c4fb	-0.13454048
215	0x3e49b5c1	0.1969824
216	0x3e232bd5	0.1593469
217	0x3db8db6c	0.090262264
218	0x3dffe9be	0.12495755
219	0x3d866757	0.06562679
220	0x3c8e9638	0.017405614
221	0x3cc9dfd4	0.024642862
222	0x3de16b77	0.110068254
223	0xbcf87f14	-0.030334033
224	0x3ce25e95	0.02763299
225	0x3e27846c	0.16359109
226	0x3d85c45b	0.065315925
227	0x3e098065	0.13427885
228	0x3e3c901e	0.18414351
229	0xbd952737	-0.0728287
230	0x3e4c4e7f	0.19951819
231	0x3e43b41d	0.19111677
232	0x3e0d3cdc	0.13792747
233	0x3d9ebc1e	0.07750724
234	0xbdcc4525	-0.09974126
235	0xbd9fabd9	-0.07796449
236	0x3e498225	0.19678552
237	0x3dcd055a	0.10010786
238	0x3e21d2ed	0.15803118
239	0xbdfa65d2	-0.12226452
240	0x3e2082cc	0.15674895
241	0x3a8591a6	0.0010190501
242	0xbcbdc05b	-0.023163011
243	0x3e013968	0.12619555
244	0xbdde7072	-0.10861291
245	0x3e159516	0.14607653
246	0xbcb348cd	-0.0218853
247	0x3db61aeb	0.08891853
248	0xbd8b722a	-0.068088844
249	0xbdf78910	-0.120866895
250	0x3db1f268	0.086888134
251	0x3d721f19	0.05911169
252	0x3dd847ad	0.10560546
253	0xbd409cb4	-0.047024444
254	0xbc0a0eb1	-0.008426354
255	0x3dbcd60a	0.09220512
