trained_model/mc1_mc2/30_days_lookahead/pnet_checkpoint/pnet_2050.pth (torch, 545278 bytes, 36 tensors)

network_smart.layer1.0.weight f4 [128, 330]
000000 36 8d 6d 3d 02 20 a5 3e 26 00 90 bf a4 72 fc c0
       0.057995997 0.32250983 -1.1250045 -7.888994
000010 b0 2d 38 c0 c9 13 e3 bf 55 e0 68 bd 48 7a 85 be
       -2.8777885 -1.7740413 -0.056854565 -0.26069856
000020 07 66 a7 bd f3 37 37 c0 ea f1 dd 3f 3f 61 9d bc
       -0.08173757 -2.8627899 1.7339451 -0.01921141
000030 2b 6c 94 3e 8d 2b a9 bf 6f 73 03 c1 9e 49 39 c0
       0.28988776 -1.3216416 -8.215682 -2.8951182
000040 fe bf e2 bf 47 98 4c 3d b8 72 56 be 4b aa a1 bd
       -1.7714841 0.04994991 -0.20942199 -0.07893809
000050 5d 3c 3b c0 08 6a d1 3f a0 96 f1 3c 5c 11 b5 3e
       -2.9255593 1.6360483 0.029490769 0.35364807
000060 39 9b 93 bf 78 f1 ee c0 22 01 35 c0 49 3a e7 bf
       -1.1531745 -7.466976 -2.8281941 -1.8064662
000070 2c a0 c1 bc 1d 41 40 be 05 d3 38 3e 95 34 38 c0
       -0.023635946 -0.18774839 0.18049248 -2.8782094
000080 4d 85 c7 3f 59 02 29 3d 81 bd ab 3e 94 58 a0 bf
       1.5587555 0.041262005 0.33543018 -1.2527032
000090 d4 3a f1 c0 e4 5d 37 c0 5e 93 e9 bf 58 37 e3 bc
       -7.538431 -2.8651056 -1.8248098 -0.02773635
0000a0 50 6b 35 be 50 4d 17 be 92 a7 38 c0 19 8b c3 3f
       -0.17716718 -0.14775586 -2.8852277 1.5276824
0000b0 30 d2 4d 3d 6c af ae 3e 66 c4 8d bf be d7 ee c0
       0.05024928 0.3411821 -1.1075561 -7.4638357
0000c0 48 32 3b c0 2e b9 e5 bf e0 4e 52 3d 98 66 10 be
       -2.924944 -1.7947137 0.051344752 -0.14101636
0000d0 b7 72 6a be fc 30 3a c0 d4 7a c1 3f 7b 29 33 3d
       -0.22895323 -2.9092398 1.5115609 0.04374073
0000e0 fe aa 77 3e 83 ad 91 bf d1 5a ed c0 68 db 3b c0
       0.24186322 -1.1381077 -7.417336 -2.9352665
0000f0 c5 10 ec bf 35 b3 f4 3c d1 9c 4d be 8f 09 db 3e
       -1.8442618 0.029870609 -0.20079352 0.4278073
000100 8a 8d 3f c0 da 21 ba 3f 3b 7e 3f 3d e6 02 78 3e
       -2.9930139 1.4541581 0.046751242 0.24219856
000110 51 c2 9f bf 74 17 ee c0 96 5d 3f c0 8d 56 ec bf
       -1.2481176 -7.440363 -2.990087 -1.8463913
000120 e7 6e c7 3c 60 8f 5a be db 8d 34 3e 36 db 40 c0
       0.024344875 -0.21343756 0.17632239 -3.0133796
000130 9b 8d af 3f 82 9b 79 3d 40 ef 88 3e 8d cf b8 bf
       1.371509 0.06093932 0.26745033 -1.443834
000140 7e 29 e4 c0 21 6d 42 c0 b1 36 ec bf 9d aa 56 3c
       -7.130065 -3.0379107 -1.845419 0.013102201
000150 79 d2 4c be 69 66 1e bd 3c 5b 43 c0 e5 7c b2 3f
       -0.20002164 -0.038671885 -3.0524435 1.3944365
000160 0d e9 36 bd 5d 2f 6f 3e b8 a9 cc bf 86 2a ef c0
       -0.04465585 0.23357911 -1.5989294 -7.473941
000170 a6 4c 46 c0 fa af ec bf 34 1f 18 3d 36 8d 50 be
       -3.0984282 -1.8491204 0.037139133 -0.20366368
000180 19 f2 67 be 29 a5 40 c0 99 5a a6 3f d3 5e 22 3d
       -0.22650947 -3.0100806 1.2996398 0.039641213
000190 68 62 79 3e e0 df b5 bf 76 a9 e3 c0 fd 47 44 c0
       0.24353945 -1.4208946 -7.114436 -3.0668938
0001a0 8f b0 e9 bf c9 c6 0d 3d 0a 9a 50 be 52 76 17 be
       -1.8257006 0.034613404 -0.20371261 -0.1479123
0001b0 dc d7 43 c0 ed 33 a3 3f 4b 8b 25 bc f4 6f 1d 3e
       -3.06005 1.2750221 -0.010104011 0.15374738
0001c0 ac 5e ac bf 68 cd d7 c0 aa 04 4b c0 51 63 e6 bf
       -1.3466392 -6.743824 -3.1721597 -1.7999059
0001d0 2b 09 1e 3d d1 c2 78 be 6b d2 45 3d 11 66 49 c0
       0.038582962 -0.24293067 0.048296373 -3.1468546
0001e0 85 66 95 3f cf 02 14 3c 99 26 4f 3e a4 3c c1 bf
       1.1671911 0.009033873 0.20229568 -1.5096631
0001f0 93 b7 e3 c0 97 0e 4d c0 44 38 e9 bf 88 16 15 bd
       -7.116159 -3.2040155 -1.8220296 -0.03639844
000200 4b 3f 76 be b9 32 a1 be a3 42 47 c0 d4 09 94 3f
       -0.24047582 -0.3148401 -3.1134422 1.1565499
000210 99 db 43 3c f4 5d f1 3d ab 49 a6 bf 2a cc da c0
       0.011954212 0.11785498 -1.2991232 -6.8374224
000220 97 45 4c c0 5f c4 f3 bf e5 10 1e bc 90 3b 54 be
       -3.1917474 -1.9044303 -0.009647583 -0.20725846
000230 7d ca c7 bd e7 bc 4d c0 df d5 91 3f 12 b3 35 3d
       -0.097554184 -3.2146547 1.1393393 0.044360228
000240 1c 19 c2 3d f5 56 91 bf c2 b6 d8 c0 56 e6 40 c0
       0.094774455 -1.1354662 -6.7723093 -3.0140586
000250 27 0a f1 bf a7 49 45 3b a6 db 84 be 36 07 96 3e
       -1.8831223 0.0030103715 -0.25948828 0.29302377
000260 04 94 40 c0 3e 79 90 3f 80 05 59 3d 4b 09 4b 3e
       -3.0090342 1.1287 0.05298376 0.19827764
000270 9b 2d 9b bf 96 6c ca c0 d6 9f 40 c0 5d 63 ea bf
       -1.2123293 -6.325755 -3.0097556 -1.8311573
000280 92 cc 57 bd 6c 91 85 be 6b 52 d3 bd 09 14 42 c0
       -0.052685328 -0.2608751 -0.10318454 -3.0324728
000290 a5 5b 8d 3f d6 1b c3 bb 8f b9 80 3d e3 84 8d bf
       1.1043593 -0.005954246 0.062853925 -1.1056179
0002a0 4c e9 d4 c0 02 c9 3f c0 56 fc ed bf 96 20 dc 3b
       -6.6534786 -2.9966435 -1.8592632 0.0067177517
0002b0 41 38 8b be b9 05 09 be 3b 16 42 c0 e3 32 81 3f
       -0.27191356 -0.1338109 -3.0326068 1.0093654
0002c0 8f 49 37 bb bc ab d3 3d 0b 07 66 bf d2 37 d3 c0
       -0.0027967428 0.1033549 -0.89854497 -6.600564
0002d0 ad bf 45 c0 eb 5d f4 bf 38 c2 13 3d 87 14 6a be
       -3.089824 -1.9091161 0.036073893 -0.22859393
0002e0 de dc d1 bd 37 7b 41 c0 fc c3 6e 3f fe 91 04 b9
       -0.10247205 -3.0231454 0.932678 -0.00012642887
0002f0 9a 02 04 3e 5d 2f 6a bf 8e 46 cf c0 12 75 44 c0
       0.12891617 -0.9147852 -6.4773626 -3.0696454
000300 2f da fa bf c7 29 a2 3c 52 63 84 be 0a 05 a7 3e
       -1.9597834 0.019795312 -0.25857025 0.32621032
000310 70 85 41 c0 f1 cb 64 3f 32 2b 1f 3d 82 67 b0 3d
       -3.0237694 0.8937369 0.038859554 0.086134925
000320 a0 0f 75 bf cb 08 d3 c0 fa cf 44 c0 56 cc fa bf
       -0.95726967 -6.5948234 -3.075194 -1.9593608
000330 51 b0 f4 bc 1c 88 8c be 80 3c 23 bd d5 bf 43 c0
       -0.02986923 -0.27447593 -0.03985262 -3.0585835
000340 52 fd 54 3f c8 40 84 3c c4 e8 d4 bb 31 2b 88 bf
       0.83199036 0.016144171 -0.0064974744 -1.0638181
000350 28 6a d1 c0 d5 48 49 c0 50 7d f0 bf 6b d6 f3 3c
       -6.5442085 -3.1450703 -1.8788242 0.029765328
000360 d1 01 84 be c6 61 e5 3e a0 d7 46 c0 dc 91 5c 3f
       -0.25782636 0.44801158 -3.1069107 0.86160064
000370 ce a9 75 3d 6e 19 80 3d fa 42 78 bf f3 4d cf c0
       0.05997639 0.0625485 -0.969772 -6.4782653
000380 13 41 46 c0 fc 64 fd bf 7e 6b e3 bc cf 3b 8c be
       -3.0977218 -1.9796443 -0.027761217 -0.2738938
000390 76 a0 d8 3e 78 41 4a c0 66 a3 64 3f 8c d0 9f 3c
       0.42309922 -3.160246 0.89311826 0.019508623
0003a0 8e c8 5d bd 50 9d 81 bf ce d3 d1 c0 8d 0d 4f c0
       -0.054146342 -1.0126133 -6.557105 -3.235202
0003b0 05 32 fa bf 80 9c 76 bd f0 a6 98 be 70 2e 82 be
       -1.9546515 -0.060207844 -0.29814863 -0.25426054
0003c0 66 5a 4d c0 81 3f 56 3f e4 f3 8d 3c fa bc ab ba
       -3.2086425 0.8369065 0.01732821 -0.0013102584
0003d0 f8 38 94 bf 49 e5 cc c0 9c b0 4d c0 c8 ce fe bf
       -1.1579885 -6.402989 -3.2139044 -1.9906855
0003e0 b7 73 18 bc c9 ad 66 be ab cc 7a 3e 93 6d 4c c0
       -0.009304932 -0.22527231 0.24492137 -3.1941879
0003f0 a6 4f 47 3f 25 be c2 bc c1 b0 3e bd c3 55 9e bf
       0.7785591 -0.023772309 -0.046555284 -1.2369922

network_smart.layer1.0.bias f4 [128]
000000 6b 22 1b bc 78 a8 4a 3e ef dd 70 bc 8b da 13 bd
       -0.009468655 0.19790828 -0.014701351 -0.03609709
000010 06 12 99 bd 2b 2c ad 3d d6 a3 d7 3c 03 d5 c5 3d
       -0.07474141 0.0845569 0.02632324 0.096597694
000020 68 de 2a 3e 1f be 15 bd a8 41 8b be 53 07 3a be
       0.16686404 -0.036558267 -0.2719853 -0.18166856
000030 fa 4c 62 bd 5e 76 8c bb 2e c3 2a bc 3b 31 14 bc
       -0.05524919 -0.0042865714 -0.010422511 -0.009044941
000040 64 a6 99 bd a6 2d 2b bd dd 5f 18 3e 57 97 20 bd
       -0.075024396 -0.04179158 0.14880319 -0.03920683
000050 4c 73 6e bd 4d 78 d2 bc 78 2e 49 be e4 bb d6 bd
       -0.058215424 -0.02569213 -0.19646633 -0.10485056
000060 65 08 11 3e 99 6f 5b 3e 75 0b 36 bd c8 f1 0f be
       0.14163359 0.2142929 -0.04444452 -0.14057076
000070 f9 ff 39 3e 82 63 91 be 87 db ea bd 97 bb c5 bc
       0.18164052 -0.2839623 -0.11467653 -0.024137301
000080 6c c5 2c be 07 c8 39 be 45 6e 83 3e cd ee 4e be
       -0.16872185 -0.1814271 0.25670066 -0.20208283
000090 47 b0 2d bc 71 17 5b 3d aa 78 bc bd 23 20 4f be
       -0.01060111 0.053489152 -0.09202702 -0.20227103
0000a0 0d 40 4b be 92 5b 70 be 9a a0 81 bc 92 eb 83 bd
       -0.19848652 -0.23472431 -0.015823651 -0.06441416
0000b0 7d b3 8c bd 3f 89 aa bc b5 67 27 3d 1b aa a4 3c
       -0.06870172 -0.020817397 0.040870387 0.020100644
0000c0 69 6e 09 3e 6a 18 03 be 33 98 04 be de b6 52 bd
       0.13421024 -0.12802282 -0.12948684 -0.051443927
0000d0 eb 28 92 bd 80 ff 0a 3c 2a 37 12 3d 18 cf 5f be
       -0.07136711 0.0084837675 0.03569714 -0.21856344
0000e0 e7 54 35 3e 8b ed 9e 3c d6 3b 91 bd 80 51 df 3d
       0.17708169 0.019400379 -0.07091491 0.10904217
0000f0 75 1a 7c bd 46 f1 9f bc 74 e1 07 be 95 ec d0 3d
       -0.06154867 -0.019524228 -0.13269597 0.102013744
000100 eb b9 d0 3b 96 96 2a bd 94 5a 0f be dd 63 4d 3e
       0.0063698194 -0.041647516 -0.13999397 0.20057626
000110 b4 e9 8a be 42 13 18 be 65 be 76 3b 78 f0 84 3c
       -0.27131426 -0.14851096 0.0037650105 0.016227946
000120 63 85 35 bd ab 61 05 3e 40 6d ef 3d bc 97 22 b9
       -0.04431666 0.13025539 0.1169076 -0.0001550605
000130 2d f0 4a be 0d 11 15 3d 17 d7 fd 3c 2c cc ba 3c
       -0.19818182 0.036393214 0.030986352 0.022802435
000140 d4 0f 54 be 34 96 9f 3c ea 4c 10 bd 05 22 a2 bb
       -0.20709163 0.019480802 -0.0352296 -0.004947903
000150 ae 49 18 3e dc cc 39 bc 14 77 38 be 93 e5 46 3e
       0.14871857 -0.011340346 -0.18014175 0.19423513
000160 7f 2e d9 3d a4 31 b0 3d a3 45 65 bc 39 44 3f 3e
       0.106045716 0.08603218 -0.0139936535 0.18678369
000170 f4 02 8f 3c c7 33 73 3e f6 0d 55 be b4 e8 ac ba
       0.017457463 0.2375022 -0.20806107 -0.001319191
000180 fc 1e b5 3b b2 65 8b 3e 5a 8a 93 3c 6f 40 8d 3d
       0.0055273753 0.27226025 0.018010307 0.06897055
000190 62 a8 04 bd 7f 8f e8 3d 81 8a 5c bd 38 10 db 3d
       -0.032387145 0.11355495 -0.053843025 0.10696453
0001a0 40 fa 98 3c 44 45 57 3d c8 53 bd 3c 9e c1 11 3d
       0.018674016 0.05255629 0.02311124 0.03558504
0001b0 29 a3 0d bd 14 43 56 bd f7 33 24 bd 57 ed 91 3e
       -0.03457943 -0.052310064 -0.04008862 0.28501388
0001c0 00 c0 b8 bc fe 5f 49 3d 2f 4c 99 3e 97 8e 42 3e
       -0.02255249 0.04916381 0.29940936 0.18999706
0001d0 12 1c 1f bd a1 2a b8 be 3e f3 9e 3d ee 06 42 3d
       -0.03884513 -0.35970023 0.077612385 0.04736989
0001e0 f4 ef e9 3d fa 1d 4c 3e 44 a5 13 bd af 03 50 be
       0.114227206 0.1993331 -0.03604628 -0.20313905
0001f0 93 57 36 3c e8 68 43 bd 72 c3 ea bc 64 a8 31 bd
       0.011129278 -0.04770747 -0.028657649 -0.04337348

network_smart.layer2.0.weight f4 [128, 128]
000000 31 f9 06 be 1b 7c b8 3b d0 2c 9a 3c 3a 87 36 3d
       -0.13180996 0.005630029 0.018820196 0.044562556
000010 c9 47 c6 3e 1b 10 18 be c2 40 a6 3d 4b f2 62 bd
       0.38726643 -0.14849894 0.0811782 -0.05540685
000020 61 70 12 bf 1b 59 7e 3d 1f dc 88 3d 18 71 06 3e
       -0.57202727 0.062096696 0.0668261 0.1312908
000030 79 e8 9b bd 06 c4 98 bd cf 53 32 bd 31 8d 6c bf
       -0.076127 -0.074592635 -0.043536957 -0.9240294
000040 c9 82 3d 3e 6c 18 b0 3d 4c da fa bc 4e 30 d9 bb
       0.18506922 0.08598408 -0.03062167 -0.006628073
000050 9c 9f 96 be b8 46 88 3d 08 66 30 bd 72 b2 b2 3d
       -0.29418647 0.066541135 -0.043066055 0.08725442
000060 97 8c 9a bd dc d8 cc 3d a2 d4 e5 bd 9c 20 c8 bd
       -0.07546347 0.100023 -0.11222197 -0.09771845
000070 7a dc a1 bd ea ef 55 be 42 c3 10 bb 39 d6 83 bd
       -0.07903381 -0.20892301 -0.002208904 -0.06437344
000080 b0 c7 ba 3d 1c d5 96 3c 98 fc 0c be 43 ec 28 bd
       0.091201186 0.018412165 -0.13768232 -0.04124094
000090 eb 3d f5 3b b0 11 9c 3d 8b 33 88 3e 36 a4 c3 3d
       0.007484188 0.07620561 0.26601824 0.09552805
0000a0 1f 81 c5 3d 5c b2 4e bd 73 f2 5c 3a 0c 71 5b bc
       0.096437685 -0.050463066 0.0008428462 -0.013393652
0000b0 dd e0 4d be 31 f4 a6 bd 4d 12 50 3d 86 94 1d bd
       -0.2010531 -0.081520446 0.050798703 -0.03847172
0000c0 60 3c 4e 3c 63 3b 9c bd 91 c4 cc 3a 2b fe 0e be
       0.012587637 -0.076285146 0.0015622546 -0.13964145
0000d0 82 70 db 3d 29 96 dc 3d a2 e8 b5 3c 65 64 9d 3d
       0.107148185 0.10770828 0.022205655 0.07685164
0000e0 5c 1c 1c 3d 8c 15 9c 3d cd 96 00 3d cb a0 ec bb
       0.038112983 0.07621297 0.031393815 -0.0072213165
0000f0 32 d6 1d bd a3 f0 95 bd 97 f9 35 3b 9b a8 9a be
       -0.03853435 -0.073212884 0.0027767175 -0.3020676
000100 b2 6c b1 bd e3 fe dd be 07 22 36 3d b1 ee 28 be
       -0.0866331 -0.43358526 0.044466045 -0.16497304
000110 11 59 72 3d 49 e1 46 3e d4 15 aa bd 08 b8 98 bd
       0.05916697 0.19421877 -0.08304945 -0.07456976
000120 f2 65 44 be fb 51 f3 bc ce de 1c bd 62 64 0b be
       -0.19179514 -0.029702177 -0.03829842 -0.13612512
000130 03 2d b4 bd 45 84 8f bd 7a b3 27 3d 50 2e 5f bc
       -0.08797648 -0.0700765 0.040942647 -0.013621882
000140 c3 a1 e2 be c5 d1 8e bc 50 e6 8b bd a2 86 97 bd
       -0.4426404 -0.01743401 -0.06831038 -0.07398726
000150 f4 47 3a 3d a5 26 96 3d a0 c8 39 3e 9b 49 03 be
       0.045478776 0.073315896 0.18142939 -0.12821047
000160 e5 7d e0 bd a5 0f 29 3d de 3c 5b bd a8 e3 0a 3c
       -0.109615125 0.041274685 -0.053524844 0.008477129
000170 5a e7 70 3d 23 cc 38 3e 45 70 0a 3e 4a 36 51 3d
       0.058814384 0.18046622 0.1351939 0.051077165
000180 75 e5 82 bd 0c cc b9 bd 08 21 19 bd 8d a3 26 be
       -0.06391422 -0.09072122 -0.037385017 -0.16273327
000190 36 0a 81 3d d3 42 12 bd 48 cc ea 3c c2 4b 00 be
       0.06300776 -0.03570826 0.028661862 -0.125289
0001a0 3a 6a 03 bd 8f fb ef 3c d0 f3 f2 bc c5 40 4a bd
       -0.032083727 0.029294757 -0.029657274 -0.049378175
0001b0 db b6 d2 3d 1a 91 14 3d 59 b0 57 bd b1 aa 7d 3d
       0.10288783 0.036271192 -0.052658413 0.061930362
0001c0 ec fa 42 3d 83 43 fa be 21 76 13 bf 47 e7 d5 3c
       0.04760258 -0.48879632 -0.57602125 0.026111258
0001d0 63 9a d3 bc d2 27 10 bd 3f be 24 bc d7 01 71 3d
       -0.025830453 -0.035194226 -0.010055124 0.058839645
0001e0 f2 6b f6 bc fd d6 d1 be 46 73 2d 3d 02 23 b7 3d
       -0.03008077 -0.40984336 0.04234626 0.08942224
0001f0 ed 05 9f bd db f4 70 3c e9 df e0 3c 16 a5 89 3d
       -0.07764802 0.014706816 0.027450519 0.06720941
000200 cc 2d a2 3d ed ec 30 be eb 73 7b 3d 3d d3 bf 3b
       0.07918891 -0.1727788 0.061389845 0.005854039
000210 91 f7 46 3e be cc 70 3e e9 c1 05 bd 54 cd 93 bc
       0.19430377 0.23515603 -0.03265563 -0.018042244
000220 95 fa d4 be d0 2e 88 bd 4a af 33 bb 2d 3c c1 bd
       -0.4159743 -0.06649554 -0.0027417713 -0.09435306
000230 0c 1c c5 bd e4 4c 55 bb 2d 13 7f bd 3f 19 fb bd
       -0.0962449 -0.003254705 -0.062274147 -0.12260675
000240 ed eb 91 3d 77 5e 26 bd 58 0b 2e 3e 91 05 f6 bc
       0.071250774 -0.040617432 0.16996515 -0.030031951
000250 5b ac 2d bc fa b5 85 3a 4d 71 44 3e 95 99 8e be
       -0.010600175 0.0010201328 0.19183846 -0.2785155
000260 e5 25 2c 3d d7 ee a6 3c 01 60 32 3e 7f c5 94 bc
       0.042028327 0.02037756 0.17419435 -0.01816058
000270 4d b6 86 3e 2b 4d 58 be 70 b7 cf 3d 36 d7 14 3d
       0.2631096 -0.21123187 0.1014241 0.036338054
000280 4d 9b 5b 3e af f8 97 bd 6a 5d 9f bd f3 0f 94 3d
       0.21445961 -0.074204795 -0.07781489 0.072296046
000290 84 bf 27 3d 1e c9 3a 3e 56 35 6b be db 05 89 bd
       0.040954128 0.18240783 -0.22969565 -0.0669057
0002a0 a1 af 14 3d 78 01 27 3e 46 65 0f be 05 ef e3 3d
       0.036300305 0.16309154 -0.14003477 0.11129574
0002b0 65 a3 39 3e eb 03 cd bc 5f 63 90 bd 8a 9c 98 bc
       0.18128736 -0.025026282 -0.070502035 -0.018629331
0002c0 47 cd 85 3e 4a 4d c3 bb 46 76 22 3e 9d 50 02 bd
       0.26133177 -0.0059601413 0.1586543 -0.03181516
0002d0 49 fe 83 bd 3f b3 ed be 4c 37 89 3d 7c af 67 bd
       -0.064449854 -0.46425816 0.067 -0.05656384
0002e0 ce 52 90 bc db 0a c9 bb 00 e5 05 3c 7e 70 ac 3d
       -0.01761761 -0.0061353273 0.008172274 0.08419894
0002f0 e4 c1 d3 bd 98 7f 4f bd 57 72 7a 3d c6 64 e0 be
       -0.10339716 -0.050658792 0.0611442 -0.43826884
000300 0a e0 64 bd c9 f4 bc 3c dd f8 22 3d 3b 42 a6 bd
       -0.055877723 0.023065941 0.039788116 -0.08118101
000310 39 82 dd 3c 45 6c 2c bc 2a fb a3 bd f1 47 0b 3c
       0.027039634 -0.01052386 -0.0800689 0.008501039
000320 47 fc 91 3d 88 85 b1 3d 20 e3 7d bc 9a 59 19 3f
       0.07128196 0.08668047 -0.015496045 0.59902346
000330 84 b2 45 bd 57 0d 59 bd a7 1a a1 3c 98 f5 a5 bd
       -0.04826595 -0.052991237 0.01966603 -0.08103484
000340 cd d1 85 be 47 41 79 3d be 71 af bb 1d a9 9e 3d
       -0.26136628 0.06085327 -0.0053541353 0.077470995
000350 80 08 69 be dd f1 46 bd dd b6 48 bd 21 bf 8d bd
       -0.22757149 -0.048570503 -0.049002517 -0.069212206
000360 5a 1b 5c bd fa f2 0c bc 1a b0 ec ba 64 78 05 be
       -0.053737022 -0.008602852 -0.0018057853 -0.13034207
000370 c4 20 eb bc 2d 56 b1 bd 89 c1 0b 3d d8 d7 29 3e
       -0.028702147 -0.08659015 0.034120116 0.16586244
000380 6c 28 86 3d 4c cd af bd 41 40 cb 3d 5f 8b 20 be
       0.065506786 -0.08584079 0.09924365 -0.15678166
000390 ab 69 56 bd 20 02 89 be ae a9 d3 3d 3a a2 dc 3b
       -0.052346867 -0.26759434 0.10335098 0.006733206
0003a0 9d e6 75 bc ee 7d a7 bc dc 81 b0 3c 7b 63 ad 3d
       -0.015008596 -0.02044579 0.021546297 0.0846624
0003b0 0f d9 82 3d ca 98 05 3e 5e 12 82 3b d5 e8 40 3d
       0.06389057 0.13046566 0.0039694747 0.047097046
0003c0 3e 5d 43 bd 11 24 e3 bf 60 22 0e 3e 0d 46 b7 3b
       -0.047696345 -1.7745382 0.138803 0.0055930675
0003d0 a0 64 af bd 42 b9 f1 bc 01 10 11 bc 1e a8 5a bc
       -0.085641146 -0.029507283 -0.008853913 -0.013345746
0003e0 99 05 93 be 4e bf 05 bf 76 e0 ca bc 18 ab af bc
       -0.28715208 -0.5224503 -0.024765234 -0.021443889
0003f0 7d a3 68 be ec 30 44 3d f3 19 5a be dc 19 2b bd
       -0.22718616 0.047898218 -0.21298961 -0.04177271

network_smart.layer2.0.bias f4 [128]
000000 19 c1 07 3e e3 49 1d 3d b7 58 f1 bd dd 95 0f 3e
       0.13257255 0.038400542 -0.11784499 0.14022012
000010 a2 98 6e 3d df 2e 44 bc 60 8a ec 3d 0b 55 f6 bd
       0.05825103 -0.011974066 0.115498304 -0.120279394
000020 3f cb cd 3d 6f a6 d8 bd b0 9a d8 3d 6b db ea bd
       0.10048532 -0.1057862 0.10576379 -0.11467632
000030 05 2f 16 bc 8c 6e 92 3c 24 52 b5 3d 4f ca aa bd
       -0.009166484 0.017874978 0.08853558 -0.083393686
000040 8e b0 08 3e 49 00 80 bc dc d8 c0 bd b0 f4 b8 bd
       0.133486 -0.015625136 -0.09416363 -0.090310454
000050 ac fd cf 3d 48 bb 75 bc 43 df 3d 3d 03 80 40 3e
       0.10155806 -0.014998265 0.046355497 0.18798833
000060 a7 41 09 be f1 b8 26 3e 86 39 85 bc d1 e6 ff bd
       -0.1340395 0.16281487 -0.01626278 -0.124951966
000070 cb fe 28 3e 87 64 93 bd c3 e6 39 3e 4a 55 2b bd
       0.16503446 -0.071969084 0.18154435 -0.041829385
000080 f4 c2 9e 3d 72 41 bf 3d 1b 03 eb bb 43 43 19 bd
       0.07752028 0.093386546 -0.007172001 -0.03741766
000090 7d f3 0d bd ad 75 65 3e 80 19 a9 3c e8 c4 0f 3d
       -0.034656037 0.22408171 0.020642042 0.035099894
0000a0 e9 74 e3 bd 21 dc 80 bd 1a a8 fe 3d 64 0e 66 bd
       -0.11106283 -0.06291986 0.124344066 -0.056166068
0000b0 a6 68 52 3c bf d5 63 bd 89 7c 6f 3c 7f 2d bc 3d
       0.012842333 -0.055623766 0.014617094 0.09188365
0000c0 d1 e6 91 3d 56 b0 04 be 05 5a 0d 3d 3b f2 6a 3d
       0.07124103 -0.12957892 0.034509677 0.057359915
0000d0 73 35 9a bd 33 2c 86 bd d2 7c 08 be f4 e5 e9 bd
       -0.07529726 -0.06551399 -0.13328865 -0.11420813
0000e0 ce 77 76 be 2b 21 07 be 8f 53 f5 bc 10 aa ea bc
       -0.2406914 -0.13196246 -0.02994707 -0.028645545
0000f0 81 5b 33 bd e4 56 43 3e 2c e9 26 bd 17 68 27 bc
       -0.043788437 0.19076115 -0.040749714 -0.010217688
000100 f6 2c 06 3e c5 48 bd 3d 1b 95 3e 3d e4 8b ce 3d
       0.13103089 0.09242395 0.046528917 0.10085276
000110 39 d1 a5 3d d9 8f a6 3d a4 3c 22 3e 6d f7 1d bd
       0.08096547 0.081329055 0.15843445 -0.03856604
000120 a5 35 55 3d b3 cf 27 be 9e 43 af bd d9 2f 35 bd
       0.052053113 -0.16387825 -0.08557819 -0.044235084
000130 1e ae 43 3d fd be 31 bd 9a d1 00 3e f4 b0 96 3d
       0.047773473 -0.04339503 0.12579957 0.0735797
000140 b9 55 2f be 83 b2 56 be b6 4a 15 bb c5 fe 91 3d
       -0.17122544 -0.20966534 -0.0022780127 0.071286716
000150 75 9b 88 3d b4 b6 8f 3d 6a 6e 97 3d e9 d0 43 3d
       0.06670276 0.0701727 0.07394107 0.047806654
000160 23 8f 79 3d 29 6d e0 bd 49 61 28 be fc 32 b8 3d
       0.06092752 -0.10958321 -0.16443361 0.089940995
000170 8b 93 df 3d 41 04 b0 3d 0e 55 bd bd 9a a7 af bd
       0.109168135 0.08594561 -0.092447385 -0.08576889
000180 b1 2e 2c bc 97 f1 ae bc 5d c2 10 bd ab ed ab 3d
       -0.010509179 -0.021355433 -0.03534161 0.08394941
000190 aa 86 02 3e cb fa 53 3d 2b b7 78 3d ca de 28 3d
       0.12746683 0.051752847 0.060721558 0.041228093
0001a0 20 56 20 3d 05 51 08 be c6 38 9b 3b ce 54 1e 3e
       0.039144635 -0.13312156 0.0047369925 0.15462038
0001b0 c4 9c 55 be 67 eb 1a bd 25 66 eb 3d 14 6d 9d 3d
       -0.20860583 -0.037822153 0.11494092 0.076868206
0001c0 86 7f 23 3e 08 3e 9b bd 39 05 1b 3e 6a d7 92 bc
       0.15966615 -0.07580191 0.15138711 -0.017924983
0001d0 02 a1 a0 bd 35 5a 00 3c 50 78 73 3d e6 1a 89 bd
       -0.0784321 0.007834007 0.05944091 -0.066945836
0001e0 c5 48 dc 3b ed dd 9a 3c 9f d3 e5 bd 9c c5 ef bd
       0.006722542 0.01890465 -0.11222004 -0.11707613
0001f0 00 2d 1d 3d fb 60 ce 3d ad 0e b5 bd 1b 7b 39 3d
       0.038372993 0.10077091 -0.0884069 0.04528342

network_smart.layer3.0.weight f4 [48, 128]
000000 3b d4 76 bd e4 01 56 3e 3e 7e a9 3d e5 62 38 3d
       -0.060260992 0.20899159 0.08276032 0.04501619
000010 ca a9 c5 3d 65 ad 85 3c 86 81 82 3d b1 fc c7 3d
       0.09651525 0.016318033 0.06372361 0.09764994
000020 0b 47 f9 bc 1a d8 8c be 1b 07 6f bc 86 79 bb 3e
       -0.030429384 -0.27508622 -0.014589096 0.36616153
000030 5e a8 a4 3e 54 87 8d 3e 67 33 5d 3e fa dd 48 be
       0.32159704 0.2764231 0.2160164 -0.19615927
000040 e0 78 42 bc 69 86 92 3b fd 71 6d 3d dc 45 a4 3d
       -0.011869639 0.0044715893 0.057970036 0.08021137
000050 06 d1 e0 3e 50 9a ba be 08 64 d9 3d 41 46 bb 3d
       0.43909472 -0.36445856 0.106147826 0.09144259
000060 d6 2a 69 bd b9 79 1c bd f0 5a b5 3d 43 f4 95 3e
       -0.056925617 -0.03820202 0.088552356 0.2928792
000070 00 de 09 be 6b 03 ae bc 7e ef e1 bd 75 ea c4 bc
       -0.13463593 -0.021241864 -0.11032008 -0.02403758
000080 fa 35 9c 3e a2 af de 3d 6b 43 d9 bd 9e bc 96 be
       0.3050993 0.10873343 -0.10608562 -0.29440778
000090 2b 6a 48 3b 8b 67 0c 3d c9 e6 ca 3d 8c 7d 68 3e
       0.003058086 0.034278434 0.099073 0.22704142
0000a0 50 76 1e 3e 64 cf d5 3e 69 2b b2 3d 05 ab a9 3d
       0.1547482 0.4175979 0.08699686 0.082845725
0000b0 39 66 65 3c 54 a9 0a 3c 71 1e e0 bd e4 a9 6a ba
       0.014001423 0.0084632225 -0.10943306 -0.0008951707
0000c0 69 be 63 3e d0 8a fa bd cf d4 39 3f 7b 5d a8 be
       0.22240604 -0.12233508 0.72590345 -0.3288382
0000d0 42 b2 5c be 07 7e 26 3d e0 50 8f bf 35 55 ed bf
       -0.21552375 0.040647533 -1.1196556 -1.8541628
0000e0 4c cf e4 be b3 2e a3 bf a2 d2 16 be 47 75 9c bd
       -0.44689405 -1.2748626 -0.14728788 -0.076395564
0000f0 a7 6f ee bd d8 ad 47 3e 43 f5 70 3d 35 0f bb 3d
       -0.1164239 0.1949991 0.05882765 0.0913376
000100 4b 15 a3 3d 4a a9 da 3d ad 63 c9 bb 97 4b 80 3d
       0.07963046 0.106768206 -0.0061459155 0.062644176
000110 05 30 c7 3d 9b 4f 61 3e b1 32 55 bc f0 8c 73 be
       0.09725956 0.22003023 -0.013012574 -0.23784232
000120 8b 73 a2 bd 96 53 41 be 20 3f 2c bf aa 8d 63 bd
       -0.07932194 -0.18879542 -0.6728382 -0.055555023
000130 29 dc 0f 3e a4 6f 8b 3e 93 6b 49 be 4a 5c b9 bb
       0.14048828 0.27233613 -0.19669943 -0.0056567537
000140 16 54 5c 3e 07 58 17 3e 71 36 40 3e 04 87 45 bc
       0.21516451 0.14779674 0.18770768 -0.012056116
000150 72 86 dd 3d 47 c0 89 bd ba 47 9f 3e e9 40 00 3e
       0.10816659 -0.06726127 0.3110941 0.12524761
000160 2f 8f 9a 3e 68 b3 b1 be b0 7c 8e be 51 e6 1b 3e
       0.30187365 -0.3470719 -0.27829504 0.15224577
000170 55 46 2a 3e 6a 68 73 bf 33 7d b6 bd 15 c5 26 3f
       0.16628392 -0.950812 -0.089105986 0.65144473
000180 b1 c7 af bd 35 63 59 be 27 ec 3f bd ba bb 72 3c
       -0.0858301 -0.2122925 -0.04685607 0.014815265
000190 b7 0a b1 3d ef c1 fd 3d 82 8b c9 be 81 05 66 bd
       0.08644622 0.123905055 -0.3936425 -0.056157593
0001a0 5a 28 ea bd e8 85 bb be f2 68 2d be 8e 2d f7 3d
       -0.11433478 -0.366256 -0.16934565 0.12069236
0001b0 f4 c0 f8 be a1 b7 3e bf 6a a3 99 3c 64 d0 4d 3d
       -0.48584712 -0.74498945 0.01875468 0.050247565
0001c0 b0 fa 66 3d e0 14 f3 3d 76 22 ba 3c a3 42 bd 3d
       0.056391418 0.11869216 0.02272151 0.092412256
0001d0 b6 a9 7f be 55 80 33 be 6c ad e9 bd 34 ed 51 be
       -0.24967083 -0.17529424 -0.11410031 -0.20500642
0001e0 20 d4 89 bd 9e d8 98 3d 74 9f 2c bd d2 68 35 be
       -0.06729913 0.074631914 -0.042144254 -0.17715767
0001f0 bf 17 3c 3f fb e2 d1 be ef 4b 8c be 7b ac 20 3d
       0.73473734 -0.40993485 -0.27401683 0.03922699
000200 96 59 5e 3c 95 26 8c 3d 5c 46 34 3e ee dc ce 3d
       0.013571164 0.068432964 0.17604965 0.10100733
000210 ac bd 5a bd c2 6d 9f bd 93 65 53 3e 35 c5 1f 3d
       -0.05340354 -0.077846065 0.20644216 0.03900643
000220 5e 48 c3 3d 9c 98 78 3d fb c9 f2 3d 3e 16 58 3c
       0.09535287 0.060692415 0.11854931 0.013188897
000230 c9 44 83 3e ae e0 77 3a a5 80 a5 3e a2 4f 5e bc
       0.25638416 0.0009455782 0.3232471 -0.013568791
000240 e3 2c 8d 3c e5 02 ad bd 0a 11 56 3d 2f 24 80 3e
       0.017233318 -0.08447818 0.052262343 0.25027606
000250 d4 a4 0c 3e ec 21 49 3e b2 34 2d 3e e4 e7 b6 3d
       0.13734752 0.19641846 0.16914633 0.089309484
000260 d3 42 40 3e 6b 34 de bb fd 3a 1e bf c0 cb c6 bb
       0.18775491 -0.006781151 -0.6180876 -0.0060667694
000270 2b 7c 4e 3d ae 6e bd 3c 7e 64 1a 3e d5 5b e3 3c
       0.050411385 0.023124065 0.15077397 0.02775375
000280 3d 6c e7 bc 8c bd 2a 3f d1 b7 9c bd f5 20 7d 3c
       -0.028249854 0.66695476 -0.07652248 0.015449752
000290 2a 67 de bd a1 60 c3 bc 10 a0 2e be ac 7e ce be
       -0.10859521 -0.023849787 -0.17053246 -0.40331018
0002a0 a6 eb 76 3d c4 1c 1a 3e 14 ca 16 be 7f a5 32 3c
       0.060283326 0.15050036 -0.14725524 0.010903715
0002b0 ce 40 83 bd 93 d6 30 3c a1 4b 18 bd 4d 66 25 3e
       -0.06408845 0.010793346 -0.0371815 0.16152306
0002c0 b3 b5 ed 3d 9d e2 2a 3d ea 28 b7 3d 03 28 5b bd
       0.11606922 0.04172002 0.089433506 -0.053504955
0002d0 86 d2 ac 3e db c4 da be 15 de 81 be e9 fe ef 3d
       0.33754367 -0.42728314 -0.25364748 0.11718542
0002e0 98 00 17 bf d8 d0 d9 3d c1 4a 13 3e 34 49 77 be
       -0.5898528 0.10635537 0.14383985 -0.24149019
0002f0 3e 24 8e bd 91 7a 44 3e 4c 30 0f 3c 2b ac 63 be
       -0.069405064 0.1918738 0.008739542 -0.22233646
000300 2e ba d5 3d c0 ed 1a be 35 f6 d2 3c 23 a9 ae 3d
       0.104359016 -0.15129757 0.025752166 0.08528354
000310 2d 28 db bd 5a 4e 7e 3d e5 50 1a 3e 30 81 f3 3e
       -0.10701022 0.06208644 0.15069921 0.475595
000320 06 90 9e bd 52 8b 95 be 55 e3 49 bd 6d 52 87 bc
       -0.07742314 -0.29207855 -0.049289066 -0.016518796
000330 0c a0 d1 3d ea 33 ab be 1c 1c 36 3d cb bf 34 be
       0.10235605 -0.33438045 0.0444604 -0.17651288
000340 3c 27 85 bf 3a d2 1e be 4f f0 00 3e 82 33 76 3c
       -1.0402598 -0.15509883 0.1259167 0.015026929
000350 63 cd a1 be 23 b7 29 bd 7d 65 1d be 36 67 2e 3e
       -0.3160201 -0.04143442 -0.15370746 0.1703156
000360 28 f0 19 3e d3 b6 e4 bd 37 06 83 be a1 ce 82 be
       0.15033019 -0.111676835 -0.2559068 -0.2554827
000370 7b f4 4e be 15 e4 1f 3e 6a ce f6 3b 54 8b 27 bf
       -0.2021045 0.1561435 0.0075319307 -0.6544697
000380 9b 8a a4 bd 54 3d e4 3d 52 e3 70 bd 4d 43 be 3d
       -0.080342494 0.1114451 -0.05881054 0.0929018
000390 01 5f 2c 3d 7f 44 03 3e 0b 1f 0a bd 9e 94 0b be
       0.04208279 0.12819098 -0.03372101 -0.13630912
0003a0 24 fe a6 be a5 80 13 be 5a ae f2 3c c4 64 26 be
       -0.3261577 -0.14404543 0.029624153 -0.16249377
0003b0 7a 73 b7 3c 5d 2b 78 be b5 fc 1d 3c b4 11 03 3e
       0.02239393 -0.24235292 0.00964277 0.12799722
0003c0 29 e0 53 3d 46 3a bf 3b 5f b2 b8 3d d3 5c 08 3d
       0.051727448 0.005835804 0.090183966 0.03329165
0003d0 7d 4c 80 3c df ac ec bd 19 97 8c 3c e7 b5 c8 3d
       0.015661472 -0.1155641 0.017161893 0.0980032
0003e0 df ff 9c bd fb 2b 0f be e8 64 09 3b 68 32 1f be
       -0.07665991 -0.13981621 0.0020964686 -0.15546572
0003f0 0f 85 16 bd a0 71 db 3d aa 42 83 3d 52 2e cf 3d
       -0.03674799 0.107150316 0.064091995 0.10116257

network_smart.layer3.0.bias f4 [48]
000000 21 78 8e bd a4 7e e3 bd 70 19 28 3d c8 0a 11 bd
       -0.069565065 -0.11108139 0.041039884 -0.035410672
000010 cf 20 20 3d fa 20 42 39 4a b1 a9 bd 49 19 d9 3d
       0.03909379 0.00018513566 -0.08285768 0.10600526
000020 b1 c7 f7 3c b1 a2 ca 3d 50 8d 16 bc ef 9a 85 bc
       0.030246587 0.09894312 -0.009188965 -0.01630923
000030 32 6f 4b 3d 60 22 84 3d c6 40 00 3c d7 d0 30 bd
       0.04966659 0.06451869 0.007827943 -0.043167915
000040 bf 93 cf bd ec 9e 21 bd a7 a1 48 bd f3 13 ac 3d
       -0.10135602 -0.0394582 -0.04898229 0.084022425
000050 82 3a 6a 3d 36 37 96 3d 39 3d dd 3d bc ba 19 3d
       0.057184704 0.073347494 0.10802693 0.0375316
000060 dd c6 94 3d cf dd 2d 3b 7f a0 e4 3d 11 54 f4 3d
       0.07264493 0.0026529913 0.11163425 0.11930097
000070 1b cd b3 3d 14 a5 7a 3d 72 8f 9b 3d fd 2e c6 3b
       0.08779355 0.061192587 0.075957194 0.006048082
000080 d9 da 69 3d 78 e7 95 bd 1a 3c 97 bc c0 66 ea 3d
       0.057093475 -0.0731954 -0.018461276 0.11445379
000090 80 52 b6 3c ff d1 f6 3d d0 73 06 3d 4c e6 12 3e
       0.022256136 0.12051772 0.03282529 0.14345664
0000a0 31 2a b0 3c d3 a0 42 be 4b 5f 62 3d d2 22 03 bd
       0.021504493 -0.19006662 0.05526666 -0.03201563
0000b0 66 58 81 3d 71 c1 b4 3d 2e c4 20 3d a1 0f b5 bc
       0.06315689 0.088259585 0.03924959 -0.022102179

fc_smart.weight f4 [64, 48]
000000 ff 6c 17 3f 9b 0f d5 3e d1 8b 2a 3e f9 a2 a9 3e
       0.5915069 0.4161347 0.16654898 0.3313215
000010 f4 77 34 3e b6 9f 0d be ff b8 46 bd 8a 9b bb bd
       0.17623883 -0.13830456 -0.04851627 -0.09160526
000020 43 2e 30 be 28 d3 14 3e 57 d9 33 3f bc 1a dd 3e
       -0.17205147 0.14533675 0.7025351 0.4318446
000030 7a 43 cc 3d f2 41 9b be c0 14 28 3e fd bb 5c 3e
       0.09973808 -0.3032375 0.16414165 0.21556087
000040 b1 d0 16 bf 61 69 54 3f bc ae ae 3e cb 44 17 3e
       -0.5891219 0.82973295 0.34117687 0.14772336
000050 3c 06 24 be e4 27 8a be 10 4d 89 be a7 7a 95 be
       -0.16018003 -0.2698356 -0.26816607 -0.2919514
000060 e2 42 87 be 5a 7c 12 3f cf 6f 80 be fa ce e8 3e
       -0.26418215 0.57220995 -0.25085303 0.4547041
000070 2b 2a 5c 3f 88 41 e2 3e aa e8 f4 be bd 94 89 3e
       0.86001843 0.4419062 -0.4783376 0.2687129
000080 db 6d f2 be 5f 11 12 3e 99 ec ac 3e f2 1e a8 3d
       -0.47349438 0.14264439 0.3377426 0.08209027
000090 d2 4b b9 bf a4 6a 8d bd bc 13 6a be 0b 0a a7 be
       -1.4476264 -0.06905106 -0.2285909 -0.3262485
0000a0 50 0b 3c be 52 ac 27 bf 11 cf bc 3c 10 80 ff 3e
       -0.1836369 -0.65497315 0.023047956 0.4990239
0000b0 fb db 16 be 2b 59 33 be c5 89 be be 78 f0 40 be
       -0.14732353 -0.17514484 -0.37214485 -0.18841732
0000c0 12 e4 42 bf 09 da fb be 5d ec 27 be 1e e4 e4 be
       -0.7612926 -0.49189785 -0.16398759 -0.4470529
0000d0 e0 b4 82 be 16 ac 6f 3e 9f d5 fe 3d 2c 11 97 bd
       -0.25528622 0.2340549 0.12443089 -0.07376322
0000e0 5c f7 78 3e 5e c3 11 be 84 ee 5c bf ab c8 12 bf
       0.2431311 -0.14234683 -0.86301446 -0.57337445
0000f0 ce 48 ec bd 30 4f cd 3e 7d 3a 74 be b6 41 8d be
       -0.11537324 0.40099478 -0.23850437 -0.27589196
000100 c2 57 45 3f cc 8a 86 bf 67 11 d8 be 70 42 c6 bd
       0.7708703 -1.0511107 -0.42200777 -0.09680641
000110 64 c6 80 3e 23 3f 7e 3e 21 1d b6 3e 0a 62 d1 3e
       0.2515136 0.24828772 0.355691 0.4089511
000120 06 88 97 3e 25 d4 3f bf b5 77 8d 3e d9 27 17 bf
       0.29595965 -0.7493308 0.27630392 -0.5904518
000130 91 b8 8a bf 4b 06 20 bf 96 57 20 3f 27 e7 bf be
       -1.0837575 -0.625096 0.62633646 -0.37481043
000140 c5 5e 21 3f 8f 72 2e be ab 4f db be 6a a6 d9 bd
       0.6303523 -0.17035888 -0.4283422 -0.10627444
000150 ad 8f e4 3f d4 58 88 bd b7 e5 85 3e 26 67 ef 3e
       1.7856346 -0.066575676 0.2615182 0.46758384
000160 23 c5 8b 3e 2b f6 5b 3f 61 d3 22 be e9 ef 1d bf
       0.2729884 0.859225 -0.15900947 -0.616942
000170 45 57 33 3e ce 2c 65 3e 1e 05 c3 3e a1 f0 59 3e
       0.1751376 0.22380373 0.38089842 0.21283199
000180 ce da 32 bf 63 ea e6 be 62 cb b3 bd 2b 29 e6 be
       -0.6986512 -0.45100698 -0.087790266 -0.44953284
000190 f9 f6 89 be 34 1e 84 3e d4 58 05 3e 72 48 82 bd
       -0.26946238 0.25804293 0.13022166 -0.06361474
0001a0 37 cd 64 3e a0 d0 63 bd dd 53 5d bf 06 2a 12 bf
       0.22343908 -0.055618882 -0.8645609 -0.5709537
0001b0 0f ae ad bd cf ae d3 3e a9 78 76 be 44 53 90 be
       -0.08480465 0.41344306 -0.24069466 -0.28188527
0001c0 56 b9 41 3f 84 e6 83 bf 0f 9e d6 be 92 fd 52 3d
       0.75673425 -1.0304723 -0.41917464 0.051511355
0001d0 8d 50 86 3e 14 7b 5e 3e 03 2a b9 3e ea 19 d9 3e
       0.2623333 0.21726638 0.36164865 0.42402583
0001e0 d0 a0 87 3e e8 c3 35 bf de cf 74 3e ca 22 16 bf
       0.26489878 -0.71002054 0.2390742 -0.58646834
0001f0 d8 e9 84 bf d3 cb 1f bf a4 f9 1e 3f 4b 7a bf be
       -1.0383863 -0.62420386 0.6209967 -0.3739799
000200 23 2a 23 3f 95 a5 25 be 9a ba d4 be 26 4c 10 be
       0.6373617 -0.16176446 -0.41548616 -0.14091548
000210 17 a4 d9 3f ee 0d db bd 6f 07 71 3e 3c 29 e3 3e
       1.7003201 -0.10696016 0.23537992 0.44367397
000220 67 8a 92 3e 94 b2 59 3f 51 c2 60 be e7 6d 1d bf
       0.28621218 0.85038114 -0.21949126 -0.6149582
000230 00 96 0d 3e 53 cf 71 3e d4 95 71 3e c2 91 3a 3e
       0.13826752 0.23614244 0.23592311 0.18219665
000240 08 d1 3d bf 45 e8 f8 be 7d a2 d7 bd a5 9c eb be
       -0.7414708 -0.48614708 -0.10529039 -0.46017948
000250 9b ed 90 be 00 bf 88 3e 8e 5a fc bb 0b e9 91 bd
       -0.2830628 0.2670822 -0.0077012246 -0.071245275
000260 58 0b 69 3e a1 3d 8b bd 8b 47 6c bf 4d 9f 1a bf
       0.22758234 -0.06798864 -0.92296666 -0.60399324
000270 97 ab d0 bd c7 f7 dd 3e 81 b6 71 be 3d 8d a1 be
       -0.10188978 0.43353102 -0.23604776 -0.3155307
000280 3a 83 49 3f f8 b9 8b bf f2 04 e7 be c8 d7 2f bb
       0.7871586 -1.0916128 -0.4512096 -0.0026831497
000290 5b 90 87 3e c9 b8 78 3e df d6 ba 3e 7b 32 e1 3e
       0.26477322 0.2428924 0.3649206 0.43983826
0002a0 27 0d 93 3e 0b ec 3a bf b6 cf 7f 3e cb b4 1f bf
       0.28720972 -0.73016423 0.24981579 -0.62385243
0002b0 19 d2 8b bf df 95 1f bf 1f 6b 27 3f 73 07 cb be
       -1.0923492 -0.6233806 0.6539783 -0.3965412
0002c0 2d 68 2a 3f 3b ca 32 be 31 9c df be e9 23 19 be
       0.6656521 -0.17459957 -0.43673852 -0.14955105
0002d0 06 fe ef 3f 46 51 5c bd 09 44 85 3e 5b d7 ec 3e
       1.8749397 -0.053788446 0.2602847 0.46258053
0002e0 9d f6 8f 3e 06 2e 64 3f 9b e3 25 be 07 13 29 bf
       0.28117839 0.89132726 -0.16200106 -0.6604466
0002f0 da 28 2b 3e 8d c6 7a 3e df ad 9a 3e 69 0e 5a 3e
       0.16714802 0.24489804 0.30210778 0.2129456
000300 ff c2 3b bf 63 48 fd be db 30 a6 bd 54 28 f4 be
       -0.73344415 -0.4946929 -0.08114787 -0.47687018
000310 c6 23 96 be cc 77 87 3e dd 5a 64 bd 8a 66 f1 bc
       -0.29324168 0.26458585 -0.055750716 -0.02946784
000320 dd 65 61 3e 76 5d 31 bd 76 97 75 bf 6e b3 1d bf
       0.22011514 -0.043302022 -0.95934236 -0.6160191
000330 b1 f5 80 bd bd 99 e7 3e a8 5c 7b be 54 42 aa be
       -0.06296862 0.4523448 -0.24547064 -0.3325373
000340 63 da 4e 3f ab 59 8f bf b0 3f ec be 83 37 15 3d
       0.8080198 -1.119924 -0.4614234 0.036429893
000350 d9 12 87 3e 21 1d 82 3e b6 3c c2 3e 25 f7 e7 3e
       0.26381567 0.2541285 0.37936944 0.45305744
000360 7a 15 96 3e b2 6b 3b bf 31 53 81 3e 90 47 23 bf
       0.2931326 -0.73211205 0.25258783 -0.6378107
000370 87 e3 8d bf c4 c9 24 bf a6 69 2c 3f c5 a6 ca be
       -1.1085061 -0.6437037 0.67348707 -0.3958036
000380 fd 37 2f 3f d2 c9 37 be 41 c2 e2 be 87 5d 34 be
       0.68444806 -0.17948082 -0.4428883 -0.17613803
000390 59 3a f6 3f d4 4d a0 bd 94 4d 85 3e 41 1f ea 3e
       1.9236556 -0.078273445 0.2603575 0.4572697
0003a0 a8 1d 98 3e 7c db 6a 3f d9 f6 2b be e7 fd 2e bf
       0.29710126 0.91741157 -0.16793384 -0.68356174
0003b0 2a 5c 2f 3e 09 f6 86 3e c3 ee 8a 3e b4 7e 4e 3e
       0.17125002 0.26359585 0.27135286 0.20165521
0003c0 60 7c 23 bf e7 82 d5 be 5b 87 2a bd d9 11 d9 be
       -0.63861656 -0.41701433 -0.04163299 -0.4239643
0003d0 d8 ed 8b be f8 1c 88 3e 48 e8 b1 3d 38 2d b4 bd
       -0.27329898 0.265846 0.08686882 -0.08797687
0003e0 92 21 45 3e 1d 6f b8 3a c3 4d 59 bf aa bf 0e bf
       0.19251087 0.00140712 -0.8488428 -0.55761206
0003f0 44 81 a3 bd 78 25 d0 3e 48 53 59 be 00 68 9b be
       -0.0798364 0.40653586 -0.21223176 -0.30352783

fc_smart.bias f4 [64]
000000 10 4c 4b 3d 5d c6 da bc 58 71 1c be a3 0f 8e bd
       0.049633086 -0.026705915 -0.15277612 -0.06936576
000010 7a 0d a1 bd 5e c2 7f bd d9 b4 df 3d 77 b8 92 3d
       -0.078638986 -0.062441222 0.10923166 0.0716409
000020 dd 25 24 3e 57 34 fd 3d f6 a9 23 3e ea 80 d6 bd
       0.16030069 0.12363499 0.15982804 -0.10473807
000030 30 bc 61 3d e0 88 bf bd d5 9f 92 3d 95 f2 9b bd
       0.05511111 -0.09352279 0.07159392 -0.07614628
000040 ff b4 ee 3d 3a 6a 97 3d d7 0c 8e 3d c7 e7 4c bc
       0.11655616 0.07393308 0.06936043 -0.012506432
000050 f3 54 f7 3a 99 92 95 bc 18 db 82 3d 3f a7 c4 bd
       0.0018869921 -0.01825838 0.06389445 -0.09602212
000060 45 5b d9 3c 58 7f 94 3d f7 a0 e5 3d b8 6e 85 bd
       0.026532779 0.072508514 0.11212342 -0.065152586
000070 d0 01 1f 3e e3 e2 ab 3d 9b 97 c5 3d a4 fc f7 bc
       0.15528035 0.083928846 0.09648057 -0.030271836
000080 4e d5 08 3e c9 91 f9 3d 65 a9 60 3d 52 8e 06 3d
       0.1336262 0.121860094 0.054849047 0.03285057
000090 42 c2 8b bd 92 fe 7a 3d bb e4 3d 3d 27 ba cf 3b
       -0.06824161 0.061277933 0.046360712 0.0063393298
0000a0 e2 91 e4 3d 48 51 26 3d df 45 ba bb b3 ae 88 3d
       0.111606374 0.04060486 -0.005684599 0.06673946
0000b0 5f 5e 54 bd 7e 05 5b bc 26 b8 3a 3d 2e b3 b9 3d
       -0.05184781 -0.013368009 0.045585774 0.09067379
0000c0 c3 14 17 3d 4c 43 b7 bc 04 14 a4 3d d5 d1 3a 3d
       0.036885034 -0.022370957 0.0801163 0.045610268
0000d0 a0 08 a7 bd 2d d9 c8 3d 35 53 8f bd ca c1 17 bd
       -0.08155942 0.09807048 -0.06998292 -0.037050046
0000e0 26 36 dd 3b af 3d 2a bd d0 77 6f bd b4 e5 af 3d
       0.0067508398 -0.041562732 -0.05846387 0.08588734
0000f0 c9 f9 8c 3d 0b 53 78 3d cb 87 04 3d 26 29 01 3d
       0.0688358 0.06062607 0.032356065 0.031533383

network_aging.lstm.weight_ih_l0 f4 [128, 5]
000000 d8 68 dd bc db 23 79 3d 28 46 53 3d 96 d2 57 3b
       -0.027027532 0.06082521 0.051580578 0.0032931915
000010 c4 70 22 3e 81 0b d6 3d 9e ce 3b 3e 77 1e a4 bd
       0.15863329 0.10451413 0.18340537 -0.08013623
000020 81 d8 0a 3e 41 b3 5e ba 65 94 44 3e f1 1a 0c 3e
       0.13559152 -0.0008495339 0.19197233 0.13682152
000030 6d 17 67 3b 69 02 cb bd 60 36 6d 3d 2f 22 da bd
       0.0035261766 -0.09912569 0.057913184 -0.10651051
000040 7c f9 47 3e 1c 46 86 3d fa e9 a8 bd 0d 06 11 3e
       0.19528764 0.06556341 -0.082477525 0.14162464
000050 7c 22 09 3e 31 41 13 3d ff 7f 44 3e 9f b3 c4 bd
       0.13392061 0.035950843 0.19189452 -0.096045725
000060 c0 5f 58 bd 73 35 0c 3e 7f 17 7e 3c d6 1e e5 3d
       -0.05282569 0.13692264 0.015508532 0.11187522
000070 81 cb 55 bd 95 84 ab bd e7 30 51 3e 21 1c 22 bd
       -0.05219603 -0.083748974 0.20428811 -0.039577607
000080 d8 9d 01 bd 3e 27 1d 3e 57 0c c2 3c 14 97 95 3c
       -0.031644672 0.15347001 0.023687525 0.018260516
000090 9f 26 98 bd fb f5 c2 3d 66 73 43 3e ef d3 a5 3d
       -0.074292414 0.09519573 0.1908699 0.08097064
0000a0 e8 b0 06 3c 54 92 26 3e f2 6f 11 3e ac 84 f5 3d
       0.008220889 0.16266757 0.1420286 0.11988196
0000b0 1d 94 af bd b2 41 9d bd d6 c4 e6 bc fe 34 80 bd
       -0.08573172 -0.07678546 -0.02817003 -0.062601075
0000c0 30 0a bc bd 03 1b 19 3d f5 c4 73 bd 7d 43 29 3c
       -0.091816306 0.037379276 -0.059514005 0.010331032
0000d0 a5 4e fb bd ba dd 4a bd 46 01 d7 bd 3a 27 0e be
       -0.1227086 -0.04952786 -0.1049829 -0.13882151
0000e0 88 ff a1 3d 62 c0 0c be 8c 33 e1 bc 49 fe 81 3d
       0.07910067 -0.13745263 -0.0274904 0.06347329
0000f0 77 63 50 3e 74 14 ae bd 39 b9 e8 3d ce c6 bd 3c
       0.20350443 -0.08499995 0.113634534 0.023166087
000100 41 03 73 bd f9 c9 e1 bd 19 1c 0c be 5c b9 0c be
       -0.059329275 -0.11024851 -0.13682593 -0.13742584
000110 a7 f2 fc 3c 61 0f 2c 3e 2f e1 2b 3e 11 b4 fe bd
       0.030877424 0.16802742 0.1678512 -0.12436689
000120 4c 61 16 be e8 98 19 3c ad c4 13 bc b7 91 28 bc
       -0.14685553 0.009374835 -0.009019059 -0.010288647
000130 ef 3e d6 b9 74 d0 d8 bd 62 6d 4b 3e 6d 21 c6 bc
       -0.0004086415 -0.10586634 0.19865945 -0.02418586
000140 21 ed cf 3d ca cb 1a 3d 08 ff 7c bd 07 29 d1 bc
       0.101526506 0.037792005 -0.061766654 -0.025532259
000150 17 55 e4 3d 14 5a e0 bd ae 53 05 be f7 0f 70 3d
       0.11149042 -0.10954681 -0.13020203 0.058608975
000160 58 e1 6d 3d 23 90 82 bd 27 55 fa bd 50 e2 e0 3d
       0.058076233 -0.06375148 -0.12223273 0.10980666
000170 90 c4 cd 3d fb 46 e2 bd d8 49 45 bd 42 b8 76 bd
       0.10047257 -0.11048695 -0.048166126 -0.060234316
000180 ab fe 06 3e e0 19 61 bd 93 5e 57 3c 9c c8 28 bc
       0.13183086 -0.054956317 0.013145107 -0.010301735
000190 8c d0 01 be ed f6 df bd 6c 23 c9 3d 1d 75 d7 3c
       -0.1267721 -0.10935769 0.09821209 0.026300961
0001a0 c5 64 ce 3d b4 f7 4b 3c 5c a4 22 be 64 cc ba bc
       0.10077814 0.012449194 -0.1588301 -0.02280254
0001b0 c5 36 e6 3a ee 24 da bd 8f 1c a5 3d c2 c0 d9 bd
       0.001756393 -0.10651575 0.08062088 -0.10632469
0001c0 ec 81 e5 3d 05 25 e8 bd 90 cd fc 3d 68 98 c7 bd
       0.11206421 -0.11335186 0.123438954 -0.09745866
0001d0 6b 80 29 3e b2 4b 45 bd 40 d6 08 bd 38 ad 1a 3e
       0.16552894 -0.04816789 -0.03340745 0.1510514
0001e0 e6 1c 3a 3e 42 3f d4 3c 12 46 7f bd a9 c3 17 3e
       0.18175086 0.02590907 -0.062322684 0.14820732
0001f0 60 44 be bd c7 3f 06 3e f5 bf e7 bd 30 fd 2d 3e
       -0.09290385 0.13110267 -0.1131591 0.16991115
000200 da a2 08 bb 8b b9 12 be 7f 88 ec bc 2c 3f 18 3e
       -0.002084902 -0.14328592 -0.02887368 0.14867848
000210 a2 49 4f 3e 76 27 20 3e 7a 4b 61 3d 82 26 88 3d
       0.20242932 0.15640053 0.05500362 0.0664797
000220 19 24 c3 bd b7 cc c7 3c 42 b1 00 be a1 0b 38 3e
       -0.095283695 0.024389608 -0.12567618 0.17973186
000230 3f dd 74 3d 9e 66 a0 bd a1 93 dc bc 35 f1 21 3e
       0.05978131 -0.07832073 -0.026925864 0.1581467
000240 47 5c c1 bd 44 02 4f bd 50 d3 1a bd 5f 68 5f 3d
       -0.09441429 -0.05053927 -0.03779918 0.054542895
000250 35 4c 32 3d b7 18 10 3e 5f 2b 70 3d 53 55 19 3c
       0.043529708 0.14071928 0.058635112 0.009358722
000260 a3 d9 01 be 86 a0 8e 3d 14 ac b1 b8 e2 c3 b8 bd
       -0.12680678 0.06964211 -8.47207e-05 -0.09021737
000270 4b 11 87 3d 52 06 2f 3c 01 52 b7 3d 4f c0 12 3e
       0.06595095 0.010682659 0.08951188 0.14331172
000280 94 d3 6f 3d 81 cd b2 bd 10 aa a6 bc 84 eb 14 3e
       0.058551386 -0.08730603 -0.020344764 0.14542967
000290 5b 98 1a 3e 6e 7b b1 bd b0 3f a7 3d 48 3e 64 3d
       0.15097181 -0.086661205 0.08166444 0.05572346
0002a0 f5 cd d2 3d b3 59 31 3d 91 c6 0b 3e 76 ed 93 bc
       0.102931894 0.043298434 0.13649966 -0.018057566
0002b0 5c b7 c6 bd 31 ca 92 3b df cb fd 3d 29 1f 52 3e
       -0.09702942 0.0044796695 0.12392401 0.20519699
0002c0 99 64 93 bc 50 74 e2 bd 69 bb 36 3e 1a f1 bf bd
       -0.017992305 -0.11057341 0.17844929 -0.09372158
0002d0 e2 5b 6b 3d 3a 64 25 3e 92 76 1b 3e d8 9d ec bd
       0.057460673 0.16151515 0.1518195 -0.11553544
0002e0 b1 29 cc bd 1a 03 97 bd 85 64 14 3d 0e 08 8b 3d
       -0.099688895 -0.073736385 0.036228675 0.06788646
0002f0 48 c1 88 3d c6 11 9d bd de f3 21 3e 87 40 83 3c
       0.066774905 -0.07669406 0.15815684 0.01602198
000300 45 58 cb bd 35 2c ba 3c 11 81 61 bd 13 71 86 3d
       -0.099289455 0.022726158 -0.055054728 0.06564536
000310 39 31 b4 bd f1 84 b1 bc eb eb 18 3e a8 6b 12 3e
       -0.08798451 -0.021669837 0.14933746 0.1429888
000320 5d 50 36 bd b3 8b 15 3e d1 c7 82 38 1e 99 28 3d
       -0.044510234 0.14604072 6.236102e-05 0.04116165
000330 ee f2 ba bd 86 1d f6 3d 98 f5 21 bb a9 9d 33 bc
       -0.091283664 0.1201735 -0.0024713036 -0.010962882
000340 0b 13 1c bd 93 1e e5 3d b6 43 ea 3a 30 d4 0f 3e
       -0.0381041 0.11187472 0.0017872963 0.14045787
000350 13 fb f9 bd 9c 4e 5d 3d 30 c1 09 be 91 b8 49 3e
       -0.12206092 0.054030046 -0.13452601 0.19699313
000360 48 2f 23 3e 60 e2 b8 3d c4 ee ff 3d 80 69 86 3d
       0.15936005 0.090275526 0.12496713 0.06563091
000370 f0 d0 8e 3c 47 24 ca 3c 73 75 e1 3d c8 6a f8 bc
       0.017433614 0.024675502 0.1100873 -0.030324355
000380 c7 64 e2 3c 09 97 27 3e 0f fb 85 3d 6d 8e 09 3e
       0.027635945 0.16366209 0.06542026 0.13433237
000390 c1 93 3c 3e 4a 26 95 bd 02 4f 4c 3e e2 b4 43 3e
       0.18415739 -0.07282694 0.19952014 0.1911197
0003a0 f3 3c 0d 3e 41 bc 9e 3d 18 45 cc bd f2 9d 9f bd
       0.13792782 0.0775075 -0.09974116 -0.077937976
0003b0 81 89 49 3e 94 0c cd 3d b0 d2 21 3e 31 65 fa bd
       0.1968136 0.10012165 0.15803027 -0.12226332
0003c0 f5 94 20 3e e4 45 92 3a cb 37 bd bc 9a 3e 01 3e
       0.15681823 0.0011159745 -0.023097893 0.12621537
0003d0 dd 6d de bd a1 9b 15 3e 92 f4 b2 bc b7 25 b6 3d
       -0.108607985 0.14610149 -0.021845136 0.08893912
0003e0 bf 6d 8b bd 6d 87 f7 bd 0a 0a b2 3d 3e 5a 72 3d
       -0.06808042 -0.12086377 0.08693321 0.059168093
0003f0 cb 57 d8 3d 0a 90 40 bd 6a f3 09 bc 14 e0 bc 3d
       0.1056362 -0.047012366 -0.008419851 0.09222427
