trained_model/mc1_mc2/30_days_lookahead/pnet_checkpoint/pnet_online_2950.pth (torch, 545278 bytes, 36 tensors)

network_smart.layer1.0.weight f4 [128, 330]
00000000: aedc 0c3c 3d4d 2e3e bb80 843f 812c 1bc0
00000010: d3e4 c340 f1c3 8fbd 0749 3abc 62f4 4b3f
00000020: 6168 4fbd 790f c240 251f 6841 5f92 87bd
00000030: c477 f23d bdb4 643f 9fc2 3ec0 2b02 c740
00000040: 14f1 bebd 8ba0 263d 0417 3d3f 0c69 afbf
00000050: fd2e c440 6713 6a41 df47 053c 964c a33d
00000060: 6065 4b3f 1cc1 6ec0 cd4e ca40 9c4d 01be
00000070: e119 793d 96b4 543f e518 073f 81a9 ca40
00000080: 794d 6a41 af54 ddbb a3fc 7fbc 4e53 423f
00000090: 3852 2cc0 9f4f ca40 205a 45bd 98da 713d
000000a0: 32f5 4e3f ae05 21bf 3888 cb40 46ad 6c41
000000b0: 1fff 3dbd a164 25bd 3e76 653f 02bc 1bc0
000000c0: 52ff ca40 55b9 c5bd 9582 30bc d271 4b3f
000000d0: b833 c23e 11d6 cc40 0d78 6d41 7514 803b
000000e0: b60e 46bd b1f6 143f 724e 32c0 1ca9 cf40
000000f0: c19b 39be 22c9 463d 0c1c 433f bc22 94bf
00000100: a1e5 ce40 9ba2 6c41 a087 7fbd cc64 bebd
00000110: 6d2e 3e3f 58e7 b5bf e98f d640 cca0 47be
00000120: 5acc 263d cb21 333f eee3 103f 81bf d440
00000130: c262 6d41 bb6a adbd 0594 aabd ef09 713e
00000140: a208 dfbf f154 db40 934d 2ebe 0f77 a03c
00000150: 3fda 373f 0cca 91bf 7abb d940 1ddc 6e41
00000160: 2b2e 9fbc 8022 a8bd ba31 893c 71f4 92bf
00000170: 8b31 dc40 ce09 b6bd 6214 a53d 2767 2f3f
00000180: 71bc 1a3f e482 db40 c871 6d41 6115 8e3b
00000190: 4136 c4bd dbab 8d3e 5b64 d3bf 9baa d940
000001a0: 0291 3bbe a32b f3bb 56fc 2c3f 0acf 59bf
000001b0: 082b d940 521a 6841 a9d1 84bd cffc 1cbe
000001c0: 0cfd 943e 4566 dabf c45e da40 6ef3 f6bd
000001d0: 1f88 a3bc 5a99 393f c47d 88bf 7321 db40
000001e0: 1f99 6941 76d3 c9bc ac04 74be 6d15 e93d
000001f0: 588f ddbf 3436 d940 4283 d9bd bfec 773c
00000200: b81e 243f 5b8f 48bd 4ec8 d740 d311 6a41
00000210: 64d6 78bd 7ecb 3fbe 72b1 7a3e 8105 3abf
00000220: 1fda da40 b62d 88bd 707d 1d3c 423c 333f
00000230: 06b7 0ebf b182 d940 b36a 6c41 a1b5 4c3c
00000240: 92ea 82be 8d15 ed3e 95d0 a3bf 046a e240
00000250: ad94 d1bd d862 efbc 6c55 263f c541 2e3f
00000260: 91e1 e140 693d 6f41 a7b9 dfbc f976 7abe
00000270: c9e6 2a3f f02c c1bf 082b e640 9992 debd
00000280: 51fd b2bb 13e8 323f c75e 9bbe 47c9 e540
00000290: 4c3f 7041 56a8 96bd dedb 5bbe 9807 3d3e
000002a0: 3491 c2bf a78d e840 40c2 97bd fc00 153c
000002b0: 0751 373f ae2c 403f c2a3 e640 1165 6f41
000002c0: 9aa2 03bd 8c3f 84be f87d 123b a165 c0bf
000002d0: 2861 e340 3cd7 51bd 0858 453d cfcf 383f
000002e0: c589 e9be bb54 e340 efcb 6c41 3b94 8fbd
000002f0: 311d c9be 2fa2 ffbb 6c1e f1bf ae0c e540
00000300: b96f 88bd b025 20bd a5dd 2b3f d751 a7bf
00000310: 24fa e340 de5c 6b41 9e33 77bc c45c c8be
00000320: 123e 1dbe 0e61 bebf 9465 e740 bd56 9fbd
00000330: cb8b c9bc 6ee7 223f 2fd0 27bf 00b1 e640
00000340: ca2f 6b41 367c a3bd ed69 bbbe 108e a6be
00000350: 39a3 debf 33b6 ea40 fa37 42bd add9 0cbd
00000360: 53f1 1a3f c8a0 6dbf 1879 e840 f760 7141
00000370: 6720 bfbb c297 e8be 00ab b5be 62fe 51c0
00000380: 5bac f140 9634 68bd 29c4 1e3d 24e7 2d3f
00000390: ce67 bcbf 8c63 f140 5764 7541 32e7 a0bd
000003a0: 4aef efbe 519f 58be 9fd9 38c0 ccc6 f240
000003b0: f836 953c 1ada fe3c 196b 213f 4dfb ecbb
000003c0: e640 f140 624e 7941 02aa b5bc b417 03bf
000003d0: 73e7 fabe 3556 06c0 2379 f040 5f09 3c3d
000003e0: d375 7e3d 05ea 363f fc32 18c0 4740 f340
000003f0: d937 7c41 9ceb c73c 52c7 f5be 6755 0dbf
0.008597536 0.17021652 1.0351785 -2.4245913 6.1216826 -0.07019795 -0.01136995 0.79669774
-0.050636653 6.0643888 14.507604 -0.06619715 0.1183925 0.89338285 -2.9806287 6.2190146
-0.09323326 0.04068045 0.73863244 -1.3703933 6.130736 14.629737 0.008134811 0.07973592
0.7945156 -3.7305365 6.322119 -0.12627262 0.060815696 0.8308805 0.5277236 6.3331914
14.643914 -0.00675448 -0.015624198 0.7590836 -2.6925182 6.3222194 -0.048181653 0.059046358
0.8084289 -0.6289929 6.3603783 14.792303 -0.04638588 -0.04037917 0.8963355 -2.43335
6.343667 -0.0965449 -0.010773321 0.7947055 0.37930083 6.401131 14.841809 0.0039086887
-0.048353873 0.5818892 -2.786038 6.489393 -0.18125822 0.04853166 0.7621467 -1.15731
6.465531 14.789699 -0.0623852 -0.09296569 0.7428959 -1.4211226 6.705067 -0.19494933
0.04072223 0.6997344 0.56597793 6.648377 14.836611 -0.08467623 -0.08329014 0.23538946
-1.742451 6.854119 -0.1702178 0.019588022 0.7181739 -1.1389785 6.8041353 14.928739
-0.019431194 -0.08209705 0.016747344 -1.1480848 6.8810477 -0.08888589 0.08060528 0.68516773
0.6044379 6.859728 14.840279 0.0043360447 -0.095806606 0.27670178 -1.6515001 6.802076
-0.18317035 -0.0074209734 0.67572534 -0.8508154 6.786503 14.506426 -0.06485302 -0.15330814
0.2909931 -1.706246 6.824068 -0.12058149 -0.019962369 0.7249962 -1.0663381 6.847833
14.599883 -0.024636965 -0.23829907 0.1138104 -1.730937 6.7878666 -0.106207386 0.015132128
0.64109373 -0.04896484 6.7432013 14.629352 -0.060751334 -0.1872997 0.24481753 -0.7266465
6.839126 -0.06649344 0.009612426 0.7001382 -0.5574802 6.7972035 14.77605 0.012494476
-0.25569588 0.46305504 -1.2798029 7.0754414 -0.10233436 -0.029221937 0.64974093 0.68069106
7.058785 14.952493 -0.027310206 -0.24459447 0.667584 -1.5091839 7.192753 -0.10867805
-0.0054623266 0.6988537 -0.30345747 7.18082 15.015453 -0.07356326 -0.21470591 0.18459928
-1.5200562 7.2672915 -0.07410097 0.009094473 0.7160801 0.75068176 7.20749 14.962174
-0.03213749 -0.25829732 0.0022352915 -1.5031015 7.10561 -0.051230654 0.048179656 0.7219209
-0.45612922 7.104093 14.799788 -0.070106946 -0.39280084 -0.007801316 -1.8837409 7.157798
-0.066619344 -0.03909844 0.6713508 -1.307185 7.1242847 14.710173 -0.01508799 -0.39133275
-0.15355709 -1.4873369 7.2311497 -0.07780216 -0.024602791 0.63634384 -0.6555204 7.2091064
14.699167 -0.07982676 -0.36604252 -0.3253026 -1.7393562 7.334741 -0.047416665 -0.03438728
0.6052448 -0.9282346 7.264782 15.086173 -0.00583272 -0.45428282 -0.35482025 -3.2811513
7.5522895 -0.056690775 0.03876129 0.6793082 -1.4719179 7.5434017 15.336997 -0.07856597
-0.4686225 -0.21154524 -2.8882825 7.586767 0.018214688 0.031109858 0.63054043 -0.007232106
7.539172 15.581636 -0.022175793 -0.51208043 -0.49004707 -2.0990117 7.514787 0.045907374
0.062124085 0.71450835 -2.3781118 7.6015964 15.763635 0.02440434 -0.48003632 -0.5520844

network_smart.layer1.0.bias f4 [128]
00000000: 2cc5 233e 1731 90bd 0118 06bd b47e 683e
00000010: 5ce9 bd3d 7982 043d 1935 fb3d 3d7d dc3c
00000020: dd9d c43c 9951 ec3c 0d63 8fbd 90bd a2be
00000030: fce9 33be 0a3f d13d d2c2 b8bd 4b2c 693d
00000040: ae9d 4dbe 2611 39be 459d aebc 56ec d03d
00000050: 216b 553c 5e07 ba3d 706e e33d 1835 06be
00000060: 6c88 a4bb ab18 8bbe 87d5 c1bc 6ed6 61be
00000070: f7bb f6bc 2563 11bc c651 46bd d55e 413c
00000080: c03b 4dbd b04b a6be cb7e 91be 75bb c13e
00000090: dd62 19bc e5dc d83b 8f8b 64bc 1173 19ba
000000a0: 7082 9abb 69fa 013d eced 9ebe 5095 833e
000000b0: 2d6b 613c 4015 01be a897 883c 858d a3bd
000000c0: 69fc 6cbe 9643 df3c 04fd 45be 7f84 813d
000000d0: bed8 99be ed70 3a3d 0749 38bd 1619 dabd
000000e0: 03ce a4bd 0e89 37be 7e5a d73b 5fec 893d
000000f0: 3c21 25be b4ce bcbd e701 a63d 488a 023d
00000100: 2f68 823d 810b 173d 8bdd 2cbe ff13 11be
00000110: cfc2 f2bd 2081 28be 1c40 22bd 094a ae3c
00000120: 5a9b 29bd de24 e73c 1c40 15be c560 873c
00000130: 25b2 a9be 1d3f ac3d 6621 e1bd 13f6 26bd
00000140: 7ae9 7b3e f2bb 5f3b a87a 9ebd f6d4 83bd
00000150: c37b 3e3e d33c 223d 57d6 58bd 0bde aebd
00000160: 16bf 0abd 02d8 07bd 4c47 1fba 5a30 8ebd
00000170: 2233 c4bc 2c47 9dbd 84d8 d03d e455 d13d
00000180: 893a 253d 99fa 7bbe 6651 90bc fc67 1abe
00000190: ea18 82bc 557b b6bc 35fa 183e 3073 09be
000001a0: 2008 c33d 578f d73c 7876 03be 238c 103d
000001b0: 774c 61bd ac1a 843e 63bb 12bd 2bd9 79bd
000001c0: b8b7 62be 9532 333d a83b 113b d268 d0bd
000001d0: f81f 6d3d 91bb 71bd e3f3 40bd 4a81 e2bc
000001e0: d780 c5bc 6d0d b83c e67f 3e3e be1e 08bd
000001f0: 8793 61bc ce1c ecbc b621 0e3e 7d79 9c3e
0.15993184 -0.07040613 -0.032737736 0.22704583 0.092730254 0.03235099 0.12265987 0.026915187
0.024001056 0.028847503 -0.07001314 -0.3178525 -0.17569727 0.10217102 -0.09021534 0.056927007
-0.20079681 -0.18072948 -0.021315226 0.102013275 0.01302603 0.090834364 0.11105049 -0.13106191
-0.0050211456 -0.27167258 -0.023661388 -0.22054455 -0.030118925 -0.008873736 -0.04841783 0.011802395
-0.05010581 -0.3247962 -0.28417048 0.3783833 -0.00936195 0.0066181296 -0.013949289 -0.0005853633
-0.0047152564 0.03173295 -0.31040895 0.25699854 0.013758463 -0.12605762 0.016673878 -0.07985977
-0.23143162 0.027253907 -0.19334799 0.063241 -0.30048174 0.04551785 -0.04499152 -0.10649316
-0.08047106 -0.17923376 0.006572067 0.06734537 -0.16125959 -0.09219113 0.081058316 0.031870157
0.06367528 0.036876205 -0.16881387 -0.14167784 -0.11853563 -0.16455507 -0.03961192 0.021275537
-0.04140792 0.028215822 -0.14575237 0.016525635 -0.33143726 0.084104754 -0.10992698 -0.04076202
0.24600783 0.0034139124 -0.077382386 -0.064371035 0.18601899 0.039608788 -0.052938785 -0.08538445
-0.03387364 -0.033164985 -0.0006075993 -0.06942816 -0.023950163 -0.076795906 0.10197547 0.102214605
0.040339027 -0.24607314 -0.017616939 -0.1507873 -0.01588102 -0.022275606 0.14939196 -0.13422847
0.09523034 0.026313467 -0.12838161 0.035289895 -0.055004563 0.258016 -0.035823237 -0.060998123
-0.22140396 0.04374941 0.0022160802 -0.10176243 0.057891816 -0.059016768 -0.04710759 -0.02764954
-0.024109287 0.02246734 0.18603477 -0.033232443 -0.013768083 -0.028822329 0.13880047 0.30561438

network_smart.layer2.0.weight f4 [128, 128]
00000000: 6577 1abe f2f2 7bbe f141 09be 3eff a8bd
00000010: 8f58 0f3e 3cb6 ccbd 3308 96bd be74 873d
00000020: 3035 b43d cf8c 833b 242e f13c d5f5 813e
00000030: 4e9a 2f3d 77b3 82be 62b2 86be d2fa 123e
00000040: a802 29bd 1dfe 3f3d d760 71bd c076 5e3d
00000050: a0db 2fbd 7c0d fd3d 4df4 113d 354c 1d3e
00000060: ebc9 833d a8ac 003d 8a12 1fbd b191 2abd
00000070: da95 67bd 2ba1 a53d 021a 2d3d f721 d13c
00000080: 311e 413d 7509 803d e995 3ebe 229d bf3d
00000090: 675c 7a3d 2d6e 7c3c 594b 4f3d 104b 1a3e
000000a0: add1 443d b773 5a3d 54c1 213e 4acc c33d
000000b0: 18d2 b0be 68d1 493d 45a8 bc3d 1ed9 9a3e
000000c0: b26a 903d 3000 a23d 28db 4e3d b16c 9e3e
000000d0: cafb f5bb b59e 43bd 96cb 2e3d f1bd 08bf
000000e0: b34c 7a3d fcd9 2e3e e8cf 5abd f4b3 57bb
000000f0: 36e2 d3bc 4810 b83c cb9c 9fbe ca7b 6abe
00000100: c326 f53d 6c71 0f3e cbef b13d 37e9 b13d
00000110: ac30 bf3d 9f32 48be efb4 b3bd 3455 313e
00000120: 3afd 0c3f c9ff 373d b6cf 07bc e818 3ebf
00000130: 7c78 a7bd 3b08 5ebe 131a 47bd 0bec 303f
00000140: bd0d 56bd a394 91bd f994 a4bd 4ca2 1bbc
00000150: 1990 86bd 3bab 863d b1ab a5bc 3121 6e3b
00000160: a6cf a6be 0310 a6bd b0b4 ca3c 3c0c 243e
00000170: 69ff 9e3d 48c3 fe3c e852 26be ba18 85be
00000180: a79c a73b 2972 3c3d 5c1d 65bd 08f9 bfbd
00000190: deba 04be e881 553d b09b d3bd 0a23 06bd
000001a0: b4f8 4abe 6f27 9ebc 7fa5 ff3d 0748 e73d
000001b0: a148 03bd 4253 0e3d b5fc 8c3d bdf5 ecbb
000001c0: 4b17 1f3e f4ca a6bd 0b90 96bd 29da 45be
000001d0: 127e df3e d81d d33c 7b01 85bd d81c fb3c
000001e0: 25f3 07be 4673 28bd b078 333c 9976 ed3c
000001f0: 5304 1d3e e4bb fb3b 80e7 6bbc 961c 473d
00000200: decd 0d3e 43fc 9a3d 3d7c 7b3e 010d 163d
00000210: 144b b83d f814 4cbe afc4 ecbc df67 54bd
00000220: 863d e2bb 8670 0cbb 9902 5ebe 4336 1cbe
00000230: 7aea cdbc cc31 95bd ba62 a9bd b95d 123e
00000240: 8f9a df3b cd2e 2bbd 35b0 a13d 231f 123f
00000250: e760 9fbd 8507 313d ffb9 74bd 7d8a 823d
00000260: 2d1b 133d 7da3 77bc e644 8a3d e711 c23d
00000270: 99b2 a9bd df15 bbbc 12db 713d 6620 1fbb
00000280: 15a7 87be 4140 c5bd 14ce 9cbe d27f 893e
00000290: 5f8a d73b c2ea 8d3d dcbc 373b c6c5 2dbd
000002a0: 8138 2abd e1ae 803d 7b15 d8bd 3d08 b13c
000002b0: b32c c13d aeab 4dbe 97fb 8abf c76d 2cbe
000002c0: 7a0f b53c fe3d 0d3c 7faf 15be 80cb c4bc
000002d0: 326e b9bc 44b0 733d 3dce 8fbd 5e64 a5bd
000002e0: 436a 37bd 4332 083e 9a0a a63d 56c7 c9be
000002f0: 2700 aebc f4f1 01bd 1d90 2bbd 9e79 0a3e
00000300: a8df 86be bd7b c2be ad17 c5bd d60a 8f3a
00000310: c67b bebd ed93 3cbd 9aa6 853d f01d 703d
00000320: fdf0 8c3d e62c 793c 214e fb3d e01e 02be
00000330: 3645 82bb c5f7 c6bc fa58 91bd 8323 fd3c
00000340: 4591 2c3d bf7e 503d df14 e2bd 2d56 88be
00000350: 5cc2 5fbf dcc4 4cbe 6500 253d eba8 22bd
00000360: 720c 173e 930d 62bc 71e0 35bd f601 9a3c
00000370: a617 d7bc 0453 babc d453 f13d b1ba ab3c
00000380: 3e8c 31bb cd35 c1bd afa0 1fbd 746b 1e3d
00000390: 4be4 253e b056 9ebd 343d 383e ff55 1cbf
000003a0: 3276 e1bd 4252 ad3c 6d0d c63c 1757 45bd
000003b0: ef52 b7bb 6d57 e13d 472a 1c3d 83f2 fabd
000003c0: 0525 0f3e b4e9 8c3d 6da6 bfbd 897e 3cbe
000003d0: c82f 13be 6d4b 043d 5526 7ebe d951 6bbd
000003e0: c415 aabd c1cd cbbc 1c0c 883d c749 14bc
000003f0: 4f1f 99bd bbfa 5fbd a360 8abd 7c32 ff3b
-0.15084608 -0.24604395 -0.13404061 -0.082518086 0.13998626 -0.09995696 -0.073257826 0.06614064
0.08799207 0.0040145884 0.029440947 0.25382867 0.042871766 -0.25527546 -0.2630797 0.14353493
-0.0412623 0.0468732 -0.058930244 0.054312468 -0.04293406 0.123560876 0.035633374 0.15361102
0.06434997 0.031414658 -0.03883604 -0.04164285 -0.056539394 0.08087381 0.04226113 0.025528891
0.047147933 0.06251804 -0.18611874 0.093561426 0.061123278 0.015407127 0.050608966 0.15067697
0.048051525 0.05333301 0.15796405 0.095604494 -0.3453529 0.04927197 0.09211782 0.30243772
0.070516005 0.07910192 0.050501972 0.309423 -0.0075068222 -0.047758777 0.042674623 -0.5341483
0.061108302 0.17075342 -0.05342093 -0.0032913657 -0.025864702 0.022468701 -0.3117431 -0.22898784
0.11970284 0.14008111 0.08688315 0.0868706 0.09335455 -0.1955056 -0.08774745 0.17317659
0.55073893 0.04492167 -0.008289268 -0.74256754 -0.081772774 -0.21682827 -0.04860885 0.69110173
-0.052259196 -0.07108428 -0.08036227 -0.009499144 -0.06570453 0.06575628 -0.02022347 0.0036335702
-0.32580298 -0.08108523 0.024744362 0.16020292 0.07763559 0.031098977 -0.16242564 -0.25995427
0.00511511 0.04600731 -0.055936202 -0.09373671 -0.12961909 0.05212584 -0.103324294 -0.03274826
-0.19821435 -0.019305913 0.12482738 0.11293035 -0.032051686 0.03474737 0.068841375 -0.0072314427
0.1553623 -0.08144179 -0.07351693 -0.19321503 0.43650872 0.025771067 -0.06494423 0.030653402
-0.13276346 -0.04112556 0.010954067 0.028987216 0.15333681 0.0076823104 -0.014398456 0.048611246
0.13848063 0.07567646 0.24559112 0.036633495 0.08998695 -0.19929874 -0.02890238 -0.05185687
-0.006904307 -0.0021429374 -0.21680678 -0.15255074 -0.025136221 -0.072848886 -0.08270784 0.14293565
0.0068238447 -0.04179268 0.07894937 0.5707876 -0.077821545 0.04322006 -0.059747692 0.06374071
0.03591459 -0.015114662 0.067514226 0.09476071 -0.08286018 -0.022837577 0.059046812 -0.0024280786
-0.2649466 -0.09631396 -0.30625975 0.26855332 0.0065777744 0.06929542 0.0028036153 -0.04242494
-0.041557793 0.062833555 -0.10550972 0.021610374 0.09432354 -0.20085022 -1.0858029 -0.16838752
0.022102106 0.008620737 -0.14617728 -0.024022818 -0.022635553 0.059494272 -0.07021759 -0.08075784
-0.044779073 0.13300423 0.08107491 -0.39409894 -0.021240307 -0.031724885 -0.041885484 0.13522956
-0.2634251 -0.3798503 -0.096236564 0.0010913264 -0.09300952 -0.04603951 0.06525917 0.0586223
0.06881902 0.0152084585 0.12270761 -0.1270709 -0.0039755357 -0.024288068 -0.07097049 0.030900722
0.042130727 0.050902124 -0.11039137 -0.26628247 -0.87405944 -0.19996971 0.04028358 -0.039711874
0.14750841 -0.013797182 -0.044403497 0.018799763 -0.026256394 -0.022744663 0.11783567 0.020963045
-0.0027091647 -0.0943409 -0.0389716 0.038676694 0.16200368 -0.07731378 0.17992097 -0.6106872
-0.11008872 0.021157388 0.024176324 -0.04817876 -0.0055946033 0.11003003 0.038126256 -0.12253287
0.13978966 0.06880513 -0.09357915 -0.18407644 -0.14373696 0.032298494 -0.2481931 -0.057451103
-0.08304933 -0.024878385 0.06642935 -0.009050793 -0.07476675 -0.054682475 -0.06756713 0.0077880006

network_smart.layer2.0.bias f4 [128]
00000000: 16b9 c9bd 9c9b 39bb ebeb d83d 5f23 2dbd
00000010: 8608 193d d96c 023e 490b b9bd f10a 09be
00000020: e6dd 49bd 9db9 de3d 1e0a 9cbd be20 81bd
00000030: 9166 32be 05c0 f1bc ecae 02be c3c8 003d
00000040: 6181 6c3d 6701 acbe 13d1 c9bd f86e c43d
00000050: 27d4 453d ddab da3c e830 04be 51d8 a73d
00000060: ed69 9a3c 501f ecbd 9765 1f3d 9daa 1f3e
00000070: 541d 0fbe 922b d8bd 7831 dc3d 7d91 21be
00000080: 9f84 2abd 8b6b 8cbd 3c40 813d 19ea 843c
00000090: cf18 133e f8b2 1b3c aa75 eb3d 4f7e 443e
000000a0: ed1b a8bd 939a cf3d 0e3b d8bd 3cbd 1f3e
000000b0: 1d9c 4c3e 924b e6bd 4f26 debd f406 4f3d
000000c0: 71af 8c3d 808d 3f3d da4c 453e 9b9c b83d
000000d0: f0a8 6dbd 5524 c0bd 904f b6be f2fd c33d
000000e0: 7fef 05be ef11 e63d 4221 963d cab9 70be
000000f0: e23a 1dbe 5e7b 80bc 6a7a bf3d 8f0e f5bd
00000100: a71f 263d 65e5 afbd 3a40 9dbd 6b5c debd
00000110: ac4f c4bd f65d b8bd 13bb 753c a8e8 50be
00000120: 7357 eebd 3e73 0d3e 68ae aabd d6ce 67bd
00000130: cc1c 08be 84c3 8fbd abd9 0ebe a16d b33d
00000140: 5b82 00be 7882 77bd 6b70 523c c983 aabd
00000150: 514b 00bd 6992 63be f1d5 0bbe 03af 79bc
00000160: 1946 55bd d529 eabd ee22 383d 6147 3fbd
00000170: 093f dfbd 59c6 44be 4aa2 1abd f35e db3d
00000180: 6c84 24bd 7b41 89bd c279 d6bd 0b8c 07be
00000190: 40ec b83d 6dec 233d 19e6 47bd f2bb 13bd
000001a0: b1ac 16bd e9cf d03d 1214 883d c58d f53d
000001b0: 1b8d e23c 8197 f8be 352c 1c3e 70ac 3d3e
000001c0: dce5 b53d dfd0 103d 684a 8fbd 242e 7bbd
000001d0: a2c2 103e 4951 023d 044b 593c 6192 7b3e
000001e0: 3d60 2ebe ddee 43be 7bbe 093e 6ce4 c8bb
000001f0: b4be b13d f674 4abd 886a 273e a75b f13d
-0.098497555 -0.002832151 0.10591873 -0.04227006 0.037361644 0.12736835 -0.090353556 -0.1338308
-0.049283884 0.10875247 -0.07619117 -0.06305073 -0.17421938 -0.029510507 -0.1276204 0.03144146
0.057740573 -0.3359482 -0.09854331 0.09591478 0.048298027 0.026693279 -0.12909281 0.08195556
0.018849337 -0.1152941 0.038915243 0.15592428 -0.13976032 -0.105551854 0.10751623 -0.15778156
-0.041630384 -0.0685645 0.0631108 0.016224908 0.14364932 0.009503119 0.11497052 0.19188808
-0.082084514 0.101369046 -0.10558139 0.15599531 0.19981427 -0.11244883 -0.108471505 0.05054374
0.068694 0.046765804 0.19267598 0.09014245 -0.05802244 -0.0938193 -0.35607576 0.095699206
-0.13079642 0.11233889 0.07330562 -0.23508373 -0.15354493 -0.015683826 0.093495205 -0.119656675
0.04055753 -0.085886754 -0.07678266 -0.10857471 -0.09585509 -0.090022966 0.014998215 -0.20401251
-0.11637773 0.13813493 -0.083340466 -0.05659374 -0.13292235 -0.070197135 -0.13950221 0.087611444
-0.12549727 -0.06042716 0.012844185 -0.08325917 -0.031321827 -0.2222382 -0.13655831 -0.01523948
-0.052068803 -0.1143376 0.044955187 -0.04669893 -0.10900695 -0.19216289 -0.037752427 0.107114695
-0.04016535 -0.067019425 -0.10472442 -0.13237016 0.09029436 0.040020395 -0.048803423 -0.03606791
-0.036785785 0.10195906 0.06644453 0.11989931 0.027655175 -0.48553088 0.15251239 0.18522811
0.08881733 0.035355445 -0.06996614 -0.0613233 0.14136747 0.0318158 0.013262514 0.24567558
-0.170289 -0.19134088 0.13451569 -0.0061307456 0.08678952 -0.04942795 0.16349232 0.117850594

network_smart.layer3.0.weight f4 [48, 128]
00000000: c791 59bc a307 833d ac73 efbd 3e2a 3fbd
00000010: ab5d a73d fede 87be c0ce 72bd 48d1 fc3d
00000020: dbce 863d bbb2 05bd 9ce8 dbbe 388b 473e
00000030: bd28 1cbf 825e 0e3e 893d 6abd 6a45 b73d
00000040: 724f bd3d c17c 46be 4db4 babe 68b3 f13c
00000050: 438b 0e3f 57f5 4abd 30dc 523e f5c2 bf3c
00000060: 5f76 74bd 7da7 7abe 5773 3fbb 09ab d83d
00000070: b33f 0dbe 6dfd 773d 7e63 8cbe 4ea2 093e
00000080: 9328 8fbd a19f 2b3e 9633 e3bc 5088 373e
00000090: 29e0 42be 3e74 a4be 4b4a bc3d 9eca 6bbd
000000a0: 0aaa e33b 8976 0fbe c218 823d e54b 903d
000000b0: fe60 963d 1c5c b03d 663f 573e 95bc 0fbe
000000c0: edca 933d fd5a 5cc0 6a70 233d 261c 003e
000000d0: a4df cd3c 7dfc a53d 66e4 e23e cf86 23bd
000000e0: 0eeb 7abb 853e c63a 9246 f93d c6d7 03bf
000000f0: 10cb 07bf a44d b1bd 8520 ba3d d5ff e9bc
00000100: 6fe2 7bbe 65fc 95be 599b 00bf a2c7 c03d
00000110: 1393 12be 8a03 723d 84b5 36be 01ce 5cbc
00000120: db96 a2bc 0e84 5cbe b01d 8f3c c131 1b3e
00000130: abd6 7ebc 6b27 203e 3202 2a3e 81cd dfbd
00000140: b42b 7d3d 8812 b1bc 977b a2be 0576 e43c
00000150: 1b56 1ebe 7f41 d83e 5e37 adbc 9f6b 5f3d
00000160: 204f de3d 2cea 0e3e 801d d73d 7939 d1bc
00000170: f6cd 5ebd 1670 983d 2c9e 963e 36d0 c03c
00000180: 6d04 0d3e 4f5a f53e 999c 543e b278 503d
00000190: c933 44be 106f c33d 727f 953e eb54 2bbe
000001a0: 65cb 413e 56aa 64bd 65f4 eebd 19a1 67bd
000001b0: 83fd 7f3c 2101 c0be 0e27 84bd 973f 2f3d
000001c0: f7fa cd3d 4aa7 da3d 29ee 1f3d e681 cf3c
000001d0: 1d63 5e3e 5a92 37bd 5548 66be 9db2 1e3e
000001e0: b003 5fbf 9542 c13e c271 ba3d e7f3 d53d
000001f0: 9cb7 31bc 241f 09bd 8920 123e 688a b83d
00000200: 5de2 1dbf 18c4 8b3d 7e75 be3d 5a9d 233e
00000210: 580f dbbd 27d7 d2bd 5355 4bbd 1e6d 51be
00000220: 5414 243d 9b16 24be 3c99 17be fba8 90bf
00000230: 8672 8fbf 5ab4 a03e 76a9 cdbc a839 2ebd
00000240: 04dd 6cbe 33b5 f8bc 36b6 ac3d 5aad 443d
00000250: b07f 8d3d 1426 9ebe 90ae 0b3d cbaf 2d3e
00000260: f465 523e c285 46be 2a67 943d ef22 123e
00000270: 87cb fabc ebd6 dabc 8a5b b3bd 3093 a33e
00000280: 50c1 d53e 9899 003e e09d 6bbc 0a61 7cbc
00000290: dda8 f4bd 6110 9bbc 62d4 613e e925 073e
000002a0: c2ac abbd 463a fb3d 663c ccbe a990 283c
000002b0: dd7b 8d3d 08f8 b1bd 1441 373e 1cbe 8b3d
000002c0: 5515 903d 0a21 653d 67a0 ba3d b0f8 0e3d
000002d0: 4061 a33c e65c c5bc f1f8 a03e 7898 a63c
000002e0: 3820 89be a3ed d43c efe5 abbd 8c9b 8abe
000002f0: 61bf 38be f2c3 d9be 5cd1 6cbd 7c0c cc3d
00000300: 87ba 9fbe fe60 c8bb 4484 15c0 cb09 22bf
00000310: 3fa7 2f3d fbcb 423e cb27 f9bd 52d7 1b3d
00000320: f1de bf3e 4675 e83b f019 633d 521a 153e
00000330: 9948 8fbe 5186 113e 324b 67bd 8f24 14bd
00000340: f446 de3e 2459 9b3d 1175 823d a939 0dbf
00000350: 3776 34bf d020 8abd 87bd 293f 1800 b03d
00000360: b1fb ce3d ac77 ccbd c164 c7be 96cd 79bd
00000370: 29bd 913d 34d6 2fbe c243 36bf 9801 263e
00000380: 18a5 3cbd 189f 213f 16bf b23e 76bb e6bd
00000390: 4109 ee3d e22e 77bd 5e2f 2f3e 3f36 a3be
000003a0: 0647 52be a240 103d 6856 38bd 5690 cfbc
000003b0: 9c3c 093e 1658 473e e8b9 423e 38b2 eb3d
000003c0: 297d 9b3d e5ef dabe 37a2 31bc 390b 3cbf
000003d0: f23f f0be 395b 19bd 3b47 a93d 738c 343e
000003e0: c9f0 c5be 9d24 023f 5f23 783d af32 b6b8
000003f0: 98e0 ae3d 7008 9f3d 86aa ac3d 070b 1e3f
-0.013279385 0.06397941 -0.116919845 -0.046671145 0.081721626 -0.26537317 -0.059279203 0.12344605
0.06582423 -0.032641154 -0.42950904 0.19486701 -0.6099966 0.1390324 -0.05718759 0.089487866
0.092436686 -0.19383527 -0.36465684 0.029504493 0.55681247 -0.04955038 0.20591807 0.023408392
-0.0596832 -0.24477954 -0.0029213035 0.10579497 -0.1379383 0.06054442 -0.27419657 0.1344082
-0.06990161 0.16760112 -0.027734559 0.17923093 -0.19030823 -0.32119936 0.09193858 -0.057566278
0.0069477605 -0.14010061 0.063523784 0.07045726 0.073427185 0.086113185 0.21020278 -0.14036782
0.072164394 -3.4430535 0.03990213 0.12510738 0.025131054 0.08104799 0.4431488 -0.039923485
-0.0038287076 0.0015124833 0.12171663 -0.5150112 -0.53044224 -0.08657387 0.09088234 -0.028564373
-0.24598096 -0.29294124 -0.5023704 0.09413077 -0.14313917 0.059085406 -0.1784268 -0.0134768495
-0.019847324 -0.2153475 0.01747021 0.15155698 -0.0155541105 0.15640037 0.166024 -0.10927869
0.061809257 -0.021615282 -0.31734917 0.027888307 -0.15462534 0.4223747 -0.021144565 0.054545995
0.10854936 0.13956517 0.105036736 -0.0255401 -0.05439564 0.07443254 0.2941755 0.023536783
0.1377122 0.47920462 0.20762862 0.050896354 -0.1916038 0.09542668 0.29198796 -0.16731612
0.18925245 -0.055826508 -0.11667708 -0.05655012 0.015624407 -0.3750086 -0.064527616 0.042785253
0.10057633 0.10676439 0.039045487 0.025330495 0.21717496 -0.044817306 -0.2248853 0.15497823
-0.87115 0.3774611 0.09103729 0.10446911 -0.010846999 -0.033476964 0.14270224 0.09010774
-0.6167353 0.06824511 0.092997536 0.15977994 -0.10696286 -0.10294943 -0.04964192 -0.20451781
0.04005845 -0.16024248 -0.14804548 -1.1301569 -1.1206825 0.31387597 -0.02510522 -0.042535454
-0.23131186 -0.03035984 0.084331915 0.048016883 0.0690912 -0.30888426 0.034102023 0.16961591
0.20546705 -0.19386962 0.072462395 0.14271139 -0.030614628 -0.026713809 -0.08757694 0.31948233
0.41749048 0.12558591 -0.014380902 -0.015403995 -0.119462706 -0.018928709 0.22053674 0.13198055
-0.0838256 0.12266974 -0.3988983 0.010288396 0.06908391 -0.08689886 0.17895919 0.0682337
0.07035319 0.05593971 0.091126256 0.034905136 0.019943833 -0.024092149 0.31439927 0.020336375
-0.26782393 0.02599222 -0.08393466 -0.27071798 -0.18041755 -0.42532307 -0.05781685 0.09963319
-0.31196997 -0.006115078 -2.3361979 -0.6329619 0.042884108 0.19023125 -0.12165793 0.038047142
0.37474778 0.007094058 0.055444658 0.14560822 -0.27985075 0.14211394 -0.056468196 -0.036167677
0.43413508 0.075853616 0.06369985 -0.5516611 -0.7049288 -0.0674454 0.6630482 0.08593768
0.101066 -0.09983763 -0.38944057 -0.060987078 0.071161576 -0.17171556 -0.7119714 0.16211545
-0.046055883 0.6313338 0.34911412 -0.11266224 0.11622859 -0.060347445 0.17107913 -0.31877324
-0.20534906 0.03521789 -0.04500428 -0.02533738 0.13402027 0.19467196 0.1901623 0.11508602
0.07592232 -0.4276115 -0.010841898 -0.73454624 -0.46923786 -0.037440512 0.08265539 0.17631702
-0.38660267 0.5083712 0.060580608 -8.687877e-05 0.085389316 0.07765281 0.08430962 0.61735576

network_smart.layer3.0.bias f4 [48]
00000000: 2541 5abd 074c c73d 0197 b13d 006f cd3d
00000010: b754 5f3d 9925 d0bc d847 933d ccd0 393d
00000020: fc7d 313c 8ebe a23d 2c58 d63d 7dfc d2bd
00000030: ec26 5d3d ccd5 5bbd b338 87bd f00b 8a3d
00000040: 40c8 5abd 9216 383c 0ac5 673c 00b6 6f3d
00000050: e195 963d b1e1 023c 8c02 19be d24e 22bd
00000060: 3f0b 323c e211 b13d 4b5f 313e ed9b 183e
00000070: c331 de3d c381 bdbd f9a4 b23c 39d6 e1bd
00000080: 6d38 e93d 1f2e 133d 5bfb 38bd f01f 183e
00000090: 232c e43d 7c73 063d ced6 d0bc 1a40 8a3d
000000a0: a845 c63c 7929 b33d d304 e83d 90b5 1f3c
000000b0: 1d30 a3bd ed9d 863d 1e6d 4fbe 53c5 67bd
-0.053284783 0.09731298 0.0867138 0.10030937 0.05452415 -0.025408553 0.071914375 0.04536514
0.01083326 0.07946502 0.10466036 -0.103020646 0.053992197 -0.05367069 -0.066026114 0.06740558
-0.05341363 0.01123585 0.014146099 0.058523178 0.07352806 0.007988379 -0.14942378 -0.03962595
0.010866939 0.08645989 0.17321508 0.14903231 0.10849335 -0.09253266 0.02180718 -0.11027188
0.113877155 0.035932656 -0.045161586 0.14855933 0.11141231 0.03282498 -0.025493052 0.06750508
0.024203137 0.08748145 0.11329045 0.009747878 -0.07968161 0.06573091 -0.20256469 -0.056584667

fc_smart.weight f4 [64, 48]
00000000: 9075 a03e 462c b7bf b76c 28bf 6c9e 6dbf
00000010: 4a34 a33e fcb3 0c3f dda0 f3be 1f3b 733f
00000020: 3ef7 7abf 3d63 70be 567b 1f3f fc47 16bd
00000030: 575f 0dbf fa40 543d 10a4 47bd 6c6b bcbe
00000040: 5e7b 05bf 182c 743e 3553 5cbd 7f65 fdbc
00000050: db56 3dbe 7fee 043c 806d 293e a656 18bf
00000060: 0a70 023e 14d4 2a3e b839 a93e 5640 91be
00000070: 574f cc3d 6336 18be 52d0 a8bd ae28 93bf
00000080: e350 b03e db2c 06bf 7341 4bbe 7f4a bd3e
00000090: a1d3 4f3b 02b5 2ebf be17 75bd da1e 88be
000000a0: 92ea 9d3d 0898 983d bc4e c53e fcd8 8e3d
000000b0: a290 07bf 12d7 183e 0f46 26be 89da 193f
000000c0: 2aba 6f3e c3e9 60bf 7c51 c9be 4652 d4be
000000d0: 925b 78be 4132 233f d4c6 88be bdd0 1c3e
000000e0: 976d 28bf 7a94 7ebe b2e2 f53e c293 93bd
000000f0: effa aebe 4c02 7b3d 8983 0d3e 05ed d5bd
00000100: 5ef7 86be b8ae 2ebe 52b0 443e b258 2a3d
00000110: 93fe e83d 30ab b1bd 79b3 e43c 5ccf c5be
00000120: 1261 0e3f fa8d c83a e0f4 803e 93f0 47be
00000130: 5311 123e edf2 5fbe b19d 84be 4c68 88bf
00000140: 389f 293e e836 bebe 0bd5 673d f386 4b3d
00000150: 3f8b 663e 5c12 6cbe 473c 9a3d 74f5 5cbe
00000160: 22b8 10bd fb4d 97bd 2299 6b3e bf8b 7abd
00000170: 0287 93be 394f 7fbf 2ed5 eb3e 7336 0a3f
00000180: 894c 4abe 76a9 793f e8f4 e83e 01bc 313f
00000190: 2f19 c6be 1e14 84be b9b3 ab3e 252f 51bf
000001a0: 42fa 253f 6ff0 f23d 5b58 c6be b617 58bc
000001b0: 6552 c03e 003f 4ebd ecb9 bf3d ddf7 983e
000001c0: 61cd c13e 0b07 95be c778 fd3d 2239 523d
000001d0: 38a7 5a3e d84a edbd 5e05 14be 830b ca3e
000001e0: 9cfb c63d 1f9a 1dbe d100 54be 3ac6 3e3e
000001f0: e3c1 1abd e8c3 553d 2f6b 90bc ca5f 243f
00000200: e88c 81be 5734 ad3e 2e1d 513e 4829 a5be
00000210: ed6d ae3d b641 0a3f 83f5 07be d38e 253e
00000220: 829c d73c f82b bcbd 7a8e 87be b64c babd
00000230: 3ed5 c03e 3318 08bf f3ef a83e d436 afbe
00000240: 4446 103c 40b0 f03d 04bd 883d 756f 5a3e
00000250: 563b cebe b41e 573e ad81 753d 0c12 e8be
00000260: f941 123d af3a 90bd 241d fb3c 08cc 03bd
00000270: 0f4e 3a3d 56c8 b4bd 8021 643d 5e92 0b3e
00000280: c175 bd3d 91c7 96be 6636 4e3e 24f6 5b3d
00000290: ab8a 593e e2b1 ab3d dfa5 a1bd fcce 003d
000002a0: 7afe cb3e fb13 d0bd 1465 5d3c 71a5 c23b
000002b0: a678 7f3d 8359 c6bd 8b6b 3cbe d949 58be
000002c0: 6b75 8cbd 63ba 1e3b f3bd 2e3e d039 3cbe
000002d0: b613 443e a925 623e 5ce4 05be 7c74 bbbc
000002e0: 5d11 da3d c54d e1bd 20a2 1ebd 8ac7 c3bd
000002f0: 06cc 9e3d 08ae 6ebf 1e84 fe3e d78f c33d
00000300: 1f6e 903e 0494 9cbf a222 0fbf 90e9 3cbf
00000310: b1e5 f03d 6d25 133f b56f ccbe 49b8 283f
00000320: 7e87 5cbf dc7a 72be ac17 113f d323 bfbd
00000330: b5ea f1be 3440 183d e457 0abe edff 8abe
00000340: 8bfd d9be c66f c23d 092c 113d 74a5 59bc
00000350: 6b1b 9cbd 2af6 00be b188 a8bd 1293 03bf
00000360: 6735 8e3e 1953 dd3d 0b4c 993e 8f41 80be
00000370: b78a ec3d d1e6 2fbe 9f76 22be c31d 8dbf
00000380: a5e9 8e3e 9c3c eebe 07f1 d8bd 1413 823e
00000390: e2b3 a53d 6045 04bf 4549 1dbc a059 7cbe
000003a0: f537 aabd b062 9b3c 2e47 a73e 1514 c03c
000003b0: 36e8 e0be fb9c 85be d920 6e3d c682 123f
000003c0: 6554 96be 115c b23f 4503 253f 5c77 733f
000003d0: 9501 e2be 27a1 e4be 625a f13e 8cf7 86bf
000003e0: 8d50 703f 250e 4b3e 32e9 13bf 8d14 c5bc
000003f0: 21c6 093f 86cb cc3c b98c 8a3d 0846 ca3e
0.31339693 -1.4310386 -0.65790886 -0.9281986 0.3187583 0.54962134 -0.47583666 0.95012087
-0.9803351 -0.23475356 0.6229757 -0.036689743 -0.552236 0.05181978 -0.048740447 -0.36800706
-0.5214137 0.23844945 -0.05379029 -0.030932186 -0.18490164 0.0081135025 0.16545677 -0.59507215
0.12738052 0.16682464 0.33051848 -0.28369397 0.099760704 -0.14864497 -0.08242859 -1.149679
0.34436712 -0.52412194 -0.19849186 0.36970899 0.0031711834 -0.68244946 -0.059837095 -0.26586038
0.07710756 0.07450873 0.38536632 0.0697498 -0.5295507 0.14925793 -0.16237663 0.60099083
0.2341086 -0.8785669 -0.3931998 -0.4146902 -0.24253681 0.63748556 -0.26714194 0.15314002
-0.6579222 -0.24861327 0.48024517 -0.07205917 -0.34175822 0.061281487 0.13819708 -0.104455985
-0.263606 -0.17058837 0.19207886 0.041588493 0.11376681 -0.086752295 0.02791761 -0.38634765
0.5561687 0.0015301101 0.25186825 -0.19525366 0.14264421 -0.21870013 -0.2590156 -1.0656829
0.16564643 -0.37151265 0.056599658 0.049689244 0.22514056 -0.23053879 0.07531028 -0.21578008
-0.035331853 -0.073879205 0.23007634 -0.06116843 -0.2881394 -0.9973026 0.4606108 0.5398933
-0.19755758 0.975242 0.4549935 0.69427496 -0.3869109 -0.25796598 0.33535555 -0.8171256
0.6483499 0.11862265 -0.38739285 -0.013189247 0.37562862 -0.05035305 0.09361634 0.29876605
0.37852004 -0.29106936 0.12376552 0.051324017 0.21352851 -0.11586541 -0.14455172 0.39461908
0.097159594 -0.15390824 -0.20703436 0.18630305 -0.03778256 0.052188784 -0.017629234 0.6420866
-0.25302815 0.33828995 0.20421287 -0.32258058 0.085170604 0.54006517 -0.13277249 0.16167764
0.026319746 -0.09188074 -0.26475888 -0.09096663 0.3766269 -0.53161925 0.32995567 -0.34221518
0.008805815 0.11752367 0.06676677 0.2133158 -0.40279645 0.21007806 0.05993812 -0.4532627
0.035707448 -0.07042443 0.030653544 -0.032177 0.0454846 -0.088272735 0.05569601 0.13630053
0.092509754 -0.29449132 0.20137939 0.053701535 0.21244304 0.08383538 -0.078929655 0.031447396
0.39842588 -0.10160061 0.013512868 0.0059401323 0.06237092 -0.09685042 -0.184004 -0.2112192
-0.06858333 0.0024219982 0.17064647 -0.18381429 0.19148144 0.22084679 -0.13075393 -0.022882693
0.10647843 -0.110011615 -0.038728833 -0.095595434 0.07753758 -0.932343 0.49710172 0.0954892
0.28209016 -1.2232671 -0.5591222 -0.7379389 0.1176256 0.5747898 -0.39928976 0.65906197
-0.86144245 -0.2367968 0.56676745 -0.09333005 -0.4724938 0.037170604 -0.1351009 -0.2714838
-0.4257625 0.09493975 0.035442386 -0.013284076 -0.07622417 -0.12593904 -0.08229197 -0.51396286
0.27775118 0.10806865 0.2994083 -0.25050017 0.11549895 -0.17177893 -0.15865563 -1.1024708
0.27912632 -0.46530616 -0.10592847 0.2540518 0.080909505 -0.5166836 -0.009599988 -0.24643564
-0.08311454 0.018967956 0.32671493 0.023447076 -0.43927163 -0.2609633 0.058136795 0.57230794
-0.29361263 1.3934346 0.64458114 0.95104 -0.44141832 -0.446542 0.4713927 -1.0544295
0.9387291 0.19829614 -0.577777 -0.024057651 0.53817946 0.024999391 0.06765122 0.39506555

fc_smart.bias f4 [64]
00000000: e40d 0e3e 2893 893c 3cea 95bc ee70 33bc
00000010: 7736 eb3c 5b1f 9d3b 5514 a8bd 5d5c 3d3d
00000020: 9c4c 003d 02a6 f43d 6d65 55bd fe8d ad3b
00000030: 0f5d 98bd 8b9c 6f3d 7f1d 52bb 4408 a0bd
00000040: 793d 193d 3312 173c 0cea 8d3d 8df0 c53d
00000050: 1852 97bd d4b1 a9bd c661 083d f337 b4bd
00000060: 492d 303c 1e99 c9bb 636b 07bd c4e3 76bd
00000070: 9261 403b 3573 7cbd 8930 883c 66d5 89bd
00000080: 3957 263d e09a bebb e621 8cbc 853b 113c
00000090: 854e 5bbd 6243 7e3c d10b 893d d49d c3bb
000000a0: 0e76 c73c 3413 7b3d 6c9e 9cbd 17b6 723c
000000b0: 6e6e 983d a60f cdbd 26fe 32bd b999 1e3d
000000c0: 6e97 ef3c d9d0 e3bb bb25 2e3d c6c8 233d
000000d0: 4c3b 1a3c 07d7 aa3d ffef 1f3d ecb8 c53d
000000e0: 34cc f43d 113d 253c bebd b7bd 97ff 093e
000000f0: e87a 343d e10c e9bc f9d8 043d cdba 2d3d
0.13872486 0.016793802 -0.018300168 -0.0109522175 0.028712494 0.0047949976 -0.08207003 0.046230663
0.03132306 0.11945726 -0.05209868 0.005296468 -0.074396245 0.0584989 -0.0032061038 -0.078140765
0.03741214 0.009220648 0.069294065 0.09665022 -0.07388705 -0.08285871 0.03329637 -0.08799734
0.010752984 -0.006152286 -0.033061396 -0.060275808 0.0029355031 -0.061633307 0.016624706 -0.06730156
0.040610526 -0.0058168024 -0.017106008 0.008864288 -0.05354168 0.015518995 0.06691707 -0.0059697423
0.024348285 0.06129761 -0.07647404 0.014813921 0.07442938 -0.1001275 -0.043699406 0.03872082
0.029247012 -0.006952387 0.04251645 0.039986394 0.009413552 0.083417945 0.039047237 0.09654412
0.11953011 0.01008536 -0.08971737 0.13476406 0.044062525 -0.028448524 0.032433484 0.042414475

network_aging.lstm.weight_ih_l0 f4 [128, 5]
00000000: 4bfc 4dbc 2c93 72bd 9b73 073e a9fa ebbd
00000010: 11c6 a0bd 7ad7 463e f5c7 393d 3d4d 1d3e
00000020: 683d 14bd e991 223e 90dc 553e 2ba6 b33b
00000030: 25be 9e3c 209f b43d ba43 2d3c 7b31 0c3d
00000040: dd0d 3d3d 91cf 473e 1a52 a7bd 00d6 0b3e
00000050: c870 cebd 0220 643e 626b 163d 6935 3b3d
00000060: c7dc 613d b1a6 3b3e 5f51 a43d c1ac 443e
00000070: 4fea 9abd 19b4 28be 1250 273c b1f5 12bd
00000080: 9f5a e1bd 089c 0ebe 4a15 aebd eff0 8f3d
00000090: cd27 743e ded1 60bd 4459 98bd 1cf9 c0bd
000000a0: 50bd cebd 4bf8 bdba 2d0c 043e d11d 793c
000000b0: 5362 123e 08cc 89bd 04bd b33d 5c3e 7fbd
000000c0: 57d1 05bd 67f2 353c 10cf 143e f5ab d7bd
000000d0: 3135 8f3d ede2 283e 6ed9 693d 1f40 683d
000000e0: 1b94 35bd 5164 223d 2b26 d4bd ad9a b2bc
000000f0: 9df6 f03c b960 033e c8c1 4a3e d4c7 363c
00000100: a4da d3bd f3d9 9c3d 8066 363e 7c1e fc3d
00000110: d581 493e 3516 61bd a4a0 87bb 114e 4bbc
00000120: 5664 b23c d562 d1bd e10a eabd 61d1 073e
00000130: 9831 a63d 4ff5 063e 5cff 383e 03af c5bd
00000140: 34ff 453e cee0 573d 90cd 4b3e ce4b 4e3e
00000150: 465a 0c3d 3bcc e3bd 2783 0dbe 3e5c e93d
00000160: bacd 233d fc8d 7eba a26d c53d b0e9 f7bd
00000170: 4013 423e c0f1 8c3c d071 9e3c 0da2 f9bd
00000180: 79c1 273e 7b9d ccbd 4df8 00bd 0e9c e7bd
00000190: ef16 b93d 14fe 033e 38e0 d73d 58aa d03d
000001a0: 23aa 323e 8d61 303c a443 a53d 353c e9bd
000001b0: 9dca 373e f9ed 183e 4c57 a23d 3f81 81bc
000001c0: fb95 273e 7692 83bd 717d 21be d059 0abe
000001d0: 4843 683c 38fb b4bd 4e7e d13d 3354 debd
000001e0: 8b96 8a3d 85f8 a73d 9a53 a7bd 8ee6 743c
000001f0: ea46 9d3c 5a47 69bd 70dd e3bc 594d fc3b
00000200: 557e 3e3e 39c7 2b3e a458 f9bc 7de1 95bd
00000210: b403 cd3d 87b6 9b3d 2475 5d3b d06b 0ebe
00000220: 2224 b5bd e2b1 1e3d 8de9 ecbd 1102 06be
00000230: 3d78 8f3d cfd6 1c3e 5025 f23d beda 3c3e
00000240: e4c0 233c 8b67 05be 3f72 c8bd 2ad5 9fbd
00000250: d9dd 433e 6cab 2e3e 437d 2d3e f27d 483d
00000260: 0980 05bd 981e f83d 8efb 41bd bee3 e33d
00000270: a2de cebd d20c 05bd d73b 3d3e acba e33c
00000280: fac6 713e c166 833e becb 37bd 8018 7abd
00000290: e8b6 e03c b36b 423d 4d48 95bd 51b9 103e
000002a0: ac0f 0f3e bae1 24be 57ff c03d 561c 80bc
000002b0: 844e 073e 05ef 0d3e 9206 443e 65fe 673e
000002c0: cbe5 f3bd f7ee cabd 3567 493c bfa9 08be
000002d0: d9c9 fa3d fc42 e43d 84b6 623e 9650 5e3d
000002e0: 4de7 203e 5718 ba3d a109 983b 1a42 f0bd
000002f0: 6574 1f3d ab79 1c3e cc4c 333e a038 98bd
00000300: 5091 643d 3a16 b53c f476 1f3e c4f4 073e
00000310: 87eb b73d a965 193e 0821 d0bd f9bb c2bc
00000320: edd4 143e 1f93 613c 6bd6 a5bd 730e 173e
00000330: 23ab d13c 29fc f43d 9b53 75bd 58db ecbc
00000340: a36f 063e b94f 0d3e 162e 483e 5a8a babd
00000350: 8858 1d3e 1d7d eebd 18f9 f0bd de72 aabd
00000360: b89b e7bd 664b 9e3d 4bff c23d e50b 1a3e
00000370: 6f6f 943d 6d8e 20bd 1bb0 073d ad81 1d3e
00000380: 7c9a 6abd 2448 063e 4be0 763e fd1a 6fbd
00000390: fa40 543d 07e6 743d 814b 75bd a286 1b3e
000003a0: b369 6fbd 2e0a 313e d9c4 913c a76c 05be
000003b0: bf74 05be 79ac e13d 4f87 b2bd 4ab8 153e
000003c0: 80da a43d 6f4d 9bbd a71e 1e3d 0bf2 c63d
000003d0: bcf0 18bd 22d5 f73d 0a38 e93c ff9c 833d
000003e0: 53d9 3e3e e23e 1d3e 2696 fd3c 9815 443e
000003f0: 6332 5abc e08f 203e 3a2a cd3c 1073 173d
-0.012572358 -0.059222385 0.13227694 -0.11522419 -0.07850278 0.19418135 0.04535671 0.15361495
-0.036191374 0.15875973 0.20884919 0.0054824552 0.019377777 0.08819413 0.010575229 0.034226876
0.0461558 0.19512774 -0.081699565 0.13655853 -0.10080105 0.22277835 0.036723502 0.045705233
0.05514219 0.18325306 0.08023333 0.19206525 -0.07564222 -0.16474952 0.010211961 -0.03587884
-0.11003613 -0.13926709 -0.08500154 0.07028376 0.23843308 -0.054887645 -0.07438901 -0.09422514
-0.10094702 -0.0014493553 0.1289527 0.015204863 0.1429532 -0.06728369 0.08776286 -0.06231533
-0.032670345 0.0111051565 0.14532113 -0.10530845 0.06992567 0.16492815 0.057092123 0.056701776
-0.044330698 0.03964645 -0.103588425 -0.02180227 0.02941447 0.12829866 0.19800484 0.011156041
-0.10344437 0.07658758 0.17812538 0.12310502 0.19678433 -0.05495282 -0.004139023 -0.012408749
0.02177636 -0.10223929 -0.11427856 0.13263465 0.08114928 0.13179515 0.18066162 -0.096525215
0.19335634 0.052704625 0.19902635 0.20146105 0.03426578 -0.11122938 -0.13819562 0.11394547
0.039991118 -0.00097104884 0.096400514 -0.12105119 0.18952656 0.01720512 0.01934138 -0.12189112
0.16382398 -0.099909745 -0.031486798 -0.11309062 0.09037577 0.12889892 0.10540813 0.101887405
0.17447715 0.010765445 0.08069542 -0.11388437 0.17948385 0.1493453 0.07926807 -0.0158087
0.16365807 -0.064244196 -0.15770508 -0.13510823 0.014176197 -0.08836979 0.10229169 -0.108559035
0.06766995 0.08201698 -0.081702426 0.014947547 0.019198854 -0.05695281 -0.02781555 0.0076996502
0.1860288 0.16775216 -0.030437775 -0.07318399 0.10010472 0.07603174 0.0033791745 -0.13908315
-0.088447824 0.03874386 -0.11567984 -0.13086726 0.070053555 0.15316318 0.11823523 0.18442819
0.009994719 -0.1302778 -0.09787416 -0.0780433 0.19127597 0.1705758 0.16942315 0.048948236
-0.032592807 0.1211521 -0.047359042 0.11127423 -0.101010576 -0.03248293 0.18479858 0.027798973
0.2361106 0.25664333 -0.044872038 -0.06105852 0.027430966 0.04746599 -0.07289181 0.14133193
0.13970822 -0.16101733 0.09423702 -0.015638512 0.13213545 0.1386071 0.19143131 0.22655638
-0.11909064 -0.0990886 0.012292673 -0.13346003 0.12245531 0.11145589 0.22139937 0.05427607
0.15713234 0.09086674 0.0046398197 -0.11731358 0.03892936 0.15280788 0.17509764 -0.07432675
0.055802643 0.022105325 0.15572721 0.13276964 0.0898047 0.14980187 -0.1016255 -0.023771273
0.1453435 0.013767987 -0.080975376 0.14751606 0.0255943 0.11962158 -0.059894186 -0.028913185
0.13128524 0.13799943 0.1954883 -0.0910842 0.15365803 -0.11644957 -0.11766261 -0.083226904
-0.11308998 0.07729225 0.095213495 0.150436 0.07247817 -0.039198328 0.03312693 0.15381499
-0.057276234 0.13113457 0.24108998 -0.058375347 0.05181978 0.059789684 -0.05988646 0.15188077
-0.058450412 0.1728904 0.01779406 -0.13029729 -0.13032816 0.11019225 -0.08717214 0.14621082
0.08049488 -0.07583129 0.03860345 0.09714135 -0.037338957 0.12101199 0.028469104 0.06426429
0.1863759 0.15356019 0.030955385 0.19148862 -0.013317677 0.15679884 0.02504455 0.036974967

network_aging.lstm.weight_hh_l0 f4 [128, 32]
00000000: 34fe ee3d a8c0 26be 776c c73d f5e5 59be
00000010: b5ba d43d 1fc5 a93d 588c 40be 5919 3e3e
00000020: 9cba 7dbe 04d4 9ebd beb4 36bd 2f5e 5b3d
00000030: a45a b53d 4147 86bd 127a 95bc 54a0 323c
00000040: c025 923d 5c0b 443e 42d5 98bd 204a 2fbe
00000050: a8fe 033c cbb9 cf3d feb2 063d 30eb 7a3d
00000060: b33c 853d f37e 5abe c9c3 0b3e 52b6 97bc
00000070: 8289 0e39 d260 de3d 92ec 41be cbdc 69be
00000080: 3935 223e 9da1 40be 270b dfbd 21f0 c43c
00000090: 7317 81bd 5a69 563c 0ae4 ecbd 957e 193e
000000a0: fe30 f73c b273 0c3e e641 2b3e 6428 aa3c
000000b0: 8a98 8d3d af56 06bb 6708 6e3d 348c d23d
000000c0: 4724 a13d 8496 003e 9756 a83d 0098 30be
000000d0: 08c6 9fbc 8435 97bc fe84 043d e26d b5bd
000000e0: ba97 25be 4c1f e73c f018 0a3e 5d06 09bd
000000f0: 34ac 42bc 51a1 e4bd 3550 483d fc63 afbd
00000100: 77fd ba3d 0b3e 0abe 6ba9 50be acfa 6bbe
00000110: c3fc b1bd 5ebd 063c 4168 22bd 089e 963a
00000120: 45c4 c2bd 9fd2 0f3e bdad b53c bfc9 2a3d
00000130: d3d5 80bd f3d4 b1bd 9140 55be 2b9e 6e3e
00000140: 5fbb 453e 8cee 3fbd 26f4 2a3e 5310 d7bd
00000150: cfbc 8c3d 98cb 70bd 86a1 a83d 87c9 e63d
00000160: 6531 87bd a760 ad39 baf0 afbd f2b3 d83d
00000170: eaa6 a53d 73af 94bd 0056 6cbe 5753 c0bd
00000180: be23 0a3e b3ff b53d d9f1 babb bd1f 613d
00000190: b471 6abc ffa6 d43c 43df d5bd b330 c7bd
000001a0: 103f 0fbc f18e 003e 4017 383e f5b7 853d
000001b0: 864a f93d 1c19 383d 0a20 e4bd 7c84 533e
000001c0: bc65 d8bd 1188 4bbb a25e f93d 331c 5dbe
000001d0: 1bb7 5dbd 3eec 523e 8650 fc3b fb7c c9bd
000001e0: bcab f8bd 2589 5cbe c588 95bd 3a7e 46bc
000001f0: 98e4 5bbb 9edc 6e3e 88f2 31bd 94f5 8fbc
00000200: 30e9 013e 0b8f 23be 49d6 d83d 1de6 15be
00000210: 8e80 ed3d e3f8 d33b 9f3e 28be a442 a9bd
00000220: 6f5a 66be 5e5e e83d 1f59 8f3e 14e5 48be
00000230: 70cc d0bd 5dd8 763e f43e 153c 72ca fa3b
00000240: b2c8 ed3c 864e c13d 261e c2bd dc1d 173e
00000250: 45dd 653e 0ca4 083e 3f8b 6f3d abdd 653d
00000260: 7e4c bc3d 872a bdbd 1012 ff3d d157 243d
00000270: 452d 833c a96c 2d3e 3f62 c4bd b6ac edbc
00000280: 5775 55bd 95e3 89bd 118f e73d 534d 45be
00000290: 5fb0 fbbd 6a41 57be d567 5fbe 96d8 aebb
000002a0: 0de7 f4bd 20bd 39bd 24db 8bbd 16f5 e03c
000002b0: ce70 a7bc da31 4e3d 7e53 15be 3896 20bd
000002c0: 3882 6f3e 4e6a b03d 3aec 19bd b164 d8ba
000002d0: 8493 ef3d bcb0 43bd e4fe 7d3d d644 cd3d
000002e0: 8efb 63bd b2f0 08be b068 afbb 40ff 21be
000002f0: ca81 f9bd 4b89 613e e8f6 1ebe 6306 5ebe
00000300: 185d b53d a418 58be 99eb 673d 800c a2bd
00000310: 5ef6 ecbd c9eb c93d 7091 ce3b 2787 323d
00000320: e597 c73d 3966 1e3c 2754 e6bc 0dec 94bb
00000330: fb3d bc3c 0241 dfbd 031b 0f3d 420b 44bd
00000340: 1a8a e73d 8159 53bd 9ae2 dd3d 460d cf3c
00000350: e115 673e 9eec 753e 9f32 773d df78 7fbd
00000360: 0385 5fbe 40ac b6bd 9ce6 b1bd 06f0 35be
00000370: 9cc7 d1bd 078f d3bd 8f41 b9bd 7ed4 bb3d
00000380: 4427 143e da29 403d 09d8 a5bc fc3f 31be
00000390: 1255 c0bc 77a6 6f3d b346 f2bd 4b5f acbd
000003a0: 530a 8b3d c8ee d53d 14ce 91bd 0305 a7bc
000003b0: 0e23 403d f2e8 d0bd f9f5 3e3d 14f2 51bd
000003c0: fda0 593e 4541 2fbd cf42 523e 5e15 2a3d
000003d0: 1840 cabc de85 a8bd 2a65 9fbd 1596 1dbe
000003e0: e34d a1bc 6207 63be bffb 70bd bd32 4ebe
000003f0: c63a 1fbd 8308 393e ff28 0fbe c76a 20be
0.11669579 -0.1628443 0.09737485 -0.21279128 0.10387174 0.08289551 -0.18803537 0.18564357
-0.24778217 -0.077552825 -0.044605963 0.053556617 0.08855179 -0.06556559 -0.018246684 0.010902483
0.071361065 0.19144958 -0.07462551 -0.1711812 0.00805632 0.10142859 0.032885544 0.06125945
0.06505718 -0.2133749 0.13648905 -0.018519554 0.00013593401 0.10858311 -0.189379 -0.22838132
0.15840615 -0.1881165 -0.10890799 0.024040284 -0.06303301 0.013086641 -0.115669325 0.14989693
0.030174728 0.1371601 0.16724357 0.020771213 0.0691386 -0.0020498445 0.05811348 0.10280648
0.078682475 0.12557417 0.08219641 -0.17245483 -0.019503608 -0.018458135 0.032353394 -0.08858849
-0.1617116 0.028213166 0.13486075 -0.033453334 -0.011881877 -0.11163581 0.048904616 -0.085639924
0.09130376 -0.1350023 -0.20377128 -0.23044842 -0.086907886 0.00822386 -0.039650206 0.0011491189
-0.09510092 0.1404519 0.022177571 0.041696306 -0.06290784 -0.08683195 -0.20825411 0.23302524
0.19309758 -0.046858355 0.16694698 -0.105011605 0.0687195 -0.058787912 0.08233933 0.11268907
-0.06601218 0.00033069143 -0.08590837 0.10581197 0.08088477 -0.07260027 -0.23079681 -0.09390896
0.13490197 0.088866614 -0.0057051 0.05496191 -0.0143093355 0.025958536 -0.104429744 -0.097260855
-0.008743063 0.12554528 0.17977619 0.06529228 0.12172417 0.04494582 -0.111389235 0.20656008
-0.10566279 -0.0031056444 0.12176253 -0.21592788 -0.0541297 0.20597932 0.007700029 -0.09838291
-0.12142131 -0.21536691 -0.07301477 -0.012115056 -0.0033553 0.23326346 -0.043444186 -0.017573155
0.1268661 -0.15972535 0.10587747 -0.14638563 0.115967855 0.0064688786 -0.16430138 -0.08264664
-0.22495435 0.11346124 0.27997681 -0.19618636 -0.10195243 0.24105974 0.0091092475 0.007653528
0.029026363 0.09438805 -0.094784066 0.14757484 0.22447689 0.13343829 0.058482405 0.056119602
0.09194277 -0.09236627 0.12454617 0.04012281 0.016012797 0.16935982 -0.095890515 -0.029013019
-0.052113857 -0.06732861 0.113065846 -0.19267778 -0.122894995 -0.21021047 -0.21816953 -0.0053358776
-0.11958132 -0.04534638 -0.06828907 0.027460616 -0.020439532 0.05034051 -0.14582631 -0.03920576
0.23389518 0.08614026 -0.0375788 -0.00165095 0.11698058 -0.04777597 0.06201066 0.10022895
-0.055659823 -0.13373068 -0.005353056 -0.15820026 -0.121829584 0.2202503 -0.15523875 -0.21682124
0.08855647 -0.2110315 0.056621168 -0.079125404 -0.11570428 0.098594256 0.0063039586 0.043585923
0.097457685 0.0096679265 -0.028116299 -0.004544741 0.022978773 -0.10901071 0.03493787 -0.0478623
0.11305638 -0.05159903 0.108342364 0.025274884 0.2256694 0.24016044 0.06035101 -0.06237113
-0.21828084 -0.08919573 -0.086865634 -0.17767343 -0.102431506 -0.10330015 -0.090457074 0.09171389
0.14468104 0.046914913 -0.020244615 -0.17309564 -0.023478065 0.058508363 -0.11829891 -0.08416613
0.067890786 0.104459345 -0.071193844 -0.020388132 0.04690843 -0.10200681 0.046621297 -0.051256254
0.21252818 -0.042786855 0.20533298 0.041524284 -0.024688765 -0.08228658 -0.077829674 -0.15389283
-0.01969046 -0.22170785 -0.058833834 -0.20136543 -0.03887441 0.18069653 -0.13980483 -0.15665732

network_aging.lstm.bias_ih_l0 f4 [128]
00000000: 075d b8bd 0cbc 083d fa75 e93d 041a 273e
00000010: bf92 4e3e c815 4d3e f957 5d3e 8f63 0d3e
00000020: c420 a2bc b717 703e ec5d 883c b9ca 143e
00000030: 88a1 193e 89a4 073e 8295 353e 7b71 4b3e
00000040: 92cd ef3b ce94 93bd b867 643e 83a8 ba3d
00000050: dece 4abd 8038 55bd 033b ca3d 2902 90bd
00000060: 7109 1a3e ac87 3f3d c5b0 aebb f31c f4bd
00000070: 67a8 6bbd 73fa 653e 30ca dfbc 1ec7 be3d
00000080: b559 65bc b936 553e 2fec 9d3d 27e7 013c
00000090: 1155 2bbd ed56 f63a 35d4 81bd e2eb 70bd
000000a0: a9aa b9bd 2436 69bc f729 133e 1c47 94bd
000000b0: 356d e9bd 6e9a 153e 8e81 34bd 9192 533e
000000c0: 628c c63d b327 b83d 45cc c13d b70c 113c
000000d0: 8a13 fbbd db95 cdbd 5ea6 a03d b326 d4bd
000000e0: 312d 3b3e c02f 9bbd 2bc9 183e 5fe4 183d
000000f0: fce7 a73d 3bc0 653d 5fcc ba3d 8af8 f3ba
00000100: 24ec 7a3d 075e f4bd 364b b6bd 1053 02bd
00000110: 221f 6e3e 98e0 24be 73f8 25be 52f3 d33d
00000120: 9713 11bd 14f5 703d 3c56 99bd f398 0ebe
00000130: b837 eb3b 9761 aabc c9a1 eabd ecb8 373e
00000140: 45fc 8ebc b922 c03d 5445 56bd 5527 2ebe
00000150: 5e57 0c3e 7013 2bbd 16c9 7cbd ea32 07be
00000160: 1b08 03bd ca81 4dbe e137 193e cf5b 1bbe
00000170: b383 41bd bbc0 3f3e 0581 0dbe a932 0dbe
00000180: 355e 5dbd c72b 8f3e cfd9 a93e 49a9 5b3d
00000190: 26b7 623e dbe7 163d ecb0 6a3d 835c 7c3e
000001a0: 7b2d 503e 2382 863d 4232 9b3c fc74 a4bd
000001b0: 08a8 7ebd f950 1a3e 108b 643e 5468 9a3d
000001c0: bf81 d93d 2f92 fe3d e7fc ccbc 89d3 793e
000001d0: 0a45 d5bc 17fa cd3c e9a9 953d 3b96 12bd
000001e0: 0d12 8c3e 1bf9 683d a00e 713e cc20 e03d
000001f0: b6e4 2b3e 990f 163d a00b 203e a271 01bd
-0.090021186 0.03338246 0.11399455 0.16318518 0.20173167 0.2002784 0.2161559 0.1380751
-0.019791014 0.23446546 0.016646348 0.14530458 0.15003026 0.13246359 0.17732814 0.19867508
0.007318207 -0.072061166 0.2230519 0.09114172 -0.04951369 -0.052055836 0.09874537 -0.07031662
0.15042664 0.046760246 -0.005331131 -0.11919584 -0.057533648 0.2245882 -0.02731809 0.09315322
-0.013998439 0.20821656 0.07711064 0.007928646 -0.041829173 0.0018794216 -0.063393034 -0.058818705
-0.09065754 -0.0142341 0.14371477 -0.072401255 -0.11397783 0.14609692 -0.044068865 0.2066138
0.09694745 0.08991947 0.094627894 0.008853129 -0.12259586 -0.10038348 0.07844232 -0.10358944
0.18278958 -0.07577467 0.1492049 0.037327167 0.081985444 0.05609153 0.09121012 -0.0018613499
0.061260357 -0.11931997 -0.08901064 -0.031817496 0.23254064 -0.161013 -0.16208057 0.10349144
-0.035419073 0.058827475 -0.07487151 -0.13925533 0.007178273 -0.020798488 -0.11456639 0.17941636
-0.017454276 0.09381623 -0.05231221 -0.17007191 0.13705203 -0.041766584 -0.061715208 -0.13203016
-0.03199015 -0.20069042 0.14962722 -0.15171741 -0.04724474 0.18725865 -0.13818748 -0.13788857
-0.05404492 0.27963087 0.33173987 0.05362824 0.22140178 0.03684221 0.057297632 0.24644665
0.2032985 0.0656779 0.018944863 -0.080301255 -0.062171966 0.15069951 0.22318673 0.0753943
0.1062045 0.12430226 -0.025022937 0.243971 -0.026033897 0.025143666 0.073077984 -0.035787802
0.27357522 0.05687819 0.23540735 0.109437555 0.16786465 0.03663597 0.15629435 -0.03160251
