trained_model/mc1_mc2/15_days_lookahead/pnet_checkpoint/pnet_800.pth (torch, 545278 bytes, 36 tensors)

network_smart.layer1.0.weight f4 [128, 330]
000000 2d 24 3e 3d e5 db 96 be 0f 56 1e bd be b5 1f be
       0.04642122 -0.2946464 -0.03865629 -0.15596673
000010 b3 df ed c0 6c 32 9e be 48 b4 64 bd d8 9c 96 3e
       -7.433557 -0.30897844 -0.055835992 0.29416537
000020 b8 37 ba 3e f1 82 ed c0 55 88 c7 c0 e2 a5 13 bd
       0.36370635 -7.422234 -6.235392 -0.03604687
000030 9e 29 8a be 4c 4e 87 3c e3 2f 0b be 9a 55 ee c0
       -0.26984876 0.016516827 -0.13592486 -7.4479494
000040 be 94 82 be 4a 6b 2e bd cf a9 76 3e 8d ca 2c bf
       -0.25504106 -0.042582788 0.24088214 -0.6749657
000050 7d 56 ef c0 ff 7f ca c0 b5 4c a4 bb 1c da 6f be
       -7.4793077 -6.3281245 -0.005014027 -0.23423046
000060 bf 8e 70 3c b8 03 f2 bd 36 20 f1 c0 e9 64 a9 be
       0.014682471 -0.118171155 -7.535182 -0.330848
000070 0c f4 70 bc 74 39 7e 3e ea 24 32 3f f7 4c f0 c0
       -0.014706623 0.24826604 0.69587576 -7.509395
000080 cc b2 cb c0 a9 d4 b8 3c f4 da 16 be cf 23 e1 3c
       -6.365576 0.022562342 -0.14731961 0.027482895
000090 59 7b ac bd 25 7b f1 c0 38 27 8c be 69 e1 ce bc
       -0.08421964 -7.5462823 -0.27373672 -0.025253968
0000a0 eb 63 96 3e ca 01 63 3f 87 ec f0 c0 43 89 cd c0
       0.29373106 0.88674605 -7.528873 -6.4230056
0000b0 28 f4 e9 bc c7 5e 27 be eb a0 37 3d cf df 2d be
       -0.028558806 -0.16344748 0.044831198 -0.16979907
0000c0 12 69 f3 c0 76 d4 82 be a3 2a e6 3c 47 f4 80 3e
       -7.606576 -0.2555272 0.028096503 0.2518637
0000d0 34 e5 25 3f ff f5 f1 c0 b5 fc cc c0 78 84 1c 3d
       0.6480286 -7.561279 -6.405848 0.03821227
0000e0 15 85 63 be 53 f8 04 3d f3 80 0f be 2f 7d f3 c0
       -0.22218736 0.032463383 -0.14014034 -7.609031
0000f0 20 9f 84 be 9a 21 9b 3c b5 78 8e 3e fc 4d 04 3e
       -0.25902653 0.01893692 0.27826467 0.12920374
000100 d0 6c f2 c0 85 aa cd c0 27 3f 99 bc 8d 5c 37 be
       -7.575783 -6.4270654 -0.018706871 -0.17906399
000110 d1 a7 6c bd df f1 f8 bd 30 fc f3 c0 d3 82 90 be
       -0.05777723 -0.12155508 -7.6245346 -0.2822481
000120 50 fb 20 bd 41 a8 91 3e 90 28 74 ba 5a bf f2 c0
       -0.03930217 0.2844868 -0.00093139056 -7.5858583
000130 34 a6 cf c0 ec a6 03 bd 7d 72 1d be 86 ea 04 bd
       -6.4890385 -0.03214161 -0.15375705 -0.03245022
000140 ae 35 bd bd 1e 5a f3 c0 a2 f3 97 be 19 4c dd bb
       -0.09238754 -7.6047506 -0.29678065 -0.0067534563
000150 9f c8 72 3e 26 5e a0 be c1 2a f6 c0 f1 91 d1 c0
       0.23709343 -0.3132183 -7.692719 -6.549065
000160 01 1f b1 bc 24 9f 00 be b7 00 44 3d cb 42 82 bd
       -0.02162123 -0.12560707 0.047852244 -0.06360396
000170 17 a4 f6 c0 08 6a bd be c1 38 d1 bc 86 cb 86 3e
       -7.7075305 -0.36994958 -0.025539758 0.2632715
000180 50 d7 1c be 20 47 f4 c0 9e f9 d4 c0 d5 73 dd bc
       -0.1531651 -7.6336823 -6.655471 -0.027032772
000190 42 f5 19 be 18 61 85 3d c1 4c 79 3d ca 23 f8 c0
       -0.15034965 0.0651266 0.060864214 -7.754369
0001a0 79 22 9d be c3 cd a9 3b 3e ee 42 3e 4a d6 dd 3e
       -0.30690363 0.0051819994 0.19036195 0.43327552
0001b0 02 99 f5 c0 ef 09 d5 c0 f0 f0 78 3d 7f 47 4f bd
       -7.6749277 -6.6574626 0.06077665 -0.050605293
0001c0 20 16 ae 3d 51 4f 27 3d ae 01 f8 c0 fb 37 a5 be
       0.08500314 0.040847126 -7.750205 -0.32269272
0001d0 26 54 7d 3c 9b 80 8d 3e 19 a2 9e 3d 45 77 f8 c0
       0.015461957 0.2763718 0.077457614 -7.7645593
0001e0 bb 41 d6 c0 c2 2f 07 bd d2 66 90 bd 63 bb 15 3e
       -6.6955237 -0.03300453 -0.070508614 0.14622264
0001f0 58 4b d9 3a 73 d0 f9 c0 c1 92 bc be 9c 97 b7 3c
       0.001657824 -7.8066955 -0.36830714 0.02241116
000200 ee b1 5d 3e 99 dd cb 3d 63 3d f8 c0 84 9a d8 c0
       0.21649906 0.09954376 -7.7574935 -6.768862
000210 95 87 34 bd db fe 29 ba 4b 42 0b 3d a1 e2 1b bc
       -0.044074614 -0.0006484815 0.03399877 -0.009514482
000220 81 8d f9 c0 8c 07 be be 9c d4 d1 3b 3e 03 45 3e
       -7.7985234 -0.37115133 0.006403519 0.19239518
000230 ce 37 ca be 72 c4 fa c0 44 08 da c0 38 1d fd 3c
       -0.394957 -7.83648 -6.813509 0.030897722
000240 f3 98 b5 bc b3 98 ce 3d 98 7d 05 3d ad a2 fb c0
       -0.022167658 0.10087719 0.03259048 -7.863608
000250 b7 96 c9 be 0f ee 41 3d 7c bd 53 3e a9 d1 6d 3d
       -0.393728 0.04734617 0.20677751 0.058061276
000260 75 fe fb c0 ce 77 db c0 93 96 1e bd fd 46 80 bd
       -7.8748116 -6.8583746 -0.038717818 -0.0626354
000270 45 f6 1f 3e 3d cb 10 bc 2e 09 fa c0 16 3f b3 be
       0.15621288 -0.008837518 -7.8136206 -0.35009068
000280 74 76 24 3d 9d a4 26 3e 13 fa e6 bd db e0 f9 c0
       0.04015203 0.16273732 -0.112781666 -7.808698
000290 49 04 dc c0 9c 1a f5 bb ff 97 3f bc 1a 88 0b 3e
       -6.875523 -0.0074799787 -0.011693954 0.13626137
0002a0 25 7c de 3d 5b 4a fd c0 c8 31 a5 be 92 8b 5d ba
       0.108635224 -7.9153266 -0.32264543 -0.00084512786
0002b0 c7 97 39 3e 18 2c 07 3f 15 16 fc c0 1d f5 db c0
       0.18124305 0.52801657 -7.8776956 -6.873671
0002c0 59 69 6b 3c 37 9b 1d 3d 0f 9d d7 3d fd f0 d0 3c
       0.014368379 0.038478103 0.105280034 0.025505537
0002d0 32 ee fd c0 48 d5 b9 be 9e bb 47 3c 83 6a fe 3d
       -7.9353266 -0.36295533 0.0121907275 0.12422659
0002e0 9b 57 7d bf a7 f2 fb c0 f2 cd dd c0 2e 52 22 bd
       -0.989618 -7.8733706 -6.93139 -0.039629154
0002f0 3a f9 a0 3d 48 80 11 3e f6 12 0d 3e 45 64 fc c0
       0.07860036 0.14209092 0.13776764 -7.88724
000300 75 26 b9 be 06 94 37 bd d2 8d 5f 3e e1 ea 11 bf
       -0.36162153 -0.0448189 0.21831444 -0.5699902
000310 d8 3f fd c0 97 03 df c0 fa 81 30 3d 33 9d 12 3d
       -7.9140434 -6.969188 0.043092705 0.035794448
000320 4d fd a5 3d 7f 5c 7a 3e f6 95 fc c0 2d 2c 9f be
       0.08104954 0.24449347 -7.893306 -0.3108839
000330 c0 61 c0 3c 5e 65 25 3e 1f 44 f5 3e 1f 4a fc c0
       0.02348411 0.1615195 0.47903535 -7.884048
000340 de d3 dc c0 5f 39 a1 3a 56 69 ea 3d d1 06 a5 3d
       -6.9008627 0.0012300423 0.114458725 0.08057941
000350 38 12 04 3e 5d 00 f2 c0 3c 71 be be 1a 11 81 bc
       0.12897575 -7.5625443 -0.37195766 -0.015755225
000360 5e db 3a 3e 04 70 3a 3f dd 54 f3 c0 44 c0 c1 c0
       0.18247744 0.7282717 -7.6041093 -6.05472
000370 54 60 5b 3d e9 04 0d 3e 32 47 17 3e fe b0 62 3e
       0.053558663 0.13771404 0.14773253 0.2213783
000380 47 c0 fe c0 fb dd 88 be f1 a4 38 bc e3 f4 4c 3e
       -7.9609714 -0.26731858 -0.011269794 0.20015292
000390 ff b1 db 3e 80 1c ff c0 a4 ee e0 c0 75 5b d0 3c
       0.42909238 -7.972229 -7.029131 0.025434235
0003a0 f0 17 f9 3d 68 94 19 3e af 04 2f 3e 92 02 01 c1
       0.12162769 0.14998019 0.1709163 -8.0631275
0003b0 dc 4b b5 be 39 80 0d 3d 9b 63 33 3e 52 68 77 bf
       -0.3540944 0.03454611 0.17518465 -0.96643555
0003c0 bd a5 ff c0 56 68 e0 c0 7d d9 bc 3a 66 76 23 3e
       -7.9889817 -7.0127363 0.0014408078 0.15963134
0003d0 87 bf 1b 3e 0e b7 28 3e 44 b9 01 c1 aa 14 8f be
       0.1520978 0.1647608 -8.107731 -0.27945453
0003e0 35 39 f5 bb 81 95 2a 3e 45 55 a4 bc c5 64 01 c1
       -0.0074836263 0.16658594 -0.02006019 -8.087102
0003f0 79 bf dd c0 b2 ee 00 bd 50 0e 02 3e af 80 ae 3d
       -6.929623 -0.031477638 0.12700772 0.08520638

network_smart.layer1.0.bias f4 [128]
000000 b9 b1 10 be 16 b3 2f bb 54 6e ae bd 3a 3a 52 bd
       -0.14130296 -0.0026809624 -0.08517137 -0.05132506
000010 1b 43 ec bc 86 55 b1 3d d5 43 f9 ba 58 94 79 bd
       -0.028840592 0.086588904 -0.0019017408 -0.060932487
000020 ea fb 68 3d f0 73 a3 bd c8 5c 34 3d d4 2c 7d bc
       0.05688087 -0.07981098 0.044033796 -0.015452582
000030 7d d2 e7 bc 0f 1d 57 bd 52 58 a1 3d d0 44 80 3c
       -0.02829861 -0.052517947 0.07878174 0.015657812
000040 91 e2 aa bc 62 8f 03 bd db 8b 16 3d 07 59 db bc
       -0.020859988 -0.032119162 0.03675447 -0.02677585
000050 c4 69 d2 bd f7 d7 41 3b 83 f8 cf bd eb e9 08 3d
       -0.102740794 0.0029578188 -0.10154822 0.033426207
000060 4f bb 61 3d d4 d5 95 3d b8 62 8e be bf 26 04 bc
       0.055110272 0.07316175 -0.2780969 -0.008065878
000070 cb aa 7d bb 29 41 e6 bc aa 99 11 3e f4 fd 35 bd
       -0.0038706537 -0.028107243 0.14218774 -0.04443164
000080 fd 5a 91 3d 16 2c 06 bd 82 e6 ec bd f7 26 31 3d
       0.07097433 -0.032756887 -0.115674034 0.04325005
000090 32 8c f2 3d e7 5e 88 3c 70 a0 0f bc a1 9f 39 bd
       0.118431464 0.016646815 -0.008766279 -0.04531825
0000a0 6e 56 9f bd 0c 3a 65 bd 37 1f 77 bd 3b e7 0c bd
       -0.07780157 -0.05596356 -0.060332503 -0.034400206
0000b0 4a f0 95 3c 7d c0 1a bd 5d 6d b7 bd c6 3e 6a bd
       0.018303055 -0.037781227 -0.08956406 -0.05718877
0000c0 ba b0 6b be 04 72 b2 3d 6b 9b 29 3c d6 99 28 bc
       -0.23016635 0.08713153 0.010351996 -0.010290584
0000d0 af 66 71 bd e6 66 ab bd 6c 8f 0b bd 71 2f 49 3c
       -0.058935817 -0.08369236 -0.034072325 0.012279377
0000e0 23 a3 ee bc f3 53 4e bd 7a 06 af 3c be 50 2e 3d
       -0.029130524 -0.05037303 0.021365393 0.04255747
0000f0 4f 73 57 bb 69 d7 a5 3d ed 41 df 3c e6 07 31 be
       -0.0032875126 0.08097727 0.027253116 -0.1728817
000100 bd 57 46 bd c0 09 f8 bd e3 9f b9 3d e2 c6 50 3d
       -0.048423517 -0.12111235 0.09063699 0.05097092
000110 75 14 c9 bc af e2 0c 3d 46 e2 bb bd 8c 1e f4 bd
       -0.024545887 0.03439587 -0.091740176 -0.11919889
000120 ae fb 08 3d 18 7f a5 bd aa 34 7d bd 60 60 41 bc
       0.033443145 -0.08080882 -0.061817802 -0.011802763
000130 08 d0 bc 3a 20 0b 17 bd 4d 06 ea bd 7c 9a 9e 3c
       0.001440526 -0.036875844 -0.11426983 0.019360773
000140 f3 62 5f bd 3a e3 f0 ba a9 fb cf 3c c7 a3 6f 3c
       -0.054537725 -0.0018378266 0.025388556 0.01462645
000150 ba 4f 97 3d 54 6c f2 3b 15 76 45 bd 66 2d 01 3e
       0.073882535 0.0073981676 -0.048208315 0.12614974
000160 85 a7 19 be c3 fc 47 b9 7d 8b f7 ba e1 87 26 bc
       -0.1500531 -0.0001907228 -0.0018886175 -0.010164232
000170 80 75 f5 3d f5 0c 3a 3b 27 cd 86 bd 23 5e 13 be
       0.11985302 0.002838907 -0.065820985 -0.14391379
000180 c2 cb d7 bd 74 25 d1 bc b1 7b 76 3d 0d b4 7a 3c
       -0.105369106 -0.025530554 0.060176555 0.0153017165
000190 95 29 49 bc 06 ef 55 3d 24 ee 52 bb af 54 eb 3c
       -0.01227798 0.052229904 -0.00321854 0.028726904
0001a0 4b 6b dc bd 2d 2a f7 3d da 8d d6 bc 68 79 1f bd
       -0.10762652 0.12068591 -0.026190687 -0.03893414
0001b0 85 33 8e bd 71 36 3a bd 98 e7 13 3e 15 58 5a 3c
       -0.0694342 -0.045462076 0.14443815 0.013326664
0001c0 df 2a fc bd 55 6c 85 bd 91 59 f2 bc 50 45 bb bc
       -0.123128645 -0.06514803 -0.029583724 -0.0228602
0001d0 28 15 3b bd 5b bb 88 3c c2 3c 1d 3d da e8 ec bd
       -0.045674473 0.0166909 0.03838802 -0.115678504
0001e0 58 c2 1c 3d f4 68 03 bd 2d 19 d3 bc 4f 70 69 bd
       0.03827128 -0.032082513 -0.02576884 -0.05699187
0001f0 ea 73 a0 bc b1 ea fb 3d be 6c 81 bd 51 25 aa bd
       -0.019586522 0.12300623 -0.06319569 -0.08307899

network_smart.layer2.0.weight f4 [128, 128]
000000 77 2b 01 3c 0b f8 22 bd a9 ac 09 ba 38 e2 63 3d
       0.007883898 -0.039787333 -0.00052518636 0.05563566
000010 82 a0 37 3e 3c 40 8e bd 59 f1 87 3d 24 13 3f be
       0.17932323 -0.069458455 0.0663783 -0.18659645
000020 a7 c3 ee 3d 87 b0 db 3d 5d 6a 75 bd d9 f8 4f be
       0.116584115 0.10727029 -0.05991589 -0.20309772
000030 6f 70 02 bc c2 97 16 3d 1a 37 7a 3d 5f 3f 33 3e
       -0.007961377 0.03676582 0.061087705 0.17504643
000040 fa e4 8e bd 99 4f a0 bd e6 3e 2b bc 38 40 4d 3d
       -0.069772676 -0.07827682 -0.010452008 0.050110072
000050 f7 b3 47 be 42 ba 14 3e b7 ce a0 3e a9 5e 3a bc
       -0.19502245 0.14524177 0.3140771 -0.011375108
000060 3b dd 84 be c3 f1 db 3d a2 50 57 be 66 f1 a5 3c
       -0.25950035 0.10739472 -0.21026853 0.02025671
000070 79 01 3a 3d 8a 7c ab 3c 49 f4 15 bd ce f6 2c 3c
       0.04541156 0.020933408 -0.03660992 0.01055689
000080 c7 7f 42 bd 6a d0 88 3a 41 5b 2f be 1d c0 87 bd
       -0.04748514 0.0010438089 -0.17124654 -0.066284396
000090 db 26 90 3d e6 a2 0a 3e 3c 53 a2 bd 1b 50 24 3e
       0.07038661 0.13538703 -0.07926032 0.16046183
0000a0 90 c0 ed bc 70 a8 83 3c 48 7e 85 3e 60 9b d8 bc
       -0.029022485 0.016071528 0.26072907 -0.026441276
0000b0 7c 2c 1c be 89 0b de 3c 8c d3 68 3d 8c 9b 17 bc
       -0.15251344 0.02710511 0.05684237 -0.009253394
0000c0 49 6a a6 be 8d 0c d7 bc ba 7c 7f ba 81 10 46 ba
       -0.32502964 -0.026251102 -0.0009746064 -0.000755556
0000d0 5e c3 66 be d3 79 05 3c 3b 42 8a bc 15 4c 41 3c
       -0.22535464 0.008146721 -0.016877284 0.0117979245
0000e0 84 13 a6 bb 14 9c 26 3d 74 83 72 3d f6 c2 2b bd
       -0.0050682444 0.04067619 0.059207395 -0.041933976
0000f0 f2 b8 2a bc 14 39 8d bf f5 b2 0d be fd 12 ae be
       -0.010420071 -1.1033044 -0.13837798 -0.33998862
000100 ec c7 8a bb a7 3b 2e bd d7 20 f6 bb 20 1d 28 3c
       -0.0042352583 -0.042537358 -0.007511239 0.01026085
000110 4c 47 7d bb 67 aa 18 3e d2 88 e0 be 3c 98 1e bf
       -0.0038647233 0.14908753 -0.43854386 -0.6195104
000120 d7 37 8a bd 32 c1 fd 3d c9 c5 20 3e 93 e0 5a be
       -0.06748932 0.12390365 0.15700449 -0.21374731
000130 5e b1 c2 bc 1f a5 26 3d 67 0a 58 3c af 79 a9 bc
       -0.023766216 0.040684815 0.013186074 -0.020687906
000140 c0 98 07 be 4c d6 84 b9 f8 e9 c6 3c 9f ef a8 bb
       -0.13241863 -0.00025336666 0.024281487 -0.005155518
000150 09 33 05 3e c0 d9 87 bd 0e 7b 8b 3d ad 8e 70 be
       0.1300775 -0.066333294 0.0681058 -0.23491926
000160 ca 18 67 be d0 b4 09 3d b0 31 e7 bd 96 2f 0f 3d
       -0.2256805 0.0336197 -0.11288774 0.03495749
000170 93 a9 d3 3d 4f 66 b2 bd fa 29 c9 bd ae 5c d3 bd
       0.10335078 -0.0871092 -0.098224595 -0.103204116
000180 f6 ca dd be 8c 12 bc 3d f7 aa 73 be 18 a2 f6 3c
       -0.4331891 0.09183225 -0.23795687 0.03010659
000190 15 a1 38 bd 8f e1 c7 bd 23 09 67 3e 1e 3c b3 3d
       -0.045075495 -0.09759819 0.22562079 0.08751701
0001a0 aa a6 6a be 17 0d b1 bd e4 56 6b bd 0b bd a1 3c
       -0.2291514 -0.08645075 -0.057455912 0.019743463
0001b0 36 c9 4d 3b f3 e6 78 bd 72 98 d4 3d 8c 62 b9 3d
       0.0031400449 -0.060767125 0.10380639 0.090519994
0001c0 7b 43 8e 3d 96 04 03 3e 84 94 02 bd c8 45 43 bd
       0.06946465 0.12794718 -0.031879917 -0.04767397
0001d0 81 8d 8f bd 81 74 55 3a e0 91 ef 3c b5 cf 37 bf
       -0.070094116 0.00081426656 0.029244363 -0.7180131
0001e0 2a 27 0b 3e 7a 07 04 bd 91 cf ac bc cb ed fb bb
       0.13589159 -0.032233693 -0.02109507 -0.0076882592
0001f0 eb f0 4d 3d f4 f6 ad bd 25 4b 9f bd a8 bc 4d bd
       0.050278585 -0.08494368 -0.077780046 -0.050228745
000200 e2 78 db 3c 57 66 71 3d c2 58 49 3d 9b d3 40 bd
       0.02679104 0.05893549 0.04915691 -0.047076803
000210 ba 1d 98 bc 30 86 84 3d 11 19 9a 3d dc fd 31 bd
       -0.018568862 0.06470907 0.07524312 -0.04345499
000220 56 13 7d 3e c9 92 d9 bd e8 2e d7 3d e0 b1 f8 bd
       0.24714407 -0.106237 0.105069935 -0.12143302
000230 c9 8f 96 bd 9e 2b 0b bd c8 e6 b2 be cc 1c 2c be
       -0.073516436 -0.033977143 -0.34941697 -0.1680786
000240 70 6f b8 be 67 66 04 bd 9e 94 6b bd b7 38 9c 3d
       -0.3602252 -0.03232422 -0.05751478 0.07628005
000250 4a d5 01 3d f8 88 b2 bd 67 c3 1b 3d 72 1b a3 3d
       0.03169755 -0.08717531 0.038028147 0.07964219
000260 ea a6 99 3d bf f3 e3 bd 7b 38 8b 3e 05 fb 95 be
       0.075025395 -0.11130475 0.2719153 -0.29293075
000270 ff d4 81 bd 83 44 76 bc e0 75 71 3d b2 20 4b bd
       -0.06339454 -0.015030983 0.058950305 -0.049591728
000280 75 33 d2 b9 d5 eb 84 bc 18 51 c4 be 3c e3 09 bd
       -0.0004009266 -0.016225735 -0.3834312 -0.033663973
000290 55 89 d8 3c fb b6 88 3c 2b 1c 5c bd 77 13 83 bc
       0.026432673 0.016688814 -0.0537378 -0.016000492
0002a0 c8 97 dc 3c c1 6e bb bb a7 af 10 3d 32 30 c7 3a
       0.026927844 -0.00571999 0.035323765 0.0015196858
0002b0 b1 33 57 bc 8b 36 0d bd 54 60 12 be 7b 6c 12 be
       -0.013134883 -0.034475844 -0.14294559 -0.14299195
0002c0 93 64 d8 3d b1 91 c2 3c ed 5d ea bc ea 81 10 bd
       0.10566058 0.023751112 -0.02860924 -0.035280146
0002d0 d6 b9 77 3d d4 80 c2 bd 85 15 57 3c 19 e5 1a bd
       0.06047996 -0.09497228 0.013127689 -0.03781614
0002e0 11 07 0c 3d 82 ae 95 bd af 81 94 3b 33 ca 4e 3c
       0.034186427 -0.07308675 0.004532061 0.01262145
0002f0 06 1f 91 3d 7c 0a a3 bd a8 65 91 3d 93 18 2f 3c
       0.070859954 -0.07960984 0.070994675 0.010687011
000300 da 54 dc 3c 56 a8 aa 3c a1 3e 23 bd 7b e0 eb 3c
       0.02689593 0.020832222 -0.03985465 0.028793564
000310 5c 1c af 3c 30 2a 48 3e ff 25 fc 3d 42 49 e9 3d
       0.021375827 0.19547343 0.12311935 0.11390926
000320 11 1a b0 3d b5 59 ca 3c b6 b2 cb bd fd e6 fa 3d
       0.08598722 0.024700979 -0.09946196 0.12251089
000330 7f f5 59 bd 1b 58 b7 3c 9f 55 be 3d 9f fb 81 3c
       -0.05321264 0.02238088 0.09293675 0.015867053
000340 ba 98 30 3d 13 e4 16 3e a6 d9 29 bd bf 16 4c bc
       0.0431144 0.14735441 -0.04146733 -0.012456595
000350 e4 f1 c9 bc 4c 9f ce 3b f1 fc 61 bd 7a 7b 88 bc
       -0.024651475 0.0063056108 -0.055172864 -0.01666044
000360 6f 2a 98 3d e5 6e 3d 3e 01 a9 93 3e 4c c8 d5 bc
       0.074299686 0.18499334 0.28839877 -0.026096486
000370 6d 19 5f be ee 09 65 bd 0e 07 3a bd 5d 69 d3 bd
       -0.21787043 -0.055917673 -0.045416884 -0.10322831
000380 d3 40 c2 3d 64 33 8a 3e be 6a a7 bd 81 39 23 3c
       0.094850205 0.26992333 -0.08174656 0.0099624405
000390 80 aa 99 3c e5 0c cd 3a 3e ff 4d 3e f6 fd 92 3c
       0.018758059 0.0015644102 0.20116898 0.017943364
0003a0 1f 3b 9f bc 8d 49 03 3d d6 2b 71 3c 8d 05 61 bd
       -0.01943737 0.032052565 0.014719924 -0.054936934
0003b0 d7 4f f2 bd 2e 69 aa 3d 03 af 98 3d 66 73 75 bd
       -0.118316345 0.08320843 0.07455256 -0.059924506
0003c0 27 a2 8d bd ce 61 a2 be e9 ad a1 3d 18 e6 31 3d
       -0.06915694 -0.31715244 0.07894499 0.043432325
0003d0 bb 21 b2 bd 6b 38 34 3c 47 d5 8d bd 0a b8 bd 3d
       -0.0869784 0.010999779 -0.06925445 0.09263618
0003e0 1f 35 3d 3e a4 17 de bc 66 71 87 3d 39 e4 96 bd
       0.18477295 -0.027110882 0.06613426 -0.07367749
0003f0 e5 93 46 bc e3 9f b5 bd ea 12 f7 bc 10 bb b5 bd
       -0.012120222 -0.088683866 -0.030160386 -0.0887357

network_smart.layer2.0.bias f4 [128]
000000 de fd 45 3b 9e 75 89 3c f0 62 7c bd 8c 62 53 bd
       0.003021113 0.016779717 -0.06161779 -0.051607653
000010 46 1e 93 bd 5e 81 b5 bc c8 d5 05 3d 02 ad be 3c
       -0.071835086 -0.022156414 0.03267458 0.023275856
000020 b5 28 bc 3d 94 1b 6d 3d 86 52 70 3d 6d cf d3 3c
       0.09187452 0.05788763 0.05867245 0.025855744
000030 a1 37 3b 3e c2 50 12 3d eb 54 c2 bd d8 1f 8d 3d
       0.1828294 0.035721548 -0.09488853 0.06890839
000040 b2 62 dc 3d 8e ce ba bd bf fa 9c bc f3 f9 1a 3d
       0.10761012 -0.091214284 -0.019162534 0.037836026
000050 37 73 8a bd 68 38 70 bd 6e 19 9f 3d 04 00 b3 3d
       -0.06760257 -0.058647543 0.07768522 0.08740237
000060 5d fe bc 3d c5 b4 1b 3d 8b 06 7b 3d d0 c9 27 3d
       0.092282034 0.038014192 0.061285537 0.040963948
000070 eb 87 5e 3d b3 e7 d5 3d f3 cd 00 3d b0 32 97 bd
       0.05432884 0.10444584 0.03144641 -0.07382715
000080 31 b1 47 3c 34 ca 14 bd 17 59 1a bd 93 4f c0 3d
       0.012188242 -0.03632565 -0.03768262 0.093901776
000090 09 90 50 bd f8 1f aa 3d 25 e4 c6 3d 6b 45 52 bd
       -0.050918613 0.08306879 0.09711484 -0.051335733
0000a0 24 e8 c1 be e4 73 ec 3d d8 da 58 be 5d be a3 3c
       -0.37872422 0.11545542 -0.21177232 0.019988233
0000b0 37 44 54 bc d4 b2 f9 3d a1 21 5b 3c cf 4c a9 bc
       -0.012955717 0.12192312 0.013374717 -0.020666508
0000c0 6d 94 18 3e 57 36 cd bb 95 fe 86 bb cd 1b e8 3c
       0.1490037 -0.0062625813 -0.004119704 0.028333569
0000d0 1d 8a 9f 3d de 3e ff bd a4 ab 08 3d 7b 08 ff 3d
       0.07790015 -0.12463163 0.033366814 0.124527894
0000e0 ac b5 41 3d 56 75 14 3d 94 ce b6 3d d8 d3 53 be
       0.047292396 0.036244713 0.089261204 -0.2068628
0000f0 48 03 b6 bb aa cb d8 3d dc e5 8f bd ae a7 fc 3d
       -0.0055545904 0.10585721 -0.07026264 0.1233667
000100 12 fd 11 3e b1 d2 99 bd 63 35 9f bc 2d bf f2 3d
       0.14256695 -0.07510889 -0.019434636 0.1185287
000110 b8 34 81 bd d1 ea 94 bd f7 1d 97 bd 19 a6 82 3d
       -0.063088834 -0.0727135 -0.07378762 0.06379337
000120 49 39 c7 bd 88 71 7b bd cb f7 8e bd e4 29 81 3d
       -0.09727723 -0.06138757 -0.069808565 0.06306818
000130 ac 8d 86 3c 23 73 b7 bd bc 10 14 3e 08 1a 24 bd
       0.016424976 -0.089575075 0.14459509 -0.040063888
000140 c4 9a cf bc 76 27 4b bd ac 2c cc bd 12 7d dd bb
       -0.025342353 -0.04959818 -0.09969458 -0.0067592943
000150 81 8c 90 bd 47 2f aa bd 37 4e 83 3d 0c 80 ed bd
       -0.07058049 -0.08309799 0.06411403 -0.11596689
000160 ee d5 d4 3d 5b 0d fc 3c 74 09 2c bd 94 8b 5f bc
       0.10392366 0.030768087 -0.042001203 -0.013644118
000170 e0 82 8a bd 0c c2 b1 3d 9a 88 71 3d 3f a6 7b 3d
       -0.06763244 0.0867959 0.058968164 0.06143784
000180 e2 45 b7 3c b0 aa 17 bd 64 6a 81 bd a7 6c 27 3e
       0.02237219 -0.037028015 -0.063191205 0.16350041
000190 7a d5 9c bd 39 2d cc 3d 93 60 0d 3e a7 94 e2 bc
       -0.07657905 0.09969563 0.13806371 -0.027658774
0001a0 cd fd b8 bd 7c fa f7 3d 60 b5 9d bd df f7 ee 3c
       -0.09032784 0.12108323 -0.0770061 0.029170929
0001b0 aa 98 a8 bd e7 bd f4 3d b1 df 32 bd 40 66 eb 3d
       -0.08232243 0.119502835 -0.04367036 0.11494112
0001c0 46 c4 69 bd 3e c2 e2 3c 1c bf ee bc b2 99 02 3e
       -0.057071947 0.027680513 -0.029143862 0.12753943
0001d0 7d 9c 01 bd 27 0f 2a 3d 57 e2 0e 3e 58 d5 d1 3d
       -0.03164338 0.041518357 0.1395353 0.1024577
0001e0 3d 9d 79 bc 31 26 93 3d a8 81 0c 3e 90 3d b6 bd
       -0.015235242 0.07185019 0.13721335 -0.08898461
0001f0 4c 74 9e bd a3 fd 68 bc a0 ae 41 3d 9e d8 89 3d
       -0.077370256 -0.014220628 0.047285676 0.067307696

network_smart.layer3.0.weight f4 [48, 128]
000000 a1 00 9e bc 17 aa 3e 3d 53 31 d6 bd c8 0c c4 3d
       -0.01928741 0.04654893 -0.104586266 0.0957275
000010 9f b2 a7 bb 08 e0 ae 3d 95 6e e9 bd 19 89 40 bf
       -0.005117729 0.08538824 -0.11398045 -0.75209194
000020 b6 d9 c3 3d 1c 82 99 bd 03 01 89 3d da 10 6c bc
       0.095630094 -0.074955195 0.06689646 -0.014408315
000030 a5 a3 92 bd 20 41 57 3e 0b 18 38 bd 03 9a 42 3d
       -0.07160119 0.21020937 -0.044944804 0.04751016
000040 b4 8a 62 3e 56 8d 1d bd ce 22 a6 3b 33 fc 7c bc
       0.22123224 -0.038464867 0.005070067 -0.015440988
000050 ee 5f 01 3e 95 36 e3 3c a0 20 a0 3d e7 4a 81 3d
       0.1263425 0.027735988 0.07818723 0.063131146
000060 68 3c 65 be 29 cb 09 3d f0 7f 2c bd b7 ed 4a bc
       -0.22386324 0.033641014 -0.0421142 -0.012385777
000070 6d 39 92 3d f5 87 75 3d 0d 9c 91 3d 24 7a 83 bd
       0.07139859 0.05994411 0.071098424 -0.06419781
000080 6f 99 f9 bb 36 61 8c ba 4d 1c 1d 3e 3d 2d 63 bd
       -0.0076171677 -0.0010710123 0.15342827 -0.055463064
000090 f8 1c 0c be 82 a5 0d bd ce 45 69 be 77 be 53 ba
       -0.13682926 -0.03458167 -0.22780535 -0.00080773927
0000a0 10 12 e8 be b4 d9 49 bd 0d ce 0b 3e 10 d8 01 3e
       -0.4532628 -0.049279884 0.13652821 0.12680078
0000b0 c9 99 7b bd 22 24 c0 bc 7d f3 09 3d 1c 83 8c 3d
       -0.061425958 -0.02345473 0.033679474 0.06860945
0000c0 64 2b 54 bd ec 83 ad bd ee 4f d4 3d 03 74 f9 be
       -0.051799193 -0.08472428 0.10366808 -0.48721322
0000d0 7b 0d d7 bd 41 b8 81 3e e0 9a 66 3d 7a 97 2b bd
       -0.10500618 0.25335887 0.056300044 -0.041892506
0000e0 25 52 f3 3c 43 7a 48 bd 3f e2 e4 bc 0b 82 cb bd
       0.029702256 -0.048944723 -0.027939914 -0.09936913
0000f0 b0 f8 a8 bc ee cf 78 3d 84 05 b1 bd 81 9b 8b bd
       -0.020626396 0.060745172 -0.0864363 -0.068167694
000100 7e 62 b1 3d d1 4e 07 be 42 ed fa 3d 52 ae 7e bd
       0.08661364 -0.1321366 0.122522846 -0.062177964
000110 a6 30 14 bd e6 7c 99 bd b7 19 bc be eb b3 01 3e
       -0.036179207 -0.074945256 -0.3673837 0.1266629
000120 73 db b3 3d 15 bd dc 3d d6 b6 94 3d 7a 13 70 bd
       0.08782091 0.10778252 0.07261436 -0.058612324
000130 5b 79 b0 3d ae c6 18 3e d1 e6 54 bd 90 55 57 bc
       0.08616897 0.1491954 -0.051977936 -0.013142958
000140 fb 21 c8 3d a5 4f 90 3b 0d 35 67 bd e0 e2 ab bd
       0.09772106 0.0044040256 -0.056447078 -0.08392882
000150 68 5c c9 3c 52 9b a3 3d 36 23 da 3d 58 f1 03 bd
       0.024580196 0.079886094 0.10651247 -0.032212585
000160 1b 75 97 bd cf 90 5d 3d ff 96 a7 3d e8 c6 e6 bb
       -0.07395383 0.05409318 0.08183097 -0.0070427544
000170 5b 4f 80 3d 7a 69 09 3e 23 d8 17 bd ab 8a af bd
       0.06265136 0.13419142 -0.03707136 -0.08571371
000180 e5 3a 9f 3d d0 fa a0 3d 95 7f 95 3d 7c e1 83 bb
       0.07774905 0.07860339 0.07299725 -0.0040246826
000190 eb 1b 81 bc ed d6 34 bd 34 83 1b bd 0c 2b a7 ba
       -0.015760383 -0.04415028 -0.037966922 -0.0012753918
0001a0 b3 ff 80 3c 40 61 15 3e 28 d1 22 3e 44 5f e4 3d
       0.015746927 0.14587879 0.159001 0.11150983
0001b0 b4 aa 04 be 15 83 d0 3b a6 02 50 3d 29 d8 c2 3c
       -0.12955743 0.0063632824 0.050783776 0.023784714
0001c0 59 a5 88 3d ad 80 33 be b8 2c 41 bd 14 15 14 3b
       0.066721626 -0.17529555 -0.047161788 0.0022595571
0001d0 26 8b 00 3e 92 7f fb 3d f2 56 d4 bc f8 c2 30 3d
       0.12553081 0.122801915 -0.025920365 0.043154687
0001e0 35 d5 c3 bd 0f c7 73 3d a1 93 a0 3b 4a 33 5f be
       -0.095621504 0.05951601 0.0049004112 -0.21796909
0001f0 b7 3f 62 bb 99 b0 bd bd 3b 43 ce be 9a 42 15 3d
       -0.003452284 -0.09262199 -0.40285668 0.03644047
000200 ba 9f c0 be 89 d6 59 be fa 62 a3 be 82 98 2d 3d
       -0.37621862 -0.21273245 -0.3191145 0.04238177
000210 b0 77 c4 ba 2f 18 3b bf 9e d4 8c 3d bf 5f 01 3d
       -0.0014989283 -0.73083776 0.06876491 0.03158545
000220 ad 74 da bd 30 2e 09 3e 43 bc 3e 3d 53 0a 93 3c
       -0.106667854 0.13396525 0.04656626 0.017949259
000230 73 95 b0 3d bd 2e 03 3e 69 98 49 3d a6 81 48 be
       0.08622255 0.12810798 0.049217615 -0.19580707
000240 1d e2 12 bf ad ea e8 3e 82 17 d2 3d ba f8 0b 3d
       -0.5737627 0.45491543 0.1025839 0.03417275
000250 d7 50 7a be 93 bc 7e bd 67 13 9a bc 59 32 80 3e
       -0.244449 -0.062191557 -0.01880808 0.25038412
000260 3f bf ab 3d ac a0 5f 3f 34 c2 a2 be ea b4 1e 3e
       0.08386087 0.8735454 -0.3178879 0.154987
000270 d9 08 02 3e 07 74 f7 bd fd 38 08 3c b8 af 8f bd
       0.12698688 -0.12082677 0.008314368 -0.070159376
000280 14 2a 03 be 0d 5b 06 bc 86 c9 3d 3d 45 f9 ed 3d
       -0.1280902 -0.008200419 0.046334766 0.1161981
000290 15 8d c5 bc de a6 57 3c 61 21 26 3c 04 54 05 bf
       -0.024115125 0.013162343 0.010139794 -0.5208132
0002a0 02 b3 be be 3d 64 59 3d b4 bd 07 bf 39 31 a7 bd
       -0.37245947 0.05307411 -0.5302384 -0.08163685
0002b0 de ee 44 be 46 0b ed 3d e9 7e 27 bd 3c 0c c7 bd
       -0.19231746 0.11574416 -0.040892515 -0.097191304
0002c0 6c 2b 97 bd f8 14 1d be 6b 15 15 3d 9e 74 51 bd
       -0.07381329 -0.1534003 0.03639738 -0.051136605
0002d0 64 dc 86 3c 8b cb 93 3d 44 3f 76 bd bb d4 38 3d
       0.016462512 0.07216557 -0.06011893 0.04512475
0002e0 37 d6 03 bc 57 7c a1 bd b0 48 5f bf c9 8f ed bd
       -0.008046678 -0.07885044 -0.8722029 -0.115996905
0002f0 d3 f2 0f bf df 13 8f be a1 bf fc bc 51 e1 a2 ba
       -0.56229895 -0.27944848 -0.030853095 -0.0012426769
000300 ae d5 a6 3c 1c d9 51 bf 33 b4 bc 3d 97 5c 22 3e
       0.020365562 -0.8197191 0.09214058 0.15855633
000310 33 d2 a9 3d f6 f2 f2 3c 29 c0 97 3d fa c0 02 be
       0.082920454 0.029656868 0.074096985 -0.12768927
000320 c3 a5 06 bd cc c7 03 bd ba 3e be bc c2 39 28 bc
       -0.032872926 -0.032172963 -0.02322327 -0.010267677
000330 d9 ee 42 3d 58 36 05 be cd ac 11 3d 04 b3 d5 3b
       0.047591064 -0.13009012 0.035565186 0.0065215845
000340 29 43 f6 3c d1 83 44 bd 8a 29 05 be 6d ae d9 bc
       0.030061321 -0.047977272 -0.13004127 -0.02657243
000350 82 d1 cf be f3 7d 1a 3c 69 88 31 bc 79 9e 30 bf
       -0.4058953 0.009429443 -0.010835745 -0.6899181
000360 d4 6d 72 3e 72 b4 e6 bd b6 ba d8 3c 2c 79 b9 bd
       0.23674709 -0.11264886 0.026456218 -0.09056315
000370 bc aa a1 3d 94 4d 02 bf 5d 35 43 3c ea bd cf 3c
       0.07893893 -0.50899625 0.011914578 0.025359113
000380 fe 53 ee bd f7 a7 3f 3d bd 14 a5 3d 49 96 39 3e
       -0.11637114 0.046791043 0.08060596 0.18123735
000390 27 47 2b be 77 20 3f be b6 a5 5b 3d bb 36 9c be
       -0.16726361 -0.18664728 0.05362483 -0.30510506
0003a0 69 1d 9b 3d 87 7d fb bd ee 63 16 be cd 56 44 3e
       0.07573969 -0.12279802 -0.14686558 0.19173737
0003b0 30 6b 8e bd e1 b2 48 be e0 d6 f0 bd d8 c0 9f 3d
       -0.06954038 -0.19599487 -0.11759734 0.07800454
0003c0 77 2d 31 bc 37 91 69 3d 55 cb b3 be cc cf df 3d
       -0.010814062 0.057023253 -0.35116068 0.10928306
0003d0 3f 8c 04 be 93 8b 11 bc 4f 0b b8 3d 86 e0 6e 3e
       -0.12944125 -0.008883375 0.08986532 0.23327836
0003e0 25 45 3a 3e 9a f0 cb bd 7b bf 9e 3d 6e 84 64 3e
       0.18190439 -0.099580005 0.07751366 0.22316143
0003f0 65 0f 02 3e d7 a1 5e be a1 4c 13 3e e0 58 c3 bd
       0.12701185 -0.21741425 0.143847 -0.09538436

network_smart.layer3.0.bias f4 [48]
000000 05 f9 eb 3c 75 9d 72 3d 34 8e 5b b9 5f 41 c2 3c
       0.028805265 0.059232194 -0.00020938442 0.023712812
000010 2a a3 98 bd 94 4e b6 bc 7d b6 08 3d de 1e 6a bd
       -0.07452996 -0.022254266 0.03337716 -0.057158343
000020 f5 a1 88 3d 18 37 91 bc 7b 87 89 3d 78 b5 49 bd
       0.06671516 -0.017726466 0.06715294 -0.049245328
000030 96 46 b3 3d 83 eb 0b bd dc cb 5a 3d e2 02 42 bd
       0.087536976 -0.03416015 0.05341707 -0.04736603
000040 c9 08 96 bd 81 ce 11 bc 0c 7e 78 bd 2a 17 28 bd
       -0.073258944 -0.008899332 -0.060667083 -0.041037716
000050 c2 a4 f4 3c bf 13 39 3b b5 4f d5 3c 56 22 02 3d
       0.029863719 0.002824053 0.026038984 0.031771027
000060 b6 f1 2b bc da 45 e4 bd 5f e0 6e 3d 75 9b 03 3d
       -0.01049464 -0.11146136 0.058319446 0.032130677
000070 e7 f5 1d bd c4 e3 24 3c 5a 2a b0 3b 08 8d 50 bd
       -0.03856459 0.010064069 0.0053761424 -0.050915748
000080 21 da 31 bd 09 02 e4 3d 34 d0 90 bd a5 5a 16 3d
       -0.043420915 0.11133201 -0.070709616 0.03670754
000090 f9 f8 a9 3d c1 cb 36 3d 8c 4a 67 3c f9 9f cb 3c
       0.08299441 0.04462791 0.014116894 0.024856554
0000a0 68 4b c7 bd 84 2b ad bd bd 42 e1 3c 0c ba 35 3d
       -0.097311795 -0.084555656 0.027497644 0.04436688
0000b0 fb d1 d5 3d da d7 7b 3d 28 dd 8b 3c 77 ca 74 3d
       0.10440441 0.06148515 0.017073229 0.059763398

fc_smart.weight f4 [64, 48]
000000 83 8b 41 3d cf d2 94 3e 18 5b 3b bd 2e 28 95 3e
       0.04725219 0.29067084 -0.04574117 0.29132217
000010 e2 b0 9a be 58 0b b2 3c e9 51 96 be fb 57 f6 bc
       -0.30213076 0.021733925 -0.29359367 -0.03007125
000020 16 23 0e 3e 23 8e cd bd 15 c9 40 3e 65 71 38 bd
       0.13880572 -0.10036876 0.18826707 -0.045030016
000030 ab fa 62 3d 61 51 43 3e 1e 5a 3c 3d de 5f ff bd
       0.055414837 0.19074012 0.04598438 -0.12469457
000040 7f d1 9f 3d de e5 89 bc 95 a9 14 bd 02 53 79 3e
       0.0780363 -0.016833242 -0.03629454 0.24348071
000050 63 41 b6 be 93 1f 96 3d e7 3e a1 bd 61 86 66 3e
       -0.3559676 0.07330241 -0.07873326 0.22512199
000060 d3 87 82 be 6f 29 e6 3e cb 6a 45 3e 83 15 ef bd
       -0.2549425 0.44953486 0.1927902 -0.11674025
000070 8e 04 aa 3d ba 83 60 3d d2 83 a8 3f 59 f7 b7 3d
       0.0830165 0.054813124 1.3165228 0.08982725
000080 a3 44 fe bd d1 42 e9 3d bf ca 60 39 e0 2d 34 3e
       -0.12415435 0.11389697 0.00021437833 0.17595625
000090 8c 73 03 bf b6 6e 23 bc 95 78 28 be af c1 ee 3c
       -0.51348186 -0.009975126 -0.16452248 0.02914509
0000a0 b6 f7 be 3d d0 d5 ea 3c eb 6c 1c bf ea 71 85 3e
       0.09324591 0.028666407 -0.61103696 0.26063472
0000b0 fe 1b 1f be 8b b4 2f 3c e1 ad 8f bd 5a 4e 7a bd
       -0.15538022 0.010724197 -0.07015587 -0.061109878
0000c0 15 45 3b 3e 0f d9 0c bf 44 ce 14 3e 18 ec 61 3d
       0.18288071 -0.55018705 0.14531809 0.055156797
0000d0 ba 4d 39 3e 3a 13 5e 3c 02 e5 72 be 2f 05 dd 3d
       0.18096057 0.013554389 -0.23720172 0.10792004
0000e0 62 48 65 3d 4c 58 82 be 82 b2 91 bd 60 d1 0b bd
       0.055977233 -0.2545799 -0.07114126 -0.034135222
0000f0 97 e7 ab bd c5 ee 7a 3e 0e 2c 8f bd f9 17 4f be
       -0.08393782 0.24505146 -0.06990825 -0.20223989
000100 f1 d4 db bd 4d 82 c9 3d ff 64 12 3e 61 10 ab 3e
       -0.10733975 0.09839306 0.1429634 0.33410934
000110 30 8d 3c 3e cf fa 09 3d 0f a9 d8 3c 40 69 8a 3c
       0.18413234 0.033686455 0.0264478 0.01689589
000120 74 b6 44 3d c0 95 06 bf 85 9d 41 3d 19 ad f6 bd
       0.048025563 -0.5257225 0.047269363 -0.120447345
000130 20 db f7 3d 64 e3 c7 3d b4 70 c9 3f e9 9f d7 3d
       0.12102342 0.09760168 1.5737519 0.10528547
000140 b5 7f 0d 3e bb 58 3b bd b4 18 50 be 26 65 02 be
       0.13818248 -0.045738917 -0.20321923 -0.12733898
000150 d3 74 98 3f 66 27 f6 bb dd 43 c5 3e 2c 99 ce 3d
       1.1910652 -0.007512021 0.38528338 0.10087809
000160 a8 ee de 3d 7f fb 1f bc 6b 2a 80 3e fa 07 93 bd
       0.10885364 -0.009764551 0.25032362 -0.07179256
000170 33 de 10 3d 25 4c ea 3e 5a 9c cc 3e a8 1b f7 bd
       0.035368156 0.4576122 0.39963037 -0.12065822
000180 ec 93 45 3d 76 0f e6 3e c9 be 6e be cc f5 3a bf
       0.048236772 0.4493367 -0.23314966 -0.73031306
000190 84 87 56 3e c4 5c 51 bd 54 19 15 3f c4 76 02 be
       0.20950133 -0.05111386 0.5824177 -0.12740618
0001a0 cc c0 e7 be 0e 7c cd 3d 1c 85 98 3c 9b 6d e1 bd
       -0.4526428 0.10033427 0.018618159 -0.11007234
0001b0 c6 c0 d8 bd ae cf 02 bf 35 1e bd bc a0 5c 26 3f
       -0.105836436 -0.51098144 -0.023085693 0.64985085
0001c0 cf b6 07 3e 21 65 0e be d0 b0 0a 3e c0 1e 2b bf
       0.1325333 -0.13905765 0.13544011 -0.66843796
0001d0 7b 6a 98 3d 78 00 e3 bd 2d 26 3b be 26 1d cb be
       0.074421845 -0.11084074 -0.18276282 -0.39670676
0001e0 93 16 97 3e aa 39 da 3e 72 5e 13 be 31 2c 1c 3e
       0.2950941 0.4262212 -0.14391497 0.15251233
0001f0 17 b2 ca bd 1f db 0b be f8 7e aa 3e 9b 9c c6 3d
       -0.09897249 -0.13657807 0.33299994 0.09697839
000200 7e c9 1b bc ed ed 00 bb 31 e5 1c 3f c0 d3 40 bc
       -0.009508489 -0.0019673065 0.6128722 -0.011769235
000210 44 db 30 bf 78 3a 2c be 17 1a c4 be 9c f1 d7 be
       -0.6908457 -0.16819179 -0.38301155 -0.4217652
000220 80 a0 fd bc d3 22 a4 3c 25 3a ac 3e 7f 5f 61 be
       -0.030960321 0.020036137 0.3363811 -0.22009085
000230 71 9f 71 3e 09 fc 1d bf 1e 69 fc be 4b b3 b4 3e
       0.23595978 -0.617127 -0.49298948 0.3529304
000240 3b 91 29 be 2e 6c 0c 3f 25 ed 60 be 14 98 c2 be
       -0.16559307 0.5485257 -0.21965463 -0.3800665
000250 d2 aa 18 bd 96 17 20 bc 53 a6 f2 3e 43 51 12 3e
       -0.037272282 -0.009771248 0.4739252 0.14288811
000260 00 1d 96 be cd 34 8e 3e 7a 7b f6 bb 5b dc 00 3e
       -0.29319 0.2777466 -0.007522044 0.12584059
000270 9b 30 bd bc 1d 0b ec be d9 8b 08 3e b9 91 f1 3e
       -0.023094466 -0.4610223 0.13334598 0.4718149
000280 3f 8b b2 3d c7 0c 89 bc 40 c1 c5 bc 3c 56 18 bf
       0.08717965 -0.016729726 -0.02414 -0.59506583
000290 db 4c c8 bd 6b a7 18 be 2b e8 e2 bd 58 bb 76 be
       -0.09780284 -0.14907615 -0.11079439 -0.24094903
0002a0 95 37 19 3e 0c 5c 00 3f 65 28 21 be c4 fa 00 3e
       0.14962609 0.5014045 -0.15738066 0.1259566
0002b0 60 b8 ea bd 82 ff 33 be d1 05 bf bf da 9d 08 be
       -0.11460948 -0.17577937 -1.492365 -0.13341466
0002c0 b9 65 19 bd 17 64 64 3d 55 76 e1 3e 33 f4 cf 3c
       -0.037450526 0.055759516 0.44035593 0.025384998
0002d0 0e 14 95 bf af 07 7d bd 38 38 ca be a2 62 8c be
       -1.1646745 -0.061774906 -0.39496017 -0.27419
0002e0 33 55 35 bd 94 e3 f3 bb 5d f6 77 3d 52 98 5c bd
       -0.044270705 -0.007442901 0.060537685 -0.0538562
0002f0 b7 09 ed 3d 46 75 07 bf 1c 9a f3 be 7f 3d 89 3e
       0.115741186 -0.5291332 -0.47578514 0.2680473
000300 9d 5d ea 3d da ad b3 be 5d cb 8d 3e 0c 8d 3d 3f
       0.114436366 -0.35093576 0.27694216 0.74043345
000310 bd 7f 58 be eb 8f 35 3e 33 30 3a bf 16 85 07 bb
       -0.21142478 0.17730682 -0.72729796 -0.002067869
000320 75 2c e5 3e 70 e0 64 be 88 a4 b3 3d f7 d6 65 3d
       0.4476048 -0.22351241 0.08771616 0.05611321
000330 0d 62 33 3e a7 b7 16 3f d6 14 08 3c fb e9 21 bf
       0.17517872 0.5887398 0.008305749 -0.6324765
000340 f3 46 9f 3d 44 41 96 3d 55 d2 65 3c 81 ba 3b 3f
       0.07777204 0.07336667 0.014027198 0.7333146
000350 60 3c 46 be 39 86 7c bd 40 04 33 3e aa 55 ec 3e
       -0.19358969 -0.061651442 0.1748209 0.46159106
000360 a2 af c3 be 42 a8 2f be 73 4d 86 3e 8b a9 3e be
       -0.38219935 -0.17154029 0.26230964 -0.18619363
000370 d7 48 f5 bd 5e ad 8d 3e b8 77 73 3f 71 dc 51 3d
       -0.11976784 0.2767133 0.9510455 0.05123562
000380 6d 92 aa bd 2e a3 cd 3d 63 07 11 bf a3 3f 86 bc
       -0.0832871 0.1004089 -0.56651896 -0.016387766
000390 80 92 5c 3f 9f d4 ce 3d 32 21 8b 3e 8c 0b b8 3e
       0.8616104 0.10099148 0.27173764 0.3594631
0003a0 8f 3d 0f 3e 48 3c 04 be 5c f6 0f bf 64 c8 73 3e
       0.13988326 -0.1291362 -0.5623529 0.23806912
0003b0 4e 28 94 be 12 0a 1c 3f f9 68 cd 3e ad 44 aa be
       -0.28937 0.60952866 0.4011915 -0.3325552
0003c0 fc 42 75 3d 11 92 27 3e e6 59 05 bc 96 90 15 3f
       0.059878334 0.16364314 -0.008139109 0.58423746
0003d0 2e 5a b9 be 56 81 a8 3d f2 84 f8 be 15 2c 9a bd
       -0.36201614 0.08227794 -0.4853893 -0.07527939
0003e0 c4 c7 a6 3e c8 bc 18 bd a6 f5 24 3e b8 98 d2 3d
       0.32574284 -0.03728941 0.16109332 0.10283035
0003f0 d6 d3 d9 3d ac fc ae 3e 22 86 41 3d 4d 27 c6 be
       0.106361076 0.34177148 0.04724706 -0.3870186

fc_smart.bias f4 [64]
000000 52 a5 76 bd 8d 18 ac 3d a2 1f fd 3d 19 ef 83 bd
       -0.060216255 0.0840312 0.12359549 -0.06442089
000010 09 3c cc bc 3e d0 ff 3d e4 87 9e bd ce 3c 61 3c
       -0.02493097 0.12490891 -0.07740763 0.013747407
000020 0a 17 93 3d 80 b5 53 bd cb f8 d9 bc 63 31 9a bd
       0.07182129 -0.051686764 -0.026607892 -0.07528951
000030 7b 44 55 bd 5a 7a 57 3d ac 18 35 3d d9 22 4d ba
       -0.05206726 0.052606918 0.044212982 -0.0007825322
000040 9b c4 dc bc 75 95 68 3d 42 75 45 3d 59 32 9a bd
       -0.026949218 0.05678316 0.04820753 -0.07529134
000050 66 5e 56 3d 3b 15 94 bd 11 5a 8b 3d 8b 57 bf 3c
       0.05233612 -0.07230612 0.06804288 0.023357173
000060 21 6c 00 3c 8e ef e7 bd f2 3b 93 3d 0a 4c 38 3d
       0.00783828 -0.11324988 0.07189168 0.04499439
000070 2e 05 c9 bd 71 3b 98 3d df fe 8f 3d f4 b2 b0 3d
       -0.09815441 0.074332125 0.07031035 0.086278826
000080 1a 24 1c bd 29 a1 c3 3d f6 f8 da 3d f1 84 5f bd
       -0.038120367 0.09552223 0.10692017 -0.054570142
000090 2f e7 0a 3c c5 7d dd bd 64 fe b4 3c de 71 e3 bc
       0.00847797 -0.10815004 0.02209396 -0.027764257
0000a0 5a 8a fe bd ef 21 7f 3d ca 55 dc 3d e1 ef 0e 3e
       -0.12428732 0.06228822 0.107585505 0.13958694
0000b0 da ea 5d bb 1e 2c ef 3d b7 a5 ac bd 6b 51 c8 bd
       -0.0033861906 0.116783366 -0.08430045 -0.09781154
0000c0 2c 06 33 3d 18 9b bc bc de ee a9 bd af c7 39 bd
       0.043707058 -0.023023173 -0.082975134 -0.04535645
0000d0 50 31 a6 3c 2c 15 a7 3d b5 ad 5f bd cb fc a8 bd
       0.020287186 0.08158335 -0.05460902 -0.082513414
0000e0 e1 de c2 3c fe d8 57 bd c9 3a 9d bd 38 d5 1a 3d
       0.023787918 -0.052697174 -0.07677228 0.037800997
0000f0 ea 42 2e 3d e1 01 9b 3d 6c a9 9e bd f6 59 33 bd
       0.042544283 0.07568718 -0.077471584 -0.043786965

network_aging.lstm.weight_ih_l0 f4 [128, 5]
000000 1f 68 59 3e 5f 8e 5a 3e 60 79 5b bd 5e c4 a3 bd
       0.21231125 0.21343373 -0.05358255 -0.079964384
000010 85 5b 50 3e 65 d1 b8 bd 2c 09 be bd 1c ce af bd
       0.20347412 -0.09024314 -0.09279093 -0.08584234
000020 6d 43 30 3e 54 57 29 bc 90 44 06 3e 44 c6 01 be
       0.17213221 -0.010335762 0.13112092 -0.12673289
000030 80 d4 16 3e 2e e1 fa bc 3d 72 f3 bd 5a a6 93 bd
       0.147295 -0.030624952 -0.118870236 -0.072094634
000040 eb 76 94 3d ec e2 e5 bd b5 64 46 3e d0 2e 28 3e
       0.07249244 -0.112249225 0.19374354 0.16424108
000050 65 4d 0d be d4 92 15 be 18 c5 ad bd 92 fa 8c 3d
       -0.13799055 -0.14606792 -0.08484858 0.0688373
000060 cf e9 ac 3d 24 f2 8c 3d a0 97 b7 bd d3 ec 28 3d
       0.08443033 0.06882122 -0.08964467 0.04124148
000070 78 12 f2 bc ea 8a db 3d f2 a8 83 bd c0 2e 2a 3e
       -0.029549822 0.10719855 -0.06428708 0.16619396
000080 74 85 3b 3e 8f 84 4a 3e d5 63 1d bd 1c 5a db bd
       0.18312627 0.1977713 -0.038425285 -0.107105464
000090 3b 00 01 be ae 10 1d 3e 1e 60 3f 3e dc b7 81 bd
       -0.12597744 0.15338394 0.1868901 -0.063338965
0000a0 3c 72 fc bc 30 7c 51 3e b9 70 ff 3c bb b1 25 3d
       -0.03081619 0.2045753 0.03118168 0.0404527
0000b0 ff 55 2a 3d b1 be 3a bd 60 43 46 3e 62 f7 1e 3e
       0.04158592 -0.045592014 0.19361639 0.15524057
0000c0 61 40 30 3d 36 ba c6 3d 2d f7 52 3e 59 6e 52 bd
       0.043030147 0.09703486 0.20602103 -0.051374767
0000d0 3d 16 b3 ba a0 c4 5c 3b 54 91 40 3e b2 cd 0e 3e
       -0.0013663244 0.0033686534 0.18805438 0.13945654
0000e0 00 76 db 3d f6 7c cc bc 94 93 06 be 65 50 bb 3c
       0.10715866 -0.02496193 -0.13142234 0.022865484
0000f0 f3 79 27 3e 63 b4 7c bd 9c 8c ab bb 75 3a 21 bd
       0.16355114 -0.061695468 -0.005235268 -0.03936239
000100 fd 2d 3e 3e 61 9a b9 3d 35 5e 28 3d 41 f3 24 3e
       0.1857223 0.090626486 0.041105468 0.16108419
000110 a0 55 23 bd 8f 36 c8 3d 56 ba 95 bd e4 c1 11 3e
       -0.03987658 0.09776031 -0.073109314 0.1423412
000120 ec ca 38 3e 39 a6 bb 3a 8c 90 0b bd 5f f0 8f bd
       0.18046159 0.0014316506 -0.034073398 -0.07028269
000130 37 d1 29 3e 57 13 c6 3d 5e ff cc bc 25 1e 0a be
       0.16583715 0.096716575 -0.025024112 -0.13488062
000140 a4 78 77 3e 21 56 bb 3d 35 65 53 3e 30 ae 1e 3e
       0.24167114 0.09147287 0.20644076 0.15496135
000150 3b be c9 bd 4d 2a fd 3d 4e fd 5d 3e f7 90 87 bd
       -0.09850737 0.12361584 0.2167866 -0.06619447
000160 e6 79 29 3e 38 33 1d 3d cb f5 28 bd a2 f5 57 3e
       0.16550407 0.038378924 -0.04125003 0.21089795
000170 a5 87 1d 3e ae 06 fd 3d cd 4e 79 bd ce 9d 5c 3d
       0.15383776 0.1235479 -0.060866166 0.05386143
000180 57 66 83 bd 15 05 32 3d 28 aa 25 bd c4 eb 06 3c
       -0.06416004 0.043461878 -0.040445477 0.008234922
000190 66 82 a2 bd 31 57 0a 3c e4 a9 3d 3e f6 d9 ee bd
       -0.07935028 0.00844364 0.1852184 -0.116626665
0001a0 79 0d a6 3d 7d 08 8c bc f4 e9 5a 3e 76 47 08 3e
       0.081080385 -0.017093891 0.21378309 0.1330851
0001b0 d7 e5 59 bd ae 80 0d 3e db 5f ff 3d 7d 7b 4b 3e
       -0.053197708 0.13818619 0.12469455 0.19871326
0001c0 f4 5c 43 3e b1 2c d3 3c 92 8a 21 3d 80 4d 07 bd
       0.19078428 0.025778146 0.03943879 -0.033032894
0001d0 52 53 07 be ef ee 6b 3c 15 10 9b 3d 39 c3 a1 3d
       -0.13215378 0.014400228 0.07571427 0.07898564
0001e0 ee 0b 0e 3e 02 63 c4 3c 35 cc 0c bd ab c5 50 3e
       0.13871738 0.023972992 -0.034374435 0.20387904
0001f0 64 3f 3a 3e 4f e7 2d 3e 66 9f ec 3d ea 83 27 bd
       0.18188244 0.16982768 0.1155384 -0.040897287
000200 70 80 b1 3c f6 db 1f 3e 13 d1 03 3e 40 22 a8 3d
       0.02166769 0.15611252 0.12872724 0.08209658
000210 66 be 1d 3e 46 22 2a 3e 70 ab 24 3e 80 7b ee 3d
       0.15404662 0.16614637 0.16081023 0.116446495
000220 3b c3 20 3e f4 33 8f bd 40 62 09 3e 0a 7f 6d bc
       0.15699475 -0.06992331 0.13416386 -0.0144956205
000230 2d 8e 33 3d 0f 93 44 3e a9 92 41 3e d2 ea 71 3d
       0.04383676 0.19196723 0.18903603 0.059061833
000240 20 13 0c 3e c1 f3 41 3e ee 5d 8d 3b 3c 1e 16 bc
       0.1367917 0.18940641 0.004314176 -0.009162482
000250 ad 64 dd 3d a1 3e 5a 3b d0 72 84 bd 93 51 df bd
       0.10810218 0.003330149 -0.06467211 -0.10904231
000260 34 33 5d 3e b1 ce 29 3e 77 d1 35 bd dc 5b 5d 3e
       0.21601564 0.16582753 -0.044389214 0.21617073
000270 37 8d 6d bd 82 be af bd e9 46 ea bc 3c 5c 31 3d
       -0.057996 -0.08581258 -0.028598266 0.043300852
000280 0b a4 0f 3e 9d 84 2a 3e b3 68 04 3d 25 74 0d 3e
       0.14027421 0.1665215 0.03232641 0.13813837
000290 98 44 b8 bd 69 8d 31 3e 37 22 5a 3e 2c 73 30 bc
       -0.08997458 0.173391 0.21302114 -0.010769647
0002a0 b1 01 19 3e 00 9a 02 3e 5b 8f 94 3d 1b 7d 8e bb
       0.14942051 0.12754059 0.072539054 -0.00434841
0002b0 9e f6 8e bd b6 ec 04 be 6c 8d 9a 3d 75 13 10 3e
       -0.06980632 -0.12980923 0.07546505 0.14069922
0002c0 d6 5a c9 bd d5 43 8e bd 64 c3 91 bc ae 82 55 3d
       -0.09831779 -0.06946532 -0.017793365 0.05212658
0002d0 aa ec 49 3e b1 bc cd 3d c7 ca d1 bd c8 60 20 3e
       0.19719186 0.10045756 -0.10243755 0.15661919
0002e0 97 16 c9 bd 67 80 61 bd c4 2f f7 3b 61 54 49 3e
       -0.09818762 -0.055054095 0.007543536 0.19661094
0002f0 36 5b 38 3e 61 7c 44 3d 2d 35 56 bc 4e 21 98 bd
       0.18003544 0.04797018 -0.0130742015 -0.07428227
000300 7b ea 56 3c b9 17 cc bd 10 14 1e 3e 28 58 f8 bc
       0.013117428 -0.09965462 0.1543734 -0.030315474
000310 5c a6 3e 3e c0 9d 23 3d a4 aa 35 3e dd a5 53 bd
       0.18618149 0.039945364 0.17740875 -0.05167185
000320 2b 7a 06 bd f2 df d6 bd 8f bf 44 3e 20 69 47 3e
       -0.032831352 -0.10491933 0.19213699 0.19473696
000330 17 82 fe bd 38 2b b6 bd 51 78 9d bd 5b 90 d7 3d
       -0.124271564 -0.08894962 -0.07688964 0.105255805
000340 73 50 4a 3d 05 48 2e 3e 4a 27 d3 bd 47 ab 02 3e
       0.04939313 0.17019661 -0.10310228 0.1276065
000350 8e 48 8a bc 6d 73 16 bc 13 a6 46 bd 19 75 1d 3e
       -0.0168803 -0.009182793 -0.048498224 0.153767
000360 f1 0f 1f 3d 53 7b 8e 3d 6c 24 1c bd 93 fc af 3d
       0.038833562 0.06957116 -0.038120672 0.085930966
000370 94 b7 6f 3e 04 fd f6 3d 5b 3c 92 bc 5a 35 f7 bd
       0.23409873 0.12059978 -0.017851045 -0.12070723
000380 5e cb 0c 3d 78 bc a4 bd 11 5d 2d 3e 90 14 d3 bd
       0.034373634 -0.0804376 0.16930033 -0.10306656
000390 15 6a 59 3e 4b 18 cb 3d 8e ea 0d 3e c2 a6 ff 3d
       0.21231873 0.09916743 0.13859007 0.124829784
0003a0 96 f6 5a 3d b3 ac fc 3d d1 ec 20 bd 8d ed c7 3d
       0.05345782 0.12337627 -0.039288346 0.09762106
0003b0 be fa 49 3e bf 3d cf 3b 5c 41 13 3e 78 d3 25 3d
       0.19724557 0.0063244994 0.14380401 0.040484875
0003c0 96 4f c2 bd 3b ec 1f 3d d2 b9 0d 3e 3c d9 0e 3d
       -0.09487836 0.039043646 0.13840416 0.03487514
0003d0 9a 85 00 bd 8e 4a 78 3e 56 08 62 3d d4 94 6f 3e
       -0.031377412 0.2424719 0.05518373 0.23396617
0003e0 f4 e0 02 3e 8f a6 17 3d 44 e5 96 bc f1 ba a8 3c
       0.12781125 0.037024077 -0.01841987 0.020596953
0003f0 77 26 4e 3d 01 9d 22 3e 7b 93 17 3e 1f a9 98 3c
       0.05032965 0.15880205 0.14802353 0.01863533
