trained_model/mc1_mc2/15_days_lookahead/pnet_checkpoint/pnet_2650.pth (torch, 545278 bytes, 36 tensors)

network_smart.layer1.0.weight f4 [128, 330]
00000000: 67a6 173d 512b 0bbf 0df9 c13e 7f94 513d
00000010: 8295 b3c1 2978 c3be c060 47bd 2a0a b83e
00000020: a65e bf3f 517e b3c1 d572 a7c1 0d50 4dbd
00000030: 05fe ffbe efd1 db3e d4a4 f03c 60cc b4c1
00000040: 2801 adbe 5494 3ebd e28f 9c3e b77b 80bf
00000050: 9c0c b5c1 fc18 a9c1 7c30 78bc f59b dbbe
00000060: 7967 b43e d3fb c03d db26 b6c1 de7e cfbe
00000070: 2796 afbc 1de8 a33e 22e3 c8be 0ef2 b5c1
00000080: e2e1 a9c1 c7f2 453c a7ea a5be de82 b23e
00000090: 1585 ea3d 9888 b7c1 277f acbe 5ede 06bd
000000a0: d7eb be3e f8b4 c33c f064 b7c1 92fa aac1
000000b0: 31e4 1abd cf53 a4be e165 d53e 9e17 2f3d
000000c0: c35c b9c1 2579 a9be cb7d e13c 91f7 a73e
000000d0: 0876 3440 f4ff b8c1 129c abc1 909b 503d
000000e0: ade4 babe 9e8c b23e 9ffd 953d 5070 b9c1
000000f0: a7a6 a3be 363d 8b3c 5c2b c63e 0657 b4be
00000100: 372c b9c1 6840 abc1 fe7f ccbc 5741 9bbe
00000110: 6d66 273e ad89 b83d e3db bac1 2879 c1be
00000120: 6fe4 16bd d313 ca3e 7a45 993f b68c bac1
00000130: d69e adc1 afcb 8bbc c8f7 8bbe fe89 4e3e
00000140: 6d03 df3d 4537 bcc1 c50e cdbe bffa f3bb
00000150: aa26 bb3e 20b4 a4be 75eb bcc1 bca4 adc1
00000160: 59ee c9bc 17ec 65be 4448 7c3e fe1f 1b3e
00000170: 7f90 bec1 d419 00bf b7bf debc d194 d43e
00000180: 6020 97be 49f9 bdc1 c0a3 b0c1 4e76 f4bc
00000190: 1e88 71be e86b 493e 1ae4 8b3e 8040 bfc1
000001a0: 4d28 ddbe 74c8 863b d1ae aa3e 276d bc3e
000001b0: d59d bec1 2155 b1c1 c044 723d 5565 f4bd
000001c0: b983 553e 0006 833e a14b c1c1 8a56 e6be
000001d0: 0529 9b3c 399f d73e c4a5 273f 0c69 c1c1
000001e0: e448 b2c1 5b20 15bd 440c febd 0de3 9e3e
000001f0: 6127 633e 3cbc c2c1 b398 f6be 65a3 cb3c
00000200: 1eb9 b83e b6a4 3c3f 8657 c2c1 b4a7 b3c1
00000210: bb94 51bd 6104 46bd 68ca f53d 9384 523e
00000220: 3b12 c4c1 6fe3 02bf f520 003c 2dc4 a53e
00000230: 1bf7 89bf f55f c4c1 c7da b2c1 3f65 cf3c
00000240: 9c72 7fbd 4ea7 4c3e d141 8f3e ebed c6c1
00000250: bace 08bf cb31 463d 9b8a a93e 4708 0f3e
00000260: da04 c7c1 eeb1 b3c1 3e7a 27bd 9fcb abbd
00000270: aa3c 7f3e 714f 533e 5d95 c5c1 1fc1 fdbe
00000280: cbca 2a3d 8ce5 873e 62b4 8ebf 4b8b c5c1
00000290: 6a26 b3c1 4a5e 33bc b62f 97bc 8e96 583e
000002a0: 9707 a53e 6878 c7c1 0821 f6be a894 25bb
000002b0: a06c 893e f094 a23e 602b c7c1 027b b3c1
000002c0: af3f 333c 5b1c 373d dafc 52bd 385c 813e
000002d0: f91a c8c1 6a7d 03bf 9f32 453c 5ed4 553e
000002e0: f730 9ebf 1c9c c7c1 65da b4c1 ff98 1bbd
000002f0: f134 d33d 6593 5e3d c3a3 c03e 418b c6c1
00000300: 61e0 fcbe 2cef 20bd 8737 a73e ce0b 82bf
00000310: 27c2 c6c1 e872 b1c1 d51e 1c3d a191 823d
00000320: ce49 07be 7000 f73e cfbb c4c1 01ce e0be
00000330: 6a52 b03c 6d40 813e 4c8d 7d3f d9a8 c4c1
00000340: 11f4 adc1 2383 923b ec55 323e 68e1 b6bd
00000350: 7208 aa3e ff24 c2c1 7805 f5be ab68 28bc
00000360: 3c8f 8a3e 86ab 02be 217a c2c1 a47d a7c1
00000370: 7c47 5e3d 48a0 5c3e 3ce1 82bd 3bca df3e
00000380: a0f7 c5c1 4c86 b5be 0377 35bc ca07 923e
00000390: ff8e 953f ac0e c6c1 8f81 afc1 5a1a e23c
000003a0: d239 663e 5f48 923c 09b6 bf3e d211 c8c1
000003b0: 09f7 e4be d87a 053d 1e04 783e b896 edbf
000003c0: f979 c7c1 796b b0c1 3946 dd3a e7d9 903e
000003d0: 8af2 39bd 2dd3 bf3e 615e cac1 5ad9 b3be
000003e0: daa8 81ba e00f 753e 2538 393e 1734 cac1
000003f0: e589 b1c1 9663 00bd d6f1 893e 1b6c debd
0.037023928 -0.5436297 0.37885323 0.051167008 -22.448002 -0.38177612 -0.048676252 0.35945255
1.495076 -22.436678 -20.93107 -0.05012517 -0.4999849 0.42933604 0.029375471 -22.599792
-0.33789945 -0.046528175 0.30578524 -1.0037755 -22.631157 -21.1372 -0.015148278 -0.42892423
0.35235193 0.09423032 -22.768972 -0.4052648 -0.021433903 0.32013026 -0.3923579 -22.74319
-21.235294 0.012081808 -0.32405588 0.3486547 0.11451165 -22.941696 -0.3369076 -0.03292691
0.37289307 0.023890004 -22.924286 -21.372349 -0.037815277 -0.3209519 0.4167929 0.042747132
-23.170294 -0.33100238 0.027525803 0.32806066 2.819704 -23.124977 -21.451206 0.050929606
-0.3650259 0.34872907 0.07323765 -23.17984 -0.31963083 0.016996961 0.38704956 -0.35222644
-23.14659 -21.406448 -0.024963375 -0.30323288 0.16347666 0.090106346 -23.357367 -0.37787747
-0.036838945 0.3946825 1.1974328 -23.318707 -21.702557 -0.017064897 -0.2733748 0.20169827
0.10889325 -23.526987 -0.4005033 -0.0074456627 0.36552936 -0.32168674 -23.61497 -21.705437
-0.024649786 -0.22453342 0.24636942 0.15148923 -23.820555 -0.5003941 -0.027191026 0.41519788
-0.29516888 -23.746721 -22.079956 -0.029841568 -0.23587081 0.19670069 0.27322465 -23.906494
-0.4319481 0.0041132513 0.333365 0.36802027 -23.827066 -22.166567 0.059147596 -0.1193339
0.2085103 0.25590515 -24.161928 -0.449879 0.018940458 0.42113665 0.65487313 -24.176292
-22.285591 -0.03640781 -0.12404683 0.310326 0.2218299 -24.341911 -0.48163375 0.024858186
0.36078733 0.7368883 -24.292736 -22.456886 -0.05116723 -0.04834402 0.120014966 0.20558386
-24.508902 -0.51128286 0.007820358 0.32376233 -1.0778536 -24.546854 -22.356825 0.025316833
-0.06236516 0.19985697 0.279799 -24.86617 -0.5344044 0.04838733 0.3311356 0.13968001
-24.877369 -22.46188 -0.040888064 -0.08388447 0.24925485 0.20635773 -24.697931 -0.49561402
0.041697305 0.26542318 -1.1148798 -24.693014 -22.393757 -0.010947773 -0.018455368 0.21151182
0.32232353 -24.933792 -0.48072076 -0.0025265608 0.26840687 0.31754255 -24.89618 -22.435062
0.010940476 0.044704776 -0.05151067 0.2526567 -25.01317 -0.5136324 0.012035995 0.20881793
-1.2358693 -24.951225 -22.606638 -0.037987705 0.10312832 0.054339785 0.3762494 -24.817995
-0.49389938 -0.039290592 0.32659552 -1.0159853 -24.8448 -22.181107 0.03811534 0.06375433
-0.13211748 0.4824252 -24.591703 -0.43907169 0.021523673 0.25244465 0.99043727 -24.582445
-21.744173 0.004471199 0.17415589 -0.089297116 0.33209568 -24.268064 -0.47855735 -0.010278861
0.27062404 -0.12760743 -24.309633 -20.936348 0.05426739 0.21545517 -0.06390616 0.43708977
-24.74591 -0.35454023 -0.011075738 0.28521568 1.1684264 -24.757164 -21.938261 0.027600456
0.22482994 0.017856775 0.3744357 -25.008701 -0.44719723 0.032587856 0.2422032 -1.8561621
-24.934557 -22.052477 0.001688189 0.28291246 -0.04539732 0.37465802 -25.296083 -0.35126764
-0.0009892241 0.23931837 0.18087824 -25.275434 -22.192331 -0.031344973 0.2694232 -0.10860463

network_smart.layer1.0.bias f4 [128]
00000000: 9576 40be e73b 813b 7252 a9bd 3a3a 52bd
00000010: 9f0c cabc 5b28 033e d543 f9ba 9b01 76bb
00000020: a4f5 283e 092e f2bd 6cfb 9c3d b167 27bd
00000030: 3824 a9bd 0f1d 57bd a919 0c3e 0bc3 173d
00000040: 777f c6bd 628f 03bd e39b 8f3d c232 21bd
00000050: facd c8bd a52d f6bc cc5f e1bd ebe9 083d
00000060: 98e0 253e eff9 133e 81e3 f8be d1ab 3ebb
00000070: 962b d63c d98d 54bd 7fc7 883e cf98 a5bd
00000080: 7027 ad3d 162c 06bd 87a6 e2bd 4512 10bc
00000090: 694c 553e 6ce6 503d 70a0 0fbc cf87 a5bd
000000a0: a26a 4bbe 4109 f3bd a07b 38be 587c 26bd
000000b0: b47f da3c 7dc0 1abd e316 63be 9957 c4bd
000000c0: 1533 8fbe 8e1d 363e 6b9b 293c d699 28bc
000000d0: 2e1f 83bd e95c 43be 15af bcbc c1b5 df3b
000000e0: 17af 6abd ed23 8dbd 7a06 af3c be50 2e3d
000000f0: 4f73 57bb 0dab 133e f79d 37bd c9ec bdbe
00000100: bd57 46bd 3b0f 81be 423e 313e e2c6 503d
00000110: 3b50 14bd 085a 0e3e 1c2e 16be a621 20be
00000120: aefb 083d 7cf2 0dbe 8ae8 febd 00a7 0dbd
00000130: 08d0 bc3a 200b 17bd 7a03 2bbe 7c9a 9e3c
00000140: 26db f4bd f016 193d 1ab4 35bc c7a3 6f3c
00000150: 0354 103e 546c f23b ae1c 6cbd 455e 863e
00000160: f8b8 5dbe e8a0 c83c 5094 d0bc e187 26bc
00000170: aa8e 553e 18db 5eba 9c85 cdbd 1e1e 23be
00000180: 1551 4cbe 732e 81bd 7c07 a23d 0db4 7a3c
00000190: 2026 8b3c e268 343d bcd0 aebd fb41 9a3c
000001a0: 1201 07be 2482 823e da8d d6bc 6879 1fbd
000001b0: 43cc 84bd 7136 3abd df80 313e ef3a 053d
000001c0: 8a10 47be 9ff8 2539 9159 f2bc 5045 bbbc
000001d0: 2815 3bbd 5bbb 883c ce19 f33c 95a7 4bbe
000001e0: 3ae0 b33d 9e54 a1bd 3d76 fcbc 4f70 69bd
000001f0: ea73 a0bc 40c2 6a3e d630 e6bd a2ef 13be
-0.18795235 0.0039439085 -0.08267678 -0.05132506 -0.024664221 0.12808363 -0.0019017408 -0.0037537578
0.16499954 -0.11825187 0.076651424 -0.040870372 -0.08258861 -0.052517947 0.13681664 0.03705124
-0.09692281 -0.032119162 0.07012155 -0.039355047 -0.09804912 -0.030051062 -0.110046 0.033426207
0.16198957 0.14450811 -0.48611072 -0.002909411 0.02614383 -0.05189309 0.26714703 -0.080857866
0.08454788 -0.032756887 -0.11066919 -0.008793418 0.2082993 0.051000997 -0.008766279 -0.08082544
-0.19864896 -0.118669994 -0.18015909 -0.040645927 0.026672222 -0.037781227 -0.221767 -0.095870204
-0.2796866 0.17784712 0.010351996 -0.010290584 -0.064024314 -0.19078411 -0.023032704 0.0068270867
-0.057295885 -0.06891618 0.021365393 0.04255747 -0.0032875126 0.1442072 -0.04482838 -0.37094715
-0.048423517 -0.25206932 0.17308906 0.05097092 -0.036209326 0.13901532 -0.14666027 -0.15637836
0.033443145 -0.13862032 -0.12446697 -0.03458309 0.001440526 -0.036875844 -0.16700545 0.019360773
-0.11955862 0.03737539 -0.011090303 0.01462645 0.14094548 0.0073981676 -0.05764454 0.26243797
-0.21652591 0.024490789 -0.025461346 -0.010164232 0.20855203 -0.00085012754 -0.100352496 -0.15929458
-0.19952805 -0.063076876 0.07911584 0.0153017165 0.016985953 0.044045337 -0.08535907 0.01883029
-0.13184002 0.25489914 -0.026190687 -0.03893414 -0.06484272 -0.045462076 0.17334317 0.032526907
-0.19439903 0.00015828245 -0.029583724 -0.0228602 -0.045674473 0.0166909 0.02967539 -0.19888146
0.08783002 -0.078774676 -0.0308181 -0.05699187 -0.019586522 0.22925663 -0.112397835 -0.14446881

network_smart.layer2.0.weight f4 [128, 128]
00000000: e1de 9e3c 8c48 4b3d 161e c43c 38e2 633d
00000010: 579b 2c3e 9665 cdbd 59f1 873d 24e6 5cbe
00000020: b60d 073e 9bc0 813d 28c4 a4be 24c7 bbbe
00000030: 5abf 4dbd c297 163d 608a 2f3e b418 273e
00000040: b4d6 10be 994f a0bd c8af d53d 3840 4d3d
00000050: d969 80be f92a 133e d628 983e a95e 3abc
00000060: c50d b8be 8045 173e e5e1 2d3e 5baf e33e
00000070: bdb3 623d abb3 943e 8be9 32bd 612a d23d
00000080: e111 59bd 6ad0 883a 735e bfbe b938 7cbe
00000090: d176 bfbd 14cc 723e 3c53 a2bd 8e82 753d
000000a0: 449b c1bd ca18 6abd 16fe 6f3e 609b d8bc
000000b0: 0460 4bbe 890b de3c abad a53b 43c4 a0be
000000c0: 0d3e b4be 46ea 973c ba7c 7fba 8110 46ba
000000d0: fbe3 11be a17c b9bc 3b42 8abc 1ef6 3d3d
000000e0: 6627 21bd fbd7 013d 7483 723d f6c2 2bbd
000000f0: f2b8 2abc 5546 88bf b398 ebbe 0333 94be
00000100: ecc7 8abb f7d2 acbd b32c ad3c 201d 283c
00000110: 4c47 7dbb c4e6 413d 9a98 dd3e 28ed 31bf
00000120: d737 8abd 1d68 c33d e5ae ec3d 1d09 30bf
00000130: 5eb1 c2bc 1fa5 263d 142a 843d af79 a9bc
00000140: c4f4 7bbd c54e 4abe cdda ea3d 9fef a8bb
00000150: bafe 113e c0d9 87bd 6d83 943d 714b 92be
00000160: 6651 34be 80af 873d de8a 00bf 962f 0f3d
00000170: 7b81 843d 3b46 71bd fe2b 4ebe bf02 1dbe
00000180: 1532 b6bf 69fa d53e cb4e 0dbf 18a2 f63c
00000190: 251a 5dbd c29d dabd b809 6f3e bc6c e2bb
000001a0: 0cea 2fbd 9f7b f93c e456 6bbd 0bbd a13c
000001b0: 3176 12bd f3e6 78bd e508 97bd 0af9 a53d
000001c0: 1bbe 8a3d 431b 823e 8494 02bd c845 43bd
000001d0: 818d 8fbd 8174 553a 580f b7bb 3da5 7cbe
000001e0: 39ef 6c3e b619 84bd 7313 a9bc cbed fbbb
000001f0: ebf0 4d3d 092d b4bd 08fc 823d 37be 8f3d
00000200: 1527 19bc 66a5 823c 789f 18bd 9bd3 40bd
00000210: 35e4 72be efb5 1ebc 1119 9a3d 9f92 cdbe
00000220: 9a00 8d3e dda2 0bbe 5cde f33d bd0b 1dbe
00000230: 16b4 43bd 9e2b 0bbd 9fad 89be 51e5 b8bd
00000240: 7986 50bf 6766 04bd d6b4 99be b738 9c3d
00000250: 9c3d 683b 8307 e5bd c261 b33d 721b a33d
00000260: eaa6 993d 6adc 89be 90ba 8b3e 77e4 b2be
00000270: 21e3 8bbe 35f0 283e d7df 9b3e 3800 1ebd
00000280: 6729 3bbd d5eb 84bc 3de2 16bf 6103 86bd
00000290: 69fb 2d3d e4dc 14be 2b1c 5cbd 4539 0f3b
000002a0: d1fd f33c 4fa0 a4bc fa65 eebe 3230 c73a
000002b0: 9ca2 15bd 8b36 0dbd a624 b9bd 1505 98bd
000002c0: f44a d83d 4d07 383d ed5d eabc ea81 10bd
000002d0: 0007 e33c d95d 62be 1011 903c 19e5 1abd
000002e0: 63fc ec3d 419f 65bb af81 943b 33ca 4e3c
000002f0: 061f 913d 9da6 07bc eb31 0c3e caa8 8a3d
00000300: da54 dc3c abbe cabd 2517 92bc 7be0 eb3c
00000310: 5c1c af3c 442e 503e 4fcf 953d 54a4 c33d
00000320: 111a b03d 9d31 a93b be31 7bbc 7eb0 da3d
00000330: 7ff5 59bd 1b58 b73c 9f23 8d3d 9ffb 813c
00000340: dd99 cf3d 5cb0 553e c90d cf3d bf16 4cbc
00000350: 384b 553d 4c9f ce3b 3a84 3abd 35a9 eebd
00000360: ad3e bd3c fee1 843d 3ded b03e 4cc8 d5bc
00000370: af1e 9ebe b159 18bb 5640 20bd b740 b4bd
00000380: d639 983d 93c3 ae3e be6a a7bd 8139 233c
00000390: a5c9 fabc 29d1 5abb ff9d f03e 6b2d 053e
000003a0: f9bc 3fbd 1339 093e d62b 713c 8d05 61bd
000003b0: 82b7 bebd 2e69 aa3d 03af 983d e8e2 a5bd
000003c0: 4b67 a5bd 5a86 9dbd e9ad a13d 18e6 313d
000003d0: bb21 b2bd 6b38 343c 2c4e 86bd a0aa a33d
000003e0: 9aa2 363e 3943 99bd d2d8 863d 39e4 96bd
000003f0: e593 46bc 3e97 c2bd 5bcf 37be 10bb b5bd
0.019393386 0.049629733 0.023940127 0.05563566 0.16856132 -0.100291416 0.0663783 -0.21572167
0.13188824 0.06335565 -0.32180905 -0.3667537 -0.050231315 0.03676582 0.1714263 0.16318017
-0.14144403 -0.07827682 0.10433918 0.050110072 -0.25080755 0.14371862 0.29718655 -0.011375108
-0.35948005 0.14772606 0.16980703 0.44469723 0.055347193 0.29043326 -0.043679755 0.102619894
-0.052995566 0.0010438089 -0.37376747 -0.24631013 -0.09348834 0.23710662 -0.07926032 0.05993896
-0.09453443 -0.057152547 0.2343677 -0.026441276 -0.19860846 0.02710511 0.005056103 -0.31399736
-0.3520359 0.018544327 -0.0009746064 -0.000755556 -0.14247124 -0.022642436 -0.016877284 0.046377294
-0.039344214 0.031700116 0.059207395 -0.041933976 -0.010420071 -1.0646464 -0.46014938 -0.2894517
-0.0042352583 -0.08438676 0.021139478 0.01026085 -0.0038647233 0.047339216 0.43280488 -0.69502497
-0.06748932 0.095413424 0.11556796 -0.68763906 -0.023766216 0.040684815 0.06453338 -0.020687906
-0.061512724 -0.1975661 0.11467514 -0.005155518 0.14257327 -0.066333294 0.0725163 -0.28573182
-0.17609176 0.06625271 -0.50211895 0.03495749 0.06470009 -0.058904868 -0.20133969 -0.15333079
-1.4234034 0.4179261 -0.55198354 0.03010659 -0.05398001 -0.10674621 0.23343551 -0.006909935
-0.042947814 0.030454455 -0.057455912 0.019743463 -0.035757247 -0.060767125 -0.07374743 0.08104141
0.06774541 0.25411424 -0.031879917 -0.04767397 -0.070094116 0.00081426656 -0.005586546 -0.24672408
0.23138131 -0.064502165 -0.020639157 -0.0076882592 0.050278585 -0.08797652 0.063957274 0.070187025
-0.009347697 0.015948009 -0.037261456 -0.047076803 -0.23719867 -0.009686931 0.07524312 -0.40150926
0.2753952 -0.13636346 0.11907646 -0.15336509 -0.047779165 -0.033977143 -0.26890275 -0.09028114
-0.8145519 -0.03232422 -0.3002078 0.07628005 0.0035437113 -0.11183073 0.0875888 0.07964219
0.075025395 -0.26925975 0.27290773 -0.3493993 -0.27321723 0.16497882 0.30444214 -0.038574427
-0.04569378 -0.016225735 -0.5893896 -0.06543613 0.04247609 -0.14537388 -0.0537378 0.0021854204
0.029784115 -0.020095972 -0.46562177 0.0015196858 -0.03653203 -0.034475844 -0.09040193 -0.07422844
0.10561171 0.044928838 -0.02860924 -0.035280146 0.027713299 -0.22106113 0.017586261 -0.03781614
0.115715764 -0.003503755 0.004532061 0.01262145 0.070859954 -0.00827947 0.13690917 0.06770475
0.02689593 -0.09899648 -0.017833302 0.028793564 0.021375827 0.20330149 0.073149316 0.095528275
0.08598722 0.005163385 -0.015331684 0.106781945 -0.05321264 0.02238088 0.0689156 0.015867053
0.10136769 0.20868057 0.10110051 -0.012456595 0.052073687 0.0063056108 -0.045536257 -0.116533674
0.023101175 0.06488417 0.34555998 -0.026096486 -0.30882785 -0.002324682 -0.039123856 -0.08801406
0.07432906 0.34133586 -0.08174656 0.0099624405 -0.03061373 -0.003338883 0.4699554 0.13005607
-0.046811078 0.13400678 0.014719924 -0.054936934 -0.09312345 0.08320843 0.07455256 -0.080999196
-0.08076342 -0.07691641 0.07894499 0.043432325 -0.0869784 0.010999779 -0.06557879 0.079915285
0.17835465 -0.07483525 0.06584324 -0.07367749 -0.012120222 -0.095015034 -0.17950194 -0.0887357

network_smart.layer2.0.bias f4 [128]
00000000: 75dc b6bc e9ff c4bc 4e1f ccbd 7bea 5fbd
00000010: 2898 c4bd a055 7ebc 2e10 9b3d 7c18 8fbc
00000020: 4a9a e43d d552 373d 464e 543d 0681 bc3d
00000030: e76f 7e3e 4ebf 19bc 3c04 13be 771a 6b3d
00000040: abc9 fb3d 9abf 5fbe 0380 9839 546a 483d
00000050: 2a78 a6bd 6838 70bd 5264 d13d f6c7 ce3d
00000060: 8962 253e 4f7b ebbb 24ba 583d 745b 203d
00000070: ac7e 3b3d 2b32 113e 7f2f 923d b032 97bd
00000080: 9cda e13c a295 2cbd b846 89bd 54e5 333e
00000090: f25e acbd ee80 133e 202c 253e ffd2 e0bd
000000a0: 74c2 e1be 9f46 873d e350 a6be 1550 7f3d
000000b0: 6035 2b3a ccb1 383e e35d ddbc 393f 9cbc
000000c0: 595d 1c3e ff90 91bb 610f 663c c11f 833c
000000d0: 56dc 0e3e 026a 18be 40cb c13c c14b 313e
000000e0: bd0b d43c b91f 823d 375d d63d 10b6 9dbe
000000f0: 4ecb 4fbc 23ef 1b3e f672 7bbe 0b9e 353e
00000100: bd65 493e ba55 f1bd 5628 9fbc 9eb6 433e
00000110: b834 81bd 73d9 70bd 37b5 02be 8574 d13d
00000120: d128 eebd 60e3 5ebd c64b b9bd 7d56 8d3d
00000130: 1d61 5b3d 661c 00be 3d1f 4e3e 5293 1bbe
00000140: 2a89 3abd 7627 4bbd fcdb 10be 7bf2 0e3d
00000150: 9a49 babd 07a5 5fbd 5a6c f03d c74c 30be
00000160: 9579 e33d 30a7 c23d 375f c1bc c12e a23c
00000170: 9e78 97bd 5fd0 c23d 4042 b53d b09a 563c
00000180: 0617 1e3d b20b 18bd 47bd a0bd fb92 823e
00000190: e70e d3bd 509c ca3d 898e 253e 4b2f 1cbd
000001a0: cdfd b8bd 6815 f93d 3c35 31be 28d5 8b3d
000001b0: 4b7d 03be 206d 2e3e 1a34 d1bd c77b 423e
000001c0: de7c aabd e7fb 813d de57 1f3b 357d 423e
000001d0: 12da 48bd 11c5 193d c191 763e 1830 2b3e
000001e0: 0a18 84bc 347a 9e3d 1950 163e e2e8 2dbe
000001f0: 5c70 e0bd 278c 1cbb 0d88 e43c e3c6 9a3d
-0.022321919 -0.024047809 -0.099669084 -0.054666977 -0.09599334 -0.015523344 0.075714454 -0.01746773
0.11162241 0.04475673 0.05183246 0.09204297 0.24847375 -0.0093839895 -0.14357084 0.057398286
0.122943245 -0.21850434 0.00029087075 0.048929527 -0.08128388 -0.058647543 0.10224213 0.10096733
0.1615087 -0.0071863304 0.052911893 0.039149716 0.0457751 0.14179294 0.071379654 -0.07382715
0.027570061 -0.04213489 -0.06702942 0.1756795 -0.08416547 0.14404652 0.16130114 -0.10977744
-0.44093668 0.06605267 -0.32483587 0.06233223 0.0006531086 0.18036574 -0.027022308 -0.019073116
0.15269984 -0.0044423337 0.014041753 0.016006352 0.13951239 -0.14884189 0.023656487 0.17314054
0.025884503 0.06353707 0.10466998 -0.30802965 -0.012682749 0.15227942 -0.24555573 0.1773607
0.19667716 -0.11783929 -0.019428413 0.19112632 -0.063088834 -0.058801126 -0.1276444 0.102273025
-0.11628879 -0.05441606 -0.09047656 0.06901262 0.05355941 -0.12510833 0.20129104 -0.15192917
-0.045540966 -0.04959818 -0.14146417 0.034899216 -0.0909607 -0.05460074 0.117394164 -0.17216788
0.11107174 0.09504545 -0.023604972 0.019797685 -0.07396053 0.095124 0.08850527 0.013098404
0.038596176 -0.03712053 -0.07848602 0.25502762 -0.10305577 0.098930955 0.16167654 -0.03813104
-0.09032784 0.12162286 -0.17305464 0.06827766 -0.12840764 0.17033815 -0.10215016 0.1899253
-0.08324598 0.06346875 0.0024313848 0.18993075 -0.049036093 0.037541453 0.24079038 0.16717565
-0.016124744 0.07738152 0.14678992 -0.16983369 -0.10958931 -0.0023887248 0.027896905 0.07557466

network_smart.layer3.0.weight f4 [48, 128]
00000000: b537 8ebe a71c 76bd 95c2 7dbe dc24 713d
00000010: 95ee e9bd 2dca 7f3c 50dc 43be 7c6a 02bf
00000020: 6cd2 9e3d 0ab6 d4bc 5b55 7e3e 55fa 8b3c
00000030: 40bd cdbd fa5d 423e d18c 823e d73d 063e
00000040: 2261 8c3d e573 c1bd 0b94 1c3d dcf3 833c
00000050: 620a 2a3e 9536 e33c 7353 123e 88f5 403e
00000060: 3014 a3be 9ab2 bd3c f20a 6fbd 873c 13bd
00000070: 7217 d9bd b130 2bbd a036 373e 247a 83bd
00000080: 5c30 c03c 3661 8cba 5b6d df3c 8e78 3ebd
00000090: bb43 f1bd 254d a7bd 0b79 b9be f855 27be
000000a0: 8c33 93bf fe64 9abe dd14 f93b e6bf 2e3c
000000b0: dd8b d2bf d31c 4f3d 83d1 fb3d 52ba a63d
000000c0: 7cce 98bd a677 23bd b764 0f3d 9666 94be
000000d0: 23a5 cbbd 4d8d 9b3e 0232 553d 2f6b 93bd
000000e0: 5af4 1cbd 6979 0d3d fbfa a53c fcc8 d8bd
000000f0: 304e e1bc 7e11 883d beb2 94be 2069 febd
00000100: 511c b13d 39f1 0fbe 38f3 2dba 8f72 febd
00000110: a630 14bd 1d95 b1bd 3240 cabe 2bce c83c
00000120: 3ce3 a33d 3532 813e b950 b33d e551 95bd
00000130: b470 683d d4cb ef3d 2df9 3bbd a5b2 d9bc
00000140: cf83 483d a54f 903b 644a 9f3b e068 2dbd
00000150: 4e55 3fbd adcf c33c 2679 233e 4d79 61bb
00000160: 7566 f2bc eb42 c23d 1911 223e a562 68bc
00000170: 5b4f 803d 9144 633e d627 3f3e 680f 763e
00000180: be3e d53d 7b64 693d 4ea4 173d 7a5c 403c
00000190: fcfe 05bc 4344 c13d cea1 10be 6c90 e1bc
000001a0: b3ff 803c dff4 abbc e025 353e a43b 973e
000001b0: 5128 0cbe 31ce ac3c c394 4abd 194d 9b3d
000001c0: 4359 143d 2e95 bcbd 8dfd 303e e94d 2bbd
000001d0: 26b3 583e 11fa 483d 6cd6 04be bb28 a23c
000001e0: 86ad 6bbd 8b09 2dbc ad66 15be 00df 78be
000001f0: 6e37 bc3d 8248 2a3c 6145 25bf e9e6 203e
00000200: 8766 1fbf 6644 b1be d825 03bf e977 8b3d
00000210: 8780 f23d 1d1c 6cbf 49a6 db3c bf5f 013d
00000220: 65b4 e6bd f17c 7a3d 1666 243f cb54 723e
00000230: ed38 d83d f11a fe3d ee30 6cbf 2d40 9fbe
00000240: 7f24 02bf b4c6 0a3e 84a3 3a3e f31c 933c
00000250: 011f 82be 93bc 7ebd a69d eb3d 8309 813d
00000260: d50b 963d 2ece 293f 6ca2 1dbf d892 423e
00000270: e742 133e 3a11 f0bd 135e 803b b8af 8fbd
00000280: 7517 b5bd 0d5b 06bc 79ec fabe f8c4 f23d
00000290: b9f7 543d 2b73 66bc 92a6 8b3c 7cb6 abbf
000002a0: 3a0c 22bf f17f 103e eec7 1ebf 961c d13b
000002b0: 4313 af3e b5b6 ff3d 4517 87be 51d8 fcbc
000002c0: 2d6a 3c3e bd00 50be 3c8c 0eba 698f d3bd
000002d0: be58 ee3c 96dc 7ebe 443f 76bd a38a af3d
000002e0: c96d 743e d809 b6bd c9bb 54bf 10f0 42be
000002f0: 79f6 33bf d103 96be a1bf fcbc b69d 45bc
00000300: d700 bcbc 3f9f 59bf 30ca b13d 0a12 093e
00000310: 33d2 a93d b1cc 873e 1677 67bf b9a6 8ebe
00000320: b57a d8bb eb6d 953d f70b 60bc 80e3 ffbc
00000330: 7e5f 2ebc 16c9 4fbe 6711 423b 04b3 d53b
00000340: 80c8 0b3c d183 44bd 74dc 43bd d294 0bbe
00000350: 3827 fcbe fe15 9d3e e83c a23c 21e5 4cbe
00000360: ee10 bb3e 1544 9cbd 4a0e 233d 50cc 00be
00000370: bcaa a13d 0be7 a6bf c8ae 853d 509a 82bd
00000380: e131 15be f7a7 3f3d e96a 7d3e 7c23 1c3e
00000390: 71fc 16be 5887 d43d 93ed 073d 7f7e e4be
000003a0: 691d 9b3d 47f6 b7bd 2748 1dbe fe58 aa3d
000003b0: 5faf 4e3d 28b4 b7be e84d 86be 0000 9c3d
000003c0: 97b9 e53c 5ca2 823e 5b24 85bb 9f7c 6b3d
000003d0: 243c 933e d7e9 b9be e343 633e f756 dd3e
000003e0: 0b8c de3d 9af0 cbbd 7975 61be c70a 12be
000003f0: d4e9 713e 0bb2 a8be 15fe 933d d3f2 febd
-0.27776876 -0.06008592 -0.24781258 0.058873042 -0.11422459 0.015612167 -0.19127011 -0.5094373
0.077549785 -0.02596571 0.24837248 0.017087141 -0.10045862 0.18981162 0.2549806 0.13109528
0.06854464 -0.09445933 0.038227122 0.016107492 0.16605523 0.027735988 0.14289646 0.18843663
-0.3185134 0.023156453 -0.058360048 -0.035946395 -0.10600175 -0.041794483 0.17891932 -0.06419781
0.02346056 -0.0010710123 0.027273824 -0.04650169 -0.11780497 -0.08169011 -0.3622516 -0.16341388
-1.1500106 -0.30155176 0.007601364 0.010665869 -1.6448933 0.0505646 0.122958206 0.081410065
-0.07461259 -0.039909028 0.03500816 -0.28984517 -0.09943607 0.3038124 0.052049644 -0.07198178
-0.03831897 0.034539614 0.020261278 -0.1058521 -0.027503103 0.06643961 -0.2904262 -0.12422395
0.08647979 -0.14056863 -0.00066356687 -0.12424194 -0.036179207 -0.08671019 -0.39502102 0.024512371
0.08002326 0.25233617 0.08755631 -0.07291011 0.056748107 0.11708799 -0.04589193 -0.026574442
0.048953827 0.0044040256 0.004861163 -0.042336345 -0.046712212 0.023902738 0.15964183 -0.0034404576
-0.029589871 0.0948542 0.15826835 -0.014183675 0.06265136 0.22194125 0.1866754 0.24029315
0.10412358 0.05698059 0.037021928 0.011740798 -0.008178469 0.09436848 -0.14124224 -0.027534686
0.015746927 -0.020990787 0.1769023 0.2953769 -0.13687254 0.021094413 -0.049458276 0.075830646
0.03621794 -0.09208141 0.17284222 -0.041822348 0.2116209 0.049066607 -0.1297242 0.019794812
-0.05753853 -0.010561357 -0.14589949 -0.24303818 0.0919026 0.010393264 -0.6455899 0.15713085
-0.6226582 -0.34622496 -0.5122962 0.068099804 0.11840921 -0.922304 0.02681269 0.03158545
-0.11264876 0.06115431 0.6421827 0.23665158 0.10557733 0.124074824 -0.9226216 -0.3110365
-0.5083694 0.13552362 0.18226439 0.01795814 -0.2541428 -0.062191557 0.115046784 0.06300642
0.073264755 0.6633023 -0.6157596 0.19001329 0.1438099 -0.11722036 0.0039174645 -0.070159376
-0.08842365 -0.008200419 -0.4900854 0.11853975 0.05199406 -0.014065544 0.0170472 -1.3415065
-0.63299906 0.14111306 -0.6202382 0.0063815815 0.34194383 0.124860205 -0.2638494 -0.030864866
0.18399878 -0.20312782 -0.00054377667 -0.10330088 0.02909505 -0.24888834 -0.06011893 0.08571365
0.23870005 -0.08888596 -0.8309904 -0.19036889 -0.7029796 -0.29299787 -0.030853095 -0.012061527
-0.02294962 -0.85008615 0.08681142 0.13385788 0.082920454 0.26523355 -0.90416086 -0.27861574
-0.0066064247 0.07296356 -0.013674728 -0.03123641 -0.010642884 -0.20291552 0.0029612423 0.0065215845
0.00853169 -0.047977272 -0.047817662 -0.13630989 -0.49248672 0.3068084 0.019804433 -0.2000928
0.36536354 -0.07630173 0.03980855 -0.12577939 0.07893893 -1.3039259 0.065274775 -0.06377089
-0.14569809 0.046791043 0.24747814 0.15247911 -0.14744736 0.10377377 0.033185553 -0.4462776
0.07573969 -0.089825206 -0.15359555 0.08317755 0.050460216 -0.35879636 -0.26231313 0.076171875
0.028042598 0.25514495 -0.004063172 0.057491895 0.2875682 -0.36311218 0.22193865 0.4323041
0.10866555 -0.099580005 -0.22017469 -0.14261924 0.23624355 -0.32948336 0.07226197 -0.12448659

network_smart.layer3.0.bias f4 [48]
00000000: cbd7 a23d d8ee a23d 9b95 273c 2068 913c
00000010: bfb4 d9bd 379d edbc ac0c 283d de1e 6abd
00000020: db2c 203d 82a9 f5ba 3b4a 573d 78b5 49bd
00000030: 1c11 ac3d 3d8d 83bd 263a 1a3d d6f9 30bd
00000040: 5303 a3bd 3e7e 9cbc 6e25 89bd b444 b4bd
00000050: 3204 a9bb 9314 a73b 7ead e73c 0a03 413d
00000060: 5395 b9bc c9d6 1abe d3fd f13d f63a 413d
00000070: 3a8e 2abd 58ff 7d3c f2c4 ef3c 1049 5bbd
00000080: 21da 31bd f221 b43d 788e 61bd 8393 a93b
00000090: b67a c33d 3bf7 183d 3fbd f6bb 25fb 103d
000000a0: 684b c7bd 8c1a b5bd 9faf 013d 241f 4d3d
000000b0: a0d8 e03d cb60 923d dc71 cb3c e1a6 843d
0.079513155 0.07955712 0.01022854 0.017749846 -0.10630178 -0.02900563 0.04102771 -0.057158343
0.039105278 -0.0018742534 0.052561026 -0.049245328 0.08401701 -0.064234234 0.03765311 -0.043207012
-0.079596184 -0.019103166 -0.06696592 -0.088021666 -0.005157971 0.005098888 0.02828097 0.04712204
-0.022654211 -0.15120997 0.11815991 0.04717537 -0.041639544 0.015502773 0.029268716 -0.053536475
-0.043420915 0.08795537 -0.05506751 0.0051750555 0.0954489 0.037345152 -0.007529884 0.03539576
-0.097311795 -0.08842954 0.031661626 0.050078526 0.10978818 0.07147368 0.024834566 0.06477142

fc_smart.weight f4 [64, 48]
00000000: 9ee8 eabd 69de 943e c828 8c3d 4656 d43e
00000010: 231d 9dbe 2ea7 493c c40c 92be fb57 f6bc
00000020: 0fec 763e e021 08be e333 5a3e 6571 38bd
00000030: 5a8a f13d 18e6 863e fe43 00be 4d1a 8ebe
00000040: 8e4b 993d 88b3 a93c 8359 10bd 6eef a83e
00000050: ca49 c9be c58a b43c fbbe a1bc 1289 723e
00000060: fe24 8fbe e1b3 d03e 8980 5f3e c960 d5bd
00000070: 71a2 b53d 5847 a93d 5921 9b3f 6969 af3d
00000080: a344 febd 16b0 db3d 77f7 73be 6b1a 023e
00000090: 0d8f 5ebf 2d0c fa3c 9fd3 7ebe 4d4b 123e
000000a0: b6f7 be3d 9612 e63c 71a6 44bf c23f 503e
000000b0: 3a98 12be 8b10 773e 9bf7 803d b3b2 23be
000000c0: 7e48 703e 4a61 68bf 24c9 683e 4adc 0c3f
000000d0: 54dc 793d 4cdc f93c 9ceb 92be 2f05 dd3d
000000e0: 3ea0 343e ed4b 08be 5568 41be 60d1 0bbd
000000f0: 8d44 a73c c480 863e a99f 2fbc afc2 71be
00000100: d097 d3bd 447f 3dbd 1f16 123e 644e db3e
00000110: 0f3e 593d 0bc1 3e3d 6a91 d13d 431e 473e
00000120: c9d0 e2bc ae10 43bf 7e78 133d 528a 7bbd
00000130: 1021 ec3d b720 103e 6a37 f23f db2d ce3d
00000140: b57f 0d3e 75cf 0cbe f777 9abe f4fa f3bd
00000150: 08da f03f 94aa e83b 8ae2 143f 346a 953e
00000160: a8ee de3d 4770 0dbc 42e3 963e 697f 9cbc
00000170: 7832 67bd 30e4 c43e ddb6 e83e b34b 09be
00000180: d3ba 96bd fec7 523f 25d4 c0be bd21 98bf
00000190: a8ec 9a3e 10c5 34bd ebdf 313f c476 02be
000001a0: f0a4 05bf fa07 9c3e fb7c 93ba 9b6d e1bd
000001b0: c178 35be 4714 28bf cb7a 81bd 6fc8 1f3f
000001c0: d56e 043e 1e91 5abd 31fe 093e 462a 6bbf
000001d0: a87e bf3e 89c8 30bd a647 eabd 6b0c 0cbf
000001e0: 0607 bf3e edf6 fd3e 6fa1 9cbe 7019 533e
000001f0: 627f c0bd 8f34 8fbe f460 6bbf 84c1 c23d
00000200: 7ec9 1bbc 7dc7 6a3d ab77 303f 5204 143d
00000210: e9ca b7bf 1780 1bbd 025d e5be 1ea0 0abf
00000220: 80a0 fdbc 35c9 9c3c af12 083f d2a8 5bbe
00000230: 6551 833e 1aa1 48bf 1389 26bf edc9 bc3e
00000240: 6953 55be 2ed6 783f 7e4f acbe d346 79bf
00000250: 114a 013e 2c60 38bd 1ff3 0d3f 4351 123e
00000260: a852 c6be 64a8 813e ec17 d33d 5bdc 003e
00000270: cf30 d4bd bce3 02bf 2334 4c3d faea f63e
00000280: 17c3 aa3d 15bb 083d 9618 c8bc 3809 43bf
00000290: 3a70 3d3e 57c2 95bd ee79 f2bd bfd9 cfbe
000002a0: 7129 603e 1f44 353f 499b 41be 24df 173e
000002b0: 1651 dfbd 5879 70be 3bfa 01c0 d893 03be
000002c0: b965 19bd 2afa dd3d 62df 0b3f 03a1 983d
000002d0: 85b7 ecbf c85d dbbc 4199 14bf b65c eebe
000002e0: 3355 35bd 2628 0cbc 7604 023e 1aff ddbd
000002f0: 8775 2c3e 97b3 26bf c427 1fbf d3cb 8d3e
00000300: e93e a03d 2054 42bf ccf0 c83e 520a a83f
00000310: bcc4 bdbe b1f6 843d eb80 45bf 1685 07bb
00000320: b8e4 133f d9ae afbe b312 6e3d f7d6 653d
00000330: 8229 573e c3d7 373f c0be 38bd 555f 32bf
00000340: 72c7 a33d ed82 133d cf86 683c 4648 803f
00000350: f653 f5be fdb0 e23c 14ef e63d d654 1b3f
00000360: 26d5 e3be c145 cfbe 8993 ba3e dc04 6cbe
00000370: 0993 fbbd cfa8 9d3e 5151 d03f 86a3 3d3d
00000380: 6d92 aabd f9be babc 8d4e 40bf 0ef9 0bbb
00000390: 0a00 9f3f 19d9 553d 33c3 cc3e 251b 143f
000003a0: 8f3d 0f3e 7f79 03be e5f8 37bf 0866 853e
000003b0: ce15 95be 6053 593f 33b4 2b3f 0eae d1be
000003c0: 7cc7 c6bd 13d2 bf3c ce3a 473e 55b8 513f
000003d0: 123f d6be 7efc ec3c 6d46 07bf 152c 9abd
000003e0: 0b52 da3e 0215 74be 2ba7 613e b898 d23d
000003f0: 78b0 343e b7b6 fc3e 45dc a7bd 236f fcbe
-0.114701495 0.29075935 0.06843716 0.4147207 -0.30686292 0.012307925 -0.28525364 -0.03007125
0.24113487 -0.13294172 0.21308856 -0.045030016 0.117939666 0.26347423 -0.12525937 -0.2775444
0.07485114 0.02071549 -0.035241615 0.3299517 -0.3931411 0.022038827 -0.019744387 0.236851
-0.2795791 0.40762237 0.21826376 -0.10418851 0.08868874 0.08265561 1.2119552 0.08565027
-0.12415435 0.10726945 -0.23824869 0.1270539 -0.8693703 0.030523384 -0.24885415 0.14286537
0.09324591 0.028085034 -0.7681647 0.20336822 -0.14315882 0.24127404 0.06297227 -0.15986137
0.23465154 -0.9077345 0.22732979 0.55023634 0.061001137 0.030500554 -0.2869538 0.10792004
0.17639253 -0.13310213 -0.18887456 -0.034135222 0.02041843 0.26270115 -0.010719218 -0.23609422
-0.1033169 -0.046263948 0.14266251 0.42833245 0.0530377 0.04657082 0.10232814 0.19445138
-0.027687447 -0.76197326 0.036003582 -0.06141121 0.11529744 0.1407498 1.8923161 0.1006734
0.13818248 -0.13751014 -0.3016965 -0.119131 1.8816538 0.0071004126 0.5815817 0.2918259
0.10885364 -0.008632726 0.2947026 -0.019103723 -0.056444615 0.38455343 0.45452014 -0.13407783
-0.07359853 0.82336414 -0.37661853 -1.1885296 0.3025868 -0.044133246 0.69482297 -0.12740618
-0.522048 0.30474836 -0.0011252457 -0.11007234 -0.17721845 -0.6565594 -0.06322249 0.6241521
0.12932904 -0.05336105 0.13475873 -0.9186138 0.3740132 -0.043159995 -0.11439447 -0.5470645
0.37310046 0.49602452 -0.30591914 0.20615172 -0.09399296 -0.27969787 -0.91944814 0.095095664
-0.009508489 0.057319153 0.689326 0.036136933 -1.4358798 -0.037963953 -0.44797522 -0.5415057
-0.030960321 0.019138912 0.5315351 -0.21451119 0.25648037 -0.7837082 -0.6505291 0.36872807
-0.208326 0.9720181 -0.33654398 -0.97373694 0.1262591 -0.04501359 0.554491 0.14288811
-0.38734937 0.25323784 0.10307297 0.12584059 -0.10360872 -0.51128745 0.04985441 0.48226148
0.08337992 0.03338154 -0.024425786 -0.7618594 0.18499842 -0.07312458 -0.118396625 -0.40595815
0.21890809 0.7080707 -0.18906893 0.14831215 -0.10904138 -0.23483789 -2.0308979 -0.12849367
-0.037450526 0.10838731 0.5463773 0.074525855 -1.8493506 -0.026778117 -0.58046347 -0.46555108
-0.044270705 -0.008554494 0.12697014 -0.108396724 0.16841708 -0.6511778 -0.6217005 0.27694568
0.07824499 -0.75909615 0.39246213 1.312815 -0.3706416 0.06492365 -0.7714984 -0.002067869
0.5777087 -0.34313086 0.0581233 0.05611321 0.21011928 0.718136 -0.04510379 -0.69676715
0.079970255 0.036013532 0.014192297 1.0022056 -0.4791562 0.027672285 0.11276069 0.60676324
-0.44498557 -0.40482906 0.36440685 -0.23048729 -0.12283904 0.30792853 1.6274816 0.046298526
-0.0832871 -0.022796141 -0.7511986 -0.0021358165 1.2421887 0.052208994 0.39992675 0.5785392
0.13988326 -0.12839316 -0.7186416 0.26054406 -0.29118198 0.84892845 0.6707184 -0.40953106
-0.097060174 0.0234156 0.19456026 0.81921893 -0.41844994 0.028928991 -0.52841836 -0.07527939
0.4264072 -0.23836139 0.22036426 0.10283035 0.17645442 0.4935815 -0.0819631 -0.4930354

fc_smart.bias f4 [64]
00000000: 2b70 bebd 0c5a 3e3d 7166 0c3e d045 51b9
00000010: 609c 14bb efbd d13d 8020 3cbd 19e8 b73c
00000020: bb84 1b3d a120 8dbd 4a76 f6ba d252 78bd
00000030: c0a9 93bd 1b50 6f3d 248e 973b a139 efbc
00000040: 4cfb 84bd 277d 4d3d a694 943d eb16 dfbd
00000050: dea7 9e3d 6635 60bd a27d 5d3d ed14 4c3d
00000060: daf1 793d 7c00 e5bd eb55 463d 2166 593d
00000070: 3a49 c7bd 6774 8b3d a097 b33d ff67 a43d
00000080: 9f00 15bd 3f17 e73d 7ce0 b03d 32e9 ccbc
00000090: e3bb 753c c0d8 b0bd 8b47 cf3c 031b 9c3c
000000a0: 7a4e efbd 3ba0 0f3d abc6 da3d 4cdd 073e
000000b0: e3b2 dcbc 6cb6 133e 622e 78bd 66ce cbbd
000000c0: 8360 7ebb ba45 343b f78d 9bbd 0d4e 9f3c
000000d0: 16f6 203d 3101 803d a3ec 7cbd d883 8bbd
000000e0: 0cdb 1dbd e8d1 80bd 3e9a 2cbd b22a 01bc
000000f0: 1ef9 783d 931f 773d 53a3 aabd 9adb 68bd
-0.09298738 0.046472594 0.13710953 -0.000199578 -0.0022676215 0.10241305 -0.045929432 0.02244954
0.03796838 -0.06890989 -0.0018803563 -0.06062586 -0.072101116 0.058426004 0.004625099 -0.029202284
-0.064932436 0.050168183 0.07254915 -0.10893043 0.07746862 -0.054738425 0.05407489 0.049824644
0.061021663 -0.11181733 0.04842178 0.053075913 -0.09730764 0.06809311 0.087691545 0.08027648
-0.036377545 0.11283731 0.08636567 -0.02501354 0.014998409 -0.08635092 0.025302669 0.019055849
-0.1168489 0.035064917 0.10682424 0.13268012 -0.026940769 0.14425057 -0.06059111 -0.09951477
-0.003881485 0.002750738 -0.07595437 0.019446397 0.039297186 0.06250227 -0.06174911 -0.068122566
-0.038538978 -0.062900364 -0.042139284 -0.0078837145 0.06078445 0.060332846 -0.08331933 -0.056850053

network_aging.lstm.weight_ih_l0 f4 [128, 5]
00000000: 4f69 593e 978f 5a3e 3773 5bbd 08c4 a3bd
00000010: 855b 503e 5ac9 b8bd edfe bdbd d3c7 afbd
00000020: c344 303e d744 29bc 5546 063e 33c4 01be
00000030: 81d4 163e 2bdc fabc 3d72 f3bd 7aa5 93bd
00000040: 2378 943d e4e2 e5bd b564 463e d02e 283e
00000050: 2e48 0dbe 278d 15be 5bbe adbd 78ff 8c3d
00000060: 07ec ac3d 7af3 8c3d ba95 b7bd deee 283d
00000070: 5511 f2bc ea8a db3d 77a6 83bd d22e 2a3e
00000080: 7085 3b3e 8f84 4a3e d563 1dbd 7848 dbbd
00000090: d2f5 00be 0f18 1d3e f563 3f3e 40b3 81bd
000000a0: 0930 fcbc 4385 513e 82a0 ff3c bab9 253d
000000b0: 4e57 2a3d 3eaa 3abd 5849 463e 59f9 1e3e
000000c0: b144 303d 57ba c63d 40f7 523e 036c 52bd
000000d0: ccd0 b2ba fdd0 5c3b 5491 403e 49d0 0e3e
000000e0: 787b db3d c771 ccbc f092 06be f94f bb3c
000000f0: a388 273e c66a 7cbd 1921 aabb a921 21bd
00000100: 4c31 3e3e 1a9f b93d 4f6a 283d b1f5 243e
00000110: 0a51 23bd 9d36 c83d 59b6 95bd e2c2 113e
00000120: ebca 383e 17fa bb3a 8c90 0bbd 90e9 8fbd
00000130: 21d4 293e f417 c63d a8f7 ccbc 251e 0abe
00000140: ce78 773e 8659 bb3d 3265 533e 30ae 1e3e
00000150: 3bbe c9bd 712c fd3d 0bfe 5d3e 5c8f 87bd
00000160: e679 293e 3e33 1d3d 4be8 28bd 05f9 573e
00000170: c088 1d3e ff07 fd3d 824c 79bd 6fa3 5c3d
00000180: 5963 83bd c708 323d faa9 25bd 61ea 063c
00000190: e57f a2bd 2d85 0a3c f4a9 3d3e f7d9 eebd
000001a0: 790d a63d 2102 8cbc cce9 5a3e 7247 083e
000001b0: 83e5 59bd ae80 0d3e 4363 ff3d d07c 4b3e
000001c0: 4b5d 433e a82e d33c 8d8a 213d 0c33 07bd
000001d0: b34c 07be 3d37 6c3c dc11 9b3d 78c3 a13d
000001e0: 0e0c 0e3e da79 c43c 5ac6 0cbd abc5 503e
000001f0: 643f 3a3e b9ea 2d3e 29aa ec3d f177 27bd
00000200: f089 b13c f6db 1f3e 11d3 033e a528 a83d
00000210: fabf 1d3e 4d22 2a3e 70ab 243e 8d7e ee3d
00000220: 76c4 203e 1632 8fbd 4062 093e 967d 6dbc
00000230: e39d 333d 9f98 443e 1796 413e 96ed 713d
00000240: 1013 0c3e 01f4 413e 627f 8d3b 8f13 16bc
00000250: ae64 dd3d c244 5a3b 0169 84bd 6a45 dfbd
00000260: db36 5d3e 67cf 293e 8bd0 35bd 345c 5d3e
00000270: 6782 6dbd 04bc afbd 7b42 eabc 875c 313d
00000280: 10b3 0f3e 4997 2a3e 9a92 043d c176 0d3e
00000290: d540 b8bd 3999 313e 6730 5a3e 49d9 2fbc
000002a0: 7208 193e 8a9f 023e fe99 943d 8bbc 8dbb
000002b0: eeee 8ebd b8ec 04be 698d 9a3d cd12 103e
000002c0: a45b c9bd ef43 8ebd 43c3 91bc ae82 553d
000002d0: 12f5 493e 49cf cd3d 86bf d1bd 6b65 203e
000002e0: 9a0e c9bd 5775 61bd b39e f73b 1d55 493e
000002f0: 5f5b 383e 087d 443d a8ee 55bc 2413 98bd
00000300: 2a30 573c 8a15 ccbd 1114 1e3e 768c f7bc
00000310: dcc4 3e3e dfec 233d 2bb7 353e 6283 53bd
00000320: aa2a 06bd f1ae d6bd 84cd 443e 9b6d 473e
00000330: fc7e febd 7710 b6bd db52 9dbd 69a8 d73d
00000340: 1962 4a3d aa48 2e3e 8425 d3bd 7fac 023e
00000350: e43f 8abc f96b 16bc d8a5 46bd a576 1d3e
00000360: 9416 1f3d 467e 8e3d 9b23 1cbd 36fc af3d
00000370: d301 703e 6eb5 f73d 8e7a 90bc c4f9 f6bd
00000380: 7721 0d3d f8b9 a4bd 9b5f 2d3e b10e d3bd
00000390: 096d 593e 661b cb3d 87f3 0d3e 5fbf ff3d
000003a0: 6214 5b3d 75b1 fc3d e4e9 20bd 03ff c73d
000003b0: 1605 4a3e 5605 d03b 6742 133e 81d5 253d
000003c0: 4d47 c2bd 4d01 203d edbc 0d3e 98dc 0e3d
000003d0: 9285 00bd 3953 783e 5c3b 623d 799d 6f3e
000003e0: 14e3 023e b2a6 173d d582 96bc 651c a93c
000003f0: be40 4e3d 59a1 223e 6496 173e 54d9 983c
0.21231578 0.21343838 -0.053576674 -0.07996374 0.20347412 -0.0902278 -0.09277139 -0.08583035
0.1721373 -0.010331354 0.13112767 -0.126725 0.14729501 -0.030622562 -0.118870236 -0.072092965
0.07249477 -0.112249166 0.19374354 0.16424108 -0.13797066 -0.14604627 -0.08483573 0.06884664
0.08443456 0.06882377 -0.08964105 0.041243427 -0.02954928 0.10719855 -0.06428235 0.16619423
0.18312621 0.1977713 -0.038425285 -0.10707182 -0.12593773 0.15341209 0.18690474 -0.06333017
-0.030784624 0.20460992 0.031204466 0.040460326 0.041587166 -0.04557251 0.19363916 0.15524806
0.04303426 0.0970351 0.20602131 -0.05137254 -0.0013642549 0.0033693903 0.18805438 0.13946642
0.10716909 -0.024956597 -0.1314199 0.022865282 0.16360717 -0.061625265 -0.005191934 -0.03933874
0.18573493 0.09063549 0.04111701 0.16109349 -0.039872207 0.09776042 -0.07310171 0.14234498
0.18046157 0.00143415 -0.034073398 -0.070269704 0.16584827 0.096725374 -0.025020435 -0.13488062
0.24167177 0.091479346 0.20644072 0.15496135 -0.09850737 0.12361992 0.21678941 -0.066191405
0.16550407 0.038378946 -0.041237157 0.21091087 0.15384197 0.12355041 -0.06086398 0.0538668
-0.064154334 0.043465402 -0.040445305 0.008234591 -0.0793455 0.008454603 0.18521863 -0.11662667
0.081080385 -0.017090859 0.21378249 0.13308504 -0.053197395 0.13818619 0.124701045 0.19871831
0.19078557 0.025779083 0.039438773 -0.033007666 -0.13212852 0.014417467 0.07571766 0.07898611
0.13871786 0.023983885 -0.03436885 0.20387904 0.18188244 0.16984071 0.11555893 -0.04088587
0.021672219 0.15611252 0.12873484 0.08210877 0.15405264 0.16614647 0.16081023 0.116452314
0.15699944 -0.06991975 0.13416386 -0.014495274 0.043851744 0.19198845 0.18904911 0.05906447
0.13679147 0.18940736 0.0043181637 -0.009159937 0.10810219 0.0033305143 -0.064653404 -0.109019116
0.21602957 0.16583024 -0.044388335 0.21617204 -0.05798569 -0.08580783 -0.028596153 0.04330113
0.1403315 0.16659273 0.032366373 0.13814832 -0.08996741 0.17343606 0.21307527 -0.010732957
0.14944628 0.12756172 0.07255934 -0.0043254546 -0.06979166 -0.12980926 0.07546503 0.14069672
-0.09831932 -0.06946551 -0.017793303 0.05212658 0.19722393 0.10049302 -0.10241608 0.15663688
-0.09817238 -0.055043545 0.00755676 0.19661374 0.18003605 0.0479708 -0.013057388 -0.07425526
0.013134042 -0.09965046 0.15437342 -0.030218344 0.18629783 0.04002082 0.17745654 -0.05163897
-0.03275553 -0.10482586 0.19219023 0.19475405 -0.12426564 -0.08889859 -0.07681819 0.105301686
0.04940996 0.17019907 -0.1030989 0.12761115 -0.016876169 -0.009181016 -0.048498005 0.1537729
0.03883989 0.069576785 -0.038119894 0.08593027 0.23438196 0.12095152 -0.017636564 -0.12059358
0.034455743 -0.08043283 0.16931002 -0.103055365 0.21233 0.09917335 0.1386243 0.12487673
0.053486235 0.12338535 -0.039285555 0.097654365 0.19728503 0.0063482923 0.14380799 0.040486816
-0.09486256 0.03906374 0.138416 0.034878343 -0.031377383 0.24250497 0.05523239 0.23399915
0.12781936 0.037024207 -0.018372932 0.020643422 0.05035471 0.15881862 0.14803463 0.018658318

network_aging.lstm.weight_hh_l0 f4 [128, 32]
00000000: a846 1ebe fb5a 3ebe 5620 d4bb 1d92 8c3d
00000010: 1389 803d 11ae a1bd 33d9 d83d 5b69 ba3d
00000020: 7557 113d 2cfe f23c ea2e cb3d 96b3 723e
00000030: 578e 733d 0a67 393e 22af 2abe 7c95 22be
00000040: 34ca 28be ce0f 11be 6699 4f3e 1f14 3c3e
00000050: a9b0 9d3d a296 623b 783b 9c3c de46 ea3d
00000060: 2284 b6bd f025 6cbe 64c7 5a3e 8821 a83d
00000070: be05 f33d 1265 debc 2caa 073d 4475 8dbd
00000080: 4472 c03d 07d8 07be 5c3b 593e a807 12be
00000090: 9561 9c3d 44a0 453d 0157 b2bd 8b20 c8bd
000000a0: 2d1e 023e d203 773e 4779 c2bc 8b84 223e
000000b0: 8af9 563d 3687 133e 468b ee3d 1b1c 61be
000000c0: decd 2cbe 650a ba3c 72e4 dfbd 9e0c 313e
000000d0: 5be0 a13d dfa6 6cbe cf99 7a3d 4f60 113e
000000e0: 0fb4 063e 85ab dfbd 4075 263d c39f 52be
000000f0: e5f2 e33d 890a 72bc e124 bdbd a124 00be
00000100: ee78 49be 9aee 70bd bd3c bebd 8308 493d
00000110: 7d5a eb3c 50da 9e3a 8d22 0f3c 5fa8 90bb
00000120: a36b b9bd 93e9 2bbd e027 503c bda4 5d3d
00000130: acdb e53d fa71 5c3e 97b9 243c a282 19be
00000140: 8684 513d d5e6 15bd 1114 633e c1e7 9cbc
00000150: c4ba cdbd 26a0 bcbc b9d4 163e 1602 2e3e
00000160: b314 cb3d ac76 91bd 7134 ca3d 30ce 62bd
00000170: 09ce 653e d4aa 833d 2ee9 6ebd 8776 a6bd
00000180: 2930 653d e0df 16bd afe4 573e bf0a 50be
00000190: c028 06be aa2f 5bbe 86ee 923d 6e48 8abd
000001a0: fcc2 083d f60c 7d3d 8b97 ce3d 6f8a 08bd
000001b0: 95fa d33c 0b76 233e 3508 11bc 514e ccbd
000001c0: d68d bb3d c2a2 1f3e 9046 763d e89a 253e
000001d0: bd72 1fbc 3968 53be 1de0 d43d c765 423e
000001e0: 9edc c13d ba92 3bbe c672 10bd 84c2 40bd
000001f0: 97ac 593e 8119 47be ebfe 4cbe 57e0 43bd
00000200: 7c21 8f3d 1d20 853d 2dfd c1bd c707 5bbe
00000210: 0b78 ce3c 13ef e03c f3d0 acbd a7ab 4dbd
00000220: 3695 473e 35d1 313e 7c47 143e e3f4 07bd
00000230: 1251 32be c460 2e3e ee2b 48be 6112 0dbd
00000240: 9c12 e2bd 2908 92bd bc88 d7bd d02e 39bd
00000250: 5d97 ec3d 6945 9d3c d26c 2e3e 7b38 983c
00000260: c064 d23d b219 10bc e76d c43c 1616 763d
00000270: 3f98 c83c dd03 21bd 5663 653e 58c3 5c3c
00000280: 9b6a 0b3d 0dab c43d c8a9 433e 891a 5abd
00000290: f04f d1bd 4b06 4cbd 0a25 6d3e 7a94 923d
000002a0: 69ad 083d 6f87 8bbd f37a 50bd 305c 023e
000002b0: f961 52bd 12ce 8a3e bd73 2cbe ad95 f83c
000002c0: 6fa2 53be d055 3abe 6c6d 483d a384 6a3d
000002d0: 3014 a1bc 3972 71be b9ce acbc 08f0 2b3e
000002e0: 6fb1 793e 0d23 bebd 5446 383e 4506 99bd
000002f0: d3cc 9f3b 9e21 a3bb 022d 40bb 74d5 01bd
00000300: 0e1b 24bd 93f1 8abb 1097 323e 49c9 89bd
00000310: f818 42bd 85e5 35bd 867b 873e 9b23 863d
00000320: b2fc 673d 63d1 583e 72af 81bd 93af c43d
00000330: d8ee 803c dd47 7c3d 1c2d e93d aa97 c1bd
00000340: 5cf6 edbd 31ba 963d eafe dcbd 130d 133e
00000350: cc15 1d3b d149 b7bd 8f71 803e 1846 bd3d
00000360: 9037 3c3e 8513 e13d 6f5e 253e 587b 58be
00000370: 0896 bf3d b234 fabd 602a c2bd b198 1bbc
00000380: 956f 54be 9a09 873c 8a18 fb3d 12a2 39be
00000390: 9ee2 6cbe eb43 a9bd 8eb0 bf3d a913 fdbd
000003a0: 1539 b0bd 902b 5f3e e55b 643e 9f68 0a3e
000003b0: c2e2 69be 9aaf 443e e738 433c 9c8e 1dbe
000003c0: 7905 6d3d cd06 863d d488 843b c80b b6bc
000003d0: bae8 ddbd 4487 db3d fcf7 fa3d 612a cebd
000003e0: 355d 523e 1321 aa3d 3127 34bd 485a b43d
000003f0: a697 923d f575 0fbd 9a3a 473e f188 263b
-0.1545664 -0.18589394 -0.0064735813 0.068638064 0.06276145 -0.07894529 0.105883025 0.09102126
0.035483796 0.029662214 0.099210575 0.23701319 0.059461918 0.18105713 -0.1666837 -0.15877336
-0.16483384 -0.14166185 0.2027336 0.1836705 0.07699711 0.0034574647 0.019071326 0.11439298
-0.08911921 -0.23061347 0.21365124 0.082095206 0.118663296 -0.027147803 0.033121273 -0.06907132
0.093967944 -0.13266002 0.2121405 -0.14260733 0.076358 0.048248544 -0.08708001 -0.09771832
0.12706824 0.24122551 -0.02373947 0.15870874 0.052484073 0.14407048 0.11647658 -0.21983378
-0.16875407 0.022710035 -0.10932244 0.1728997 0.079041205 -0.23110531 0.06118184 0.14196895
0.13154624 -0.10921387 0.040639162 -0.20568757 0.11130313 -0.01477302 -0.0923555 -0.12513973
-0.19675037 -0.0588213 -0.09288929 0.049080383 0.028729672 0.0012119506 0.008736265 -0.0044146026
-0.09053733 -0.0419708 0.012704819 0.054112185 0.1122354 0.21527854 0.010054014 -0.14991239
0.051151775 -0.03659709 0.22175623 -0.019153478 -0.10045388 -0.023025583 0.14729585 0.16992983
0.099160574 -0.07102713 0.09873284 -0.055372417 0.22441877 0.06429067 -0.058327846 -0.08128076
0.055954132 -0.036834598 0.2108333 -0.203166 -0.13101482 -0.21404901 0.07174401 -0.06752096
0.033389077 0.06177994 0.10087498 -0.033335146 0.025876323 0.15962999 -0.008852054 -0.09975875
0.091579124 0.15589431 0.060125887 0.16172373 -0.009731946 -0.20645227 0.10394309 0.18984137
0.094659075 -0.1831769 -0.035265706 -0.047060505 0.21257244 -0.19443323 -0.20019118 -0.04782137
0.069888085 0.06500266 -0.094721176 -0.21389686 0.025203725 0.02745775 -0.084382914 -0.05021253
0.19490513 0.17364962 0.14480394 -0.033192527 -0.17413738 0.170291 -0.19548008 -0.034441356
-0.11038706 -0.07130463 -0.10524127 -0.04521066 0.11552308 0.019198136 0.17033699 0.01858162
0.10273123 -0.008795189 0.023978187 0.060079657 0.02448666 -0.039310325 0.22401175 0.013474308
0.034037214 0.09602938 0.19107735 -0.053247962 -0.10220325 -0.04981069 0.2315866 0.07157226
0.0333685 -0.06812941 -0.050898504 0.12730479 -0.051362965 0.27110344 -0.16841026 0.030344808
-0.20667432 -0.18196797 0.048932478 0.0572554 -0.019662946 -0.23578729 -0.021094667 0.16790783
0.24384092 -0.09284029 0.17995578 -0.07471899 0.004876712 -0.0049783727 -0.0029323702 -0.031697705
-0.040064864 -0.0042402237 0.17440438 -0.06727845 -0.047387093 -0.04440834 0.26461428 0.0654976
0.056637473 0.21173625 -0.06332292 0.096038006 0.01573889 0.06159197 0.11385557 -0.09452756
-0.11619255 0.07359732 -0.107908085 0.14360456 0.002396929 -0.08949626 0.25086638 0.09241885
0.1838057 0.10990051 0.16149305 -0.21140802 0.09354788 -0.12217082 -0.09480739 -0.009496854
-0.2074569 0.01648407 0.1226054 -0.18128231 -0.23133323 -0.082649074 0.09359847 -0.123572655
-0.086046375 0.21793962 0.2230068 0.13516472 -0.22840407 0.19207612 0.011915422 -0.15386432
0.057866547 0.06544266 0.0040446315 -0.022222415 -0.10835405 0.10719159 0.122543305 -0.10066677
0.20543368 0.0830709 -0.04398269 0.08806282 0.07157831 -0.035024602 0.19455948 0.0025411213

network_aging.lstm.bias_ih_l0 f4 [128]
00000000: e9aa 86bc b1ae f7bc 7fe4 323e 5f02 b33d
00000010: 06be 223d 7ebc 8fbd 432f 19bd 4c29 a4bd
00000020: 5098 9c3d 35a2 413e 75c8 0c3e c224 eabd
00000030: e69e 1e3e c974 243e 9340 113c c1c4 29bc
00000040: fb53 7d3e bc12 613e ede4 fd3d fa57 3d3c
00000050: 5fce 573e 1a24 483e 77e6 7abd 0293 053e
00000060: 5a5d 553e 1cef 87bd cb4e ed3d 0e4a d03d
00000070: fba7 543e 2df5 833d 8eca 273d 85bc 593e
00000080: 3f1d 283e 37d7 f43d 5fb3 40bd a09b e8bc
00000090: 0c16 9fbc 9f28 a4bd c4d2 1cbd f474 0a3e
000000a0: cc5b 2e3d 63b1 083e 50f1 d03d 7b57 9e3d
000000b0: d7c9 c1bd 3f85 ad3d cce3 f53c ace6 6b3d
000000c0: 9dca 603e e65d 003e 9191 a43d 7d53 0ebe
000000d0: 8853 553d fe1e 5d3d 7227 1fbc 0ced 1b3e
000000e0: 22e6 4bbd e054 a43d d5eb a0bd 4193 7a3c
000000f0: e669 183e 5642 263e 07ce 46bd cc79 283c
00000100: 60e0 c23c 5c93 cdbd bea8 633e 5df7 adbd
00000110: 283f 1dbe 608a 8ebd 519d 233d cbc2 6fbc
00000120: ec8e 673e 43dd b53d 8386 4f3e dfb1 393e
00000130: 42a8 64be e60e 273d 5c3a f0bd 24a2 15bd
00000140: ad56 0dbe 568b e43d 1cb5 503e 2579 293e
00000150: 6700 053e b410 4dbe 9b91 d93d c74a ca3d
00000160: d21b 373c 3fe2 2abe 0837 403e 03b1 53bd
00000170: f621 103e ec4e a9bc 179e 83bd a192 063e
00000180: 7fe4 2d3e 94da 833e 2e8e 81bd 2e7b 203e
00000190: 5837 123b 5ac9 5f3e 924d 633d 36f8 453e
000001a0: bcda 933e d972 493e 650b 203a 3606 5e3e
000001b0: 2a9b 963d 57c1 593e f3c0 923e 85f5 843d
000001c0: a27c c53c d68e 013e 2313 0b3e 80d3 1e3d
000001d0: 8e61 6b3e 7495 013e 5884 763e 16da 56bd
000001e0: 533a 1a3d b349 a83d e80e 74bd 5d89 943e
000001f0: 1e9b 823d 9045 cc3d 7119 a73d aed0 a43c
-0.016438918 -0.030234667 0.17469977 0.087406866 0.039732 -0.07018374 -0.037398588 -0.08015689
0.07646239 0.18909533 0.13748343 -0.11432792 0.15490302 0.16060175 0.008865493 -0.010361851
0.24739067 0.21979803 0.1239718 0.01155662 0.21074818 0.19545022 -0.061254945 0.1304436
0.20836392 -0.06637403 0.11587294 0.10170375 0.20767204 0.06443248 0.040964656 0.2126332
0.16417406 0.119551115 -0.04704606 -0.02839452 -0.019419692 -0.0801556 -0.03828694 0.13521177
0.042568013 0.13348918 0.10202277 0.07731529 -0.09462326 0.0847268 0.030015849 0.057593033
0.21952291 0.1253582 0.08035577 -0.13899036 0.052081615 0.053984635 -0.009713994 0.15227145
-0.04978002 0.08024001 -0.078574814 0.015293897 0.14884147 0.16236243 -0.048536327 0.010282945
0.023788631 -0.10037872 0.22232339 -0.084944464 -0.15356123 -0.06959987 0.03994495 -0.014633845
0.22613114 0.08880093 0.20266156 0.18134259 -0.2232981 0.040785693 -0.11729881 -0.036531582
-0.13802595 0.11159389 0.20381588 0.16550119 0.12988435 -0.20025903 0.10623475 0.09877544
0.0111760665 -0.16687869 0.18770993 -0.051682483 0.14075455 -0.020667516 -0.064266376 0.13141872
0.16981696 0.257527 -0.06325947 0.1567199 0.002231082 0.21854153 0.0554939 0.19332966
0.2887782 0.19672717 0.00061052135 0.21682057 0.07353814 0.2126516 0.28662834 0.06492142
0.024107281 0.12652144 0.13581519 0.03877592 0.22986433 0.12654668 0.24073923 -0.052454077
0.03765328 0.08217182 -0.05958453 0.2901105 0.063772425 0.099742055 0.081591494 0.020119037
