trained_model/mc1_mc2/15_days_lookahead/pnet_checkpoint/pnet_online_850.pth (torch, 545278 bytes, 36 tensors)

network_smart.layer1.0.weight f4 [128, 330]
-0.0066664903 -0.12766717 -0.22533657 -0.59814 -7.763944 -0.33003503 -0.035214815 0.3347005
0.19924907 -7.7745194 -6.358921 -0.042456344 -0.17083715 -0.26159054 -0.1833639 -7.78577
-0.3444313 -0.0021933084 0.3299361 0.94609374 -7.797438 -6.3395004 -0.004412835 -0.10668242
-0.31057388 -0.57968885 -7.921242 -0.27783617 -0.04205708 0.28409415 0.49903825 -7.8484445
-6.388723 0.015159387 -0.13041563 -0.3195084 -0.4934698 -7.95739 -0.26954404 -0.03595801
0.33647665 -0.26018304 -7.891417 -6.5156283 -0.0074506104 -0.19591989 -0.297615 -0.57699174
-7.925426 -0.28516537 0.0209867 0.32788837 0.11135407 -7.9961195 -6.501764 0.014963539
-0.13289067 -0.270588 -0.40712118 -7.945997 -0.27294198 0.0033721137 0.3191758 -0.40025064
-7.993147 -6.5537744 0.027764907 -0.16942318 -0.21892884 0.06327189 -7.9742312 -0.3156632
-0.03838648 0.31386077 1.2091588 -8.022662 -6.655421 0.028592687 -0.17372417 -0.27362725
-0.267731 -8.124155 -0.31128573 0.027477207 0.35055536 0.21270263 -8.093402 -6.646081
-0.06389514 -0.1197769 -0.2503512 -0.34150532 -8.182616 -0.3734522 0.037258588 0.30224347
-0.071631305 -8.143667 -6.722076 0.04115063 -0.09637258 -0.26766878 -0.053147387 -8.07946
-0.3166458 -0.05830516 0.35640067 0.28859708 -8.069372 -6.7215624 0.032530338 -0.13981192
-0.28707004 -0.21737362 -8.163628 -0.3031414 0.04186923 0.29610366 0.2642113 -8.1528425
-6.783704 -0.030062731 -0.1416108 -0.28591388 -0.15522854 -8.269777 -0.35377184 0.040440712
0.36653632 0.10346542 -8.248959 -6.8564005 0.009622772 -0.08738784 -0.38605145 -0.14196648
-8.20877 -0.38303357 -0.027502043 0.26874894 0.023383439 -8.234313 -6.9865184 0.041805997
-0.122621715 -0.41253492 -0.3861125 -8.293545 -0.3103526 -0.004986558 0.32786697 0.30709195
-8.29313 -7.087498 0.036105223 -0.13079144 -0.4098493 -0.16070199 -8.295547 -0.3588854
0.04102298 0.29709816 0.13563119 -8.323722 -7.1118917 -0.013435452 -0.09276314 -0.38500404
-0.018130414 -8.382705 -0.40429842 0.054479558 0.29453284 0.3602418 -8.364866 -7.0824428
-0.019867307 -0.10762858 -0.3655259 0.2395678 -8.3621 -0.39584336 -0.03783986 0.3131346
-0.5246695 -8.400991 -7.081664 -0.0029599636 -0.042061012 -0.22193705 0.7161786 -8.398508
-0.39306524 0.05436992 0.27529123 -0.060908854 -8.438147 -7.1681523 -0.037022416 -0.039842438
-0.20258135 1.1369485 -8.409602 -0.33982748 0.05262553 0.31790102 1.1808507 -8.442069
-7.1882815 0.04387859 -0.028113447 -0.25142172 -0.12327609 -7.6661496 -0.37941065 -0.056499716
0.2640591 -0.018141435 -7.688498 -5.747438 -0.04824769 -0.00384067 -0.18853064 0.75697994
-8.524177 -0.34328774 0.048345137 0.24339074 0.14933068 -8.564529 -7.3125196 0.039931986
-0.034471333 -0.33200273 0.016796814 -8.616659 -0.3269878 -0.0056278766 0.23584966 -0.09669694
-8.603293 -7.4671726 0.003462515 0.011825135 -0.29610056 -0.06750171 -8.585472 -0.31960887
-0.0014666909 0.28794315 0.46027628 -8.64735 -7.4102616 -0.0005985374 -0.0025478806 -0.3214608
00000000: 9372 dabb 2fbb 02be a1be 66be b41f 19bf
00000010: 3b72 f8c0 5afa a8be 693d 10bd dd5d ab3e
00000020: f307 4c3e ddc8 f8c0 487c cbc0 b4e6 2dbd
00000030: efef 2ebe 32ef 85be bfc3 3bbe 0725 f9c0
00000040: 4d59 b0be 9cbd 0fbb 62ed a83e 3333 723f
00000050: 9d84 f9c0 30dd cac0 8b99 90bb 507c dabd
00000060: 8a03 9fbe 7d66 14bf d17a fdc0 8b40 8ebe
00000070: 0b44 2cbd ca74 913e f181 ff3e 7526 fbc0
00000080: 6b70 ccc0 145f 783c ad8b 05be 9b96 a3be
00000090: 13a8 fcbe f0a2 fec0 ad01 8abe b548 13bd
000000a0: ab46 ac3e b636 85be 7d86 fcc0 0780 d0c0
000000b0: 4024 f4bb 399f 48be fe60 98be bbb5 13bf
000000c0: 179d fdc0 3201 92be 4dec ab3c fce0 a73e
000000d0: 9a0d e43d 36e0 ffc0 730e d0c0 a229 753c
000000e0: 7e14 08be 838a 8abe 3072 d0be 9c45 fec0
000000f0: 0dbf 8bbe aefe 5c3b 036b a33e a7ed ccbe
00000100: dcc7 ffc0 85b8 d1c0 3b73 e33c 457d 2dbe
00000110: e22e 60be b194 813d e72c ffc0 9b9e a1be
00000120: 243b 1dbd 5cb2 a03e b7c5 9a3f d35c 00c1
00000130: 35f9 d4c0 363b ea3c c0e4 31be df18 8cbe
00000140: 0a14 89be 8afc 01c1 d860 9fbe e117 e13c
00000150: fe7b b33e b8ce 593e 937e 01c1 b2ac d4c0
00000160: 75db 82bd 974d f5bd 082e 80be c9d9 aebe
00000170: ffeb 02c1 2035 bfbe 769c 183d a8bf 9a3e
00000180: 6fb3 92bd 764c 02c1 3f1b d7c0 908d 283d
00000190: fd5e c5bd e20b 89be 13b1 59bd 7845 01c1
000001a0: 661f a2be 64d1 6ebd 267a b63e ffc2 933e
000001b0: 261c 01c1 0a17 d7c0 883e 053d db2a 0fbe
000001c0: d8fa 92be 3197 5ebe 389e 02c1 5935 9bbe
000001d0: 127f 2b3d e69a 973e b446 873e 0b72 02c1
000001e0: 1a14 d9c0 1e46 f6bc 6c02 11be 4e63 92be
000001f0: 3bf4 1ebe 0251 04c1 9521 b5be 29a5 253d
00000200: a6aa bb3e aee5 d33d bcfb 03c1 a267 dbc0
00000210: d5a8 1d3c 65f8 b2bd 89a8 c5be a95f 11be
00000220: 1f57 03c1 fa1c c4be f74b e1bc 7699 893e
00000230: a08e bf3c bfbf 03c1 8f91 dfc0 c43c 2b3d
00000240: 1821 fbbd c737 d3be 8ab0 c5be 5cb2 04c1
00000250: 89e6 9ebe 4866 a3bb 2ede a73e 283b 9d3e
00000260: a9b0 04c1 c9cc e2c0 12e3 133d 31ee 05be
00000270: c4d7 d1be 108f 24be 8fba 04c1 d4bf b7be
00000280: b607 283d 401d 983e e7e2 0a3e f72d 05c1
00000290: 9e94 e3c0 5f20 5cbc 9afa bdbd 401f c5be
000002a0: 3c86 94bc 8f1f 06c1 3400 cfbe f525 5f3d
000002b0: 02cd 963e 9d71 b83e 7ed6 05c1 5fa3 e2c0
000002c0: c3c0 a2bc 5f6c dcbd 3626 bbbe 4351 753e
000002d0: 29cb 05c1 fbab cabe f8fd 1abd 2e53 a03e
000002e0: be50 06bf 766a 06c1 fe9c e2c0 f3fb 41bb
000002f0: 2b48 2cbd 7743 63be 7b57 373f 4a60 06c1
00000300: d93f c9be feb2 5e3d f9f2 8c3e 907b 79bd
00000310: a602 07c1 8161 e5c0 d1a4 17bd d331 23bd
00000320: 7c71 4fbe 8787 913f bb8d 06c1 defd adbe
00000330: de8d 573d ecc3 a23e 1e26 973f b712 07c1
00000340: 6706 e6c0 09ba 333d 2c4e e6bc 59ba 80be
00000350: 2d78 fcbd 1951 f5c0 1d42 c2be 3f6c 67bd
00000360: c132 873e 599d 94bc 2d08 f6c0 03eb b7c0
00000370: 5f9f 45bd c0b3 7bbb 2d0e 41be 70c9 413f
00000380: 0763 08c1 69c3 afbe 8d05 463d 6c3b 793e
00000390: 24ea 183e 5008 09c1 2900 eac0 b98f 233d
000003a0: d031 0dbd 43fc a9be 7999 893c d6dd 09c1
000003b0: f26a a7be 0d6a b8bb 9382 713e 0c09 c6bd
000003c0: 17a7 09c1 14f3 eec0 5deb 623b 36be 413c
000003d0: 7e9a 97be 563e 8abd 185e 09c1 c6a3 a3be
000003e0: fb3d c0ba 496d 933e 55a9 eb3e 8c5b 0ac1
000003f0: dd20 edc0 2ae7 1cba 58fa 26bb 8396 a4be

network_smart.layer1.0.bias f4 [128]
-0.107930355 0.039937567 0.047399607 -0.04893107 0.033374727 -0.04473227 0.05894909 -0.024747614
0.06111121 0.0068693226 -0.08175222 0.05641098 0.058775637 -0.03974797 0.1303317 -0.11551807
0.028000442 0.12088528 0.023312053 -0.03696391 0.06104934 0.1994226 -0.1392779 -0.10058992
-0.0032033022 0.039222132 0.021638108 -0.024934167 -0.01894007 -0.087679595 -0.1534428 -0.042547308
0.07613835 0.0041187005 -0.04725831 0.026676266 0.043258067 0.0045101694 -0.06981439 -0.006615832
-0.0648895 -0.019558951 0.048314076 -0.029397914 -0.14536415 0.15392122 0.042360406 0.041537862
-0.100129046 0.052336197 0.0040997146 -0.12409518 -0.001946857 0.0285431 -0.039421964 0.09514016
-0.027874982 -0.03374622 0.12364132 -0.030668365 -0.059780717 0.003534371 -0.02703532 -0.05449347
-0.1686373 0.14908403 0.1555868 0.09383681 0.049094394 -0.00037309164 0.036353707 -0.13095699
-0.013704667 0.036996424 0.0007813054 0.0023998318 -0.062378846 0.077389225 -0.052106857 0.032211423
-0.1575084 0.09234046 -0.03982447 0.13827597 0.026986683 -0.11700197 -0.045583773 -0.074042484
-0.08594529 -0.13042508 -0.008329554 -0.029464008 -0.052409023 0.10493829 -0.3336887 -0.08967299
-0.08782252 0.0046528033 -0.05254199 -0.022647379 -0.031466722 0.013937776 -0.04475344 -0.04604421
0.17786491 -0.02843118 0.0019119537 0.12761521 0.09161279 -0.086426705 0.19019349 -0.01644651
-0.112507895 0.010058263 -0.053408436 -0.13083011 -0.045937654 -0.07482964 0.16238765 0.049930125
-0.028189877 -0.066886686 -0.014645589 -0.025123904 0.14880349 -0.0696639 -0.15877017 0.07754107
00000000: 970a ddbd 9395 233d 1726 423d f26b 48bd
00000010: f0b3 083d 2f39 37bd 9a74 713d 82bb cabc
00000020: c04f 7a3d 0e18 e13b b56d a7bd 330f 673d
00000030: b9be 703d c4ce 22bd ac75 053e bd94 ecbd
00000040: 2f61 e53c b492 f73d ebf8 be3c 7867 17bd
00000050: df0e 7a3d 7035 4c3e de9e 0ebe 1702 cebd
00000060: 7eee 51bb 63a7 203d 6742 b13c bd42 ccbc
00000070: 3528 9bbc 5c91 b3bd 1c20 1dbe 1646 2ebd
00000080: 6cee 9b3d 2af6 863b ee91 41bd 2f88 da3c
00000090: 5f2f 313d 0bca 933b d9fa 8ebd 9fc9 d8bb
000000a0: c9e4 84bd 183a a0bc fbe4 453d e5d3 f0bc
000000b0: 57da 14be 869d 1d3e 1b82 2d3d 9b23 2a3d
000000c0: 7510 cdbd 7b5e 563d e656 863b 9d25 febd
000000d0: ae2d ffba 38d3 e93c ed78 21bd d8d8 c23d
000000e0: 135a e4bc 7a39 0abd a937 fd3d 393c fbbc
000000f0: a0dc 74bd e8a0 673b 2d79 ddbc 8b34 5fbd
00000100: 42af 2cbe 7ca9 183e 2552 1f3e 832d c03d
00000110: 3417 493d 839b c3b9 a0e7 143d 9719 06be
00000120: 8a89 60bc 9089 173d 85d0 4c3a 7f46 1d3b
00000130: f680 7fbd 3e7e 9e3d 006e 55bd 20f0 033d
00000140: e249 21be ff1c bd3d fc1e 23bd 3798 0d3e
00000150: 2d13 dd3c bb9e efbd 0db6 3abd 96a3 97bd
00000160: 1604 b0bd 278e 05be af78 08bc 815e f1bc
00000170: d8aa 56bd e3e9 d63d 3fd9 aabe 79a6 b7bd
00000180: 4bdc b3bd 8b76 983b 4536 57bd ff86 b9bc
00000190: 40e3 00bd 455b 643c 624f 37bd db98 3cbd
000001a0: 3822 363e 82e8 e8bc 859a fa3a 90ad 023e
000001b0: 7d9f bb3d 7c00 b1bd 15c2 423e d5ba 86bc
000001c0: 8a6a e6bd 6acb 243c cec2 5abd 54f8 05be
000001d0: 1f29 3cbd 4840 99bd f348 263e 8883 4c3d
000001e0: 75ee e6bc e3fb 88bd 0df4 6fbc a5d0 cdbc
000001f0: f15f 183e f2ab 8ebd a694 22be dacd 9e3d

network_smart.layer2.0.weight f4 [128, 128]
-0.041266426 0.021404203 0.0060545634 0.0445499 0.018154573 -0.022818042 -0.023835279 -0.040947277
0.029401297 0.0074590337 0.017881496 0.04074609 0.06170667 -0.013957825 -0.07269253 -0.015917473
0.032262538 -0.001987622 -0.018736158 0.0031430584 0.023314334 0.17415412 -0.020852946 0.06759011
0.0007275325 -0.0011190291 -0.047093615 0.09830364 -0.118102275 0.062024307 0.06681243 -0.07638409
-0.0168141 0.14723039 -0.106088415 -0.6313614 0.022597961 0.1270509 0.06379149 -0.07068321
0.072658025 0.074358545 0.07529662 -0.013674956 0.012605822 0.10508184 0.18737881 0.012036855
0.04406614 0.095902346 -0.06672621 -0.06476039 0.016470551 -0.0063284067 0.101597235 -0.80946314
0.00558032 0.047195505 -0.0008533187 0.25576872 -0.0564094 0.026467469 -0.035010874 -0.058517147
0.045572206 -0.19755128 -0.087996125 -0.023246411 -0.08760486 -0.056599367 -0.051924746 -0.008903282
0.028400274 0.11858339 -0.05818307 0.011769724 -0.085560426 0.018467136 0.044909704 0.36090347
0.089017086 -0.6604791 0.027919916 0.02342905 0.03972161 -0.2805674 -0.13164549 -0.025085624
-0.056187753 -0.007834722 -0.0037917343 -0.024946034 -0.06571368 0.3172144 -0.007638437 -0.0058855577
-0.0026798157 -0.08770636 -0.08011695 0.036665164 -0.033214618 0.0061101303 -0.062006906 0.06836228
-0.3617279 0.0386945 0.02326042 0.18723062 0.10065051 -0.10582419 0.07892542 -0.06192188
-0.006256228 -0.07403784 0.022526175 0.040687326 0.075397216 0.041476596 0.02627101 -0.0112967845
-0.044289816 0.027379889 -0.05617174 0.014802033 -0.043759357 -0.0048334207 -0.27961236 0.057595413
0.018038595 0.011114366 0.06491143 -0.07463702 -0.26793212 -0.015114518 -0.08357373 0.013404385
0.005804705 0.17072552 -0.08222608 0.10198736 -0.04405505 -0.04161785 -0.06657801 -0.055271097
-0.010806557 -0.10969866 -0.021193087 0.28909495 -0.07680998 0.08187822 0.0066262 -0.30178487
-0.10308357 -0.33502242 -0.08060042 -0.0071267723 0.29456824 -0.16802369 -0.11519561 0.051176295
0.07166601 0.053528924 0.04633825 -0.10970045 -0.16502954 -0.1033637 0.060721416 -0.53744936
-0.062125653 -0.047752354 0.03545232 -0.05226163 0.19490236 -0.13726597 0.010724377 -0.044661433
-0.47208643 -0.27913034 -0.032068223 -0.109470144 -0.07928989 0.18271157 -0.0773436 0.08712807
-0.059858307 -0.18170725 0.045949306 0.09956989 -0.026297295 -0.23036224 0.16245084 0.076121576
-0.086652696 0.09190988 -0.17572239 0.073074885 -0.0774436 -0.10551267 0.014163542 -0.5592415
-0.028796738 -0.048440028 -0.06149924 0.05127063 0.22936925 0.1220248 -0.034447383 0.7600181
-0.17633173 0.1342259 -0.07978678 -0.2558262 -0.6232937 0.2121095 -0.013320976 -0.070368655
-0.16478217 0.16523886 0.014723309 -0.06481594 -0.044935018 0.33091405 -0.0707509 -0.12982883
-0.091899976 0.077641256 0.04615729 0.004341078 -0.026120642 0.048852235 0.036146127 0.058517884
-0.07451885 0.0140076 -2.1301832 0.48229057 -0.30687582 -0.15038933 0.02682363 -0.045478243
-0.09723378 -0.0869127 0.061425112 0.16979836 -0.058097627 -0.0012838512 -0.19010423 -0.06869737
-0.076118015 -0.48115942 0.098823 -0.05231573 0.0282759 -0.1048398 0.22662133 0.03959836
00000000: fc06 29bd de57 af3c 5c65 c63b f579 363d
00000010: e6b8 943c e7ec babc 3442 c3bc 55b8 27bd
00000020: fdda f03c e96a f43b 377c 923c 5fe5 263d
00000030: 22c0 7c3d 5caf 64bc d2df 94bd 5c65 82bc
00000040: b925 043d c342 02bb 927c 99bc c5fb 4d3b
00000050: b4fd be3c 7555 323e ccd3 aabc af6c 8a3d
00000060: e1b7 3e3a 63ac 92ba 3ce5 40bd 6b53 c93d
00000070: 9bdf f1bd 330d 7e3d f5d4 883d 436f 9cbd
00000080: b9bd 89bc 90c3 163e e244 d9bd e7a0 21bf
00000090: 5c1f b93c a219 023e 1da5 823d 5cc2 90bd
000000a0: bbcd 943d 4b49 983d 1d35 9a3d ec0c 60bc
000000b0: a688 4e3c 2635 d73d 3be0 3f3e 3b36 453c
000000c0: b27e 343d 7368 c43d c0a7 88bd 18a1 84bd
000000d0: 40ed 863c 865e cfbb 3612 d03d fa38 4fbf
000000e0: 1edb b63b 1350 413d 40b1 5fba 1ef4 823e
000000f0: 8b0d 67bd 4ed2 d83c 9067 0fbd adaf 6fbd
00000100: eca9 3a3d e24a 4abe 5037 b4bd 426f bebc
00000110: 2d6a b3bd bdd4 67bd 0baf 54bd 12df 11bc
00000120: b1a7 e83c d9db f23d 5f51 6ebd cdd5 403c
00000130: 4e3a afbd 6448 973c 3df3 373d 57c8 b83e
00000140: 974e b63d 2915 29bf 4fb8 e43c 47ee bf3c
00000150: 20b3 223d 88a6 8fbe 13ce 06be 5e80 cdbc
00000160: 2125 66bd 355d 00bc bf7e 78bb a05b ccbc
00000170: e594 86bd ed69 a23e db4b fabb a3db c0bb
00000180: d99f 2fbb 649f b3bd 5b14 a4bd 362e 163d
00000190: 0d0c 08bd 7d37 c83b f4fa 7dbd 8601 8c3d
000001a0: 6634 b9be 207e 1e3d a38c be3c 62b9 3f3e
000001b0: db21 ce3d 5aba d8bd a7a3 a13d cca1 7dbd
000001c0: 0b01 cdbb 27a1 97bd d088 b83c c1a7 263d
000001d0: db69 9a3d 5de3 293d 4d36 d73c 2616 39bc
000001e0: 3d69 35bd ca4b e03c 5714 66bd 3a84 723c
000001f0: 033d 33bd ac61 9ebb 5a29 8fbe 2be9 6b3d
00000200: adc5 933c 0819 363c 49f0 843d 4bdb 98bd
00000210: 662e 89be e2a2 77bc b428 abbd 119e 5b3c
00000220: 6535 be3b acd2 2e3e 2666 a8bd c0de d03d
00000230: 1173 34bd 7b77 2abd 0d5a 88bd f263 62bd
00000240: fc0d 31bc b1a9 e0bd 209d adbc 4104 943e
00000250: 8d4e 9dbd c5af a73d 9820 d93b 8c83 9abe
00000260: 7b1d d3bd 0f88 abbe d511 a5bd b387 e9bb
00000270: a6d1 963e 670e 2cbe adeb ebbd 3c9e 513d
00000280: a1c5 923d 2541 5b3d 2dcd 3d3d a1aa e0bd
00000290: 81fd 28be 59b0 d3bd 05b7 783d 4896 09bf
000002a0: 7877 7ebd f997 43bd 7436 113d 4a10 56bd
000002b0: 7c94 473e 738f 0cbe 4cb5 2f3c e8ee 36bd
000002c0: 50b5 f1be 2cea 8ebe f859 03bd e231 e0bd
000002d0: bd62 a2bd be18 3b3e 5266 9ebd 3470 b23d
000002e0: fc2d 75bd 7711 3abe 5735 3c3d 4ceb cb3d
000002f0: 6d6d d7bc 14e4 6bbe 8359 263e a1e5 9b3d
00000300: f876 b1bd 3f3b bc3d 92f0 33be 49a8 953d
00000310: c09a 9ebd 0717 d8bd 330e 683c 732a 0fbf
00000320: 23e7 ebbc 0d69 46bd a1e6 7bbd 2701 523d
00000330: c6df 6a3e 23e8 f93d b318 0dbd 8c90 423f
00000340: 4e90 34be 8472 093e 4067 a3bd a7fb 82be
00000350: 2d90 1fbf 3c33 593e 3940 5abc 711d 90bd
00000360: a8bc 28be 6034 293e 093a 713c 38be 84bd
00000370: c80d 38bd 916d a93e d9e5 90bd d9f1 04be
00000380: 0e36 bcbd 6102 9f3d 6d0f 3d3d 9a3f 8e3b
00000390: f5fa d5bc 4819 483d f60d 143d 73b0 6f3d
000003a0: 579d 98bd 2280 653c ec54 08c0 caee f63e
000003b0: d41e 9dbe a9ff 19be 3bbd db3c 6547 3abd
000003c0: 8122 c7bd 49ff b1bd e698 7b3d 9fdf 2d3e
000003d0: c7f7 6dbd e646 a8ba afaa 42be 35b1 8cbd
000003e0: c3e3 9bbd 875a f6be b763 ca3d 0549 56bd
000003f0: dca2 e73c 40b6 d6bd 6c0f 683e e431 223d

network_smart.layer2.0.bias f4 [128]
0.076181576 0.0036569256 0.017724922 0.08800944 0.1357122 -0.030644638 0.05192082 -0.14301048
-0.0529234 -0.014929409 -0.0649181 -0.027480695 0.068527035 -0.023420889 -0.048346333 -0.116570815
0.074413285 -0.11869769 -0.071730345 0.0011276901 0.0018212344 -0.056682054 0.08345777 -0.020625573
0.13230044 -0.0006735293 0.09543037 0.12919183 0.08785165 -0.092940494 -0.117172986 -0.006298724
-0.059381973 -0.063074395 0.050561637 0.041375954 0.11575808 0.052324753 0.021820804 -0.055506382
0.014414835 0.10332368 0.08238051 -0.053064976 -0.03972101 0.03595146 -0.038227696 -0.061141055
0.07481158 -0.038130708 -0.16366416 -0.07417922 -0.026243722 -0.049244154 0.09845067 0.04427742
-0.09486992 -0.07320987 -0.008230102 0.031551726 -0.0014115458 -0.11409725 -0.014183586 -0.08491852
0.14366165 0.05031463 0.05987152 0.07205271 -0.0055730348 0.0047962395 -0.11390909 0.09130447
-0.083528474 -0.031459313 -0.1350627 -0.09204031 -0.08559983 0.036553964 -0.032497812 0.058130227
0.07272444 -0.06651693 0.055969574 -0.012853293 -0.012779729 0.06717497 -0.017129099 0.038848173
-0.0349776 0.03765489 -0.047107052 -0.0021792203 0.055400446 -0.1148895 -0.027795509 -0.038196795
0.11789327 -0.1027694 0.002430294 0.084740624 0.057026137 -0.2416541 -0.050832003 -0.06751632
0.052803367 -0.05988918 -0.013127068 -0.046526097 0.03403735 -0.15704378 0.062282518 0.10895809
-0.06379548 0.025158176 -0.028278848 0.0038858885 -0.032531083 -0.09579477 0.14427769 0.005222263
0.057230175 -0.09734036 -0.11334664 -0.10447833 0.021543784 -0.056897983 0.013595399 -0.06654428
00000000: 1605 9c3d 08a9 6f3b db33 913c 4b3e b43d
00000010: 24f8 0a3e 770a fbbc edaa 543d 5771 12be
00000020: 35c6 58bd 7b9a 74bc c8f3 84bd 321f e1bc
00000030: e757 8c3d 2add bfbc ce06 46bd aebc eebd
00000040: fe65 983d c617 f3bd 5ce7 92bd 00cf 933a
00000050: 7cb6 ee3a 712b 68bd e8eb aa3d f6f6 a8bc
00000060: c479 073e c98f 30ba ff70 c33d dd4a 043e
00000070: 91eb b33d 9657 bebd 64f8 efbd 8765 cebb
00000080: 833a 73bd 262d 81bd b819 4f3d d579 293d
00000090: 9212 ed3d 7b52 563d 8bc1 b23c a95a 63bd
000000a0: 332c 6c3c 5e9b d33d 1db7 a83d a95a 59bd
000000b0: 7fb2 22bd d741 133d a594 1cbd 0b6f 7abd
000000c0: d036 993d f22e 1cbd 9497 27be 46eb 97bd
000000d0: 13fd d6bc 3db4 49bd 81a0 c93d 3d5c 353d
000000e0: 294b c2bd 0eef 95bd 8dd7 06bc 623c 013d
000000f0: 9e03 b9ba d2ab e9bd 4662 68bc c3e9 adbd
00000100: 0a1c 133e b716 4e3d d73b 753d 5f90 933d
00000110: 019e b6bb c629 9d3b 2b49 e9bd d7fd ba3d
00000120: fa10 abbd 7bdb 00bd e04d 0abe a17f bcbd
00000130: f74e afbd 9cb9 153d 6d1c 05bd f619 6e3d
00000140: 8df0 943d 073a 88bd 5a40 653d 9e96 52bc
00000150: 1262 51bc 0893 893d 5352 8cbc 431f 1f3d
00000160: ac44 0fbd 043c 1a3d 53f3 40bd 40d1 0ebb
00000170: 94eb 623d 304b ebbd 68b3 e3bc 3e74 1cbd
00000180: 0772 f13d c378 d2bd 9145 1f3b 7e8c ad3d
00000190: 3d94 693d 2c74 77be 3835 50bd ff45 8abd
000001a0: 5848 583d 5b4e 75bd ea12 57bc 2692 3ebd
000001b0: c06a 0b3d 16d0 20be f41b 7f3d 6b25 df3d
000001c0: 34a7 82bd 8518 ce3c 0ba9 e7bc 64aa 7e3b
000001d0: 503f 05bd 0c30 c4bd 88bd 133e 841f ab3b
000001e0: 306a 6a3d 625a c7bd 4822 e8bd bcf8 d5bd
000001f0: 977c b03c dc0d 69bd 3dbf 5e3c 5e48 88bd

network_smart.layer3.0.weight f4 [48, 128]
0.08465793 -0.17292938 -0.036866248 0.13716595 -0.12387512 0.07567153 0.051280953 -0.25191113
-0.062200215 -0.0053831628 -0.0175926 -0.17697829 -0.0020617712 0.084109 0.072911724 -0.28647846
0.04423676 0.3245942 0.14795236 -0.027738715 -0.06561908 0.021443252 0.11436609 0.044526447
-0.08790012 -0.1973926 -0.044691026 -0.015733976 0.025911871 -0.014140651 0.0032536301 0.039559267
-0.010875768 0.09813346 0.012306271 0.04391134 0.08183504 0.046201766 -0.12506641 -0.0112664625
-0.008265178 0.0025602377 -0.11287589 -0.05362014 0.11800729 0.03316919 -0.02296105 0.0013669175
-0.020050569 -0.077033415 0.015608885 0.04848042 0.06351303 -0.059173804 -0.20290807 -0.027331213
0.0011971005 -0.28366047 -0.10734455 0.0927835 0.24308334 0.11156188 0.01564592 0.045908317
0.035898834 0.1030117 -0.11324235 0.124955766 0.07624376 0.05104597 0.09447862 -0.025268286
-0.040648475 0.13953169 -0.551609 0.17259492 -0.2383511 -0.024691327 0.14014958 -0.32782373
-0.009669584 0.023832753 0.044698805 -0.13618381 0.038842943 0.29107338 -0.12094046 0.056043103
0.03692385 0.14152466 -0.033630844 0.23867127 -0.1517465 -0.24660885 0.22864982 0.08162787
0.0366458 0.107557565 0.17259476 0.028076537 -0.06180237 0.10079816 0.07202198 0.088512555
-0.17029026 -0.36970812 -0.10391545 -0.03652699 0.3393816 0.09354616 -0.06523119 0.12279673
-0.06990604 -0.06078803 0.13933846 0.033963915 0.019800754 -0.21968095 -0.04813882 0.08470608
0.009004367 -0.057713613 -0.05534215 -0.27760044 0.11934235 -0.8502624 0.09610831 -0.012123018
0.068814635 -0.029365595 -0.017654777 -0.037109103 0.032282107 0.009370222 0.06403859 0.0074971025
0.013596331 0.011525424 0.05121942 0.018702105 -0.00959511 0.07295394 0.016900811 -0.06308822
0.0012055199 0.083221704 0.0839601 -0.03988021 -0.060757063 -0.022715233 0.08304329 0.07079675
-0.047271177 -0.08977063 -0.07007989 -0.031839762 0.008496013 0.074877396 -0.033810526 -0.078073315
0.015529554 -0.010022877 0.030145986 -0.021168886 -0.08699645 0.033424295 0.06648868 -0.05749986
-0.05841305 -0.0056594894 -0.018725427 -0.0018178568 -0.027205784 0.006265809 -0.03728226 -0.07815398
-0.03150512 0.04023003 -0.046658352 -0.056597296 -0.030931924 -0.045688536 0.04857852 0.02539652
-0.056356985 0.049146835 0.028067386 0.052786306 -0.06427268 -0.02047016 0.070734985 -0.01931421
-0.009059412 -0.011794311 -0.014053204 0.006742674 -0.0018104705 -0.073472336 0.012130805 -0.021821423
0.050436776 -0.086548865 0.064153336 -0.032368146 0.010075415 0.06798454 -0.031858504 0.008439941
0.006210031 0.026419945 -0.025388965 -0.08675705 0.052749425 -0.054614864 0.02982466 -0.077539355
-0.046547 -0.092155226 0.0076086754 0.06410644 -0.080680594 -0.052749563 0.037919823 -0.010232124
0.013938859 -0.025902862 -0.059426032 -0.060790744 0.06700368 -0.028441304 -1.0281027e-05 0.023338206
0.03712362 -0.08757495 -0.016502101 -0.0050755846 -0.06556189 0.040255465 -0.07486015 -0.05220193
-0.00029877253 0.041253425 -0.06921549 -0.0803362 0.042491924 -0.07935087 0.026127253 -0.03469954
0.051940065 0.07830135 0.06864987 -0.0681047 0.071641 0.0143083595 -0.04469532 0.006294656
00000000: 2361 ad3d 6614 31be 1001 17bd 3b75 0c3e
00000010: 3db2 fdbd adf9 9a3d fa0b 523d 7ffa 80be
00000020: a7c5 7ebd 3e65 b0bb 5b1e 90bc cc39 35be
00000030: c81e 07bb 5741 ac3d be52 953d 4ead 92be
00000040: 9b31 353d 3631 a63e d380 173e 4d3c e3bc
00000050: 4c63 86bd c2a9 af3c c538 ea3d 5d61 363d
00000060: fa04 b4bd 4921 4abe f00d 37bd 8ae4 80bc
00000070: 2245 d43c 30ae 67bc db3a 553b e608 223d
00000080: 4730 32bc 32fa c83d 3ea0 493c 61dc 333d
00000090: 2199 a73d 103e 3d3d 6911 00be f896 38bc
000000a0: ab6a 07bc a9c9 273b 7a2b e7bd cba0 5bbd
000000b0: cead f13d 6bdc 073d d018 bcbc 242a b33a
000000c0: 1741 a4bc b2c3 9dbd 69bc 7f3c 6893 463d
000000d0: 1f13 823d 3b60 72bd 22c7 4fbe b5e5 dfbc
000000e0: 07e8 9c3a f23b 91be 76d7 dbbd 4705 be3d
000000f0: d7ea 783e 8e7a e43d df2b 803c 5c0a 3c3d
00000100: a80a 133d ccf7 d23d 9beb e7bd cfe8 ff3d
00000110: b025 9c3d 9415 513d 027e c13d 70ff cebc
00000120: 047f 26bd 65e1 0e3e 3f36 0dbf b9bc 303e
00000130: 5012 74be 7745 cabc 5f83 0f3e 83d8 a7be
00000140: 2d6d 1ebc e83c c33c 1816 373d c573 0bbe
00000150: c719 1f3d 9207 953e a2af f7bd 748d 653d
00000160: 773d 173d d7eb 103e 7fc0 09bd 3e66 743e
00000170: 6f63 1bbe 0887 7cbe 2e23 6a3e 832c a73d
00000180: e819 163d 2447 dc3d aebc 303e c400 e63c
00000190: 7b24 7dbd 446f ce3d 4380 933d 1246 b53d
000001a0: 9260 2ebe 624a bdbe a0d1 d4bd 539d 15bd
000001b0: 6dc3 ad3e 2195 bf3d ee97 85bd da7c fb3d
000001c0: e62a 8fbd dffc 78bd beae 0e3e bf1d 0b3d
000001d0: 3135 a23c 0bf4 60be 362d 45bd 627a ad3d
000001e0: 0d87 133c 1c65 6cbd 73ae 62bd a521 8ebe
000001f0: c369 f43d ccaa 59bf 6fd4 c43d 9f9f 46bc
00000200: b0ee 8c3d 1e90 f0bc c0a0 90bc b7ff 17bd
00000210: 3e3a 043d 8f85 193c aa26 833d 41aa f53b
00000220: 25c3 5e3c 22d5 3c3c 74cb 513d 2835 993c
00000230: cf34 1dbc e068 953d 9273 8a3c 6634 81bd
00000240: 8902 9e3a 2470 aa3d 46f3 ab3d 6e59 23bd
00000250: 66dc 78bd 4c15 babc 9a12 aa3d e3fd 903d
00000260: 6c9f 41bd aad9 b7bd 0c86 8fbd 696a 02bd
00000270: dc32 0b3c 5259 993d e87c 0abd e7e4 9fbd
00000280: ac6f 7e3c fe36 24bc b7f4 f63c 5f6a adbc
00000290: 322b b2bd eae7 083d 382b 883d f984 6bbd
000002a0: 8642 6fbd 3d73 b9bb 1166 99bc 2745 eeba
000002b0: aade debc 6a51 cd3b 48b5 18bd 320f a0bd
000002c0: 830b 01bd 3ec8 243d d41c 3fbd 91d2 67bd
000002d0: f264 fdbc e723 3bbd 45fa 463d 5d0c d03c
000002e0: 95d6 66bd 314e 493d 93ed e53c 7436 583d
000002f0: 65a1 83bd 09b1 a7bc 81dd 903d d638 9ebc
00000300: ee6d 14bc ed3c 41bc 693f 66bc a6f1 dc3b
00000310: 4f4d edba aa78 96bd 49c0 463c d7c2 b2bc
00000320: cb96 4e3d 8840 b1bd d362 833d 7694 04bd
00000330: 5a13 253c 7a3b 8b3d 107e 02bd ae47 0a3c
00000340: 847d cb3b a46e d83c 85fc cfbc aead b1bd
00000350: c80f 583d d6b3 5fbd d852 f43c f4cc 9ebd
00000360: 11a8 3ebd e1bb bcbd 3252 f93b 3d4a 833d
00000370: de3b a5bd ed0f 58bd d151 1b3d a3a4 27bc
00000380: d05f 643c 3d32 d4bc b668 73bd b7ff 78bd
00000390: 3a39 893d bdfd e8bc ad7c 2cb7 c42f bf3c
000003a0: f00e 183d 7f5a b3bd 6a2f 87bc 1751 a6bb
000003b0: 5045 86bd eae2 243d 4750 99bd b1d1 55bd
000003c0: 92a4 9cb9 5af9 283d dac0 8dbd 4e87 a4bd
000003d0: 030c 2e3d b582 a2bd d208 d63c 1b21 0ebd
000003e0: 1bbf 543d 755c a03d 4e98 8c3d 7a7a 8bbd
000003f0: 84b8 923d 9c6d 6a3c 7112 37bd 6743 ce3b

network_smart.layer3.0.bias f4 [48]
0.11857434 -0.07819383 0.026583482 -0.008754265 0.012245924 -0.070427 -0.047559306 0.07028509
0.094777964 0.048344653 -0.0039338917 0.05571795 0.011291167 0.0048722983 -0.056441385 0.0013177082
-0.030119559 -0.0197098 -0.08112908 0.09702192 0.0100356545 0.017214416 0.00725096 0.07544433
-0.012576378 -0.041828502 0.016770465 0.062178865 0.056243055 0.041810498 -0.09130423 0.05981974
-0.06424552 0.05658701 0.01564462 -0.06539925 0.026897443 -0.00066433934 0.08550475 0.08811512
0.091806374 -0.07301636 0.07305988 0.05666358 -0.05032145 -0.024923969 0.0708118 0.000920029
00000000: 1bd7 f23d 1624 a0bd 9ac5 d93c 0c6e 0fbc
00000010: 21a3 483c 083c 90bd 8ccd 42bd a1f1 8f3d
00000020: f31a c23d 0b05 463d e0e7 80bb 8138 643d
00000030: 96fe 383c cda7 9f3b 152f 67bd f3b6 ac3a
00000040: 4bbd f6bc 7276 a1bc 0127 a6bd 6eb3 c63d
00000050: 966c 243c 3f05 8d3c 7699 ed3b 8f82 9a3d
00000060: 270d 4ebc 5d54 2bbd 3762 893c 44af 7e3d
00000070: 1e5f 663d 7c41 2b3d b6fd babd 8b05 753d
00000080: 2893 83bd c8c7 673d 2529 803c 0bf0 85bd
00000090: 0758 dc3c 0f27 2eba 1d1d af3d b375 b43d
000000a0: fb04 bc3d 9a89 95bd 6ba0 953d 1218 683d
000000b0: dd1d 4ebd 5a2d ccbc c705 913d 1a2e 713a

fc_smart.weight f4 [64, 48]
-0.22944537 0.094606966 0.12255726 -0.2000559 -0.3796527 0.019528601 -0.03769394 0.31352943
-0.029929051 0.17602381 -0.18584467 -0.085063 -0.19474725 0.23981503 -0.06628526 0.082538866
0.40290543 -0.13588302 0.13065459 0.065760344 0.21016185 0.027844785 0.0070402888 -0.19729298
-0.13009964 -0.7334176 0.07211331 -0.100229844 0.1836014 -0.57283777 0.023506433 0.08263229
0.057239752 -0.16748312 0.25687748 0.04169867 -0.57012427 0.16937667 0.027956871 -0.09925072
-0.07760759 0.013294969 -0.021844784 0.1864582 -0.12861007 -0.31762278 0.058250315 -0.06421965
-0.23474406 0.028216079 -0.038113214 0.047752574 0.24110809 0.016560977 -0.13740708 0.018691802
-0.31820133 0.51932496 -0.06084881 0.37557617 -0.28888932 0.7891695 0.0051017283 -0.06278657
0.040680513 -0.30969122 -0.011749085 0.037668888 0.0014073104 0.07285945 -0.09624775 -0.13402641
-0.13712467 1.2329608 0.06779868 0.07620674 -0.17771707 0.1542685 -0.10660755 -0.19105873
0.042506948 -0.19342308 0.19051841 0.5041424 1.0785019 0.10171512 -0.11523907 0.046650745
-0.072758846 0.2251573 -0.07694448 -0.15956837 -0.68347776 -0.5940058 0.6885279 0.07703481
-0.21887502 0.057762492 0.04618326 0.09279942 0.2930077 0.1013666 0.06415551 -0.08304036
-0.35816693 0.57246304 -0.062112454 0.41675875 -0.27196553 0.79868716 -0.0039341594 0.13598818
0.03776047 -0.26073316 -0.0951338 -0.04425523 -0.012419777 0.034725394 0.030174168 -0.08233011
-0.025226085 1.0236533 0.055932947 0.13058981 -0.24331118 0.053374425 0.062016137 -0.22999434
-0.07472307 -0.18845664 0.073060915 0.5095423 1.1343143 0.0012607253 -0.11262095 -0.00036840557
-0.02713697 0.27140158 -0.027783604 -0.059972268 -0.757392 -0.628532 0.75382084 0.12367344
-0.26447418 -0.079455346 0.08624234 -0.0024061946 0.15876855 -0.12016866 0.117794015 0.07889269
-0.36147788 0.6305188 -0.12888554 0.38674787 -0.3372109 0.830741 -0.06241764 0.020146187
0.19506049 -0.30343866 -0.032130674 0.04018857 0.09179923 0.0873826 -0.11969381 -0.12202037
-0.060928684 1.3073945 0.073234804 0.15461582 -0.16005056 -0.12090518 -0.0883479 -0.15620169
0.10638752 -0.25072545 0.15340298 0.5197953 0.902711 0.08731305 -0.1003282 0.030232757
0.034346435 0.2907408 -0.037787784 -0.030948114 -0.7589777 -0.7014872 0.764612 0.10154819
0.10720746 -0.013243819 0.08713916 -0.11954158 -0.38632438 0.083822764 -0.030885423 0.14196374
0.30450082 -0.43163612 0.045901578 -0.447163 0.2313861 -0.6958299 -0.0843752 -0.12466719
0.04424685 0.26275635 -0.10005836 0.07085438 0.07355075 -0.07216619 -0.05421517 0.044516325
0.127571 -1.1871761 0.01068656 0.061026927 0.24695086 -0.3104165 0.059323207 0.21368358
0.09365506 0.077239744 -0.049190417 -0.4874937 -1.2542853 0.01874372 0.049042568 -0.048851863
0.07396582 -0.19682169 0.12149024 0.27781147 0.65533465 0.456424 -0.72614545 -0.073946826
0.31425282 -0.114668496 -0.073085696 0.061878216 -0.063347615 -0.096940905 0.08607183 -0.19502479
0.3696402 -0.66086185 0.17830366 -0.38141945 0.40656132 -0.90356904 0.0747504 -0.09799983
00000000: baf3 6abe 4cc1 c13d 4dff fa3d 74db 4cbe
00000010: d761 c2be 72fa 9f3c f664 1abd ee86 a03e
00000020: c52d f5bc 963f 343e 114e 3ebe 8335 aebd
00000030: d36b 47be 1292 753e 91c0 87bd 230a a93d
00000040: 9f49 ce3e eb24 0bbe 51ca 053e 5cad 863d
00000050: ab34 573e bf1a e43c 39b2 e63b 2c07 4abe
00000060: d738 05be 41c1 3bbf 25b0 933d 4e45 cdbd
00000070: 0102 3c3e 7fa5 12bf 9090 c03c 1e3b a93d
00000080: 3b74 6a3d b280 2bbe 7285 833e 39cc 2a3d
00000090: aaf3 11bf 1471 2d3e cf05 e53c f643 cbbd
000000a0: baf0 9ebd 24d3 593c d5f3 b2bc e6ee 3e3e
000000b0: 5cb2 03be 749f a2be e297 6e3d 9885 83bd
000000c0: bf60 70be 6825 e73c 9a1c 1cbd 3498 433d
000000d0: 0ae5 763e e3aa 873c 71b4 0cbe 8d1f 993c
000000e0: 49eb a2be 7bf2 043f 9a3c 79bd 854b c03e
000000f0: 4de9 93be 0307 4a3f 662c a73b 3f96 80bd
00000100: 9ca0 263d d98f 9ebe 3c7f 40bc b14a 1a3d
00000110: 8075 b83a 5637 953d 8a1d c5bd 383e 09be
00000120: 696a 0cbe a9d1 9d3f 09da 8a3d 4812 9c3d
00000130: 77fb 35be 90f8 1d3e 0f55 dabd e6a4 43be
00000140: c41b 2e3d b310 46be 4217 433e 7a0f 013f
00000150: 5a0c 8a3f 0450 d03d 7602 ecbd da14 3f3d
00000160: 9702 95bd a38f 663e 1195 9dbd e465 23be
00000170: 66f8 2ebf c410 18bf 5d43 303f 6dc4 9d3d
00000180: c620 60be 5d98 6c3d a82a 3d3d 9f0d be3d
00000190: 1b05 963e 4b99 cf3d f763 833d 1011 aabd
000001a0: a861 b7be f08c 123f a169 7ebd 6761 d53e
000001b0: 113f 8bbe c376 4c3f 1fea 80bb 7c40 0b3e
000001c0: b9aa 1a3d d17e 85be 82d5 c2bd f944 35bd
000001d0: 527c 4bbc 373c 0e3d d12f f73c b09c a8bd
000001e0: efa6 cebc 1207 833f f219 653d 56b9 053e
000001f0: 9126 79be 249f 5a3d a204 7e3d a383 6bbe
00000200: 6908 99bd c7fa 40be f6a0 953d 5d71 023f
00000210: 3631 913f ec3e a53a d0a5 e6bd 8f26 c1b9
00000220: 5a4e debc 26f5 8a3e 719a e3bc 7ba5 75bd
00000230: 71e4 41bf 79e7 20bf 67fa 403f 8048 fd3d
00000240: 2969 87be 7cb9 a2bd d39f b03d 3fb1 1dbb
00000250: 3994 223e fd1a f6bd fd3d f13d 7e92 a13d
00000260: a113 b9be ae69 213f 92fa 03be d103 c63e
00000270: e8a6 acbe 71ab 543f a4a9 7fbd 9e09 a53c
00000280: f0bd 473e 505c 9bbe 749b 03bd c59c 243d
00000290: 3c01 bc3d a6f5 b23d 0722 f5bd d1e5 f9bd
000002a0: 5b90 79bd b458 a73f 21fc 953d 9c53 1e3e
000002b0: 4be4 23be 239d f7bd beef b4bd 56f3 1fbe
000002c0: b3e1 d93d 165f 80be ac15 1d3e 4e11 053f
000002d0: 1118 673f 2fd1 b23d df78 cdbd b0aa f73c
000002e0: d9ae 0c3d fadb 943e 5dc7 1abd e686 fdbc
000002f0: 5d4c 42bf aa94 33bf 9dbd 433f 7ff8 cf3d
00000300: 968f db3d 9afc 58bc 0476 b23d 37d2 f4bd
00000310: 4fcc c5be 45ab ab3d 6d03 fdbc f15e 113e
00000320: 88e7 9b3e 69ff dcbe 4b03 3c3d 8cf2 e4be
00000330: 7af0 6c3e e921 32bf e8cc acbd 8351 ffbd
00000340: 2f3c 353d 0088 863e 66eb ccbd 1a1c 913d
00000350: c7a1 963d decb 93bd ba10 5ebd c056 363d
00000360: f9a1 023e 63f5 97bf ae16 2f3c 5ff7 793d
00000370: b0e0 7c3e e9ee 9ebe e4fc 723d decf 5a3e
00000380: 39ce bf3d df2f 9e3d e47b 49bd c698 f9be
00000390: 6c8c a0bf 6e8c 993c dce0 483d e418 48bd
000003a0: 647b 973d a08b 49be e0cf f83d 4e3d 8e3e
000003b0: 03c4 273f 68b0 e93e abe4 39bf 6f71 97bd
000003c0: bfe5 a03e 51d7 eabd f4ad 95bd 0374 7d3d
000003d0: 65bc 81bd f488 c6bd 6d46 b03d 94b4 47be
000003e0: 7b41 bd3e 3e2e 29bf 3c95 363e 6949 c3be
000003f0: ce28 d03e 4d50 67bf bd16 993d 23b4 c8bd

fc_smart.bias f4 [64]
0.07469091 0.04734211 0.0041258587 0.06217543 0.04736358 0.018538987 -0.09621623 -0.09287179
0.044006128 0.1041036 -0.09640694 0.09978546 -0.041390404 0.0013478061 0.055546753 0.08965696
-0.011787364 -0.034436774 -0.005740522 -0.033643972 -0.08368365 0.006749666 0.02186161 -0.026044346
0.057782784 0.0297605 0.060949747 0.032486655 -0.03520554 -0.09016234 0.01828387 -0.011354332
0.03916186 -0.050879885 0.041578148 -0.031319793 0.054041825 0.06879501 0.0023382222 -0.1025003
0.09259423 0.12793863 0.014812533 -0.09088336 -0.08096824 0.065261945 -0.040845152 0.024454014
-0.112131335 0.023322877 -0.09735619 -0.07457215 0.115975685 0.07220548 -0.06417613 -0.0022224546
0.07385562 0.06610216 -0.07484477 0.0038193148 -0.120856166 -0.06841785 0.03175556 -0.071296245
00000000: 8cf7 983d cde9 413d 3632 873b aaab 7e3d
00000010: 5000 423d 13df 973c 040d c5bd 9133 bebd
00000020: c53f 343d 4534 d53d 0071 c5bd 525c cc3d
00000030: fc88 29bd dea8 b03a fe84 633d 119e b73d
00000040: ca1f 41bc 930d 0dbd fd1a bcbb 43ce 09bd
00000050: 5562 abbd 4d2c dd3b 1e17 b33c f45a d5bc
00000060: a4ad 6c3d 4bcc f33c 71a6 793d ba10 053d
00000070: af33 10bd 08a7 b8bd 0ec8 953c 8507 3abc
00000080: 3068 203d 6d67 50bd d94d 2a3d 2f49 00bd
00000090: f65a 5d3d 66e4 8c3d dc3c 193b adeb d1bd
000000a0: 0ba2 bd3d 5802 033e 44b0 723c 0e21 babd
000000b0: add2 a5bd 0ea8 853d 3f4d 27bd c953 c83c
000000c0: 1da5 e5bd 9e0f bf3c af62 c7bd 49b9 98bd
000000d0: a984 ed3d 77e0 933d c66e 83bd 9aa6 11bb
000000e0: 9e41 973d 9260 873d 3748 99bd 784d 7a3b
000000f0: 7083 f7bd a81e 8cbd 1e12 023d c403 92bd

network_aging.lstm.weight_ih_l0 f4 [128, 5]
0.11089139 -0.02725763 -0.12738854 0.15088768 0.14834021 -0.09290623 0.17801118 -0.12730968
-0.110035814 0.107657515 0.07634799 0.0032850127 -0.02143822 -0.13920917 -0.13929774 -0.04036097
0.009393945 0.07420642 -0.08462636 -0.02900779 -0.026129173 0.15410484 0.113089554 0.16938704
0.14330475 0.19661926 0.10752294 0.22926335 0.14873238 0.07542815 -0.038570106 0.13426192
0.20898686 0.06926463 0.04450266 0.1359168 -0.065527946 -0.12276221 0.1032288 0.111742206
0.012774473 0.21612662 -0.10768389 0.06877581 0.002458872 0.11417043 0.108066306 -0.060584046
0.021914348 0.046750583 0.23059258 -0.004089267 -0.03573366 0.08443254 -0.017090833 0.039146934
0.041243747 -0.11773919 -0.09561335 -0.07893218 -0.095723815 0.06437248 0.056916323 0.1855025
0.102902256 -0.00517995 -0.108684406 0.13293912 -0.0040603625 0.1627973 -0.016900744 0.18397985
-0.08831725 -0.019570366 0.113650694 0.05772924 0.14539549 -0.05304916 -0.07630162 -0.05100343
0.23035711 0.06347193 0.06543019 0.13166732 -0.03213849 0.17332888 0.013935364 0.19220108
0.0034102818 -0.13055263 0.22197233 0.17526932 0.07540102 0.12503912 0.12654527 -0.06735569
0.0768111 0.1466267 0.14242154 -0.0375701 0.07421233 0.11610728 -0.13004309 0.19580697
0.005463366 0.14758112 -0.010044592 0.06525626 0.15305758 0.120668225 0.21459424 -0.046882123
0.20318829 0.19066021 0.10802823 -0.04253291 0.044652864 0.09798918 -0.12508434 0.08941278
-0.090227656 -0.06525722 0.016437752 -0.10542701 0.18405855 0.065806605 0.14693655 0.013169023
0.20129646 -0.13611612 0.17465833 -0.005764018 0.14989682 -0.09676265 0.16889288 0.08442706
-0.009870096 0.13267992 0.0739351 0.13912888 0.024141662 -0.16322315 -0.009026984 0.0868161
0.027998911 -0.103078976 -0.10222221 0.17357208 0.19262321 -0.0671631 0.053938057 0.19326752
0.035153687 -0.1260187 -0.03468892 0.15030472 0.13345133 0.14412886 -0.0076028663 0.08352034
0.17390974 0.029653974 0.053513717 -0.023637153 0.07914737 0.07770536 0.11887252 -0.06525805
-0.10003186 0.034786005 0.16108657 0.12050648 0.08217386 0.102909274 -0.16576481 -0.0017082938
0.12902819 0.089137144 -0.09356686 0.042369474 0.0012662023 0.14928782 -0.015213632 -0.0129503785
0.09374806 0.22405156 0.22982022 -0.090410315 0.19100483 -0.08553284 -0.10315871 -0.053821187
0.1056193 -0.04195968 0.08004364 -0.065215506 0.041786466 0.16787769 0.11903322 -0.08233337
0.025370084 0.20425804 -0.086866036 0.05492807 -0.030620491 0.075183064 0.0009956746 0.018799607
-0.118905924 0.08331765 -0.07688841 0.16460514 -6.931901e-05 -0.014406795 0.12775664 -0.078310475
-0.12796882 -0.03399036 -0.101875536 -0.07439628 0.09467355 -0.058796886 0.1829454 -0.072369814
0.15332967 0.11334213 -0.038257416 -0.10310251 -0.12719509 -0.0019696096 0.09182608 -0.11269749
0.031036692 0.00050131767 -0.037778214 -0.004796047 -0.019999735 0.15502924 0.02840672 0.05878497
-0.0033116692 -0.05688455 0.20989367 -0.05048127 0.0038239716 0.12862767 0.023285499 0.056312032
-0.13063015 -0.11552701 -0.040279355 -0.039991528 0.14170994 0.17038377 0.08818128 0.19865708
00000000: 061b e33d 654b dfbc 2472 02be 4d82 1a3e
00000010: 7fe6 173e 9f45 bebd 9048 363e 785d 02be
00000020: 755a e1bd 8b7b dc3d 565c 9c3d 5e49 573b
00000030: 359f afbc d98c 0ebe 11a4 0ebe 8b51 25bd
00000040: 10e9 193c 89f9 973d 9650 adbd bfa1 edbc
00000050: d90c d6bc a9cd 1d3e 7f9b e73d cc73 2d3e
00000060: 7bbe 123e 8f56 493e fd34 dc3d 03c4 6a3e
00000070: 4d4d 183e 137a 9a3d b0fb 1dbd f57b 093e
00000080: a700 563e 9dda 8d3d 6c48 363d c62d 0b3e
00000090: 8433 86bd c16a fbbd 9f69 d33d 19d9 e43d
000000a0: 064c 513c 4c50 5d3e 5f89 dcbd 55da 8c3d
000000b0: 0725 213b 30d2 e93d de51 dd3d fa26 78bd
000000c0: b885 b33c 8a7d 3f3d 7620 6c3e 42ff 85bb
000000d0: 755d 12bd f8ea ac3d 1302 8cbc 8958 203d
000000e0: 34ef 283d 3f21 f1bd efd0 c3bd 32a7 a1bd
000000f0: d90a c4bd b8d5 833d 1721 693d 5ef4 3d3e
00000100: 6bbe d23d 92bc a9bb ee95 debd 3121 083e
00000110: ca0c 85bb 56b4 263e 6e73 8abc 3765 3c3e
00000120: addf b4bd 0852 a0bc b2c1 e83d 7f75 6c3d
00000130: 8ee2 143e 134a 59bd 0644 9cbd f9e8 50bd
00000140: bce2 6b3e 92fd 813d 4300 863d ccd3 063e
00000150: a6a3 03bd 207d 313e 2751 643c 5cd0 443e
00000160: 097f 5f3b 97af 05be b74c 633e cd79 333e
00000170: da6b 9a3d 410a 003e 1595 013e c8f1 89bd
00000180: 234f 9d3d 4f25 163e f4d6 113e 1be3 19bd
00000190: a2fc 973d a7c9 ed3d 042a 05be 9f81 483e
000001a0: 0906 b33b 811f 173e 1392 24bc 13a5 853d
000001b0: 20bb 1c3e e720 f73d 98be 5b3e 7807 40bd
000001c0: 9710 503e 6e3c 433e e83d dd3d fd36 2ebd
000001d0: ece5 363d 8dae c83d 1c16 00be 0c1e b73d
000001e0: 47c9 b8bd 94a5 85bd 77a8 863c 1eea d7bd
000001f0: d879 3c3e 9dc5 863d 8976 163e e3c2 573c
00000200: a920 4e3e 0662 0bbe a2d9 323e 16e0 bcbb
00000210: 8d7e 193e 7f2b c6bd 41f2 2c3e 18e8 ac3d
00000220: 2fb6 21bc 3fdd 073e 496b 973d cd77 0e3e
00000230: bcc4 c53c f823 27be eae5 13bc a4cc b13d
00000240: f95d e53c 121b d3bd e159 d1bd e1bc 313e
00000250: 053f 453e cf8c 89bd 27ee 5c3d ece7 453e
00000260: 50fd 0f3d 0c0b 01be f815 0ebd 7be9 193e
00000270: 77a7 083e 8496 133e 7721 f9bb b60c ab3d
00000280: 6515 323e e4ec f23c 3331 5b3d b4a2 c1bc
00000290: 0418 a23d fd23 9f3d 7073 f33d 03a6 85bd
000002a0: 81dd ccbd c57b 0e3d e1f3 243e 1acc f63d
000002b0: c54a a83d 19c2 d23d 40be 29be d4e8 dfba
000002c0: f71f 043e 898d b63d fb9f bfbd 9d8b 2d3d
000002d0: b3f6 a53a e8de 183e 9942 79bc d32d 54bc
000002e0: fcfe bf3d c66d 653e fe55 6b3e 0b29 b9bd
000002f0: c596 433e d72b afbd e044 d3bd 9b73 5cbd
00000300: ee4e d83d eadd 2bbd eced a33d b58f 85bd
00000310: 4928 2b3d 21e8 2b3e b0c7 f33d 669e a8bd
00000320: ecd4 cf3c 0529 513e d2e6 b1bd 42fc 603d
00000330: d3d7 fabc 94f9 993d 4c81 823a a201 9a3c
00000340: f384 f3bd 72a2 aa3d ac77 9dbd 408e 283e
00000350: 5c5f 91b8 7a0a 6cbc a3d2 023e 3e61 a0bd
00000360: 420a 03be 7a39 0bbd 1fa4 d0bd 145d 98bd
00000370: 35e4 c13d 01d5 70bd 0a56 3b3e a036 94bd
00000380: 7402 1d3e eb1f e83d cfb3 1cbd 6927 d3bd
00000390: 6e3f 02be 9114 01bb 500f bc3d f1cd e6bd
000003a0: a940 fe3c dc6a 033a 54bd 1abd 2928 9dbb
000003b0: 7cd6 a3bc fcbf 1e3e 36b5 e83c 82c8 703d
000003c0: 9708 59bb c6ff 68bd 5eee 563e 73c5 4ebd
000003d0: 999b 7a3b f9b6 033e 3bc1 be3c 72a7 663d
000003e0: e9c3 05be 6d99 ecbd f7fb 24bd 28ce 23bd
000003f0: 691c 113e 1579 2e3e 6398 b43d c36c 4b3e

network_aging.lstm.weight_hh_l0 f4 [128, 32]
0.14420089 -0.15536797 -0.13308892 -0.1434746 0.242764 -0.14711867 -0.0125480825 -0.15778022
-0.017916089 0.06782878 -0.018307475 0.20398659 -0.0020202775 -0.034216166 -0.069867045 0.14870447
-0.17971505 -0.18036711 0.099780895 0.069493584 -0.06423729 0.10337533 -0.15050311 -0.14303705
-0.10852065 -0.077746846 0.059618566 -0.14417535 -0.07937094 0.13514625 0.10319043 0.23240764
0.16760631 0.031679176 -0.1354571 0.032351103 0.122273855 -0.038981363 0.02922045 0.11200684
0.20556797 0.15373793 0.016314719 0.115264446 -0.15843458 0.112982154 -0.23952746 0.08693189
-0.05705147 -0.06926926 -0.14783344 -0.09368603 0.10947035 -0.21290508 0.011657852 -0.06390016
-0.016028771 0.059252143 -0.065686144 -0.09639387 0.08445331 0.08328433 0.06931703 -0.08340266
-0.1743607 -0.081810355 -0.13641983 0.10413041 -0.12865044 0.18631004 0.028510273 0.15365006
0.118238136 0.07538852 -0.14509352 -0.01967239 0.19689302 0.05062283 -0.103647 0.0777149
0.22144693 0.16999616 0.20650385 0.11524795 0.05212091 -0.12555079 0.037982713 0.020858686
0.01994362 0.19125345 -0.18186714 -0.071998276 -0.18128438 0.055647496 0.08151349 -0.03603629
0.12181688 -0.11835828 0.11601548 -0.04708303 0.20492795 -0.10045394 -0.25349292 -0.108237416
0.10355621 0.0005554727 0.071686536 0.13955353 0.0012291189 0.25338203 -0.07208577 0.011336133
-0.21860346 -0.21681203 0.11395946 -0.10970727 0.055264506 0.034450393 -0.21238749 -0.1769859
-0.23406179 0.057085823 -0.12506412 0.008105701 0.03517775 -0.07526431 0.021568794 -0.0336762
0.22334097 -0.20079713 -0.015682025 -0.21092857 0.063892014 0.08980013 -0.14630263 0.020400476
0.24361502 -0.1067672 0.07945001 0.15909362 -0.112495944 -0.03512524 -0.097358145 0.15240113
0.034801263 0.052788693 0.081230916 -0.10526898 0.15188846 -0.06754428 -0.09219447 0.011095939
-0.22056139 0.08359019 0.06476046 -0.20232561 0.016749969 0.009547262 0.0060506547 -0.05745816
-0.06249201 -0.22688608 0.10702408 -0.12550743 0.18938668 -0.1366383 -0.26245537 -0.18864311
0.0012991637 0.06502622 0.15251443 -0.044931907 0.04255694 -0.008144451 -0.0529163 0.07509888
-0.1901375 -0.13233799 -0.10870838 0.14872546 0.038478397 -0.055151585 0.076825425 0.04058881
-0.087122746 0.07491977 0.16765076 -0.12767147 0.058419976 0.04338971 0.074285366 0.16370782
0.1239052 -0.23569968 -0.14232072 -0.23815437 0.015851274 -0.1347268 -0.09562939 0.07592748
-0.029506411 0.016019205 0.097243845 -0.04479176 0.009486616 -0.03381661 -0.24541919 -0.06792543
-0.18119958 -0.0076579256 -0.059738755 0.17632413 -0.111947335 -0.038333938 0.08757753 -0.103837185
0.03027806 0.05492189 0.19808269 0.020926647 -0.14335614 0.22171906 0.15091345 -0.017546125
0.16761827 -0.18169993 -0.1183262 -0.075700246 0.14821158 -0.08166827 0.0727156 -0.10905085
0.16106004 -0.11423434 -0.057427995 0.011148863 -0.04728801 -0.071672395 0.04762023 -0.111741014
-0.21838787 0.03476638 -0.19061458 0.11288955 0.13192436 -0.15740539 -0.12922047 -0.15966575
-0.089774646 0.07154499 0.037617102 0.08572213 0.15157145 0.0528455 0.14246386 0.015125802
00000000: 66a9 133e c818 1fbe 7648 08be 01eb 12be
00000010: 2097 783e 47a6 16be 7996 4dbc 2391 21be
00000020: c3c4 92bc d1e9 8a3d 8ff9 95bc dce1 503e
00000030: a266 04bb 4026 0cbd 7416 8fbd fc45 183e
00000040: 3907 38be 28b2 38be ed59 cc3d a752 8e3d
00000050: d78e 83bd 72b6 d33d 7d1d 1abe 4e78 12be
00000060: 1340 debd bd39 9fbd 9932 743d b4a2 13be
00000070: 3b8d a2bd c763 0a3e 8155 d33d 45fc 6d3e
00000080: fda0 2b3e 06c2 013d 44b5 0abe 9782 043d
00000090: b76a fa3d ecaa 1fbd ba5f ef3c d863 e53d
000000a0: 6980 523e 7a6d 1d3e 72a6 853c c40f ec3d
000000b0: ad3c 22be 3063 e73d b046 75be 5909 b23d
000000c0: cdae 69bd 0bdd 8dbd a661 17be 76de bfbd
000000d0: fe31 e03d ca03 5abe 9300 3f3c 16de 82bd
000000e0: c54e 83bc 60b2 723d 7586 86bd 266a c5bd
000000f0: dbf5 ac3d fa90 aa3d 16f6 8d3d 04cf aabd
00000100: 9d8b 32be 308c a7bd a4b1 0bbe 5342 d53d
00000110: f1bc 03be 0fc8 3e3e 608e e93c 7156 1d3e
00000120: d626 f23d 4c65 9a3d 6593 14be fe27 a1bc
00000130: 539e 493e e259 4f3d e144 d4bd fd28 9f3d
00000140: fcc2 623e 7913 2e3e bf75 533e 1e07 ec3d
00000150: bc7c 553d 6390 00be c393 1b3d d6df aa3c
00000160: cd60 a33c f2d7 433e 613b 3abe d573 93bd
00000170: 9da2 39be a1ee 633d 8bf0 a63d ca9a 13bd
00000180: 217b f93d d365 f2bd 8699 ed3d 23da 40bd
00000190: a2d8 513e ccba cdbd d3c9 81be 94ab ddbd
000001a0: 4715 d43d 249d 113a 64d0 923d 1fe7 0e3e
000001b0: 631a a13a 4abb 813e b4a1 93bd 30bb 393c
000001c0: 96d9 5fbe f903 5ebe 9463 e93d 35ae e0bd
000001d0: 095d 623d db1b 0d3d 1b7c 59be cb3b 35be
000001e0: e5ad 6fbe d3d2 693d cf10 00be c6cd 043c
000001f0: 8b16 103d 2d24 9abd 0ab1 b03c 0ef0 09bd
00000200: 7fb3 643e c39d 4dbe 9777 80bc a9fd 57be
00000210: d1d9 823d 21e9 b73d 5bd0 15be e61e a73c
00000220: 3776 793e c3a8 dabd b0b6 a23d 70e9 223e
00000230: 4664 e6bd 7cdf 0fbd b563 c7bd 0b0f 1c3e
00000240: c58b 0e3d f538 583d 655c a63d 4397 d7bd
00000250: a688 1b3e a854 8abd 74d0 bcbd becb 353c
00000260: d8da 61be 5531 ab3d 22a1 843d 722e 4fbe
00000270: 3b37 893c 1f6c 1c3c 9244 c63b 3f59 6bbd
00000280: 9ff7 7fbd d354 68be 712f db3d 0585 00be
00000290: 95ee 413e e9ea 0bbe 8d60 86be a92b 41be
000002a0: b348 aa3a 782c 853d be2c 1c3e 850a 38bd
000002b0: 3050 2e3d 4e70 05bc c3be 58bd 71cd 993d
000002c0: 68b3 42be 9c83 07be 80a2 debd 7d4b 183e
000002d0: 869b 1d3d a1e6 61bd a656 9d3d 7440 263d
000002e0: 696d b2bd 896f 993d a4ac 2b3e 4fbc 02be
000002f0: c949 6f3d 69b9 313d ed22 983d 06a3 273e
00000300: 02c2 fd3d 425b 71be 86bc 11be bdde 73be
00000310: 88da 813c d2f5 09be 57d9 c3bd de7f 9b3d
00000320: 6eb7 f1bc b53a 833c c827 c73d 9177 37bd
00000330: c06d 1b3c 4983 0abd 2b4f 7bbe 7d1c 8bbd
00000340: 628c 39be 56ef fabb a0b0 74bd 508e 343e
00000350: a544 e5bd 0c04 1dbd d95b b33d 97a8 d4bd
00000360: b209 f83c c7f5 603d 30d6 4a3e 5c6e ab3c
00000370: f4cb 12be 520a 633e 0e89 1a3e e4bc 8fbc
00000380: 20a4 2b3e 8c0f 3abe 0255 f2bd bb08 9bbd
00000390: c7c4 173e b241 a7bd ebeb 943d 0d56 dfbd
000003a0: ecec 243e b2f3 e9bd 9e39 6bbd b8a9 363c
000003b0: 13b1 41bd fac8 92bd 6e0d 433d 79d8 e4bd
000003c0: 12a1 5fbe 3167 0e3d 7830 43be a332 e73d
000003d0: 2e17 073e e12e 21be 5f52 04be 6b7f 23be
000003e0: c5db b7bd 2e86 923d 6414 1a3d 168f af3d
000003f0: 8c35 1b3e 8674 583d 0ce2 113e 36d2 773c

network_aging.lstm.bias_ih_l0 f4 [128]
-0.04050378 -0.07796628 -0.12082821 -0.017335737 0.1815128 -0.040271513 0.12519872 0.052276738
0.024870813 -0.10166594 0.14009035 0.018359983 0.07972259 0.031030476 0.115316495 0.16314629
0.22404514 -0.088030435 0.10457558 -0.020215811 -0.08312652 0.12327152 0.25318065 0.14540687
0.05375572 -0.026602084 0.19377951 -0.0029187105 -0.15360343 -0.0147277545 -0.041257385 0.014409755
-0.028651847 0.06364691 0.14215268 0.012556734 0.17235982 0.16568576 0.15119746 -0.10402501
0.02256908 -0.026712809 -0.08188541 0.17152478 0.16768636 0.017241178 0.14332178 -0.023205403
0.15962157 -0.110067874 0.06460714 -0.018255398 0.18994316 -0.012381993 0.16055377 0.018719723
0.12401279 0.019631464 0.1491543 0.20630956 -0.12879452 0.21887182 -0.015795872 0.21530029
0.19285905 -0.22316417 -0.075856805 -0.14794677 0.13764168 -0.19401735 0.05318138 0.0026144332
0.13633789 0.07288918 0.1850927 0.10073159 -0.19092125 0.21811298 -0.19951566 -0.021417936
-0.1310577 -0.20134306 -0.060025506 0.21439154 0.077510945 -0.15739714 -0.11132091 -0.21527696
-0.1275976 -0.17304428 0.06176906 0.07662478 -0.10426258 0.23070253 0.21152692 0.20809864
0.016602626 -0.05977631 -0.06559549 0.31426638 0.0050913794 0.16913235 0.20008807 0.059338644
0.2234885 -0.03370335 0.19742045 -0.011572144 0.072500005 0.06580105 0.075213656 0.037875175
0.052633077 0.11385425 0.23662639 0.08589281 0.02441745 -0.066077344 -0.018337084 0.17345297
0.25397873 0.10179286 0.1896451 -0.050668217 0.07428474 -0.021980485 -0.009346867 0.009222493
00000000: 4be7 25bd c9ac 9fbd c874 f7bd ad03 8ebc
00000010: 7ede 393e bef3 24bd 1834 003e 2220 563d
00000020: e0bd cb3c 3b36 d0bd d873 0f3e ad67 963c
00000030: 9945 a33d a033 fe3c 0e2b ec3d d20f 273e
00000040: 176c 653e 4d49 b4bd b92b d63d a19b a5bc
00000050: 3d3e aabd c775 fc3d e5a0 813e 8ae5 143e
00000060: f52e 5c3d 9dec d9bc 236e 463e d647 3fbb
00000070: 384a 1dbe ae4c 71bc 81fd 28bd e516 6c3c
00000080: 47b7 eabc 5059 823d 7990 113e c2ba 4d3c
00000090: 187f 303e 87a9 293e 82d3 1a3e 100b d5bd
000000a0: cbe2 b83c d2d4 dabc 8ab3 a7bd 31a4 2f3e
000000b0: f9b5 2b3e 5f3d 8d3c f2c2 123e 4219 bebc
000000c0: d673 233e 446b e1bd c050 843d 588c 95bc
000000d0: 7680 423e d8dd 4abc 3568 243e 1b5a 993c
000000e0: 6bfa fd3d 2ad2 a03c e8bb 183e d042 533e
000000f0: b6e2 03be ef1f 603e 5866 81bc ae77 5c3e
00000100: d87c 453e 2685 64be d05a 9bbd 5c7f 17be
00000110: f1f1 0c3e 7cac 46be b8d4 593d e956 2b3b
00000120: 299c 0b3e ec46 953d f188 3d3e 5d4c ce3d
00000130: dc80 43be 0259 5f3e d54d 4cbe ab74 afbc
00000140: fd33 06be e02c 4ebe 4edd 75bd 7589 5b3e
00000150: 0fbe 9e3d b72c 21be 38fc e3bd 9071 5cbe
00000160: f2a8 02be 8532 31be 8e01 7d3d 74ed 9c3d
00000170: 9f87 d5bd 493d 6c3e 839a 583e cf17 553e
00000180: 3b02 883c 01d8 74bd ee56 86bd 86e7 a03e
00000190: 96d5 a63b 0831 2d3e e3e3 4c3e 140d 733d
000001a0: 2bda 643e 860c 0abd 9628 4a3e 1799 3dbc
000001b0: e27a 943d b3c2 863d 9e09 9a3d 0023 1b3d
000001c0: c895 573d 6b2c e93d 304e 723e 92e8 af3d
000001d0: 1b07 c83c 8f53 87bd a737 96bc a89d 313e
000001e0: 8009 823e c678 d03d 5332 423e 7a89 4fbd
000001f0: 9922 983d 6b10 b4bc 9a23 19bc f019 173c
