trained_model/mc1_mc2/90_days_lookahead/pnet_checkpoint/pnet_750.pth (torch, 545278 bytes, 36 tensors)

network_smart.layer1.0.weight f4 [128, 330]
000000 b0 b0 a1 3c 90 4b d7 bc 6a a8 08 bd a1 5d b0 bc
       0.019737571 -0.026281148 -0.033363737 -0.02152902
000010 4d 6d 47 3c 20 d4 89 3e 1b da 0c bb e6 bc 19 be
       0.012172055 0.2691965 -0.0021492306 -0.15013465
000020 85 0c 32 bd 74 f8 0b 3c 6c 4e af 3b 21 03 26 3d
       -0.04346897 0.008543123 0.005349925 0.040530328
000030 fb 6e 19 bd 10 c1 a3 bd c0 5a 65 3d cc a5 32 bc
       -0.037459355 -0.07995808 0.05599475 -0.010903787
000040 ab e8 9e 3e bd 5b 8a bd c7 1f 00 be 6c 60 3b bd
       0.31036887 -0.06755779 -0.12512122 -0.045746252
000050 37 01 0f 3d 6d b4 c7 3b 14 87 6f 3d 23 8b 0e bd
       0.034913268 0.0060945065 0.05847843 -0.03480066
000060 d3 75 4b bd 25 95 16 3d ca 9a 2d bd e2 40 83 3e
       -0.049672913 0.03676333 -0.042383946 0.2563544
000070 0c a9 70 bd 22 73 1a be 12 a0 25 3d cf fc 74 3c
       -0.058754966 -0.15082982 0.040435858 0.014952852
000080 e4 d0 34 bb 0c 3f dd 3c d1 1c b5 3c f1 60 09 bd
       -0.0027590329 0.027007602 0.022108467 -0.033539716
000090 25 71 8e 3b e6 39 0e 3d 55 9c aa 3e c2 cb f3 3c
       0.004346984 0.034723185 0.33322397 0.029760245
0000a0 95 98 29 be 66 f5 7c bc d9 46 33 3d 50 a0 c0 3c
       -0.16562112 -0.015439367 0.043768737 0.023513943
0000b0 e2 e1 20 3c 48 ba 21 3d 7c dd dc bc 73 82 8d 3d
       0.00981948 0.039484292 -0.02696108 0.06909647
0000c0 4c ee bb bc 74 1e a3 3e c8 a7 79 bd 1b 74 21 be
       -0.022940777 0.3185917 -0.060951024 -0.15766947
0000d0 43 23 8b bc 2a c2 43 3d 6c 12 19 3d 7c 74 25 bd
       -0.016984588 0.04779259 0.037371084 -0.04039429
0000e0 c5 ba cd bb ec a1 8d bb e5 94 9a 3b 5a 2b 3a 3d
       -0.006278368 -0.004322281 0.0047174566 0.0454515
0000f0 dd 02 71 3e 6d 63 45 bd fc 2a b4 bd 02 69 61 3d
       0.23536249 -0.048190523 -0.08797261 0.055031784
000100 b7 a0 9f 3c 38 7b 2b bd 02 fe 0b bd 62 0f f4 bb
       0.019485814 -0.041865557 -0.034177788 -0.007448123
000110 71 bc 75 bd ac 4e 35 3d 61 26 8c bc 90 93 82 3e
       -0.059994165 0.04426448 -0.017108144 0.25503206
000120 15 3e 4b bc 38 c9 8f bd 65 6c 3e bd c2 c0 37 bd
       -0.012404938 -0.07020801 -0.04649009 -0.044861563
000130 d5 64 2a bd 42 13 ad 3c 92 f5 c4 bc 91 27 d4 bd
       -0.041600067 0.021127347 -0.024042878 -0.10359109
000140 50 7a ba 3c d4 c6 8c 3c ee e8 9f 3e 3b 27 0f 3b
       0.022763401 0.017184652 0.312324 0.0021843452
000150 d8 d3 04 be 93 aa 44 bd 63 0c b9 bb a1 7c 07 bd
       -0.12971437 -0.048014235 -0.0056472286 -0.03307784
000160 99 59 14 3d 31 ab 1c 3c 29 4e cd bd 4e d8 41 3c
       0.03621826 0.0095623 -0.100246735 0.011831356
000170 45 78 31 3d 12 c0 62 3e 6b f8 ca ba df df 87 bd
       0.04332759 0.22143582 -0.0015485411 -0.06634497
000180 bf 27 4f 3c 86 8d e9 3c a6 01 9d ba 9d 83 3e bd
       0.012643754 0.028509866 -0.0011978641 -0.046512235
000190 56 75 25 bc d8 9c 8c bd a8 ee 4b 3c 63 c5 34 3c
       -0.010098776 -0.06865853 0.012447037 0.011033389
0001a0 e8 72 a2 3e 05 a6 3f bd d7 9f 1c be 9f 34 86 3b
       0.31728292 -0.046789188 -0.15295349 0.0040956284
0001b0 0a fd f1 bc d2 96 2c 3d 5d 58 34 bd 1e 50 80 bb
       -0.029539604 0.04213602 -0.044029582 -0.0039158007
0001c0 a1 92 d5 bd 8e 0e 61 3d 7d ea c9 3b 31 d1 91 3e
       -0.10428358 0.05494552 0.0061619864 0.28479913
0001d0 ed 5d 22 bd bf b4 11 be 05 ae 87 bc 5f 55 d3 bc
       -0.039640356 -0.14229105 -0.016562471 -0.025797544
0001e0 06 b8 d4 bc e2 0f 09 bd 04 9b 02 3d 13 0d 82 bd
       -0.025966655 -0.033462413 0.031886116 -0.0635015
0001f0 c5 4b 54 3d 71 94 ac b9 2c a4 88 3e a8 63 8b bd
       0.051830072 -0.00032916994 0.26687753 -0.06806117
000200 74 f1 1a be 36 c5 1a bd f2 2f 66 bd cf c6 05 3d
       -0.1513117 -0.03778573 -0.056198068 0.0326603
000210 73 43 3d bd 7b d9 b3 bb c3 50 c3 bd a3 b7 31 3d
       -0.046206903 -0.005488572 -0.095368885 0.04338802
000220 c0 b7 7f 3c 15 71 9e 3e 92 a7 29 3c 8b 5e 0a be
       0.015607774 0.3094565 0.010354893 -0.13512628
000230 e4 63 3c 3d 0b 48 96 3c eb a5 30 3d a1 57 56 bc
       0.0459937 0.0183449 0.04312698 -0.013082416
000240 24 96 2d bd 2d f3 61 bc 0c d2 95 3d 97 3f e4 3c
       -0.042379513 -0.013790888 0.07315454 0.027862353
000250 51 c8 98 3e b0 a5 92 bb 2d 38 9d bd 25 65 7d 3c
       0.2984033 -0.004475318 -0.0767673 0.015466009
000260 c3 6c 5b bd 34 19 56 bd 84 d0 07 bc 54 f0 85 bb
       -0.05357052 -0.05227013 -0.00828946 -0.0040874872
000270 e8 19 c0 bd 6d 35 e9 3c 50 94 12 3b 6b ed 70 3e
       -0.09379941 0.028467858 0.0022366233 0.23528068
000280 85 65 73 3a f0 5f 9a bd 4c 18 a7 bb 68 08 2e 3c
       0.0009284842 -0.0753783 -0.005099332 0.010622121
000290 b5 2e c7 3c d9 12 2e bd c3 3d 40 bd 65 24 df bd
       0.024314264 -0.042498443 -0.0469339 -0.108956136
0002a0 09 d1 a3 3d 07 d2 d4 bc 70 9a 94 3e cc 0e c3 3c
       0.07998855 -0.025979055 0.29024076 0.023810767
0002b0 6b 07 08 be 45 e2 5a 3c ca a7 2f bd c7 39 cd bc
       -0.1328408 0.013359611 -0.042884625 -0.025051964
0002c0 2b d9 0e bc a5 6f 63 3d 59 32 d0 bd d3 a9 84 3d
       -0.008718769 0.055526394 -0.10165853 0.06477704
0002d0 3b 6d 4b bd b4 05 5d 3e b5 e0 2f 3c cc 3a 0e be
       -0.049664717 0.21584207 0.010734727 -0.13889617
0002e0 da 45 97 bb 72 df 7d bd 7e 65 9c bc d3 48 8e 3c
       -0.0046164813 -0.061980672 -0.019091364 0.01736871
0002f0 8c b6 28 3d ce 29 96 bc 87 4a 9f 3d 48 6c 37 bd
       0.041189715 -0.01833048 0.07777887 -0.044781
000300 fe a0 58 3e 76 cd c6 bc c5 6a cd bd 85 8f 20 bc
       0.21155164 -0.024267893 -0.1003013 -0.009799843
000310 18 e5 d6 bc 0d 0c bb 3c 1f 77 15 bd 6f 38 42 3d
       -0.026232287 0.022832895 -0.036490556 0.0474171
000320 07 fa 11 3d 6f e0 2d bb 3e 55 fa 3c 04 43 59 3e
       0.035638835 -0.0026531478 0.030558225 0.2121697
000330 7c f9 dc bb b1 f6 24 be 50 0e f5 3c 05 31 fc bb
       -0.006743608 -0.1610973 0.029914051 -0.0076962733
000340 cd d0 d5 bc a2 ab 12 3c c3 1d f2 bc 45 1b 5a 3c
       -0.02610054 0.008952053 -0.029555207 0.013312166
000350 53 29 d4 3b 9d 4a c0 3c da cc 78 3e d5 8d 3b 3c
       0.006474653 0.023473078 0.24296895 0.01144739
000360 a0 0b 87 bd 97 2a e6 3c dd 6c 35 bd 79 da db bb
       -0.06594014 0.02809648 -0.044293273 -0.0067093936
000370 62 68 7f 3c db 20 cb 3a da 4f 61 bd e8 2a 73 3d
       0.015588852 0.0015497463 -0.055007793 0.05936709
000380 e3 c3 18 bd 85 c5 61 3e 0e 2a ca bb ed d6 b1 bd
       -0.037296187 0.22048004 -0.006169564 -0.08683572
000390 45 ba 08 3d ea 0f e8 3c e5 23 60 bd 99 89 0b bd
       0.033380765 0.0283279 -0.05472173 -0.03406677
0003a0 f8 ce e1 3c 5c 96 9c 3c 50 93 0b 3d 73 52 bf bc
       0.02756451 0.019114666 0.034076035 -0.023354745
0003b0 0c 87 4b 3e 0d 70 31 bc 89 b5 0e be c5 66 ba bc
       0.19875735 -0.010829938 -0.13936438 -0.022754082
0003c0 95 2f 74 bc 46 0c 01 3d c6 07 53 3d b9 49 d2 3c
       -0.014903923 0.031505845 0.051521085 0.02566992
0003d0 4b 38 c5 3c a5 1f a1 3d 11 6c c7 3c 25 f2 64 3e
       0.024074694 0.07867364 0.024343522 0.22357996
0003e0 f1 24 87 3b 81 47 a2 bd 00 73 62 bc 7b 4b 05 bd
       0.004124277 -0.079237945 -0.013821363 -0.032542687
0003f0 8c 12 55 3c 62 d4 3e 3d 36 36 de 3c 64 86 4f bd
       0.01300491 0.046589263 0.02712546 -0.050665274

network_smart.layer1.0.bias f4 [128]
000000 29 2b 36 be 41 22 2d 3d 42 1a 93 3d 29 e6 93 ba
       -0.17789902 0.042268995 0.07182743 -0.0011283803
000010 40 cc 02 3e 76 bd e8 bd 84 1e db bd 72 c6 22 bd
       0.12773228 -0.11364262 -0.1069918 -0.039740033
000020 ec 3a 21 3d 7b 4c 1b be 86 57 0d be 94 b7 06 bb
       0.039362833 -0.15165894 -0.13802919 -0.0020556198
000030 1c 0d d9 3d c7 6e 86 3d be e1 95 3c 74 c7 94 3d
       0.105982035 0.06564098 0.018296119 0.07264605
000040 df 89 bf bd 53 08 41 3d 1c 26 d4 bc 7c 36 c9 bc
       -0.09352469 0.04712708 -0.025897078 -0.024562113
000050 bc 88 2e bc 16 39 e9 3c 25 ed f5 bc 33 11 5d 3d
       -0.010652717 0.028469604 -0.030020306 0.05397148
000060 a6 d2 9b bc 02 02 43 bc c4 50 0b bd 6a 16 86 bc
       -0.019021343 -0.011902334 -0.03401257 -0.01636811
000070 f2 ce c1 3c 69 73 28 bd 8c e8 a9 3d 0e 81 83 be
       0.02365825 -0.04112569 0.08296308 -0.25684398
000080 14 b7 65 be 9f 90 0f be 9c a5 b7 3c a7 c2 e3 bc
       -0.2243312 -0.14020012 0.022417836 -0.027802778
000090 f3 b8 0a bd fd 51 5c 3c 58 2f e3 bb 8c 58 ab 3b
       -0.033867788 0.013447282 -0.006933134 0.0052290615
0000a0 c3 23 30 3d ec f1 97 3c a9 d6 3c 3d 38 db e7 3d
       0.043002855 0.018547975 0.046103153 0.113211095
0000b0 35 4a 77 3d f8 b1 1b 3e 70 5a a2 3d b6 92 2b 3e
       0.060373504 0.15204608 0.07927406 0.16755185
0000c0 20 e4 0b 3d 22 f9 2e 3c 3b eb 65 bd be 81 e2 3d
       0.034153104 0.010679515 -0.056132536 0.110599026
0000d0 80 85 3d 3b 6a 42 80 bc 3d ba 12 3d 33 a9 d2 bb
       0.0028918684 -0.015656669 0.035822142 -0.0064288615
0000e0 a4 32 ea bb a6 0c 46 3d dd f5 ee 3d 66 83 2c 3e
       -0.00714715 0.048351906 0.116679884 0.16847
0000f0 e0 2e bd 3c 19 c0 16 3d 28 3a 08 be 51 1f ab 3d
       0.02309364 0.036804292 -0.13303435 0.083555825
000100 ec 56 ba bc 29 05 a3 3a e1 62 31 3d de c5 d7 3d
       -0.022746526 0.0012437451 0.04330719 0.10535787
000110 74 ed 20 3d 78 17 30 3d d7 31 14 3c 4e 4e 17 bc
       0.039288953 0.04299113 0.009045086 -0.009234978
000120 53 f4 20 3c ef 08 51 3d 04 4f 31 3a 93 72 6c bc
       0.009823876 0.05103391 0.00067637884 -0.0144316135
000130 03 b4 8c 3d 3a c0 4b 3c 43 87 66 bc 1c 66 14 be
       0.06870272 0.012435967 -0.014070335 -0.14492077
000140 e5 a6 1d 3e eb 17 5e 3d e0 83 bc 3c 85 3d 4b 3e
       0.15395696 0.05422203 0.023012102 0.19847687
000150 11 93 45 be de 58 0e be 47 d1 ba 3d 6a 42 09 3e
       -0.19294383 -0.13901088 0.09121948 0.13404241
000160 26 19 ab bd e6 0b dc bd 70 61 c8 3d b2 e3 1c 3e
       -0.08354406 -0.10744457 0.0978421 0.15321234
000170 50 07 f7 3d c5 85 f6 3c 96 c6 54 bd 1b 53 42 bb
       0.120619416 0.030093083 -0.0519472 -0.0029651586
000180 ad 1b ab 3c 74 6e 49 bc 5c 3a 0c 3e d9 f0 98 b9
       0.02088722 -0.0122944005 0.13694137 -0.00029171145
000190 47 e7 5d 3c 05 17 42 3e 4d 83 22 3e f8 34 0e 3c
       0.01354391 0.18954094 0.158704 0.008679621
0001a0 a4 bd 6e 3d 0e ec 9e bd cc 5d 63 bd 81 e6 a3 3d
       0.058286324 -0.077598676 -0.055509374 0.080029495
0001b0 0e 7e 1d bb 35 2e 5c bc a0 25 0e be d4 1b 40 3d
       -0.0024031433 -0.013438751 -0.1388154 0.04690154
0001c0 32 fe 54 be 63 87 66 3d eb 62 e2 3b 91 ba 0d bd
       -0.20800093 0.05628146 0.0069087646 -0.03460175
0001d0 5c ee 6c bd da 8c 6d bd ff bd 08 3e 1d 9e 2a be
       -0.057844505 -0.057995655 0.13353728 -0.16661878
0001e0 50 f3 0c 3e 5e e2 61 bd e6 1d d2 3d 62 79 2f 3d
       0.13764691 -0.05514752 0.10259609 0.04284037
0001f0 e5 8b 00 bd 22 23 96 3d 5b 73 be 3c 3d 3f 66 bd
       -0.031383414 0.0733092 0.023248365 -0.056212652

network_smart.layer2.0.weight f4 [128, 128]
000000 1c 10 46 be 9e 12 69 3d e4 3e 45 3e 9b 81 5f 3c
       -0.19342083 0.05690252 0.19262272 0.01364174
000010 3e ac 68 3c 88 69 ef 3d 90 6e 8d be 3b 75 d5 bc
       0.014201222 0.1169005 -0.27623415 -0.026056876
000020 dc 99 c9 bd 4f ba c1 3a 7f 83 8d bc fd 47 b6 3d
       -0.098437995 0.0014780256 -0.017274616 0.089004494
000030 44 85 03 3c b6 5d 65 be fd 96 65 3d 02 a6 c1 3c
       0.0080273785 -0.22399029 0.056052197 0.023638729
000040 70 b1 86 3e c2 2e cb bd d5 56 02 3d 93 81 bc 3c
       0.2630725 -0.09921028 0.03182109 0.023011005
000050 44 95 2b 3c 9d 8e 87 be e6 a8 8d bd 7d bc 64 be
       0.010472599 -0.26475993 -0.069169804 -0.22337528
000060 67 5a 4f 3d 23 ef c0 bd b9 87 9a 3d ee 9c 88 bd
       0.050623324 -0.09420612 0.07545418 -0.06670557
000070 6f b2 16 be 71 54 5a bd c9 38 ac 3c 48 ca cf be
       -0.14716505 -0.053303186 0.021023171 -0.40584016
000080 7a 37 53 be 72 1c 22 3d b9 9b 39 3d 31 5a ee bc
       -0.20626631 0.03957791 0.045314524 -0.029095741
000090 96 0d a6 3c 7c 3e 94 bd 5e f2 82 3e e7 db 97 bb
       0.02027015 -0.072384804 0.25575536 -0.0046343687
0000a0 a7 16 a3 bd eb 86 65 bc 4b 71 03 3a 6c 1c 9b 3c
       -0.07963305 -0.014009218 0.00050141354 0.018934451
0000b0 37 e5 1d bd cc f5 77 bd b2 28 c9 3d 2e 99 2b 3e
       -0.038548674 -0.060537145 0.09822215 0.16757652
0000c0 eb ec f4 3c fa 38 33 3c fc 34 6c bd 5a 48 95 bd
       0.029898128 0.010938877 -0.057667717 -0.072891906
0000d0 ee 9d 9c 3d e0 5c 29 3e 77 c1 b6 bd 03 ba f7 3c
       0.0764731 0.16539335 -0.08923619 0.030240064
0000e0 5b b4 1f bd 49 fa 80 be 78 51 1e 3e 2e d2 28 bd
       -0.03899036 -0.25190952 0.15460765 -0.041216068
0000f0 a5 c5 e9 3d 68 6c 71 bc 25 4b 7d 3d 9f fa cb 3d
       0.11414651 -0.014735319 0.06183924 0.099599116
000100 5c 56 0e bc 5e 7a 00 3e cb 62 55 3c a0 70 90 3d
       -0.008687582 0.1254668 0.013024042 0.070527315
000110 5b 83 f1 3e 22 ab 48 bd ea ac a7 3c 5d 87 90 be
       0.4717053 -0.04899133 0.020468194 -0.28228274
000120 13 73 36 be 0e 48 9d bd 18 ff c8 be 18 28 0a 3d
       -0.17817335 -0.07679759 -0.3925712 0.033729643
000130 14 b8 60 3e 0c 01 09 bd 23 c3 1a bd e3 86 cf be
       0.2194522 -0.033448264 -0.037783753 -0.40532598
000140 b3 e0 44 bd e0 a5 98 bc fe c3 ab 3d 83 16 84 be
       -0.048065852 -0.018633783 0.08386992 -0.25798425
000150 af 04 a3 be 60 71 0e 3e 27 b5 73 3d 0c 47 74 3d
       -0.3183951 0.13910437 0.059498932 0.059638068
000160 39 a7 e1 3c d2 4c de bb e7 f1 ac bd 2a c5 98 3d
       0.027545558 -0.00678406 -0.08444577 0.07459481
000170 98 5b c1 3d e1 dc 9b 3c b3 ba 35 3d 1c cf fb 3d
       0.09441298 0.019026222 0.044367503 0.12295362
000180 de 7a 2f 3e 75 89 75 3d d2 1f 98 bd b2 e5 ac bd
       0.17136714 0.059945542 -0.07427944 -0.084422484
000190 a7 f7 d7 bd ba 70 1b 3d d4 86 d4 3c 0d 09 72 3e
       -0.10545283 0.0379493 0.025943197 0.23636265
0001a0 62 e6 45 bc 00 28 c4 bd 50 a9 20 3d 6c 2b 04 3d
       -0.012078853 -0.09577942 0.03922397 0.032267973
0001b0 55 dd db bd 0c dd ef 3d 9b 41 9f 3c ce 19 56 be
       -0.10735575 0.11712083 0.019440463 -0.20908281
0001c0 63 8d 83 bc a5 2d 08 bd 73 55 b5 3e 0b 88 83 bd
       -0.01605863 -0.033246655 0.35416755 -0.064224325
0001d0 29 06 a3 bd 6c a4 2c bc 18 5c 19 be ee 12 03 bf
       -0.07960159 -0.010537248 -0.14976537 -0.5120076
0001e0 01 6c 28 3d 54 c8 d3 bc 24 e6 12 3d c6 db 9b be
       0.041118626 -0.02585236 0.03586401 -0.3044111
0001f0 7e 0f fa bb 6f b2 c7 be 64 d1 b3 bb c6 62 af bd
       -0.0076312413 -0.39003322 -0.005487608 -0.085637614
000200 2a 88 09 be 28 df 0c 3c dd 76 c3 bd e1 8e 20 bd
       -0.13430849 0.0085981265 -0.09544156 -0.03919876
000210 c8 b2 a7 bd b8 27 33 bc 46 3c a6 3e 4d 01 8e 3c
       -0.08188397 -0.010934763 0.3246786 0.017334605
000220 af 5a 88 bd fb 67 0e bf 8b 28 de 3d c8 b1 cc 3d
       -0.066579215 -0.5562741 0.10847577 0.099948466
000230 ac 47 e7 3d b5 7d 96 be 30 c1 38 3d 72 5f 9a 3c
       0.11292967 -0.29392782 0.045106113 0.01884434
000240 f7 8b be bd 95 78 5b 3d 7f 0f 57 bc 7f 0b a4 3c
       -0.0930404 0.053581793 -0.013126253 0.020025013
000250 fa 6e c0 3d 6f c1 05 3e 90 f1 af 3b 2a 76 39 3d
       0.09396167 0.1306207 0.0053693727 0.045278706
000260 fa b8 ee bc 8e 6a 5a bc 41 2d 48 be 9e c6 83 3d
       -0.029140938 -0.013331069 -0.19548513 0.064343676
000270 83 77 6f be 5c 5a 64 3d ca 7e 99 3d d3 87 97 be
       -0.23385434 0.055750236 0.07494886 -0.29595813
000280 16 e9 54 bd 1c 7b 52 3e 6e 94 09 3d e0 33 8c bd
       -0.0519801 0.20554775 0.03358882 -0.06845832
000290 4a ec 0d bd a0 63 59 3d 8c c0 70 bf 20 b0 7a bd
       -0.03464917 0.053073525 -0.94043803 -0.061203122
0002a0 bc 29 b3 3d c3 11 63 bd 8c e5 14 3e fe 4d d0 3d
       0.087481946 -0.05543686 0.1454069 0.10171126
0002b0 1d 86 eb bd 31 cd d6 bc 5d be 18 3e b2 cf 94 3d
       -0.115001895 -0.02622089 0.14916368 0.07266177
0002c0 51 f2 31 3d b5 e7 88 be aa d7 d2 3c 90 1b 8a bc
       0.04344398 -0.26739278 0.025737602 -0.016858846
0002d0 2f 0a 05 3e 3a f1 25 3d 07 40 c7 bd 1c da b9 bb
       0.12992166 0.040513255 -0.09729009 -0.0056717526
0002e0 d9 de af bd 22 15 c8 3d f3 2c 89 bc 64 f1 b7 bd
       -0.08587427 0.09769656 -0.016745066 -0.089815885
0002f0 a6 ac 69 bc 5f e4 0a 3d ce 32 d6 bd 72 05 f9 3d
       -0.014262354 0.033909198 -0.10458909 0.12159242
000300 83 13 a4 3d 0a 5f 12 bd f7 bd 94 bd 1a 08 da 3a
       0.08011534 -0.035735168 -0.072627954 0.0016634495
000310 e7 e1 a3 3e 29 60 bb bd d0 50 79 3b 2d 4e e7 3d
       0.32008287 -0.091492005 0.0038042553 0.11294208
000320 02 cf cf bd f5 d4 f2 3d 75 3f a6 be 81 d4 42 bc
       -0.101469055 0.118570246 -0.3247029 -0.011891485
000330 51 4d a4 bd 1c e2 eb 3b 6c 6f 6e bd fe 33 c2 3e
       -0.080225594 0.007198585 -0.05821173 0.37930292
000340 97 a9 dd 3d d0 5e 86 3d 53 c8 fc 3d a4 92 d5 bd
       0.10823362 0.06561053 0.12342896 -0.1042836
000350 8e f7 3a be 45 84 16 bf 36 11 46 3e 6c 83 b9 bd
       -0.18258497 -0.5879558 0.19342503 -0.0905827
000360 ae 6f 75 3d 44 a3 5f bd b1 a1 20 3e 65 94 27 3e
       0.05992096 -0.05459906 0.1568668 0.16365202
000370 f3 e1 24 bc ed 36 b4 3e c5 ad 2b 3d a5 05 59 bd
       -0.010063636 0.35198155 0.041913766 -0.0529839
000380 85 22 ee bd 1b a0 cc bd fd 94 f6 3d 8c 5d ba bd
       -0.11627678 -0.09991475 0.12040136 -0.09099874
000390 6d b8 09 3e 6b 57 a1 3e 73 26 aa 3d ef f3 f5 bd
       0.13449259 0.31512007 0.08308115 -0.12009417
0003a0 ca 0c f8 bc 4c 10 5f 3c a8 a4 ed 3b 8c d1 2b 3c
       -0.030279536 0.013614725 0.0072522946 0.010486972
0003b0 b1 f2 99 bd 0a 3d da bd da 0d aa bd ac 9c b2 bd
       -0.07516993 -0.106561735 -0.08303423 -0.08721289
0003c0 36 09 20 3e c3 be 74 3c 15 46 1e bd af 03 b2 bd
       0.15628514 0.014938059 -0.038641054 -0.08692109
0003d0 ea b8 0e 3c ad b2 7f bd 68 f6 93 3d a7 e5 d4 3e
       0.008711079 -0.062426258 0.07224733 0.4158146
0003e0 b4 cc 46 3e bf 14 4b bd c0 4a a1 3d c6 bf eb bd
       0.19414026 -0.049580332 0.078755856 -0.11511187
0003f0 30 5f 61 bd 8c 80 a7 be 4f 74 b3 3d 5e 0d 28 bd
       -0.05502242 -0.3271526 0.087624185 -0.041028373

network_smart.layer2.0.bias f4 [128]
000000 0e e2 45 3d 2d 04 b0 3d 06 5b 03 be 59 09 22 bd
       0.048311286 0.085945465 -0.12827691 -0.039559696
000010 36 e2 3f be 04 3d cd 3c 06 db 2e bb 59 7a 32 bd
       -0.18738636 0.025053509 -0.002668084 -0.04357371
000020 48 57 3c 3d 26 c0 52 bd e5 8b 32 be 26 ea 86 3d
       0.045981675 -0.05145278 -0.17436178 0.06587629
000030 20 d2 71 bd 2c 8f 27 3e 6d bc c0 3d 23 d0 c5 bc
       -0.05903828 0.1636321 0.09410939 -0.024147099
000040 ba b8 d0 bd 26 24 4e 3d d2 e1 9e bd 2b 58 a5 bd
       -0.10191484 0.050327443 -0.077579156 -0.08073457
000050 d2 99 7e 3b 5c df 67 3d b2 ff b7 3d 98 79 28 3d
       0.0038849008 0.056609496 0.08984317 0.041131586
000060 43 65 b6 3d 50 67 cd 3d dd 3b 6d be 51 01 d1 bd
       0.08906033 0.10029471 -0.23167367 -0.10205329
000070 76 74 17 3d 46 e5 84 3d 3a 85 cf 3c 5f 9d 95 3d
       0.0369763 0.06489043 0.025332082 0.07305407
000080 93 ae 29 3b 37 40 1c bd 8a 47 f1 3c 66 05 9d be
       0.0025891408 -0.038147178 0.029453058 -0.3066818
000090 10 1f d5 3d 0b 3c 00 bd 0b 26 aa bb 32 c3 22 3b
       0.10406315 -0.03130726 -0.0051925234 0.0024835584
0000a0 ce 67 a7 bd 64 4d 97 bd 81 73 64 3d e6 12 a6 3c
       -0.08174096 -0.07387808 0.055774216 0.020272683
0000b0 2d 57 3a be 33 ce 92 bd ec 3c e3 3d a1 40 2d bc
       -0.18197317 -0.07168236 0.11095604 -0.010574491
0000c0 6a c0 d8 3c 44 b9 a5 3d ae 41 9d bd ad ba 1d bb
       0.026458938 0.08091977 -0.07678543 -0.0024067566
0000d0 2d c1 23 be 55 41 99 3d 88 33 20 be c7 93 7b 3d
       -0.1599166 0.07483164 -0.15644658 0.06142023
0000e0 e9 10 b9 bc da c7 8c 3b 21 bd ac bd 1b 93 c9 3d
       -0.022591071 0.004296285 -0.08434511 0.09842511
0000f0 52 fc 20 bd c8 15 1d 3c 94 0a 11 bd ba f3 e3 bb
       -0.03930313 0.009587713 -0.03541048 -0.0069565447
000100 94 08 4f bc 8b c5 d3 3d 40 bf 26 bd 83 37 b7 bd
       -0.0126363225 0.10340413 -0.040709734 -0.08946135
000110 63 6c d1 3c 17 a7 03 3d 6c 72 1f 3d 1f e2 21 3d
       0.025564378 0.03214177 0.03892748 0.039522287
000120 55 a2 90 3c 4f 0c 0f 3c e0 b5 40 be 67 32 29 bd
       0.017655531 0.008730962 -0.1881938 -0.041307833
000130 20 72 f2 bd df 96 5f 3d 79 c8 96 3d 68 95 7f 3d
       -0.11838174 0.05458724 0.07362456 0.062398344
000140 5c 95 97 3d 0f 8c 56 bd 15 33 01 3d d9 99 20 3d
       0.07401535 -0.052379664 0.031542856 0.03920922
000150 20 f6 cc 3d 70 63 b7 3d 94 26 ab 3d c4 33 67 bd
       0.10007882 0.08954513 0.083569676 -0.056445852
000160 cb 9f 99 3d 80 d2 f0 3b 46 01 1f b9 8f 9d 5c 3d
       0.07501181 0.0073493123 -0.00015163896 0.053861197
000170 4b 56 2f ba f6 0b 45 bd 1e 48 04 3d 6c 64 0d 3d
       -0.0006688579 -0.04810711 0.03229534 0.034519598
000180 e3 0c f7 3c 06 c5 6e bc 76 3f 38 3d 66 85 09 be
       0.030157512 -0.014573341 0.044982396 -0.13429794
000190 58 c5 10 bc 01 be 32 bd d0 76 df bc b8 83 f6 3d
       -0.008836113 -0.043638233 -0.027278334 0.12036842
0001a0 a7 d3 63 3d 1f 81 4b bc 75 0e 9e 3c 29 12 9a 3d
       0.05562177 -0.012420922 0.019294003 0.07522995
0001b0 13 22 e4 3c 9c a0 9c 3d 88 6d 9b 3b 99 77 94 bd
       0.02784828 0.07647821 0.0047432818 -0.07249374
0001c0 44 2d c1 bd 1e 54 0f bd 1d 8c 55 3d 36 79 ad 3c
       -0.09432462 -0.03499233 0.052135576 0.021175962
0001d0 0e aa 9f be 89 7b 8c bd 99 09 09 be 54 df 82 bd
       -0.3118443 -0.068595 -0.13382567 -0.06390253
0001e0 c7 d7 94 bd 3b 0b 62 3d 4a 18 aa bb 22 99 ee 3d
       -0.07267719 0.05518649 -0.0051908838 0.116503015
0001f0 1a 2c 5e bd 22 3b 11 be c8 0f 38 bd 9a 5d d8 bc
       -0.054241277 -0.14182714 -0.044936925 -0.02641182

network_smart.layer3.0.weight f4 [48, 128]
000000 5f 2d a5 3d 41 4d 24 be 52 a2 27 be 46 e7 fa 3c
       0.080652945 -0.16045095 -0.16370514 0.030627858
000010 53 f2 24 bf 2e f4 57 bc 4d a7 fc bb 12 4e 3e 3e
       -0.6443226 -0.013180776 -0.0077103735 0.18584469
000020 35 ff 7f 3d 0b 0a 30 3d 92 32 72 bd e8 75 64 3c
       0.062499244 0.042978328 -0.05913026 0.013944127
000030 50 db 3a 3d 9a b6 40 3d 2e ea f8 3d b6 f6 e8 3c
       0.04561931 0.047049142 0.12154041 0.028437953
000040 c8 63 38 3e 86 b2 19 bd 0c 58 bb 3b 5d 6d 99 bb
       0.18006814 -0.03752377 0.005717283 -0.0046822266
000050 59 d8 1a 3b d2 73 32 bf 52 4c 0d 3e 4c 30 24 bd
       0.0023627488 -0.6970798 0.13798645 -0.040085122
000060 0f c8 67 3d 2c f9 73 3d ef e4 29 bf 5a 1f e0 bc
       0.056587275 0.0595638 -0.6636495 -0.0273587
000070 78 a8 c2 bf cd a7 f7 3d 5b 7d c8 bf c6 49 db 3d
       -1.5207663 0.12092552 -1.5663255 0.107074305
000080 68 bc 58 bd b2 02 89 3c b5 22 b9 bd 27 e5 86 3e
       -0.052914053 0.016724918 -0.09039823 0.26346704
000090 b4 d4 f1 be c1 9d 2e bc 1c c2 87 3d e8 97 8f bd
       -0.47232592 -0.010657729 0.0662882 -0.07011396
0000a0 32 85 bd bc 04 f6 9b bd de 3a e3 bc 4b fe d1 3c
       -0.023134802 -0.07615283 -0.027738031 0.025633952
0000b0 21 cb 5a 3d 02 71 fb 3c f4 ee c5 3d 61 9d 3a 3d
       0.053416375 0.030693535 0.09664717 0.045560244
0000c0 da 3a 32 bf 87 0e 1f bb f7 b2 b3 be 9c b7 5b 3e
       -0.6962105 -0.0024270134 -0.35097477 0.2145676
0000d0 cc f0 d4 be 6a 66 1b bb 27 02 fe 3e 3c 88 36 3d
       -0.41589963 -0.0023712167 0.49611017 0.044563517
0000e0 ec 9e b8 bd bf d5 cf be bb e7 53 bd 2d 71 86 3d
       -0.09014687 -0.40592763 -0.051734667 0.06564555
0000f0 45 24 2c 3d 30 d1 a5 3c 39 2d a4 be a5 48 73 bd
       0.042026777 0.02024135 -0.32065752 -0.05939545
000100 99 75 dc 3d dd 65 b7 3d 03 8e 5c be 61 51 a9 3d
       0.107646175 0.08954976 -0.21538548 0.08267475
000110 a9 bb 7c 3d 51 f8 8d be 3b d7 ae be 46 42 79 bd
       0.061702404 -0.27728513 -0.34148583 -0.06085422
000120 a8 f6 06 be eb 36 19 3c 1e 5e 5c bf 1c 8e b7 3e
       -0.1318003 0.009351472 -0.8608111 0.35850608
000130 4d 1e 9b bf 28 c3 97 3d 29 e2 00 bc 33 20 a2 bd
       -1.2118622 0.0741027 -0.007866421 -0.07916298
000140 16 96 60 3d dc c0 97 bc b2 5c 0b be 2b b6 7c be
       0.054830633 -0.01852458 -0.13609579 -0.24678867
000150 e6 5d a6 3d 92 fc b0 be 57 21 db 3d 38 f2 80 3d
       0.081233785 -0.34567696 0.106997184 0.062961996
000160 6e 7e 12 bd 31 db 9d bd 7e 06 82 3d fd 23 db bd
       -0.035765104 -0.07707823 0.063488945 -0.107002236
000170 9f 6c e2 bd 8a f6 8b bd 21 f1 2a bd de 5a 15 3d
       -0.11055874 -0.06834133 -0.041733865 0.03646361
000180 36 2e 2c 3e 29 a6 5b bc 59 56 52 bc 3d 6e 80 be
       0.16814503 -0.013406315 -0.01283797 -0.25084105
000190 cb 76 94 3d 12 6a f4 bd 5d 15 3f be 6d 0a 03 3e
       0.072492205 -0.11934294 -0.18660493 0.12796946
0001a0 ef 35 7a bd 18 9d a6 bc a1 e0 b3 3d 73 be c8 bd
       -0.06108659 -0.02033858 0.08783079 -0.0980195
0001b0 23 2d a3 ba f5 4a bc 3d 31 cd b5 be d2 ba 4f bd
       -0.0012449365 0.091939844 -0.3550811 -0.050715275
0001c0 84 4d af bc 56 1f c2 3d 30 38 da 3d ee df a3 bd
       -0.021399267 0.09478633 0.10655248 -0.080016956
0001d0 57 22 fc 3d 4d 99 86 be 9b ef 1a be 04 d4 03 3f
       0.12311237 -0.26288834 -0.15130465 0.51495385
0001e0 2e 82 a1 3d 82 ef 02 3e 18 7d 8d 3e 42 2a 34 3d
       0.07886158 0.12786677 0.276345 0.043985613
0001f0 45 36 c6 3c a1 d8 15 3d 91 40 65 bd 74 2d b9 3c
       0.0241958 0.036583547 -0.05596978 0.022604682
000200 26 4d 11 bc 96 91 00 be b3 66 48 ba 3c 84 91 bc
       -0.008868491 -0.12555537 -0.0007644698 -0.01776325
000210 9f 6f 8a 3c c8 ac 96 3c 16 78 1d 3b b7 62 89 bd
       0.016898928 0.018392935 0.0024027876 -0.067082815
000220 9b 7d cc 3c bb f5 bb bd 8b 97 90 3e f1 13 e5 3d
       0.024962237 -0.09177729 0.28240618 0.11185444
000230 39 1a 27 bd 6d 60 0d bc ab 49 f0 3b 47 73 5f 3d
       -0.040796492 -0.008628947 0.0073330007 0.054553296
000240 ee 54 bb 3d 99 96 8f bd ca a1 7f 3d fb e0 9a bd
       0.091470584 -0.07011146 0.062410153 -0.07562443
000250 27 cc ad bd 72 0b 81 be 0c a4 a2 3d 77 f1 1e 3d
       -0.084862046 -0.25204045 0.07941446 0.038804498
000260 ac 18 30 3d 12 8f a6 3d 7a 06 9b bc 97 df 22 3d
       0.04299228 0.08132757 -0.018923987 0.039764013
000270 42 1b 5b be 42 0e 88 3d 97 54 e3 bd 4f c2 00 be
       -0.21397117 0.066433445 -0.111001186 -0.12574123
000280 5c 89 96 bd fe a9 29 3d a0 30 49 bd 03 66 a5 bd
       -0.07350418 0.041421883 -0.049118638 -0.08076098
000290 8b 05 9b bd 34 89 83 3c d9 7d 76 3d 43 18 2e 3b
       -0.075694166 0.016056634 0.06017861 0.0026564754
0002a0 7a 9c 9d 3c 07 92 77 bd 76 63 cc bd 4d 03 b9 b9
       0.019239653 -0.060441997 -0.09979908 -0.0003528841
0002b0 77 65 dc bc 60 cd 13 3d 3f d9 af bd bf 1b ad bc
       -0.026903851 0.036084533 -0.08586358 -0.021131394
0002c0 87 e4 1f be ae 41 17 3e 39 4a 8e bd d9 6a 6d 3e
       -0.1561452 0.14771149 -0.069477506 0.2318529
0002d0 de 96 09 be 7a cd d9 bc ff bb 10 3e 48 f1 a2 3d
       -0.13436458 -0.026587237 0.14134215 0.07956177
0002e0 09 64 c7 bd 99 0d c9 be 8a 6c 57 bd 5d b3 ed bd
       -0.09735877 -0.39268187 -0.052593745 -0.116064765
0002f0 30 94 85 3d 1a 84 b3 3c fd 43 c5 bd 42 60 fb 3d
       0.06522405 0.021913577 -0.09632108 0.12274219
000300 5c f4 a7 3d c7 65 01 bd 36 51 ff be 28 26 8a 3d
       0.08200905 -0.031591203 -0.49866647 0.06745559
000310 07 58 c6 bd 36 54 dc bd 2e 4a 62 be db c0 37 bd
       -0.09684759 -0.107582495 -0.2209861 -0.044861656
000320 09 98 0e bd 7d b2 87 bc 45 8d 6e 3d 5b db d2 3e
       -0.03481296 -0.016564602 0.058240194 0.4118298
000330 43 f0 e7 bd 97 11 a6 bd d0 5c 7c 3c fb 5b 90 3d
       -0.11325123 -0.08108824 0.015402988 0.07048794
000340 08 be a9 3c f0 55 7d bd 09 82 3f bc fd 0c 35 be
       0.020720497 -0.061849535 -0.011688718 -0.17680736
000350 7d 3a 30 bd af 17 93 bd 10 d0 41 bd af 26 8b bd
       -0.04302453 -0.07182252 -0.047317564 -0.06794488
000360 53 69 02 3d 9c e6 18 3d 91 3f 09 bb 5d 92 ae bd
       0.031838726 0.0373293 -0.002094243 -0.0852401
000370 d3 bd b6 bc 74 5b d7 bd 8f 7e 1f be 31 e4 26 3d
       -0.022307312 -0.1051549 -0.15575622 0.040744964
000380 9e 3b ee 3d bf bc c2 bc 95 fd 49 3c a2 2b 12 be
       0.11632465 -0.023771642 0.012328525 -0.14274457
000390 e3 2a cb 3c e2 35 b5 3c 6b b1 ff 3c 48 fd 9f bd
       0.024800723 0.02212042 0.03121253 -0.078119814
0003a0 83 c0 6b 3d 6b 4b b8 bc 26 61 48 3d 07 19 b1 3c
       0.05755664 -0.0224969 0.048920773 0.02161838
0003b0 47 50 03 bd 60 dc ac bd 17 18 b0 bb 8c 90 1f bb
       -0.03205898 -0.08440471 -0.0053739655 -0.0024347631
0003c0 3c 46 5a bd c7 41 84 3d df e0 03 3e 4c 51 ab 3d
       -0.053289637 0.064578585 0.1287875 0.083651155
0003d0 8a f7 03 be 56 86 ff bc 4c 67 21 3e 18 db b0 3d
       -0.12887397 -0.031191986 0.15762061 0.08635539
0003e0 07 d0 98 3d 58 c6 1f 3e 18 ae 16 3e e9 50 73 3b
       0.07461553 0.15603006 0.14714849 0.0037127084
0003f0 29 66 d8 bc 39 5e a4 3d b2 fd 0e bc 76 31 6c 3c
       -0.026415901 0.08025784 -0.008727478 0.014416089

network_smart.layer3.0.bias f4 [48]
000000 42 81 ff 3c 82 53 b4 3d 90 87 81 bc 09 77 aa 3d
       0.031189565 0.0880499 -0.015811712 0.083234854
000010 f0 05 af bd 9d c7 53 3c cd f6 99 3d 9f de 57 3d
       -0.08546054 0.0129260095 0.07517777 0.052702542
000020 16 a0 d0 bd 40 1c 9c 3d bd 3d 65 3d c4 26 55 3d
       -0.10186784 0.07622576 0.05596708 0.052038923
000030 cc 15 3d 3d 17 8e 35 3d 7b 67 4b 3c e9 e5 c5 3d
       0.046163365 0.04432496 0.012414808 0.096629925
000040 48 2d f5 bc 8b ea 8f bc 06 8c 88 3d c7 81 db 3c
       -0.029928818 -0.017567893 0.06667332 0.026795281
000050 73 5d 6a 3d 76 a8 b5 bd da 4a ba 3c 87 6f 30 3d
       0.057218026 -0.08870022 0.02274077 0.04307511
000060 16 66 ab 3b 5b 7e f5 bc 59 31 9d bd 19 a8 3a bd
       0.0052306755 -0.029967478 -0.07675428 -0.045570467
000070 8e 5a 07 bd 8c d2 82 bd d0 fb 60 3d 54 aa 7c 3c
       -0.033045344 -0.06387815 0.054927647 0.015421469
000080 4d 13 f8 bc 2d 97 55 3c 28 78 25 bd 3b fa be 3c
       -0.03028264 0.013036531 -0.040397793 0.023312679
000090 1c 43 97 3d b6 06 8a 3d 0b bc 01 be f9 92 02 bc
       0.07385847 0.06739561 -0.12669389 -0.007969611
0000a0 84 38 8c 3d 5e 19 03 bd e9 c8 b4 bc b5 1a 20 be
       0.06846717 -0.032006614 -0.022068458 -0.15635188
0000b0 43 c0 d9 3d 4e c5 82 3c 9d d7 6f be d8 60 be bc
       0.10632374 0.015963223 -0.23422094 -0.023239538

fc_smart.weight f4 [64, 48]
000000 29 16 22 be 1d 58 58 3c a1 c4 1d 3f cf c5 3f 3d
       -0.15828766 0.013204602 0.61628157 0.046819504
000010 ca bf e9 3d 4b d3 ac 3c c9 80 05 3e d1 22 01 be
       0.11413534 0.021096846 0.13037409 -0.12610938
000020 40 5a a5 bd 2c cc e9 3c fc 2c 9a be bf 61 9c be
       -0.080738544 0.02853974 -0.30112445 -0.30543324
000030 50 ee fd bd 99 80 4a be 7f bd 75 3e 8c d1 e2 3e
       -0.1239897 -0.19775619 0.23998068 0.44300497
000040 17 90 e4 3e e3 10 64 3c dd 67 1e be 68 25 56 be
       0.44641182 0.013920042 -0.15469308 -0.20912707
000050 27 9c 21 be 46 bc ea bd e4 6c 2d 3f 57 7c 2f be
       -0.15782224 -0.114616916 0.6774428 -0.17137276
000060 3d ac 6f be 5d 66 28 be 72 67 62 3e 62 29 46 3d
       -0.23405547 -0.16445298 0.22109774 0.04837931
000070 b5 35 92 be 54 c7 05 3f c8 49 d1 bd a6 0f 43 be
       -0.285566 0.52257276 -0.10219151 -0.19048938
000080 02 90 08 be 7f 3f 0b 3e 49 bc 59 bd 1c 14 bf be
       -0.13336185 0.1359844 -0.05315808 -0.3732003
000090 4e 3a d5 be 84 fe 85 be ba 41 ea bc 4f 91 07 be
       -0.41646045 -0.26170743 -0.028595794 -0.13239025
0000a0 c7 ae b9 bd 41 d0 21 3d ed 51 cb 3e c6 67 07 3f
       -0.09066539 0.039505247 0.39710942 0.5289272
0000b0 96 19 f4 bd d3 38 05 3f 93 ac d3 bd 85 05 1d bf
       -0.11918943 0.5203983 -0.1033565 -0.6133655
0000c0 7a e1 9a 3e d2 1d b6 3c c8 9e 4f bf f0 a3 0f 3e
       0.3025015 0.022231016 -0.81101656 0.14027381
0000d0 24 dc 42 bc dd a9 1c 3e df ad 09 be 05 c9 2c 3e
       -0.011893306 0.15299173 -0.13445233 0.16873558
0000e0 8d e4 06 3f 85 db a0 39 61 14 18 be ed a2 8e 3e
       0.5269249 0.00030681133 -0.14851524 0.27858678
0000f0 33 05 e6 3d 09 a4 02 3e 48 a9 05 bd 58 47 84 3f
       0.112314604 0.12757887 -0.032632142 1.0334272
000100 97 cc 85 be f8 4e b6 bc 39 d6 d5 bc a3 ff 41 bd
       -0.26132652 -0.022254452 -0.026103126 -0.047362935
000110 b9 27 a5 bd d1 b2 d8 bc d6 d6 e8 be d2 ba bc 3e
       -0.08064217 -0.026452454 -0.45476407 0.36861283
000120 4c 76 d1 bd 50 ba a6 3e bf a8 03 bf 5c 2f fe bc
       -0.102276415 0.3256402 -0.5142936 -0.031028442
000130 b0 1c e8 3e d0 bf fb bd d3 f8 6d bd a2 d5 47 3e
       0.45334387 -0.12292445 -0.058098625 0.19515088
000140 d6 4e 80 bd 9a 9b e0 bd 0a 60 af bd cd 53 e5 3e
       -0.06265037 -0.10967179 -0.0856324 0.44790497
000150 51 cf f9 3d 87 f2 29 3e ce 5e 8c 3d ab f7 34 3c
       0.121977456 0.16596423 0.0685402 0.011045377
000160 46 7a aa bd 78 c8 62 be 52 c9 19 bf 43 ae 03 3e
       -0.08324103 -0.22146785 -0.60072815 0.12859444
000170 88 f3 a6 bd e6 00 18 bf 3d c9 13 3e 90 68 28 be
       -0.08151919 -0.5937637 0.14432235 -0.16446137
000180 86 13 c6 be 28 39 b8 3d 69 6d 28 3f d3 a4 a3 bd
       -0.3868677 0.08995277 0.65791947 -0.07990422
000190 d1 e3 bd 3d d3 25 38 bd 7d f8 37 3e 1a 9c 6d be
       0.09271968 -0.044957947 0.17965885 -0.2320408
0001a0 b9 76 d1 be bc dc 28 3e ff 9d 5d bd 55 14 bf be
       -0.4091089 0.16490453 -0.054105755 -0.373202
0001b0 c7 0b c9 3d 73 2d b1 be fa 2e fe 3d 58 7e 63 bf
       0.098166995 -0.34604988 0.12411304 -0.8886466
0001c0 e0 62 c7 3e 58 8c e8 3d 68 d0 1d be 21 0e 2e 3d
       0.38942623 0.113548934 -0.15411532 0.042493943
0001d0 37 66 14 3e 61 1b 82 3d 4c b9 01 3f 8b 57 6f be
       0.14492117 0.06352878 0.50673366 -0.23373239
0001e0 5b 0f ec 3c 91 1b 19 bf 60 8f 27 3f 5a 9f e3 bd
       0.028815916 -0.5980769 0.6545315 -0.11114378
0001f0 9f 84 07 bf 34 16 5d bd d0 04 31 3e 62 5a 13 be
       -0.5293674 -0.053976253 0.17286992 -0.14389947
000200 49 dc e0 3d 93 a2 5b 3e 59 f2 d5 3c ee 8f d1 be
       0.10979516 0.21448736 0.026116537 -0.40930122
000210 7d e0 df be 97 fb e9 bd 1f c3 f3 bd 33 35 1e 3d
       -0.43725958 -0.1142494 -0.11902451 0.038624953
000220 ac 8f 4b 3c 8c c9 31 3e e5 31 2e 3f 68 33 7e 3c
       0.012424391 0.1736204 0.68044883 0.015515186
000230 35 bc a9 3d e2 9e 28 3f 02 96 cf be ad 66 98 3e
       0.08287851 0.65867436 -0.40544134 0.29765835
000240 12 d7 0c 3e 6a 5f 0a bd 4b 80 d8 be e1 7f 04 3c
       0.13753918 -0.0337824 -0.4228538 0.008087129
000250 e9 4a e3 bd e5 e8 3d 3d 2a f2 e4 bb cb 19 36 3e
       -0.11098272 0.046364684 -0.006986876 0.17783277
000260 c6 22 80 3e 74 d1 da bd fa 41 79 bd 70 7b 26 3e
       0.2502653 -0.10684481 -0.060853936 0.16258025
000270 76 05 84 be 2e 58 c3 3d f5 e3 54 bd 42 e5 34 3f
       -0.25785416 0.09538303 -0.05197521 0.7066232
000280 9c 70 b6 bd ba 94 91 3d f1 7d 20 bc 83 e1 a2 3c
       -0.08908197 0.071084455 -0.009795652 0.019882923
000290 f1 08 4f bd 6e 68 b0 bd dd 6e 43 be 42 c7 20 3e
       -0.050545637 -0.086136684 -0.1908526 0.15701011
0002a0 7f 16 13 be 80 e2 99 3e 01 a3 b8 be c0 b0 83 bc
       -0.1436405 0.30055618 -0.36061862 -0.016075492
0002b0 28 21 90 3e 40 a5 4c 3e 1a 0d 1f be d4 37 49 3e
       0.28150296 0.19984913 -0.15532342 0.19650203
0002c0 37 92 bf 3c 82 01 cc bd 2b 6c 2b bc 15 72 70 3e
       0.02338515 -0.09961225 -0.010462801 0.23481019
0002d0 5e 72 db 3b 52 b4 b2 bd 56 bb 82 3c 56 8a b0 bd
       0.0066969832 -0.087257996 0.01595847 -0.086201355
0002e0 09 fd c1 bd 56 f9 d6 bd e1 b9 a8 be 24 21 2c bd
       -0.09472091 -0.10496776 -0.32954314 -0.042023793
0002f0 fc 42 41 be 28 23 95 be 13 45 05 bd 16 b7 9f be
       -0.18873209 -0.29128385 -0.032536577 -0.3119437
000300 1e ef bf be 5f 3d 98 bd 68 04 31 3f 1f 0e 1d be
       -0.3748712 -0.074335806 0.6914735 -0.15337418
000310 f2 6b 0c bd 93 d5 3c bd a1 90 25 3e 9c 8f 7d be
       -0.034282632 -0.046102118 0.16168453 -0.24761814
000320 71 e9 02 bf 56 2a 43 3e 29 3c 20 3e 8e 16 a1 be
       -0.51137453 0.19059119 0.1564795 -0.3146252
000330 18 82 17 3e c4 3c 5e be 8c de e7 3d 76 74 84 bf
       0.1479572 -0.21702868 0.11321744 -1.0348041
000340 57 1f 9d 3e 86 45 14 bd 3e b8 44 bc 41 53 e4 3d
       0.30687973 -0.036199115 -0.012006817 0.11148692
000350 b8 9c 31 3d 89 50 d6 3d 33 41 98 3e b5 01 a3 be
       0.04336235 0.104645796 0.29737243 -0.3183724
000360 c1 ae 70 3e b2 84 f4 be d2 f6 11 3f 8b 43 47 bd
       0.23504163 -0.47757488 0.5701724 -0.0486484
000370 2d 27 f9 be e4 c9 0b be fd 81 cc 3c 80 75 32 be
       -0.486627 -0.13651234 0.024964327 -0.17427635
000380 e7 42 71 bd 81 72 ea 3d c4 b8 01 bd 7a 27 d1 be
       -0.058901694 0.11447621 -0.031670347 -0.4085043
000390 a5 98 4d be c8 36 55 bc af 92 86 bd fd ee 08 3e
       -0.2007776 -0.013013549 -0.065709464 0.13372417
0003a0 47 f6 a5 3d 99 df 8d 3e ea 7a 2d 3f 20 9a ee be
       0.08103614 0.27709654 0.67765677 -0.46601963
0003b0 ea 18 0f bc e3 b7 17 3f 38 c7 b0 be 4a c5 f8 3e
       -0.008733967 0.59264964 -0.34526992 0.4858802
0003c0 99 73 b6 3e d1 e0 23 bc 86 37 38 bf 8f f9 4d bb
       0.3563507 -0.010002331 -0.7195972 -0.0031429266
0003d0 db 2a b6 3b 43 84 7b 3e 32 7e 1a be c1 ca 3a 3e
       0.005559308 0.24562173 -0.15087202 0.18241407
0003e0 d6 55 04 3f 3e 84 0b be c9 cb 83 3c 37 49 9b 3e
       0.51693475 -0.13624665 0.016088383 0.30329296
0003f0 3d 86 f4 3d 4c 6b 95 3e ab 1b db bd 94 34 5e 3f
       0.119396664 0.29183424 -0.106986366 0.8679898

fc_smart.bias f4 [64]
000000 29 fd bb 3d 5f 79 1f 39 a7 b6 8b 3d 39 2e bb bc
       0.09179146 0.00015208636 0.068219475 -0.02284919
000010 da d3 64 3c 36 f9 c9 bd 0d 08 59 3d 25 2f 18 be
       0.013966525 -0.09861986 0.052986193 -0.14861734
000020 46 e6 b5 3d 2f 0a 10 bc d5 e1 62 3c e9 ef 64 3d
       0.08881812 -0.00879149 0.013847788 0.05589286
000030 df 89 be 3a 05 5a d4 3d e9 76 cc bd 98 e2 d5 bd
       0.0014536938 0.10368732 -0.09983618 -0.1044361
000040 8a 23 20 bd e5 dd 17 3e 51 e3 bb bd 2a cd 9b 3d
       -0.039096393 0.1483074 -0.091742165 0.07607491
000050 6e 03 c5 3d 4e a4 17 bd ce 15 0b bd 21 63 d1 3d
       0.09619795 -0.037021928 -0.03395634 0.102239855
000060 79 f8 8e bd d3 45 97 3d 8a f9 35 3d 3a 50 f5 3d
       -0.06980986 0.07386365 0.044427432 0.119781926
000070 9b 39 6c bd f4 67 a2 bd 0d 28 8e bc 72 ae e1 bd
       -0.057672124 -0.07929984 -0.017353082 -0.11019601
000080 98 7e b9 3d 70 71 04 be 67 18 4d 3c 7e 38 11 3d
       0.09057349 -0.12933898 0.012518025 0.035454266
000090 ba a5 da 3c 6d 07 12 bd 10 b1 ef bb 5e 61 19 3d
       0.026690353 -0.035651613 -0.0073148087 0.037446372
0000a0 90 1f 9a 3c 5f df b5 bd 63 4e 5d 3d 82 82 a1 bd
       0.018813878 -0.08880495 0.054029834 -0.078862205
0000b0 7e 35 bd 3c 41 a8 d6 bd f5 bf ad 3b 5b 8b d7 bd
       0.023096796 -0.10481311 0.005302424 -0.10524627
0000c0 d0 43 a3 3c b5 4b e5 3d 90 6a 80 bd 0e f3 ba 3c
       0.019929796 0.111960806 -0.06270325 0.022820976
0000d0 81 f5 22 3d ba 62 80 3d c1 c6 6f 3c aa ac 12 3d
       0.039784912 0.062688306 0.014634789 0.035809197
0000e0 f4 23 39 3d a4 3e 82 bd d8 84 8c 3d ff 92 16 be
       0.045200303 -0.06359604 0.068612754 -0.14704512
0000f0 9e fd c6 3d 79 93 1b 3d 07 0d d0 3d 75 1a 41 3d
       0.097163424 0.037982438 0.10158735 0.047144372

network_aging.lstm.weight_ih_l0 f4 [128, 5]
000000 7f 97 4f 3e da 9a 88 bd 81 25 d3 3c b0 b0 53 3d
       0.20272635 -0.066701606 0.02577472 0.051682174
000010 94 72 1e 3e a9 36 e3 bb d0 aa e0 bd 2c dd c3 3c
       0.15473396 -0.006934006 -0.1097008 0.023909174
000020 24 8c 95 bd bf 18 1e 3e c5 27 f2 3d be 7c 5f 3e
       -0.0730212 0.15439127 0.11823992 0.21824929
000030 9b e7 42 3c e7 00 4d 3e 10 25 cb 3d 24 7f 37 3e
       0.011896039 0.20019875 0.099191785 0.17919594
000040 86 94 47 3e 1d b3 b3 3d d9 f1 23 3c ae 6c 8d 3d
       0.19490251 0.087743975 0.010006391 0.06905495
000050 b4 20 2a bd a0 48 30 3d 52 af 9a 3d 31 6d f7 3d
       -0.041535094 0.04303801 0.07552971 0.120813735
000060 db 53 e0 3d f3 cf 93 bd 74 1e 2f 3e c9 e4 a5 3c
       0.10953494 -0.072173975 0.1710146 0.020250695
000070 90 6e 0e bd 11 18 a1 bb 37 19 54 3e 8d 61 69 bd
       -0.03477341 -0.004916199 0.20712744 -0.056977797
000080 e6 10 fd 3d 9e 95 bc bd 32 db 99 bc 3b 63 b6 bd
       0.12356739 -0.09208225 -0.018781278 -0.089056455
000090 40 73 31 3e 51 2c 2b 3e e1 8c 18 bd bf b2 8c 3c
       0.1732912 0.16716124 -0.037243728 0.017175077
0000a0 82 25 8c 3d 9e 12 6b bd 33 35 08 be b4 36 e3 bd
       0.068430915 -0.0573908 -0.13301544 -0.11094418
0000b0 11 90 a2 bc 5c 6f 2f 3e 3b 60 98 3d f6 29 9d 3d
       -0.019844087 0.17132324 0.074402295 0.07674019
0000c0 96 2f 5b bd e1 59 cb bd 11 84 35 ba a5 24 ff 3c
       -0.05351218 -0.099292524 -0.00069242815 0.031145403
0000d0 ba eb fc bc 46 33 d4 3d 63 04 09 be e3 64 17 3e
       -0.030874122 0.10361342 -0.1338058 0.14784579
0000e0 99 47 cf bd fc 90 c4 bc 13 a8 d7 bd e2 5a f7 3d
       -0.10121078 -0.023994915 -0.105301045 0.120778814
0000f0 17 19 28 3e a9 a5 13 3c fb d9 39 bd 45 68 a5 bd
       0.16415821 0.009011664 -0.045373898 -0.080765285
000100 2b 2e 97 3c 14 fa d4 3d 80 f2 0b bd e6 2b 25 3e
       0.018454632 0.10399261 -0.034166813 0.16130027
000110 d0 6d 2a 3e c5 80 23 3e 79 37 69 3d 0b c0 2b 3c
       0.16643453 0.1596709 0.05693767 0.010482798
000120 1a 4a 5e 3d 6e af 73 3d 91 9f 32 3c 5c 21 ed bc
       0.054269888 0.059493475 0.010902301 -0.028946571
000130 2f bc 3f bd 51 d1 a9 bb ad c0 8f bd 35 73 a5 bd
       -0.046810325 -0.005182423 -0.07019172 -0.080786146
000140 85 15 90 bb c3 1f ef bd 60 1d ef bd 77 a2 00 3e
       -0.0043970966 -0.1167598 -0.11675525 0.12561975
000150 88 c5 5d 3d a7 91 52 bc 29 e1 80 3d a7 0f 71 bd
       0.05414346 -0.012852109 0.06292946 -0.058852818
000160 64 4f ba bd 6b 63 a7 3d 01 fc ab 3d 81 e0 05 3d
       -0.09097174 0.08173259 0.08397675 0.032684807
000170 49 d9 e9 bc 82 44 e4 3c 60 ae e2 bd 65 b4 0a 3e
       -0.028545992 0.027864698 -0.11068416 0.13545378
000180 d3 f0 e6 bd d3 ad bb 3d 81 72 e2 3d 0f 87 13 be
       -0.11276402 0.09164014 0.11056996 -0.1440699
000190 81 f2 89 bd 2f b1 a3 3b 11 0e a7 3d f6 9c 05 3e
       -0.06735707 0.004995487 0.0815698 0.13048157
0001a0 3b 1d 72 3d 46 6b aa 3d 4e 3f 4f bd 76 5a fc bd
       0.059109908 0.08321242 -0.05059748 -0.123219416
0001b0 12 08 c1 bd 1d 62 b1 3d 24 2f 93 3d e2 8f a1 3c
       -0.094253674 0.08661292 0.07186726 0.019721929
0001c0 2b b5 02 3e 37 ac 1d 3e 6d 0e 00 3e 92 2d 04 3d
       0.12764423 0.15397726 0.12505503 0.03227002
0001d0 e5 1a d1 3b 77 9d 28 3e 91 4b 2e 3e 2f ad c3 bd
       0.00638138 0.16466318 0.17021014 -0.095545165
0001e0 b5 fa 2b bd f7 7b 60 3d 1c 77 0f 3e e1 91 2f 3d
       -0.04198714 0.054805722 0.1401028 0.04286373
0001f0 fc 32 f8 3d 87 85 55 3d 87 15 e0 3d d5 74 b3 bd
       0.121190995 0.052129295 0.10941606 -0.08762518
000200 5c 3c 19 3e d8 27 ba 3d 41 98 c2 bd d4 f1 05 3d
       0.14964432 0.09089631 -0.095016964 0.03270133
000210 91 28 3c 3e 31 50 ca 3d e6 33 5a bb 76 b6 52 bd
       0.1837485 0.098785765 -0.0033295094 -0.05144354
000220 75 54 11 3e d7 1c 0b be 2b eb 04 3e 57 b7 0f 3e
       0.14192374 -0.1358522 0.12980334 0.14034782
000230 95 dc 48 bd f5 b9 53 bd 68 98 38 bd c8 18 76 bd
       -0.04903849 -0.051691014 -0.04506722 -0.060082227
000240 7d ea 24 3d 90 6a 6e 3b 98 1e 21 3d 90 07 8d 3d
       0.040262688 0.0036379434 0.039335817 0.06886208
000250 4b 22 17 be a7 85 3d bd 2a f4 bb 3d 7f 35 03 3b
       -0.14759175 -0.04627004 0.0917743 0.00200209
000260 86 d5 13 be c2 7a c5 3d 8c 4d 02 3e f6 32 85 bc
       -0.14436921 0.09642555 0.12724894 -0.016259652
000270 f6 7f 99 3c 63 88 6e 3c bf c0 67 bd ce 7f 58 bd
       0.018737774 0.014558884 -0.0565803 -0.05285626
000280 f8 3e c3 bd e6 86 fc ba 66 54 1d bb ea 55 1f 3e
       -0.09533495 -0.0019266277 -0.0024006604 0.15560117
000290 a2 20 b6 3d eb 86 96 bd eb fb 22 3e 46 b4 0c be
       0.08892943 -0.07349952 0.15916412 -0.13740644
0002a0 37 95 ff 3c bf a1 a4 bd 34 49 cb bc 06 14 2f 3e
       0.03119908 -0.08038663 -0.02481518 0.17097482
0002b0 03 71 13 3e 38 05 43 3e 39 93 65 3d a1 ac 01 be
       0.1439858 0.1904496 0.056048606 -0.12663509
0002c0 ae ab be 3d d6 d2 31 3e eb eb 48 bd ec 52 45 3e
       0.09310089 0.17365584 -0.049053114 0.19269913
0002d0 0d c4 52 3e eb 38 30 3e 00 8a 5b 3d 2d 67 7d bb
       0.205826 0.17209212 0.053598404 -0.0038666234
0002e0 06 a6 da 3c eb 31 37 3e 9f 5f 74 3d 70 f3 db 3d
       0.026690494 0.17890136 0.059661504 0.107397914
0002f0 4f f2 2c 3e 5a 3b e2 bc 61 71 5a 3e a7 65 53 3d
       0.16889308 -0.027616192 0.21332313 0.051610615
000300 0c 4e 29 bd f9 b6 8c bd 5d 94 21 bd a5 d3 ed bd
       -0.041334197 -0.06870837 -0.03944813 -0.116126336
000310 c0 93 4b bc a7 25 88 bd ac 23 9c 3d a4 3b d4 bd
       -0.012425363 -0.066478066 0.07623991 -0.10362938
000320 61 31 96 3d 0c 20 c0 bc 05 be 4d 3e 5e 33 bc 3d
       0.07333637 -0.023452781 0.20092018 0.09189485
000330 7f c2 86 3d 96 39 19 3e e8 74 ec 3d d0 bd 77 3d
       0.06580066 0.14963374 0.115457356 0.060483754
000340 5d 70 4b 3e 5e a5 8e bc f1 f3 1f 3e 59 6a cf 3d
       0.19867082 -0.017412838 0.156204 0.10127706
000350 22 50 3a 3e 34 ae 8f bd c3 64 0c 3e a3 de e9 bd
       0.1819463 -0.070156485 0.13710313 -0.11419418
000360 83 96 ac 3d e1 7b 9e 3d f5 bc 17 be 05 ea 1d 3e
       0.08427145 0.07738472 -0.14818175 0.15421303
000370 bb c5 4a bc 9a 4d 21 3e 47 75 82 bd 3b 98 02 be
       -0.012376244 0.15752259 -0.06370025 -0.12753384
000380 f8 6c 27 3e 47 ae 00 3e c9 f7 19 bd 60 bc 4a 3e
       0.16350162 0.12566482 -0.037589822 0.19798422
000390 59 7d 4f bd 3f dd 32 3e 43 37 f4 bd 77 17 20 3c
       -0.05065665 0.17467211 -0.11924603 0.009771219
0003a0 89 54 8c bd 0e 21 f7 bd d8 fc da 3d 65 51 06 3d
       -0.06852061 -0.120668516 0.10692757 0.032792468
0003b0 e8 d2 75 3d 51 a6 4e 3e dc 60 c2 3d 0d a5 da bd
       0.06001559 0.20180632 0.09491131 -0.10676012
0003c0 98 ea b8 bd 16 11 1e 3e b1 94 ed bc 00 b9 bd 3d
       -0.0902912 0.15436205 -0.029001566 0.092638016
0003d0 4d 44 0c bd 35 f0 89 3c 1d 96 ff 3c 2f 0c 23 3c
       -0.034244824 0.016838172 0.03119951 0.009951635
0003e0 d3 0b e7 3d 1c 0d 2a be 9a 95 4a 3e 0b bc 9f bd
       0.11281552 -0.16606563 0.19783631 -0.07799538
0003f0 ed 3c 28 3e c4 07 fc 3d 3f 81 6a bd 38 27 68 3e
       0.16429491 0.12306169 -0.057252165 0.22671211
