trained_model/mc1_mc2/90_days_lookahead/pnet_checkpoint/pnet_online_1100.pth (torch, 545278 bytes, 36 tensors)

network_smart.layer1.0.weight f4 [128, 330]
000000 15 c4 16 bb 92 56 18 3e c4 89 82 3e c8 9a 9a 3c
       -0.0023005058 0.14876774 0.25495732 0.018872634
000010 2e bf e4 bf 6b b6 03 bf 6b c1 b3 3d 7b f4 27 bf
       -1.7870843 -0.5145022 0.08777126 -0.6560742
000020 45 8f 96 3b 0c 82 e6 bf 8c 68 bf bf f9 b9 b2 3c
       0.004594716 -1.8008437 -1.495378 0.021817194
000030 15 15 0d 3e 51 59 63 3e 4c ae b4 3c 9b d4 eb bf
       0.13777573 0.2220204 0.022055767 -1.8424257
000040 b4 52 f4 be 39 1d 86 3d 5a 42 1a bf 91 1b f5 3e
       -0.47719347 0.065485425 -0.60257494 0.47872594
000050 3d 3d ed bf 26 8e c1 bf 77 10 94 3d d8 61 ce 3d
       -1.8534313 -1.5121505 0.07229703 0.10077256
000060 54 69 80 3e 5e ca 51 3c f5 75 e9 bf 44 4d 06 bf
       0.2508036 0.012804596 -1.8239123 -0.5246165
000070 4e 1f 4c 3d 27 f2 1e bf ec 14 6d 3e 04 12 ec bf
       0.049834542 -0.62088245 0.23152512 -1.8442998
000080 9f bb b8 bf 11 2d c9 bc 3d ea 7a 3d 83 23 77 3e
       -1.4432257 -0.024557622 0.061258543 0.2413464
000090 3c cb 9d 3d 79 95 e4 bf e0 2b 11 bf 3e 95 97 3d
       0.077047795 -1.7858115 -0.5670757 0.074015126
0000a0 2b a0 20 bf b9 50 b0 be 1c 78 e4 bf 88 f3 b7 bf
       -0.62744397 -0.34436586 -1.7849154 -1.4371195
0000b0 17 70 59 3d d3 ca ce 3d 4b 7b 34 3e 7f 29 94 3d
       0.053085413 0.100972794 0.17625158 0.07234477
0000c0 45 de ea bf c9 62 f9 be 19 23 af 3d 8f 0d 1e bf
       -1.8349081 -0.4870818 0.08551616 -0.6173944
0000d0 b5 17 2e 3e 70 3a e7 bf aa 6b bf bf 15 0c 2f bd
       0.17001231 -1.8064709 -1.4954731 -0.04273613
0000e0 83 01 e0 3d f0 83 6f 3e 86 4f da 3d 10 ca e6 bf
       0.10937788 0.23390174 0.10659699 -1.8030415
0000f0 14 a0 f8 be b5 3f 9d 3c 29 74 20 bf c1 8d 18 3f
       -0.4855963 0.019195417 -0.62677246 0.595913
000100 47 13 ef bf 69 ee bc bf bc 49 0e bd 14 f1 93 3d
       -1.8677758 -1.4760257 -0.034738287 0.072237164
000110 da 60 fe 3d 34 7c 7b 3d 8d a4 ea bf f1 a7 13 bf
       0.12420817 0.061397746 -1.8331467 -0.57678133
000120 0a 0f 42 3d 07 90 1a bf c1 7a a7 3d d7 1f e5 bf
       0.047377624 -0.6037602 0.0817771 -1.7900342
000130 8b 9a b6 bf 23 70 83 3c 4b a3 ce 3d 71 3c 17 3e
       -1.4265913 0.016044682 0.100897394 0.1476915
000140 88 58 f0 3d e5 32 ed bf 79 73 07 bf 79 8e 64 3c
       0.11735636 -1.8531157 -0.5291057 0.013949984
000150 a2 b2 22 bf 8f 49 db 3d fb d2 e7 bf 2f 2a bf bf
       -0.6355382 0.107073896 -1.8111261 -1.4934748
000160 f4 be 64 3d 17 04 d0 3c cd ac b3 3d 34 f2 c2 3d
       0.05584617 0.025392575 0.087731935 0.09518853
000170 d8 3f f1 bf de 1d 1a bf e3 fc d7 3d 05 8e 1f bf
       -1.8847609 -0.60201824 0.10546281 -0.6232608
000180 13 20 09 be 12 d3 e9 bf ce d3 c0 bf f1 5d 4c 3d
       -0.13391142 -1.8267539 -1.5064638 0.049894277
000190 0e ea bc 3d 2d 24 af 3d f2 5e 38 3e 04 c4 e4 bf
       0.0922433 0.08551822 0.18004969 -1.7872319
0001a0 61 33 02 bf 0c db 86 bb 92 a6 21 bf 86 e7 ef be
       -0.5085965 -0.004115468 -0.6314479 -0.46856326
0001b0 05 2d ed bf 29 d9 bc bf b1 0f 5a 3c 3c fb 9b 3d
       -1.8529364 -1.4753772 0.013309405 0.076162785
0001c0 53 a4 70 3d 15 ef f6 3d 39 23 f1 bf 57 a1 1b bf
       0.05875046 0.1205732 -1.8838874 -0.6079306
0001d0 2d fc 8b 3d de 07 16 bf f6 6f 58 3e f9 ed e6 bf
       0.06835208 -0.58605754 0.2113646 -1.8041373
0001e0 64 2a bf bf c0 b7 a5 bc f4 d2 e2 3d 12 30 3e 3d
       -1.4934812 -0.02022922 0.11075392 0.046432562
0001f0 7c ec fb 3d c1 17 0a c0 95 40 1e bf a2 dd d2 3a
       0.12300965 -2.1576998 -0.61817294 0.001608778
000200 f0 64 33 bf b0 7f b8 3e 6f f3 06 c0 84 b7 c0 bf
       -0.70075893 0.36034918 -2.108608 -1.5056005
000210 c3 b0 53 3d ae ab a3 3c 0e 89 91 3d ad b9 67 3d
       0.051682245 0.019979324 0.07106219 0.05657356
000220 6a b8 08 c0 43 6b 1f bf 99 90 dd 3d eb c8 37 bf
       -2.1362557 -0.62273043 0.108185954 -0.7179095
000230 32 99 83 3d af 8b 06 c0 58 26 bf bf 4a 0a b4 3c
       0.06425704 -2.1022756 -1.4933577 0.021977562
000240 b3 3f 50 3d 18 8d 23 3d 2b 86 e8 3d 4d 51 08 c0
       0.050842 0.03992948 0.113537155 -2.1299622
000250 fd 41 29 bf 5c fa 03 3d b5 e1 20 bf 1e 0a b2 3e
       -0.66116315 0.032221183 -0.628444 0.34773344
000260 38 12 07 c0 2e b8 bc bf 96 7e 96 bc 20 d5 e9 3d
       -2.110487 -1.4743707 -0.018370908 0.114176035
000270 55 3e b3 3d 54 cb 16 3d ba f2 0a c0 a4 71 1f bf
       0.08752123 0.036815003 -2.1710649 -0.62282777
000280 75 01 9b 3d b3 e2 2c bf 7c b2 76 3e d8 9c 07 c0
       0.07568637 -0.67533416 0.24091524 -2.118948
000290 38 39 bd bf dc b0 0c 3d d0 63 d4 3c 1e d9 89 bc
       -1.4783087 0.034348354 0.0259265 -0.016827162
0002a0 52 98 aa 3d d3 ef 04 c0 83 5f 25 bf 60 22 9b 3d
       0.08329834 -2.0771377 -0.64598864 0.07574916
0002b0 d5 dd 27 bf a8 01 a3 3d 81 63 09 c0 82 ee bc bf
       -0.65572864 0.079593 -2.1466982 -1.4760287
0002c0 aa 91 17 bd fe d0 a3 3d 7a c1 19 3d 43 a1 b5 3b
       -0.03700415 0.079988465 0.03753803 0.0055429055
0002d0 ed 8b 04 c0 45 65 14 bf 54 bb df 3d 0a f3 26 bf
       -2.0710404 -0.57967025 0.10924402 -0.652146
0002e0 f2 b5 2d bc ba a4 05 c0 46 a8 b6 bf fe e5 4a 3d
       -0.010602461 -2.088179 -1.4270103 0.049535744
0002f0 71 9d 88 3d 34 6b 0b 3d 88 1b e7 bc c3 70 06 c0
       0.066706546 0.034037784 -0.02821137 -2.1006324
000300 93 ac 19 bf 70 5a 55 3d c4 52 29 bf f2 e9 28 bb
       -0.6002895 0.0520882 -0.66141915 -0.0025774208
000310 6b 32 05 c0 13 00 c0 bf 10 60 4a 3d 05 2f 1e ba
       -2.0812023 -1.5000023 0.04940802 -0.0006034228
000320 78 f8 e0 bc 00 44 e7 3c 71 21 06 c0 bf 9c 20 bf
       -0.02746223 0.028230667 -2.095791 -0.62739176
000330 78 70 95 3d 2d 3f 33 bf 4d d4 a7 3d 43 a7 02 c0
       0.07296842 -0.70018274 0.0819479 -2.0414588
000340 0b bd b6 bf 23 b5 cb 3c d4 2c 2c 3d 66 34 e1 bb
       -1.4276441 0.024866646 0.04203494 -0.0068727015
000350 06 3d eb 3b cb c7 02 c0 0c 8d 20 bf da 3a aa 3d
       0.0071789054 -2.0434444 -0.6271522 0.08312006
000360 87 1d 3a bf da 7d 2c bf 58 eb 01 c0 c0 b5 bf bf
       -0.72701305 -0.67379534 -2.0299892 -1.4977341
000370 08 12 04 3b df 34 f3 bc 91 73 8d bc 98 61 7d bb
       0.002015235 -0.029688297 -0.01726702 -0.0038662907
000380 25 41 06 c0 76 6f 27 bf f3 02 00 3c 06 e9 2e bf
       -2.097726 -0.6540445 0.007813203 -0.68324316
000390 79 32 6d 3d 9e 2f 01 c0 00 2e c2 bf 63 34 d1 3c
       0.057909463 -2.0185313 -1.5170288 0.025537675
0003a0 92 42 1a 3d 55 82 63 bd 6e 57 10 bd 9c 6a 03 c0
       0.037661143 -0.055544216 -0.03523963 -2.053382
0003b0 a5 80 14 bf a4 83 c6 3d 88 23 2e bf 36 ff 17 3d
       -0.58008796 0.09693077 -0.68022966 0.037108622
0003c0 12 5d 07 c0 70 b0 b9 bf 96 97 16 3c c5 fb 34 bd
       -2.1150556 -1.450697 0.009191414 -0.04418542
0003d0 70 ae ed bd b2 79 93 bb 83 73 01 c0 34 48 33 bf
       -0.11605537 -0.004500591 -2.0226753 -0.7003205
0003e0 e2 fa 0b 3d ba 00 2a bf f9 28 3a bd 31 52 00 c0
       0.034174807 -0.6640736 -0.04544923 -2.0050166
0003f0 65 02 bd bf b1 a4 dc 3b e0 ec a8 3c f4 b3 ba bd
       -1.4766356 0.0067335 0.020620763 -0.091163546

network_smart.layer1.0.bias f4 [128]
000000 f2 1c 03 be 4b ae a3 bd 6b bd dd 3c f3 73 2a be
       -0.1280401 -0.07992228 0.02706786 -0.16645794
000010 b2 61 73 bd 2d 7e 1d bc 93 8f 1f 3d 0b ce c1 3d
       -0.05941934 -0.009612602 0.038955282 0.09463128
000020 94 ae 89 ba a6 94 d0 bc 7e 24 04 3d c8 e3 9d 3d
       -0.0010504299 -0.025461506 0.032261364 0.077094615
000030 ae 5c 75 3d 1a 41 be 3d 5a fa 07 bc 4e e1 f8 bc
       0.05990284 0.09289761 -0.008299435 -0.030380871
000040 61 72 5e be 2b d6 3e bc 82 d9 fa 3c 7d 33 16 3e
       -0.2172332 -0.011647741 0.030621294 0.14668079
000050 73 98 cb 3d da 60 b7 bc 1e 1d 27 3d 45 4b 15 3e
       0.09941187 -0.02238505 0.040799253 0.14579494
000060 3f 9b 22 bd fc 76 2b bc aa 60 d1 3d b0 57 da bc
       -0.039698835 -0.01046538 0.10223515 -0.02665314
000070 c2 0b 47 3e fb 0a 7c 3d b7 a3 6c 3c aa a3 11 3e
       0.19438079 0.06153391 0.01444333 0.14222589
000080 da ff 1f bd c5 03 bc bd e6 0b 8c ba 8b 45 8f be
       -0.03906236 -0.091804065 -0.0010684698 -0.27982745
000090 f6 5d f8 3d 66 68 90 3d f0 16 33 3c f6 56 fa bc
       0.121272966 0.070511624 0.010930762 -0.030559044
0000a0 95 e2 aa 3d 2e b8 67 3d f8 e5 03 3d 51 3c cc bc
       0.08343998 0.05657213 0.032201737 -0.024931105
0000b0 7f 88 24 3e ce 55 10 3e dd c4 1a bd 67 c9 4d bd
       0.16067694 0.14095232 -0.0377854 -0.0502409
0000c0 f1 94 3d 3d aa 9d 18 3d 04 f8 5a be f3 f6 cd 3d
       0.04628462 0.037259735 -0.21383673 0.100568675
0000d0 9f dd b4 3d f5 3c 4a bd f6 46 cb bd 85 96 3b 3d
       0.08831333 -0.04937454 -0.09925644 0.045797843
0000e0 2d dd 2c 3c 27 30 7c 3a c8 be 42 bd bc 01 d0 3d
       0.010550779 0.00096202124 -0.047545224 0.10156581
0000f0 2e 47 d2 3d 80 f5 12 3e dd 1f 58 be 38 f8 75 bd
       0.10267483 0.14351463 -0.21105905 -0.060051173
000100 15 16 a1 3d a9 68 49 bd 60 30 4f 3d cb 0c 13 3d
       0.0786554 -0.049172077 0.050583243 0.035900872
000110 aa 08 95 3d 31 d5 0c be 4a 78 26 3e 5a d3 0a 3e
       0.07277043 -0.13753201 0.16256824 0.13557187
000120 62 15 5b 3e a0 63 e2 3d 37 42 68 bd 84 b4 56 3d
       0.21394876 0.11054158 -0.056703772 0.052418247
000130 90 56 f6 3d 33 ff ed bc ec 4e f6 3c a7 03 85 3d
       0.12028229 -0.029052353 0.03006693 0.06494837
000140 cf b1 85 bc d7 7d 25 3e 91 e1 3d bd 55 89 37 bd
       -0.016320137 0.16161285 -0.046357695 -0.044808704
000150 af 2d d9 3d 2a bb 9d 38 07 0a e6 3d b7 30 4f be
       0.106044166 7.5212054e-05 0.11232381 -0.20233427
000160 5e 3f 13 bd 0c 10 8f 3d 0d 1d 14 3e 59 13 3c bd
       -0.035949104 0.069854826 0.14464207 -0.04591689
000170 b8 e2 01 3c fa f0 e7 3d 24 14 3e 3e 60 e0 98 3d
       0.007927589 0.113252595 0.1856237 0.07464671
000180 20 b2 31 3d b1 cc 7f bd 9a 7b d1 3c 13 b4 fa 3d
       0.043382764 -0.06245107 0.025571633 0.12241378
000190 f1 28 8b bb 36 fa 92 3c 80 d3 61 bd 5b ab 60 3d
       -0.004246824 0.017941575 -0.055133343 0.054850917
0001a0 be 8e de 3d f4 2a 05 3e f5 e1 8b 3d d3 72 c7 3c
       0.1086707 0.13004667 0.06830207 0.024346745
0001b0 f9 49 c2 3d 20 19 a0 be bc 52 14 3e c8 8e fd 3d
       0.094867654 -0.3126917 0.14484686 0.12380749
0001c0 9e 05 7c 3d c1 aa a8 be 21 84 5c be fb b3 0c 3e
       0.061528794 -0.32942775 -0.21534778 0.13740532
0001d0 a3 ef 30 bd c7 b6 75 3d 8c 36 01 3d 4b 11 bf 3c
       -0.043197285 0.059988763 0.03154616 0.023323676
0001e0 dd fe 6e 3d 3d ba 17 bb 74 83 6a bc 5c 4f 5d 3c
       0.058348525 -0.0023151778 -0.014313567 0.01350769
0001f0 59 f0 fb 3d 06 a5 46 3c d3 8b de bc 5a 2c 1a 3e
       0.12301702 0.012124306 -0.027166283 0.15055981

network_smart.layer2.0.weight f4 [128, 128]
000000 53 50 a2 3d e5 cc 3c be d6 5b a1 bd 99 e4 86 3e
       0.07925477 -0.18437536 -0.078788444 0.2634628
000010 6e 46 a7 bc e0 1a 95 bd 9c ef 10 3d 92 66 8b bd
       -0.020419326 -0.072805166 0.03538476 -0.06806673
000020 3a 3f 73 bd 8e d8 16 bd 6a 06 a9 3c d2 b4 57 be
       -0.05938647 -0.036827616 0.020632941 -0.21065071
000030 52 8d b9 3d fa 92 c9 bd 83 fa 07 bd 4a 32 48 3d
       0.09060158 -0.09842487 -0.03319789 0.048876084
000040 3e cb 01 3f 32 10 5b bc 72 97 cc bc 95 26 aa bd
       0.5070075 -0.0133705605 -0.024974559 -0.0830814
000050 7e e8 94 3d ea 4a 31 bd ea 65 25 bf d4 12 8c 3d
       0.07270907 -0.043284334 -0.64608634 0.06839529
000060 17 ed 96 bd d3 7b 32 bd 70 8f a5 3d 55 54 70 3d
       -0.0736944 -0.04357512 0.08083999 0.058674175
000070 4a 62 96 3d 0f e7 e2 bc 43 9b a8 3d 00 f0 b9 bd
       0.07342966 -0.027698068 0.08232739 -0.090789795
000080 69 c2 4a bc ff 6a cd bb ea 82 3e 3d 2c 8a 04 3e
       -0.012375453 -0.0062688584 0.046511568 0.12943333
000090 89 22 6c 3b bd ef e9 bb a5 55 06 3d 9e 56 49 bd
       0.0036031327 -0.0071391747 0.03279652 -0.04915487
0000a0 a8 c7 5e bd ce a7 86 3e 1f b9 eb bb 63 75 b7 bd
       -0.054389626 0.262999 -0.007193699 -0.089579366
0000b0 95 40 55 3d e4 ef 5b 3e cc 13 70 3c fe 6e c1 bc
       0.052063543 0.2147823 0.014653157 -0.023612496
0000c0 f3 38 43 3d 28 f0 a4 bd 56 43 67 3a bd 14 d5 3d
       0.047661733 -0.08053619 0.00088219845 0.10404346
0000d0 8d d0 d3 be 5e d5 34 bd 8a db 54 bc 65 32 5d 3d
       -0.4137005 -0.044148795 -0.012991795 0.054003138
0000e0 f1 34 23 3d 17 d3 10 3d 2b 9f 79 bd af ee 81 3d
       0.03984541 0.03535756 -0.06094281 0.063443534
0000f0 46 f9 27 bd 2c 55 cc bb f2 10 17 bf 7b 6b 8b bd
       -0.04100921 -0.006235739 -0.5901023 -0.0680761
000100 fa fa f7 bd 0b ad 72 bc fe 29 0f 3d b9 07 a5 3d
       -0.12108417 -0.0148117645 0.034952156 0.080581136
000110 57 ca 36 3e 64 e1 9d 3d f3 fe 44 bd 98 7f 51 be
       0.17850624 0.077090055 -0.0480947 -0.2045883
000120 55 66 d4 bc fd 7c 8f bd 85 97 94 3d a4 ed 43 ba
       -0.025927702 -0.070062615 0.072554626 -0.0007474071
000130 11 2b 1a 3c f8 4d 9a 3c e4 47 58 be 3c d4 23 3d
       0.009409682 0.018836007 -0.21121174 0.039997324
000140 1b 64 c4 3c 6d 08 f6 3e c0 d3 86 3d ca 1c 17 bc
       0.023973515 0.48053303 0.06583357 -0.009223172
000150 29 30 b1 bd 79 ac 5d bd 6f e8 b6 3c 42 37 59 3d
       -0.08651764 -0.05411956 0.02232763 0.053031214
000160 37 7a 83 be 85 cc d7 bd 0a 77 48 3e e8 73 69 bd
       -0.2567918 -0.10537056 0.1957666 -0.056995302
000170 a9 c5 7e be 93 bd 6f bd 56 b0 01 3e b6 d5 1e bd
       -0.24880089 -0.0585304 0.12664923 -0.03877803
000180 92 67 91 bd 30 75 22 bc 1e 8b 43 3d 77 a1 a1 3d
       -0.070998326 -0.009915635 0.047740094 0.07892125
000190 90 28 05 bd 08 c2 35 bc ae 08 40 3d 76 86 01 3e
       -0.032509387 -0.011093624 0.046883278 0.12648949
0001a0 ee eb ed 3c 0c c4 b5 3c 31 e9 b2 bd f4 29 92 bc
       0.029043164 0.022188209 -0.08735884 -0.01784227
0001b0 a5 5d e3 bd 89 c9 1f bc 39 99 c6 bd e0 6e 50 bd
       -0.11101846 -0.00975264 -0.09697194 -0.05088699
0001c0 0b c8 76 3e 2f 06 a9 bf 42 a3 2c bd 4d 26 2d 3d
       0.24099748 -1.3205012 -0.042147882 0.042272855
0001d0 ee 1e 98 3d 53 a3 4c 3d f7 05 0c 3d 07 47 58 be
       0.07427774 0.049960446 0.034185376 -0.21120845
0001e0 79 c8 52 3d df 67 cf 3d fc b7 58 3d f2 12 ad bd
       0.051460717 0.10127234 0.052909836 -0.08450879
0001f0 6f 60 e5 bc fd 8d 0a bd 5f 46 6b 3d 2d 77 42 3e
       -0.028000085 -0.033826817 0.057440158 0.18990774
000200 73 78 bb 3d 56 12 0c be 90 e6 8e 3e 79 81 fe 3e
       0.09153833 -0.1367887 0.2791028 0.49708155
000210 30 89 89 bd 9d 8d 1d bd fd bb 8c 3d 2c 3b 65 bd
       -0.067156196 -0.03846513 0.068717934 -0.055964634
000220 15 82 82 bd 03 aa 9b 3d 17 9d ad 3c c8 5e cf 3d
       -0.063724674 0.076007865 0.02119307 0.101255
000230 56 fd ab be 0d 31 88 3c f0 8c 29 3d 5a 15 ac 3d
       -0.33591717 0.016624952 0.041394174 0.0840251
000240 c6 c4 bb 3e 2e 87 ac bd 6c 30 33 3e 95 9b 88 3d
       0.36673564 -0.08424221 0.1749894 0.066703
000250 e2 01 87 bd c6 db 5b bc 7b 40 4d 3e 4a b0 8f 3d
       -0.06592156 -0.013419097 0.20044129 0.07016046
000260 a2 d5 17 bd ca 97 71 3e b5 99 4a bb 86 a0 b7 3c
       -0.03706897 0.23593059 -0.003091437 0.02241541
000270 a2 3f 00 3d b4 82 f8 3c 00 de 2c be cc 21 d2 bd
       0.031310685 0.030335762 -0.16881561 -0.102603525
000280 8b 93 50 bc 23 25 e4 bd 44 58 fb be 44 45 9c 3d
       -0.0127304895 -0.11139896 -0.4909078 0.07630399
000290 99 18 33 3d 24 46 33 3d ad 85 07 be 8f 1d 0e be
       0.04372463 0.043768063 -0.13234587 -0.13878463
0002a0 ea ce 05 3d 47 0d ab 3e 2f 58 84 be fb e6 a2 3d
       0.03266803 0.33408567 -0.2584853 0.07954212
0002b0 33 df 81 3d ee d7 a0 bd ae dc a2 bd a5 fc 63 3d
       0.063414 -0.07853685 -0.079522476 0.055660862
0002c0 80 e8 e4 bd 8d f2 18 be e5 9c 53 be 86 3a 0d 3e
       -0.11177158 -0.14936276 -0.2066532 0.13791856
0002d0 1f 4c 70 bd 1d 92 1a be 42 59 ab be be 07 53 3b
       -0.058666345 -0.150948 -0.33466536 0.003220066
0002e0 59 fa ce be 73 dd e4 bd 5a d7 3c bf a5 1f 22 bd
       -0.40425375 -0.111750506 -0.737661 -0.03958096
0002f0 19 02 02 bc 68 2a 06 bd 71 a9 ef bd 1d 25 e3 bd
       -0.00793507 -0.032755286 -0.1170224 -0.11091063
000300 50 5f bd 3d 26 e5 82 bd 26 e3 80 3e bf 8b 98 be
       0.09246695 -0.06391363 0.251733 -0.29794118
000310 ac 09 08 bb 7d 58 a1 be f9 6f b3 bc 1f 10 07 3d
       -0.0020757718 -0.31512824 -0.021903979 0.03297436
000320 ad f7 ea 3c 7f e7 2b 3d 2c 51 3d bd 51 2c 74 bb
       0.028682554 0.04196882 -0.04621999 -0.003725786
000330 5f 0d 43 3b 29 8b 99 3d 0c b4 1d be 7c ff 55 bd
       0.0029762608 0.07497246 -0.15400714 -0.052245602
000340 b4 6c 31 3c e0 ab 2f be dd a6 66 bc 3a 61 93 bd
       0.0108291395 -0.17155409 -0.014077869 -0.07196279
000350 9d 8b 35 3d d6 40 6d 3d cb 8d 7c 3e 0e e8 05 bf
       0.0443226 0.05792316 0.24663465 -0.5230721
000360 7c d0 fd bd 4d 79 7d bc be 4d 49 be 94 8b 30 bd
       -0.12393281 -0.015470815 -0.19658563 -0.043101862
000370 83 3d c2 3d 7d 9a e1 3d fe 37 e6 3d 6f 4e 01 3d
       0.09484389 0.110157944 0.112411484 0.03156894
000380 80 d3 2d 3d b8 93 aa 3c fe 86 a9 bd 34 5c b2 3b
       0.04243803 0.02082239 -0.08277701 0.0054431204
000390 4c 2f a6 3d 3f 84 48 bd a5 65 85 bd 05 ff bb bd
       0.0811449 -0.048954245 -0.06513528 -0.091795005
0003a0 37 6a b1 bd 3b 50 e6 bc 19 a9 06 3e a2 8d 56 3c
       -0.08662837 -0.028114429 0.13150443 0.013095291
0003b0 31 cf 06 3d 1a 8f 37 3e 98 78 a5 3d ef 7d f1 3c
       0.032912437 0.17925683 0.08079642 0.029478995
0003c0 a5 23 35 bd ce 1f 41 3c 9d e1 c7 bd 7c 71 0f 3d
       -0.044223446 0.011787368 -0.09759829 0.035020337
0003d0 e1 85 0a bd 52 b6 a9 3c 09 ab 12 3c df e5 03 bd
       -0.033819083 0.02071682 0.008951911 -0.032201644
0003e0 59 ab 2a bd 78 b6 cf be a3 50 34 3d b6 47 ed be
       -0.041667316 -0.405689 0.044022214 -0.46343774
0003f0 26 fb ac 3d 14 cf c1 3c 61 cc e4 bd 49 60 a0 3d
       0.0844634 0.023658313 -0.11171795 0.07830865

network_smart.layer2.0.bias f4 [128]
000000 7c 65 46 3d 02 dc 5a 3d da 28 d0 3d 23 21 93 3d
       0.048436627 0.053432472 0.10164042 0.07184055
000010 e3 56 52 bd 0f 4c e4 3c 05 92 26 3e 73 83 49 be
       -0.051352393 0.027868299 0.1626664 -0.1967905
000020 8d db b8 3c 19 66 c2 3d 38 c7 9c bd a8 a8 e4 3d
       0.022565627 0.0949213 -0.076551855 0.11164981
000030 ed 0b a0 3d ed 77 5c 3b 09 ba 05 3e 29 05 d7 bd
       0.07814775 0.0033640817 0.13059248 -0.10499031
000040 65 5d 2b bd 66 ec 8b be 04 43 aa 3c b9 2c 82 3d
       -0.041837115 -0.27328795 0.020783909 0.063561864
000050 6a 30 6c bc 5d a1 a4 bd b0 20 8e be 3f ee 85 3d
       -0.01441584 -0.0803859 -0.27759314 0.065395825
000060 5b 0a af bd 9c 2f 92 3d 0b 8c 2a bc bc 0f 1c bd
       -0.08546897 0.07137987 -0.010409365 -0.038100943
000070 d4 90 9e bd a8 74 cf 3d 8a 69 c6 bd 59 07 d3 b7
       -0.077424675 0.10129672 -0.09688099 -2.5156582e-05
000080 2b 4a 86 3d 0f 1f f7 bc 17 d6 81 3d 70 76 3d bd
       0.06557115 -0.030166177 0.063396625 -0.04625553
000090 00 1b c0 3d b6 72 66 bc 13 66 3e be 15 64 8e bd
       0.0938015 -0.014065435 -0.18593626 -0.06952683
0000a0 b0 33 e6 3d 25 f6 4a bd 31 9a 29 3d 3e 8c 4d 3d
       0.11240327 -0.049551148 0.041406814 0.050182573
0000b0 0f 3e 45 bd 16 29 ab 3d 64 3f d3 3c 35 d8 4d 3d
       -0.048154887 0.08357446 0.025787063 0.05025502
0000c0 8c 21 8d 3d b7 cc 9b 3d 33 b3 a3 bc 52 6c c0 3b
       0.06891164 0.07607406 -0.01998291 0.005872288
0000d0 85 2c 36 bd 51 91 ec bd 0c 1c 89 3d 96 c8 a1 bc
       -0.04447605 -0.115511544 0.06694803 -0.019748967
0000e0 00 c5 97 3d 05 e3 91 bc c0 d6 ef bd 8f d7 9b 3d
       0.07410622 -0.017808447 -0.11710882 0.07609474
0000f0 0c 71 c7 3d ab 62 2f 3e 30 96 38 3d 12 dc 56 be
       0.09738359 0.17127483 0.045065105 -0.20982388
000100 ba ba 21 3c 9c 82 89 3d 0f 59 0f bc 00 96 dd bd
       0.009871179 0.06714365 -0.008749261 -0.10819626
000110 33 87 60 3d d9 2e f1 3d dd 27 c5 3c f8 35 8e 3c
       0.054816436 0.117765136 0.02406686 0.017359719
000120 e0 ee 99 3d 9d a7 9b 3c 4f ef 8e 3d b6 a4 09 bd
       0.07516265 0.019000823 0.06979238 -0.033604346
000130 32 d2 a0 3d 38 06 a6 bd 8d db 69 3d 04 fe 13 bd
       0.078525916 -0.08106655 0.057094146 -0.03613092
000140 5d 37 3b bc a9 d4 e4 3d 3e 85 ee 3d 65 da 95 3b
       -0.011426774 0.11173374 0.11646508 0.004573154
000150 ad 80 c6 bd 03 64 b6 bc 14 9b bf bd b2 22 9d bd
       -0.09692512 -0.022264486 -0.09355751 -0.07672633
000160 a2 84 6c 3d 8e f8 ca 3b 31 3c 98 3d 5f d3 d0 3d
       0.057743676 0.006194181 0.074333556 0.10196566
000170 69 41 7c 3d 81 9b a9 bd b3 31 87 bc e0 f3 1f 3d
       0.061585817 -0.08281613 -0.01650319 0.039050937
000180 11 af cd bb 73 3a 2a 3d 01 14 3d bd c1 4c 0d bd
       -0.006276973 0.041559648 -0.046161655 -0.034497026
000190 62 2c 63 3d 5b 0a 61 bd 7c c8 d4 3d 80 f7 85 bd
       0.05546225 -0.054941516 0.10389802 -0.065413475
0001a0 d5 52 4c bd c9 9f 83 3d ce 65 bf bd b4 80 91 3d
       -0.049883682 0.06426961 -0.093455896 0.07104626
0001b0 ba 62 82 3d f5 e1 e3 bc 60 dd cb 3c 6a 1e 61 3c
       0.06366487 -0.027817706 0.024885833 0.013740161
0001c0 a3 d7 ca 3c 9e a2 e3 3a f4 c0 06 3d 27 7e 45 3c
       0.024761027 0.0017367189 0.03289886 0.012054003
0001d0 a3 9a 9c 3d 43 af 60 bd bd b9 28 be 77 54 8a 3d
       0.07646682 -0.054854643 -0.16477104 0.06754392
0001e0 97 e1 83 3d 95 b5 a4 bd 7c 57 f3 bd 11 3f b3 bd
       0.06439512 -0.080424465 -0.11881921 -0.08752263
0001f0 28 62 7d 3d 0d e8 a9 bc 60 f7 64 3d 42 30 9a 3d
       0.061861187 -0.020740533 0.055899978 0.07528736

network_smart.layer3.0.weight f4 [48, 128]
000000 cf 77 36 be 89 df 41 be 45 da 67 3c f5 4d 9f bd
       -0.17819141 -0.18932928 0.014151161 -0.07778541
000010 f5 02 86 3e 02 3b 76 3d b6 e5 2a 3e 46 39 cb be
       0.2617413 0.060114868 0.1668919 -0.39692134
000020 1b 2e 82 bd c8 ff 1a bd be 75 8d 3c bb 16 b7 3d
       -0.0635645 -0.03784159 0.017268058 0.08939882
000030 43 17 0b bd f2 6c 2e 3e 54 74 d1 bd 65 f5 b5 bd
       -0.03395773 0.17033747 -0.10227266 -0.08884696
000040 df 09 4d be 68 ba 2c 3e ce ee 6e 3d c6 99 47 bd
       -0.20023297 0.16867983 0.05833321 -0.048730634
000050 be e3 33 be 2b 87 70 3c a5 da 90 bd 39 9f 58 bd
       -0.17567345 0.014680664 -0.07072953 -0.05288622
000060 52 a8 ee 3d bd 61 0d bc 3e ec 6b 3d ca 07 e4 bc
       0.11653198 -0.00862926 0.057598345 -0.027835745
000070 0a 45 8c 3e 34 b3 ad bc db 99 86 3c 87 ea cd bd
       0.27396423 -0.021203615 0.016430786 -0.10054498
000080 86 1b f8 bb 0b 8d 88 3d 9d 65 15 be a7 ea 92 3d
       -0.0075716404 0.06667527 -0.14589544 0.07173663
000090 53 62 88 3d cf 0b 0a bf 98 73 3b 3d d7 ff 86 3c
       0.06659379 -0.5392427 0.045764536 0.016479416
0000a0 a1 ab 1f 3a 9a 51 0c 3d 7a bd 0a be f4 5b 12 3e
       0.00060909434 0.03425751 -0.13548842 0.1429289
0000b0 1a 26 d8 3b f5 49 e8 3d b6 25 dd 3d 63 54 8e 3e
       0.006596339 0.11342231 0.107982084 0.27798757
0000c0 17 ba 9c 3d 56 bc cd 3c 46 f1 7c be ba 9b 23 bb
       0.07652681 0.02511422 -0.24701414 -0.0024964646
0000d0 16 33 12 3e 1a 0b 8f be 7d ee 8b 3d 91 ff a7 3d
       0.142773 -0.27938157 0.068325974 0.08203042
0000e0 4a 2e 17 3d a8 e2 3d 3d 61 cf 88 3d 94 35 ef 3a
       0.03690938 0.046358734 0.066801794 0.001825022
0000f0 96 d8 10 bd a4 27 09 3e e4 1d 19 3e af 85 06 3f
       -0.035362802 0.13394028 0.14952809 0.52547735
000100 1b 73 bd bd 46 49 b6 ba 56 12 16 bf e4 e7 ea bc
       -0.0925047 -0.0013907335 -0.5862173 -0.028675027
000110 e6 8d 93 bd fa 0c 03 3e 3e 9a 22 bd 93 3a dc bd
       -0.07204799 0.12797919 -0.039697878 -0.1075336
000120 f4 af 88 3c 6b f8 19 3e d3 db 1c be a1 8d 85 bc
       0.016685463 0.1503617 -0.15318231 -0.016302885
000130 75 44 49 3b 6a a3 ea bc 84 d3 47 be a6 de ba 3d
       0.003071097 -0.028642375 -0.1951428 0.09124498
000140 59 01 a6 bd 8e b1 14 bd 38 30 0d be bf 5b 84 3d
       -0.08105726 -0.03630214 -0.13787925 0.06462812
000150 46 e5 f2 ba 3e 85 66 3c 66 a1 0d 3e 7a 00 d4 3d
       -0.0018531464 0.014069853 0.138311 0.103516534
000160 33 01 b1 bb 60 f0 26 3d 99 52 de bc b1 d2 d9 bb
       -0.0054017543 0.040756583 -0.027138995 -0.006647431
000170 2e 7d 1e ba d7 c0 85 3c e0 9c 19 bd b4 eb f3 3d
       -0.0006045875 0.016327305 -0.037503123 0.11910191
000180 9f aa 93 3d b0 8b d3 bd 3f 8c 7a 3d ce f9 05 bc
       0.07210278 -0.10329378 0.061168905 -0.008177234
000190 c4 2b 3e bd 9c c1 94 3d 45 d0 2c be 61 45 01 3d
       -0.046428457 0.072634906 -0.16876324 0.031560306
0001a0 b8 5b 34 3d ae 76 a7 3d 1b 50 fd 3c 84 4c 1c bb
       0.044032782 0.08176933 0.030921986 -0.0023849318
0001b0 d5 a4 e2 3d 3d 4c 04 3c 8c 5f 87 bb 42 01 68 3e
       0.110665955 0.008074817 -0.004131263 0.2265673
0001c0 40 28 65 be ad c1 56 3e d7 80 48 3d e7 ca 93 bd
       -0.22378635 0.20972319 0.048950996 -0.07216435
0001d0 24 86 86 bb 92 93 08 bc 6f a5 0b bd 81 00 7e bc
       -0.0041053463 -0.008335965 -0.034093317 -0.01550305
0001e0 98 42 ae 3d 4d 27 ec 39 cf 75 be bb e6 b6 77 3d
       0.085087955 0.0004504271 -0.0058123837 0.06047716
0001f0 21 92 88 3c 21 a3 27 3e 75 bf 1e 3e e1 b1 9c 3c
       0.016671242 0.16370822 0.15502723 0.019127788
000200 ba 9a f3 bd 29 d3 54 be ce 91 d1 3d 69 5b 88 bc
       -0.11894746 -0.20783676 0.10232888 -0.01664515
000210 04 36 bf 3e 8d 83 82 3b 7f 34 1f 3e 5c 4d 7d be
       0.37345898 0.003982967 0.1554737 -0.24736542
000220 9a 26 bc 3d d8 08 f9 3c 64 67 21 bd 80 6b 6c 3d
       0.0918705 0.030399725 -0.03940524 0.057719707
000230 fc f8 44 3d 8c 33 a1 3c 49 7f 9b bd fc 49 79 3d
       0.048089013 0.0196779 -0.07592637 0.060861573
000240 65 0a 49 be 61 4e 20 3d f0 1e b7 bc 79 50 5c 3d
       -0.19632871 0.039137248 -0.02235362 0.053787682
000250 15 f4 20 be b9 f9 85 3d 05 72 46 be 1a 3b 95 bd
       -0.1571811 0.065417714 -0.19379432 -0.07286663
000260 b8 66 09 3e 98 59 17 bc 1a bb 7c 3d 77 bd d3 bd
       0.1341809 -0.009237669 0.06170187 -0.10338872
000270 73 f2 b3 3e 0a 76 44 bd 94 d3 8e bd bf ed 51 3c
       0.35145912 -0.047964133 -0.06973949 0.012813031
000280 41 f9 80 3d e2 b5 47 bd 0f 23 2d bc 51 33 58 bd
       0.062975414 -0.04875744 -0.010567441 -0.052783314
000290 fd be 19 3d 6f c3 f4 be 3e 4d 5a bc be f2 40 bd
       0.037535656 -0.47805354 -0.01332408 -0.047106497
0002a0 3f b9 40 bd 7f fa 2f 3c c0 ca eb bd 2e 8c ad 3d
       -0.047051664 0.010740875 -0.11513281 0.08474003
0002b0 5a 2f 76 bd 50 c5 1d 3e e0 17 1d 3e db b5 ea 3d
       -0.06010375 0.154073 0.15341139 0.114604674
0002c0 66 82 32 3c ae ab bb bd dd 43 a2 be 66 fe cb 3d
       0.010895347 -0.09163605 -0.316924 0.09960632
0002d0 f1 27 b4 3d e2 c3 89 be d6 a5 e8 bd fa f2 1b 3d
       0.08796681 -0.2690726 -0.11359756 0.038073517
0002e0 d1 d7 d3 bd 9c e7 df 3d 46 7b 49 bd b0 ea c8 bc
       -0.10343898 0.10932848 -0.04918983 -0.02452597
0002f0 8d 5c 08 3c 55 a5 58 3e 3a 34 1e 3e 36 7a 6f 3e
       0.008322847 0.21156819 0.1544961 0.23386464
000300 89 01 a2 bd c0 20 ff 3c e8 e0 5a be a3 91 68 3b
       -0.07910449 0.031143546 -0.21374857 0.0035487197
000310 c5 00 ea bd 07 9b 6b 3e a2 ca 71 bd d9 07 3b bd
       -0.11425928 0.23008357 -0.059031136 -0.04566178
000320 c2 ce dd 3c 29 82 19 3e 9c 5f 0b bd c5 d6 d3 3c
       0.027076129 0.14991058 -0.034026727 0.025859246
000330 88 fe 2b bd 46 d6 a2 bc 99 dd 39 bd e3 4a 12 bd
       -0.041990787 -0.019877564 -0.045377348 -0.03571595
000340 70 30 5a 3d 38 c2 27 be 0c 90 da bd 4a a2 a9 3d
       0.05326885 -0.16382682 -0.10672006 0.08282907
000350 8f 50 4c bd e5 03 b7 bc 7e b4 67 3e 79 df 8c 3d
       -0.049881514 -0.022340724 0.22627446 0.068785615
000360 b6 2a 30 3d 76 fb b3 bd e6 99 9a bd 12 85 c3 3d
       0.043009482 -0.08788197 -0.07548885 0.095468655
000370 31 84 98 3d 2e 56 af bb 53 a0 a5 3c 50 70 03 3d
       0.074470885 -0.0053508496 0.02021805 0.03208953
000380 5b 53 c3 3d 6e 28 c4 3b 94 46 59 3d d3 fd 6d bc
       0.09537383 0.005986265 0.053045824 -0.014525848
000390 db 9a 69 bd 58 c0 01 3e 1a 11 91 be 44 31 9a 3d
       -0.057032447 0.1267103 -0.2833336 0.07528928
0003a0 56 ba 26 bd f9 ba a7 3d 92 63 9b bd 34 be 0f be
       -0.040705048 0.08189959 -0.07587351 -0.140374
0003b0 8c 6d ea 3d e8 62 cb bb 24 8e 9a bd 52 f9 d8 3d
       0.11446676 -0.006206859 -0.075466424 0.10594429
0003c0 0f f3 4d be f5 b7 2a 3e 9b a0 a4 3d b5 c2 b9 bd
       -0.20112251 0.16671737 0.080384456 -0.090703405
0003d0 9f 77 ba 3c 57 19 bf 3d 46 82 0e bd 6a f2 f4 3c
       0.022762118 0.09331005 -0.034792207 0.029900748
0003e0 55 a8 22 3d 18 b9 da 3b 96 be b0 3d f1 e0 a1 3d
       0.039711315 0.006674897 0.086301014 0.07904232
0003f0 67 1c 5c 3d f0 1d 95 3e 18 24 88 3e a2 b4 67 3c
       0.053738024 0.29124403 0.26590037 0.014142187

network_smart.layer3.0.bias f4 [48]
000000 66 67 2e bd 48 26 56 bb c7 af ad bd 07 39 6e bd
       -0.042579077 -0.0032676626 -0.084807925 -0.058159854
000010 5c 32 58 bc 0a 61 b7 bc f1 2b 6c 3d c1 b0 c6 bd
       -0.0131956 -0.022385139 0.057659093 -0.09701682
000020 d4 b6 8f bd fc d3 4c 3b 38 41 0e bd 0d 38 9e 3d
       -0.070172936 0.0031254282 -0.034730166 0.077255346
000030 ed d1 bf bc cf 82 b0 3c 5c a3 7a 3d 0b 7f 95 3d
       -0.02341553 0.02154675 0.061190948 0.07299622
000040 cb 11 6c bc 79 7d 8f 3d 93 2a 09 bd 22 12 ca 3d
       -0.014408539 0.07006354 -0.033487868 0.0986674
000050 ed 54 93 bc d8 57 cf 3c ce 77 39 3d 73 ab 59 3d
       -0.017984832 0.025310442 0.04528027 0.053142022
000060 a7 f1 70 3b d8 51 d2 bd d3 e3 37 3d 70 3d 72 bd
       0.003676513 -0.10269517 0.044895004 -0.059140623
000070 89 0d fd 3c 1c 9e 7e 3d 48 8e 35 bd a1 17 ec bd
       0.030890243 0.062162504 -0.044325143 -0.11527944
000080 87 fa 12 bd c6 dd db bd 19 50 9d 3d 8d 76 ff bd
       -0.035883453 -0.10735659 0.07681293 -0.12473784
000090 df 29 9e 3c fd b2 9d bd 4b 8d 4b 3c ab 04 99 3c
       0.019307075 -0.07700155 0.012423824 0.018678984
0000a0 8b 05 3b bd 68 ed d0 3c aa 89 09 3d b7 d8 03 3d
       -0.045659583 0.02550383 0.033578552 0.032189097
0000b0 ed 74 64 3d f5 ee 9b bd 4c ef 0e be ef 4d 1f 3d
       0.05577557 -0.07613937 -0.13958472 0.038892683

fc_smart.weight f4 [64, 48]
000000 08 49 d4 3d a4 dd de 3d 1d bc ff 3d eb 94 d6 3e
       0.10365492 0.10882118 0.12487052 0.4191049
000010 d6 9d 44 be e8 72 a7 3e 90 b6 b7 be c5 57 a4 bf
       -0.19200835 0.32704854 -0.35881472 -1.2839285
000020 44 cf 5b 3d 59 c4 ab be 64 03 a2 bd 4b e7 5e be
       0.05366446 -0.3354824 -0.07910803 -0.21767919
000030 0b 09 3d 3e 1e 39 0c be d4 18 59 bd e1 71 93 be
       0.18460481 -0.13693663 -0.053002194 -0.2879782
000040 b5 0b cd be 88 cb 85 3f 29 7d b0 bd a1 d6 26 bf
       -0.40047994 1.0452738 -0.086176224 -0.6517125
000050 85 ba f9 3d 1c 75 1e bf d9 5e fc bd 77 43 a3 3d
       0.12193779 -0.61897445 -0.12322778 0.07971852
000060 0b 0c 71 be ac 41 bc bd c8 a5 2d 3e 06 1f 36 bc
       -0.2353975 -0.091922134 0.16957772 -0.011115795
000070 ce 0b 49 3f a8 32 c7 3d 2e 99 39 3e df 93 d2 bd
       0.7853364 0.09726459 0.1812484 -0.102821104
000080 42 04 6d 3e e7 7a 8e 3d 91 25 03 be 2e 9f a6 3d
       0.23146155 0.069570355 -0.12807299 0.0813583
000090 4b f3 27 3e 13 8d ac be eb 46 c0 bd b0 87 04 bc
       0.16401403 -0.3370138 -0.093885265 -0.008088991
0000a0 91 d1 cc be cb 06 14 3f 7b 27 4b be bc ec c2 3d
       -0.40003636 0.57822865 -0.1983928 0.0951781
0000b0 14 46 15 be 7a 32 9f be ee 38 07 3e 25 cb fe bd
       -0.14577514 -0.31093198 0.1320531 -0.124410905
0000c0 9a b2 98 3d fc 10 04 be d4 09 9c bd ca d3 3d 3e
       0.074559405 -0.12897104 -0.07619062 0.18537822
0000d0 07 99 e7 3c 90 93 61 3e a5 b8 98 be a8 73 82 bf
       0.028271211 0.22028947 -0.29828373 -1.0191545
0000e0 2f 79 0b 3d 8b 18 e2 bd c4 b0 a7 bd 36 b6 6e 3d
       0.034051117 -0.110398374 -0.08188012 0.05827924
0000f0 2c c3 f7 3d af f0 d0 3c 9a e7 a4 3b 1c 2e 63 3e
       0.12097773 0.025505392 0.005032492 0.22185558
000100 2d fe bd be 21 52 2b 3f e9 7a 99 be 97 8e f1 bd
       -0.37107983 0.66922194 -0.29976586 -0.11794775
000110 23 db 17 3d 06 5c 9f be 79 ea 57 bc 48 37 5e bc
       0.03707422 -0.31124896 -0.013178461 -0.013562985
000120 93 d7 67 be 75 6a e2 3c d8 ac b9 3d 38 82 ca 3c
       -0.22640829 0.027638653 0.090661705 0.024720296
000130 4d 35 80 3e 8e 28 75 bc 8a 56 c1 3d 0b 11 94 bd
       0.25040665 -0.014963282 0.09440334 -0.07229813
000140 65 7c 9d 3d 08 93 b6 bd ae 14 0d be 78 e2 32 3c
       0.07689742 -0.08914763 -0.1377742 0.010918252
000150 8d ba ab bd 93 56 49 bf 99 9c d1 3c 69 4e 5a bd
       -0.08385191 -0.78647727 0.025587367 -0.053297434
000160 ba 2b b7 3b 34 58 94 3e 09 f4 12 be 21 d4 cb be
       0.0055899294 0.28973544 -0.14350905 -0.3981028
000170 31 b1 2c be 4b 7d 97 be e9 c6 f1 3d 7d b6 2e bd
       -0.16864468 -0.29587778 0.11805517 -0.042654503
000180 ca b9 52 3d 94 02 dd bd 30 0c fd bd bb 3e ff 3e
       0.051446714 -0.10791507 -0.1235584 0.49852547
000190 56 4c 0b be a5 a6 f9 3e 5c 4e 01 bf 49 d7 e7 bf
       -0.13603339 0.48759952 -0.5051019 -1.8112575
0001a0 d9 e3 56 bd cf 8f be be 77 e5 40 3d 58 33 09 be
       -0.052463386 -0.37219092 0.047093835 -0.13398492
0001b0 4d 60 83 3e d1 19 08 be f4 25 bb bd 61 da 9c bd
       0.2565941 -0.13291098 -0.09138098 -0.0765884
0001c0 b0 ce 23 bf 8b b0 ac 3f f0 1d 80 be a2 6e 24 bf
       -0.63987255 1.3491377 -0.2502284 -0.6423131
0001d0 03 82 46 3d c7 e9 40 bf d3 8f 42 bc 9a 22 d7 3d
       0.048463833 -0.75356716 -0.011875111 0.105046466
0001e0 f1 0a c6 be 37 89 4f 3d e8 5f 32 3e a0 1f ca bd
       -0.38680223 0.050667968 0.17419398 -0.09869313
0001f0 09 53 49 3f e2 fd 9a 3b 4f c9 71 3e 9a db 49 be
       0.78642327 0.004729972 0.2361195 -0.19712678
000200 60 64 80 3e a7 b6 11 be c5 e6 11 be 79 0c 77 bd
       0.2507658 -0.14229833 -0.14248188 -0.06031463
000210 7b 26 c0 3d ec 84 e5 be 3e 15 03 be b5 ce 49 bd
       0.093823396 -0.44827974 -0.12801072 -0.049269397
000220 d2 da d1 be 86 71 32 3f 3b 3d 57 be f1 4d 53 bd
       -0.4098726 0.69704473 -0.21019451 -0.051588003
000230 bd f2 94 be 0f b8 13 bf 46 23 4a 3d 50 9a 18 be
       -0.29091445 -0.57702726 0.049350046 -0.14902616
000240 8c 7f ae bd 74 68 60 bd 48 e8 b6 bc 87 db be be
       -0.085204214 -0.054787114 -0.022327557 -0.3727686
000250 0b 35 35 3e c9 28 b9 be 9b 48 9c 3e e8 40 86 3f
       0.17696016 -0.3616393 0.30524144 1.0488558
000260 6d 43 62 bd ee 36 97 3e 83 7d fd 3c a7 6e 25 3e
       -0.055240083 0.29534096 0.030943638 0.16155492
000270 07 79 52 be fb 9d 0d 3e 7a 96 cb 3d a5 f7 83 3e
       -0.20553981 0.13829796 0.099408105 0.25774875
000280 38 20 d3 3e 56 26 85 bf 1c b9 fd 3d 9f 3e 11 3f
       0.41235518 -1.0402324 0.123888224 0.5673618
000290 c3 07 88 bd b0 ab 1d 3f 31 5f 56 3d 00 94 94 bd
       -0.066421054 0.615901 0.052336875 -0.07254791
0002a0 3c 06 36 3e a7 74 89 bb 33 c7 46 be 37 77 0c 3e
       0.17775816 -0.0041948142 -0.19411926 0.13717352
0002b0 29 09 47 bf 29 af 07 bd 4c ba cc bd 57 c7 8e 3d
       -0.7774835 -0.03312603 -0.09996471 0.06971615
0002c0 29 f9 82 be 48 66 af 3d 18 cb 86 3d 0e e1 96 3c
       -0.2558072 0.085644305 0.06581706 0.018417861
0002d0 45 72 1b be 9c 46 01 be 51 27 41 3e 0f 75 0b be
       -0.15180309 -0.12624592 0.18862654 -0.13618873
0002e0 63 ee c4 3e 48 b4 11 bf 70 15 9f 3e c1 26 1a 3e
       0.38463125 -0.5691571 0.31071043 0.15053846
0002f0 61 7b 28 3e 29 cb cd 3e c3 85 bf bc 55 ff 22 3c
       0.16453315 0.4019406 -0.023379212 0.009948571
000300 33 81 3b 3e 7f 81 12 3e bf 60 ea 3d b6 49 55 3e
       0.18311004 0.14307211 0.11444234 0.208289
000310 92 5a af bd 59 5d 81 bd 33 f2 bf 3d 79 ea 63 3e
       -0.08562197 -0.06316633 0.09372368 0.22257413
000320 80 05 53 bc 15 0c 03 be 60 c3 8b bd 2a b5 72 be
       -0.012879729 -0.12797578 -0.06824374 -0.23701921
000330 07 28 4c 3d 7d 95 c2 bd 69 b9 1b 3e 91 a5 0d bf
       0.04984286 -0.09501169 0.15207447 -0.5533076
000340 3b 2e 00 3e 0d 7c b8 bd ce fe 81 3e 46 96 e8 be
       0.12517636 -0.09008036 0.25389713 -0.4542715
000350 fe d9 13 3d 12 c7 4f be ca 0d 20 3d d7 6d 6d 3d
       0.036096565 -0.20290783 0.03907565 0.05796608
000360 fa a8 de 3d 47 4b bc bd 4b c2 3f 3e 72 34 c2 3d
       0.108720735 -0.091940455 0.1872646 0.094826594
000370 42 47 06 3f 0d 19 42 bc 88 b8 8d 3d b4 2e e0 3d
       0.5245248 -0.011846793 0.06919962 0.10946408
000380 2f 8d be 3d 5e 14 18 3e 0d d9 9e bd f8 e7 ae bd
       0.093042724 0.1485152 -0.07756243 -0.08540338
000390 c4 2e 81 3e 55 ec 8b 3f b4 bd 18 be a3 d7 1a 3e
       0.25230992 1.0931498 -0.14916116 0.15121321
0003a0 2c 97 d5 be a2 4d 35 3d 82 0f 6c be 61 49 57 3e
       -0.41716897 0.04426349 -0.23052791 0.21024086
0003b0 f7 e0 cd 3d d3 ab 61 3e 74 09 bc bd 39 68 4b 3e
       0.10052674 0.22038202 -0.091814905 0.19863977
0003c0 4c 8f d6 3d 83 76 bd bd bd f4 a4 3c a1 06 ff 3e
       0.104765505 -0.0925112 0.020136232 0.49809745
0003d0 77 b3 5f be f7 f7 03 3f aa 84 01 bf 59 35 dc bf
       -0.21845804 0.5155024 -0.50593054 -1.720378
0003e0 43 6a a5 bd d2 62 c1 be d1 30 0e 3e 90 17 67 be
       -0.080769084 -0.37770706 0.1388581 -0.22567582
0003f0 25 bd 94 3e af e3 27 be 39 b5 08 be 3c a9 16 be
       0.29050556 -0.16395448 -0.13350381 -0.14712995

fc_smart.bias f4 [64]
000000 09 e3 bd 3d cc f1 c5 3c b9 78 97 3d eb 63 fb 3c
       0.09271819 0.02416315 0.07396073 0.030687293
000010 0b ab 52 bd 9b 74 96 3d 65 1c 49 3c c8 1f d2 3d
       -0.05143265 0.073464595 0.012274836 0.10259968
000020 79 44 14 3c 74 34 74 3c 32 c8 34 3c 12 b3 ce 3d
       0.009049528 0.014905084 0.011034058 0.10092749
000030 95 9b df 3c 11 7e 76 bd fe a2 51 3d c9 00 a5 3d
       0.027295867 -0.06017882 0.051180832 0.080567904
000040 64 8f 40 3d 0c 66 66 3d 3d 80 3e bd a0 a4 bb 3d
       0.047011748 0.056249663 -0.046509016 0.09162259
000050 af b8 65 3d c6 4c fb bd 19 66 f8 bc d7 58 03 3e
       0.05608433 -0.12270503 -0.030322121 0.12826858
000060 08 01 39 3d e1 8d bf bd ab 65 08 3c 62 23 0a 3d
       0.045167 -0.09353233 0.008325021 0.03372515
000070 cd 63 8f 3c ae 5c 8c bd 82 32 4b bd 24 5b 32 3b
       0.017503643 -0.06853615 -0.049608715 0.0027214969
000080 0d 46 93 bd 9e 15 5a ba 66 ab ad bd fc 3c c0 3d
       -0.071910955 -0.0008319261 -0.08479957 0.09386632
000090 76 73 87 bd cc 0a 2c bd 27 85 d9 3c 69 7d b1 bd
       -0.06613819 -0.042002484 0.02655275 -0.08666498
0000a0 26 09 43 3d b7 50 74 bd 5b a1 35 3d ab 16 c3 bd
       0.047616147 -0.05964729 0.044343334 -0.09525808
0000b0 8f 8e 1a bc 3e a5 aa 3d 33 e5 1d be cc 5b bf bd
       -0.009433403 0.08332299 -0.15419464 -0.09343681
0000c0 b5 0a c6 bc 8f 0c 2e 3d 4f 83 c9 bd 24 23 e7 bc
       -0.024175027 0.042492446 -0.09839498 -0.028214999
0000d0 15 c4 37 bd 40 e7 82 3d 44 db ba 3d bb 24 8c bc
       -0.044864733 0.06391764 0.09123853 -0.017107358
0000e0 7f d5 38 bc 62 25 c3 3d ea be 9e 3d f4 ca b9 bd
       -0.01128137 0.095286146 0.07751258 -0.09071913
0000f0 60 9d 14 be 40 b5 eb bd 07 d1 01 3e d2 98 8f 3d
       -0.14513159 -0.1150918 0.12677394 0.0701157

network_aging.lstm.weight_ih_l0 f4 [128, 5]
000000 a4 e8 52 3e 3e ae 71 3e bd 26 0d 3e 85 da c0 3d
       0.20596558 0.23601624 0.13784309 0.09416679
000010 35 63 12 be a2 70 5c bd bc 5e 02 be 89 50 62 3e
       -0.14295657 -0.053818353 -0.12731451 0.22101034
000020 b4 69 a1 3d 3a e7 81 bd 9a 08 d3 bd a1 91 ce 3d
       0.078814894 -0.06342931 -0.10304375 0.1008637
000030 c4 01 a8 bd a0 de af 3d 0f 42 cc 3d bf af 5a 3e
       -0.08203462 0.08587384 0.09973537 0.21356104
000040 2c c0 70 3d a7 a2 30 bc da e5 41 3e 35 41 c4 3d
       0.05877702 -0.010780967 0.18935338 0.0958275
000050 90 38 cf 3c f0 2b 3e 3e 16 7a 06 3e 4c 72 11 bd
       0.025295526 0.18571448 0.1313251 -0.035509393
000060 6c 9e 9b 3d 9a 8e 3f 3e 5b f5 32 3d 87 db 06 3e
       0.07598576 0.18706742 0.04369102 0.1316968
000070 f3 90 3b 3e e1 8f 1c bd d0 b1 05 bc 1d 47 ea bb
       0.18317012 -0.03822315 -0.00816007 -0.0071495906
000080 17 6b 77 3d ff 09 56 3e 6d 89 47 3e 28 31 00 3e
       0.060404863 0.2090225 0.19486018 0.12518752
000090 91 f7 50 bd 55 b0 f3 3c a9 70 e7 bd c1 cd 18 3e
       -0.051017348 0.029747168 -0.11300785 0.14922239
0000a0 eb 70 c7 3d 8d 37 d5 bd 3e 82 95 3d f4 be b9 bd
       0.09738334 -0.10410986 0.07300232 -0.090696245
0000b0 1c af 94 bd 15 6c 64 3e 52 f8 b5 3a 92 cd f8 bd
       -0.07259962 0.22306855 0.0013883209 -0.121485844
0000c0 dd 0c 1d 3d 1c cc 68 3d 0f b9 c4 3d c6 da d5 3d
       0.038342346 0.05683528 0.096056096 0.10442118
0000d0 05 ba 89 bc d6 19 a6 bc cd 8e 36 bc a1 24 8b bd
       -0.016812334 -0.020275991 -0.011142445 -0.06794096
0000e0 c5 55 33 3e 61 f0 60 bd f6 33 19 3d 49 08 14 3e
       0.17513187 -0.054916743 0.03740307 0.14456286
0000f0 b1 c1 cd 3b 5e ad 01 be ff ef f1 bc a7 3c 6b bd
       0.0062791933 -0.1266379 -0.029533384 -0.05743089
000100 15 dc a6 bd d4 19 c9 3c ce 41 4d bd d7 82 55 3e
       -0.08147446 0.024548449 -0.050111584 0.20850693
000110 b5 d0 4e bd 35 5d dc 3c 9d 77 a0 3d cd 61 4e 3e
       -0.050492007 0.026899913 0.078353144 0.20154496
000120 4f 0d 85 bd fd 7e 9b b9 d7 17 23 be 92 82 c3 bd
       -0.06496679 -0.00029658517 -0.15927063 -0.09546389
000130 0d c6 c9 bd 88 03 7a bc 55 5b 99 3d 8f ab d3 3d
       -0.09852228 -0.015259631 0.07488123 0.103354566
000140 da 47 bf 3c 6f a4 96 bd ff 8d 60 3e 7c 16 89 3d
       0.023349691 -0.07355582 0.21929167 0.06693742
000150 41 87 1c be d8 e0 e7 3d 51 a5 47 3e 4a 18 27 3e
       -0.1528597 0.113221824 0.19496657 0.1631786
000160 42 1a c3 3d b4 cb 0c 3e 62 be a5 bd 55 e4 26 bc
       0.09526493 0.13749582 -0.08092953 -0.010186275
000170 26 82 9e 3d f7 c3 54 3c 9c 41 b7 bd ad b6 c2 3d
       0.077396676 0.012986175 -0.08948061 0.09507499
000180 23 a6 d9 bc 30 90 94 3d 24 04 ab 3c 0f 99 db bd
       -0.026568478 0.07254064 0.020875998 -0.10722553
000190 2e f1 b1 3c 3a 65 33 bd 95 18 04 bd f0 4a bd 3d
       0.021721449 -0.04379771 -0.032250006 0.09242809
0001a0 ef de b7 bb 58 89 3d 3d d6 9d d2 3d 09 f7 b0 3d
       -0.0056112926 0.04627356 0.10284011 0.08640868
0001b0 5f e2 cb 3b cf 15 aa bd a3 b2 85 3d 77 55 e4 3d
       0.006222054 -0.08304941 0.06528213 0.111491136
0001c0 d2 62 05 3e de 80 10 3e 3c 44 0e 3e a1 9f fb 3d
       0.13025978 0.14111659 0.13893217 0.12286306
0001d0 c6 34 30 3e a9 f4 a8 bd 86 bf 9a bd a5 ce 85 bb
       0.17207631 -0.0824979 -0.075560614 -0.004083472
0001e0 01 89 0c 3d 92 3a 20 3e cc 54 87 bd 80 11 91 3d
       0.034310345 0.15647343 -0.066079706 0.07083416
0001f0 fc 09 05 3e 0a 84 23 3e 8e 98 3e 3d 89 97 a8 bc
       0.1299209 0.15968338 0.046532206 -0.02058007
000200 29 97 ee bd c8 e6 99 3d 0f e2 28 3c b4 bd 4d 3e
       -0.11649925 0.07514721 0.010307803 0.20091897
000210 86 7a 3c bd bd 83 11 3e 6f 63 bc 3d 1c da a6 3b
       -0.046015285 0.1421041 0.09198653 0.0050919186
000220 f7 99 59 3e 4a 53 43 3e 94 c1 ce 3d 46 50 1c 3e
       0.21250139 0.19074741 0.10095516 0.15264997
000230 7b df e0 bd 88 f9 4d bd 4d 95 0a be de a1 89 bd
       -0.109801255 -0.0502868 -0.13533516 -0.06720327
000240 41 d8 1b 3e 39 43 99 3d fe 1e 53 3d f4 16 45 3e
       0.15219213 0.07483525 0.05154323 0.19247037
000250 9b 14 45 3e 4c f8 97 bd f1 4e 96 bd 0d a5 dd 3d
       0.19246142 -0.07420406 -0.07339276 0.108224966
000260 04 f4 32 3d 49 76 c1 bd 37 05 2c 3e 16 4a 77 bb
       0.043689743 -0.09446389 0.16798864 -0.0037733368
000270 4f e9 cb 3d 61 1a 02 3e d1 d2 ff 3c 5b 90 ba bd
       0.099566095 0.12705375 0.031228455 -0.09109565
000280 0f 15 64 3c 68 24 ef 3d 00 f0 60 3e c6 6e 5d 3e
       0.013921036 0.11676866 0.21966553 0.21624288
000290 e8 98 a8 3d 65 65 d2 3a 23 da 0a bc 75 21 b9 bc
       0.082322896 0.0016051946 -0.008474859 -0.022598961
0002a0 aa 07 f6 3d 7d 61 ba 3d c6 8a 2d 3e af 79 b4 bd
       0.120131806 0.09100626 0.16947469 -0.08812272
0002b0 1c dc 13 3e fd 62 0f be e9 41 06 be ec 2f d0 3d
       0.14439434 -0.14002605 -0.1311108 0.1016539
0002c0 f5 36 98 3d 5f b5 d4 3d a5 fa cb 3d 54 65 ab 3d
       0.07432357 0.10386156 0.09959916 0.08368936
0002d0 e4 c3 0b bd 5a ee 48 bc a9 df 9c 3d b9 c0 20 bd
       -0.034122363 -0.012263859 0.07659847 -0.039246295
0002e0 94 73 21 3e 03 2b 11 3e 35 f7 51 3d 7d a1 e9 bd
       0.15766746 0.14176564 0.051261146 -0.114077546
0002f0 f7 02 20 3e a6 e7 0f 3e 2a a0 05 3e f9 64 78 3d
       0.15626131 0.1405321 0.13049379 0.06064317
000300 43 e5 0f bd 7c 29 9d bd d4 6a fe bd e4 93 6c 3e
       -0.03513075 -0.07673928 -0.124227196 0.23103291
000310 a5 f7 7d 3d 72 ae e2 bd 25 e0 0f bd 65 68 99 3d
       0.06200375 -0.11068429 -0.03512587 0.07490615
000320 52 69 95 3d 9c 5a 40 3b 33 91 b2 bd 68 3b 1a 3e
       0.07295479 0.0029350882 -0.08719101 0.15061724
000330 d5 67 16 3e 50 ba 34 3e 3c 7e 45 3e ef 6a a8 3c
       0.14688046 0.17649198 0.19286436 0.020558802
000340 3e 6e d7 bc 90 f5 e3 3d 7e 39 4b 3e 84 7d 09 3b
       -0.026297685 0.11130822 0.1984615 0.0020979354
000350 0f 15 b4 3d ca 5d a3 3c 0e 7a f9 bd c8 72 d7 bd
       0.08793079 0.019942183 -0.12181483 -0.1051994
000360 6d 4b df bd 78 d5 59 3e d9 b9 10 bd 5f ea 45 3e
       -0.10903058 0.21272838 -0.035333488 0.19327687
000370 f9 64 de 3d 5a 2b 4e 3d 2b e8 e3 3d 18 5f 2a 3e
       0.10859103 0.050334312 0.11128267 0.16637838
000380 71 5b ab 3c b5 1d 8b bd 90 3d 81 bd cc 23 d2 3d
       0.020917626 -0.067927755 -0.0631057 0.10260734
000390 92 84 1e 3e 80 9a fe bd 49 db 21 3e d5 c1 b0 bd
       0.15480259 -0.12431812 0.15806307 -0.086307205
0003a0 e7 52 d0 bd 43 b8 8c 3c c0 67 0b be 08 e0 be 3d
       -0.10172062 0.017177707 -0.13613796 0.09320074
0003b0 85 55 4f 3e 63 5c 10 3e 1a e7 09 3e 39 51 0c be
       0.20247467 0.14097743 0.13467064 -0.13702859
0003c0 0f e0 31 bd 99 5f fb 3d 31 d6 52 3d 05 b3 38 3e
       -0.04342657 0.12274093 0.0514738 0.1803704
0003d0 e3 2b 7f bc 52 89 03 3e 08 9c 54 3e e4 83 09 3e
       -0.015574428 0.12845352 0.20762646 0.13429219
0003e0 37 f3 bf 3c 78 73 0b 3e b7 38 c9 3d 2d 5b 17 bc
       0.023431404 0.13618267 0.098252706 -0.009238047
0003f0 ea f5 c8 bd fd e4 a5 3c 12 0b 89 bc 4d e9 17 3e
       -0.098125294 0.020250792 -0.016728912 0.14835091
