trained_model/mc1_mc2/90_days_lookahead/pnet_checkpoint/pnet_1700.pth (torch, 545278 bytes, 36 tensors)

network_smart.layer1.0.weight f4 [128, 330]
000000 fa 08 a1 3c c9 bf dd bd dc ca 14 be a1 5d b0 bc
       0.0196576 -0.10827596 -0.1453051 -0.02152902
000010 4d 6d 47 3c 1f 9d b8 3e 08 9c 0a bc 53 5c 16 be
       0.012172055 0.36057374 -0.008460052 -0.14683656
000020 85 0c 32 bd 74 f8 0b 3c 6c 4e af 3b e5 65 25 3d
       -0.04346897 0.008543123 0.005349925 0.040380377
000030 42 ea ee bd 63 81 44 be c0 5a 65 3d cc a5 32 bc
       -0.11665775 -0.19189982 0.05599475 -0.010903787
000040 6c 3f cd 3e 54 48 97 bd 35 2d 01 be 6c 60 3b bd
       0.4008745 -0.07386842 -0.12614901 -0.045746252
000050 37 01 0f 3d 6d b4 c7 3b f1 9a 6e 3d be 8f e6 bd
       0.034913268 0.0060945065 0.058253232 -0.112578854
000060 3c 7e 25 be 25 95 16 3d ca 9a 2d bd ef 3e b1 3e
       -0.16161436 0.03676333 -0.042383946 0.34618327
000070 35 41 85 bd bb 80 1b be 12 a0 25 3d cf fc 74 3c
       -0.06506578 -0.15185826 0.040435858 0.014952852
000080 e4 d0 34 bb a2 e1 da 3c 2d a7 5e bd fe f8 14 be
       -0.0027590329 0.026718918 -0.05435865 -0.14548108
000090 25 71 8e 3b e6 39 0e 3d 3f 65 d8 3e bb 18 c0 3c
       0.004346984 0.034723185 0.42264745 0.023449292
0000a0 2e a6 2a be 66 f5 7c bc d9 46 33 3d 50 a0 c0 3c
       -0.16664955 -0.015439367 0.043768737 0.023513943
0000b0 47 0c 1b 3c 0a aa 15 bd 5c 3c 0e be 73 82 8d 3d
       0.009463376 -0.036539115 -0.13890213 0.06909647
0000c0 4c ee bb bc 78 95 d0 3e 97 c0 89 bd b4 81 22 be
       -0.022940777 0.40739036 -0.06726187 -0.1586979
0000d0 43 23 8b bc 2a c2 43 3d 6c 12 19 3d 83 2c 27 bd
       -0.016984588 0.04779259 0.037371084 -0.040813934
0000e0 65 80 a3 bd 99 1b ee bd e5 94 9a 3b 5a 2b 3a 3d
       -0.07983474 -0.116263576 0.0047174566 0.0454515
0000f0 60 a2 a5 3e bc 3c 5f bd f3 5a b7 bd 02 69 61 3d
       0.32350445 -0.05450128 -0.08952894 0.055031784
000100 b7 a0 9f 3c 38 7b 2b bd e9 f9 0d bd 0c e5 a0 bd
       0.019485814 -0.041865557 -0.03466216 -0.07856187
000110 e1 0f 30 be ac 4e 35 3d 61 26 8c bc 92 30 af 3e
       -0.17193557 0.04426448 -0.017108144 0.34216744
000120 4f 52 99 bc ff f8 92 bd 65 6c 3e bd c2 c0 37 bd
       -0.018716006 -0.071763985 -0.04649009 -0.044861563
000130 d5 64 2a bd a2 94 a8 3c f2 03 bf bd c4 b4 5c be
       -0.041600067 0.020578686 -0.093269244 -0.21553332
000140 50 7a ba 3c d4 c6 8c 3c 7c fd cb 3e 3f 37 87 bb
       0.022763401 0.017184652 0.3984183 -0.004126459
000150 c2 6b 06 be 93 aa 44 bd 63 0c b9 bb a1 7c 07 bd
       -0.13127044 -0.048014235 -0.0056472286 -0.03307784
000160 2e ce 11 3d c5 4c 68 bd 10 48 59 be 4e d8 41 3c
       0.03559702 -0.056713838 -0.21218896 0.011831356
000170 45 78 31 3d f4 03 9d 3e 6c c4 00 bc 71 0f 8b bd
       0.04332759 0.30667078 -0.007859331 -0.067900546
000180 bf 27 4f 3c 86 8d e9 3c a6 01 9d ba 7e 35 41 bd
       0.012643754 0.028509866 -0.0011978641 -0.047170155
000190 a0 ef 93 bd 6f ef 38 be a8 ee 4b 3c 63 c5 34 3c
       -0.07223439 -0.18060087 0.012447037 0.011033389
0001a0 d9 8e cd 3e 54 7f 59 bd a1 37 1e be 9f 34 86 3b
       0.40148047 -0.053099945 -0.15450908 0.0040956284
0001b0 0a fd f1 bc d2 96 2c 3d 4e 4d 37 bd 03 c0 79 bd
       -0.029539604 0.04213602 -0.044751458 -0.060974132
0001c0 4b 6a 5d be 8e 0e 61 3d 7d ea c9 3b 8d 4c bc 3e
       -0.21622579 0.05494552 0.0061619864 0.36777154
0001d0 3c 37 3c bd 89 4c 13 be 05 ae 87 bc 5f 55 d3 bc
       -0.045951113 -0.14384665 -0.016562471 -0.025797544
0001e0 06 b8 d4 bc da 35 0c bd d8 29 b2 bc 6a a7 33 be
       -0.025966655 -0.034231044 -0.021748468 -0.17544332
0001f0 c5 4b 54 3d 71 94 ac b9 4c 82 b2 3e 3f 50 98 bd
       0.051830072 -0.00032916994 0.34865034 -0.07437181
000200 3e 89 1c be 36 c5 1a bd f2 2f 66 bd cf c6 05 3d
       -0.15286729 -0.03778573 -0.056198068 0.0326603
000210 e5 aa 40 bd ec 9e 61 bd 3e 49 54 be a3 b7 31 3d
       -0.047037978 -0.0550832 -0.20731065 0.04338802
000220 c0 b7 7f 3c 66 a3 c7 3e 7e 05 85 3b 5c f6 0b be
       0.015607774 0.3899185 0.0040594926 -0.13668197
000230 e4 63 3c 3d 0b 48 96 3c eb a5 30 3d f8 fe 64 bc
       0.0459937 0.0183449 0.04312698 -0.013976805
000240 09 ec b9 bd 09 c0 00 be 0c d2 95 3d 97 3f e4 3c
       -0.09078223 -0.12573256 0.07315454 0.027862353
000250 12 4d c1 3e e4 b7 30 bc 24 68 a0 bd 25 65 7d 3c
       0.37754112 -0.01078603 -0.07832363 0.015466009
000260 c3 6c 5b bd 34 19 56 bd f6 4d 17 bc d5 c9 4a bd
       -0.05357052 -0.05227013 -0.009234896 -0.04950889
000270 df ad 52 be 6d 35 e9 3c 50 94 12 3b 50 65 a0 3e
       -0.20574139 0.028467858 0.0022366233 0.31327295
000280 15 5e b0 bb e7 8f 9d bd 4c 18 a7 bb 68 08 2e 3c
       -0.005382309 -0.07693463 -0.005099332 0.010622121
000290 b5 2e c7 3c bf 35 32 bd a5 2c b7 bd 1c 33 62 be
       0.024314264 -0.043508288 -0.08944062 -0.22089809
0002a0 09 d1 a3 3d 07 d2 d4 bc 62 bb bb 3e c5 5b 8f 3c
       0.07998855 -0.025979055 0.366664 0.017499814
0002b0 3a 9f 09 be 45 e2 5a 3c ca a7 2f bd c7 39 cd bc
       -0.13439646 0.013359611 -0.042884625 -0.025051964
0002c0 bc 57 1c bc 47 28 30 3c 24 ba 5a be d3 a9 84 3d
       -0.009542402 0.01075179 -0.2136007 0.06477704
0002d0 3b 6d 4b bd e6 f5 94 3e 7f f6 90 3b 8a 89 24 be
       -0.049664717 0.29093856 0.004423916 -0.16068092
0002e0 da 45 97 bb 72 df 7d bd 7e 65 9c bc b8 d0 86 3c
       -0.0046164813 -0.061980672 -0.019091364 0.016456947
0002f0 3d df 73 bb d9 d3 44 be 87 4a 9f 3d 48 6c 37 bd
       -0.0037211918 -0.19221438 0.07777887 -0.044781
000300 07 e2 91 3e 73 7d fa bc 07 08 fa bd 85 8f 20 bc
       0.28492758 -0.030577397 -0.12208562 -0.009799843
000310 18 e5 d6 bc 0d 0c bb 3c 49 7a 19 bd 3f 37 99 3b
       -0.026232287 0.022832895 -0.037470136 0.0046757753
000320 d7 8f 0d be 6f e0 2d bb 3e 55 fa 3c 1c 53 91 3e
       -0.13824402 -0.0026531478 0.030558225 0.2838372
000330 8e e1 55 bc 14 4d 3b be 50 0e f5 3c 05 31 fc bb
       -0.013054265 -0.18291122 0.029914051 -0.0076962733
000340 cd d0 d5 bc f5 99 01 3c 05 08 92 bd ad 6c 24 be
       -0.02610054 0.007910241 -0.07130436 -0.16057082
000350 53 29 d4 3b 9d 4a c0 3c b1 46 a0 3e 6b 51 a8 3b
       0.006474653 0.023473078 0.31303933 0.005136659
000360 5c cc b3 bd 97 2a e6 3c dd 6c 35 bd 79 da db bb
       -0.08779213 0.02809648 -0.044293273 -0.0067093936
000370 23 e0 6c 3c 24 e5 25 bd 90 62 6a be e8 2a 73 3d
       0.014457735 -0.04050173 -0.22889161 0.05936709
000380 e3 c3 18 bd 87 0a 94 3e c6 79 4c bc a4 97 de bd
       -0.037296187 0.28914282 -0.012480205 -0.10868767
000390 45 ba 08 3d ea 0f e8 3c e5 23 60 bd a6 6c 10 bd
       0.033380765 0.0283279 -0.05472173 -0.035259865
0003a0 cd 78 75 bc 8d 7b 1e be 50 93 0b 3d 73 52 bf bc
       -0.014982414 -0.15476818 0.034076035 -0.023354745
0003b0 25 5c 88 3e ba 6a 8c bc e2 15 25 be c5 66 ba bc
       0.266328 -0.017140735 -0.16121629 -0.022754082
0003c0 95 2f 74 bc 46 0c 01 3d a1 a6 4e 3d 37 7a 80 bc
       -0.014903923 0.031505845 0.05045188 -0.015683277
0003d0 55 67 19 be a5 1f a1 3d 11 6c c7 3c 5b 61 94 3e
       -0.14980824 0.07867364 0.024343522 0.28980526
0003e0 25 4a 0f bb 38 08 cf bd 00 73 62 bc 7b 4b 05 bd
       -0.0021864262 -0.101089895 -0.013821363 -0.032542687
0003f0 8c 12 55 3c c3 f4 39 3d 90 ef 4b bc 35 f0 65 be
       0.01300491 0.04539944 -0.012447253 -0.22454913

network_smart.layer1.0.bias f4 [128]
000000 51 6b 61 be e7 a7 37 3d ec 11 f3 3d d0 3f 98 3b
       -0.22013594 0.04483786 0.11868653 0.004646279
000010 87 3b 1c 3e fa 60 0a be 94 b3 11 be b6 6a 2f bd
       0.15257083 -0.13513556 -0.1422866 -0.042826377
000020 ce 3d 37 3d cd 79 4d be 74 b6 29 be 94 b7 06 bb
       0.044736676 -0.20065995 -0.16573507 -0.0020556198
000030 26 29 d7 3d e2 59 ae 3d 1e 04 e2 3c 01 9f ca 3d
       0.10505895 0.085132375 0.027589854 0.09893609
000040 6f 43 16 be ae ad 82 3d 1c 26 d4 bc 7c 36 c9 bc
       -0.14674161 0.06380783 -0.025897078 -0.024562113
000050 fc c7 8f bb a9 fa 44 3d 25 ed f5 bc 65 39 99 3d
       -0.0043878537 0.04809061 -0.030020306 0.0748165
000060 be 09 47 bc 55 08 92 bc 33 30 97 bd 79 be da bc
       -0.012148319 -0.017826239 -0.0738224 -0.026702153
000070 7e ac 45 3d 69 73 28 bd b3 4f be 3d f3 93 bd be
       0.048260204 -0.04112569 0.09292545 -0.3702694
000080 52 67 a4 be 18 82 2f be e2 e4 98 3c cb 56 c7 bb
       -0.32110077 -0.1713947 0.018663827 -0.0060833446
000090 5a 3f 2d bd 38 68 9a 3c 3b 5a 2b bd d2 b5 4b b9
       -0.042296745 0.018848523 -0.041834097 -0.00019427322
0000a0 80 1b 2e 3d c0 9c d9 39 74 52 78 3d a4 3a 18 3e
       0.042506695 0.00041506253 0.06062551 0.1486612
0000b0 83 f6 b6 3d d5 2d 44 3e 3a f3 ce 3d 8e 29 2b 3e
       0.08933737 0.19158109 0.101049855 0.1671507
0000c0 6d d1 8c 3d ce 65 c5 3c 3b eb 65 bd 43 16 29 3e
       0.06875882 0.024096396 -0.056132536 0.16512398
0000d0 80 85 3d 3b d8 88 35 3b 83 fc 27 3d 33 3a ed bc
       0.0028918684 0.0027699973 0.0410123 -0.028958416
0000e0 c6 ba 12 bd 43 10 c3 3d 5c 44 23 3e 7d c3 5a 3e
       -0.035822652 0.09524586 0.15944046 0.21363635
0000f0 0b b9 47 3d b5 d9 6a 3d 2c e2 37 be e7 6b cc 3d
       0.048760455 0.057336528 -0.17957371 0.09981518
000100 ec 56 ba bc 74 ef 70 bb 0f db 43 3d ab e0 16 3e
       -0.022746526 -0.003676382 0.047816332 0.14734142
000110 63 fc 83 3d 5d 88 76 3d bd 8c ad 3c 12 39 0d bb
       0.06444623 0.06018864 0.021185273 -0.002154891
000120 de c0 bf 3b 84 69 65 3d ba 2f 3f 3b cb 3e 91 bc
       0.005851849 0.05600883 0.0029172734 -0.017730137
000130 15 f2 ce 3d ad e3 60 3c 43 87 66 bc 60 90 4b be
       0.10104767 0.013726157 -0.014070335 -0.19879293
000140 30 24 55 3e c5 16 61 3d 61 ce ca 3c 05 fe 69 3e
       0.20814586 0.054953355 0.024756612 0.22850807
000150 ec 17 79 be 44 21 4f be 5a f0 f8 3d da 24 3b 3e
       -0.24325532 -0.20227534 0.121552184 0.18275777
000160 14 ec ed bd 2b 1f f2 bd a0 0a ec 3d fb c6 40 3e
       -0.11617294 -0.11822351 0.11525464 0.18825905
000170 6b 50 33 3e 7e 08 62 3d 96 c6 54 bd 99 ae 97 39
       0.17511146 0.05518388 -0.0519472 0.0002893105
000180 14 5f 1f 3d 37 2b 82 bc e3 02 0b 3e 96 a7 a8 bb
       0.038909033 -0.015889747 0.1357532 -0.005146931
000190 1e c9 1b 3c 73 e3 70 3e 31 b1 4a 3e 3e 53 e1 3b
       0.009508399 0.23524265 0.19794156 0.0068763783
0001a0 e6 a0 86 3d 35 75 df bd ea 8d 02 be 33 20 c4 3d
       0.06573658 -0.10911027 -0.12749448 0.09576454
0001b0 a9 2c 06 bc 93 ee 56 bc bb 1e 3e be 09 0c 74 3d
       -0.008189359 -0.013118404 -0.1856641 0.05958179
0001c0 69 c9 4e be d8 9b 10 3d fd 63 34 3c de f1 3a 3c
       -0.2019402 0.035304874 0.011010167 0.011410205
0001d0 6a ac 2e bd 21 86 34 bd ea 63 46 3e 90 27 72 be
       -0.042644896 -0.044073228 0.19374052 -0.23647904
0001e0 e3 0a 49 3e 5e e2 61 bd 02 42 ed 3d dd 21 23 3d
       0.19633059 -0.05514752 0.115848556 0.039827216
0001f0 e5 8b 00 bd cb b5 d5 3d 4d 7a 9c 3c 3d 3f 66 bd
       -0.031383414 0.10435065 0.019101286 -0.056212652

network_smart.layer2.0.weight f4 [128, 128]
000000 cb 82 07 be bd 8d 80 3d c5 4f 0f 3e 39 6c 0b 3d
       -0.13233487 0.062770344 0.13995273 0.034038756
000010 f5 5a 0a bd 60 84 0e 3e 4a 88 87 bd e8 c4 5c bc
       -0.03377815 0.13917685 -0.06617792 -0.0134746805
000020 04 87 e8 bd 02 48 24 3d 6d 60 87 bc fd 47 b6 3d
       -0.11353877 0.040107735 -0.016525472 0.089004494
000030 ab a2 29 3d f2 3f e4 be 12 6c c9 bb 43 7e ff 3d
       0.041414898 -0.44580036 -0.006146916 0.124752544
000040 5a 10 b8 3e e4 e9 e0 bd d5 56 02 3d 93 81 bc 3c
       0.35949975 -0.10982111 0.03182109 0.023011005
000050 3b 94 c9 3c 2b aa e9 be e6 a8 8d bd 0e 80 c0 be
       0.024606815 -0.4563764 -0.069169804 -0.37597698
000060 a7 81 8f 3d 81 da 0e be 24 8a 5d 3e e0 b3 b6 bd
       0.07007151 -0.1395054 0.21634728 -0.08921027
000070 40 71 0e be 71 54 5a bd 83 ac 01 bd 7f a6 fc be
       -0.13910389 -0.053303186 -0.03165866 -0.49345776
000080 b0 bd ef bd 19 82 b3 3d de 1c 0e 3e 3d 5b 3a bd
       -0.11706102 0.087650485 0.138782 -0.045497168
000090 fc b3 28 3c b3 c1 74 bd 47 66 9b 3e ec d2 e3 3c
       0.010296818 -0.05975504 0.3035147 0.027810536
0000a0 f5 07 35 bd 5e f1 d9 bb 77 d8 ab bb 9c 32 b0 3b
       -0.04419704 -0.0066510877 -0.0052443105 0.005377127
0000b0 ed 9b 0f be 2f 97 4d bd c4 64 87 3c 6f f5 80 3e
       -0.14024325 -0.050193008 0.016527541 0.2518725
0000c0 c6 ba bd 3c fd 82 3d be fc 34 6c bd 07 fb 0f be
       0.02316035 -0.18507 -0.057667717 -0.14060603
0000d0 ee 9d 9c 3d e0 5c 29 3e 95 03 b5 bd c2 91 65 bd
       0.0764731 0.16539335 -0.08838574 -0.05604721
0000e0 0d fe 8a bb 39 72 c3 bd b5 9e 0b 3e 48 ee 67 bd
       -0.004241711 -0.095432706 0.1363476 -0.056623727
0000f0 bc bd 84 3e 46 b3 d7 bc a5 fe b9 3d 7f 51 4f 3e
       0.25926006 -0.026330601 0.09081773 0.20245932
000100 5c 56 0e bc eb af 23 3e 0b 84 13 bd 2b aa 05 3e
       -0.008687582 0.15985076 -0.036014598 0.13053195
000110 60 f6 d4 3f 19 14 8e bc 73 e2 ed bc 85 3f 2f bf
       1.6637688 -0.017343568 -0.029038643 -0.684563
000120 0b db 48 be 54 b7 00 be c1 08 a5 be a8 a1 9a bd
       -0.19614808 -0.12569934 -0.3223324 -0.07550365
000130 9b 1c c9 3d a7 67 ab bc 23 c3 1a bd bd 09 eb be
       0.09819909 -0.020923449 -0.037783753 -0.45905867
000140 ee f6 98 bd a1 21 c1 3b b7 a5 fa 3d 05 da 88 be
       -0.07468973 0.0058939015 0.12238639 -0.26728836
000150 ff 11 87 be 36 95 07 3e 0c 9e 46 3d bf 18 e7 3d
       -0.26380917 0.13240513 0.04849057 0.11284017
000160 d1 7f 7e 3d e2 14 40 bd 8d e1 70 bd dc 9c c6 3d
       0.062133614 -0.046894915 -0.058808852 0.09697887
000170 25 2e 83 3e 16 f6 18 be b3 ba 35 3d 18 04 9d ba
       0.25621143 -0.14937624 0.044367503 -0.001197937
000180 34 1c 72 3e 69 b9 ae 3d f3 bb 8e bd 35 2b 4f be
       0.23643571 0.08531458 -0.06969442 -0.20231326
000190 e9 b6 07 be 5f be 95 3d a2 84 07 3b 62 95 f9 3e
       -0.13253368 0.07311701 0.002067842 0.48746783
0001a0 02 df b2 bc 0a 50 9b bd 12 97 b6 3d 52 cf ef bb
       -0.021834854 -0.075836256 0.08915533 -0.0073184157
0001b0 cf a8 b5 be d0 b3 c7 3d 49 47 3d 3c 4d db 1b be
       -0.35480353 0.097510934 0.01155264 -0.15220375
0001c0 63 8d 83 bc fa 17 94 bd 6c d4 d6 3e 4c 23 a6 3e
       -0.01605863 -0.07231136 0.4195894 0.32448804
0001d0 0f c3 ac bd 47 80 3c 3c a4 72 27 be bb e4 f5 be
       -0.08435642 0.011505193 -0.16352326 -0.4802607
0001e0 cc 61 56 3d 54 c8 d3 bc b8 bb 27 3d b0 0f 50 be
       0.05233936 -0.02585236 0.040950507 -0.20318484
0001f0 7e 0f fa bb 52 1a eb be e8 12 12 bc c6 62 af bd
       -0.0076312413 -0.45918518 -0.00891564 -0.085637614
000200 9f 14 a5 bd df 0c 13 bc 15 01 77 be 7f 66 61 bd
       -0.08060574 -0.008975237 -0.24121507 -0.05502939
000210 0e de b0 bd d6 a2 05 bc f8 f1 b7 3e 94 76 08 bc
       -0.086361036 -0.008156499 0.35926795 -0.0083290525
000220 be 2f 05 bd 64 c3 11 bf bf e8 f7 3d c8 b1 cc 3d
       -0.032516234 -0.5693877 0.1210494 0.099948466
000230 e2 77 06 3e 13 58 90 be c6 6a 1d 3e ca 8c d8 bb
       0.13131669 -0.28192195 0.15372762 -0.0066085802
000240 1a c5 9d 3d 1c 75 83 3d 7f 0f 57 bc 7f 0b a4 3c
       0.0770361 0.06418821 -0.013126253 0.020025013
000250 1f 43 ac 3d 50 07 2c 3e 90 f1 af 3b 08 2a 85 3d
       0.0841124 0.16799664 0.0053693727 0.065021574
000260 aa ad d1 bc 57 59 cc bc 6e 5c 7b be a1 1d 8a 3d
       -0.025595505 -0.024944944 -0.24546978 0.067439325
000270 67 94 7c be 5c 5a 64 3d 3f d3 b8 3d 8c dc a1 be
       -0.24665986 0.055750236 0.09024667 -0.31613576
000280 96 a4 8f bb 46 11 5d 3e 93 86 96 3c 55 2d a3 bd
       -0.004383634 0.2158862 0.018374717 -0.07967631
000290 95 6d 20 bd 70 44 c2 3c bf 69 4e bf 54 00 52 bd
       -0.039167006 0.023714274 -0.80630106 -0.051269844
0002a0 35 c1 9f 3d d0 c4 75 bd fe 06 0f 3e bf 4d 60 3d
       0.07800523 -0.06000215 0.13967511 0.054761644
0002b0 28 cc 32 be 64 d1 29 3d d0 f4 46 3e 50 be de 3d
       -0.17460692 0.041459456 0.19429326 0.10876143
0002c0 ab 7c 73 3d 86 7e 72 be aa d7 d2 3c e4 ca 1a bd
       0.059445065 -0.23681077 0.025737602 -0.037791148
0002d0 2f 0a 05 3e 8d b2 a3 3d 6f b7 9e bd d8 f0 a7 3d
       0.12992166 0.0799304 -0.07749831 0.08200234
0002e0 6a 8d e6 bd 21 be e1 3d d3 ef 62 bd 22 5d 1c be
       -0.11257441 0.11022592 -0.055404495 -0.15269902
0002f0 2b a9 4d bc f1 1a 39 3d 17 7e cc bd d5 f3 56 3d
       -0.01255254 0.04519171 -0.09984987 0.05247863
000300 83 13 a4 3d d5 87 1e bd f9 c7 96 bd ea 42 cd 3b
       0.08011534 -0.03870376 -0.073623605 0.0062640803
000310 03 aa 7e bd 44 2a 9c bd 7f de 09 3e 42 4e 7c 3d
       -0.062173855 -0.07625249 0.13463782 0.06159807
000320 f1 f0 9f bd fa f6 f4 3d a7 f9 85 be f0 01 e8 3b
       -0.07809628 0.119611695 -0.26167032 0.007080309
000330 33 d3 97 bd 37 f6 63 3c 6c 6f 6e bd 3b 5d f1 3e
       -0.0741333 0.013913683 -0.05821173 0.47141442
000340 f3 43 18 3e dc 0c a7 3d 23 3b 02 3e d4 fb 3e 3b
       0.1486967 0.081567496 0.12717871 0.00291418
000350 d1 20 c8 bd b4 f4 c4 bf 10 bb 4f 3e e0 21 63 bd
       -0.09771884 -1.5387177 0.20286202 -0.055452228
000360 8a 81 93 3d a7 d5 27 bd c9 ae d7 3d 3e 6f 3b 3e
       0.07202442 -0.04097524 0.105313845 0.18304154
000370 df a5 6a 3c 58 45 ab 3e c5 ad 2b 3d b7 a0 35 be
       0.014321773 0.33451343 0.041913766 -0.17737089
000380 63 00 19 be e5 ba b3 bd da b4 04 3e 4a 74 95 bd
       -0.14941554 -0.08775882 0.12959614 -0.07297571
000390 e7 e7 1a 3e 92 0c 9e 3e e4 cc 0b 3e e4 fc de bd
       0.15127526 0.30868965 0.13652378 -0.10888079
0003a0 02 45 59 bd cd df 6a 3b d9 37 5f bc 4b 93 fe 3c
       -0.053044327 0.0035838962 -0.013624155 0.031076094
0003b0 4a 71 08 bf 10 74 99 bd 2e 12 a4 bd 42 7a 10 be
       -0.53297865 -0.0749284 -0.0801128 -0.14109138
0003c0 36 09 20 3e 11 34 12 3d 55 9f ea bb 67 5f cd bd
       0.15628514 0.035694186 -0.007160107 -0.10027962
0003d0 74 c4 11 3c e9 06 3d bd 8b 53 95 3d 77 71 d4 3e
       0.008896936 -0.04614917 0.07291325 0.41492817
0003e0 20 de 01 3e bf 14 4b bd b9 f5 90 3c d5 11 6e bd
       0.1268239 -0.049580332 0.017695295 -0.058122475
0003f0 30 5f 61 bd c9 87 8a be d4 32 d6 3d 5e 0d 28 bd
       -0.05502242 -0.2705672 0.104589134 -0.041028373

network_smart.layer2.0.bias f4 [128]
000000 84 56 6c 3d 0e 71 a8 3d a6 f5 14 be 69 6b 4a bd
       0.057699695 0.082246885 -0.14546832 -0.04941884
000010 48 de 71 be 64 c5 49 3c 04 d2 8f bc 12 e8 46 bd
       -0.2361995 0.012315128 -0.017556198 -0.048561163
000020 48 57 3c 3d 5b f0 6b bd d9 f1 5a be f5 3d 94 3d
       0.045981675 -0.057602268 -0.2138132 0.0723838
000030 20 d2 71 bd 52 da 31 3e 44 a0 d2 3d e2 8f 89 bc
       -0.05903828 0.17368439 0.102844745 -0.016792241
000040 7d 41 d2 bd f8 2c 8e 3d d2 e1 9e bd 2b 58 a5 bd
       -0.10266397 0.06942171 -0.077579156 -0.08073457
000050 fd 51 e0 bb 44 11 85 3d fd 45 da 3d ad 16 35 3d
       -0.0068457113 0.06497434 0.106578805 0.04421108
000060 dd 4a 97 3d d4 17 fb 3d b0 a0 98 be ec f4 dd bd
       0.07387326 0.12260404 -0.29810095 -0.10837731
000070 40 83 00 3d a9 1b 8c 3d f4 d1 85 3c a1 62 97 3d
       0.03137517 0.06841213 0.016335465 0.07391859
000080 b5 d0 0c bc f2 ec 8a bc fc 16 23 3d b3 fb d1 be
       -0.0085946815 -0.016958687 0.03981684 -0.41012344
000090 0d 93 d4 3d 34 e7 cf bc 97 12 17 bc 1a 7c 4a 3c
       0.1037961 -0.0253788 -0.009220741 0.01235869
0000a0 16 40 84 bd 64 4d 97 bd e8 35 49 3d be 4f 8d 3d
       -0.06457536 -0.07387808 0.049123675 0.06899975
0000b0 2d 57 3a be 09 8f b2 bd a7 9e 0c 3e f7 9f 8a bc
       -0.18197317 -0.08718688 0.13732396 -0.01692198
0000c0 25 af 4e 3c 21 77 a5 3d 2f 90 3b bd 9d a2 a5 bc
       0.012615 0.08079363 -0.0457918 -0.020219142
0000d0 ff 77 29 be c5 5d fa 3d 0c ce 49 be 88 72 98 3d
       -0.16549681 0.12224916 -0.19707507 0.0744372
0000e0 82 6a 0b bd d2 fd c6 3a e3 f1 c3 bd b4 a1 01 3e
       -0.03403712 0.0015181846 -0.095676206 0.12659341
0000f0 21 73 3a bd 15 3d 5b bb a0 bd 46 bd da 85 dc 3c
       -0.04551995 -0.0033453156 -0.048520684 0.026919294
000100 3d 0f 8c bc 4b 15 06 3e 67 f1 58 bd 2c a9 c3 bd
       -0.01709711 0.1309406 -0.052964594 -0.09553751
000110 cf 8b a6 3a 4c dc 4f 3d c7 d6 53 3d 58 85 70 3d
       0.0012706461 0.0507472 0.0517185 0.058720917
000120 52 ab 8b 3c f8 38 ff 3b e9 96 99 be 97 18 aa bc
       0.017049465 0.0077887736 -0.29997948 -0.020763678
000130 94 0c f9 bd a4 4b 89 3d 9f 43 a8 3d 2b 4e 2c 3d
       -0.12160602 0.067038804 0.08216023 0.042066734
000140 99 e8 85 3d b9 e8 33 bd a8 0a 22 3d a5 87 08 3d
       0.06538505 -0.043923113 0.039560944 0.033332486
000150 c0 dd 09 3e 83 86 c0 3d 36 68 0e 3e 6c d3 79 bd
       0.13463497 0.09400656 0.13906941 -0.060992643
000160 b1 d2 a1 3d ce 8a 87 3a bb 14 85 3b 7b cf 77 3d
       0.07901514 0.001034105 0.004061309 0.060500603
000170 d7 01 8b 3a f6 0b 45 bd 50 67 db 3c c6 cc 41 3d
       0.0010605407 -0.04810711 0.026782662 0.047314428
000180 41 4a f7 3c b0 c0 ca bc 19 91 8d 3d b2 ff f3 bd
       0.030186774 -0.024750084 0.06912441 -0.119140044
000190 58 c5 10 bc 41 66 89 bc 6f 50 af bc d0 7f f5 3d
       -0.008836113 -0.016772391 -0.021400658 0.11987269
0001a0 93 05 6b 3d 6c 0e 89 bc 34 95 c4 3c 15 e8 aa 3d
       0.057378363 -0.01673051 0.023996927 0.083450474
0001b0 bd e7 9d 3b 14 ef a6 3d ce fd 08 3d 99 77 94 bd
       0.004818885 0.08151069 0.033445172 -0.07249374
0001c0 44 2d c1 bd 6e c4 28 bd 22 62 50 3d 94 bf dd 3c
       -0.09432462 -0.041202955 0.050874837 0.02706889
0001d0 58 80 f2 be 0f 7b 5b bd 4b 3f 1a be 65 ae ac bd
       -0.47363544 -0.053584155 -0.15063207 -0.084317006
0001e0 c7 d7 94 bd a9 68 8d 3d 3d ed 95 bc 79 ad e4 3d
       -0.07267719 0.06904728 -0.0183016 0.111659
0001f0 2b 22 5c bd 13 00 26 be c8 0f 38 bd 9a 5d d8 bc
       -0.053743523 -0.16210966 -0.044936925 -0.02641182

network_smart.layer3.0.weight f4 [48, 128]
000000 92 d4 0f 3e 5a 17 4c be 9a 6e 60 3e fd a5 9b bc
       0.14045933 -0.19930783 0.21917191 -0.019000048
000010 14 40 78 bf 82 38 1a bd e1 5f 7d bd b8 01 68 3e
       -0.96972775 -0.037651546 -0.061859015 0.22656906
000020 35 ff 7f 3d b1 c5 30 3d a1 5b c0 be 73 74 c6 bc
       0.062499244 0.043157283 -0.37569907 -0.02422545
000030 50 db 3a 3d 05 6d e5 3c 90 21 08 3e 11 32 a7 3c
       0.04561931 0.028006086 0.13294053 0.020409616
000040 36 91 4a 3e 17 26 c8 bc 0c 58 bb 3b 5d 6d 99 bb
       0.19781956 -0.024432225 0.005717283 -0.0046822266
000050 4b 57 e9 bd 55 88 19 bf e5 59 4a 3e 08 cd ba bc
       -0.11393603 -0.5997365 0.19760855 -0.022802845
000060 59 d7 3e 3d 0a 11 14 3d 90 57 67 bf 5a 1f e0 bc
       0.04659209 0.036149062 -0.90367985 -0.0273587
000070 e6 17 13 c0 60 23 26 3e 46 e9 98 bf cd 8d e1 3d
       -2.2983336 0.16224432 -1.1946189 0.110133745
000080 16 37 f0 bd 32 b5 56 3d fe 5c 52 bd 32 13 0e 3f
       -0.11729257 0.052418895 -0.051358216 0.5549804
000090 84 ef 03 bf 7a 8c 43 3d 70 13 6c 3d 54 82 5b bd
       -0.51537347 0.04774139 0.057635725 -0.053591087
0000a0 8c 8a 1d 3c 04 f6 9b bd 7b 67 38 bb 3e b2 65 3d
       0.009615552 -0.07615283 -0.002813785 0.056078188
0000b0 21 cb 5a 3d 01 ca 2f 3d 43 29 e6 3d 61 9d 3a 3d
       0.053416375 0.042917255 0.11238339 0.045560244
0000c0 86 59 5f bf fc 0e 46 3c 0e b3 bb be 17 9b 06 3e
       -0.87245977 0.0120885335 -0.36660045 0.131451
0000d0 9e 06 f1 be 4b d5 40 3d 7d ae 78 3e d7 50 fc 3c
       -0.4707536 0.047078412 0.24285312 0.030800266
0000e0 e0 26 5c bd 12 77 29 3e 88 3d 67 bd 79 31 17 3d
       -0.05374801 0.16549328 -0.056455165 0.036912415
0000f0 45 24 2c 3d a5 28 38 3d 57 05 ed 3e 31 87 26 bd
       0.042026777 0.044960637 0.46293136 -0.040656272
000100 d5 ab 0d 3e de 7d 72 3c 87 56 51 3d 9e ff a8 3d
       0.1383508 0.014800517 0.05110791 0.0825188
000110 43 24 a6 3d c7 7b 06 be 74 89 af be 4d 74 4a bd
       0.08112385 -0.13133155 -0.34284556 -0.04942732
000120 1b 69 2d be 94 40 82 bd 0c 4e 9f bf 1e 81 ac 3e
       -0.16934626 -0.063599735 -1.2445693 0.3369226
000130 33 e5 c2 bf 6f c0 65 3d 32 bb 35 bb 97 da 05 be
       -1.5226196 0.056091722 -0.0027729985 -0.13071667
000140 37 ca 0a 3c 3d 6f 88 3e 1b 3e 10 be 5a 53 81 be
       0.008471063 0.26647368 -0.14086191 -0.25258905
000150 a3 96 b9 3d 4c d5 c7 be 9b ce 4f 3e 38 f2 80 3d
       0.09061935 -0.3902992 0.20293657 0.062961996
000160 70 21 ac bb 95 d4 94 bd 9c ca 86 3d fa d2 38 be
       -0.0052530095 -0.07267109 0.065816134 -0.18049231
000170 e4 84 7e be 8a f6 8b bd dc f8 67 3c af 43 66 3c
       -0.24855381 -0.06834133 0.014158454 0.014054223
000180 ca 97 65 3e a7 fb b0 bc 1a c4 92 bc f7 f4 96 be
       0.22421184 -0.021604372 -0.017915774 -0.29483768
000190 cb 76 94 3d d4 4b 09 be bb 44 fe bd c6 4b 06 3e
       0.072492205 -0.13407832 -0.12415453 0.13114843
0001a0 9e f1 c0 bd b7 89 02 bd 52 e4 b6 3d c9 e3 d0 bd
       -0.09421085 -0.031869616 0.089302674 -0.101996966
0001b0 e4 08 e8 3b 2d cf 02 3e 1f 8b c9 be d2 ba 4f bd
       0.007081138 0.12774344 -0.39363953 -0.050715275
0001c0 84 4d af bc 56 1f c2 3d fa 47 1e 3e 18 0f b7 bd
       -0.021399267 0.09478633 0.15457144 -0.08938426
0001d0 57 22 fc 3d 02 83 b6 be 4b d8 20 bc 4e a9 8b 3f
       0.12311237 -0.35646826 -0.009817193 1.0911043
0001e0 2e 82 a1 3d 40 ed 0c 3e 0c 5d dd 3e f0 9e 12 3c
       0.07886158 0.13762379 0.43235052 0.008949026
0001f0 39 39 50 3d f7 69 3d 3e 91 40 65 bd 74 2d b9 3c
       0.05083582 0.18497454 -0.05596978 0.022604682
000200 10 59 57 3d fb 6a 08 be e7 18 11 bd 85 49 ab 3d
       0.05257517 -0.1332206 -0.03542414 0.08363632
000210 b0 4b 39 bf 76 b6 06 bd 23 01 a6 3d 0b 5e 9e bd
       -0.72381115 -0.032888852 0.081056856 -0.07732781
000220 9b 7d cc 3c 8a fd bb bd 35 f8 27 3e ad 8a 8c 3e
       0.024962237 -0.09179218 0.16403277 0.2744955
000230 39 1a 27 bd bf d9 82 3d 88 f1 23 bc 77 6f d3 3d
       -0.040796492 0.06389188 -0.010006316 0.103239946
000240 2e 23 ef 3d d9 8c 67 be ca a1 7f 3d fb e0 9a bd
       0.11676632 -0.22612323 0.062410153 -0.07562443
000250 f5 7e 10 be a2 af a0 be 22 bb 85 3d ec 68 1b bc
       -0.1411093 -0.31383997 0.065298334 -0.009485465
000260 1c d3 b8 3d 3f 67 99 3d f2 be 4c 3e fa d7 1b 3d
       0.09024641 0.07490396 0.19994715 0.03804777
000270 a6 8f 37 bd 73 f5 87 bc e0 d1 10 3d e0 2f 53 bd
       -0.04481473 -0.016596531 0.035356402 -0.05155933
000280 00 a5 f1 bd 48 0b 85 bc 36 02 48 be 99 b2 42 3c
       -0.117990494 -0.01624073 -0.19532093 0.011883401
000290 52 8d 49 be 01 5b 97 bc 1b 2e 42 3d 1b 5c 72 3e
       -0.19682816 -0.018476011 0.04740725 0.23667948
0002a0 3e e9 39 be 07 92 77 bd 5c 02 d5 bd 09 7e af 3d
       -0.18155381 -0.060441997 -0.10400841 0.08568961
0002b0 77 65 dc bc 69 8f 49 b9 e4 40 d1 bd bf 1b ad bc
       -0.026903851 -0.00019222278 -0.10217455 -0.021131394
0002c0 8e b9 36 be d8 3a a2 3d 79 b1 92 ba 49 6a 95 3e
       -0.17844221 0.0792138 -0.0011191807 0.29182652
0002d0 b0 d9 2e be a5 f3 97 bd f6 0e c1 3d c5 5e 76 3d
       -0.17075229 -0.074195184 0.09426682 0.060148973
0002e0 68 8a 34 be 08 b3 d4 be 8b 9a 40 3b fa fa 2f bd
       -0.17630923 -0.4154284 0.002938899 -0.04296396
0002f0 9a b7 84 3d 22 8c 4b 3c 68 d4 cb 3c ca 34 6c 3d
       0.06480332 0.012423547 0.024881557 0.05766753
000300 a9 d9 9f b9 43 bf 4c bd 32 b2 f8 be 5b 1b 8a 3d
       -0.00030489013 -0.04998709 -0.48573452 0.06743499
000310 c8 bc 15 be 83 a7 4f be 6a 19 53 be 0d 2a ad 3c
       -0.14622796 -0.20278744 -0.20615163 0.021138215
000320 10 2f ac bd 33 4d bd bc fe 6e 05 3e ab ea 1a 3e
       -0.08407414 -0.0231081 0.13030621 0.15128581
000330 c6 44 4c 3d 0a 41 6d be c7 65 3d bc 3c 03 57 3d
       0.049870275 -0.23169342 -0.01155991 0.05249332
000340 ab 94 e0 ba 66 fb 0a be 30 8c df 3d 6f e3 67 be
       -0.001713415 -0.13572463 0.109154105 -0.22645353
000350 2e 2c cb bc a4 ef 75 be 97 14 4e bd df de 7c bd
       -0.02480134 -0.24017197 -0.050312605 -0.061735984
000360 4f 01 3c 3c 8f 89 1c 3d d7 66 e3 bc 11 b4 8f bd
       0.011474921 0.038217124 -0.027758999 -0.07016767
000370 f7 4a 76 3d 74 5b d7 bd 8d 1c f6 bd 9f 71 2b 3d
       0.060130086 -0.1051549 -0.120171644 0.041856404
000380 3a 61 5a 3e 2e 15 ce 3c 75 dc 96 3d 4c 2f 5d be
       0.21326151 0.025156584 0.073662676 -0.21600074
000390 e3 2a cb 3c e2 de 28 bd 51 29 c6 bc aa a4 5b bd
       0.024800723 -0.041228183 -0.024189623 -0.053623833
0003a0 f2 1b bb 3d 93 43 87 bb cd 79 d6 3d 03 5c ab 3d
       0.091361895 -0.0041279285 0.104724504 0.08367159
0003b0 db 52 11 bd 6e a3 da bd 07 08 63 3d 8c 90 1f bb
       -0.035479408 -0.10675703 0.055427577 -0.0024347631
0003c0 3c 46 5a bd c7 41 84 3d af ab 8e 3d 75 23 ec bc
       -0.053289637 0.064578585 0.0696634 -0.028825501
0003d0 84 19 5a be 43 22 c6 3d d3 a4 34 3e 64 c8 8f 3e
       -0.21298796 0.09674504 0.17641 0.28082573
0003e0 07 d0 98 3d 56 f0 b2 3d c3 f0 8a 3e 27 3d 42 3d
       0.07461553 0.08737247 0.27136812 0.0474216
0003f0 8d d0 c9 bd 78 75 04 3e b2 fd 0e bc 76 31 6c 3c
       -0.09854231 0.12935436 -0.008727478 0.014416089

network_smart.layer3.0.bias f4 [48]
000000 9b d0 17 3d ba db fc 3d d4 e2 17 bd 61 38 a7 3d
       0.037064176 0.12346597 -0.037081555 0.0816505
000010 f0 05 af bd 69 c9 0f 3d dd 40 a6 3d 6e d3 44 3d
       -0.08546054 0.03510419 0.081178404 0.048053198
000020 df 39 a1 bd 09 95 9e 3d c5 16 8f 3d 02 56 67 3d
       -0.07872366 0.0774327 0.06986765 0.056478508
000030 fa 97 8b 3d 53 3e 25 3d 2a 92 86 bb 00 39 dc 3d
       0.068160966 0.04034264 -0.0041067796 0.107530594
000040 29 bd 07 bd 7e 4a ce 3a e3 ad 9e 3d 8e 03 23 3d
       -0.03313938 0.0015738753 0.0774801 0.039798312
000050 5f 06 a5 3d 76 a8 b5 bd f5 52 b2 3c 27 b2 5a 3d
       0.08057856 -0.08870022 0.021768073 0.053392556
000060 37 c1 09 3c 99 c3 81 bb d1 69 a0 bd 82 56 64 bd
       0.008407882 -0.0039600846 -0.07832683 -0.055746563
000070 d8 c9 36 bd 8e 0e 96 bd 2e 60 92 3d 35 d1 44 3d
       -0.044626087 -0.07326995 0.07147251 0.048051078
000080 0c 93 15 bd 36 20 06 3d 79 46 33 bd 2c 79 e9 3c
       -0.036517188 0.032745562 -0.04376838 0.028500162
000090 a1 c5 d2 3d b3 4a b9 3d 95 f0 2c be f9 92 02 bc
       0.10291601 0.09047451 -0.1688865 -0.007969611
0000a0 9e 71 a1 3d 0d 12 e5 bc a8 46 d1 bb 4f e1 bf bd
       0.07882999 -0.027962709 -0.0063865967 -0.09369146
0000b0 56 6f 18 3e b5 c1 92 3c 45 92 83 be 12 65 bf bc
       0.14886221 0.017914632 -0.25697532 -0.023363624

fc_smart.weight f4 [64, 48]
000000 b1 fc 5f be d0 a1 88 bd c4 e4 2d 3f 2f 7b 11 3e
       -0.21873738 -0.06671488 0.67927194 0.14207147
000010 ca bf e9 3d ef 3c 2c 3d 40 1d 02 3e 53 85 8b be
       0.11413534 0.0420503 0.1270647 -0.27250156
000020 d9 b1 a1 be a2 9f ae 3d 79 15 c3 be 62 a4 8e be
       -0.31581 0.08526541 -0.3810232 -0.2785979
000030 ee b3 95 be 56 36 80 be 34 b1 8f 3f 67 dd 9b 3e
       -0.29238838 -0.25041455 1.1225953 0.30442354
000040 e0 8b 14 3f 06 6e e5 3d ad 72 9a be 71 f0 a4 be
       0.5802593 0.11202626 -0.30165616 -0.32214692
000050 fa 3c ee bc 46 bc ea bd 52 5e 14 3f ca bc 0f be
       -0.02908181 -0.114616916 0.5795642 -0.14036861
000060 8f 86 60 bc bd 8f a6 be a3 2c 9d 3e c6 fe 91 3f
       -0.013703956 -0.3253154 0.30698118 1.1405876
000070 ed 4b 08 bf 9a 60 3c 3f 90 d6 88 bd 86 68 be be
       -0.53240854 0.735849 -0.066815495 -0.3718912
000080 fe 4b 09 be 61 9c 13 3e 3c 5c 69 bd 31 25 0a bf
       -0.13407895 0.14415123 -0.056972727 -0.53963
000090 ed f5 1c bf dc f3 a8 be 87 68 ca 3d 4f 91 07 be
       -0.6131275 -0.3299855 0.09883218 -0.13239025
0000a0 e0 bf c8 bd 03 77 cc 3c e4 a2 07 3f 9d 36 4e 3f
       -0.09802222 0.024959093 0.52982926 0.80552083
0000b0 44 34 46 be c2 ae 30 3f 78 28 e4 bd 7f 7c 7e bf
       -0.19355875 0.6901666 -0.11140531 -0.99408716
0000c0 24 05 cb 3e 4e e5 86 bd e7 e6 41 bf 0e 25 ad 3d
       0.3965236 -0.06586705 -0.75742954 0.08454333
0000d0 24 dc 42 bc b3 44 32 3e 78 0b f0 bd 08 df 68 3e
       -0.011893306 0.17409019 -0.117209375 0.2274133
0000e0 cb f3 12 3f b5 4e 02 be 3f 37 67 bc 7b 6c 91 3e
       0.5740325 -0.12725337 -0.014112293 0.28403077
0000f0 62 64 98 3e 60 e5 90 3e 3a 7f 20 bf f6 44 b0 3f
       0.29764086 0.283 -0.6269413 1.3771045
000100 73 0a c9 be d6 b0 df bd ec 28 a8 3d cb ad cb 3d
       -0.39265785 -0.10922401 0.0821093 0.09945258
000110 58 35 e8 bc d1 b2 d8 bc 65 c6 26 bf 95 a8 b2 3e
       -0.028345749 -0.026452454 -0.65146476 0.34894243
000120 72 cb 98 be d0 5f 4c 3f 73 c9 52 bf 46 7b 69 3f
       -0.29842716 0.798337 -0.8233864 0.91203725
000130 d1 47 28 3f 62 73 05 be 95 14 95 bd 7e 8c d5 3e
       0.65734583 -0.13032296 -0.07279316 0.4170875
000140 5b 70 7e bd ef ab fa bd 62 f6 ad bd 8a 28 06 3f
       -0.06211887 -0.12239825 -0.084942594 0.5240561
000150 2a 4a e9 3e 58 19 74 3d ff 29 d3 3d ab f7 34 3c
       0.45564395 0.059594482 0.103107445 0.011045377
000160 24 68 a0 bd e6 3d 83 be 54 95 27 bf 7c 01 fb 3e
       -0.07832363 -0.25633162 -0.6546223 0.4902457
000170 d8 b6 e8 bd 8b ed 33 bf 99 7a de 3d 48 28 ad be
       -0.11363 -0.70284337 0.108632274 -0.33819795
000180 0d 47 e4 be 95 4f 73 3c d3 f5 40 3f 54 21 62 3d
       -0.44585457 0.014850517 0.753751 0.055207565
000190 d1 e3 bd 3d f6 14 09 be e8 ca e6 3d 93 d7 9d be
       0.09271968 -0.13386902 0.1126917 -0.30828533
0001a0 1e e1 1b bf 4e c7 0a 3e 07 77 19 be 5f df aa be
       -0.60890377 0.13552591 -0.14986812 -0.33373544
0001b0 48 82 55 bd 71 16 9c be 50 32 4f 3f 22 41 84 bf
       -0.0521262 -0.3048587 0.80936146 -1.0332377
0001c0 33 37 e3 3e 5f e8 1a bd eb 4c 00 be 0f a8 97 bd
       0.4437805 -0.037819263 -0.12529342 -0.074051015
0001d0 7b fe 2b 3e 61 1b 82 3d 39 2e 38 3f f7 8d a8 be
       0.16796295 0.06352878 0.7194553 -0.3292081
0001e0 e5 28 8b 3e 43 1d 6c bf 5d f7 67 3f 52 5d 87 be
       0.27179638 -0.9223215 0.9061182 -0.26438385
0001f0 91 cb 3b bf 2f 8c 4b 3d 33 7d fc 3d 72 df df be
       -0.7335749 0.049694236 0.12328567 -0.43725163
000200 2b f5 dd 3d 29 6a 28 3e ce 40 b3 3c cc dd 13 bf
       0.10837778 0.16446747 0.021881487 -0.5776031
000210 f9 93 1f bf 14 63 ad bd a6 ff 83 bc 33 35 1e 3d
       -0.62335163 -0.08466163 -0.016113114 0.038624953
000220 c3 15 f2 bb 19 f8 5a 3e c0 28 3d 3f ba 6a 51 be
       -0.007387848 0.21383704 0.73890305 -0.20450869
000230 43 7d 01 3e 4b 24 51 3f 9f 52 fb be 13 a1 e5 3e
       0.1264544 0.81696004 -0.49086472 0.44849452
000240 35 6c 72 3e 65 d0 9e 3d 62 dc d6 be f8 d7 65 bd
       0.2367409 0.07754592 -0.41965014 -0.056114167
000250 e9 4a e3 bd 03 ad 3b 3e e8 5a 9e 3c 30 63 34 3e
       -0.11098272 0.18327717 0.019330457 0.17615962
000260 6f c7 c1 3e c6 3a 52 bd a6 47 87 3d cb 15 39 3e
       0.37847468 -0.051325582 0.06605463 0.1807472
000270 04 19 06 be ce 97 03 3e 76 72 cd be 4e af 56 3f
       -0.1309548 0.12850878 -0.4012639 0.83861244
000280 20 02 4a be ff da 45 3e 34 01 61 bc 39 cf 60 3d
       -0.19727373 0.19321822 -0.013733197 0.054885123
000290 c2 e4 8a bd 6e 68 b0 bd ff 88 c7 be 85 90 66 3e
       -0.06781913 -0.086136684 -0.38971707 0.22516067
0002a0 0f b8 4f be e0 75 35 3f 27 b8 14 bf d3 62 23 3f
       -0.20285057 0.7088299 -0.58093494 0.6382267
0002b0 0d 21 eb 3e 01 cb 1d 3e 2c a7 18 be 46 76 87 3e
       0.45923653 0.15409471 -0.14907521 0.26457423
0002c0 2e 8e c3 3c a8 a2 63 bd 4f bd 02 bc b8 a6 94 3e
       0.023871507 -0.055575043 -0.007979705 0.29033446
0002d0 6d 97 ba 3e 6e 22 ca bd 3b f2 a0 3c 56 8a b0 bd
       0.36443654 -0.09869848 0.019646754 -0.086201355
0002e0 77 58 ad bd 24 a3 08 be 3f 64 dc be e0 ad 22 3d
       -0.08464139 -0.13343483 -0.43045232 0.0397166
0002f0 85 32 32 be 0c 51 e1 be 2a 50 6b be 72 03 09 bf
       -0.17402084 -0.44007146 -0.22979799 -0.5352088
000300 57 37 d9 be 62 e5 b6 bc 70 97 29 3f 62 06 55 bd
       -0.42425033 -0.022326175 0.662467 -0.05200804
000310 f2 6b 0c bd a9 91 37 be d9 a4 00 3e aa 9e 7c be
       -0.034282632 -0.17926659 0.12562884 -0.246699
000320 2c 34 16 bf bf 5e 44 3e c5 18 6d 3a 00 78 9b be
       -0.5867336 0.19176768 0.00090445235 -0.3036499
000330 43 ab 60 bd 5a 26 8a be 54 80 12 3f 6f a5 a6 bf
       -0.054850828 -0.26982385 0.57227063 -1.3019236
000340 d3 c4 b2 3e 21 cd 2d 3d 84 f2 a8 bd 79 1f ec bc
       0.3491579 0.042431954 -0.08249381 -0.028823601
000350 44 f4 a1 3d 89 50 d6 3d ad da 19 3f 19 6e b1 be
       0.07907918 0.104645796 0.600993 -0.3465431
000360 44 56 a5 3e e6 81 68 bf 8b c6 5a 3f e0 c0 1f be
       0.32292378 -0.9082321 0.854592 -0.1560092
000370 9a 8a 2b bf 10 a7 dc bd a5 8e 3c 3d 00 4d cc be
       -0.67008364 -0.10774052 0.046034474 -0.39902496
000380 2b d4 73 bd 0d e9 fe 3d a4 a7 0f bd ac f6 02 bf
       -0.05952851 0.12446795 -0.035071984 -0.5115764
000390 82 9b fa be 59 47 65 3c 4b 95 2f bd fd ee 08 3e
       -0.48946768 0.013994061 -0.042866986 0.13372417
0003a0 26 5f 68 3d 35 ec 85 3e 6d 8f 31 3f d9 92 76 bf
       0.056731366 0.26156774 0.69359475 -0.9631782
0003b0 d0 26 e1 3d fc 36 39 3f ad 6d c3 be 45 11 55 3f
       0.10993731 0.72349524 -0.38169613 0.83229476
0003c0 bd 2c dc 3e e7 3c ba bd c4 00 52 bf 48 3d 55 3c
       0.43002883 -0.090936475 -0.8203242 0.013015099
0003d0 db 2a b6 3b 55 ef 57 3e f7 45 f7 bd a5 8f 81 3e
       0.005559308 0.21087392 -0.120738916 0.25304905
0003e0 cb 2c 1b 3f 0c 22 6c be ee 31 88 3d 97 b8 a3 3e
       0.60615224 -0.23059863 0.06650148 0.31976768
0003f0 58 b1 8b 3e 75 74 b4 3e 9e 38 50 bf cd e7 8d 3f
       0.2728374 0.352451 -0.8133639 1.1086365

fc_smart.bias f4 [64]
000000 4e 0c 02 3e 34 e4 8a bc 1e 8b c6 3d a5 1b 52 bd
       0.12700006 -0.016954519 0.09694503 -0.051295895
000010 28 4a fe 3c be 04 ef bd b4 f9 b5 3d ee af 2a be
       0.03104122 -0.116708264 0.08885518 -0.16668674
000020 54 34 f9 3d 57 e1 9e 3c f1 8d 40 3d 35 96 a9 3d
       0.12168184 0.01939456 0.047010366 0.08280603
000030 ca a0 bc bc ac 8f 06 3e 48 49 02 be 67 21 08 be
       -0.023025889 0.13140744 -0.12723267 -0.13293992
000040 8f d4 fb bb 20 90 41 3e 17 be 98 bd 94 c7 d7 3d
       -0.007685251 0.18902636 -0.07458132 0.105361134
000050 91 2e 00 3e a1 c9 7b bd 2e 72 05 bc b1 a6 08 3e
       0.12517764 -0.061471585 -0.008144898 0.13344838
000060 de 3c 22 bd 5a 29 c0 3d 54 6b 8e 3d fe da 12 3e
       -0.03960883 0.09382887 0.06954065 0.14341351
000070 b9 da 9f bd 80 ee e3 bd 8c 0c 13 bd 51 95 03 be
       -0.0780539 -0.11129475 -0.035900638 -0.12849928
000080 9b 4c e6 3d 78 89 19 be 43 f9 28 bb 72 f6 5d 3d
       0.1124508 -0.14993846 -0.0025783337 0.054190107
000090 24 bc ef 3c 72 ce 78 bd 7b 09 a6 bc 78 0b 6c 3d
       0.029264517 -0.060743757 -0.020268193 0.057628125
0000a0 34 1e 8b bb 68 43 d1 bd bd b2 b4 3d 21 cb bd bd
       -0.004245544 -0.10217935 0.08823154 -0.092672594
0000b0 c8 46 4b bb 65 78 02 be e9 f9 0a 3d 6d 65 f7 bd
       -0.003101753 -0.1274124 0.03392974 -0.12079892
0000c0 b3 ac 2c 3d 95 4b 0a 3e 3f b5 1c bd c1 e0 24 3d
       0.042156886 0.13505395 -0.038258787 0.040253405
0000d0 86 e2 8c 3d da 4b ae 3d c6 32 14 bc 5c b1 88 3d
       0.068791434 0.08510561 -0.009045308 0.066744536
0000e0 84 38 9a 3d 24 e0 b9 bd 2b 5e f2 3c 10 42 3a be
       0.07530311 -0.090759546 0.029585918 -0.18189263
0000f0 dc 40 eb 3d 41 5a 60 3d e2 f0 f1 3d 78 9f 94 3d
       0.1148698 0.054773573 0.11813523 0.07256979

network_aging.lstm.weight_ih_l0 f4 [128, 5]
000000 c3 b5 4f 3e b7 53 88 bd 40 ac d3 3c 9b c4 53 3d
       0.2028418 -0.06656592 0.025838971 0.05170117
000010 87 74 1e 3e b0 23 e3 bb d9 aa e0 bd a7 dd c3 3c
       0.15474139 -0.0069317445 -0.109700866 0.023909403
000020 24 8c 95 bd bf 18 1e 3e 0d 2d f2 3d c0 7e 5f 3e
       -0.0730212 0.15439127 0.11824999 0.21825695
000030 85 04 43 3c e7 00 4d 3e 10 25 cb 3d e5 81 37 3e
       0.011902933 0.20019875 0.099191785 0.17920645
000040 2b 98 47 3e dd b7 b3 3d f1 02 24 3c 61 6d 8d 3d
       0.19491641 0.087753035 0.010010467 0.06905628
000050 dd 1e 2a bd da 49 30 3d 53 af 9a 3d 31 6d f7 3d
       -0.04153334 0.04303918 0.07552972 0.120813735
000060 db 53 e0 3d fd cd 93 bd 5a 1e 2f 3e 4d e8 a5 3c
       0.10953494 -0.072170235 0.17101422 0.020252371
000070 ba 6e 0e bd 03 18 a1 bb 53 1b 54 3e 6c 4e 69 bd
       -0.034773566 -0.0049161925 0.20713548 -0.056959555
000080 4c 15 fd 3d 4a 95 bc bd f5 d9 99 bc ea 61 b6 bd
       0.12357578 -0.09208162 -0.018780688 -0.089053944
000090 c2 73 31 3e ab 2c 2b 3e be 8d 18 bd b7 b2 8c 3c
       0.17329314 0.16716258 -0.03724455 0.017175062
0000a0 6b 31 8c 3d 15 f7 6a bd 45 32 08 be f2 33 e3 bd
       0.06845363 -0.057364542 -0.13300426 -0.11093892
0000b0 27 88 a2 bc 2d 6f 2f 3e df 61 98 3d a8 29 9d 3d
       -0.019840313 0.17132254 0.074405424 0.07673961
0000c0 ef 2f 5b bd e1 59 cb bd 5e 6d 31 ba 1a 4b ff 3c
       -0.05351251 -0.099292524 -0.0006768311 0.03116374
0000d0 3e d7 fc bc b2 33 d4 3d 63 04 09 be 12 67 17 3e
       -0.030864354 0.103614226 -0.1338058 0.14785412
0000e0 f2 40 cf bd 51 81 c4 bc ec a6 d7 bd 36 5a f7 3d
       -0.10119809 -0.023987444 -0.10529885 0.12077753
0000f0 0d 19 28 3e d4 b1 13 3c e9 d9 39 bd 45 68 a5 bd
       0.16415806 0.0090145655 -0.04537383 -0.080765285
000100 2b 2e 97 3c 85 f9 d4 3d 4b f8 0b bd 99 2b 25 3e
       0.018454632 0.103991546 -0.034172338 0.16129912
000110 94 6d 2a 3e c5 80 23 3e 0a 3d 69 3d 5f d1 2b 3c
       0.16643363 0.1596709 0.056942977 0.01048693
000120 7d 4b 5e 3d 84 b0 73 3d 48 a2 32 3c 15 0e ed bc
       0.05427121 0.05949451 0.010902949 -0.028937379
000130 cc b1 3f bd d5 a2 a9 bb 6d c0 8f bd 37 73 a5 bd
       -0.04680042 -0.005176882 -0.07019124 -0.08078616
000140 7e e5 8f bb 94 1c ef bd 37 1c ef bd 75 a2 00 3e
       -0.0043913713 -0.11675373 -0.116753034 0.12561972
000150 74 c5 5d 3d 32 52 52 bc 13 e9 80 3d 07 07 71 bd
       0.054143384 -0.01283698 0.062944554 -0.058844592
000160 6e 4d ba bd 3d 63 a7 3d 0f 05 ac 3d 05 f7 05 3d
       -0.090968 0.08173225 0.08399402 0.03270628
000170 1b c0 e9 bc 92 4b e4 3c 69 ae e2 bd 5d b4 0a 3e
       -0.028533986 0.027868066 -0.11068422 0.13545366
000180 3d f0 e6 bd a9 ad bb 3d 81 72 e2 3d 0f 87 13 be
       -0.112762906 0.091639824 0.11056996 -0.1440699
000190 e4 f0 89 bd 9a d1 a3 3b 3e 0e a7 3d f6 9c 05 3e
       -0.06735399 0.0049993517 0.08157013 0.13048157
0001a0 3a 1d 72 3d f7 81 aa 3d ec 08 4f bd e9 4a fc bd
       0.059109904 0.0832557 -0.050545618 -0.123189755
0001b0 a5 02 c1 bd 13 64 b1 3d 34 2f 93 3d 8c 96 a1 3c
       -0.094243325 0.08661666 0.07186738 0.019725107
0001c0 2b b5 02 3e 37 ac 1d 3e 6d 0e 00 3e 00 31 04 3d
       0.12764423 0.15397726 0.12505503 0.032273293
0001d0 b2 3a d1 3b 6c 9d 28 3e 91 4b 2e 3e 2f ad c3 bd
       0.006385171 0.16466302 0.17021014 -0.095545165
0001e0 11 f4 2b bd 20 83 60 3d 1b 77 0f 3e 38 92 2f 3d
       -0.041980807 0.05481255 0.14010279 0.042864054
0001f0 fc 32 f8 3d f9 bb 55 3d 6b 35 e0 3d 93 61 b3 bd
       0.121190995 0.052181218 0.10947689 -0.08758845
000200 2e 40 19 3e 20 2a ba 3d bd 86 c2 bd 7e 1e 06 3d
       0.14965889 0.09090066 -0.094983555 0.032743923
000210 f7 2d 3c 3e 96 51 ca 3d c7 66 5a bb fd ae 52 bd
       0.18376909 0.098788425 -0.003332542 -0.051436413
000220 24 56 11 3e b3 1c 0b be 13 eb 04 3e 57 b7 0f 3e
       0.14193016 -0.13585167 0.12980299 0.14034782
000230 c8 d8 48 bd 6f b6 53 bd 03 98 38 bd 28 19 76 bd
       -0.049034864 -0.051687654 -0.045066845 -0.060082585
000240 78 ea 24 3d 13 ad 6e 3b 9c 21 21 3d ef 07 8d 3d
       0.04026267 0.0036419078 0.039338693 0.06886279
000250 4b 22 17 be ac 85 3d bd 5f f0 bb 3d c0 80 02 3b
       -0.14759175 -0.046270058 0.091767065 0.0019913167
000260 4a d7 13 be 7c 79 c5 3d 8c 4d 02 3e a9 2d 85 bc
       -0.14437595 0.09642312 0.12724894 -0.016257124
000270 25 84 99 3c 8b 8b 6e 3c bf c0 67 bd ce 7f 58 bd
       0.01873977 0.014559637 -0.0565803 -0.05285626
000280 80 9f c2 bd c4 4f cb ba 17 36 11 bb 09 65 1f 3e
       -0.095030785 -0.0015511443 -0.0022157484 0.15565886
000290 be 2e b6 3d 89 87 96 bd c3 fb 22 3e 46 b4 0c be
       0.08895634 -0.0735007 0.15916352 -0.13740644
0002a0 bf 94 ff 3c bf a1 a4 bd f5 32 cb bc 2d 17 2f 3e
       0.031198857 -0.08038663 -0.024804572 0.17098685
0002b0 0f 72 13 3e 2e 05 43 3e 15 93 65 3d f3 a2 01 be
       0.14398979 0.19044945 0.05604847 -0.12659816
0002c0 7e c3 be 3d b9 d9 31 3e a4 df 48 bd 46 55 45 3e
       0.09314631 0.17368211 -0.049041405 0.1927081
0002d0 01 c4 52 3e eb 38 30 3e c9 89 5b 3d f5 63 7d bb
       0.20582582 0.17209212 0.0535982 -0.0038664315
0002e0 06 a6 da 3c 41 32 37 3e 42 64 74 3d f7 f3 db 3d
       0.026690494 0.17890264 0.059665926 0.10739892
0002f0 4f f2 2c 3e 96 3b e2 bc e9 75 5a 3e f5 83 53 3d
       0.16889308 -0.027616303 0.21334042 0.051639516
000300 d2 3a 29 bd 61 b4 8c bd 25 93 21 bd f0 ce ed bd
       -0.04131586 -0.06870342 -0.03944697 -0.11611736
000310 8a 5a 4b bc 24 22 88 bd a9 24 9c 3d b9 3b d4 bd
       -0.012411723 -0.06647137 0.0762418 -0.10362954
000320 83 4c 96 3d 79 9e bf bc f4 c6 4d 3e a3 3b bc 3d
       0.07338812 -0.023390995 0.20095426 0.09191062
000330 18 c7 86 3d 71 39 19 3e 31 76 ec 3d c4 be 77 3d
       0.06580943 0.14963318 0.11545981 0.060484663
000340 5d 70 4b 3e a3 a5 8e bc dc fd 1f 3e 93 84 cf 3d
       0.19867082 -0.017412966 0.15624183 0.101327084
000350 54 56 3a 3e 7b aa 8f bd bf 64 0c 3e f8 ce e9 bd
       0.18196994 -0.070149384 0.13710307 -0.11416429
000360 75 aa ac 3d 92 88 9e 3d 70 bc 17 be e4 e9 1d 3e
       0.084309496 0.077408925 -0.14817977 0.15421253
000370 84 b2 4a bc ac 4d 21 3e f5 74 82 bd 3b 98 02 be
       -0.012371663 0.15752286 -0.06369964 -0.12753384
000380 f8 6c 27 3e 05 ae 00 3e b4 01 1a bd 45 bb 4a 3e
       0.16350162 0.12566383 -0.03759928 0.19798
000390 9c 80 4f bd 3f dd 32 3e cc 33 f4 bd ae 2c 20 3c
       -0.05065976 0.17467211 -0.11923942 0.0097762775
0003a0 9c 55 8c bd fd 20 f7 bd f7 fd da 3d 2b 77 06 3d
       -0.06852266 -0.12066839 0.10692971 0.03282849
0003b0 5e 02 76 3d 68 ac 4e 3e bf 65 c2 3d 27 a3 da bd
       0.06006085 0.20182955 0.09492063 -0.1067565
0003c0 cf e6 b8 bd 59 12 1e 3e df 8d ed bc da b9 bd 3d
       -0.09028398 0.15436687 -0.028998313 0.09263964
0003d0 30 44 0c bd 4e 0f 8a 3c 4a b6 ff 3c 71 2d 23 3c
       -0.034244716 0.016853001 0.031214852 0.009959565
0003e0 80 0d e7 3d 19 0d 2a be ad 9f 4a 3e 77 a1 9f bd
       0.11281872 -0.16606559 0.19787474 -0.07794469
0003f0 53 45 28 3e ac 0c fc 3d 15 80 6a bd f7 2a 68 3e
       0.16432695 0.123071045 -0.057251055 0.2267264
