trained_model/mc1_mc2/90_days_lookahead/pnet_checkpoint/pnet_500.pth (torch, 545278 bytes, 36 tensors)

network_smart.layer1.0.weight f4 [128, 330]
0.019958645 -0.016882446 -0.017346317 -0.02152902 0.011244197 0.23317273 -0.00015788003 -0.10848615
-0.04346897 0.0076152575 0.0047911736 0.040787347 -0.028400213 -0.06394037 0.05599475 -0.011831645
0.27475223 -0.06556636 -0.08155087 -0.045746252 0.033985447 0.0055357553 0.05876933 -0.025885528
-0.033655465 0.03676333 -0.043311767 0.2210537 -0.056763664 -0.10725937 0.040435858 0.014024994
-0.003317783 0.027332162 0.03085824 -0.017522272 0.004346984 0.033795364 0.29810527 0.031751376
-0.122051865 -0.015439367 0.042840917 0.02295515 0.010180491 0.04793013 -0.010943722 0.06909647
-0.023868652 0.28376302 -0.058959723 -0.11409937 -0.016984588 0.04686477 0.036812387 -0.040001515
0.0013472259 0.011695024 0.0047174566 0.04452368 0.20076983 -0.04619922 -0.04769783 0.055031784
0.01855794 -0.042424254 -0.03375196 -0.0002793894 -0.043976724 0.04426448 -0.018036019 0.22087023
-0.010413597 -0.029933268 -0.04649009 -0.045789383 -0.042158764 0.021586379 -0.017055465 -0.08757315
0.022763401 0.016256798 0.2786461 0.0041756835 -0.089439556 -0.048014235 -0.0065751127 -0.033636536
0.036710776 0.01625481 -0.08422888 0.011831356 0.042399768 0.18815209 0.00044281117 -0.026070282
0.012643754 0.027581992 -0.00175662 -0.045988448 -0.003960015 -0.05264094 0.012447037 0.010105531
0.28448713 -0.044797886 -0.11267809 0.0040956284 -0.030467479 0.041577324 -0.043473046 0.0019359814
-0.08826577 0.05494552 0.0052341023 0.25253063 -0.037649054 -0.10201592 -0.016562471 -0.026725419
-0.026525449 -0.032846734 0.037415538 -0.04748406 0.051830072 -0.0012570401 0.23513427 -0.066069745
-0.11103633 -0.03778573 -0.05712589 0.032101605 -0.045558263 -0.00019432622 -0.07935117 0.04338802
0.014679916 0.2782954 0.012228019 -0.09485147 0.0459937 0.017417025 0.042568285 -0.012401091
-0.037388306 0.002226449 0.07315454 0.026934478 0.2678502 -0.0024839635 -0.03649248 0.015466009
-0.05449834 -0.052828826 -0.0075861504 0.0006197458 -0.0777817 0.028467858 0.0013087578 0.20524848
0.002919837 -0.035103478 -0.005099332 0.009694263 0.02375547 -0.04175169 -0.04266121 -0.092938446
0.07998855 -0.02690693 0.2609035 0.025801985 -0.09256594 0.013359611 -0.043812446 -0.025610758
-0.007947775 0.059591524 -0.08564069 0.06477704 -0.050592538 0.18689984 0.012726068 -0.09932342
-0.0046164813 -0.06290871 -0.019650158 0.018175274 0.045004297 -0.0014660364 0.07777887 -0.04570882
0.18319142 -0.022329766 -0.06072879 -0.009799843 -0.027160162 0.022274101 -0.035652004 0.051047534
0.052503414 -0.0026531478 0.02963035 0.18446933 -0.0047522243 -0.12149113 0.029914051 -0.008624131
-0.026659334 0.009822619 -0.026090043 0.030176714 0.006474653 0.022545204 0.21596359 0.01343876
-0.026315933 0.02809648 -0.045221094 -0.0072681447 0.016496493 0.0048962473 -0.038143195 0.05936709
-0.038224008 0.19409786 -0.0041781804 -0.047211345 0.033380765 0.027400026 -0.05528043 -0.03312681
0.030555168 0.035979185 0.034076035 -0.02428262 0.17283784 -0.008838567 -0.09973997 -0.022754082
-0.015831796 0.03094705 0.0524859 0.028454142 0.040939257 0.07867364 0.023415647 0.19825311
0.0061156605 -0.039613806 -0.013821363 -0.033470508 0.012446174 0.04759077 0.029558329 -0.033800673
00000000: 5080 a33c 0e4d 8abc dd19 8ebc a15d b0bc
00000010: 9539 383c d5c4 6e3e 998c 25b9 fd2d debd
00000020: 850c 32bd 6989 f93b 47ff 9c3b a210 273d
00000030: 90a7 e8bc 2bf3 82bd c05a 653d 84d9 41bc
00000040: 53ac 8c3e a847 86bd 2404 a7bd 6c60 3bbd
00000050: 5334 0b3d 4865 b53b 1cb8 703d e30d d4bc
00000060: 50da 09bd 2595 163d ae67 31bd e75b 623e
00000070: 0481 68bd cdaa dbbd 12a0 253d 17c9 653c
00000080: 296f 59bb b3e7 df3c 6bca fc3c de8a 8fbc
00000090: 2571 8e3b 026d 0a3d 41a1 983e bb0d 023d
000000a0: 54f6 f9bd 66f5 7cbc f579 2f3d 700c bc3c
000000b0: 13cc 263c 6252 443d 4c4d 33bc 7382 8d3d
000000c0: 3188 c3bc 6349 913e c07f 71bd eeac e9bd
000000d0: 4323 8bbc 46f5 3f3d 96c8 163d a1d8 23bd
000000e0: 6695 b03a 7c9c 3f3c e594 9a3b 765e 363d
000000f0: 9b96 4d3e 653b 3dbd cd5e 43bd 0269 613d
00000100: d206 983c 0ec5 2dbd 7f3f 0abd 037b 92b9
00000110: f020 34bd ac4e 353d 46c0 93bc ce2b 623e
00000120: cb9d 2abc 9d36 f5bc 656c 3ebd a68d 3bbd
00000130: abae 2cbd ebd5 b03c e7b7 8bbc 8d59 b3bd
00000140: 507a ba3c fa2c 853c b4aa 8e3e 2cd4 883b
00000150: 162c b7bd 93aa 44bd 0b74 d7bb 77c6 09bd
00000160: 0a5e 163d cf28 853c 3180 acbd 4ed8 413c
00000170: 61ab 2d3d f1aa 403e 1c29 e839 5891 d5bc
00000180: bf27 4f3c a1f3 e13c 633e e6ba 625e 3cbd
00000190: 03c3 81bb 079e 57bd a8ee 4b3c ab91 253c
000001a0: 4ca8 913e fd7d 37bd c5c3 e6bd 9f34 863b
000001b0: ef96 f9bc fc4c 2a3d cb10 32bd c2c0 fd3a
000001c0: afc4 b4bd 8e0e 613d d582 ab3b b24b 813e
000001d0: e535 1abd b9ed d0bd 05ae 87bc 44ef dabc
000001e0: e64b d9bc 4c8a 06bd 0941 193d a57e 42bd
000001f0: c54b 543d 44c3 a4ba 0ac7 703e 934f 87bd
00000200: 0467 e3bd 36c5 1abd d6fc 69bd f97c 033d
00000210: 4d9b 3abd 0cc4 4bb9 de82 a2bd a3b7 313d
00000220: 0884 703c bc7c 8e3e 0758 483c 7d41 c2bd
00000230: e463 3c3d 26ae 8e3c 155c 2e3d f22d 4bbc
00000240: 7b24 19bd 9ee9 113b 0cd2 953d b2a5 dc3c
00000250: a923 893e fec9 22bb 2479 15bd 2565 7d3c
00000260: a739 5fbd 0a63 58bd 3e95 f8bb 7076 223a
00000270: 034c 9fbd 6d35 e93c a08a ab3a a82c 523e
00000280: bc5a 3f3b aac8 0fbd 4c18 a7bb b0d4 1e3c
00000290: d59a c23c d203 2bbd 85bd 2ebd 8356 bebd
000002a0: 09d1 a33d ec6b dcbc 2595 853e af5e d33c
000002b0: 3693 bdbd 45e2 5a3c ae74 33bd a7cd d1bc
000002c0: 6237 02bc 3e16 743d 6364 afbd d3a9 843d
000002d0: 1f3a 4fbd ac62 3f3e ff80 503c 146a cbbd
000002e0: da45 97bb 48d6 80bd 5ef9 a0bc 50e4 943c
000002f0: 6d56 383d 0528 c0ba 874a 9f3d 2c39 3bbd
00000300: 8896 3b3e eaec b6bc c0be 78bd 858f 20bc
00000310: fd7e debc 2d78 b63c d607 12bd 3817 513d
00000320: d20d 573d 6fe0 2dbb 59bb f23c 87e5 3c3e
00000330: 8cb8 9bbb 57d0 f8bd 500e f53c 3a4c 0dbc
00000340: ad64 dabc 0def 203c c9ba d5bc 2835 f73c
00000350: 5329 d43b b8b0 b83c 8f25 5d3e 3f2e 5c3c
00000360: 8394 d7bc 972a e63c c139 39bd 9e29 eebb
00000370: a723 873c b370 a03b 0a3c 1cbd e82a 733d
00000380: c790 1cbd 97c1 463e 1ee9 88bb af60 41bd
00000390: 45ba 083d 0576 e03c bb6d 62bd faaf 07bd
000003a0: d54e fa3c e95e 133d 5093 0b3d 58ec c6bc
000003b0: 67fc 303e a3cf 10bc 7844 ccbd c566 babc
000003c0: afb1 81bc ab84 fd3c 75fb 563d a918 e93c
000003d0: ecaf 273d a51f a13d 2cd2 bf3c dd02 4b3e
000003e0: e165 c83b 1642 22bd 0073 62bc 5f18 09bd
000003f0: 0aeb 4b3c 8aee 423d 4f24 f23c 9372 0abd

network_smart.layer1.0.bias f4 [128]
-0.15690048 0.050609652 0.05735691 -0.009101688 0.11312108 -0.10393776 -0.11309688 -0.039032992
0.04080426 -0.1353606 -0.114443325 -0.0020556198 0.10192588 0.06338289 0.023516258 0.06588195
-0.08531239 0.0429332 -0.025897078 -0.024562113 -0.014446198 0.023722362 -0.030020306 0.04338134
-0.028400226 -0.010250703 -0.010173292 -0.012565066 0.024183817 -0.04112569 0.07511512 -0.231571
-0.18699582 -0.12045314 0.02735024 -0.04127851 -0.027982455 0.010060737 -0.0018357539 0.018010946
0.041328814 0.03051402 0.038862314 0.093459316 0.04952795 0.14005244 0.06842922 0.16439678
0.035957456 0.0037493403 -0.056132536 0.09745273 -0.0073157735 -0.012852704 0.042450592 -0.0032493267
0.011800569 0.03303557 0.10052676 0.14549387 0.017239137 0.03478409 -0.11897515 0.09491189
-0.022746526 0.00095710595 0.050033677 0.08200737 0.029717991 0.038153373 -0.005355338 -0.0065635596
0.010113182 0.048639998 0.0019184159 -0.024408983 0.054179434 0.011623014 -0.014070335 -0.12009872
0.13892415 0.048364967 0.019934623 0.18885377 -0.17325045 -0.119717024 0.08140966 0.12150493
-0.06601607 -0.096455544 0.08990701 0.13440579 0.104464106 0.025886154 -0.0519472 -0.0034669882
0.0053701135 -0.011122155 0.121996336 -0.0065804543 0.013571212 0.18123347 0.14338616 0.009693948
0.059072345 -0.059641305 -0.05913282 0.07563729 -0.05637917 -0.0055702454 -0.12652996 0.044527136
-0.17789653 0.055274565 0.005968339 -0.026638992 -0.061354317 -0.06733104 0.10907634 -0.13998504
0.11864559 -0.05514752 0.10138845 0.036026005 -0.031383414 0.057010334 0.025917184 -0.056212652
00000000: 85aa 20be 114c 4f3d 14ef 6a3d 3f1f 15bc
00000010: 06ac e73d 52dd d4bd 569f e7bd 0fe1 1fbd
00000020: 5e22 273d f89b 0abe 4361 eabd 94b7 06bb
00000030: 84be d03d e3ce 813d 2ba5 c03c 1eed 863d
00000040: 43b8 aebd b9da 2f3d 1c26 d4bc 7c36 c9bc
00000050: bfaf 6cbc 6655 c23c 25ed f5bc a2b0 313d
00000060: 97a7 e8bc 91f2 27bc e1ad 26bc b5dd 4dbc
00000070: 241d c63c 6973 28bd f5d5 993d f320 6dbe
00000080: d57b 3fbe 23b0 f6bd 9c0d e03c a813 29bd
00000090: 763b e5bc cad5 243c ae9d f0ba b18b 933c
000000a0: 6748 293d 8af8 f93c 172e 1f3d 9967 bf3d
000000b0: d2dd 4a3d e869 0f3e 9e24 8c3d a157 283e
000000c0: 2048 133d 7eb7 753b 3beb 65bd 4c95 c73d
000000d0: 28b9 efbb 2694 52bc ace0 2d3d a8f2 54bb
000000e0: 2c57 413c 4e50 073d f9e0 cd3d 58fc 143e
000000f0: 1739 8d3c c379 0e3d 3ea9 f3bd 2a61 c23d
00000100: ec56 babc 4be6 7a3a 1df0 4c3d 7bf3 a73d
00000110: 2573 f33c b646 1c3d d57b afbb 2113 d7bb
00000120: c2b1 253c bc3a 473d 5b73 fb3a 59f5 c7bc
00000130: 41eb 5d3d 746e 3e3c 4387 66bc 51f6 f5bd
00000140: 2242 0e3e 581a 463d ef4d a33c e262 413e
00000150: 9168 31be 332e f5bd 1cba a63d 94d7 f83d
00000160: 6f33 87bd 7c8a c5bd 2b21 b83d aca1 093e
00000170: 47f1 d53d 330f d43c 96c6 54bd 6936 63bb
00000180: c7f7 af3b b339 36bc 37d9 f93d daa0 d7bb
00000190: ca59 5e3c 4495 393e d2d3 123e 5dd3 1e3c
000001a0: d8f5 713d 714a 74bd 4235 72bd b9e7 9a3d
000001b0: d8ed 66bd 9b86 b6bb 1291 01be 1662 363d
000001c0: 822a 36be 9567 623d 0e92 c33b 043a dabc
000001d0: aa4e 7bbd dbe4 89bd 6b63 df3d 3d58 0fbe
000001e0: 76fc f23d 5ee2 61bd bfa4 cf3d 0190 133d
000001f0: e58b 00bd ab83 693d 4650 d43c 3d3f 66bd

network_smart.layer2.0.weight f4 [128, 128]
-0.12838706 0.0574906 0.19816622 0.018051557 0.0003728246 0.10914557 -0.2025931 -0.038022682
-0.09230383 0.05911844 0.001869725 0.089004494 -0.019515106 -0.1623103 0.1048511 -0.0064387186
0.22627197 -0.08764722 0.03182109 0.023011005 0.0155482 -0.13016066 -0.069169804 -0.20965675
0.042310517 0.0019769263 0.092821494 -0.06059577 -0.14967354 -0.053303186 0.028940083 -0.37552384
-0.15925185 0.07912485 0.002323781 -0.02879234 0.022666318 -0.05665009 0.15076365 -0.03132317
-0.0810309 -0.013826795 0.001491793 0.042824768 0.019153485 -0.050180253 0.109244026 0.13055494
0.033797875 0.010938877 -0.057667717 -0.024761941 0.080475196 0.16539335 -0.08833324 0.054630663
-0.058856707 -0.22529027 0.10813115 -0.0028695562 0.038865086 -0.017924117 0.07256766 0.072944865
-0.008687582 0.11267315 0.055117767 0.024396265 0.2974966 -0.039208177 0.019264726 -0.17317495
-0.15034483 -0.07209504 -0.3637517 0.048813254 0.25218242 -0.029570183 -0.037783753 -0.27098835
-0.044019256 -0.03091784 0.075554974 -0.17433 -0.20600894 0.13410966 0.06032565 0.038331073
0.007884917 -0.002481086 -0.092724 0.059447557 0.052197028 0.102961875 0.044367503 0.17269109
0.12505053 0.01830834 -0.07579156 0.0059916517 -0.074813016 0.018865278 0.029540211 0.13660276
-0.01718255 -0.10711612 0.045034148 0.0414498 -0.10735575 0.121592015 0.032197822 -0.20956908
-0.019963272 -0.031229818 0.15167706 -0.064224325 -0.08253327 -0.017366178 -0.14412703 -0.2832364
0.028179867 -0.02585236 0.024941629 -0.28677648 -0.0076312413 -0.23742402 -0.0069817356 -0.085637614
-0.1602728 0.0040591736 0.010553073 -0.039547335 -0.07245998 -0.006683457 0.29575294 0.012336034
-0.06794937 -0.5237 0.10795116 0.099948466 0.101145454 -0.2677874 -0.027898384 -0.0016716664
-0.13230392 0.057844684 -0.013126253 0.020025013 0.09275844 0.065761104 0.0053693727 0.059429295
-0.021657238 -0.120227896 -0.128422 0.06344579 -0.2251584 0.055750236 0.06422808 -0.3067177
-0.073903255 0.18602233 0.042264853 -0.068854965 -0.030636506 0.06133797 -0.7282331 -0.058547404
0.09670953 -0.05558926 0.14502399 0.16949837 -0.11004857 -0.0343113 0.10782527 0.06341027
0.041267104 -0.33212122 0.025737602 0.014262464 0.08724251 0.044902787 -0.099875115 -0.020090213
-0.0800991 0.02553046 -0.011275289 -0.06063572 0.0037443773 0.041636918 -0.09376635 0.10576195
0.08011534 -0.03170052 -0.06853077 -0.0020254506 0.30841812 -0.107314564 -0.058000512 0.086912
-0.09866299 0.10687777 -0.4653464 -0.012360808 -0.11671831 0.010518217 -0.05821173 0.34893706
0.08957283 0.06620759 0.12732925 -0.10198805 -0.19391198 -0.24395616 0.16186167 -0.1126167
0.063884884 -0.059259884 0.15707183 0.1509196 -0.036561567 0.36920092 0.041913766 0.0939007
-0.119903944 -0.10134198 0.118360505 -0.11933279 0.1292001 0.3042383 0.03529877 -0.09755508
-0.0010017955 0.02002469 0.01335728 0.0066712424 -0.03666671 -0.099084936 -0.07331934 -0.060536634
0.14009899 0.014600551 -0.10042124 -0.103226796 0.009846288 -0.0617678 0.05661161 0.37016547
0.2198816 -0.049580332 0.08812116 -0.081813335 -0.05502242 -0.33275625 0.08603793 -0.041028373
00000000: e677 03be 437b 6b3d 16ec 4a3e dce0 933c
00000010: ac77 c339 b687 df3d 9174 4fbe acbd 1bbd
00000020: ca09 bdbd 2d26 723d 8f11 f53a fd47 b63d
00000030: 25de 9fbc ac34 26be 2cbc d63d e3fb d2bb
00000040: d7b3 673e 6380 b3bd d556 023d 9381 bc3c
00000050: e1bd 7e3c d648 05be e6a8 8dbd 42b0 56be
00000060: cb4d 2d3d 528f 013b 3219 be3d 4533 78bd
00000070: 0544 19be 7154 5abd c113 ed3c a944 c0be
00000080: eb12 23be 360c a23d 934a 183b eadd ebbc
00000090: b7ae b93c ed09 68bd c961 1a3e b94c 00bd
000000a0: 87f3 a5bd c889 62bc 4488 c33a 0669 2f3d
000000b0: c5e7 9c3c cf89 4dbd 55bb df3d 32b0 053e
000000c0: a46f 0a3d fa38 333c fc34 6cbd 8ed9 cabc
000000d0: 2ed0 a43d e05c 293e 0fe8 b4bd 67c4 5f3d
000000e0: bb13 71bd 7eb2 66be dd73 dd3d 2a0f 3cbb
000000f0: ff30 1f3d 99d5 92bc 5a9e 943d 1e64 953d
00000100: 5c56 0ebc 2ec1 e63d 2bc3 613d adda c73c
00000110: 7951 983e c198 20bd 0fd1 9d3c c654 31be
00000120: fff3 19be 90a6 93bd aa3d babe 68f0 473d
00000130: 0e1e 813e 2b3d f2bc 23c3 1abd fcbe 8abe
00000140: 894d 34bd 6947 fdbc 91bc 9a3d 9083 32be
00000150: 02f4 52be 0b54 093e 0718 773d 0b01 1d3d
00000160: bd2f 013c b799 22bb 15e6 bdbd 487f 733d
00000170: 8dcc 553d addd d23d b3ba 353d efd5 303e
00000180: 3f0d 003e 5ffb 953c 9b38 9bbd 9e55 c43b
00000190: 9137 99bd 5b8b 9a3c 50fe f13c 98e1 0b3e
000001a0: 6bc2 8cbc b25f dbbd ba75 383d 44c7 293d
000001b0: 55dd dbbd 3c05 f93d dde1 033d 4799 56be
000001c0: 048a a3bc add5 ffbc 3b51 1b3e 0b88 83bd
000001d0: 3407 a9bd 8443 8ebc 0996 13be 5d04 91be
000001e0: 77d9 e63c 54c8 d3bc 6352 cc3c 5ed4 92be
000001f0: 7e0f fabb 481f 73be 0bc7 e4bb c662 afbd
00000200: 8e1e 24be d102 853b cce6 2c3c 63fc 21bd
00000210: e665 94bd e700 dbbb ee6c 973e 141d 4a3c
00000220: 0a29 8bbd 3411 06bf 7f15 dd3d c8b1 cc3d
00000230: 5925 cf3d 6e1b 89be 278b e4bc d11b dbba
00000240: ae7a 07be 8cee 6c3d 7f0f 57bc 7f0b a43c
00000250: 23f8 bd3d c2ad 863d 90f1 af3b 226c 733d
00000260: 856a b1bc 0b3a f6bd 0f81 03be deef 813d
00000270: ec8f 66be 5c5a 643d 038a 833d 1a0a 9dbe
00000280: 975a 97bd a37c 3e3e e91d 2d3d d503 8dbd
00000290: 69f9 fabc 863d 7b3d 7c6d 3abf 67cf 6fbd
000002a0: a50f c63d 90b1 63bd 2b81 143e fb90 2d3e
000002b0: 2561 e1bd 018a 0cbd 7fd3 dc3d 3edd 813d
000002c0: b207 293d cb0b aabe aad7 d23c 1cad 693c
000002d0: 33ac b23d fceb 373d 538b ccbd 3b94 a4bc
000002e0: ff0a a4bd 4125 d13c fdbb 38bc 295d 78bd
000002f0: 3a64 753b 798b 2a3d 9208 c0bd b999 d83d
00000300: 8313 a43d 68d8 01bd dc59 8cbd 6cbd 04bb
00000310: fbe8 9d3e bdc7 dbbd f291 6dbd ebfe b13d
00000320: d20f cabd bbe2 da3d e241 eebe fd84 4abc
00000330: 020a efbd 9a54 2c3c 6c6f 6ebd e1a7 b23e
00000340: f671 b73d d897 873d 9962 023e 1cdf d0bd
00000350: dd90 46be a5cf 79be 11bf 253e 96a3 e6bd
00000360: 14d6 823d 7eba 72bd 70d7 203e ab8a 1a3e
00000370: 95c1 15bd e707 bd3e c5ad 2b3d 034f c03d
00000380: 3390 f5bd 628c cfbd fe66 f23d c064 f4bd
00000390: 084d 043e 1fc5 9b3e 7195 103d f5ca c7bd
000003a0: ae4e 83ba d20a a43c 7ed8 5a3c 709a da3b
000003b0: d52f 16bd 0bed cabd 7328 96bd 43f5 77bd
000003c0: 1c76 0f3e 2637 6f3c a7a9 cdbd 9268 d3bd
000003d0: 5352 213c 3c00 7dbd 93e1 673d 5486 bd3e
000003e0: a428 613e bf14 4bbd de78 b43d c08d a7bd
000003f0: 305f 61bd 075f aabe a734 b03d 5e0d 28bd

network_smart.layer2.0.bias f4 [128]
0.04084081 0.085135095 -0.12983511 -0.03137315 -0.16563547 0.029525638 0.016620612 -0.03714908
0.045981675 -0.05145278 -0.15244234 0.061998613 -0.05903828 0.14926115 0.092590556 -0.024147099
-0.10190176 0.05616932 -0.077579156 -0.08073457 0.0029806378 0.0527073 0.08126843 0.03779036
0.08889139 0.100202 -0.210177 -0.09643607 0.038389478 0.065059036 0.028674912 0.06495956
0.0033668643 -0.04831016 0.027954606 -0.27552435 0.10239376 -0.030368743 -0.0051925234 0.012585872
-0.08295595 -0.07387808 0.05723647 0.0008867009 -0.18197317 -0.062281247 0.09247783 -0.010574491
0.027623355 0.08244775 -0.079860136 0.005853632 -0.16802819 0.06809239 -0.14788558 0.053945057
-0.017719274 0.012099043 -0.08127974 0.09705545 -0.03561617 0.01184794 -0.035359867 -0.017412003
-0.008582609 0.09479948 -0.03208536 -0.08946135 0.030704442 0.028755361 0.031133177 0.04215898
0.018753769 0.011419599 -0.15249781 -0.047008082 -0.12067092 0.048991486 0.06947689 0.07260343
0.081422135 -0.06514489 0.0340841 0.037799824 0.0932504 0.084633514 0.07106246 -0.041109752
0.0722111 0.0073493123 -0.0014906226 0.047411576 0.00041879545 -0.04810711 0.032561567 0.035444494
0.03035746 -0.008274644 0.048266187 -0.13994941 -0.008836113 -0.045433536 -0.028525652 0.11330965
0.06632153 -0.009378165 0.027019849 0.07605064 0.035962716 0.068258785 0.0009542393 -0.07010957
-0.09432462 -0.03499233 0.04738972 0.0224913 -0.27357128 -0.077134065 -0.13010386 -0.07007984
-0.07267719 0.05154831 0.0022204972 0.11983288 -0.05298329 -0.13995193 -0.038602762 -0.02641182
00000000: b148 273d 4f5b ae3d 7ff3 04be 2281 00bd
00000010: 589c 29be c0df f13c f327 883c a229 18bd
00000020: 4857 3c3d 26c0 52bd d819 1cbe 42f2 7d3d
00000030: 20d2 71bd ead7 183e 1ea0 bd3d 23d0 c5bc
00000040: dfb1 d0bd cd11 663d d2e1 9ebd 2b58 a5bd
00000050: ce56 433b 9ce3 573d 1070 a63d 11ca 1a3d
00000060: b00c b63d b536 cd3d a438 57be 4680 c5bd
00000070: 493e 1d3d ac3d 853d a6e7 ea3c 8509 853d
00000080: 9ca6 5c3b e0e0 45bd 0f01 e53c 8711 8dbe
00000090: d2b3 d13d dfc7 f8bc 0b26 aabb f934 4e3c
000000a0: cfe4 a9bd 644d 97bd ca70 6a3d 7d71 683a
000000b0: 2d57 3abe 9f1a 7fbd 0465 bd3d a140 2dbc
000000c0: 604a e23c 5eda a83d b68d a3bd d3cf bf3b
000000d0: 950f 2cbe 0674 8b3d 516f 17be 7ef5 5c3d
000000e0: 0328 91bc 103b 463c fe75 a6bd 02c5 c63d
000000f0: 43e2 11bd dd1d 423c 82d5 10bd 9ea3 8ebc
00000100: 129e 0cbc 3b26 c23d f06b 03bd 8337 b7bd
00000110: e287 fb3c 5d90 eb3c 010b ff3c e5ae 2c3d
00000120: 81a1 993c 4519 3b3c 6328 1cbe 8c8b 40bd
00000130: 5122 f7bd 4cab 483d e649 8e3d 1bb1 943d
00000140: a6c0 a63d af6a 85bd c59b 0b3d fdd3 1a3d
00000150: 11fa be3d 5654 ad3d 3289 913d b362 28bd
00000160: 6ae3 933d 80d2 f03b ff60 c3ba a432 423d
00000170: c691 db39 f60b 45bd 475f 053d 3f2e 113d
00000180: 35b0 f83c 5f92 07bc c4b2 453d e64e 0fbe
00000190: 58c5 10bc 8418 3abd a1ae e9bc e40e e83d
000001a0: 95d3 873d e0a6 19bc bb58 dd3c 70c0 9b3d
000001b0: a44d 133d 43cb 8b3d ea25 7a3a 9b95 8fbd
000001c0: 442d c1bd 1e54 0fbd b91b 423d ad3f b83c
000001d0: 8911 8cbe 77f8 9dbd f239 05be 0586 8fbd
000001e0: c7d7 94bd 5224 533d c385 113b f16a f53d
000001f0: 0205 59bd 8f4f 0fbe ee1d 1ebd 9a5d d8bc

network_smart.layer3.0.weight f4 [48, 128]
0.087510906 -0.13660322 -0.24592891 0.036156334 -0.16849697 -0.00884943 -0.014211248 0.2009679
0.062499244 0.042978328 -0.18137461 0.03369512 0.04561931 0.04154832 0.11925284 0.028437953
0.17068788 -0.044999592 0.005717283 -0.0046822266 0.021465464 -0.5043715 0.12454537 -0.033441473
0.057541005 0.05535528 -0.59759337 -0.031153902 -1.0766071 0.10897447 -1.0717155 0.08243432
-0.041001447 0.016210994 -0.13225381 0.19452696 -0.4110457 -0.036212217 0.0662882 -0.07129717
-0.03214386 -0.07615283 -0.006385588 0.013132372 0.053416375 0.03842124 0.085063145 0.045560244
-0.6553831 0.00071714923 -0.34206414 0.20033072 -0.37024537 0.00026930886 0.5167239 0.04274486
-0.089470625 -0.47038305 -0.04570779 0.08719423 0.042026777 0.022672202 -0.3446164 -0.07217999
0.06911653 0.105006196 -0.37406594 0.08267475 0.07383785 -0.32351544 -0.3369147 -0.064938664
-0.074036494 0.0032458014 -0.55191654 0.27567318 -0.94008 0.09501973 -0.004745569 -0.06396503
0.05801667 0.023729125 -0.14787121 -0.20976956 0.06861324 -0.3183039 0.104065366 0.062961996
-0.04882417 -0.07707823 0.058324043 -0.08718949 -0.08396473 -0.06834133 -0.057845306 0.023263061
0.1348359 -0.024816178 -0.006731598 -0.22322904 0.072492205 -0.1276575 -0.13735695 0.13360892
-0.048270583 -0.019969054 0.08138769 -0.10296197 0.02293837 0.09481875 -0.28327137 -0.050715275
-0.021399267 0.09478633 0.06982832 -0.06316493 0.12311237 -0.24216095 -0.14297247 0.08193761
0.07886158 0.12208894 0.20549828 0.04651674 0.00881861 0.079013005 -0.05596978 0.022604682
0.016685685 -0.12130809 0.027798494 -0.008654034 0.012030962 0.041827537 0.0077445917 -0.0743829
0.024962237 -0.09177729 0.180071 0.09321947 -0.040796492 -0.013327537 0.029828796 0.054553296
0.085896775 -0.07452484 0.062410153 -0.07562443 -0.09094733 -0.20559728 0.0642324 0.033175983
0.03793972 0.07869313 0.024853427 0.039764013 -0.21488692 0.06621919 -0.16977608 -0.12710592
-0.12012403 0.036907773 -0.084108494 -0.09107893 -0.075985454 0.017086724 0.06017861 0.013194114
0.040113125 -0.060441997 -0.06509755 -0.0019159674 -0.026903851 0.056245293 -0.07618456 -0.021131394
-0.1786166 0.11261233 -0.0656711 0.1998557 -0.1652072 -0.033799335 0.15837353 0.07284986
-0.090809844 -0.42859793 -0.012605673 -0.10963632 0.06113919 0.028220966 -0.15159868 0.11377744
0.07466945 -0.0150724575 -0.5581981 0.06745559 -0.09095848 -0.11777482 -0.20997739 -0.059665997
-0.039682113 0.010639864 0.042930406 0.31401694 -0.11784085 -0.08065206 0.02928365 0.053485475
0.014926917 0.011046573 -0.0046028197 -0.18035465 -0.049356468 -0.09815046 -0.052183673 -0.06514015
0.03294812 0.0373293 0.005083541 -0.07281882 -0.005822586 -0.1051549 -0.16891488 0.033801652
0.10059914 -0.03471567 0.01317008 -0.13999978 0.024800723 0.034463797 0.06488698 -0.07239898
0.06058219 -0.03349676 0.05182746 0.026569359 -0.022139456 -0.085358754 0.0132781835 -0.0073148445
-0.053289637 0.064578585 0.11326313 0.10647905 -0.1310536 -0.043298926 0.08064998 0.0037305488
0.07461553 0.15764771 0.15769577 0.00023020379 -0.028070705 0.1169665 -0.008727478 0.014416089
00000000: eb38 b33d b7e1 0bbe cad4 7bbe aa18 143d
00000010: 788a 2cbe 33fd 10bc 4bd6 68bc 87ca 4d3e
00000020: 35ff 7f3d 0b0a 303d 44ba 39be e503 0a3d
00000030: 50db 3a3d 922e 2a3d d53a f43d b6f6 e83c
00000040: cec8 2e3e 7e51 38bd 0c58 bb3b 5d6d 99bb
00000050: 57d8 af3c 7e1e 01bf a511 ff3d edf9 08bd
00000060: 1eb0 6b3d 38bc 623d e1fb 18bf 7836 ffbc
00000070: 43ce 89bf 022e df3d f92d 89bf 53d3 a83d
00000080: 22f1 27bd ebcc 843c 8b6d 07be 1332 473e
00000090: 9574 d2be 4353 14bd 1cc2 873d 4004 92bd
000000a0: 48a9 03bd 04f6 9bbd 323e d1bb 2929 573c
000000b0: 21cb 5a3d 975f 1d3d 9635 ae3d 619d 3a3d
000000c0: 30c7 27bf 12ff 3b3a 0823 afbe 7f23 4d3e
000000d0: cd90 bdbe 0632 8d39 0448 043f 3c15 2f3d
000000e0: 603c b7bd 0cd6 f0be 1738 3bbd e392 b23d
000000f0: 4524 2c3d 0ebb b93c 9071 b0be 1ad3 93bd
00000100: f88c 8d3d 7d0d d73d 9285 bfbe 6151 a93d
00000110: 4c38 973d d1a3 a5be 1580 acbe 90fe 84bd
00000120: 72a0 97bd 83b7 543b 674a 0dbf 0925 8d3e
00000130: 15a9 70bf b499 c23d b880 9bbb 1900 83bd
00000140: e3a2 6d3d 9563 c23c 8d6b 17be d5cd 56be
00000150: 1985 8c3d bbf8 a2be 3920 d53d 38f2 803d
00000160: dafb 47bd 31db 9dbd 31e5 6e3d 6790 b2bd
00000170: b3f5 abbd 8af6 8bbd 33ef 6cbd 2d92 be3c
00000180: 6c12 0a3e 4c4b cbbc bd94 dcbb 2796 64be
00000190: cb76 943d a6b8 02be 4da7 0cbe c7d0 083e
000001a0: 60b7 45bd 2496 a3bc 97ae a63d badd d2bd
000001b0: 40e9 bb3c 5530 c23d f208 91be d2ba 4fbd
000001c0: 844d afbc 561f c23d 2602 8f3d 9d5c 81bd
000001d0: 5722 fc3d 0af9 77be 6067 12be e8ce a73d
000001e0: 2e82 a13d c409 fa3d 246e 523e 5688 3e3d
000001f0: ee7b 103c 92d1 a13d 9140 65bd 742d b93c
00000200: 6bb0 883c 6070 f8bd abb9 e33c a6c9 0dbc
00000210: 831d 453c 5a53 2b3d 58c6 fd3b 1056 98bd
00000220: 9b7d cc3c bbf5 bbbd 8864 383e d9e9 be3d
00000230: 391a 27bd be5b 5abc 855b f43c 4773 5f3d
00000240: a6ea af3d 7ba0 98bd caa1 7f3d fbe0 9abd
00000250: 9842 babd 1888 52be 478c 833d 8ae3 073d
00000260: ae66 1b3d dd29 a13d 6a99 cb3c 97df 223d
00000270: 510b 5cbe ed9d 873d c8d9 2dbe 0e28 02be
00000280: 9603 f6bd 9b2c 173d 1341 acbd 9787 babd
00000290: 439e 9bbd 75f9 8b3c d97d 763d 202c 583c
000002a0: a94d 243d 0792 77bd dd51 85bd 3321 fbba
000002b0: 7765 dcbc 7761 663d a706 9cbd bf1b adbc
000002c0: 45e7 36be 4ba1 e63d 927e 86bd f9a6 4c3e
000002d0: 142c 29be 2c71 0abd ac2c 223e 4f32 953d
000002e0: 83fa b9bd 3071 dbbe 0688 4ebc 0289 e0bd
000002f0: 166d 7a3d a82f e73c af3c 1bbe 2504 e93d
00000300: 4cec 983d 78f2 76bc 12e6 0ebf 2826 8a3d
00000310: 7148 babd ed33 f1bd 5004 57be 5564 74bd
00000320: b689 22bd d352 2e3c cbd7 2f3d d4c6 a03e
00000330: 8b56 f1bd e82c a5bd 44e4 ef3c 9613 5b3d
00000340: 0790 743c affc 343c 40d3 96bb e4ae 38be
00000350: 022a 4abd 1c03 c9bd 8cbe 55bd 3368 85bd
00000360: 9cf4 063d 9ce6 183d d593 a63b 0922 95bd
00000370: 64cb bebb 745b d7bd 06f8 2cbe 9a73 0a3d
00000380: ec06 ce3d 0532 0ebd 52c7 573c 1a5c 0fbe
00000390: e32a cb3c e929 0d3d 77e3 843d eb45 94bd
000003a0: 0825 783d e633 09bd 0849 543d fca7 d93c
000003b0: ce5d b5bc 92d0 aebd bd8c 593c 5db1 efbb
000003c0: 3c46 5abd c741 843d 80f6 e73d b011 da3d
000003d0: ea32 06be 375a 31bd d12b a53d 397c 743b
000003e0: 07d0 983d 676e 213e 007b 213e dc62 7139
000003f0: 89f4 e5bc 228c ef3d b2fd 0ebc 7631 6c3c

network_smart.layer3.0.bias f4 [48]
0.027758168 0.08253502 -0.015030596 0.08298524 -0.07882121 0.015096373 0.07171017 0.051707428
-0.11293008 0.070187695 0.04630933 0.051480476 0.029290996 0.041313928 0.00021844065 0.08746714
-0.03318386 -0.017567893 0.06132595 0.025599562 0.050897643 -0.08870022 0.020999297 0.03994125
-0.0022142974 -0.03799681 -0.07969858 -0.044061117 -0.02888649 -0.061694834 0.04696334 0.006119889
-0.03028264 0.006459284 -0.040397793 0.016065529 0.074867144 0.06217322 -0.13028125 -0.007969611
0.065184176 -0.038972702 -0.016014751 -0.14612575 0.09608007 0.014785161 -0.21538235 -0.04050963
00000000: 1965 e33c 1f08 a93d e442 76bc 2af4 a93d
00000010: 046d a1bd c756 773c c8dc 923d 2bcb 533d
00000020: e347 e7bd 91be 8f3d daae 3d3d 31dd 523d
00000030: acf3 ef3c cb38 293d 370d 6539 f921 b33d
00000040: cdeb 07bd 8bea 8fbc eb30 7b3d 2cb6 d13c
00000050: 0c7a 503d 76a8 b5bd b806 ac3c 7099 233d
00000060: bf1d 11bb 8ba2 1bbd 0239 a3bd 6e79 34bd
00000070: 5ca3 ecbc b9b3 7cbd a25c 403d 5a89 c83b
00000080: 4d13 f8bc 67a8 d33b 2878 25bd db9b 833c
00000090: f253 993d 59a9 7e3d 7368 05be f992 02bc
000000a0: 487f 853d d7a1 1fbd 5e31 83bc fda1 15be
000000b0: a1c5 c43d 763d 723c 318d 5cbe 6ded 25bd

fc_smart.weight f4 [64, 48]
-0.1495222 0.014443397 0.5990142 0.04541228 0.123957 0.025715351 0.13080311 -0.07990015
-0.025917912 0.045599237 -0.2351038 -0.26045915 -0.11318399 -0.17711653 -0.07754824 0.5275778
0.4071977 0.013920042 -0.08106171 -0.18471089 -0.19134642 -0.114616916 0.6460147 -0.16513847
-0.19198477 -0.2205034 0.23603806 0.0481929 -0.23931971 0.3927425 -0.10369293 -0.15378201
-0.13336185 0.14076927 -0.05315808 -0.31765372 -0.37482312 -0.19941485 -0.08374316 -0.13239025
-0.08629627 0.009409982 0.32566938 0.39705092 -0.14346996 0.43996757 -0.10108839 -0.37175074
0.25262886 0.0011877444 -0.77445376 0.110778466 -0.02177798 0.101641014 -0.13577747 0.17612712
0.49682948 0.024802146 -0.14671467 0.27011678 0.08484054 0.083338805 0.10727177 0.75795263
-0.19187437 -0.022254452 -0.08058645 -0.077394664 -0.106149025 -0.026452454 -0.300042 0.34716165
-0.054850806 0.18459772 -0.4097792 -0.03796472 0.26887524 -0.13338208 -0.02297309 0.15027231
-0.06265037 -0.0999867 -0.0856324 0.4059332 0.08995125 0.16107205 0.02903541 0.011045377
-0.064973824 -0.19348973 -0.47440362 -0.0050194613 -0.08119559 -0.5058368 0.16457045 -0.17821199
-0.37258863 0.05232785 0.6123695 -0.08092982 0.10218391 -0.043117244 0.19403933 -0.15493472
-0.39102748 0.17237182 -0.077273495 -0.3673952 0.056923892 -0.33987635 0.07284448 -0.7115641
0.37909433 0.113548934 -0.16617216 0.02085716 0.08727735 0.06352878 0.3674861 -0.16324405
0.0022775084 -0.34694475 0.5181094 -0.10513381 -0.4251043 -0.023847358 0.19007806 -0.041177664
0.10979516 0.23173243 0.026116537 -0.31198534 -0.3592688 -0.10743181 -0.17457327 0.038624953
-0.016827086 0.16033357 0.59592927 0.099571034 0.07306444 0.606014 -0.36894146 0.28950593
0.08083504 -0.049444266 -0.5228757 0.010014708 -0.12088124 0.019912979 -0.024546808 0.16111568
0.2090353 -0.13374816 -0.0017961572 0.11935648 -0.20103627 0.03725205 -0.038698435 0.5864
-0.06449664 0.071084455 -0.039155513 -0.016567254 -0.004752488 -0.086136684 -0.1550599 0.10378943
-0.14809604 0.14020056 -0.23688604 -0.024612779 0.20817335 0.17835306 -0.15085107 0.17916813
0.02338515 -0.118764445 -0.010462801 0.18508816 -0.06206953 -0.11441749 0.06174851 -0.086201355
-0.09558349 -0.082686156 -0.23613185 -0.10634824 -0.16949633 -0.25739264 0.033061206 -0.23999663
-0.3288711 -0.09539704 0.6665501 -0.15014811 -0.024637982 -0.0134390285 0.16636094 -0.2241091
-0.49862066 0.16299084 0.14001048 -0.3111617 0.12989755 -0.17968237 0.095669955 -0.86113435
0.2767199 -0.036199115 0.020274991 0.11972027 0.013393833 0.104645796 0.2000514 -0.27812454
0.19829646 -0.2657148 0.4009775 -0.04120609 -0.31216183 -0.1295665 0.009116533 -0.07743132
-0.058901694 0.12141887 -0.031670347 -0.33300737 -0.17386511 -0.0022186036 -0.08301159 0.13372417
0.058595944 0.2560891 0.58701295 -0.2324794 -0.03184087 0.52091223 -0.3462386 0.36554495
0.31584162 0.019162111 -0.5854381 -0.021271441 -0.0044506537 0.25618327 -0.1430393 0.14088719
0.51025456 -0.104897 0.016597703 0.30674195 0.07275522 0.31013688 -0.03374179 0.59613895
00000000: 591c 19be ffa3 6c3c ff58 193f 3a02 3a3d
00000010: 2bdd fd3d 00a9 d23c 40f1 053e b1a2 a3bd
00000020: cd51 d4bc 44c6 3a3d 0dbf 70be e75a 85be
00000030: 02cd e7bd 095e 35be 9dd1 9ebd 570f 073f
00000040: 387c d03e e310 643c af03 a6bd da24 3dbe
00000050: 51f0 43be 46bc eabd 3861 253f 0f1a 29be
00000060: a897 44be a5cb 61be f6b3 713e eb65 453d
00000070: 3a10 75be 8c15 c93e f55c d4bd 0879 1dbe
00000080: 0290 08be d225 103e 49bc 59bd 82a3 a2be
00000090: d1e8 bfbe 6833 4cbe 8981 abbd 4f91 07be
000000a0: 19bc b0bd 532c 1a3c 23be a63e 424a cb3e
000000b0: cae9 12be 6e43 e13e 6e07 cfbd 1d56 bebe
000000c0: 9258 813e 17ae 9b3a 9a42 46bf d2df e23d
000000d0: bc67 b2bc 2a29 d03d 4009 0bbe ab5a 343e
000000e0: 6f60 fe3e df2d cb3c 5f3c 16be bf4c 8a3e
000000f0: e1c0 ad3d 89ad aa3d 4db1 db3d 2f09 423f
00000100: b77a 44be f84e b6bc 820a a5bd 1881 9ebd
00000110: a964 d9bd d1b2 d8bc 1b9f 99be 2cbf b13e
00000120: 3dab 60bd 2f07 3d3e 94ce d1be e580 1bbd
00000130: 04aa 893e 5095 08be 1032 bcbc fce0 193e
00000140: d64e 80bd d4c5 ccbd 0a60 afbd 7ad6 cf3e
00000150: 5c38 b83d 12f0 243e abdb ed3c abf7 343c
00000160: ff10 85bd 2c22 46be 08e5 f2be 4b7a a4bb
00000170: e049 a6bd 857e 01bf 2885 283e 347d 36be
00000180: f0c3 bebe ba55 563d 3fc4 1c3f 89be a5bd
00000190: cc45 d13d b59b 30bd 3fb2 463e 35a7 1ebe
000001a0: c134 c8be 3d82 303e 9141 9ebd 391b bcbe
000001b0: 0729 693d 4604 aebe 7d2f 953d 1129 36bf
000001c0: a718 c23e 588c e83d 0929 2abe a3dc aa3c
000001d0: 78be b23d 611b 823d 2327 bc3e 7329 27be
000001e0: 4042 153b bea2 b1be d1a2 043f 6550 d7bd
000001f0: 45a7 d9be 895b c3bc d3a3 423e e9a9 28bd
00000200: 49dc e03d 444b 6d3e 59f2 d53c 8bbc 9fbe
00000210: 15f2 b7be 3505 dcbd 56c3 32be 3335 1e3d
00000220: f5d8 89bc 7c2e 243e d28e 183f e6eb cb3d
00000230: cfa2 953d bc23 1b3f e5e5 bcbe 1f3a 943e
00000240: d78c a53d 1286 4abd 2fdb 05bf bb14 243c
00000250: 9590 f7bd 8b20 a33c 6316 c9bc 82fb 243e
00000260: 5a0d 563e 47f5 08be 096d ebba 2c71 f43d
00000270: 74dc 4dbe 9b95 183d 4082 1ebd 4f1e 163f
00000280: d016 84bd ba94 913d 8861 20bd 0db8 87bc
00000290: c2ba 9bbb 6e68 b0bd 06c8 1ebe 8d8f d43d
000002a0: 7da6 17be bc90 0f3e 4192 72be bda0 c9bc
000002b0: 652b 553e 2fa2 363e b478 1abe da77 373e
000002c0: 3792 bf3c c63a f3bd 2b6c 2bbc c087 3d3e
000002d0: 9f3c 7ebd b853 eabd 01ec 7c3d 568a b0bd
000002e0: 47c1 c3bd 5c57 a9bd 8ccc 71be 1bcd d9bd
000002f0: 7290 2dbe f8c8 83be 306b 073d adc1 75be
00000300: cb61 a8be 865f c3bd 07a3 2a3f 6dc0 19be
00000310: 98d5 c9bc 5f2f 5cbc 865a 2a3e db7c 65be
00000320: 354b ffbe 12e7 263e e85e 0f3e 9650 9fbe
00000330: dd03 053e a8fe 37be 9cee c33d 4d73 5cbf
00000340: 3bae 8d3e 8645 14bd bd17 a63c e72f f53d
00000350: cf71 5b3c 8950 d63d 46da 4c3e 5766 8ebe
00000360: 3a0e 4b3e c50b 88be ec4c cd3e b8c7 28bd
00000370: add3 9fbe 15ad 04be 835d 153c 5094 9ebd
00000380: e742 71bd 75aa f83d c4b8 01bd f17f aabe
00000390: b209 32be fe65 11bb fb01 aabd fdee 083e
000003a0: 4d02 703d 1c1e 833e 7b46 163f 140f 6ebe
000003b0: 926b 02bd 815a 053f 3046 b1be b528 bb3e
000003c0: feb5 a13e dcf9 9c3c 45df 15bf 7241 aebc
000003d0: cad6 91bb 742a 833e e578 12be bb44 103e
000003e0: 0ba0 023f 3dd4 d6bd e8f7 873c 480d 9d3e
000003f0: b000 953d 43ca 9e3e d534 0abd 909c 183f

fc_smart.bias f4 [64]
0.082480416 0.0059595616 0.05757224 -0.006730457 0.006190204 -0.09839412 0.04335605 -0.1413224
0.07954281 -0.0152152525 0.003856563 0.05513339 0.0074869897 0.09654625 -0.09404736 -0.10183986
-0.05190101 0.1387378 -0.103158034 0.06138366 0.08438342 -0.033286154 -0.04106587 0.09245007
-0.07917707 0.06909362 0.037352696 0.11526355 -0.052995183 -0.07021331 -0.012734455 -0.106847115
0.081495084 -0.12285151 0.020321883 0.029993938 0.030952934 -0.02660324 0.003086447 0.032268815
0.024402248 -0.08477148 0.04512153 -0.08236221 0.028812818 -0.102764316 -0.008984478 -0.10207048
0.016685907 0.10993486 -0.0706943 0.022532078 0.036303863 0.054765906 0.023231566 0.027539436
0.037756912 -0.050757572 0.08219493 -0.13500655 0.09458805 0.033310402 0.09799039 0.045793902
00000000: 7eeb a83d 6d48 c33b ded0 6b3d 2a8b dcbb
00000010: 32d7 ca3b db82 c9bd 1d96 313d d2b6 10be
00000020: 57e7 a23d 6549 79bc 64be 7c3b 8dd3 613d
00000030: 6c55 f53b 0aba c53d e79b c0bd 6b91 d0bd
00000040: 2796 54bd 4811 0e3e 8544 d3bd 6f6d 7b3d
00000050: 37d1 ac3d 1057 08bd b034 28bd 7656 bd3d
00000060: 9627 a2bd f580 8d3d 24ff 183d 4c0f ec3d
00000070: 7a11 59bd ffcb 8fbd 2da4 50bc a9d2 dabd
00000080: e5e6 a63d 9399 fbbd 147a a63c d9b5 f53c
00000090: 0291 fd3c 0aef d9bc fd45 4a3b 4e2c 043d
000000a0: 39e7 c73c ab9c adbd 5ad1 383d 85ad a8bd
000000b0: dc08 ec3c 1976 d2bd a233 13bc 540a d1bd
000000c0: e2b0 883c 8725 e13d 2cc8 90bd 3195 b83c
000000d0: 5cb3 143d 3752 603d 2050 be3c 629a e13c
000000e0: fea6 1a3d 2ce7 4fbd d155 a83d 283f 0abe
000000f0: 61b7 c13d 7d70 083d 30af c83d 6392 3b3d

network_aging.lstm.weight_ih_l0 f4 [128, 5]
0.20269002 -0.06674251 0.025748093 0.051679045 0.15474321 -0.006935015 -0.10970094 0.023908306
-0.07302118 0.15439127 0.1182327 0.21824087 0.011890944 0.20019828 0.09919141 0.17918438
0.19489123 0.08773753 0.01000233 0.06905285 -0.041537147 0.043036222 0.07552996 0.120813735
0.10953494 -0.07217926 0.17101163 0.02024739 -0.034773517 -0.00491632 0.20711511 -0.05699381
0.123558104 -0.09208449 -0.018781444 -0.08906284 0.17328309 0.1671564 -0.037244145 0.017175855
0.068425626 -0.057395667 -0.13301784 -0.11094644 -0.01984682 0.17132159 0.074397996 0.076739125
-0.053512115 -0.099292524 -0.0007011225 0.031136818 -0.030878337 0.103613265 -0.13380586 0.14783157
-0.1012289 -0.024007784 -0.10530772 0.12077781 0.1641586 0.009008913 -0.04537449 -0.08076527
0.018454652 0.103982575 -0.034180865 0.1612936 0.16643511 0.15967226 0.056925442 0.010464242
0.054257568 0.05949068 0.010903322 -0.028949475 -0.046812374 -0.0051828655 -0.07019138 -0.08078611
-0.004402155 -0.11676493 -0.1167577 0.12562017 0.05414381 -0.012862259 0.06291928 -0.058858473
-0.0909755 0.08173121 0.08396715 0.032671735 -0.028553013 0.027863717 -0.11068407 0.13545355
-0.11276546 0.09163949 0.11056995 -0.1440699 -0.06736388 0.00498674 0.08156452 0.13048118
0.05910964 0.0831861 -0.050627064 -0.12323444 -0.09425952 0.0866094 0.07186707 0.019720132
0.12764452 0.15397726 0.12505503 0.032262083 0.006372591 0.16466142 0.17021011 -0.09554518
-0.041991927 0.05480072 0.14010094 0.04286203 0.12119052 0.052066993 0.10934309 -0.08766441
0.14962424 0.09088521 -0.09507093 0.03263047 0.1837059 0.09877129 -0.0033338896 -0.05145597
0.14190994 -0.13585868 0.12980524 0.14034897 -0.04904476 -0.05169813 -0.0450707 -0.060082562
0.040262673 0.0036348368 0.039332934 0.06886182 -0.14759125 -0.046269625 0.09176906 0.0019944266
-0.14437523 0.0964236 0.1272491 -0.016262807 0.018734846 0.014557408 -0.056580238 -0.05285626
-0.09542071 -0.0020272124 -0.0024762894 0.15558416 0.08895052 -0.07349911 0.1591649 -0.13740627
0.03119917 -0.08038627 -0.024824088 0.17096142 0.143977 0.1904481 0.056047503 -0.12665947
0.09307489 0.1736445 -0.04906244 0.19268863 0.20582585 0.17209241 0.053598415 -0.0038667703
0.026690502 0.17889826 0.059655514 0.10739467 0.16889325 -0.027615989 0.21330237 0.0515826
-0.041351605 -0.06871384 -0.039448276 -0.116139896 -0.012445773 -0.0664896 0.076238975 -0.10362569
0.073330626 -0.02345771 0.20092072 0.091893226 0.06579403 0.14963278 0.11545693 0.060482897
0.19867092 -0.01741307 0.1561846 0.1012588 0.18193759 -0.070160545 0.13710344 -0.11423574
0.084215574 0.07734643 -0.14820018 0.15420477 -0.012381721 0.15751886 -0.06370099 -0.12753345
0.16350162 0.12565422 -0.037607074 0.19797449 -0.0506582 0.17467514 -0.11927206 0.00973075
-0.06855078 -0.12067636 0.10693076 0.032787684 0.060013566 0.20180862 0.09491071 -0.106764816
-0.09029499 0.15435606 -0.02900467 0.09263697 -0.03424493 0.016833207 0.031193128 0.009947918
0.11281223 -0.16606487 0.19781518 -0.07802511 0.1642795 0.12305982 -0.057250082 0.22670123
00000000: f98d 4f3e 4cb0 88bd aaed d23c 68ad 533d
00000010: 0175 1e3e 1f3f e3bb e3aa e0bd 5adb c33c
00000020: 218c 95bd bf18 1e3e fc23 f23d 897a 5f3e
00000030: 3cd2 423c c700 4d3e de24 cb3d 1c7c 373e
00000040: 9191 473e bcaf b33d d0e0 233c 956b 8d3d
00000050: db22 2abd c046 303d 74af 9a3d 316d f73d
00000060: db53 e03d b8d2 93bd ac1d 2f3e dbdd a53c
00000070: ad6e 0ebd 1519 a1bb fc15 543e 5772 69bd
00000080: 080c fd3d cb96 bcbd 8bdb 99bc 9466 b6bd
00000090: 1f71 313e 0c2b 2b3e 518d 18bd 61b4 8c3c
000000a0: bc22 8c3d b817 6bbd d435 08be e337 e3bd
000000b0: cc95 a2bc ed6e 2f3e fa5d 983d 6729 9d3d
000000c0: 852f 5bbd e159 cbbd 89cb 37ba a412 ff3c
000000d0: 91f4 fcbc 3133 d43d 6704 09be 2961 173e
000000e0: 1951 cfbd f9ab c4bc 93ab d7bd 5b5a f73d
000000f0: 3119 283e 1f9a 133c 9ada 39bd 4368 a5bd
00000100: 362e 973c d1f4 d43d 3c01 0cbd 262a 253e
00000110: f76d 2a3e 2081 233e a72a 693d 3672 2b3c
00000120: 2f3d 5e3d 80ac 733d d9a3 323c 7327 edbc
00000130: 55be 3fbd 07d5 a9bb 80c0 8fbd 3073 a5bd
00000140: f43f 90bb 7422 efbd a91e efbd 93a2 003e
00000150: e6c5 5d3d 39bc 52bc d3db 803d 9515 71bd
00000160: 5d51 babd b162 a73d f8f6 ab3d ccd2 053d
00000170: 02e8 e9bc 7342 e43c 54ae e2bd 56b4 0a3e
00000180: 94f1 e6bd 7cad bb3d 7f72 e23d 0f87 13be
00000190: 13f6 89bd cf67 a33b 4d0b a73d dc9c 053e
000001a0: f31c 723d 795d aa3d 535e 4fbd 5762 fcbd
000001b0: 230b c1bd 4560 b13d 0b2f 933d 1d8c a13c
000001c0: 3fb5 023e 37ac 1d3e 6d0e 003e 3f25 043d
000001d0: 2bd1 d03b 019d 283e 8f4b 2e3e 31ad c3bd
000001e0: baff 2bbd b876 603d 9f76 0f3e 1990 2f3d
000001f0: bc32 f83d 3344 553d 45ef df3d 6689 b3bd
00000200: 1937 193e 0622 ba3d 8cb4 c2bd 87a7 053d
00000210: 661d 3c3e 9a48 ca3d 637d 5abb 7fc3 52bd
00000220: d750 113e 8a1e 0bbe aaeb 043e a4b7 0f3e
00000230: 29e3 48bd 6bc1 53bd 0e9c 38bd 2219 76bd
00000240: 79ea 243d 7136 6e3b 921b 213d 6d07 8d3d
00000250: 2922 17be 3885 3dbd 6bf1 bb3d edb4 023b
00000260: 1ad7 13be bd79 c53d 974d 023e 9439 85bc
00000270: d279 993c 3282 6e3c aec0 67bd ce7f 58bd
00000280: ef6b c3bd fbda 04bb 3e49 22bb 7451 1f3e
00000290: b12b b63d b486 96bd 20fc 223e 3bb4 0cbe
000002a0: 6795 ff3c 8fa1 a4bd e35b cbbc 8310 2f3e
000002b0: b56e 133e d404 433e 1192 653d 05b3 01be
000002c0: 0c9e be3d ddcf 313e b2f5 48bd 2b50 453e
000002d0: 03c4 523e fe38 303e 038a 5b3d a469 7dbb
000002e0: 0aa6 da3c 1b31 373e 5759 743d bdf1 db3d
000002f0: 5af2 2c3e ed3a e2bc f06b 5a3e 4748 533d
00000300: 4d60 29bd d7b9 8cbd 8494 21bd c1da edbd
00000310: 5be9 4bbc b32b 88bd 2e23 9c3d b539 d4bd
00000320: 5e2e 963d 622a c0bc 29be 4d3e 8432 bc3d
00000330: 05bf 863d 5639 193e af74 ec3d eabc 773d
00000340: 6470 4b3e dba5 8ebc dbee 1f3e c660 cf3d
00000350: d94d 3a3e 55b0 8fbd d864 0c3e 6df4 e9bd
00000360: 3779 ac3d ce67 9e3d cac1 17be dbe7 1d3e
00000370: b4dc 4abc a04c 213e aa75 82bd 2198 02be
00000380: f86c 273e 80ab 003e e009 1abd d3b9 4a3e
00000390: f97e 4fbd 0ade 323e e944 f4bd b96d 1f3c
000003a0: 5a64 8cbd 2b25 f7bd 84fe da3d 614c 063d
000003b0: c9d0 753d eba6 4e3e 8c60 c23d 83a7 dabd
000003c0: 94ec b8bd 840f 1e3e 349b edbc 74b8 bd3d
000003d0: 6944 0cbd cbe5 893c bb88 ff3c 98fc 223c
000003e0: 190a e73d e90c 2abe 1090 4a3e a1cb 9fbd
000003f0: e338 283e c906 fc3d 107f 6abd 5e24 683e

network_aging.lstm.weight_hh_l0 f4 [128, 32]
-0.22984618 -0.054176472 0.03303383 0.044897746 -0.08872832 0.04590258 0.09983698 0.027019043
0.04944393 0.0030708862 -0.005287396 0.015043295 -0.22205041 0.078545086 -0.121460445 0.19993392
-0.042989347 0.1312364 0.054673914 -0.09068545 -0.15970643 -0.067282364 -0.063876644 -0.0049720407
0.08435582 0.050864536 -0.071139425 -0.09665058 -0.04166701 0.07651641 -0.07402233 0.08264929
-0.18697448 0.22598498 0.07706489 0.00636837 -0.22171706 -0.12848596 0.18718392 0.0754261
-0.1621748 0.18880184 0.18736729 0.07216721 -0.07510663 0.013138926 -0.10965495 0.18935047
0.039793137 0.15308492 -0.0687073 -0.04446331 -0.018799167 -0.12680237 -0.14917676 0.03856656
0.051667668 -0.08726704 -0.08168337 0.015714202 -0.20167916 0.052100446 0.06604601 -0.090956815
-0.20611922 -0.027834728 -0.033207413 -0.04840961 -0.06692768 -0.23683642 0.085070066 0.08023065
-0.01761057 0.2351208 0.040386688 0.039694726 -0.18974705 0.0824074 -0.012737084 0.101117335
0.029674647 -0.08427622 0.1577259 -0.1509658 -0.21093689 0.117956914 -0.22564813 -0.0763735
-0.046641268 -0.10397969 0.02668439 -0.053697556 -0.031286508 0.0502837 0.2320446 -0.11079689
0.054621164 0.01929056 0.03439845 -0.0449825 -0.049942885 0.04186615 0.1494884 -0.016814237
-0.19893537 0.12037279 0.09255718 -0.09554715 -0.10473779 0.0034086483 -0.07998262 -0.014342278
-0.1888322 -0.004996966 0.11984352 0.037426952 -0.07073934 -0.02310304 0.0046949666 0.114128664
-0.079493515 0.14336073 -0.0584822 0.14769518 -0.11581316 -0.2344616 -0.013980636 -0.0262464
-0.008413691 0.13434742 0.0859801 0.15478043 0.024379065 -0.12732413 0.18945466 0.19690977
0.00024966022 0.08288048 -0.011881226 -0.19011368 -0.15851936 0.06843248 0.07579943 0.13098082
-0.19306527 0.050338753 -0.048566975 -0.060859498 -0.23894131 0.027336514 -0.19715124 -0.07985906
0.17677881 0.02962391 0.13458583 -0.04826954 -0.21648538 -0.15381448 0.25713393 -0.008278026
-0.017511014 -0.011761121 -0.007686383 0.073939234 -0.1599454 -0.1819015 0.02079386 0.05929834
-0.081705905 0.16951229 0.20195863 -0.12617466 -0.07624364 0.1014653 -0.037629947 0.11221307
0.04960227 0.11591996 0.13771865 0.08349526 0.03066371 -0.00640947 -0.039084252 0.059940025
-0.055892173 -0.04064231 0.025340494 0.034466907 -0.076015174 0.010735648 0.22792925 0.015025685
-0.003671154 -0.043993495 -0.19457984 0.0007996488 0.082687356 -0.025734983 0.044500306 -0.068828695
0.07987094 0.17304902 0.03715444 0.013924797 -0.15499847 0.13278452 -0.20625287 0.1905111
-0.24867783 -0.014548404 0.005615207 -0.08174867 0.0077227163 -0.019809378 0.05006144 0.032531228
-0.047678184 -0.039482243 -0.0055823964 -0.017418565 0.011390089 0.03589588 0.19834712 -0.077244386
0.023848996 0.22462544 -0.17334194 0.12491618 -0.082602195 -0.17151919 0.029852467 0.18562442
0.09856367 0.0839436 0.04092248 -0.011935365 -0.20518392 0.12847628 0.11262233 -0.044827428
-0.19268864 -0.0433801 -0.092246965 -0.11834325 -0.0025007448 0.07487831 -0.06698885 0.14346924
0.17149228 0.12514663 -0.019004464 -0.06988063 0.052135035 -0.07202555 0.036499947 0.1039745
00000000: cc5c 6bbe 26e8 5dbd 7b4e 073d b3e6 373d
00000010: 32b7 b5bd 5804 3c3d 5577 cc3d 0a57 dd3c
00000020: b885 4a3d ec40 493b e441 adbb 2778 763c
00000030: 2f61 63be 3fdc a03d 41c0 f8bd 7abb 4c3e
00000040: 9915 30bd d662 063e c1f1 5f3d 4bb9 b9bd
00000050: 158a 23be 56cb 89bd c2d1 82bd 80ec a2bb
00000060: bfc2 ac3d 5557 503d 8cb1 91bd bdf0 c5bd
00000070: 07ab 2abd a3b4 9c3d 0599 97bd 0844 a93d
00000080: 3d76 3fbe 9b68 673e 32d4 9d3d c2ad d03b
00000090: cc09 63be d391 03be 24ad 3f3e 0079 9a3d
000000a0: 2711 26be 4555 413e 36dd 3f3e 67cc 933d
000000b0: 81d1 99bd a644 573c c692 e0bd 17e5 413e
000000c0: 21fe 223d 4bc2 1c3e 6ab6 8cbd 291f 36bd
000000d0: b600 9abc 7bd8 01be cbc1 18be f8f7 1d3d
000000e0: 7aa1 533d 10b9 b2bd 9c49 a7bd 12bb 803c
000000f0: fb84 4ebe 4767 553d 2143 873d 9147 babd
00000100: eb10 53be a805 e4bc 7f04 08bd 2849 46bd
00000110: 6111 89bd 3f85 72be 3739 ae3d f84f a43d
00000120: 0b44 90bc 82c3 703e 836c 253d f096 223d
00000130: 0d4d 42be 36c5 a83d 34af 50bc 9b16 cf3d
00000140: 3f18 f33c 0399 acbd e682 213e c796 1abe
00000150: d7ff 57be 6593 f13d 4e10 67be b669 9cbd
00000160: ea0a 3fbd 4ef3 d4bd 3999 da3c f8f1 5bbd
00000170: 4826 00bd 48f6 4d3d 1a9d 6d3e 7be9 e2bd
00000180: 71ba 5f3d 3d07 9e3c 64e5 0c3d 923f 38bd
00000190: e990 4cbd d77b 2b3d 7d13 193e 03be 89bc
000001a0: b7b5 4bbe 0286 f63d 9e8e bd3d 39ae c3bd
000001b0: c480 d6bd a163 5f3b eecd a3bd e0fb 6abc
000001c0: 3a5d 41be 97bd a3bb 8570 f53d 014d 193d
000001d0: c9df 90bd 9642 bdbc 3cd8 993b 4abc e93d
000001e0: 7fcd a2bd 28cd 123e 088b 6fbd 683d 173e
000001f0: 732f edbd b416 70be 0a0f 65bc b102 d7bc
00000200: 94d9 09bc 5f92 093e 5616 b03d c37e 1e3e
00000210: 9bb6 c73c 4261 02be 6700 423e b7a2 493e
00000220: d4e4 8239 3ebd a93d 79a9 42bc 29ad 42be
00000230: e652 22be 5426 8c3d bb3c 9b3d d61f 063e
00000240: e7b2 45be 0230 4e3d 2aee 46bd cf47 79bd
00000250: 08ad 74be d3f0 df3c 04e2 49be 268d a3bd
00000260: 8105 353e d8ad f23c ded0 093e 48b6 45bd
00000270: 58ae 5dbe 8b81 1dbe 0fa7 833e 8fa0 07bc
00000280: 4273 8fbc b8b1 40bc 0ede fbbb 746d 973d
00000290: bac8 23be 6344 3abe e357 aa3c d1e2 723d
000002a0: 6d55 a7bd a194 2d3e 3ece 4e3e ee33 01be
000002b0: a025 9cbd 0acd cf3d dc21 1abd f7cf e53d
000002c0: c02b 4b3d 7267 ed3d 1e06 0d3e 90ff aa3d
000002d0: 7632 fb3c 8806 d2bb cf16 20bd ac83 753d
000002e0: 31ef 64bd 8d78 26bd de96 cf3c 2c2d 0d3d
000002f0: d8ad 9bbd 92e4 2f3c 4966 693e 4a2e 763c
00000300: be97 70bb 8632 34bd f03f 47be 869f 513a
00000310: fd57 a93d 2cd2 d2bc f445 363d 0ff6 8cbd
00000320: 6093 a33d c333 313e 412f 183d d524 643c
00000330: ebb7 1ebe aaf8 073e f433 53be 5815 433e
00000340: 67a5 7ebe 6e5c 6ebc c5ff b73b d96b a7bd
00000350: d70e fd3b 4747 a2bc 390d 4d3d 773f 053d
00000360: 334a 43bd 22b8 21bd 89ec b6bb 61b1 8ebc
00000370: 7f9d 3a3c 8f07 133d 821b 4b3e 4e32 9ebd
00000380: f85e c33c 3604 663e 8d80 31be 0ed4 ff3d
00000390: 572b a9bd baa2 2fbe 298d f43c 5414 3e3e
000003a0: c0db c93d 9fea ab3d 559e 273d 8d8c 43bc
000003b0: bc1b 52be 498f 033e 89a6 e63d f79c 37bd
000003c0: 2c50 45be 55af 31bd faeb bcbd f25d f2bd
000003d0: 89e3 23bb cd59 993d 7331 89bd 9ae9 123e
000003e0: ac9b 2f3e 7026 003e 40af 9bbc 931d 8fbd
000003f0: 8c8b 553d 2282 93bd f880 153d 95f0 d43d

network_aging.lstm.bias_ih_l0 f4 [128]
0.18497986 0.13462378 -0.084534205 0.10611489 0.16718824 0.08851147 0.101355374 0.118895106
-0.05830383 -0.10546851 -0.015147786 0.082773745 -0.053458873 0.09807749 -0.036320854 0.05948053
0.09705929 -0.064139076 -0.07383701 0.1930685 0.13924588 -0.110264674 -0.054616354 0.17349868
-0.054191835 -0.082013935 0.1935432 -0.039844017 -0.116240196 0.16886553 0.16966537 -0.052817173
-0.080881394 0.19521718 0.07155479 0.00019938477 -0.036088593 -0.008902732 -0.06882502 -0.083771996
0.11380074 -0.021768488 0.18866186 0.052520383 0.12592733 -0.03923856 0.10382841 0.12768482
0.21154562 0.091842495 0.14303005 0.048933245 0.1067358 0.20095162 0.017560447 -0.013412958
0.11517227 -0.033949345 -0.10040738 0.10490668 0.21844852 0.030730898 -0.08661994 -0.012183471
-0.03545511 -0.08299739 -0.031873483 0.073639125 0.05796264 -0.21802776 -0.11426627 0.22679107
-0.09855448 0.2200054 0.2052417 -0.08382325 0.0063547776 0.21336442 -0.13243826 0.094045855
-0.19950612 0.12828884 -0.12658884 -0.08686444 -0.14122874 -0.11089484 -0.014482057 0.15151411
0.20929068 0.08848056 0.086093776 0.08559979 -0.111954674 -0.20015204 0.17945468 -0.10113358
0.14823066 0.029212788 0.12923935 -0.00036291915 0.12897249 -0.019330729 0.015732132 -0.055983584
0.16259407 0.1762601 -0.022935055 0.17814589 0.14757846 0.25610483 -0.0647105 0.1711454
0.2271915 0.08499667 0.0063153864 0.14906594 0.16367963 0.02013083 -0.011643546 -0.028576955
0.1462776 0.26892275 0.1581715 0.020322442 0.12671661 0.16660807 -0.008036535 0.19124235
00000000: 5c6b 3d3e d1da 093e 4520 adbd c352 d93d
00000010: 6533 2b3e 8045 b53d 6893 cf3d 477f f33d
00000020: ffcf 6ebd e0ff d7bd 6b2e 78bc 4885 a93d
00000030: b1f7 5abd dadc c83d 2dc5 14bd dba1 733d
00000040: 05c7 c63d 595b 83bd dc37 97bd c0b3 453e
00000050: 7996 0e3e 72d2 e1bd 66b5 5fbd a3a9 313e
00000060: 42f8 5dbd ecf6 a7bd 3030 463e 7b33 23bd
00000070: 570f eebd 16eb 2c3e c2bc 2d3e d256 58bd
00000080: 25a5 a5bd 03e7 473e 518b 923d f111 5139
00000090: a2d1 13bd c4dc 11bc 22f4 8cbd a790 abbd
000000a0: 5d10 e93d d453 b2bc 9330 413e 9d1f 573d
000000b0: 18f3 003e 9db8 20bd fda3 d43d cfbf 023e
000000c0: 6a9f 583e eb17 bc3d 7876 123e 3a6e 483d
000000d0: 4d98 da3d 43c6 4d3e edda 8f3c 06c2 5bbc
000000e0: 70df eb3d 780e 0bbd 62a2 cdbd 50d9 d63d
000000f0: f8b0 5f3e 5dbf fb3c cc65 b1bd 2e9d 47bc
00000100: 6139 11bd 89fa a9bd c58d 02bd 1cd0 963d
00000110: 3c6a 6d3d ab42 5fbe 6f04 eabd eb3b 683e
00000120: eed6 c9bd 1849 613e e12a 523e 86ab abbd
00000130: bd3b d03b 347c 5a3e e59d 07be 1d9b c03d
00000140: 554b 4cbe 265e 033e 81a0 01be fce5 b1bd
00000150: 449e 10be d51c e3bd 2646 6dbc 8426 1b3e
00000160: 4c50 563e 4c35 b53d ef51 b03d f14e af3d
00000170: 7e48 e5bd a8f4 4cbe f8c2 373e 1f1f cfbd
00000180: c7c9 173e a84f ef3c 5257 043e 2f46 beb9
00000190: 5d11 043e 7a5b 9ebc ace0 803c 0b4f 65bd
000001a0: 0f7f 263e 877d 343e 4ce2 bbbc e06b 363e
000001b0: cf1e 173e 2c20 833e f086 84bd bd40 2f3e
000001c0: e3a4 683e bc12 ae3d 4df1 ce3b bea4 183e
000001d0: a29b 273e 69e9 a43c 92c4 3ebc 381a eabc
000001e0: ccc9 153e 3eb0 893e b6f7 213e 407b a63c
000001f0: 00c2 013e 4e9b 2a3e acab 03bc 09d5 433e
