trained_model/offline_model/30_days_lookahead/pnet.pth (torch, 545278 bytes, 36 tensors)

network_smart.layer1.0.weight f4 [128, 330]
000000 d6 13 1e be fe 76 86 bf 3b f7 0d bf 7b db 95 bf
       -0.15437254 -1.0505064 -0.5545537 -1.1707605
000010 0b a5 4f 41 0c fa 8a c0 fa 3a 10 3d 10 c2 af bd
       12.977794 -4.3430233 0.035212494 -0.08581936
000020 d2 ed 85 be e2 7a 4f 41 ae 50 0c 40 bf b9 39 be
       -0.26158005 12.967501 2.1924243 -0.18137263
000030 fa ed a9 bf 97 01 a4 be f7 ca cf bf cc 88 5c 41
       -1.327575 -0.32032463 -1.6233815 13.783398
000040 8e d8 90 c0 ac 04 ce 3d 31 ea 13 be a8 94 df bf
       -4.526435 0.10059485 -0.14444806 -1.7467241
000050 17 c9 5d 41 33 40 0d 40 0d 1e 1a be 06 b7 9b bf
       13.861594 2.2070434 -0.15050526 -1.2165229
000060 50 56 da be ac 12 92 bf 08 84 5d 41 0e 01 8f c0
       -0.42643976 -1.1411948 13.844734 -4.4688787
000070 c2 77 8b 3d f9 ab 42 be 4f 8f 95 3e 2b ea 5d 41
       0.06809951 -0.19010915 0.29210898 13.86967
000080 ce 9f b6 3f c6 e4 00 be 83 e9 77 bf b3 5c e8 bd
       1.4267519 -0.1258727 -0.96840686 -0.11345806
000090 fd 12 b5 bf ea ea 5a 41 61 4f 8e c0 e2 4a b7 3d
       -1.414642 13.682352 -4.44719 0.0894983
0000a0 4a 9d 41 be b8 07 8b bf 26 e3 5b 41 0c 80 ac 3f
       -0.18907657 -1.086173 13.742956 1.3476577
0000b0 fd a7 6f bd 40 f9 8d bf f7 39 61 be 7e 82 af bf
       -0.058509815 -1.109169 -0.21994768 -1.3711698
0000c0 bc 67 3c 41 d8 5a 8f c0 a7 fe 48 3d 39 05 93 be
       11.775326 -4.4798393 0.04907098 -0.28714922
0000d0 6b 0e 33 c0 75 34 3c 41 f9 30 1d 3f 8f 3f b2 bd
       -2.797755 11.762807 0.6140285 -0.08703529
0000e0 f9 76 9f bf ae 13 64 be 1d c7 79 bf e1 63 3e 41
       -1.2458183 -0.22273132 -0.9756945 11.8993845
0000f0 cf 39 8b c0 7b ed b2 3d 81 63 e2 bd 8e 38 56 3e
       -4.3508067 0.08736702 -0.11054135 0.20920011
000100 75 b4 3d 41 5c 4b e5 3e b9 5d c6 bd 2d 5d 9d bf
       11.856557 0.44784057 -0.09685845 -1.229406
000110 a0 76 5c 3d 22 81 1f 3e d0 d4 40 41 c4 42 87 c0
       0.053824067 0.15576604 12.051956 -4.2269
000120 c7 97 cb 3d dc 8b 58 bd 9f fb 6b 3f 94 33 40 41
       0.099410586 -0.052867755 0.9218082 12.012592
000130 db 4d b4 3e 24 6a b1 bd 4a 4c 82 bf 29 94 27 3f
       0.3521565 -0.08662823 -1.0179532 0.6546045
000140 49 c5 52 3e bb 14 3f 41 63 86 89 c0 20 79 24 3d
       0.20583071 11.942561 -4.2976546 0.040154576
000150 d2 ca a0 3c 55 77 2c be 15 32 40 41 78 b9 c8 be
       0.019627962 -0.16842397 12.012227 -0.39204
000160 96 fa eb bd 6c 45 96 bf 3b 48 58 3f 92 7b a7 3d
       -0.11522405 -1.1739936 0.84485215 0.08177866
000170 7d 30 40 41 a9 46 8b c0 c9 c7 02 3e d5 16 5b 3c
       12.011838 -4.3523755 0.12771524 0.013372143
000180 a0 e0 dd be 1a 84 3f 41 08 b5 8b bf 7c 8e a9 bd
       -0.43335438 11.969751 -1.0914621 -0.0827913
000190 0c 2a 9e bf 93 3a cb 3f 88 6a 4c 3e 37 bd 3c 41
       -1.2356582 1.587725 0.19962513 11.796195
0001a0 5a 6b 92 c0 af fd 9e 3d 98 38 53 bc be de 8f bb
       -4.5756044 0.0776323 -0.012891911 -0.0043905666
0001b0 a8 e2 3c 41 39 f2 f5 bf c8 f7 58 be d8 7a 95 bf
       11.805336 -1.9214545 -0.21188271 -1.1678114
0001c0 65 23 a7 3f 8c fa 8e be 52 8a 39 41 e8 9d 95 c0
       1.3057677 -0.27925527 11.59627 -4.6755257
0001d0 29 e6 f2 3d 57 ae 78 bd 4b 19 99 be fc f2 39 41
       0.11860306 -0.06071314 -0.2990211 11.621822
0001e0 86 fa 20 c0 6e e7 36 be 3f a5 95 bf a6 90 bf 3f
       -2.5152907 -0.17861721 -1.1691054 1.4966018
0001f0 ee 13 5f 3c 99 42 1b 41 7b 01 95 c0 c8 93 bb 3d
       0.013615591 9.703759 -4.6564307 0.091590464
000200 88 db b9 bd e6 42 66 bf e7 db 1b 41 28 16 35 c0
       -0.090750754 -0.8994583 9.741187 -2.8294773
000210 d6 9b e4 bd 62 74 7e bf 2d 7a e6 3f 18 30 92 3e
       -0.11162536 -0.99396336 1.8006035 0.28552318
000220 2e 9b 25 41 1e 42 95 c0 60 56 63 3d 14 62 2a be
       10.350386 -4.664321 0.055502295 -0.16638976
000230 35 71 8d bf 02 9b 25 41 07 70 3b c0 89 23 d2 bd
       -1.1050173 10.350344 -2.9287126 -0.10260684
000240 e1 b8 73 bf 42 a6 c6 3f dd 33 4b 3e 19 fb 1c 41
       -0.9520398 1.5519488 0.19844003 9.811303
000250 6d b2 94 c0 6a 10 ff 3c 39 37 f2 bd 23 88 b8 bf
       -4.6467805 0.031135757 -0.11826939 -1.4416546
000260 5f 26 1d 41 27 fc 6f c0 df 22 9d bd a2 46 61 bf
       9.821868 -3.7497652 -0.07672667 -0.879984
000270 73 b1 ac 3f 56 6e 8f 3e b1 de 08 41 31 11 8f c0
       1.3491653 0.28013867 8.554368 -4.4708486
000280 03 a1 a3 3c 31 7f 25 be 25 da 08 bf 88 90 08 41
       0.019974237 -0.16161801 -0.5345786 8.535286
000290 9b 1e 6c c0 ed b6 ce bd 0e c7 80 bf b8 cf 9d 3f
       -3.689368 -0.10093484 -1.0060747 1.2329016
0002a0 1a d2 9f bd 01 b6 01 41 5b 29 91 c0 89 6d 9e 3d
       -0.078037456 8.106935 -4.5362983 0.07735736
0002b0 c9 15 10 be 8f 37 e6 bf cc 57 01 41 04 06 9d c0
       -0.1407081 -1.7985705 8.083935 -4.9069843
0002c0 d2 e5 5d bd fa da 7a bf 97 b7 69 3e 80 4b 13 3f
       -0.05417425 -0.9799038 0.2282394 0.5753708
0002d0 41 dd 02 41 fc 18 92 c0 bd e3 da 3d 06 80 1f be
       8.179017 -4.56555 0.10687969 -0.15576181
0002e0 db f5 89 3f 4f 31 03 41 a3 0f 9b c0 79 f0 fd bd
       1.0778154 8.199538 -4.845659 -0.12399382
0002f0 1f ad 61 bf 61 bc 1d 3e 8d 4f bd 3d 9f 0e 0b 41
       -0.88154787 0.15403892 0.09243689 8.69107
000300 74 96 8c c0 00 d2 14 3d b9 b2 b4 bc db 46 0e 3e
       -4.393366 0.036333084 -0.022057878 0.13894217
000310 e0 e5 09 41 11 25 11 c0 ca 5c f2 bd 2c 07 2e bf
       8.618622 -2.2678874 -0.11834104 -0.67979693
000320 a8 fb 1f be 3b 7a a1 3e 83 52 02 41 24 40 8f c0
       -0.15623343 0.31538567 8.145144 -4.4765797
000330 4e 95 c9 3d 91 25 71 bd e2 3c 22 bf 26 10 03 41
       0.09842931 -0.058873717 -0.6337415 8.1914425
000340 a3 e3 97 c0 27 00 0d be cc 76 59 bf 1c 36 0a 3e
       -4.7465377 -0.1376959 -0.84946895 0.13497204
000350 57 f6 d9 3e 57 2e d0 40 93 da 90 c0 8f 9f a9 bc
       0.42570755 6.5056567 -4.5266814 -0.020705966
000360 2a 90 22 3e 68 b5 9d bf 6f 2b d0 40 b0 42 17 c1
       0.15875307 -1.2320986 6.505302 -9.453781
000370 31 1d 0c be c0 91 57 bf c7 a3 81 bb 3f dd 81 3e
       -0.1368301 -0.8420677 -0.0039562914 0.2536411
000380 bd 1c d2 40 0d 3e 8e c0 cb 97 e7 3d e3 88 97 3e
       6.566008 -4.4450746 0.11308249 0.29596624
000390 09 0b 6e bf 96 8c d4 40 1b a0 13 c1 e6 91 88 bd
       -0.9298559 6.6421614 -9.226588 -0.06668453
0003a0 bf 1b 19 bf 04 13 04 bf ba 50 c6 3e 7c a4 ce 40
       -0.5980796 -0.51591516 0.38733464 6.4575787
0003b0 19 51 8f c0 65 06 89 3d 12 d1 9e 3e 8b 60 e0 bd
       -4.4786496 0.06690673 0.31018883 -0.10955914
0003c0 08 d4 cd 40 c7 d8 1c c1 86 d3 76 bd c5 cd 04 bf
       6.4321327 -9.802924 -0.06026032 -0.5187648
0003d0 cf a9 4a bd 4f de 20 3f 14 06 d3 40 85 ad 93 c0
       -0.04947835 0.62839216 6.594492 -4.6149316
0003e0 74 b2 ba 3b c3 12 ad 3e 13 44 c3 3e cf 6f d3 40
       0.005697543 0.33803377 0.38137874 6.6073985
0003f0 c2 74 f1 c0 c0 10 8f bd e4 41 37 bf 8f 7c 5f be
       -7.5455027 -0.06985617 -0.71584916 -0.21824859

network_smart.layer1.0.bias f4 [128]
000000 d5 bc 7b 3d 1f ce 84 3c 05 be e9 3d 52 84 a7 3e
       0.06145938 0.016211567 0.114131965 0.3271814
000010 4a ed 4f bd 75 b3 d1 be 93 98 19 3f f9 b7 c3 3e
       -0.050763406 -0.40957227 0.59998435 0.38226297
000020 25 90 3e be cb 11 33 3c 36 bf 28 3d e9 b5 63 bd
       -0.18609674 0.010929535 0.041197978 -0.055593405
000030 88 52 2e 3f 18 38 65 bd 65 d6 b3 be 9f d3 c2 bd
       0.6809468 -0.0559617 -0.35124508 -0.0951302
000040 d7 06 dc 3e a0 0f dc bd c0 e1 10 3d 1d cc dc bc
       0.42973968 -0.10745168 0.035371542 -0.026952798
000050 d5 24 f1 3e 44 a7 12 3f 1a f6 34 bc b9 cf 60 bc
       0.47098413 0.5728648 -0.011045003 -0.0137214
000060 ec 8a c9 3e 52 ee e3 3e 21 5c 1e bd 42 b7 96 be
       0.393638 0.4451776 -0.03866208 -0.2943669
000070 1e 37 05 bd 14 ea e6 bc 66 c6 b7 bc db fe f5 3b
       -0.032523267 -0.028187789 -0.022433471 0.007507188
000080 9c ff 0b bf a3 76 41 be 3d 68 38 bb 22 69 76 3d
       -0.54686904 -0.18892913 -0.0028138303 0.060158856
000090 88 42 c2 3d 71 ed 55 3e 08 81 b2 bc a0 25 88 bc
       0.09485346 0.20891358 -0.021790043 -0.016619503
0000a0 90 d6 bc 3d 7c b9 9d 3d 71 0c cc be 6c 7b d2 3e
       0.09220612 0.07701394 -0.39853242 0.41109788
0000b0 a2 bf 07 3f e9 fd 9f 3d e6 85 b9 3e a9 75 65 3c
       0.53026783 0.078121014 0.3623497 0.014005103
0000c0 df 42 2d bd db a1 e8 bc a5 51 09 bd d8 f5 07 bf
       -0.0423001 -0.028397491 -0.033525128 -0.531095
0000d0 b9 b0 55 bd ae 1d 66 3e 52 6f d8 3e 3e 97 62 3d
       -0.05217049 0.2247226 0.4227243 0.055320017
0000e0 5c 26 50 bc e9 e5 f3 3e cb e0 10 3d 20 6a d2 be
       -0.012704458 0.47636345 0.03537063 -0.41096592
0000f0 49 b0 46 bd 58 57 35 3e 12 65 83 3e 93 70 48 bc
       -0.048507962 0.177091 0.25663048 -0.012233871
000100 ea 9e 81 bb a7 db 2f bd 09 2b 4e 3f 34 47 4a bc
       -0.0039557116 -0.042934086 0.80534416 -0.012346078
000110 6b 21 d9 bc aa db 0c bc 9c fe aa be a0 bb f5 be
       -0.026505193 -0.008597294 -0.33397377 -0.4799471
000120 65 60 11 3d 15 e0 3e bd 7f cd 98 bb 60 bf 03 3d
       0.03549232 -0.04660042 -0.004663169 0.03216493
000130 6f 1d 40 3e 17 c2 88 bc 7c 44 fa bc 4f 57 d9 be
       0.18761228 -0.016694112 -0.030550234 -0.42449424
000140 59 1b f3 be e5 f6 19 bd 7f 3b 51 be d5 b7 f2 3e
       -0.47481802 -0.037588973 -0.20432852 0.47405878
000150 ea 57 dc be 7a 25 e8 be 8f 09 ad be aa ab 78 bc
       -0.43035823 -0.45341092 -0.33796355 -0.015177647
000160 97 8c aa 3d fc 9f ea be f6 fd a8 bb 60 ec f6 bc
       0.08327597 -0.45825183 -0.0051572276 -0.03014201
000170 10 dd 67 bd 42 82 23 3e e4 2f fa 3d 37 01 06 bd
       -0.056607306 0.15967658 0.12216166 -0.032716002
000180 af f3 00 3f 3b 28 04 3f c6 50 65 bf d0 83 2d bf
       0.5037183 0.51623887 -0.89576375 -0.67779255
000190 22 03 bc bc 5a e0 ef 3d 7e 5c 06 3f 77 50 27 bf
       -0.022950713 0.117127135 0.5248488 -0.65357155
0001a0 0d 3b 3e 3c 33 6c ad bb 81 22 b3 bc 98 1c a9 3e
       0.0116107585 -0.0052924394 -0.021867039 0.33029628
0001b0 07 75 23 bd 8d 8c 35 be a8 6f 36 bd 9b d3 08 bd
       -0.039906528 -0.17729397 -0.044540077 -0.033404928
0001c0 c3 c9 57 bc b3 2c 04 3c 30 85 9b bb e0 0a fd be
       -0.013170662 0.008067298 -0.004746102 -0.4942236
0001d0 24 d6 00 be f0 1e b7 bd 03 a1 14 bf bb 82 2a be
       -0.12581688 -0.08941448 -0.58058184 -0.16651432
0001e0 3d f8 24 bf 01 8f c1 be bd 5f 29 3f 75 c0 2c be
       -0.6444128 -0.37804416 0.6616171 -0.16870292
0001f0 6e 87 68 be 0c 4a 9a be 83 2e 3e 3e 3b bf 0e 3d
       -0.22707912 -0.30134618 0.1857243 0.03485034

network_smart.layer2.0.weight f4 [128, 128]
000000 af 4a 04 3f 33 dc 26 3d aa 35 1a 3e 84 c0 0c 3e
       0.5167646 0.040737342 0.15059534 0.13745314
000010 db 16 ae 3d ed 76 e8 3f 45 51 4d 3f b8 f2 1c bf
       0.08500453 1.8161293 0.8020213 -0.6130786
000020 0f 81 b4 bc d1 00 8b 3c 7e 0b 9a bd fe ee 9c 3b
       -0.022034196 0.016968163 -0.07521723 0.0047892323
000030 78 a1 ac be 8a 58 c2 bc e1 bb d6 bb 89 8d 2a bd
       -0.3371694 -0.02372386 -0.0065531586 -0.041638885
000040 72 c8 8b bf 87 18 b6 bc 88 56 6b bd 46 62 ac bd
       -1.0920546 -0.022228492 -0.05745557 -0.08417182
000050 9c 13 a1 bd 98 b1 fd bd 5a fe a6 3d 1f 1d 7e 3d
       -0.07865068 -0.12387389 0.081539825 0.06203949
000060 3f aa 14 be 89 31 ba be 01 2b 0a bd 2f 56 87 bc
       -0.14518069 -0.36365917 -0.033732418 -0.016520588
000070 3f eb 4c bd 39 42 bc bd 86 09 68 bd 89 51 25 3d
       -0.050029036 -0.091923185 -0.056649707 0.04036096
000080 cd b1 6b bd ce c0 30 3e 46 78 a7 bd 1b eb 86 be
       -0.05754261 0.17261049 -0.08177237 -0.26351246
000090 25 d3 88 3e 3c 41 82 bd 83 aa a1 3d 3f 36 f0 3c
       0.2672359 -0.06360099 0.07893851 0.029322742
0000a0 bb 5a 2c bd 56 84 f2 bf 02 3f b4 be 16 e5 24 be
       -0.042078715 -1.8946636 -0.3520432 -0.16103014
0000b0 45 29 f7 be bf 5e 1c 3e 3f 7c e3 be c9 80 4d 3e
       -0.48273674 0.15270518 -0.4443073 0.20068659
0000c0 8a 7a 0b bf 82 ca fa 39 e3 a2 66 bc 58 7d 1d be
       -0.54483855 0.00047834596 -0.014076921 -0.15379846
0000d0 1f c6 f9 bb 56 84 da bf 6e 47 0e bf 98 f5 80 be
       -0.007622495 -1.7071636 -0.55577743 -0.25187373
0000e0 63 27 32 bc 38 a3 20 bf 3f b3 10 bc eb c3 bb 3f
       -0.010873648 -0.6274905 -0.008831798 1.4669164
0000f0 d2 d8 95 bd b8 cd ac 3d b0 4f 90 bc 2b 3d 8e bc
       -0.07316746 0.08437675 -0.017616123 -0.017363152
000100 13 53 01 bd 29 00 8d bd c1 87 91 3e 76 5a a1 bc
       -0.031573366 -0.06884796 0.28423885 -0.019696455
000110 c3 2a 58 bd 79 60 c3 bd 74 04 2f 3f 3a 83 ae bc
       -0.052775156 -0.09539885 0.6836617 -0.021302808
000120 e8 be 84 bd 62 5b 8b bd 2a 19 fd bb f6 31 ff 3b
       -0.06481725 -0.06804539 -0.007723947 0.007787938
000130 ff 7b 03 be 92 08 8e 3e bd d7 56 3e dd 4e d0 bd
       -0.1284027 0.27740914 0.20980735 -0.10171292
000140 d8 89 97 3f e0 8d b0 be 41 09 d2 bd 87 78 57 3e
       1.1838942 -0.34483242 -0.10255671 0.21042071
000150 0d 0a 6b 3e 5d ae 5a 3e b4 0d 35 be b6 29 b8 bd
       0.22953053 0.21355577 -0.17681009 -0.08992331
000160 8d 90 89 3e 5d e0 44 3e a7 0c 2a 3d ec 05 63 bd
       0.26868096 0.19226213 0.041515972 -0.05542557
000170 67 a9 ae bc 30 4e 7f 3e 94 60 18 3e 04 ea 7e bc
       -0.021321012 0.2493217 0.14880592 -0.015558723
000180 3c 15 89 be c4 d2 dd be d0 0a af be 42 41 df bc
       -0.26774013 -0.43324864 -0.34187937 -0.027252797
000190 ad 06 7f 3d f2 02 58 3c 4a de 49 3e f3 ab 70 bc
       0.062262226 0.013184296 0.19713703 -0.014689433
0001a0 a8 c2 ef 3d 48 48 1b bd a2 27 80 3d 70 6a d9 3d
       0.117070496 -0.03791073 0.06257559 0.106160045
0001b0 cd a8 0f 3b 37 18 8f 3e 9b cd 8a 3d 3d 99 61 bd
       0.0021920681 0.27948162 0.067774974 -0.05507778
0001c0 1f c6 62 3e 21 e1 0b 3e 59 4b 3d 3d 33 52 c6 3d
       0.2214589 0.13660099 0.046214435 0.09683647
0001d0 f5 c6 7b be 7d 4f 8e be be a4 ba 3b d1 e9 b1 3d
       -0.24587615 -0.2779502 0.0056959083 0.08687175
0001e0 58 73 8e 3c d3 6b aa 3d cb de 24 be 17 99 79 bd
       0.017388985 0.08321347 -0.16100614 -0.060937013
0001f0 86 0c 0b 3e 16 37 cf bd 85 5f a2 be 26 9a 5e bd
       0.13578996 -0.10117929 -0.317135 -0.054346226
000200 0b 4c 89 bc 7f 97 b1 bd cf ea e7 3d 34 89 cd be
       -0.016759893 -0.08671474 0.11324083 -0.4014374
000210 e7 3b a9 bc 44 6b c5 3c f1 fb d9 3b 85 a5 37 3e
       -0.020658446 0.024099 0.006652348 0.17934234
000220 6f 08 ad 3f e2 74 8a bd 52 93 46 ba 9c 6b 8c bd
       1.3518199 -0.06760575 -0.0007575053 -0.06856462
000230 67 58 52 be 9e f9 16 bc 60 48 62 bf 97 65 b4 bf
       -0.20541535 -0.009214787 -0.88391685 -1.4093503
000240 b3 60 38 3e 5c c8 3a 3f 95 c4 b7 3b 31 58 00 bd
       0.18005638 0.72961974 0.005608151 -0.031334106
000250 08 2a 2f bb 55 33 67 3e ff d6 5f bc f2 13 82 3d
       -0.0026727933 0.22578175 -0.013662099 0.063514605
000260 12 61 8a 3d 57 20 2b 3f 36 13 40 bd a0 d0 ad be
       0.06756796 0.6684622 -0.04689332 -0.3394823
000270 2f 07 7c 3d 7b b5 d6 bd 94 b6 a0 bd f3 ed 81 ba
       0.06153029 -0.104838334 -0.07847324 -0.0009912833
000280 6e 41 5c be 01 0d 15 be 3b 0f 13 3d 93 e0 28 bf
       -0.21509334 -0.14555742 0.035903197 -0.65967673
000290 cd 72 57 3d 24 95 5e bd 05 24 62 3d 45 48 91 3d
       0.052599717 -0.05434145 0.055210132 0.070938624
0002a0 c7 49 8a 3e 61 55 46 3e 35 7b 8a 3e 3a 3b b0 be
       0.27009413 0.19368507 0.27047125 -0.34420186
0002b0 54 6d 35 3f 24 32 5f bf a5 75 7b be c8 f0 59 3e
       0.70869946 -0.87185884 -0.24556597 0.21283257
0002c0 b4 7d 07 3e d2 21 6a bd 9c 1e ef bc 95 23 f5 bd
       0.13231546 -0.05716116 -0.0291894 -0.11969677
0002d0 28 7f a8 bd 9d e0 bb bd df c5 d1 bb 2f c8 68 3e
       -0.08227378 -0.09173701 -0.006401762 0.22732614
0002e0 64 a3 94 3d a3 57 15 bc 5c 88 ad 3c b0 6f 12 bd
       0.07257727 -0.0091151325 0.021183185 -0.035751045
0002f0 51 b6 75 3c 6e e4 64 bf 16 9a 24 be f6 42 3f 3d
       0.014997081 -0.89411056 -0.16074404 0.04669472
000300 76 32 11 be 5e f3 71 bc 0f ad b6 bd d3 48 0c bd
       -0.14179406 -0.014767496 -0.08919727 -0.034249138
000310 82 6c 4a bd 84 00 b5 bc 74 c2 bd 3d 48 e6 3b 3c
       -0.049419887 -0.022094972 0.092656046 0.011468478
000320 8d a5 37 bd 38 17 f9 3c 91 2f f7 3c 26 73 71 3c
       -0.044835616 0.03040658 0.030174049 0.014736926
000330 30 17 a0 3e 71 79 53 3d c0 ea d4 3c 0f ca 3f bf
       0.3126769 0.051629487 0.025990844 -0.7491769
000340 90 f1 0d be 80 57 d6 3d 7d ae 03 bf 2e 56 c5 bd
       -0.1386168 0.10465908 -0.51438123 -0.09635578
000350 66 82 24 bd 9d 92 63 3e cd 6c b4 3d 67 96 74 3d
       -0.04016342 0.22223897 0.088098146 0.059713747
000360 71 20 af be e5 34 1d 3e da c7 66 bd 94 b5 3c 3d
       -0.34204438 0.15352209 -0.056342937 0.046071604
000370 3a 96 69 3c c5 31 bc be a4 8b 59 be 25 86 93 3c
       0.014257008 -0.3675672 -0.21244675 0.018008301
000380 b1 e1 ea be 41 64 40 bf 37 1e 42 3f d1 af 46 3e
       -0.45875314 -0.75152975 0.75827354 0.19403006
000390 81 0b 85 3d 48 48 10 bf 51 2e 9e 3e cc 89 bb bd
       0.06496335 -0.5636029 0.30894712 -0.09157142
0003a0 ea eb 7f c0 fa 7f 00 3c 09 97 8d bd 43 33 cd 3e
       -3.998774 0.007843012 -0.06913573 0.40078172
0003b0 64 ed 1b bd 57 35 08 3d 32 3a a2 3d 0c 82 d1 bc
       -0.03806819 0.033253994 0.07921256 -0.025574706
0003c0 69 11 58 be ef c5 37 be d5 e9 48 bd ab 65 36 3e
       -0.21100391 -0.179466 -0.049051125 0.17812221
0003d0 cd 2a c5 3e 80 40 bb 3d 10 9b 9c bd 7d b0 d9 3e
       0.38509217 0.09143162 -0.07646763 0.42517462
0003e0 51 1e db bc 31 b5 5f 3d ad ac 37 bd 70 ea 51 3e
       -0.026747854 0.054616157 -0.04484241 0.20499587
0003f0 9d e5 6e bf c2 6c 05 be 96 27 6c 3f f4 5d af 3d
       -0.9331911 -0.13029769 0.92247903 0.08562842

network_smart.layer2.0.bias f4 [128]
000000 ba b5 54 3e 5d 7e 89 be 52 63 9b 3e 1e 91 78 bd
       0.20772448 -0.2685422 0.30349213 -0.06068527
000010 1a 5d d2 3e 8d b9 e5 3d 13 e4 e6 3d fb 31 3a 3e
       0.41086656 0.11217032 0.112739705 0.18183129
000020 1d 93 7c bd f3 d8 39 3e e2 e6 b6 bd 1c f9 01 be
       -0.061663736 0.18149166 -0.08930756 -0.12692684
000030 aa d2 2b 3d fe 5d 9f 3e 8b 1a a4 be 76 8c 80 3e
       0.04194895 0.31126398 -0.320515 0.25107163
000040 d5 ba 93 3d f4 75 9d 3e 70 06 eb bd d3 40 6b be
       0.0721337 0.30754054 -0.11475837 -0.22973947
000050 90 15 44 3e 54 49 1f 3e 38 f2 9e 3e 33 75 b6 bb
       0.1914885 0.15555316 0.31044173 -0.0055681705
000060 b9 46 06 bd ff e8 3f 3e 62 7c 17 3e 07 75 af 3e
       -0.03278229 0.18741225 0.14793542 0.34268972
000070 c1 4b 72 3d 89 2c 26 3e 04 2a b5 be c6 95 9e 3e
       0.059154276 0.16227926 -0.35383618 0.30973643
000080 7b e3 85 bd 84 e0 5f be 56 22 d2 bd aa ce 89 3e
       -0.06537529 -0.2186299 -0.10260455 0.26915485
000090 18 78 81 bc 56 45 4d bd 67 99 dc bc e7 e3 4c 3e
       -0.015804335 -0.050114952 -0.026928617 0.20008813
0000a0 f1 d0 f0 3c 39 b7 1d bf a6 01 2e 3d 47 96 6a bd
       0.029396506 -0.616077 0.04248204 -0.057272222
0000b0 65 c1 7b 3e f4 b3 8d 3d a8 93 c6 3d d2 1c be bd
       0.24585493 0.06919089 0.09696132 -0.09282841
0000c0 28 88 64 bd a8 b8 3a bf 58 3e 1d bf eb f8 b0 3d
       -0.05579391 -0.72938013 -0.61423254 0.08641227
0000d0 a8 d8 d7 bd a7 f6 33 3d cf 3e 85 3d 25 d6 66 be
       -0.10539371 0.043936398 0.065061204 -0.22542627
0000e0 cd c2 98 3c b5 2f 8c bd 75 d1 e1 bd d0 d7 f9 3d
       0.018647576 -0.06845037 -0.11026279 0.12199366
0000f0 3d 61 ab 3c 43 ad 6e 3d 15 46 2b 3e 6a c6 b1 bd
       0.02092039 0.058270704 0.16725953 -0.086804226
000100 4b f5 9b bd b8 c4 d7 3d 74 e2 35 bf 07 d3 ec bc
       -0.07615145 0.10535568 -0.71048665 -0.02890922
000110 1d 88 45 3e 4a 52 65 3e 42 e7 86 bd a5 6f b7 3e
       0.19290204 0.22394672 -0.06587078 0.35827366
000120 bc 2a f3 3d 69 9e 11 be b4 ac cc 3d c5 8b 0e be
       0.11873385 -0.14220585 0.09993878 -0.13920505
000130 06 d4 f0 be 5d 4f 81 bd 41 87 e8 3c bf 4e 23 bd
       -0.4703676 -0.063139655 0.028384807 -0.03987002
000140 6b 66 e7 bc e3 b4 40 be 03 18 ea bd 81 1f 59 3e
       -0.028247079 -0.18819003 -0.11430361 0.21203424
000150 82 85 c1 bd e4 63 6e be 4f 08 13 be 75 e4 0d 3d
       -0.09449293 -0.23280293 -0.14358638 0.0346417
000160 a0 67 d6 bd bf 26 13 3e 2b e9 fe 3c 1e f0 d5 bd
       -0.10468984 0.14370249 0.031117043 -0.10446189
000170 3b 23 6c bd 0c f4 87 3e 3b a9 0a 3f 5d 5c e3 bd
       -0.057650786 0.2655338 0.54164475 -0.11101601
000180 99 97 98 3e 9d ec f5 3c ca 97 a1 3d 63 69 14 be
       0.2980316 0.030020053 0.078902796 -0.14493327
000190 97 d0 cd bc 72 5e 8b bf 18 c5 eb 3e 2d 07 c3 be
       -0.025123877 -1.0888197 0.46048808 -0.38091412
0001a0 49 24 95 3e 8b 09 8f 3e 16 10 2c bf 15 4c 00 bf
       0.29129246 0.27936968 -0.67212045 -0.5011609
0001b0 9d 47 ac be 03 24 c2 3d c8 69 3c 3e cf c9 97 3e
       -0.33648387 0.09479525 0.18399727 0.29646155
0001c0 8a 32 c7 3e 8a b0 a6 be 44 05 f0 3d 3c b2 54 be
       0.38905746 -0.32556564 0.11719754 -0.20771116
0001d0 21 89 7b 3e ce 98 e5 3d 56 32 31 bf fb cc 01 be
       0.2456403 0.11210786 -0.6921743 -0.1267585
0001e0 d6 fd 4b bd e7 b4 34 3e 52 a6 ed 3c 90 b0 a5 be
       -0.049802624 0.17647134 0.029009972 -0.3236127
0001f0 f1 fd 98 bd 25 7c 76 3e 98 e8 d7 bd e6 e2 08 3c
       -0.074703105 0.24070795 -0.105424106 0.008354878

network_smart.layer3.0.weight f4 [48, 128]
000000 b0 b8 04 ba c7 2b 8a bd 02 5e a3 bc 1f e0 63 3d
       -0.0005062921 -0.06746631 -0.019942287 0.05563366
000010 cd 61 10 3c 5e 20 a9 bd 9c 8d 8e 3d f7 2e a1 3c
       0.00881238 -0.08258127 0.069606036 0.019675715
000020 7a fc 68 bd e2 32 5c bd fb 94 67 3c 16 c3 aa bd
       -0.056881405 -0.053759463 0.014134641 -0.08337991
000030 3b b4 42 3d 5c f4 2c bd af 23 7e 3d 27 37 69 3d
       0.047535162 -0.042225227 0.06204575 0.056937363
000040 02 a8 84 bd 61 3b 97 bd ea 41 33 3d 8b 6d a8 bd
       -0.064773574 -0.073843725 0.043764032 -0.08224019
000050 69 c2 1b bd 76 77 b5 bd 64 10 cc bb 0f 3e b9 bd
       -0.0380272 -0.08860676 -0.00622754 -0.0904504
000060 21 dd 8b 3d fd 70 80 bd de e0 bc bc 06 1b ec bc
       0.06829286 -0.06271551 -0.023056444 -0.02882148
000070 3f 2b 61 3d 62 42 13 3d 04 90 42 bd 52 c8 39 bb
       0.054972883 0.03595198 -0.047500625 -0.002834816
000080 99 b9 f3 3b d1 98 2b 3c 15 a2 69 3d 80 da 85 bd
       0.0074378964 0.010473446 0.05703934 -0.06535816
000090 54 74 03 bd fd 39 73 bd 0f f8 83 bb 9d a9 e6 bb
       -0.03209336 -0.059381474 -0.0040273736 -0.0070392624
0000a0 84 33 ac bd fb 32 a9 3d 07 de 3e bc c4 51 83 3d
       -0.08408263 0.08261677 -0.011649615 0.0641208
0000b0 fb c9 0f bd 78 72 49 bd 04 13 6f 3d 06 8c b2 bd
       -0.035104733 -0.04918143 0.058367744 -0.087181136
0000c0 73 a8 9f bc 1f 78 54 3d d5 f9 3b bd f9 4c 2b bc
       -0.019489503 0.05187237 -0.045892555 -0.010455363
0000d0 88 50 8c 3d b4 fb b3 3c 3d a0 85 bd b8 94 c4 3c
       0.068512976 0.021970607 -0.06524704 0.023996696
0000e0 63 16 13 bd 5a 52 75 bd 47 90 88 bd a1 50 37 bd
       -0.03591002 -0.05989299 -0.06668144 -0.044754628
0000f0 18 66 0c 3d 78 31 2e 3d 32 59 f6 bc 8f fe b2 bd
       0.03427705 0.042527646 -0.030071829 -0.087399594
000100 91 15 92 bd de 71 b5 bd 0e eb 95 bd bf 49 89 3d
       -0.0713302 -0.08859609 -0.07320224 0.06703519
000110 6a ba c5 3c 91 07 e6 3c 4d ab 73 bd 7b 5d 8c 3d
       0.02413674 0.02807978 -0.059489537 0.068537675
000120 70 95 14 3d 7e 7e eb 3c 26 d7 d0 bc 26 67 67 bd
       0.036275327 0.02874684 -0.025493216 -0.056494854
000130 60 15 81 3d 42 a4 90 bd 91 9c 42 bd 11 6a db 3c
       0.06302905 -0.0706258 -0.047512595 0.026783975
000140 c4 38 48 3d e1 21 ef bc 0e 7e ae 3d 94 6c 98 3d
       0.04888226 -0.02919096 0.08520137 0.07442585
000150 c4 6d 57 bd 14 38 4d bc 6c 83 f6 3b f5 f1 38 3d
       -0.052594915 -0.012525577 0.007522991 0.045152623
000160 27 2d 27 bc 93 8e 85 bd 7c 6c 1a 3c 02 55 f9 bc
       -0.010203636 -0.065213345 0.009425279 -0.030436043
000170 68 a7 8c 3d 29 09 61 3b ad 8c b1 bc c7 00 9f bd
       0.06867868 0.0034337735 -0.021673525 -0.0776382
000180 ce 9c 02 bd 43 3f 98 bc 57 34 9a bd 16 c9 7a bd
       -0.03188782 -0.018584853 -0.07529514 -0.061226927
000190 f9 6f 03 3d 25 19 95 3c c7 cd a1 bd 14 ce 96 bd
       0.032089207 0.018200466 -0.07900577 -0.07363525
0001a0 ce f8 97 bd 78 82 67 3c 4c ae 8b 3d 11 25 88 bd
       -0.074205026 0.014130227 0.06820354 -0.06647695
0001b0 f3 67 1b ba a9 0d 45 bd 71 7e 13 3d b7 0b 09 3d
       -0.00059282704 -0.04810873 0.036009256 0.033458438
0001c0 f9 2e 75 3d ec f5 72 bd ff 7f d4 bc 52 6b 77 3d
       0.05985925 -0.05931656 -0.02593994 0.060405083
0001d0 c2 d3 73 bd 1e f6 15 bc f0 b4 4d bc 2b f8 ea bc
       -0.05952812 -0.009152917 -0.012555346 -0.028682789
0001e0 5f d8 f5 bc 5b 2e a6 3d 14 3f 47 bc 2d d8 95 3d
       -0.0300104 0.0811431 -0.012161035 0.07316623
0001f0 28 38 4d bd b1 bc 0e bd 6f 26 fb bc 45 79 b9 bc
       -0.050102383 -0.03484792 -0.030657975 -0.022640834
000200 f2 4a 89 bd 6e 19 29 c0 77 10 d3 bc f1 e3 40 3e
       -0.06703748 -2.642177 -0.025764687 0.18836953
000210 94 7a c7 3e 19 a9 e4 be 0a fb 93 3e a9 fa 03 3e
       0.38960707 -0.4466026 0.28902465 0.12888588
000220 0a 08 7b 3e cf b3 39 3e d1 ce 23 bd 18 2c da 3e
       0.24514785 0.18134998 -0.039992157 0.42611766
000230 05 77 93 bd db 1f 91 3e 76 1b 1f bf 4c 79 bc 3c
       -0.072004355 0.28344616 -0.6215128 0.023007058
000240 6f 1e f7 bd b7 e5 f5 bc 07 b2 e8 3e 97 9a 1b 3e
       -0.120663516 -0.030016763 0.45448324 0.1519569
000250 6c eb 75 be d5 5a be 3d e1 0a 7e 3e da 2a 42 3e
       -0.24015588 0.092946686 0.24808837 0.18961659
000260 2f a5 51 be 5d 87 8a bd f8 81 a4 3d 12 c0 ed bd
       -0.20473169 -0.067641 0.08032602 -0.116089
000270 8e be 11 bd 40 03 6d bc 1c 65 36 c0 03 9b f5 bd
       -0.035582118 -0.014466107 -2.8499212 -0.11992457
000280 80 9d 8a 3c fd 19 98 3e d4 a7 00 3d 2b ba bc be
       0.016920805 0.29707327 0.031410053 -0.36860785
000290 8b 84 a7 3d f6 13 23 3d 12 87 8f 3e e3 d7 02 3e
       0.081795774 0.039813958 0.28032738 0.12777667
0002a0 b6 d9 fd bd c7 24 be bd 55 e5 a0 bd 16 82 a4 bc
       -0.12395041 -0.092843585 -0.078562416 -0.020081561
0002b0 ee 45 b0 3d 0d 55 02 bf 50 95 9b bc 1c ec 98 bd
       0.08607088 -0.5091103 -0.018992096 -0.07466909
0002c0 2b b2 57 bd 10 dc 39 bf 67 f5 04 3f ca 70 d8 3e
       -0.05266015 -0.72601414 0.51936954 0.4227355
0002d0 7a bd 12 3c d0 22 9b 3d 14 31 78 3d f9 23 eb bc
       0.008956308 0.07574999 0.06059368 -0.028703677
0002e0 30 55 9a be 59 77 1a 3e 13 51 fe 3d c3 56 a4 bd
       -0.30143118 0.1508459 0.124178074 -0.08024361
0002f0 63 e8 30 be f9 c5 de 3d b6 df ad bd 8c 76 d6 be
       -0.17276148 0.10877604 -0.08489935 -0.4188732
000300 67 63 92 3d f1 10 b8 3a 51 85 85 bf 6a fc a3 3c
       0.07147866 0.0014043135 -1.043131 0.020017821
000310 a4 48 e6 bd f7 8f 83 be d5 a1 fc 3d 2f e2 60 3d
       -0.11244324 -0.25695774 0.123355545 0.054903205
000320 d4 80 d2 3c 90 e0 51 3c ab 58 9c 3d 80 32 e8 3d
       0.025696196 0.0128098875 0.076340996 0.11337757
000330 88 f4 04 be 16 bc 65 be 31 7f ad 3d cf c4 b1 bd
       -0.12983906 -0.2243503 0.084715255 -0.086801164
000340 52 d7 2d be c2 30 54 be be 13 2c 3e 03 c5 da 3d
       -0.1697667 -0.20721725 0.16804406 0.10682108
000350 77 df c4 bc 2a 17 9e 3d 17 98 a1 3d 56 9e f5 3e
       -0.024032338 0.07719262 0.07890337 0.47972363
000360 ec f7 4b be ae 26 8a 3e a7 af c7 be de 92 8b 3e
       -0.19918793 0.26982635 -0.390012 0.27260488
000370 ec 11 60 be d2 db 07 be bd d9 c4 bc 3b 07 b8 3d
       -0.21881837 -0.13267449 -0.024029607 0.08985754
000380 fa dc f0 be e7 31 09 bf 89 24 2c be cb 7d d8 bd
       -0.47043592 -0.5359177 -0.16810812 -0.10570868
000390 ab 11 a7 3d d2 19 29 bf 9a ee 0d bd b4 cd 35 be
       0.08157667 -0.66055024 -0.034651376 -0.17754251
0003a0 5f 69 67 bd 80 91 c8 bd 24 d0 eb 3e 8b 02 c0 bd
       -0.056496974 -0.09793377 0.46057236 -0.09375485
0003b0 71 b0 ff bc 69 c8 4e be e5 1a 9a bd 46 50 27 3e
       -0.031212064 -0.20193638 -0.07524661 0.16339216
0003c0 a9 2d 9d be 48 72 68 be 05 4a 95 3e 02 ea a5 bd
       -0.30698898 -0.22699845 0.29158035 -0.08101274
0003d0 41 6c d0 bd 35 b9 c9 3c 11 79 49 bf ec aa f6 3d
       -0.10176898 0.024624446 -0.7870036 0.120443195
0003e0 0a 93 15 bd 3c 65 fd 3d bd 4e 6d 3e cb b6 5c 3d
       -0.03651718 0.123728245 0.23174568 0.053885262
0003f0 a9 7b 4f 3d a8 fa 84 bd ca 3b 80 3d de d0 25 be
       0.05065504 -0.064931214 0.06261404 -0.16192958

network_smart.layer3.0.bias f4 [48]
000000 b0 97 b2 bd 6a 72 d3 3d 54 b4 bc 3c e5 09 40 3d
       -0.08720338 0.10324557 0.023035206 0.046884436
000010 44 8d f4 3d ff 87 2e 3d 0b 58 74 3e a3 2e b7 3a
       0.11941007 0.042610165 0.2386171 0.0013975691
000020 58 8d e5 bd 4c bc 86 bd 0b 53 c6 bc 47 45 c8 bd
       -0.112086 -0.065788835 -0.02420952 -0.097788386
000030 57 e4 ac bd fa 51 0a 3e 0e 04 67 3e 90 61 ae bd
       -0.0844199 0.13507834 0.2256014 -0.08514702
000040 3a f1 0f bc 5e f8 47 ba 89 cf 48 bd 8b 52 d0 3d
       -0.00878554 -0.0007628257 -0.049026046 0.10171994
000050 dc f0 33 3e 9a cd 83 3c 57 b5 8d bd fa 23 06 3e
       0.1757235 0.01608925 -0.069193535 0.13099661
000060 fe a2 25 3e 5f 16 e8 bd c5 11 87 be 69 2d a0 3d
       0.16175458 -0.11332392 -0.26380745 0.07821161
000070 fd d6 bb bd 6c 40 97 bd c9 aa e9 3b ac fb 90 bd
       -0.09171865 -0.07385334 0.007130955 -0.070792526
000080 7c c3 27 bd d4 ee 85 3d c2 04 28 3d f7 f1 03 be
       -0.040957913 0.065396935 0.041020162 -0.12885271
000090 c9 bf bf bd e7 a4 43 3e 0f 4c 5f 3e 1a 36 92 b9
       -0.09362752 0.19105874 0.21806358 -0.000278876
0000a0 3b 6d fa bd 18 87 e2 3d 73 15 ac 3c 53 3a 65 be
       -0.12227865 0.11060923 0.021006322 -0.2238553
0000b0 18 7f 6a bd d5 bc fa bc 0c 18 d7 bc 39 7c fd bc
       -0.057250112 -0.03060762 -0.026256584 -0.030943023

fc_smart.weight f4 [64, 48]
000000 30 f6 7c 3c a3 f3 54 3e 85 84 8d 3e 0f 9a 10 3e
       0.015439555 0.20796065 0.27640167 0.14121269
000010 07 ae 41 3e f5 93 cf be fe e6 7e 3e ed 04 62 be
       0.18914042 -0.4054257 0.24892804 -0.22072192
000020 d5 c3 1f 3d 20 73 46 3e cb 45 11 be 2b 1a be be
       0.03900512 0.19379854 -0.1418678 -0.3712934
000030 94 f0 ae 3d 1e 7b 2c 3e 92 bd cc 3e 8c d4 a9 3d
       0.085419804 0.1684384 0.3998838 0.08292493
000040 59 1d ab 3e 26 c7 29 3e aa 32 1c bd 38 5a 8a be
       0.33420828 0.16579875 -0.038134255 -0.27021956
000050 01 41 d0 be 55 8e 94 3e 52 67 00 be f7 da 47 be
       -0.40674594 0.2901484 -0.12539414 -0.19517122
000060 70 d3 b4 3e 46 a2 c4 3e 23 59 2a 3f 85 a9 74 3e
       0.35317564 0.38405055 0.6654226 0.23892792
000070 3d 2b c2 be bd de 58 3e 56 47 b8 3d 5f 19 f7 bd
       -0.37923613 0.21178718 0.08997981 -0.12065386
000080 12 e9 ad be 0f 85 21 3e 2d 07 66 be 5c dc 1d bf
       -0.3396688 0.15773414 -0.22463675 -0.61664367
000090 34 99 8d bd 7e 0b 2a be 2b 7b 82 3e a1 26 9f 3e
       -0.06913987 -0.16605946 0.25484595 0.3108416
0000a0 10 a6 b6 be 01 9f 0a be 37 ce 07 3e e1 fd 94 be
       -0.3567357 -0.13537218 0.13262258 -0.29099944
0000b0 a2 af e1 3d c6 f2 c5 3c 6b ef a6 3e 69 3d a2 be
       0.110198274 0.024163615 0.32604536 -0.31687477
0000c0 f0 c5 36 bd 7b ef 2c 3e 53 ab 66 3e 11 6a ea 3d
       -0.04462236 0.1688823 0.22526293 0.11446012
0000d0 bf cc 1d 3e 0c ff a8 be 10 3d 4f 3e 5d aa 37 be
       0.15410136 -0.33007085 0.20238137 -0.17936082
0000e0 64 c7 86 bd d9 c0 21 3e cd c0 06 3b bd f3 9a be
       -0.065809995 0.15796222 0.0020561696 -0.30264083
0000f0 1d 45 37 bd d5 89 0c 3e b3 33 a6 3e ad e2 d1 3d
       -0.044743646 0.13724454 0.32461318 0.10248313
000100 76 41 8b 3e e5 1a 0a 3e bc da 01 be d2 99 60 be
       0.2719838 0.13486822 -0.12681097 -0.21933678
000110 5e 61 a9 be 8e b4 71 3e 97 77 ed bd 0d 90 22 be
       -0.33082098 0.23604032 -0.115950756 -0.15875264
000120 51 32 93 3e dc f0 9f 3e 39 5f 0b 3f 25 bf 46 3e
       0.28749326 0.3123845 0.54442173 0.19408853
000130 19 2c 9e be 44 53 30 3e 0c ce 96 bd 36 cc fd 3c
       -0.3089302 0.17219263 -0.07363519 0.030981164
000140 26 9a 8d be f2 5a 03 3e 29 f1 3a be e0 7c 00 bf
       -0.27656668 0.12827662 -0.18256058 -0.50190544
000150 ab 85 fb bd 31 3b 0a be e0 6c 54 3e 29 5e 81 3e
       -0.122813545 -0.13499142 0.20744658 0.2526715
000160 ca 24 94 be dd b1 e1 bd 5d d2 dc 3d 4d b1 c4 be
       -0.28934318 -0.11020253 0.10782311 -0.3841652
000170 51 1e b5 3d ea fc 07 3e c8 ae 87 3e a8 f9 83 be
       0.08843673 0.13280073 0.26500535 -0.2577641
000180 60 6e c8 3c 1e 69 1f be d2 20 53 be f5 24 d8 bd
       0.024466693 -0.15567443 -0.20617989 -0.10553924
000190 0a d6 10 be 0b 89 9b 3e 17 e8 3e be bd 71 28 3e
       -0.1414415 0.30377993 -0.18643223 0.16449638
0001a0 7f d9 11 be 63 59 14 be e4 49 f4 3c bb d0 8d 3e
       -0.14243124 -0.14487223 0.02982039 0.2769831
0001b0 a7 67 83 3d 7c 05 00 be fd d8 98 be 3f 29 51 3d
       0.064162545 -0.12502092 -0.2985305 0.051064726
0001c0 95 c2 7f be 5a 02 fd bd a0 d6 af bc 86 a6 4e 3e
       -0.24976571 -0.12353964 -0.021464646 0.20180711
0001d0 2f f5 9a 3e 30 0f 5d be 15 42 01 3e 23 2f 15 3e
       0.30265185 -0.21587825 0.12622865 0.14568762
0001e0 15 03 87 be 51 b7 92 be 79 4d fd be 97 0f 37 be
       -0.2636954 -0.28655484 -0.4947317 -0.17877041
0001f0 7f 6b 90 3e e8 f4 21 be e1 8f 55 bd e7 bb 8e bd
       0.28207013 -0.1581608 -0.052139167 -0.06969433
000200 21 cd 81 3e 76 a3 f1 bd 30 b4 2b 3e 3d 9d ec 3e
       0.25351813 -0.11798756 0.16767955 0.46213713
000210 c9 6c c5 3d cf cd fe 3d ef c9 42 be 8f 88 6d be
       0.0963989 0.124415986 -0.19022344 -0.23196624
000220 e1 35 88 3e 54 ac cf 3d 89 86 ca bd 9b b7 4d 3e
       0.26603606 0.10140291 -0.09888942 0.20089571
000230 3d 32 ad bd eb 63 16 3d c9 b8 78 be 61 19 72 3e
       -0.08456848 0.036716383 -0.2428924 0.23642494
000240 4b 6e 0a 3e 3d f2 72 3e c6 18 a3 3e 33 df 24 3e
       0.13518636 0.23725219 0.31854838 0.16100769
000250 63 55 5e 3e 83 52 ed be d6 86 91 3e 0d d6 81 be
       0.2171226 -0.46352014 0.28423184 -0.2535862
000260 77 4f 11 bd 25 10 64 3e 17 16 21 3c 6f 12 db be
       -0.035476174 0.22271784 0.009831927 -0.427875
000270 23 18 40 bc 81 1c 48 3e 54 55 ea 3e d1 55 26 bd
       -0.011724505 0.19542123 0.45768225 -0.040609185
000280 c3 3f c4 3e 5d 67 43 3e fd 5b cf bd c1 3d 9e be
       0.38329896 0.19082399 -0.10124967 -0.3090649
000290 43 16 f0 be bd 5e ab 3e 31 c6 e3 bd f5 6b 65 be
       -0.46891984 0.33470717 -0.111217864 -0.22404464
0002a0 f4 be cf 3e 75 eb e1 3e f3 1f 46 3f bc b1 8b 3e
       0.40575373 0.44124952 0.773925 0.27284038
0002b0 45 6f e0 be 9f ac 78 3e 00 6a 7d 3d 6a e3 fc 3d
       -0.43834892 0.242846 0.061868668 0.12348063
0002c0 bd ff c7 be d2 d6 38 3e b6 da 83 be 83 68 34 bf
       -0.390623 0.18050697 -0.257528 -0.7047197
0002d0 24 3a be 3c f0 01 42 be 7d ff 95 3e bb 99 b6 3e
       0.023221083 -0.18946052 0.29296485 0.35664162
0002e0 71 16 d1 be 4a 93 1e be b6 0a 1c 3e aa 6e af be
       -0.40837434 -0.15485874 0.15238461 -0.34264117
0002f0 3e b7 f3 3d f0 64 cd 3d 56 05 c0 3e 59 61 ba be
       0.11900185 0.10029018 0.3750407 -0.36402395
000300 e7 aa 0c 3e 91 c2 48 be cd ff 84 be 7b 54 08 be
       0.13737069 -0.19605471 -0.2597641 -0.13313477
000310 81 41 36 be c4 95 c3 3e 83 41 70 be c2 95 54 3e
       -0.17798425 0.382002 -0.2346249 0.20760253
000320 af 09 94 3d 67 ae 3a be 55 45 ad 3c f2 a8 b2 3e
       0.072284095 -0.18230592 0.021151224 0.3489452
000330 3d 95 8c 3b 09 bc 21 be 21 ce c0 be 9b 88 1c 3d
       0.0042902515 -0.15794386 -0.37657264 0.038216215
000340 4c 0e a1 be f7 99 1f be 5d 03 85 3c ee 50 82 3e
       -0.3145622 -0.15586077 0.016236955 0.2545237
000350 36 a9 c3 3e 8f 8c 8b be d3 a4 6e 3c 49 0b 3c 3e
       0.38215035 -0.27255675 0.014565664 0.1836368
000360 f9 19 aa be e5 f6 b8 be 08 ab 1f bf 57 95 66 be
       -0.3322294 -0.36125866 -0.6237035 -0.22517906
000370 d2 47 b6 3e 00 20 4c be 72 27 a5 bd db 66 03 3e
       0.3560167 -0.19934082 -0.08064164 0.12832205
000380 14 8c a3 3e 77 21 18 be 15 83 58 3e 75 c2 14 3f
       0.3194281 -0.14856516 0.21143754 0.5810922
000390 d1 56 82 bd 17 50 20 3e 1e 72 75 be b6 c3 95 be
       -0.06364215 0.15655552 -0.23969314 -0.29250878
0003a0 64 f9 ab 3e 8b 97 02 3e 17 79 ff bd 1c ec 21 bf
       0.33588707 0.12753122 -0.12474268 -0.632509
0003b0 b3 50 d8 bd ab f5 e3 3d ed f5 9c be 4b 9c 98 3e
       -0.10562267 0.11130842 -0.30656376 0.29806742
0003c0 1a 23 cc 3d 9c 98 34 3e a4 cd 6f 3e 39 05 f5 3d
       0.099676326 0.17636341 0.2341829 0.11963887
0003d0 5f 43 24 3e 1c 2f b0 be 64 43 58 3e bc 54 3f be
       0.16041325 -0.34410942 0.21119457 -0.18684667
0003e0 15 e5 07 3d 24 4b 28 3e 6a 2a 69 bc 4a 13 a1 be
       0.033177454 0.16434914 -0.014231304 -0.3146003
0003f0 75 72 09 3e 09 d1 11 3e 17 6b ad 3e 8f d6 8f bd
       0.13422568 0.14239897 0.33870766 -0.07023346

fc_smart.bias f4 [64]
000000 6c ad 05 be ca 5a a6 bd 10 9e ad 3d 21 ff f7 bd
       -0.13054436 -0.081227854 0.08477414 -0.12109209
000010 c7 8a 43 3e 0c bc b8 bd 9e 75 f3 bd 1a 08 a7 bd
       0.19095908 -0.09020242 -0.11887668 -0.08155842
000020 15 f3 54 be 07 50 e3 3d ca 3d d1 bb cc 39 c4 3d
       -0.20795853 0.110992484 -0.0063855397 0.095813364
000030 ac 5a 10 be 06 c2 81 bc 46 fb b9 bd a1 78 3d bd
       -0.14097089 -0.015839588 -0.0908113 -0.04625762
000040 42 d6 bc 3d aa 9e ff 3b 83 51 d2 3d 38 90 ca bd
       0.09220554 0.0078008967 0.102694534 -0.09890789
000050 10 ae 28 3a e3 b0 89 3d 28 68 ed bd f6 97 9b 3d
       0.0006434629 0.067231916 -0.11592132 0.075973436
000060 49 6d 3f 3d a8 e6 32 bc b4 20 f4 bd 22 dc 5a 3e
       0.04673508 -0.010919251 -0.119203 0.21373037
000070 95 ad 63 3e b2 0d eb 3d 9f 91 df bd e6 90 b6 3d
       0.22234185 0.114772215 -0.10916447 0.08914356
000080 35 4b c8 bd 4f 62 fe 3d fa ba 64 3d 3c 21 8f 3d
       -0.097799696 0.124210946 0.055842377 0.06988761
000090 97 9b cd bc 33 bd 7c 3c 79 12 10 bd a3 78 07 be
       -0.025098605 0.015425968 -0.035173867 -0.13229613
0000a0 f6 9c ce bd cb e5 59 bd e0 2b 8d bd d4 c5 0a 3c
       -0.10088532 -0.053197663 -0.06893134 0.008470017
0000b0 d0 fe f5 bd dc 63 a6 bd 17 ca 2a be 10 75 a9 3d
       -0.12011492 -0.081245154 -0.16678654 0.08274281
0000c0 c1 4b 18 3e eb 61 77 bd c9 89 24 3e 71 e6 2e 3e
       0.14872648 -0.060396116 0.16068186 0.17080094
0000d0 10 05 a7 bd 09 cc 63 bd 19 1c fb 3c 8e f0 a0 3d
       -0.081552625 -0.055614505 0.030653046 0.07858382
0000e0 82 77 bd 3d 22 13 7f bd b3 f1 e5 3d db e3 56 bc
       0.0925131 -0.062274106 0.11227741 -0.013115848
0000f0 7e b8 d5 bd e5 59 3c 3e 88 e7 7b bc 08 5a 91 bd
       -0.1043558 0.18393667 -0.015375026 -0.0709725

network_aging.lstm.weight_ih_l0 f4 [128, 5]
000000 54 da ba bd 12 57 09 3d ce 21 bb bd a1 ed e0 bc
       -0.09123674 0.033530302 -0.09137307 -0.02745706
000010 29 3b 1a be 11 c7 a0 bb 1e 68 64 3e f4 a3 f1 3d
       -0.1506163 -0.004906543 0.22305343 0.1179885
000020 a8 f3 51 3e 9d 36 16 3e e5 c2 64 3e 6c bf 3f 3e
       0.20503104 0.14669271 0.22339971 0.18725365
000030 fb a3 b1 bd be fa aa 3d aa bb b5 bc 55 b0 a1 3d
       -0.08673855 0.083486065 -0.022184212 0.07894961
000040 66 8c f8 bd ab 97 a6 3d c2 45 ca 3c 7b 41 02 3e
       -0.12136154 0.08134397 0.024691466 0.12720291
000050 1d 11 41 3d 0a 84 00 3e 4c 7e 4b bd 26 48 97 bd
       0.04713546 0.12550369 -0.049680993 -0.07386808
000060 d3 90 f6 3d f7 b8 98 bd c7 9e 5e bd 96 2d 14 3e
       0.12039342 -0.07457154 -0.05435064 0.14470515
000070 f6 c8 db 3d 8c 11 e3 bd 11 e0 c8 bd 1a 04 f9 bc
       0.1073169 -0.11087331 -0.09808362 -0.030397464
000080 ad dd e3 3d c8 85 d1 3c 58 03 06 3c 69 79 a9 bd
       0.11126266 0.025576487 0.008179508 -0.0827511
000090 86 28 62 bd 20 42 50 3d 2c 55 b6 bd d4 c1 28 bd
       -0.055214427 0.05084431 -0.08902964 -0.041200474
0000a0 d1 a2 f2 bd ab 72 1b 3e 30 9b 0a 3d 65 5e 45 bd
       -0.11847461 0.15180461 0.033839405 -0.048185725
0000b0 df 65 d1 bd 36 26 cc bc ee 2b 01 be ac 29 39 3e
       -0.102245085 -0.024920564 -0.12614414 0.18082303
0000c0 fe 4b 74 3d 50 c1 24 3e 25 f7 90 3d 9b 84 06 3e
       0.059642784 0.16089368 0.07078389 0.13136522
0000d0 fe ae fc 3d 33 bf 06 3e 83 31 a4 3d 7d 22 b3 bd
       0.123380646 0.13158874 0.08017256 -0.087468125
0000e0 2b e6 1b be d4 4e c1 bd 10 b1 5d bd 5d b5 93 bd
       -0.15224521 -0.094388634 -0.054123938 -0.07212327
0000f0 80 fc c4 3d 2f 1a 24 3d 90 07 01 3e 2c 4c d1 bd
       0.09618473 0.040064033 0.12600541 -0.10219607
000100 03 6f ee 3d 55 fb 1c 3c 75 03 3f 3e 25 fa 31 3d
       0.116422676 0.009581407 0.18653663 0.043451447
000110 85 5f fa bd 1c 4c 57 bd c3 5f 0a 3d 40 8d bb 3c
       -0.1222525 -0.052562818 0.03378273 0.022894502
000120 a6 ec ba bd fc 44 c5 3d 4e 66 c8 3a 03 df fc bd
       -0.09127168 0.09632298 0.0015289278 -0.123472236
000130 ef 62 6a 3b 6f 0d a2 3d 3a 2e 50 3e e0 ff 4f 3e
       0.0035764535 0.079127185 0.20330134 0.20312452
000140 24 a5 d9 bd f8 0b f1 3d 91 4a 19 3e 4a b7 96 3b
       -0.10627201 0.11769861 0.14969851 0.0045994865
000150 ce 53 fc 39 bf e5 4f bd 89 55 de bd 2e bd 26 3e
       0.00048127625 -0.050756212 -0.10856158 0.16283104
000160 b9 c5 1f bc f9 de cd 3d 28 db 0a bd 49 b4 e5 3c
       -0.009751731 0.10052294 -0.03390041 0.028040068
000170 35 86 18 3e 0e 38 05 3d d5 08 65 3b 13 98 ad bd
       0.14894946 0.03252416 0.0034947891 -0.084762715
000180 1d 51 04 be 07 94 41 bc f2 4f a6 3d ef 6f af bd
       -0.12921567 -0.011815078 0.08120717 -0.085662715
000190 00 dc 5a bd bf 0f 67 3e 24 68 11 3e 80 05 a9 bd
       -0.053432465 0.225646 0.14199883 -0.08253002
0001a0 a9 d8 ad 3c 1f 73 5f 3e 4a e2 63 3d a9 e8 44 3e
       0.021221476 0.21821259 0.055635728 0.19229378
0001b0 a1 ce a8 3c 29 21 a9 bc 3a 5b 96 3d 36 f0 c4 3d
       0.02060634 -0.020645695 0.07341619 0.09616129
0001c0 25 40 07 be f2 a0 57 bd 7c 54 08 be 2c bf 45 3e
       -0.13208063 -0.052643724 -0.13313478 0.19311208
0001d0 cb 52 45 3e 73 64 20 3e 3f 29 f5 3c 2e ed 39 3e
       0.19269864 0.15663318 0.029926894 0.18156883
0001e0 61 8f f5 bd 87 ca f0 bd a3 80 e1 3c 03 80 32 3e
       -0.11990238 -0.11757379 0.02752716 0.17431645
0001f0 b0 50 2e bd 1b 89 8b bd 6f fb 2e bc 12 17 5c bd
       -0.04255742 -0.0681326 -0.010680064 -0.05373294
000200 c7 d8 56 3c b2 65 a0 bd 4f c9 e6 3c bf 61 4f 3e
       0.013113207 -0.07831897 0.028172163 0.20252131
000210 76 30 9a 3d 6d bd 0f bd 9d c7 27 bc 97 48 54 bc
       0.075287744 -0.03509276 -0.010240463 -0.01295676
000220 a4 1f 5c 39 56 60 2c 3d e4 a3 0e 3e bc 4b d5 3d
       0.00020992622 0.04208406 0.13929707 0.10414836
000230 9f 16 87 3c a9 7c 6a 3d 82 d1 4a bd 4b f1 41 3d
       0.016490279 0.05724779 -0.04951621 0.047349256
000240 94 ed 24 3e 45 43 50 3e a7 63 da bd 9c 95 80 3d
       0.16106254 0.20338161 -0.106635384 0.06278536
000250 f6 27 70 3c c9 1b a7 bd 6a 16 56 3e a7 ec a6 bc
       0.014657965 -0.081595965 0.20906988 -0.020376517
000260 c3 32 0a 3d e3 71 a1 3d a1 1b 9d bd 95 9a 95 bd
       0.033739816 0.0788305 -0.076712854 -0.07304875
000270 b5 c0 a0 bd 32 86 2f 3e de e9 10 3d 0b b8 a7 3c
       -0.07849256 0.17141035 0.035379283 0.0204735
000280 f1 66 7f 3c 13 87 3a bc 7c f1 65 3d 6d cd 86 bb
       0.015588508 -0.011384743 0.0561385 -0.004113844
000290 cc e7 6f bd 9d 87 6d 3e eb 9d fd 3c e8 fd 92 bd
       -0.058570668 0.23196264 0.03095909 -0.07177335
0002a0 97 08 35 3e 95 e2 3d 3e 74 fb 4b 3d 63 42 2b 3e
       0.17679058 0.18543465 0.04980035 0.16724543
0002b0 69 d9 b5 3d 4a 9f 3e 3e ca 64 a4 bd 48 1b 26 3e
       0.08879358 0.18615451 -0.080270365 0.16221344
0002c0 41 36 92 3d 5b f5 91 bd 75 a5 1c be e0 5d b3 3c
       0.07139254 -0.07126876 -0.15297492 0.021895349
0002d0 39 12 a6 3d fb 94 01 be 4c 6b 1a 3e 80 66 2a 3e
       0.081089444 -0.12654488 0.15079993 0.16640663
0002e0 d0 16 45 bd 1d 9a d0 bc 1a 6f c3 bd cf 88 45 3e
       -0.04811746 -0.025464112 -0.09542675 0.1929047
0002f0 1e f8 a2 3d 50 e3 a7 3d 7b 03 14 be c6 52 a4 bd
       0.07957481 0.08197653 -0.14454453 -0.080236
000300 17 2c 1e 3e a3 79 4d 3c 8a 04 0c 3e dc e5 eb bc
       0.15446506 0.0125412075 0.13673607 -0.028796129
000310 b0 af 21 3e 42 31 a9 3d e0 99 ef 37 f5 12 bc bc
       0.15789676 0.08261348 2.8562674e-05 -0.022958258
000320 9e bd 34 3e dd 6e f2 3d 12 24 48 3e 92 77 ac 3d
       0.17650458 0.11837552 0.1954501 0.08421244
000330 04 17 db 3d 77 da 26 3e bc 64 01 be 40 f6 3d 3e
       0.10697749 0.16294275 -0.12636083 0.18550968
000340 3f 28 0f 3d 55 56 f5 3d 70 13 51 bd 20 60 01 3e
       0.03495049 0.11979357 -0.051043928 0.12634325
000350 0c e4 b7 3d 81 31 38 3e 02 b8 34 3e 45 55 2e bc
       0.08979043 0.17987634 0.17648318 -0.010640447
000360 29 82 30 3e 54 f4 fc bd 48 72 37 3d 8d 11 00 bd
       0.17237152 -0.123512894 0.04478672 -0.031266738
000370 48 4d 59 3e 4c da 73 3e 51 1d 10 3e 4b f5 a2 3c
       0.21220887 0.23813742 0.14073683 0.019892355
000380 a7 3b 17 3e bf ec e5 3b ce f6 16 3e c7 cf 32 bc
       0.1476885 0.0070167477 0.14742586 -0.010913796
000390 36 8e 5c 3d 3b 0a 25 3c ae 00 f3 ba 3c 77 74 3e
       0.05384656 0.01007324 -0.0018539631 0.2387361
0003a0 9b ee b7 bd f4 de ab bd 38 d6 48 3e f2 99 1f 3e
       -0.08981057 -0.08392134 0.19612968 0.15586069
0003b0 f7 5f 45 bd a9 9e 26 bd bb bb cb 3d 52 ff 93 3d
       -0.048187222 -0.040678654 0.09947916 0.07226433
0003c0 06 4c a6 3c bf 6f d4 bd 65 94 74 3c 27 d8 a4 3d
       0.020299923 -0.103728764 0.014927958 0.0804904
0003d0 ae 46 4a 3e fc 33 ed bc bc 90 99 bd eb 39 00 3e
       0.19753525 -0.028955452 -0.07498309 0.12522094
0003e0 96 e5 bc bd fd ff 48 3d e0 08 92 bd 87 04 96 3d
       -0.092234775 0.049072254 -0.07130599 0.07325082
0003f0 87 20 74 bd f2 b0 37 3e de 33 09 be 64 84 1e 3d
       -0.059601333 0.17938593 -0.13398692 0.038700476
