trained_model/mc1_mc2/5_days_lookahead/pnet_checkpoint/pnet_1000.pth (torch, 545278 bytes, 36 tensors)

network_smart.layer1.0.weight f4 [128, 330]
0.0017395358 -0.042555347 0.016776413 -0.025484461 -0.043854713 0.020185078 0.04436447 0.0169675
0.028499706 0.03571536 -0.043876167 -0.031937737 -0.008923631 -0.032796014 -0.05003525 0.0077798297
-0.033442162 -0.039537005 0.032859754 0.05026527 0.047567744 0.021173729 0.009363492 -0.014153637
0.025444286 0.0035034767 0.0041032145 -0.0060240193 -0.014803385 0.012526073 -0.0053381654 -0.0035572741
-0.0044633774 -0.035954107 -0.048527356 0.034259424 -0.002868946 0.05357824 -0.047974408 -0.0060588387
0.014645833 -0.04873284 0.05277026 0.025604524 0.025368217 0.03381283 0.046641093 -0.0003728608
-0.00035434868 -0.007732982 -0.032132603 0.045304075 0.05410337 0.040661667 -0.049856972 -0.048062716
0.021330697 -0.039226625 -0.020029716 0.027394477 0.032403678 -0.018426446 0.029342338 0.036430717
0.013542278 -0.0095917145 0.005039425 -0.019550022 0.034380276 0.0009857295 -0.037891954 0.017660579
0.007000844 -0.038549516 0.043664414 -0.028902333 0.0004058755 -0.044143323 0.051066685 0.01571311
0.0115584815 -0.00785632 -0.04944983 0.038124874 0.0326113 0.017067501 0.010921674 0.025308225
0.0047017513 -0.020290514 -0.052227773 -0.04885138 -0.018402409 -0.023652535 -0.050766803 0.002646479
-0.046785213 -0.05025121 -0.04311324 -0.0001632033 0.018961716 0.04882055 -0.054392785 -0.010774141
0.047588263 0.0053442614 -0.0075679673 0.03182826 -0.052519944 -0.019440727 -0.013751364 0.031714167
0.012642363 0.00039903107 0.026932487 -0.027583582 0.012609229 0.032036573 0.045389973 -0.02095947
0.042681377 -0.027489485 -0.038243186 0.029525537 0.05337642 -0.020176489 0.03519463 0.046329163
-0.003058792 -0.015184882 0.037400875 0.005040764 -0.0549336 -0.025508938 0.0452651 0.030439384
0.005013714 0.015197062 0.049736917 -0.017570091 -0.019175166 -0.020016376 -0.030354567 0.0062171663
0.0008262011 0.0466052 -0.03996247 -0.04111618 0.008966023 -0.016172476 0.024015926 0.038963616
-0.01203265 0.027384857 -0.0042554718 0.045183886 0.016082488 -0.024237134 0.028856594 -0.014650072
-0.034349386 0.017761335 0.0057151667 -0.001272172 0.013048553 0.037102338 0.051322937 -0.008347471
0.009333976 -0.019432414 0.015240891 -0.036464572 -0.018100085 0.018802056 -0.013915487 -0.025945289
0.04297291 0.007660823 -0.02209476 -0.026306724 -0.015289478 0.0051301485 0.033735573 -0.02968649
-0.02412681 0.036653087 -0.008947045 0.023160312 -0.051705234 -0.028664516 -0.013968338 -0.0298677
-0.012566142 -0.05102779 0.04018149 0.013590425 0.037965693 -0.027300874 -0.048033204 0.012546258
-0.050176937 -0.017050145 0.030586766 -0.03698444 -0.025918974 -0.044383135 0.038628843 0.04003669
0.024982644 0.026729032 0.045463603 -0.013342358 -0.039423913 -0.052538928 0.01871533 -0.040070925
0.0023854522 0.0137885595 0.05003819 -0.0010145444 0.022256322 0.0041010883 0.005125489 0.03344861
0.0069881133 -0.03282357 -0.01402608 0.032025173 0.033395838 0.04318358 -0.051768612 0.007812037
-0.036043886 0.05082813 0.035379212 -0.011350543 -0.049331456 0.016174877 -0.007665443 -0.05433056
0.0006521504 0.026075838 -2.8887049e-05 -0.0458099 0.04237388 0.015790947 -0.051308826 0.052831486
0.02839169 -0.051111065 -0.054251455 0.0071476023 -0.051872216 0.033950012 0.03607671 -0.047360066
00000000: 2301 e43a 844e 2ebd b06e 893c cac4 d0bc
00000010: 00a1 33bd 2d5b a53c 85b7 353d 6dff 8a3c
00000020: 3778 e93c 454a 123d 7fb7 33bd 25d1 02bd
00000030: 6c34 12bc 1d55 06bd c3f1 4cbd f1ed fe3b
00000040: a6fa 08bd 8ef1 21bd f397 063d f5e2 4d3d
00000050: 65d6 423d 8774 ad3c 5569 193c a8e4 67bc
00000060: 8970 d03c 969a 653b 4274 863b 2365 c5bb
00000070: e689 72bc 283a 4d3c c7eb aebb 2821 69bb
00000080: 8641 92bb 9d44 13bd 9fc4 46bd 9c53 0c3d
00000090: ed04 3cbb db74 5b3d d080 44bd 3989 c6bb
000000a0: 13f5 6f3c 169c 47bd a125 583d 94c0 d13c
000000b0: 02d1 cf3c 527f 0a3d bb0a 3f3d 887c c3b9
000000c0: e0c7 b9b9 f464 fdbb 7a9d 03bd c490 393d
000000d0: 7f9b 5d3d d98c 263d d336 4cbd 69dd 44bd
000000e0: b7bd ae3c 19ac 20bd 5c15 a4bc 626a e03c
000000f0: b8b9 043d 0ff3 96bc 585f f03c 6038 153d
00000100: 6ee0 5d3c 9126 1dbc c321 a53b 5e27 a0bc
00000110: 55d2 0c3d 9833 813a 9834 1bbd ebac 903c
00000120: 5667 e53b 19e6 1dbd 75d9 323d 96c4 ecbc
00000130: b0cb d439 a1cf 34bd 4d2b 513d c8b8 803c
00000140: c95f 3d3c cbb7 00bc e88b 4abd d428 1c3d
00000150: 6d93 053d 25d1 8b3c d2f0 323c 3253 cf3c
00000160: 2611 9a3b 4b38 a6bc caec 55bd 6218 48bd
00000170: a6c0 96bc f6c2 c1bc daf0 4fbd 8d70 2d3b
00000180: daa1 3fbd 36d4 4dbd 8297 30bd 8d21 2bb9
00000190: 9a55 9b3c 0ff8 473d f8ca 5ebd 0686 30bc
000001a0: e9eb 423d ea1e af3b b6fc f7bb 595e 023d
000001b0: 271f 57bd 2942 9fbc 674d 61bc b7e6 013d
000001c0: ea21 4f3c 0b35 d139 85a1 dc3c f7f6 e1bc
000001d0: f196 4e3c c838 033d d6ea 393d 32b3 abbc
000001e0: abd2 2e3d a131 e1bc e3a4 1cbd 8adf f13c
000001f0: 3ca1 5a3d 2a49 a5bc 3f28 103d a6c3 3d3d
00000200: 0476 48bb 03ca 78bc a931 193d fe2c a53b
00000210: 0e02 61bd 1ff8 d0bc e667 393d 045c f93c
00000220: 154a a43b 19fd 783c f0b8 4b3d 27ef 8fbc
00000230: 3d15 9dbc 62f9 a3bc 24aa f8bc 5fb9 cb3b
00000240: 6b95 583a 18e5 3e3d b0af 23bd 7169 28bd
00000250: 3ae6 123c 247c 84bc 0cbd c43c 5098 1f3d
00000260: 9824 45bc 3556 e03c 7c71 8bbb bd12 393d
00000270: 6cbf 833c f48c c6bc aa64 ec3c db06 70bc
00000280: f1b1 0cbd 3880 913c 4b46 bb3b 02bf a6ba
00000290: 99c9 553c 9ff8 173d 0038 523d d5c3 08bc
000002a0: 88ed 183c ba30 9fbc eeb4 793c e05b 15bd
000002b0: a146 94bc c506 9a3c c8fd 63bc 378b d4bc
000002c0: 5d04 303d a407 fb3b 1200 b5bc 3381 d7bc
000002d0: b880 7abc ce1a a83b 502e 0a3d 1531 f3bc
000002e0: 96a5 c5bc 8c21 163d a096 12bc b2ba bd3c
000002f0: dec8 53bd d9d1 eabc 75db 64bc 1bad f4bc
00000300: 38e2 4dbc 8402 51bd 5995 243d 60aa 5e3c
00000310: ea81 1b3d 15a6 dfbc 77be 44bd d28e 4d3c
00000320: 5586 4dbd bfac 8bbc 1991 fa3c ff7c 17bd
00000330: 0754 d4bc 17cb 35bd 4739 1e3d 83fd 233d
00000340: 67a8 cc3c d8f6 da3c 0b38 3a3d e899 5abc
00000350: f87a 21bd 0f33 57bd e450 993c 6921 24bd
00000360: 3f55 1c3b 69e9 613c d8f4 4c3d 76fa 84ba
00000370: e452 b63c 6c62 863b b8f3 a73b 6901 093d
00000380: 8bfc e43b 0272 06bd a5cd 65bc d42c 033d
00000390: 13ca 083d 44e1 303d 530b 54bd 1efc ff3b
000003a0: c1a2 13bd 2831 503d cbe9 103d a1f7 39bc
000003b0: c80f 4abd 2d81 843c 652e fbbb b989 5ebd
000003c0: 13f5 2a3a ff9c d53c 7752 f2b7 29a3 3bbd
000003d0: 3c90 2d3d 045c 813c 3429 52bd d465 583d
000003e0: b195 e83c d659 51bd c636 5ebd 6f36 ea3b
000003f0: f677 54bd 2b0f 0b3d 2cc5 133d a1fc 41bd

network_smart.layer1.0.bias f4 [128]
-0.027249 -0.14188078 -0.13962427 -0.12579376 0.08107029 -0.028561765 0.0021955143 0.06770562
0.048508197 -0.019189931 0.08975047 -0.0030490374 -0.032694556 -0.19678107 -0.013477226 -0.18269837
-0.092309706 0.08848084 -0.0041995565 -0.103237845 -0.09911177 -0.0037992476 -0.017388944 -0.028296512
-0.050791223 -0.048056968 -0.015213235 0.08557741 -0.130744 -0.05627428 -0.005605367 -0.037032213
-0.14248487 -0.047103148 -0.1038293 -0.07394713 0.12815113 -0.061233725 0.1483519 -0.009674477
-0.049816504 -0.070101164 0.12758479 -0.06924755 -0.053986188 -0.007926591 -0.07490555 0.02003889
0.04957945 -0.05272477 -0.10111687 0.035922416 0.018649016 -0.01286815 0.095427364 -0.01429537
0.02668049 -0.018348008 -0.054528933 0.07610991 0.012121632 0.076817416 0.04912672 -0.11740477
0.005313124 -0.15077263 -0.052481268 -0.030465752 -0.014299857 0.033334084 0.17268868 -0.12622364
0.0053445306 0.007363843 0.015207644 -0.12645191 0.014984303 -0.07908061 0.056349486 0.053258125
0.037457738 -0.04743723 -0.018600354 0.021669729 -0.19680661 -0.0515202 -0.015858144 -0.009195481
-0.0068290434 -0.07419842 -0.015042473 -0.0097792335 -0.03570204 -0.053805977 0.09707458 -0.012256968
-0.053801972 -0.02775728 0.12117102 0.07146587 -0.09848414 0.03370134 0.05140797 -0.059120856
-0.054446865 0.011206325 0.10709646 0.013783674 -0.099855736 -0.021640783 0.005056176 0.01700239
-0.06504006 0.028198857 0.035403874 -0.0010563248 0.030478954 -0.0076299976 0.025676522 0.027991796
0.04685795 -0.011845805 -0.12280042 -0.05186261 -0.16042016 -0.053706497 0.076212086 0.11715763
00000000: 4b39 dfbc 3249 11be aaf9 0ebe 14d0 00be
00000010: 2e08 a63d 5dfa e9bc 9ee2 0f3b 3ea9 8a3d
00000020: 88b0 463d 3434 9dbc 18cf b73d 5cd2 47bb
00000030: baea 05bd fa80 49be 95cf 5cbc 4815 3bbe
00000040: df0c bdbd 7135 b53d 6f9c 89bb 5d6e d3bd
00000050: 1dfb cabd ccfc 78bb 4273 8ebc 16ce e7bc
00000060: 750a 50bd 62d7 44bd ef40 79bc 3643 af3d
00000070: c1e1 05be dc7f 66bd 3aad b7bb 17af 17bd
00000080: 8ee7 11be 3bef 40bd 75a4 d4bd 9871 97bd
00000090: 0d3a 033e 37d0 7abd 8fe9 173e b381 1ebc
000000a0: 640c 4cbd 3391 8fbd 96a5 023e a9d1 8dbd
000000b0: 9f20 5dbd 88de 01bc 1568 99bd 9928 a43c
000000c0: d213 4b3d eef5 57bd 5d16 cfbd 6223 133d
000000d0: d2c5 983c efd4 52bc 6c6f c33d 2137 6abc
000000e0: 0b91 da3c 904e 96bc bb59 5fbd 83df 9b3d
000000f0: cf99 463c 7352 9d3d 1939 493d e971 f0bd
00000100: b719 ae3b 2464 1abe 99f6 56bd 5093 f9bc
00000110: f349 6abc 5289 083d 4dd5 303e c540 01be
00000120: 2c21 af3b 644c f13b 7b29 793c 9c7c 01be
00000130: b980 753c 04f5 a1bd b8ce 663d 3125 5a3d
00000140: 496d 193d 8a4d 42bd c55f 98bc b784 b13c
00000150: ac87 49be d806 53bd f0e8 81bc a5a8 16bc
00000160: 2bc6 dfbb 57f5 97bd b474 76bc 1439 20bc
00000170: 4d3c 12bd a863 5cbd 0acf c63d 73d1 48bc
00000180: 755f 5cbd 3c63 e3bc 8328 f83d b35c 923d
00000190: 0eb2 c9bd 6b0a 0a3d 2a91 523d b628 72bd
000001a0: ad03 5fbd bc9a 373c 6455 db3d ebd4 613c
000001b0: 2a81 ccbd 0348 b1bc 47ae a53b 9948 8b3c
000001c0: b933 85bd 4a01 e73c a703 113d 6174 8aba
000001d0: 00af f93c 0f05 fabb 9257 d23c 0d4f e53c
000001e0: 1fee 3f3d e814 42bc c97e fbbd e36d 54bd
000001f0: 2f45 24be 58fb 5bbd 1515 9c3d 57f0 ef3d

network_smart.layer2.0.weight f4 [128, 128]
-0.026504498 0.101888806 -0.01134811 0.10479482 -0.12348552 0.029538674 -0.027085356 -0.090577506
-0.019470777 0.03327815 -0.54115707 -0.05004873 -0.08046356 -0.022086065 -0.0002258755 -0.024580091
0.2695363 -0.16876784 0.034644917 -0.19118184 -0.08281919 -0.13632023 0.08526328 0.02562543
0.027396997 0.051347688 -0.19014882 -0.49976152 -0.024620844 0.0834379 -0.053119842 0.020132111
0.09612269 0.079746075 -0.13019775 -0.011887754 -0.5739887 -0.04127621 0.21885875 -0.025786864
0.05855506 -0.028532935 0.015211099 0.05054656 0.04673823 -0.11152506 -0.015960468 0.060148366
0.072751656 0.039004706 0.0024799134 -0.0340816 -0.07555292 -0.05401088 0.023927342 0.049143314
-0.056791183 -0.008766038 0.052796986 -0.05425506 0.039704088 -0.08348057 0.25488856 0.16261245
0.08305923 -0.013802029 0.032830153 0.07453059 0.062483113 0.08681048 -0.08098686 0.09801136
-0.14236249 -0.0008487319 0.016650477 -0.0012041384 0.12507004 -0.0030755806 -0.004991523 0.007080524
-0.08001416 -0.04137365 -0.016944448 -0.0065675746 -0.015448085 0.039044615 -0.058270007 0.07179258
0.05968198 0.08474406 0.07171345 -0.0020835893 -0.1627801 -0.035176538 0.027504113 -0.02098385
0.083270855 -0.08746513 0.013811433 0.06205713 0.04974974 -0.14319547 -0.069469914 0.0022920547
-0.061454643 0.17435783 -0.015472409 -0.012739735 -0.021813484 0.0054026674 -0.073923215 -0.034805678
-0.19217426 0.084698245 -0.01996513 0.1285769 0.05999648 -0.037844934 -0.03453147 0.024321262
-0.002343997 0.026612619 0.010209182 -0.116630994 0.15125269 -0.066549 -0.081598155 -0.018311372
-0.068704106 -0.116231635 -0.03969556 -0.03415074 -0.5179375 0.03067976 -0.04774301 0.024584062
-0.07026088 -0.020122781 -0.13227308 -0.020695092 -0.08307183 -0.040728483 0.077152826 0.16971533
0.075723715 -0.12983696 0.024715818 0.08003196 -0.04247855 0.056026004 -0.008154222 0.038725935
-0.06439857 -0.08526376 0.14590922 0.11775483 -0.11920042 0.0044275867 -0.0072606583 0.02047445
0.10758456 -0.07259136 0.06885773 -0.24773222 0.27475816 -0.08604375 -0.009194705 -0.037050948
0.0780188 -0.02819107 0.0051846653 0.040690526 -0.08466917 -0.11847682 -0.053828713 -0.01587097
0.1684858 -0.0075424104 0.07497029 0.09565073 -0.12570783 -0.0059449812 -0.08047608 -0.043698058
-0.035291206 -0.06711074 -0.07333935 0.07293083 0.010208484 -0.2009714 0.07532519 0.086687006
-0.10303947 0.014245327 0.009677296 0.0035913435 0.05873496 0.082038715 0.00033461367 0.021972202
-0.17556332 0.057080317 0.035658576 -0.033312276 0.07204977 -0.017700205 -0.01706736 -0.03284215
0.02406056 -0.055732917 0.12400408 -0.061074503 0.00013138956 -0.034324735 0.078574955 0.112763315
-0.023269221 -0.017788257 -0.040393602 -0.08139749 -0.34347796 0.0855312 0.06968785 -0.024622494
-0.057997666 -0.42242235 0.0777666 0.22044653 0.056898884 0.15423717 -0.3763878 -0.08287055
-0.03214524 0.13193958 0.21579935 -0.07964122 0.06550205 -0.062994115 -0.1848141 -0.050611526
-0.09503629 -0.08958983 0.080898665 0.15039091 -0.055586044 0.07249276 0.058898956 0.25913882
0.014039589 -0.07222565 -0.043546293 0.055420898 0.0030519916 0.057111777 0.040242735 0.10067696
00000000: f61f d9bc 14ab d03d 6ced 39bc ab9e d63d
00000010: fae5 fcbd 17fb f13c 1ce2 ddbc b380 b9bd
00000020: 2e81 9fbc ab4e 083d 4589 0abf e6ff 4cbd
00000030: 14ca a4bd d6ed b4bc fed8 6cb9 305c c9bc
00000040: a900 8a3e 7ad1 2cbe d4e7 0d3d 2cc5 43be
00000050: 1c9d a9bd 8897 0bbe 849e ae3d 6cec d13c
00000060: ab6f e03c f451 523d 5fb6 42be bee0 ffbe
00000070: a7b1 c9bc 7de1 aa3d 3194 59bd 19ec a43c
00000080: f9db c43d e951 a33d 8f52 05be dbc4 42bc
00000090: ecf0 12bf 3e11 29bd 821c 603e f93e d3bc
000000a0: 6ed7 6f3d e7bd e9bc f937 793c e909 4f3d
000000b0: 9670 3f3d 4067 e4bd 87bf 82bc 225e 763d
000000c0: d2fe 943d 66c3 1f3d 0b86 223b 2699 0bbd
000000d0: 7dbb 9abd 833a 5dbd 4603 c43c 804a 493d
000000e0: df9d 68bd 6e9f 0fbc a741 583d 8e3a 5ebd
000000f0: c1a0 223d dcf7 aabd c180 823e e183 263e
00000100: f51a aa3d e821 62bc e978 063d 7ea3 983d
00000110: 4bee 7f3d b1c9 b13d 70dc a5bd 2eba c83d
00000120: 79c7 11be 6f7d 5eba 9566 883c 2ed4 9dba
00000130: 5c12 003e ae8f 49bb ee8f a3bb be03 e83b
00000140: 77de a3bd 6b77 29bd 15cf 8abc cf34 d7bb
00000150: f719 7dbc 3fed 1f3d 88ac 6ebd fd07 933d
00000160: 1875 743d 4b8e ad3d 80de 923d d48c 08bb
00000170: d4af 26be 4615 10bd 4e50 e13c 53e6 abbc
00000180: e989 aa3d eb20 b3bd 5949 623c 9e2f 7e3d
00000190: 62c6 4b3d d5a1 12be 3e46 8ebd 4c36 163b
000001a0: ddb7 7bbd dc8a 323e fd7f 7dbc 52ba 50bc
000001b0: 31b2 b2bc dc08 b13b 0e65 97bd 6690 0ebd
000001c0: 54c9 44be 4676 ad3d ea8d a3bc aaa9 033e
000001d0: debe 753d 4a03 1bbd df70 0dbd 623d c73c
000001e0: be9d 19bb b502 da3c 6a44 273c 3bdc eebd
000001f0: fce1 1a3e d84a 88bd ef1c a7bd bb01 96bc
00000200: bdb4 8cbd da0a eebd d097 22bd a5e1 0bbd
00000210: 8d97 04bf 1f54 fb3c 2d8e 43bd 8464 c93c
00000220: f0e4 8fbd 88d8 a4bc 9872 07be c188 a9bc
00000230: 9021 aabd e9d2 26bd 4d02 9e3d dbc9 2d3e
00000240: 0915 9b3d fbf3 04be d478 ca3c cce7 a33d
00000250: fdfd 2dbd 867b 653d 4999 05bc 169f 1e3d
00000260: 66e3 83bd c49e aebd 3a69 153e 7229 f13d
00000270: 5a1f f4bd 4a15 913b d1ea edbb 09ba a73c
00000280: 4b55 dc3d c7aa 94bd 4805 8d3d 84ad 7dbe
00000290: 1aad 8c3e b537 b0bd 63a5 16bc bcc2 17bd
000002a0: 52c8 9f3d f5f0 e6bc 20e4 a93b 1cab 263d
000002b0: 0867 adbd faa3 f2bd 7f7b 5cbd d603 82bc
000002c0: 8b87 2c3e 5326 f7bb 068a 993d 88e4 c33d
000002d0: 8eb9 00be 1ece c2bb a5d0 a4bd bcfc 32bd
000002e0: 838d 10bd 5b71 89bd f132 96bd c25c 953d
000002f0: 7c41 273c 72cb 4dbe 1844 9a3d f588 b13d
00000300: 5c06 d3bd 3b65 693c 858d 1e3c bf5c 6b3b
00000310: 1294 703d ea03 a83d 166f af39 0cff b33c
00000320: dfc6 33be 0dcd 693d ba0e 123d 7472 08bd
00000330: d48e 933d 0500 91bc d9d0 8bbc 7e85 06bd
00000340: a71a c53c 3348 64bd daf5 fd3d 4229 7abd
00000350: 9ec5 0939 1898 0cbd e8eb a03d 74f0 e63d
00000360: 189f bebc aeb8 91bc c373 25bd bab3 a6bd
00000370: 58dc afbe fb2a af3d 81b8 8e3d 1db5 c9bc
00000380: f68e 6dbd be47 d8be 1844 9f3d bcbc 613e
00000390: ce0e 693d 59f0 1d3e e7b5 c0be 09b8 a9bd
000003a0: baaa 03bd 2b1b 073e 81fa 5c3e f01a a3bd
000003b0: f025 863d 0f03 81bd e83f 3dbe 084e 4fbd
000003c0: 63a2 c2bd df7a b7bd 33ae a53d 1300 1a3e
000003d0: 31ae 63bd 1677 943d 0840 713d d8ad 843e
000003e0: 4e06 663c 0beb 93bd 995d 32bd 0601 633d
000003f0: ec03 483b 0aee 693d 91d5 243d b92f ce3d

network_smart.layer2.0.bias f4 [128]
0.014932745 0.1130051 0.0009859481 0.030519985 -0.06562488 0.12621371 -0.10033005 -0.056981727
-0.19224215 -0.07690101 -0.0708367 0.07740473 0.03857327 0.058487106 0.18073046 0.08764434
-0.04833963 0.02468838 -0.060064252 -0.044633184 -0.05359482 0.081753284 0.045747757 0.07908077
-0.068278305 -0.014361064 0.0981018 -0.027058112 -0.008089372 0.012504427 0.11037694 0.09182365
0.19152942 -0.072255306 -0.018726546 -0.021513676 -0.06052389 0.012808068 0.103844404 -0.03425898
0.10533621 -0.07135378 -0.124190666 -0.09624039 0.050822347 0.017472547 0.057069954 -0.06804885
0.024399979 -0.05298101 -0.029008914 0.1332313 0.10827248 0.051857088 0.10178171 -0.08148581
0.032885455 0.114370674 0.08030429 0.06415975 0.07612461 0.11327324 -0.04314055 -0.07450398
0.0672686 0.018997861 -0.08199477 0.10748132 0.024857167 0.053964525 -0.05489546 -0.14369817
0.009828945 -0.0052356273 0.040985662 0.065123014 0.010771809 -0.04543198 -0.07652347 0.026965266
-0.11759534 -0.10447956 0.0373186 0.15562962 0.033663146 -0.08774249 0.069594525 -0.10845569
-0.00056630606 0.049665574 0.03913692 0.10467952 0.07094797 -0.09190541 -0.070705615 -0.056325853
-0.017343871 0.05269227 -0.19765654 0.1377239 0.06781797 0.10685576 0.05666349 -0.028214278
-0.053595766 0.06493496 0.11862174 -0.16664536 -0.099652454 0.09066615 0.13117084 0.14206369
-0.055375043 0.06680248 0.1577318 0.0056260494 0.06900755 0.08951879 -0.013400062 0.23935048
-0.055737425 -0.040489074 0.030060835 0.12536137 0.1447037 -0.1420885 0.047115553 0.11498724
00000000: 79a8 743c 386f e73d ee3a 813a 0c05 fa3c
00000010: 5666 86bd 2b3e 013e d779 cdbd ac65 69bd
00000020: 20db 44be 477e 9dbd d512 91bd 5f86 9e3d
00000030: 01ff 1d3d 2d90 6f3d 6811 393e e07e b33d
00000040: c7ff 45bd 493f ca3c ef05 76bd 49d1 36bd
00000050: 3e86 5bbd 446e a73d 0062 3b3d 19f5 a13d
00000060: 7fd5 8bbd ab4a 6bbc 99e9 c83d f9a8 ddbc
00000070: 4989 04bc 5edf 4c3c 4e0d e23d 0a0e bc3d
00000080: 4a20 443e 97fa 93bd 6a68 99bc 733d b0bc
00000090: e6e7 77bd eed8 513c 60ac d43d 2553 0cbd
000000a0: 83ba d73d ee21 92bd ad57 febd ae19 c5bd
000000b0: 182b 503d 9622 8f3c 2fc2 693d 325d 8bbd
000000c0: 77e2 c73c 9e02 59bd 1aa4 edbc c96d 083e
000000d0: f6bd dd3d 1968 543d ee72 d03d 08e2 a6bd
000000e0: e6b2 063d 2c3b ea3d 9376 a43d 3066 833d
000000f0: 38e7 9b3d cdfb e73d 25b4 30bd 8b95 98bd
00000100: 1fc4 893d 67a1 9b3c e0ec a7bd 2b1f dc3d
00000110: 42a1 cb3c e809 5d3d 10da 60bd 9d25 13be
00000120: 9509 213c a08f abbb 95e0 273d 375f 853d
00000130: 3e7c 303c e216 3abd 56b8 9cbd 43e6 dc3c
00000140: d3d5 f0bd 61f9 d5bd 63db 183d 5f5d 1f3e
00000150: 5ee2 093d 56b2 b3bd 9387 8e3d 041e debd
00000160: 2874 14ba 216e 4b3d 094e 203d 3762 d63d
00000170: 2b4d 913d e738 bcbd 1bce 90bd f0b5 66bd
00000180: bc14 8ebc dad3 573d 7a66 4abe 7e07 0d3e
00000190: 26e4 8a3d 31d7 da3d fa17 683d a121 e7bc
000001a0: 3c87 5bbd 9ffc 843d f4ef f23d 15a5 2abe
000001b0: 9616 ccbd 2daf b93d a651 063e 2579 113e
000001c0: f1d0 62bd bdcf 883d 7284 213e b95a b83b
000001d0: d553 8d3d a155 b73d ef8b 5bbc 4b18 753e
000001e0: ed4c 64bd dfd7 25bd 2442 f63c bb5e 003e
000001f0: 352d 143e a67f 11be 3dfc 403d 6e7e eb3d

network_smart.layer3.0.weight f4 [48, 128]
0.08972506 0.016059954 0.0341849 -0.20443058 0.14039545 -0.1051752 0.19332889 -0.045859065
0.023007935 -0.04527232 -0.27428532 0.121182464 -0.123559706 -0.1438306 -0.33476803 0.12120763
0.2514934 -0.029229602 0.15787011 -0.054942157 -0.1295639 -0.046345633 0.042462453 0.011245855
-0.32872105 0.016392466 -0.79590577 0.17794865 -0.4440314 0.055588383 0.06452587 -0.29105338
0.20656398 0.012473528 0.028377224 -0.15114474 0.094407104 0.14873931 0.2254268 -0.012719279
-0.14543031 0.40720198 -0.91538066 0.01934581 0.07831859 -0.17201376 0.03300655 -0.0671976
0.029814024 0.1639291 -0.006940698 -0.15076475 -0.08349401 0.020507107 -0.06107661 -0.13845004
-0.24282484 0.054888964 -0.028564284 0.007848375 -0.05902827 -0.014557437 0.06155084 0.047693323
-0.030357512 0.08256501 0.12140979 -0.13475133 0.3606189 0.029468358 -0.086387604 -0.16152285
0.15923378 0.17042008 -0.23494753 0.12082442 0.02408926 -1.3256379 0.29154024 0.008038199
0.08984955 0.18304355 0.06974239 0.09447139 0.08914333 -0.048051346 -0.12650938 0.57599235
0.2704495 -0.20284934 0.02035566 0.13395937 -0.08042694 0.111166075 0.02848233 -0.0060724304
-0.07276469 -0.05789849 0.36570105 0.18006277 0.11306081 0.19534168 0.072403654 0.121201076
-0.38235056 -0.4527357 -0.4894538 -0.20909481 0.1603991 0.09272648 -0.3479345 0.18810521
0.088139206 -0.084847815 -0.005445533 -0.018973457 -0.080933526 -0.14494768 0.12911269 -0.20336314
-0.19116524 -0.046697456 -0.5172241 -0.08138848 -0.6548989 -0.0672679 0.10707345 -0.050555285
-0.019671919 0.08853997 -0.006619417 0.0016046049 -0.4015244 0.12667553 0.034430973 -0.39133498
0.07176478 0.039241176 -0.14672922 0.009382572 0.10277742 -0.7234799 -0.035608895 0.058164544
-0.5665491 0.10506081 -0.08161817 0.049015623 0.12563035 0.075874835 -0.031211087 0.08324946
-0.20096098 -0.16036241 0.08780496 -0.18280733 -0.25554928 0.029569346 -0.019101761 -0.22994402
0.046640556 0.017168308 0.024666598 0.17770752 -0.08535321 -0.21930295 -0.043969978 0.30268562
0.057358004 0.17013116 0.20944262 -0.11043043 0.10381635 -0.043185636 -0.025794413 0.12976347
-0.040413637 0.09527113 0.030296668 0.16660017 -0.007028697 0.04467043 0.056627512 0.108542904
-0.061698098 0.13470298 -0.15316613 0.1108568 -0.10219435 -0.110677935 -0.43787423 0.05094133
-0.0019652215 -0.0024399066 0.16185059 0.027363036 -0.26208332 0.05214624 -0.042643134 0.048947398
-0.02873337 0.080642894 0.03703612 0.04044533 -0.028757447 -0.1436309 -0.08563423 0.047756325
0.127065 0.073057316 -0.10033705 -0.09411797 -0.043781903 -0.07242988 -0.10208132 0.13595194
0.17532204 -0.27038515 -0.11810407 0.19227323 0.1176286 -0.00919534 0.027933551 -0.36919245
-0.0024640684 0.079233184 -0.0023356567 0.036750846 -0.07438366 0.07605758 0.05187271 -0.15197338
-0.03526258 -0.12820837 0.11273603 -0.0048377523 -0.18065931 0.093902074 -0.09448459 0.12787019
-0.25200555 -0.128928 -0.01559757 -0.012618907 0.100707 -0.07237479 0.10336668 0.08666469
-0.024800863 -0.8066694 -0.11530123 0.14922735 0.075081214 0.006722265 0.00054197846 0.108952954
00000000: c6c1 b73d 2a90 833c 7705 0c3d 4056 51be
00000010: d3c3 0f3e 1866 d7bd 02f8 453e b7d6 3bbd
00000020: 237b bc3c 786f 39bd 206f 8cbe 832e f83d
00000030: df0c fdbd 5448 13be b766 abbe b53b f83d
00000040: bec3 803e eb72 efbc b4a8 213e 070b 61bd
00000050: 66ac 04be ebd4 3dbd 1ced 2d3d 8940 383c
00000060: 204e a8be 7e49 863c 7bc0 4bbf 2c38 363e
00000070: 1558 e3be a5b0 633d 2426 843d f304 95be
00000080: 8285 533e c55d 4c3c 5a77 e83c b0c5 1abe
00000090: 8358 c13d 1e4f 183e 48d6 663e 8664 50bc
000000a0: afeb 14be c77c d03e 6356 6abf 1b7b 9e3c
000000b0: 7f65 a03d 6024 30be e031 073d e59e 89bd
000000c0: 8a3c f43c 08dd 273e cb6e e3bb 1362 1abe
000000d0: e8fe aabd 85fe a73c 782b 7abd d9c5 0dbe
000000e0: 13a7 78be 40d3 603d a5ff e9bc 7896 003c
000000f0: a1c7 71bd 5182 6ebc bc1c 7c3d 135a 433d
00000100: 51b0 f8bc d817 a93d b2a5 f83d 41fc 09be
00000110: 0aa3 b83e a067 f13c fceb b0bd 3f66 25be
00000120: 2e0e 233e 9a82 2e3e 1696 70be cb72 f73d
00000130: d756 c53c 81ae a9bf c344 953e a6b2 033c
00000140: 0a03 b83d c56f 3b3e 19d5 8e3d 377a c13d
00000150: c790 b63d 7dd1 44bd ad8b 01be 3c74 133f
00000160: 5b78 8a3e bdb7 4fbe eac0 a63c a52c 093e
00000170: e1b6 a4bd 0aab e33d c653 e93c 3dfb c6bb
00000180: a705 95bd f826 6dbd 2b3d bb3e 6062 383e
00000190: 6d8c e73d a607 483e 5e48 943d 4538 f83d
000001a0: 74c3 c3be f9cc e7be b099 fabe f31c 56be
000001b0: a93f 243e 61e7 bd3d 7924 b2be a79e 403e
000001c0: 5482 b43d b1c4 adbd 7170 b2bb 396e 9bbc
000001d0: 7ac0 a5bd 2a6d 14be 1e36 043e 6d3e 50be
000001e0: d2c0 43be d545 3fbd cc68 04bf 01af a6bd
000001f0: 74a7 27bf c1c3 89bd 5349 db3d 0f13 4fbd
00000200: 0127 a1bc 7254 b53d b2e7 d8bb 9b51 d23a
00000210: 9b94 cdbe 3bb7 013e 7e07 0d3d 0f5d c8be
00000220: 6af9 923d 5bbb 203d 2f40 16be 5cb9 193c
00000230: f87c d23d fb35 39bf a2da 11bd f23d 6e3d
00000240: 5d09 11bf 1f2a d73d 6d27 a7bd 9bc4 483d
00000250: 3ea5 003e 4464 9b3d 65ae ffbc b17e aa3d
00000260: b7c8 4dbe 0b36 24be 16d3 b33d d831 3bbe
00000270: 5bd7 82be 6a3b f23c 4c7b 9cbc 7276 6bbe
00000280: 2b0a 3f3d 8da4 8c3c 9b11 ca3c f6f8 353e
00000290: aacd aebd f490 60be dd19 34bd 9cf9 9a3e
000002a0: 3af0 6a3d dd36 2e3e 2078 563e 5929 e2bd
000002b0: ab9d d43d 6ce3 30bd ce4e d3bc b7e0 043e
000002c0: c588 25bd 831d c33d b830 f83c 3c99 2a3e
000002d0: fc50 e6bb 57f8 363d 40f2 673d be4b de3d
000002e0: 25b7 7cbd 94ef 093e 95d7 1cbe e408 e33d
000002f0: 454b d1bd 1dab e2bd 0d31 e0be dba7 503d
00000300: f2ca 00bb d7e6 1fbb 29bc 253e 7228 e03c
00000310: c92f 86be 4c97 553d 91aa 2ebd 117d 483d
00000320: 3f62 ebbc 1a28 a53d 30b3 173d 01aa 253d
00000330: bd94 ebbc fb13 13be 0061 afbd 239c 433d
00000340: 541d 023e 139f 953d 837d cdbd ecc0 c0bd
00000350: a754 33bd 1e56 94bd 0310 d1bd fc36 0b3e
00000360: 9f87 333e ec6f 8abe 8ce0 f1bd 46e3 443e
00000370: 43e7 f03d 0da8 16bc e7d4 e43c cb06 bdbe
00000380: 357c 21bb 0245 a23d d111 19bb 0e88 163d
00000390: 7656 98bd 14c4 9b3d 7b78 543d e99e 1bbe
000003a0: 7f6f 10bd 0e49 03be 26e2 e63d 0286 9ebb
000003b0: c1fe 38be bb4f c03d 2381 c1bd 67f0 023e
000003c0: df06 81be b405 04be f38c 7fbc 88bf 4ebc
000003d0: 793f ce3d 3c39 94bd e9b1 d33d 427d b13d
000003e0: 2e2b cbbc e381 4ebf 0d23 ecbd 0ecf 183e
000003f0: 2ec4 993d 7246 dc3b 8f13 0e3a ba22 df3d

network_smart.layer3.0.bias f4 [48]
-0.08949096 0.044727292 0.0831982 -0.06700807 -0.053475738 0.021221556 0.088603206 -0.04645136
-0.0071936543 -0.03285596 -0.091327764 0.061544966 -0.08634298 -0.05491866 -0.007272346 0.015536079
-0.09802891 -0.05059569 0.0099532865 -0.05394911 -0.0032219861 -0.056844667 -0.036050677 -0.044829052
-0.08492314 -0.017912934 -0.02122971 -0.019551922 -0.072742954 -0.09621957 0.054183945 0.059939384
-0.05848795 0.08988107 -0.017044589 -0.0046528312 -0.005954715 -0.0053830855 -0.034187052 0.06803365
0.02350318 -0.013974608 0.022620458 -0.036721997 -0.030453516 0.050383788 -0.037709724 0.011425112
00000000: 0947 b7bd f733 373d d163 aa3d 873b 89bd
00000010: 6009 5bbd d4d8 ad3c 9975 b53d c843 3ebd
00000020: bfb8 ebbb f993 06bd 0d0a bbbd 9316 7c3d
00000030: 97d4 b0bd 64f2 60bd dc4c eebb 0a8b 7e3c
00000040: 62c3 c8bd 6d3d 4fbd 1c13 233c bef9 5cbd
00000050: f527 53bb f4d5 68bd e0a9 13bd ab9e 37bd
00000060: 2fec adbd 25be 92bc eee9 adbc 5a2b a0bc
00000070: 42fa 94bd c40e c5bd fcef 5d3d 0083 753d
00000080: 1091 6fbd 9113 b83d 18a1 8bbc c776 98bb
00000090: c51f c3bb 9864 b0bb b907 0cbd 3a55 8b3d
000000a0: be89 c03c c1f5 64bc 8a4e b93c ce69 16bd
000000b0: a779 f9bc 3b5f 4e3d 8375 1abd 6530 3b3c

fc_smart.weight f4 [64, 48]
0.54751927 0.23198064 0.05273728 -0.96137655 0.03169847 0.69338673 -0.9046714 0.9973938
0.16651177 -0.32658225 -0.6084808 -0.5866499 -0.19666722 -0.21982051 -0.10365801 -0.3105535
0.43267447 -0.1932379 -0.21186642 -0.64203244 -1.2053102 -0.45850775 0.10583111 -0.09236654
-0.07590085 0.26332384 -0.24009395 -0.07485646 0.4658881 0.6128125 -0.27528325 0.012332459
-0.005081052 -1.1571473 0.060197677 -0.06139833 -0.3768265 0.030172631 0.028501272 -0.122797705
0.3788132 -0.26948658 -0.45580396 0.117367074 -0.14246911 0.0006624182 -0.2621358 -0.25821593
0.46176827 0.25504294 -0.029090097 -0.9535987 0.116272725 0.6362518 -0.6518384 0.67849857
0.20384495 -0.33192393 -0.4937071 -0.54064023 -0.20039298 -0.14699243 -0.0074715824 -0.25495613
0.462629 -0.19195594 -0.1980814 -0.5738853 -1.1141936 -0.49357757 0.039387647 -0.09697803
0.07028015 0.20085345 -0.20238174 0.059623208 0.34952417 0.58142126 -0.2778007 0.038592614
0.07700592 -1.0393131 -0.033146195 -0.35487744 -0.37448704 0.10742817 0.072265506 -0.16669042
0.36344084 -0.28489593 -0.4936799 -0.10454801 -0.38925028 -0.26227134 -0.22365698 -0.22693168
0.29963678 0.18542805 0.053837318 -1.003538 -0.12161295 0.5321246 -0.5676037 0.055145204
0.12890008 -0.23122999 -0.4664102 -0.41922808 -0.019843638 -0.11435079 -0.08141512 -0.2212505
0.46025175 -0.16461457 -0.051589508 -0.38325343 -0.8105145 -0.4342492 0.0678404 0.03189644
-0.018954396 0.15538271 -0.14807934 0.0045033223 0.41862926 0.45333558 -0.25145236 0.010739894
-0.1481422 -0.879687 -0.032373887 -0.39128682 -0.35032937 0.1584924 0.030680908 -0.22218093
0.30372238 -0.24843028 -0.45282426 0.08100709 -0.6039052 -0.33611178 -0.20156066 -0.17297457
-0.56951 -0.2795201 0.10345694 1.0546299 0.13768247 -0.7732849 0.82212955 -1.010561
-0.2445545 0.40600634 0.59641236 0.66941375 0.24408443 0.24416645 0.040199257 0.29966652
-0.52353585 0.18640049 0.25085726 0.735489 1.2958524 0.47203186 0.060570076 -0.044970084
0.11314034 -0.26307744 0.25146997 -0.018350605 -0.406849 -0.6906146 0.28317907 0.023004169
0.060538758 1.2298999 -0.007963399 0.2349094 0.40877697 -0.09485296 -0.038818426 0.17140864
-0.42880407 0.34026688 0.5278506 -0.116680965 0.26052648 0.06402465 0.27490398 0.24865848
-0.4438296 -0.22084288 0.017215423 0.9585141 0.124533564 -0.6627391 0.6340674 -0.7773782
-0.20520988 0.3142333 0.5354542 0.51468366 0.20704298 0.14012751 -0.004388165 0.2228652
-0.38941476 0.21654157 0.23012888 0.54641753 1.0939872 0.49487922 -0.09976135 0.1241327
0.04322058 -0.17490895 0.20128876 0.07181455 -0.4188812 -0.56784815 0.27374145 -0.08812326
0.06734917 1.0297619 0.017100772 0.21581325 0.3697657 -0.12784488 0.024940463 0.17051531
-0.33225325 0.27231312 0.44966036 0.097537175 0.29912433 0.1852764 0.19848855 0.2076171
0.10335952 0.113204375 0.061464418 -0.62757915 -0.13740471 0.16244775 -0.11049675 -0.5601132
0.057630084 -0.087257415 -0.0973405 -0.20424059 0.022100281 -0.015792 -0.04488434 -0.13729124
00000000: 392a 0c3f 558c 6d3e 0c03 583d c61c 76bf
00000010: 41d6 013d cb81 313f 8b98 67bf 3355 7f3f
00000020: 1082 2a3e ca35 a7be 66c5 1bbf b02e 16bf
00000030: 2263 49be a118 61be a74a d4bd de00 9fbe
00000040: 8287 dd3e 28e0 45be 83f3 58be 3d5c 24bf
00000050: 9b47 9abf 87c1 eabe fbbd d83d ab2a bdbd
00000060: e871 9bbd 62d2 863e 30db 75be 584e 99bd
00000070: e388 ee3e 48e1 1c3f edf1 8cbe 150e 4a3c
00000080: f47e a6bb 671d 94bf d791 763d d17c 7bbd
00000090: 67ef c0be 982c f73c 807b e93c 5d7d fbbd
000000a0: cef3 c13e 25fa 89be 235f e9be 265e f03d
000000b0: 6ce3 11be 22a6 2d3a aa36 86be e134 84be
000000c0: e46c ec3e fd94 823e 5b4e eebc 0b1f 74bf
000000d0: 6520 ee3d 66e1 223f e2de 26bf 15b2 2d3f
000000e0: bbbc 503e eff1 a9be 2dc7 fcbe 6667 0abf
000000f0: d133 4dbe 2f85 16be 2dd4 f4bb 9c89 82be
00000100: b5dd ec3e 1990 44be dad5 4abe 26ea 12bf
00000110: e59d 8ebf 33b6 fcbe f154 213d 6b9c c6bd
00000120: 0aef 8f3d 87ac 4d3e 293d 4fbe 7737 743d
00000130: d5f4 b23e 06d8 143f e53b 8ebe 4a13 1e3d
00000140: 48b5 9d3d 3608 85bf 4ec4 07bd 7fb2 b5be
00000150: c4bc bfbe 4d03 dc3d f0ff 933d e5b0 2abe
00000160: eb14 ba3e e1dd 91be 9dc3 fcbe 441d d6bd
00000170: d04b c7be 6e48 86be 5606 65be c760 68be
00000180: fe69 993e dae0 3d3e 8584 5c3d ef73 80bf
00000190: 3610 f9bd 5139 083f 7a4e 11bf f0df 613d
000001a0: 62fe 033e 8ec7 6cbe 51cd eebe 10a5 d6be
000001b0: 208f a2bc bf30 eabd f8bc a6bd 7e8f 62be
000001c0: 1ea6 eb3e b990 28be 854f 53bd cb39 c4be
000001d0: e17d 4fbf e955 debe e8ef 8a3d d7a5 023d
000001e0: 4046 9bbc a51c 1f3e 1ca2 17be 9b90 933b
000001f0: 9356 d63e 9a1b e83e 5dbe 80be 61f6 2f3c
00000200: 97b2 17be 2b33 61bf 7b9a 04bd bf56 c8be
00000210: 5f5e b3be d54b 223e 8756 fb3c 6683 63be
00000220: 8081 9b3e 8264 7ebe 95d8 e7be 0ce7 a53d
00000230: 8899 1abf d816 acbe eb65 4ebe 3f20 31be
00000240: 68cb 11bf 421d 8fbe 3be1 d33d 1dfe 863f
00000250: a2fc 0c3e 00f6 45bf 1577 523f 105a 81bf
00000260: 7f6c 7abe 10e0 cf3e 7bae 183f b35e 2b3f
00000270: 45f1 793e c506 7a3e faa7 243d e46d 993e
00000280: 7206 06bf c5df 3e3e 5d70 803e 0249 3c3f
00000290: 7ede a53f 29ae f13e 5418 783d 8d32 38bd
000002a0: 1fb6 e73d 16b2 86be acc0 803e 0254 96bc
000002b0: 834e d0be 1ecc 30bf d9fc 903e 3d73 bc3c
000002c0: 7df7 773d 5c6d 9d3f eb78 02bc 178c 703e
000002d0: 374b d13e 4542 c2bd 1200 1fbd bf85 2f3e
000002e0: 358c dbbe 7637 ae3e 3821 073f 6ef6 eebd
000002f0: ba63 853e 5b1f 833d 37c0 8c3e 54a0 7e3e
00000300: a23d e3be a324 62be 5c07 8d3c 2e61 753f
00000310: 740b ff3d 45a9 29bf 3e52 223f 4202 47bf
00000320: 8a22 52be 30e3 a03e 8713 093f 4fc2 033f
00000330: 1303 543e 967d 0f3e 99ca 8fbb c636 643e
00000340: 5f61 c7be 13bd 5d3e e8a6 6b3e 05e2 0b3f
00000350: c607 8c3f cf60 fd3e ae4f ccbd 4939 fe3d
00000360: 1008 313d 551b 33be a41e 4e3e 8213 933d
00000370: 9977 d6be 7f5e 11bf d727 8c3e f879 b4bd
00000380: 5dee 893d 3dcf 833f eb16 8c3c 26fe 5c3e
00000390: ee51 bd3e c5e9 02be f14f cc3c 919b 2e3e
000003a0: 191d aabe a06c 8b3e e239 e63e 92c1 c73d
000003b0: d326 993e 19b9 3d3e 9540 4b3e 9499 543e
000003c0: 28ae d33d b2d7 e73d 1dc2 7b3d 07a9 20bf
000003d0: d2b3 0cbe b458 263e 1f4c e2bd 9463 0fbf
000003e0: 860d 6c3d 04b4 b2bd 755a c7bd 7224 51be
000003f0: a60b b53c 395e 81bc a4d8 37bd 1396 0cbe

fc_smart.bias f4 [64]
-0.07976524 0.14196254 0.07188484 -0.03413854 0.008134738 0.020017317 -0.062121287 0.06330753
-0.0675108 -0.05771942 0.009938511 0.014105636 0.064795315 -0.059025522 0.1138835 -0.07890167
-0.10985641 -0.086357266 -0.013874313 0.046208136 -0.058751673 0.03338343 0.011827803 0.047637813
-0.057403438 -0.032051712 -0.13041839 -0.051569413 -0.08184786 -0.073358685 0.07306212 -0.027056623
-0.025992518 0.11692902 -0.046179626 0.08677602 -0.08042578 -0.053839184 0.0028274537 0.12449496
-0.039457344 -0.01222256 -0.0765178 0.10209527 -0.06303728 0.084022455 0.036083817 -0.121956274
0.054886278 -0.03379726 0.0685753 0.040648796 -0.005570894 -0.026448699 -0.007953855 0.11358556
0.030708984 0.03353283 0.018227166 0.08069122 -0.038728956 0.07383228 0.037312444 -0.09110681
00000000: f55b a3bd a15e 113e 5c38 933d dbd4 0bbd
00000010: 9047 053c 5bfb a33c e472 7ebd 61a7 813d
00000020: 1a43 8abd 336b 6cbd 23d5 223c 531b 673c
00000030: 68b3 843d bfc4 71bd c13b e93d 3397 a1bd
00000040: 66fc e0bd 14dc b0bd 1651 63bc be44 3d3d
00000050: 98a5 70bd 10bd 083d 67c9 413c de1f 433d
00000060: de1f 6bbd a848 03bd 668c 05be 733a 53bd
00000070: da9f a7bd 143d 96bd 98a1 953d daa5 ddbc
00000080: 43ee d4bc 7b78 ef3d d926 3dbd a0b7 b13d
00000090: 45b6 a4bd 7a86 5cbd cd4c 393b 37f7 fe3d
000000a0: 069e 21bd 2241 48bc 5db5 9cbd 5317 d13d
000000b0: b119 81bd f713 ac3d a0cc 133d 36c4 f9bd
000000c0: 6fd0 603d ff6e 0abd 3571 8c3d 5a7f 263d
000000d0: 0c8c b6bb f1aa d8bc e350 02bc 8c9f e83d
000000e0: 6891 fb3c b959 093d 2351 953c 7041 a53d
000000f0: 41a2 1ebd 6135 973d efd4 183d 3596 babd

network_aging.lstm.weight_ih_l0 f4 [128, 5]
-0.049010217 -0.0086800605 -0.044877034 0.08388455 -0.012431615 -0.022731146 0.04167735 -0.089579456
-0.13790606 0.16602935 0.1807859 0.014299002 -0.026856415 0.0043226723 0.047947466 -0.10201301
-0.015190303 0.051900588 0.010603762 0.02990755 -0.042782176 0.097699925 0.13697822 -0.06388867
0.15518144 -0.0034543304 -0.06081227 0.0025806995 0.066754885 0.19388022 0.03606246 0.19919804
0.11633414 0.1522068 -0.14174852 0.032051187 -0.07540295 0.09908702 -0.06104152 -0.03904255
0.08250831 -0.0036306824 -0.08674816 0.12843917 0.18575934 -0.047579072 0.10002413 -0.04640664
0.14610709 0.13924472 0.012471969 -0.039722025 -0.075785935 0.07031262 0.0012528028 -0.07558202
-0.019742973 0.0027217234 0.16555001 0.12343684 0.1677609 -0.061726373 0.14340155 -0.0014834747
0.13326237 -0.07854229 -0.07608742 -0.032555014 -0.0288139 -0.088633046 0.14043379 -0.123074375
0.14757214 0.07635101 -0.15859634 0.12676461 0.021950014 0.07832483 -0.08597696 0.13017762
0.13194047 -0.1131105 -0.09134301 0.07750807 0.02392365 -0.022392595 0.054092214 -0.032531206
0.036647003 -0.098059416 -0.058381528 -0.056726348 0.06752959 0.053887438 -0.12609202 0.0045238985
0.19735482 0.040479813 -0.06709059 -0.12467195 0.16335477 0.21539786 0.042448606 0.1504251
0.12749466 -0.0740661 0.01723138 -0.116057 0.19794273 0.15249352 -0.049729247 0.09042465
0.045985464 0.12606236 -0.057561684 -0.10152783 -0.068782546 -0.09385374 0.038408887 0.0049671964
0.1390637 0.21161415 -0.06705563 -0.04199748 0.2126822 0.07378532 -0.030185625 -0.11412159
-0.0484114 0.09907816 -0.09464573 0.04005143 0.116112515 -0.06281442 0.07519949 -0.04174509
0.19916447 0.14887865 0.0015820744 0.06378386 -0.11299673 0.16280696 0.20770554 0.048604447
0.047246683 0.19691592 0.055124484 0.0247914 -0.120723 0.2049925 -0.10715258 -0.12806842
-0.008497699 0.017535 0.14346951 -0.09882799 0.09335798 0.118858956 -0.113391206 0.037556373
0.15837604 -0.07506042 0.073517986 -0.055891268 0.075784855 0.05412222 0.07556549 0.17008309
0.16291 -0.10821606 0.07191831 -0.059219968 -0.0072792545 -0.0011153334 0.13312754 0.15706138
0.15243869 0.18630148 0.07479468 0.014779096 0.13003628 0.22140329 0.21662423 -0.08792445
0.029308902 -0.12423211 0.1923621 -0.06241197 0.10296737 0.0952081 0.07673465 0.24379696
0.2261672 -0.037660636 -0.06350374 -0.048536103 0.24310423 -0.071669735 0.21280432 -0.065964945
0.018136287 0.026893927 0.012021324 -0.019879209 -0.06685222 -0.04330277 -0.047793232 0.009183665
0.049287066 -0.15050729 0.13410315 0.07228136 0.19834869 -0.02851045 0.13964167 0.09076461
0.12832615 -0.124894336 0.056518298 0.097868174 0.1223544 0.01973211 -0.084533766 -0.07660296
0.14175875 0.046682037 0.105070695 0.10283249 -0.05187691 -0.09754367 0.09514853 -0.018224478
-0.021268276 0.036425374 -0.16537715 0.14844024 0.07392803 -0.08061335 0.0066035325 0.16535227
0.03809304 0.11229706 -0.052351728 -0.021697218 0.17639242 0.03368676 -0.07919422 -0.0030165024
0.04271054 0.15609464 0.17805354 0.12767035 0.05166783 0.07142364 -0.10932666 -0.029025495
00000000: f0be 48bd d036 0ebc fbd0 37bd aacb ab3d
00000010: f9ad 4bbc ab36 babc deb5 2a3d 6f75 b7bd
00000020: 3f37 0dbe 9903 2a3e f01f 393e 5c46 6a3c
00000030: fc01 dcbc 34a5 8d3b 9064 443d 32ec d0bd
00000040: c0e0 78bc b695 543d 67bb 2d3c ae00 f53c
00000050: 5d3c 2fbd e616 c83d 0544 0c3e 10d8 82bd
00000060: e2e7 1e3e 0c62 62bb 4916 79bd f420 293b
00000070: c9b6 883d 8988 463e 3bb6 133d 92fa 4b3e
00000080: 9840 ee3d 19dc 1b3e 8626 11be 1b48 033d
00000090: dd6c 9abd 23ee ca3d ac06 7abd 15eb 1fbd
000000a0: 1efa a83d bef0 6dbb 05a9 b1bd 8f85 033e
000000b0: b237 3e3e 46e2 42bd 73d9 cc3d e414 3ebd
000000c0: 199d 153e 2b96 0e3e 3b57 4c3c 90b3 22bd
000000d0: a835 9bbd 1000 903d 1635 a43a bfca 9abd
000000e0: 04bc a1bc f15e 323b f185 293e 74cc fc3d
000000f0: 83c9 2b3e cbd4 7cbd dbd7 123e 2771 c2ba
00000100: ee75 083e c8da a0bd b9d3 9bbd 6858 05bd
00000110: 210b ecbc 3e85 b5bd e0cd 0f3e 6b0e fcbd
00000120: 271d 173e eb5d 9c3d 1467 22be 95ce 013e
00000130: 84d0 b33c c568 a03d b014 b0bd 484d 053e
00000140: 671b 073e 7aa6 e7bd 0b12 bbbd 8dbc 9e3d
00000150: 88fb c33c ad70 b7bc cc8f 5d3d 713f 05bd
00000160: 2b1b 163d 60d3 c8bd 7821 6fbd e359 68bd
00000170: f44c 8a3d 13b9 5c3d 441e 01be 363d 943b
00000180: 6217 4a3e 29ce 253d cb66 89bd 0254 ffbd
00000190: 7946 273e 4291 5c3e 97de 2d3d 0a09 1a3e
000001a0: f68d 023e f8af 97bd d328 8d3c 4baf edbd
000001b0: 80b1 4a3e 4327 1c3e e5b0 4bbd 8f30 b93d
000001c0: 415b 3c3d 7e16 013e cdc5 6bbd d3ed cfbd
000001d0: dddd 8cbd 6436 c0bd a352 1d3d ddc3 a23b
000001e0: b766 0e3e 61b1 583e 7654 89bd 8d05 2cbd
000001f0: 5dc9 593e c21c 973d d847 f7bc 95b8 e9bd
00000200: 084b 46bd 7ee9 ca3d 9fd5 c1bd f80c 243d
00000210: 66cc ed3d d9a4 80bd 3102 9a3d e6fc 2abd
00000220: c5f1 4b3e a573 183e 9c5d cf3a 1da1 823d
00000230: d46a e7bd deb6 263e c3b0 543e 7515 473d
00000240: bd85 413d 54a4 493e 36ca 613d 5617 cb3c
00000250: 9f3d f7bd 8ee9 513e d072 dbbd 5e24 03be
00000260: ef39 0bbc 8fa5 8f3c ace9 123e 5466 cabd
00000270: 7832 bf3d 536c f33d a639 e8bd b6d4 193d
00000280: 542d 223e 47b9 99bd 9990 963d 3eee 64bd
00000290: 1735 9b3d 43af 5d3d 14c2 9a3d 432a 2e3e
000002a0: e1d1 263e 62a0 ddbd e849 933d a390 72bd
000002b0: d086 eebb 6130 92ba 9652 083e b3d4 203e
000002c0: e318 1c3e d1c5 3e3e f42d 993d 0524 723c
000002d0: 3b28 053e 8bb7 623e bed2 5d3e bc11 b4bd
000002e0: 3919 f03c 686d febd 92fa 443e b2a3 7fbd
000002f0: 8ee0 d23d 77fc c23d 0e27 9d3d e9a5 793e
00000300: 6098 673e 0a42 1abd 400e 82bd cbcd 46bd
00000310: 51f0 783e 95c7 92bd 60e9 593e a118 87bd
00000320: 8d92 943c a750 dc3c 16f5 443c b9d9 a2bc
00000330: d1e9 88bd 3f5e 31bd d6c2 43bd 1577 163c
00000340: 3ce1 493d 951e 1abe 5652 093e 4008 943d
00000350: eb1b 4b3e bf8e e9bc 3afe 0e3e cce2 b93d
00000360: ee67 033e 9ac8 ffbd bb7f 673d 1c6f c83d
00000370: f294 fa3d 3ca5 a13c 0a20 adbd 03e2 9cbd
00000380: 3529 113e aa35 3f3d 4e2f d73d d799 d23d
00000390: e27c 54bd fac4 c7bd 3cdd c23d 804b 95bc
000003a0: cf3a aebc c632 153d a158 29be b800 183e
000003b0: 9467 973d 9d18 a5bd 7262 d83b 1b52 293e
000003c0: 7307 1c3d 00fc e53d c46e 56bd 5dbe b1bc
000003d0: 37a0 343e 21fb 093d 9430 a2bd 83b0 45bb
000003e0: 3ff1 2e3d 46d7 1f3e ab53 363e 04bc 023e
000003f0: a6a1 533d 8f46 923d a8e6 dfbd e0c6 edbc

network_aging.lstm.weight_hh_l0 f4 [128, 32]
-0.21727094 0.19381818 0.11455007 -0.121777676 0.016103739 -0.004983315 -0.060832314 -0.1395143
0.18851903 0.140903 -0.0011773012 -0.15259926 0.09420677 0.0056316736 0.21491168 0.042217925
0.017850114 -0.07344459 0.0023607216 0.016473936 -0.1533022 0.010902021 -0.21433915 -0.014076262
-0.07690683 -0.15658486 -0.159428 -0.06342569 -0.112732716 0.07640192 0.1613177 0.096596524
0.008696472 -0.07088888 -0.049186137 0.12366719 -0.20180021 0.06591173 -0.013137064 0.09556231
-0.12151246 0.073439986 0.13654998 -0.052147496 -0.07549928 0.09260963 -0.050884232 -0.014644166
0.04032702 0.120006114 -0.038793165 0.08087077 -0.057864454 -0.054581486 -0.026068179 0.12882869
0.22089294 -0.1803003 0.052282058 -0.043088473 -0.07169782 -0.22900559 0.0006621384 -0.052956976
0.0050993515 -0.018401511 -0.15449189 0.042124018 -0.25456047 -0.18829142 0.04664313 -0.033591706
0.22383542 -0.120575085 0.04435982 -0.11060141 -0.08896657 -0.13954088 0.13090438 0.010132443
0.03218788 -0.19341487 0.17856039 -0.05698715 0.003445635 0.13580282 -0.033502962 -0.03423448
0.058584757 0.01678533 0.0873274 -0.030819893 0.15984459 -0.16154091 -0.052016266 -0.071341895
-0.04592712 0.12631957 0.093751654 -0.08215977 -0.019164843 -0.09625722 0.058564182 -0.14344244
0.06859639 0.084187284 0.19744891 -0.00026971917 -0.12129675 -0.051737532 0.13939033 0.13013507
-0.0433253 -0.0073001725 -0.11458596 -0.14483479 0.0054302905 0.059507437 -0.10312525 0.040036373
0.19074827 0.043579526 -0.0007301832 -0.18270144 0.183179 0.03965894 -0.02541506 -0.042410675
-0.24787542 -0.006225633 -0.056155078 0.1743132 -0.05413068 0.05738804 0.13430102 -0.15603708
0.05134186 0.06133859 -0.1307188 -0.1516888 -0.05449109 0.24806724 -0.20189257 0.024870288
-0.065311365 0.084799275 0.18271805 -0.1479665 -0.18253323 0.008787661 -0.07204034 0.23653577
0.2358761 -0.10274992 -0.19677125 0.050317127 0.24625698 0.06236866 0.18493234 -0.11457047
-0.0065396563 0.17151004 -0.062422678 0.10474941 -0.24339668 -0.009291098 0.034090955 0.0054379385
0.21979785 0.055393383 0.027143214 0.11792546 -0.100099765 -0.06456211 0.17490031 -0.15193816
0.12572348 -0.22378673 0.018023932 -0.24140915 -0.109260716 -0.05624801 0.08206664 0.079884194
0.20204872 -0.11472695 0.08335015 -0.12741992 -0.08473499 0.06253327 0.06654915 0.00203493
-0.1417987 -0.091159575 0.020650258 -0.10268591 0.036696367 -0.24481751 0.09200367 -0.1526646
0.030457761 -0.0383824 0.088020496 0.03524499 -0.08534496 -0.09678421 -0.13525039 0.13341475
-0.05118843 -0.043076362 -0.055816386 -0.14176558 -0.0499218 -0.018619906 -0.013125607 -0.08132504
0.04784142 -0.13360973 -0.050007373 -0.16790093 -0.034598425 0.0061794575 -0.018130131 -0.22730346
-0.0183663 0.040044077 -0.13888793 0.18487146 -0.15727794 -0.17791922 0.050587866 -0.12880637
-0.0338112 -0.13461919 0.018319193 -0.2022086 0.020635424 0.18046905 -0.053588435 0.12726943
0.23676515 -0.2628173 -0.08309214 0.060160685 0.08792974 -0.041473873 -0.004214651 0.0382554
-0.01114535 -0.00060239475 -0.18596672 0.07581313 -0.070781685 -0.013940288 0.14778353 -0.06653177
00000000: 467c 5ebe 4678 463e 3a99 ea3d 9366 f9bd
00000010: fdeb 833c 134b a3bb 4e2b 79bd d6dc 0ebe
00000020: 220b 413e e048 103e ac4f 9aba fb42 1cbe
00000030: 7bef c03d e789 b83b cf11 5c3e b4ec 2c3d
00000040: 673a 923c 1e6a 96bd 56b6 1a3b 59f4 863c
00000050: 40fb 1cbe 649e 323c b97b 5bbe 1fa0 66bc
00000060: 5481 9dbd c857 20be 1841 23be 54e5 81bd
00000070: 69e0 e6bd 9c78 9c3d 7830 253e 66d4 c53d
00000080: a67b 0e3c 302e 91bd 6777 49bd 3945 fd3d
00000090: b7a4 4ebe bbfc 863d d73c 57bc 2cb6 c33d
000000a0: 86db f8bd b467 963d c2d3 0b3e 9d98 55bd
000000b0: 5e9f 9abd 1eaa bd3d fc6b 50bd 16ee 6fbc
000000c0: f22d 253d c4c5 f53d 95e5 1ebd 939f a53d
000000d0: 4703 6dbd d690 5fbd ef8c d5bc abeb 033e
000000e0: c231 623e a4a0 38be b625 563d 8a7d 30bd
000000f0: 4fd6 92bd 7180 6abe 5b93 2d3a 6ae9 58bd
00000100: 7618 a73b c4be 96bc 1f33 1ebe 3c8a 2c3d
00000110: c055 82be 77cf 40be de0c 3f3d 7597 09bd
00000120: 1d35 653e 12f0 f6bd a5b2 353d fe82 e2bd
00000130: 1b34 b6bd cee3 0ebe cc0b 063e 8c02 263c
00000140: 70d7 033d 8c0e 46be 89d8 363e 5c6b 69bd
00000150: 2ad0 613b e50f 0b3e 673a 09bd 7439 0cbd
00000160: 92f6 6f3d 6381 893c b5d8 b23d 007a fcbc
00000170: 4dae 233e fb6a 25be 020f 55bd b31b 92bd
00000180: 131e 3cbd eb59 013e de00 c03d 6243 a8bd
00000190: 97ff 9cbc 8122 c5bd ffe0 6f3d 93e2 12be
000001a0: 447c 8c3d 626a ac3d 0c30 4a3e 1869 8db9
000001b0: 6e6a f8bd bcea 53bd 57bc 0e3e 2142 053e
000001c0: df75 31bd 4936 efbb 0bac eabd 924f 14be
000001d0: 94f0 b13b 12be 733d 5533 d3bd 2efd 233d
000001e0: 8453 433e 7280 323d c469 3fba 1616 3bbe
000001f0: 4793 3b3e 6a71 223d 3e33 d0bc d1b6 2dbd
00000200: 0ed3 7dbe 6500 ccbb de02 66bd 297f 323e
00000210: 22b8 5dbd b90f 6b3d 3586 093e 2fc8 1fbe
00000220: d84b 523d 2c3e 7b3d 26db 05be 4f54 1bbe
00000230: 0d32 5fbd 5705 7e3e edbc 4ebe c6bc cb3c
00000240: f7c1 85bd 3eab ad3d 711a 3b3e 8884 17be
00000250: fee9 3abe 1ffa 0f3c e389 93bd 6f36 723e
00000260: 8189 713e 8d6e d2bd 677e 49be 5519 4e3d
00000270: ca2a 7c3e 4876 7f3d e75e 3d3e eca3 eabd
00000280: 9d4a d6bb 54a0 2f3e ecae 7fbd dc86 d63d
00000290: fb3c 79be b139 18bc f5a2 0b3d bc30 b23b
000002a0: b012 613e 2ce4 623d 725b de3c e782 f13d
000002b0: 1b01 cdbd 2439 84bd 1119 333e ad95 1bbe
000002c0: a8bd 003e 5928 65be eda6 933c f633 77be
000002d0: 15c4 dfbd 5064 66bd 8e12 a83d 539a a33d
000002e0: dce5 4e3e f7f5 eabd 7cb3 aa3d 5e7a 02be
000002f0: 8a89 adbd 7111 803d ec4a 883d 765c 053b
00000300: ae33 11be dfb1 babd bb2a a93c fe4c d2bd
00000310: ee4e 163d 71b1 7abe 6c6c bc3d 1c54 1cbe
00000320: 8e82 f93c dd36 1dbd 1744 b43d 0d5d 103d
00000330: 57c9 aebd cd36 c6bd 147f 0abe e09d 083e
00000340: f6aa 51bd d770 30bd b99f 64bd ff2a 11be
00000350: cd7a 4cbd c688 98bc c90c 57bc be8d a6bd
00000360: 5df5 433d fdd0 08be 88d4 4cbd 39ee 2bbe
00000370: 14b7 0dbd 0c7d ca3b a485 94bc 3dc2 68be
00000380: ec74 96bc 4205 243d a338 0ebe f24e 3d3e
00000390: 780d 21be 7530 36be 3935 4f3d d1e5 03be
000003a0: 9d7d 0abd 9dd9 09be 2212 963c c50f 4fbe
000003b0: 9f0b a93c e1cc 383e 8c7f 5bbd eb52 023e
000003c0: 9072 723e fd8f 86be 362c aabd 0d6b 763d
000003d0: 8214 b43d 82e0 29bd 0e1b 8abb b2b1 1c3d
000003e0: fc9a 36bc 07ea 1dba 0f6e 3ebe ea43 9b3d
000003f0: fdf5 90bd ce65 64bc 9154 173e cf41 88bd

network_aging.lstm.bias_ih_l0 f4 [128]
0.0045470656 -0.06450457 0.035390772 0.057394072 0.14148694 0.2350125 -0.07059388 0.11489546
0.1872325 0.00021362091 0.10654796 0.09196571 0.101419635 0.029776208 -0.19785966 0.030050397
-0.087363295 0.032216717 -0.039604694 0.023696637 0.2348099 0.036274794 -0.07961925 0.16183531
0.21167469 0.03981069 -0.010282564 -0.0149616925 -0.073800646 -0.03847838 0.041661948 0.1936071
0.21805741 -0.07300494 -0.025976563 0.1595199 0.110670015 -0.0081357965 -0.086918786 0.08952129
0.04764285 0.017770134 -0.06096211 0.063382685 0.13427651 -0.048480038 -0.14047416 -0.112011164
-0.012589313 0.21195441 -0.039414518 0.08328647 0.0022037881 0.08332239 0.075730056 0.20175631
0.22280474 0.18236765 -0.096367255 0.11328695 0.14149143 0.16242173 0.072132505 0.058520187
-0.090065934 0.17685932 -0.1296292 0.09057218 -0.012137067 -0.044895783 0.040284175 -0.17306162
-0.045434337 0.054381207 0.16558851 -0.07405308 0.066384345 0.12371696 0.0816941 -0.09790092
-0.07326597 -0.12150682 0.124017335 -0.06165227 0.10528463 0.13691716 -0.20430233 0.06724654
0.028585382 -0.1645196 -0.1615364 -0.06500639 0.041823342 -0.00886466 0.13371624 -0.19774398
-0.055279195 0.12743267 0.3091658 0.22129074 0.30951303 0.13695122 0.19873106 0.22645907
0.26854345 0.034044392 0.1631319 -0.019460598 0.10649617 0.30778092 -0.09655319 0.21686526
0.23385656 0.27189168 -0.07193033 0.27626508 0.08194363 0.118130215 -0.028924668 0.111923866
0.16647336 0.07917767 0.06986931 0.011649509 0.16550335 0.110122055 -0.027918406 0.2661286
00000000: 8dff 943b f91a 84bd eaf5 103d 0c16 6b3d
00000010: f4e1 103e 1ea7 703e 8693 90bd 504e eb3d
00000020: e0b9 3f3e 6dff 5f39 d135 da3d 8558 bc3d
00000030: 19b5 cf3d 3ced f33c b99b 4abe 402c f63c
00000040: 87eb b2bd adf5 033d 8838 22bd 731f c23c
00000050: 0272 703e e194 143d 6b0f a3bd 28b8 253e
00000060: 40c1 583e 8910 233d 3378 28bc e321 75bc
00000070: cb24 97bd 819b 1dbd b8a5 2a3d f140 463e
00000080: 714a 5f3e 9d83 95bd cdcc d4bc 2f59 233e
00000090: f6a6 e23d 014c 05bc 7a02 b2bd f056 b73d
000000a0: 2625 433d ac92 913c 68b3 79bd c8ce 813d
000000b0: c87f 093e 0193 46bd 75d8 0fbe 1c66 e5bd
000000c0: 6843 4ebc 940a 593e 1e71 21bd 1992 aa3d
000000d0: 6e6d 103b eea4 aa3d 5c18 9b3d 3599 4e3e
000000e0: ed26 643e 96be 3a3e 325c c5bd fd02 e83d
000000f0: 21e3 103e e251 263e 35ba 933d ddb2 6f3d
00000100: 7d74 b8bd 9c1a 353e 84bd 04be e87d b93d
00000110: 8cda 46bc a4e4 37bd 0501 253d 1137 31be
00000120: 5b19 3abd d4be 5e3d 0990 293e 24a9 97bd
00000130: 84f4 873d 515f fd3d 3c4f a73d 4780 c8bd
00000140: 780c 96bd 91d8 f8bd cdfc fd3d 1787 7cbd
00000150: 789f d73d 0334 0c3e a134 51be 8eb8 893d
00000160: e42b ea3c d377 28be cc69 25be 1222 85bd
00000170: f44e 2b3d 143d 11bc e9ec 083e 667d 4abe
00000180: 706c 62bd b67d 023e fb4a 9e3e 0a9a 623e
00000190: 7e78 9e3e f13c 0c3e 2880 4b3e e3e4 673e
000001a0: 877e 893e 2272 0b3d 0c0c 273e d56b 9fbc
000001b0: aa1a da3d 7695 9d3e aebd c5bd ed11 5e3e
000001c0: 1878 6f3e 6335 8b3e 3550 93bd 9e72 8d3e
000001d0: 10d2 a73d 41ee f13d 6df3 ecbc 5738 e53d
000001e0: fe77 2a3e e727 a23d a417 8f3d 95dd 3e3c
000001f0: b679 293e ac87 e13d 24b5 e4bc 0242 883e
