trained_model/mc1_mc2/120_days_lookahead/pnet_checkpoint/pnet_online_2550.pth (torch, 545278 bytes, 36 tensors)

network_smart.layer1.0.weight f4 [128, 330]
-0.062108215 -0.5209298 -0.039920524 -2.966328 0.93081963 -0.83411974 6.426224 -0.16639869
0.093750015 0.86987144 -6.7518344 -0.07205146 -0.43454763 -0.091710374 -3.0453558 0.6440486
-0.8787546 6.4433184 -0.17666344 0.24774814 0.65911144 -6.8990216 0.016902026 -0.4298505
-0.2551892 -3.1944933 0.5265191 -0.8665369 6.413336 -0.15619056 -1.138331 0.51997757
-6.837698 -0.019874033 -0.34918186 -0.19777212 -2.9327738 0.54112244 -0.91780007 6.5040665
-0.16346672 0.24835038 0.5079226 -6.8889093 -0.02946747 -0.22620003 0.050629716 -3.3472223
0.45422727 -0.92135435 6.493109 -0.22265774 0.8936717 0.43772876 -6.9022617 -0.07747985
-0.19791275 -0.12331792 -3.0494118 0.19234785 -0.9385542 6.4624 -0.21837741 -1.3325787
0.24443056 -6.955404 0.014584513 -0.22332576 0.03206951 -2.944001 0.23607281 -0.92454535
6.4459004 -0.10591427 -0.3662472 0.26903838 -7.0688257 -0.057455875 -0.19054428 0.16884102
-1.8748096 0.12988153 -0.9223071 6.5209713 -0.16462573 1.2426789 0.12855159 -7.1786346
0.025133273 -0.14821146 0.22452788 -2.2807224 0.0125103975 -0.9104924 6.433968 -0.11158781
0.7701136 0.066749126 -7.1521034 0.005849239 -0.08146563 0.15233164 -2.267088 -0.00782726
-0.98262626 6.4316425 -0.2275286 -0.081526764 -0.100089826 -7.2282543 0.021768538 -0.034970116
0.04731562 -2.2538543 -0.14511491 -0.967466 6.482066 -0.19186418 0.3982608 -0.1442163
-7.413071 -0.026706379 -0.062242877 0.16784592 -2.2161016 -0.16845696 -0.96403 6.494951
-0.10747603 0.5200828 -0.16620013 -7.473073 -0.0032853386 0.07411513 0.13447519 -2.3178298
-0.5427716 -0.91228026 6.463802 -0.16055183 -0.07626032 -0.6224934 -7.638227 -0.056855038
0.08086532 -0.015411139 -2.6049345 -0.6232459 -0.87641263 6.4623723 -0.19391681 -0.75698113
-0.6103757 -7.6144314 0.023193343 0.13536613 -0.14167477 -2.341883 -0.78016 -0.9634107
6.4227076 -0.2077215 -0.9974419 -0.72384095 -7.844741 -0.019248001 0.10548572 -0.1583496
-2.393963 -0.9507051 -0.8923316 6.5438094 -0.16660555 -0.26549482 -0.9427335 -8.114157
-0.0147372745 0.17977417 -0.07548526 -2.2224524 -1.0150388 -0.92525554 6.4570456 -0.18896343
-0.0042257127 -1.0950406 -8.104239 -0.0134071605 0.13450769 -0.36565673 -2.2598445 -1.3704667
-0.91030467 6.4656363 -0.20918173 0.18440858 -1.3059139 -8.33385 0.0056515015 0.21187821
-0.23597437 -2.20475 -1.5297127 -0.90104437 6.464468 -0.19220033 0.3686608 -1.4595032
-8.43276 0.04516897 0.25874624 -0.22933708 -1.9237108 -1.7509638 -0.9181961 6.4438677
-0.1556741 -0.77291054 -1.6858746 -8.576535 0.035620954 0.2744406 -0.17904948 -2.3168695
-1.9372007 -0.97358686 6.476822 -0.16892417 -0.84698546 -1.8965741 -8.658342 -0.018416388
0.31488478 0.11065307 1.2970268 -2.0822003 -0.91504705 6.4965158 -0.035693944 -0.18185179
-2.0510783 -8.57905 -0.0064566405 0.2949421 -0.15342593 -2.275954 -2.2985027 -1.0020603
6.422085 -0.14092325 0.11424089 -2.333469 -8.852993 -0.038602613 0.3513189 0.02806324
00000000: 2f65 7ebd a85b 05bf b483 23bd 51d8 3dc0
00000010: 324a 6e3f df88 55bf a1a3 cd40 6b64 2abe
00000020: 0200 c03d e5af 5e3f 070f d8c0 b78f 93bd
00000030: 077d debe a6d2 bbbd 1ce7 42c0 5ee0 243f
00000040: 10f6 60bf aa2f ce40 43e7 34be b0b1 7d3e
00000050: 87bb 283f c9c4 dcc0 1e76 8a3c 5d15 dcbe
00000060: 29a8 82be 9472 4cc0 f5c9 063f 5dd5 5dbf
00000070: 0c3a cd40 6bf0 1fbe d5b4 91bf 401d 053f
00000080: 6cce dac0 dece a2bc f7c7 b2be c684 4abe
00000090: 91b2 3bc0 0087 0a3f f2f4 6abf 5021 d040
000000a0: d263 27be 904f 7e3e 3707 023f f271 dcc0
000000b0: c365 f1bc fba0 67be 1b61 4f3d e438 56c0
000000c0: 7a90 e83e e1dd 6bbf 8dc7 cf40 6400 64be
000000d0: abc7 643f fc1d e03e 54df dcc0 c1ad 9ebd
000000e0: a4a9 4abe 1b8e fcbd 9029 43c0 d6f6 443e
000000f0: 1745 70bf fbcb ce40 549e 5fbe f091 aabf
00000100: 014c 7a3e ab92 dec0 e2f3 6e3c 82af 64be
00000110: 525b 033d 836a 3cc0 12bd 713e 01af 6cbf
00000120: d144 ce40 95e9 d8bd c184 bbbe 66bf 893e
00000130: d233 e2c0 da56 6bbd 0a1e 43be a9e4 2c3e
00000140: c3f9 efbf aaff 043e 511c 6cbf ccab d040
00000150: a693 28be 1a10 9f3f 07a3 033e 60b7 e5c0
00000160: 4be4 cd3c bfc4 17be a3ea 653e 5bf7 11c0
00000170: 69f8 4c3c 0816 69bf 11e3 cd40 2688 e4bd
00000180: 2a26 453f c4b3 883d 08de e4c0 f9aa bf3b
00000190: 74d7 a6bd d3fc 1b3e f817 11c0 e83d 00bc
000001a0: 658d 7bbf 04d0 cd40 42fd 68be 81f7 a6bd
000001b0: e5fb ccbd dc4d e7c0 ef53 b23c d33c 0fbd
000001c0: 06ce 413d 263f 10c0 0199 14be daab 77bf
000001d0: 166d cf40 0b78 44be d7e8 cb3e 70ad 13be
000001e0: e137 edc0 56c7 dabc 63f2 7ebd cddf 2b3e
000001f0: 9cd4 0dc0 fb7f 2cbe acca 76bf a3d6 cf40
00000200: 651c dcbd 2524 053f 5e30 2abe 6a23 efc0
00000210: d64e 57bb acc9 973d ddb3 093e 5357 14c0
00000220: 14f3 0abf 338b 69bf 77d7 ce40 b367 24be
00000230: 5f2e 9cbd ba5b 1fbf 5b6c f4c0 d4e0 68bd
00000240: b89c a53d 007f 7cbc 3fb7 26c0 0b8d 1fbf
00000250: 945c 60bf c1cb ce40 2192 46be 84c9 41bf
00000260: 9541 1cbf 6ca9 f3c0 f7ff bd3c 6b9d 0a3e
00000270: 3113 11be 69e1 15c0 91b8 47bf 15a2 76bf
00000280: d286 cd40 f2b4 54be 5a58 7fbf a44d 39bf
00000290: 1e08 fbc0 fcad 9dbc e608 d83d 6626 22be
000002a0: b136 19c0 6961 73bf d86f 64bf e366 d140
000002b0: a59a 2abe f0ee 87be fc56 71bf 96d3 01c1
000002c0: 9c74 71bc b816 383e 0498 9abd a93c 0ec0
000002d0: cbec 81bf 8cdd 6cbf 1ea0 ce40 a17f 41be
000002e0: d977 8abb 4a2a 8cbf f7aa 01c1 b5a9 5bbc
000002f0: 62bc 093e 5c37 bbbe 4ba1 10c0 746b afbf
00000300: ba09 69bf 7ee6 ce40 bc33 56be 9ad5 3c3e
00000310: 3028 a7bf 7357 05c1 3b30 b93b 9af6 583e
00000320: 44a3 71be a01a 0dc0 a0cd c3bf d8aa 66bf
00000330: ecdc ce40 2ad0 44be 1cc1 bc3e 00d1 babf
00000340: 96ec 06c1 1903 393d 637a 843e 57d7 6abe
00000350: 283c f6bf 951f e0bf e60e 6bbf 2a34 ce40
00000360: 0869 1fbe 77dd 45bf bdca d7bf 7d39 09c1
00000370: 47e7 113d 7a83 8c3e bf58 37be 9747 14c0
00000380: 31f6 f7bf fd3c 79bf 2042 cf40 75fa 2cbe
00000390: 0ad4 58bf f1c2 f2bf 9288 0ac1 f7dd 96bc
000003a0: 9438 a13e 149e e23d f904 a63f c542 05c0
000003b0: 8640 6abf 75e3 cf40 d033 12bd 5b37 3abe
000003c0: de44 03c0 ca43 09c1 3a92 d3bb a702 973e
000003d0: b01b 1dbe 3ba9 11c0 ab1a 13c0 8343 80bf
000003e0: b881 cd40 2f4e 10be 21f7 e93d 8e57 15c0
000003f0: dca5 0dc1 c61d 1ebd 12e0 b33e e1e4 e53c

network_smart.layer1.0.bias f4 [128]
0.06471061 -0.047897495 0.15567888 0.042537533 0.11048268 -0.2608845 0.058848858 0.3185431
0.13326542 0.06211315 -0.010926608 0.21112455 -0.29120567 0.00084132014 -0.011015428 0.23088966
-0.023713304 -0.14082098 0.15613885 0.0021557612 -0.050659593 -0.27255097 0.19108215 0.01910334
-0.12612693 0.18769717 0.087873176 0.047050834 -0.046078388 0.0599012 0.014999267 -0.0069556586
0.0036620183 0.1246994 0.10946004 0.09327516 -0.02575092 0.17742348 -0.09261758 -0.060687974
-0.14382444 0.08870582 -0.055972338 0.24076006 0.005318061 0.137691 -0.052200463 -0.31840238
0.18429354 -0.0027273668 -0.11783647 -0.0015003314 0.023609286 -0.025918042 -0.0142418835 -0.089225605
0.099515945 0.14560118 0.07677884 -0.0124214245 -0.05566655 0.014109315 0.07575519 -0.0977298
0.1911099 -0.05341181 0.018411534 -0.06685962 -0.20980065 0.12973261 0.10053755 0.21115755
-0.0037926603 -0.28670284 -0.00064368715 0.084485434 -0.25591242 0.14961676 -0.5106383 0.05338434
-0.27465534 -0.38450205 0.16188194 -0.28737235 -0.53863144 -0.022607753 -0.0012555021 -0.065116115
-0.03635734 0.010630975 0.02051963 0.18206826 0.1323608 0.03415321 0.081784636 -0.04855774
-0.17764702 0.1338504 0.10922468 0.0077603357 -0.03351054 -0.023758855 0.17220844 0.13995759
0.18228786 -0.2697324 -0.22274539 0.049803175 -0.47856694 -0.021529473 -0.0147987865 0.1200091
0.051648963 -0.05633888 0.06034193 -0.028028063 0.1582072 -0.24450798 0.066890985 0.018265586
-0.028195985 0.019714767 -0.055037178 0.013380697 -0.020270891 0.19224913 -0.0054241163 0.042681627
00000000: ff86 843d 2a30 44bd 496a 1f3e d63b 2e3d
00000010: be44 e23d a792 85be 800b 713d 1518 a33e
00000020: bb76 083e 5c6a 7e3d 8405 33bc 0931 583e
00000030: e918 95be 0a8c 5c3a 0e7a 34bc 576e 6c3e
00000040: 6742 c2bc 6033 10be dde2 1f3e ac47 0d3b
00000050: 6f80 4fbd cd8b 8bbe 0aab 433e 9c7e 9c3c
00000060: 6b27 01be b033 403e daf6 b33d 60b8 403d
00000070: b1bc 3cbd f65a 753d 7cbf 753c 4bec e3bb
00000080: 79fe 6f3b 6662 ff3d 962c e03d 0c07 bf3d
00000090: 98f3 d2bc 80ae 353e 49ae bdbd f493 78bd
000000a0: b746 13be 66ab b53d 4043 65bd ce89 763e
000000b0: 2143 ae3b dffe 0c3e 27d0 55bd a305 a3be
000000c0: 72b7 3c3e 9fbd 32bb 3f54 f1bd c5a6 c4ba
000000d0: 4368 c13c 1352 d4bc ca56 69bc eabb b6bd
000000e0: 04cf cb3d 7a18 153e 393e 9d3d 3b83 4bbc
000000f0: 9c02 64bd c22a 673c 8925 9b3d 9026 c8bd
00000100: 50b2 433e 58c6 5abd c9d3 963c b2ed 88bd
00000110: fbd5 56be a0d8 043e a2e6 cd3d af39 583e
00000120: 488e 78bb b7ca 92be 1dbd 28ba b306 ad3d
00000130: f406 83be 2335 193e 31b9 02bf 8aa9 5a3d
00000140: a09f 8cbe 74dd c4be 61c4 253e 7822 93be
00000150: c0e3 09bf e533 b9bc a98f a4ba 995b 85bd
00000160: 6feb 14bd 8a2d 2e3c c818 a83c 1a70 3a3e
00000170: 9789 073e 3de4 0b3d b47e a73d 7be4 46bd
00000180: 1ae9 35be 1410 093e 30b1 df3d 6a4a fe3b
00000190: 5942 09bd eea1 c2bc 6957 303e 0b51 0f3e
000001a0: aba9 3a3e 5d1a 8abe 5e17 64be 6afe 4b3d
000001b0: ba06 f5be 945e b0bc 9c76 72bc 55c7 f53d
000001c0: dd8d 533d 99c3 66bd 1929 773d 1c9b e5bc
000001d0: 1101 223e 4d60 7abe 24fe 883d b6a1 953c
000001e0: 44fb e6bc dd80 a13c aa6e 61bd b63a 5b3c
000001f0: 240f a6bc f5dc 443e c9bc b1bb eed2 2e3d

network_smart.layer2.0.weight f4 [128, 128]
-0.09207679 0.054553688 -0.05009116 0.13069792 -0.13572209 -0.7286088 0.12521784 0.22073622
-0.013130153 0.012112623 -0.05389886 0.033476576 -0.5197894 -0.003429159 -0.0025890716 0.04935594
-0.022486283 0.110317275 0.13686553 -0.5863299 0.0450494 -0.069763914 0.018183291 -0.087474406
-0.5873841 0.1689353 -0.060334783 -0.109325625 0.07239662 0.04580396 0.18619896 -0.035354502
-0.0730496 0.010034865 -0.18141486 0.14905444 0.01249068 -0.053714953 -0.046449695 0.07324172
0.16874589 0.23002361 0.0010721247 0.14681086 -0.1461815 -0.045887467 0.09265133 -0.069454655
-0.008324547 0.018998522 0.15955451 -0.14525716 0.05743442 -0.05627864 -0.06631796 0.043476306
0.53104675 -0.02481874 -0.37020838 -0.16516815 -0.02380464 -0.0747006 -0.072088905 0.04609261
-0.19170529 0.077227116 -0.04201438 0.03027679 0.07282606 -0.046510488 0.4205552 0.009114671
-0.066512465 -0.244353 0.0027288718 0.13145456 -0.5392525 -0.3580727 -0.43889236 -0.0042100404
-0.5186886 0.13023794 -0.0066307397 0.07564562 -0.6894179 0.08111062 -0.049950227 0.08497389
-0.12075614 0.21256478 0.0092177475 0.10075384 -0.14463215 0.009444629 -0.14004965 0.08802397
-0.087348014 0.10142923 -0.08858219 0.04631818 -0.04546756 -0.09055272 0.16074125 0.110950686
0.0029811824 -0.060716834 -0.23932609 -0.01769573 0.027263362 -0.070601895 -0.010539048 0.3163359
-0.06900404 -0.064604364 -0.040527567 0.09311404 -0.028903753 -0.04842699 -0.16739248 -0.01768482
0.03358263 0.12003342 0.002054842 0.0063792528 0.15204707 0.17401056 0.052429643 0.020105517
-0.2523526 -0.0716294 0.14859544 0.18959327 0.27196038 -0.00905 -0.11305001 0.054993387
-0.10231238 0.2077964 0.015726155 -0.032059204 -0.123987235 0.25921986 0.072928585 0.29608727
-0.08051563 -0.1206854 0.0045471066 0.3663883 -0.058735937 0.004728885 0.0097421985 0.031864475
0.45325464 -0.28531754 0.10805007 -0.14255252 0.03576821 -0.2170123 -0.3017662 0.105005324
0.00076134776 -0.040429242 -0.08262927 -0.17961735 -0.026264688 -0.22376391 0.022924915 0.090900846
0.014412512 0.16697359 0.047789387 0.25095612 0.099859245 0.12880115 0.0075894147 0.22336121
0.082797125 -0.043087807 0.44229046 0.22988337 0.19842517 0.02034401 0.023482587 0.10492124
0.5307889 0.49178407 0.08560676 0.19912228 0.030767685 -0.3637765 0.20588376 0.044727452
0.35513833 0.061575286 0.10478357 0.08631531 -0.11429628 0.09842716 -0.09555589 -0.028781395
0.027784789 0.12878549 0.02740862 -0.76573306 0.07270503 -0.14668477 0.050953228 0.0483475
0.17188424 0.057187267 -0.099436395 0.03115908 -0.24280329 0.16004357 0.03790235 -0.07534866
-0.03762449 0.21480085 -0.07125666 0.22133248 0.13251287 0.42055237 -0.39481604 -0.020960636
-0.13511361 0.2575994 -0.08689143 -0.024064006 -0.07590297 0.017899467 -0.20257033 -0.025554383
-0.43841684 0.07713543 -0.049402643 0.009912751 -0.12211006 0.058662206 -0.14366028 0.15842971
0.191632 -0.40928546 -0.26519746 -0.2601815 -0.17441957 0.007715017 -0.020013645 0.24385656
-0.08023647 0.11002239 -0.07196174 -0.054436076 0.022343332 -0.19713283 -0.023402717 -0.561993
00000000: c292 bcbd b073 5f3d 632c 4dbd add5 053e
00000010: bbfa 0abe 1b86 3abf 1b39 003e ad08 623e
00000020: da1f 57bc 0674 463c 0dc5 5cbd bc1e 093d
00000030: eb10 05bf bebb 60bb 6aad 29bb 7429 4a3d
00000040: 2735 b8bc 06ee e13d 7a26 0c3e b719 16bf
00000050: b885 383d 62e0 8ebd 20f5 943c c825 b3bd
00000060: ce5e 16bf 60fd 2c3e 9b21 77bd 1de6 dfbd
00000070: ae44 943d ef9c 3b3d f1aa 3e3e e2cf 10bd
00000080: 079b 95bd 4669 243c d1c4 39be baa1 183e
00000090: b6a5 4c3c 3604 5cbd 0942 3ebd c1ff 953d
000000a0: b9cb 2c3e 4f8b 6b3e 8986 8c3a 9655 163e
000000b0: 9ab0 15be 7ff4 3bbd fbbf bd3d 3e3e 8ebd
000000c0: ae63 08bc caa2 9b3c 4262 233e 4bbe 14be
000000d0: 5b40 6b3d 6e84 66bd b6d1 87bd 3614 323d
000000e0: aef2 073f ac50 cbbc f48b bdbe d721 29be
000000f0: f301 c3bc a1fc 98bd 59a3 93bd 9bcb 3c3d
00000100: 644e 44be 4029 9e3d 4517 2cbd 0807 f83c
00000110: d425 953d c881 3ebd 0353 d73e b355 153c
00000120: b037 88bd ac37 7abe dfd6 323b 069c 063e
00000130: 740c 0abf 4e55 b7be 80b6 e0be 61f4 89bb
00000140: c7c8 04bf 185d 053e ad46 d9bb 17ec 9a3d
00000150: b17d 30bf 531d a63d 9c98 4cbd ca06 ae3d
00000160: ff4e f7bd 95aa 593e 0906 173c 0758 ce3d
00000170: 731a 14be a5bd 1a3c 2d69 0fbe e945 b43d
00000180: 84e3 b2bd 21ba cf3d 946a b5bd 22b8 3d3d
00000190: 313c 3abd b473 b9bd 5b99 243e 1d3a e33d
000001a0: f15f 433b 37b2 78bd e611 75be a3f6 90bc
000001b0: 6a57 df3c ba97 90bd f9ab 2cbc c7f6 a13e
000001c0: fd51 8dbd 4b4f 84bd 3c00 26bd 93b2 be3d
000001d0: 90c7 ecbc 615b 46bd ef68 2bbe c1df 90bc
000001e0: f18d 093d 15d4 f53d 87aa 063b 0d09 d13b
000001f0: 3ab2 1b3e d32f 323e 77c0 563d 53b4 a43c
00000200: 5c34 81be 6fb2 92bd 6729 183e bd24 423e
00000210: 643e 8b3e 7446 14bc c386 e7bd bf40 613d
00000220: 2789 d1bd 94c8 543e 23d4 803c 8350 03bd
00000230: 05ed fdbd 77b8 843e 955b 953d c098 973e
00000240: 61e5 a4bd e829 f7bd e5ff 943b 3f97 bb3e
00000250: 1895 70bd c3f4 9a3b be9d 1f3c 5384 023d
00000260: fe10 e83e 2415 92be 5b49 dd3d 4af9 11be
00000270: b081 123d 7938 5ebe 1981 9abe 080d d73d
00000280: 2f95 473a 2299 25bd 8939 a9bd 9ced 37be
00000290: 0b29 d7bc 5e22 65be 08cd bb3c 392a ba3d
000002a0: 7522 6c3c 20fb 2a3e cebe 433d 527d 803e
000002b0: 0183 cc3d 73e4 033e a0b0 f83b cdb8 643e
000002c0: 8a91 a93d d77c 30bd e573 e23e 8c66 6b3e
000002d0: f82f 4b3e 7ba8 a63c 8e5e c03c f2e0 d63d
000002e0: c8e1 073f 1fcb fb3e 9952 af3d b6e6 4b3e
000002f0: 830c fc3c ea40 babe 31d3 523e 2234 373d
00000300: b1d4 b53e 5e36 7c3d c598 d63d 15c6 b03d
00000310: 2b14 eabd 2e94 c93d ceb2 c3bd f6c6 ebbc
00000320: ed9c e33c 58e0 033e 0b88 e03c 1507 44bf
00000330: 60e6 943d 8834 16be 55b4 503d 0708 463d
00000340: 6c02 303e 323d 6a3d 4fa5 cbbd 5441 ff3c
00000350: 6da1 78be 76e2 233e 7f3f 1b3d 6650 9abd
00000360: 231c 1abd c1f4 5b3e 03ef 91bd fba4 623e
00000370: 74b1 073e a452 d73e 5425 cabe a4b5 abbc
00000380: 395b 0abe 12e4 833e 22f4 b1bd e121 c5bc
00000390: 0473 9bbd e7a1 923c 996e 4fbe 6d57 d1bc
000003a0: 2c78 e0be 2ef9 9d3d 6d5a 4abd 1769 223c
000003b0: d714 fabd c847 703d ae1b 13be 663b 223e
000003c0: 2e3b 443e dd8d d1be f6c7 87be 8236 85be
000003d0: 0b9b 32be 41ce fc3b a8f3 a3bc 89b5 793e
000003e0: 0553 a4bd 6b53 e13d ad60 93bd 5df8 5ebd
000003f0: 5d09 b73c 30dd 49be 0eb7 bfbc c6de 0fbf

network_smart.layer2.0.bias f4 [128]
0.09418587 0.026627978 0.039683975 -0.35630608 -0.042856082 0.07824844 0.07148097 -0.05783385
0.11273776 0.11071246 -0.0021607627 -0.19972016 -0.051860377 -0.101015285 -0.02740633 -0.36448127
0.027487196 -0.081757 0.061331403 0.016215509 -0.08829744 0.1263273 0.039589997 -0.06546949
-0.08880619 -0.09681822 -0.021530237 0.052494496 0.04077423 0.07924476 0.05339055 0.08506996
-0.14470035 -0.009114803 0.16467813 -0.015059395 0.058344133 -0.14229678 0.044517122 0.0036979595
-0.056623604 -0.009166878 -0.10099378 -0.03189138 0.102300905 0.047446746 -0.0075988686 0.04484469
0.01463437 -0.020580085 -0.03278466 -0.53022027 0.12796985 0.06621291 -0.06060862 0.033432968
-0.08501214 0.0056994976 -0.07354922 -0.004654218 -0.113125205 0.12197639 0.0839461 0.011030925
0.10508698 -0.025125636 0.12292469 -0.049473453 0.02484781 -0.12686415 0.0011462965 -0.032176506
0.05506361 -0.16090259 0.10609923 0.07098507 -0.25754473 0.031631917 0.009899847 -0.15730456
-0.08239987 0.13125898 0.013098546 -0.0043054237 -0.015354161 0.076311596 0.14990102 0.15280364
0.08175062 0.09253894 0.019130757 -0.07391335 0.07872253 0.08426161 -0.42009565 -0.07720135
-0.14767045 -0.044624124 -0.097871885 0.07767172 0.13453504 -0.12377406 0.08357399 -0.0009416347
0.06114985 -0.05822916 -0.056166276 0.0418999 0.08864633 -0.022037659 0.020688713 -0.0041365437
-0.12490166 0.12488089 -0.047168083 -0.109523214 0.022134468 0.009706135 0.05130068 -0.0020448456
-0.4453425 0.0035646781 0.0043631373 0.035975855 -0.0022657125 -0.044556152 0.13348548 0.023077728
00000000: 85e4 c03d eb22 da3c aa8b 223d c06d b6be
00000010: dc89 2fbd b840 a03d 9d64 923d 30e3 6cbd
00000020: 0ee3 e63d 37bd e23d 959b 0dbb 7183 4cbe
00000030: 8c6b 54bd 1ae1 cebd 3d83 e0bc 4a9d babe
00000040: d42c e13c 3770 a7bd a336 7b3d 63d6 843c
00000050: 4ad5 b4bd f25b 013e 1f29 223d de14 86bd
00000060: 05e0 b5bd a248 c6bd 2e60 b0bc 7804 573d
00000070: e102 273d 144b a23d 0db0 5a3d 2939 ae3d
00000080: 542c 14be 4156 15bc 62a1 283e aebb 76bc
00000090: 42fa 6e3d 3fb6 11be 9657 363d 7759 723b
000000a0: 27ee 67bd ac30 16bc d4d5 cebd 89a0 02bd
000000b0: 2383 d13d 8557 423d eeff f8bb 11af 373d
000000c0: ffc4 6f3c 9197 a8bc 3549 06bd 84bc 07bf
000000d0: 870a 033e a29a 873d bf40 78bd 02f1 083d
000000e0: d81a aebd dac2 ba3b f9a0 96bd 6982 98bb
000000f0: 30ae e7bd c2ce f93d efeb ab3d 0ebb 343c
00000100: d837 d73d 47d4 cdbc f1bf fb3d ada4 4abd
00000110: a28d cb3c ade8 01be 543f 963a 83cb 03bd
00000120: 618a 613d a6c3 24be 8e4a d93d 9f60 913d
00000130: e7dc 83be 7890 013d f832 223c 7214 21be
00000140: 43c1 a8bd c168 063e 499b 563c 8314 8dbb
00000150: 0590 7bbc 4149 9c3d a77f 193e 8f78 1c3e
00000160: de6c a73d 0e85 bd3d 1bb8 9c3c e25f 97bd
00000170: 4739 a13d 5a91 ac3d c716 d7be be1b 9ebd
00000180: ec36 17be c9c7 36bd 0e71 c8bd 5a12 9f3d
00000190: 8ec3 093e 417d fdbd d728 ab3d 09d8 76ba
000001a0: 4478 7a3d b381 6ebd 9c0e 66bd 3b9f 2b3d
000001b0: 358c b53d 5288 b4bc 607b a93c d88b 87bb
000001c0: 71cc ffbd 8dc1 ff3d 5233 41bd b54d e0bd
000001d0: 5853 b53c 7b06 1f3c a920 523d d102 06bb
000001e0: ef03 e4be 609d 693b a6f8 8e3b 6b5b 133d
000001f0: 597c 14bb 8380 36bd 6bb0 083e 810d bd3c

network_smart.layer3.0.weight f4 [48, 128]
0.04998508 -0.14193138 -0.15028511 -0.05200142 0.102297954 -0.096105486 0.040832918 -0.038426712
0.13812175 -0.15069917 -0.004946281 -0.26750594 0.058610704 -0.07587564 0.046460208 0.038242605
-0.12868245 0.05641833 0.00783307 0.1085728 0.05203045 0.28948325 -0.012897116 -0.05317034
0.03811084 -0.01566883 0.0780468 -0.17111345 0.02804551 0.03420164 -0.10236069 0.07844845
0.124331586 -0.032722257 0.04208114 -0.08953233 -0.2990436 0.079478614 -0.015884485 -0.020861901
-0.018836807 0.029189311 0.06564843 -0.04064722 0.1223101 -0.11133117 0.020164147 -0.16439326
0.025082298 0.031395953 -0.7678542 0.062072318 0.00024019419 0.08055738 -0.022560174 -0.030130692
0.013123613 -0.0025372638 -0.009415154 -0.03122147 -0.039422095 0.054711226 0.09514122 0.10398354
-0.06856317 0.09150015 0.067997724 -0.09896242 0.052185588 0.019649178 0.19245726 0.18339327
-0.20362608 0.07478116 0.41565758 0.012288323 0.072131954 -0.04342003 -0.100949645 -0.11836028
0.079940036 0.05310119 0.017886324 0.07819064 -0.018198412 0.06385085 0.032125536 -0.19597435
0.118932344 0.29339787 0.03973258 0.029861817 0.053025477 -0.42545983 -0.058645695 -0.03958232
0.015180923 -0.019802697 -0.009844175 0.07569857 -0.0651765 0.035143998 -0.111706674 0.07095677
0.11915782 -0.009569691 -0.03822725 0.05253939 -0.0075595984 -0.11808716 -0.15516181 0.036553316
-0.08071244 -0.098648995 0.15913032 0.044075448 0.24483688 0.09132732 0.1284502 -0.07207532
0.21122088 -0.106465675 -0.063359395 0.08894249 -0.0010383452 0.19587226 0.11266686 0.09399101
0.078140765 0.09275088 0.17572169 0.34782806 0.012043551 -0.043265015 0.03578646 0.08108241
-0.065926075 -0.25773314 0.17344236 -0.08020595 0.008761002 0.018348098 0.1222389 0.27341053
0.18864663 0.030223062 0.10598605 -0.11991053 0.073583506 0.286927 -0.5451111 0.07311856
-0.049524173 -0.036886387 0.08472972 0.20248139 0.04001167 -0.13510026 -0.15887493 0.15057282
0.013884036 -0.04739184 0.4183484 0.12212127 0.054644402 -0.17299736 -0.1432427 0.0061307843
-0.03057993 -0.05257239 -0.03126661 -0.08451117 -0.047733065 -0.024826298 -0.026585748 -0.242867
0.008546472 -0.0027624124 0.5499871 -0.90629756 0.22737254 0.08599362 -0.357062 -0.1836168
-0.08512364 0.0057620574 -0.013569521 -0.08583732 -0.08171477 -0.008243595 0.07076136 -0.0002544592
0.05906252 -0.08029267 -0.15476185 0.25799027 -0.014025288 -0.18429099 -0.19371426 0.12268451
-0.30977765 -0.29192278 0.07266078 0.012310547 0.23230754 0.021583393 -0.054792486 0.06324269
0.033395972 -0.028915623 0.13319795 0.047423404 -0.044154022 0.052303694 -0.038965195 -0.15874009
0.1566454 -0.10146219 -0.008301594 0.028094022 -0.0024553519 0.18950002 0.12422518 -0.015389154
0.056416515 -0.062194686 0.050613917 0.13921541 -0.3088458 0.119386815 -0.056489494 -0.67553735
0.20570555 -0.014982498 0.1560564 -0.1118785 0.11649961 -0.2630497 -0.07958622 -0.014444498
0.069552645 -0.15173705 -0.25744352 0.24815391 0.119956836 0.23036824 -0.19704475 -0.07756521
0.52022225 -0.06877753 -0.10513285 0.26355416 -0.17016354 -1.0038724 0.12222957 0.19106945
00000000: 28bd 4c3d 7656 11be 57e4 19be 71ff 54bd
00000010: 9781 d13d f4d2 c4bd 6b40 273d 5465 1dbd
00000020: ca6f 0d3e e250 1abe 6a14 a2bb 8af6 88be
00000030: c711 703d b064 9bbd 0f4d 3e3d 47a4 1c3d
00000040: 55c5 03be e816 673d 4756 003c 6b5b de3d
00000050: e21d 553d 2637 943e 6d4e 53bc 24c9 59bd
00000060: 1d1a 1c3d eb5b 80bc 00d7 9f3d 5d38 2fbe
00000070: b3bf e53c 0517 0c3d 7ba2 d1bd 95a9 a03d
00000080: 8fa1 fe3d c607 06bd 465d 2c3d ba5c b7bd
00000090: 3e1c 99be afc5 a23d 2e20 82bc 94e6 aabc
000000a0: a64f 9abc 6c1e ef3c af72 863d b37d 26bd
000000b0: b87d fa3d 9901 e4bd 482f a53c b556 28be
000000c0: 6479 cd3c 0b99 003d 1892 44bf 8b3f 7e3d
000000d0: a3dc 7b39 45fb a43d 1dd0 b8bc a4d4 f6bc
000000e0: 6c04 573c 3948 26bb 0542 1abc 2bc4 ffbc
000000f0: 1079 21bd e118 603d 66d9 c23d 52f5 d43d
00000100: d96a 8cbd 6e64 bb3d 6442 8b3d cfac cabd
00000110: 8ec0 553d 50f7 a03c 8413 453e 72cb 3b3e
00000120: 5b83 50be dd26 993d 12d1 d43e f654 493c
00000130: ebb9 933d 34d9 31bd b0be cebd e066 f2bd
00000140: 9ab7 a33d a280 593d 5786 923c 6a22 a03d
00000150: d614 95bc 3cc4 823d 1196 033d 80ad 48be
00000160: cd92 f33d 3f38 963e a1be 223d c5a0 f43c
00000170: 3e31 593d dfd5 d9be 7836 70bd 1221 22bd
00000180: 68b9 783c 4439 a2bc 7649 21bc da07 9b3d
00000190: 427b 85bd 27f3 0f3d 78c6 e4bd c851 913d
000001a0: 0409 f43d 31ca 1cbc 2d94 1cbd 8b33 573d
000001b0: 82b6 f7bb aed7 f1bd bde2 1ebe eeb8 153d
000001c0: 904c a5bd 7c08 cabd 0ff3 223e 7588 343d
000001d0: 85b6 7a3e d109 bb3d 7388 033e 3a9c 93bd
000001e0: 494a 583e ad0a dabd 92c2 81bd 7b27 b63d
000001f0: 1519 88ba bd92 483e e2bd e63d 5c7e c03d
00000200: 4408 a03d 2cf4 bd3d 63f0 333e 8516 b23e
00000210: 5052 453c a836 31bd d394 123d 890e a63d
00000220: 4004 87bd 99f5 83be e09a 313e 0443 a4bd
00000230: 4e8a 0f3c c04e 963c 6358 fa3d 77fc 8b3e
00000240: 952c 413e 5b96 f73c 370f d93d a793 f5bd
00000250: f3b2 963d 19e8 923e 678c 0bbf 2fbf 953d
00000260: dcd9 4abd 2e16 17bd c786 ad3d 4857 4f3e
00000270: 47e3 233d b957 0abe 1cb0 22be c32f 1a3e
00000280: de79 633c f21d 42bd c331 d63e b71a fa3d
00000290: cfd2 5f3d 3826 31be 37ae 12be bfe4 c83b
000002a0: c382 fabc 2556 57bd 6b11 00bd 3114 adbd
000002b0: bf83 43bd 8560 cbbc 5bca d9bc 20b2 78be
000002c0: 8006 0c3c 9709 35bb f4cb 0c3f 1e03 68bf
000002d0: 59d4 683e 6c1d b03d d5d0 b6be 0b06 3cbe
000002e0: 4e55 aebd a4cf bc3b b252 5ebc 7acb afbd
000002f0: 135a a7bd 2510 07bc 55eb 903d f068 85b9
00000300: 8aeb 713d 7c70 a4bd e479 1ebe 4d17 843e
00000310: 52ca 65bc c7b6 3cbe 085d 46be 0442 fb3d
00000320: 2d9b 9ebe e776 95be 2dcf 943d 2db2 493c
00000330: 07e2 6d3e a8cf b03c 166e 60bd 6285 813d
00000340: 37ca 083d 75e0 ecbc 0b65 083e 0b3f 423d
00000350: d9da 34bd 663c 563d f899 1fbd c38c 22be
00000360: a767 203e 69cb cfbd 6903 08bc 6f25 e63c
00000370: f8e9 20bb 4b0c 423e c569 fe3d ca22 7cbc
00000380: 0115 673d dbbf 7ebd 8a50 4f3d 7c8e 0e3e
00000390: 0921 9ebe 1381 f43d 8761 67bd 04f0 2cbf
000003a0: 7aa4 523e 2779 75bc 40cd 1f3e 8e20 e5bd
000003b0: 5997 ee3d 73ae 86be 1afe a2bd 9ea8 6cbc
000003c0: 9e71 8e3d f560 1bbe a3cf 83be 0f1c 7e3e
000003d0: eeab f53d a7e5 6b3e 19c6 49be 82da 9ebd
000003e0: 492d 053f 3cdb 8cbd e44f d7bd 92f0 863e
000003f0: 5a3f 2ebe e47e 80bf 7f53 fa3d b6a7 433e

network_smart.layer3.0.bias f4 [48]
0.034980845 -0.013982499 -0.007828483 -0.014113031 0.074532464 -0.09388009 -0.12449069 0.15423907
0.044958357 0.051887713 -0.111867815 0.03092918 0.020377949 0.07199904 -0.10860155 0.043457005
0.048101883 0.005915311 -0.054918576 -0.022036325 0.027944295 0.025882388 0.023671804 0.031594258
0.085046954 -0.057676125 -0.0012301935 0.10826752 0.062537216 -0.12849787 0.009460341 -0.027925441
0.040493034 -0.22998029 -0.03879256 0.066761844 -0.012547905 -0.027961174 0.041677363 0.07645229
0.04987938 0.034747463 -0.15962817 -0.0035618255 0.06615796 0.038701978 -0.10063009 -0.10236087
00000000: 1348 0f3d da16 65bc 0a43 00bc 583a 67bc
00000010: 7aa4 983d 3444 c0bd faf4 febd d9f0 1d3e
00000020: 4126 383d 3688 543d f41a e5bd 315f fd3c
00000030: a8ef a63c 3c74 933d 7d6a debd f9ff 313d
00000040: 7b06 453d 3ad5 c13b 4df2 60bd 8685 b4bc
00000050: 6feb e43c 4d07 d43c 5feb c13c fb68 013d
00000060: 192d ae3d cd3d 6cbd 723e a1ba 5dbb dd3d
00000070: 8313 803d f294 03be 8cff 1a3c e5c3 e4bc
00000080: 06dc 253d f47f 6bbe f3e4 1ebd 6fba 883d
00000090: ba95 4dbc d50e e5bc e2b5 2a3d 0593 9c3d
000000a0: 524e 4c3d 5b53 0e3d 9175 23be 846d 69bb
000000b0: d37d 873d f785 1e3d 2617 cebd 93a2 d1bd

fc_smart.weight f4 [64, 48]
-0.13157094 0.320722 -0.8467494 -0.73444885 0.1842462 0.10190019 0.095860496 0.32354626
-0.042182755 0.2338507 0.39142916 -0.1134659 0.365006 0.92400783 0.5616806 -0.15203172
0.22518013 1.689983 0.92760414 0.2961365 0.572573 -0.36293724 0.051754 0.026606372
0.43091384 0.7269123 0.691011 0.01907008 -1.1191392 -0.10225323 -0.11063119 0.06860995
0.07215239 -0.25582427 -1.6634034 0.56475806 0.101941094 -0.88506 -0.76219696 -0.084321894
0.32301816 -0.62977815 0.11369892 -0.31308317 -0.036933687 -1.1958449 1.4046835 0.2513998
-0.068299405 0.0053288345 -0.8210732 -0.73145163 -0.101819284 0.15195723 0.006107295 -5.9314483e-05
-0.08745959 0.34748298 0.41959184 -0.16495876 0.5220932 0.87135375 0.44708622 -0.057277076
0.21766219 1.2296362 0.77462816 0.4285986 0.37459403 -0.49989828 0.05379105 -0.03557753
0.46384975 1.0831331 0.045453597 -0.18632278 -0.8451668 0.021051856 -0.2280063 -0.08617727
0.00049770524 -0.66432697 -1.5012378 0.5247381 -0.061513904 -0.77640915 0.05247457 -0.32615483
0.38777718 -0.5191592 -1.1189795 -0.5245402 0.0030868533 -1.2273827 -0.61780757 0.98630935
-0.1328549 0.092248045 -0.9470098 -0.8613285 -0.05901049 -0.11440894 -0.12630333 0.058417562
-0.064176664 0.39351848 0.47068968 -0.11556874 0.5700581 1.0167395 0.538843 -0.076780155
0.2494833 1.5367432 0.931742 0.47526088 0.47658426 -0.54905087 -0.0830445 0.02722918
0.5395999 1.1750162 0.22359948 -0.22527242 -1.0388627 -0.00032077628 -0.24052982 -0.100556776
-0.017626088 -0.66840315 -1.8031667 0.608598 -0.026313962 -0.9289496 -0.10541451 -0.32136577
0.44253764 -0.6166514 -1.016219 -0.575317 -0.030949853 -1.431591 -0.11783512 0.98261875
-0.08418645 0.2706406 -0.84534913 -0.727566 0.12613362 -0.095349744 0.16182941 0.253858
-0.08589578 0.261755 0.38304064 -0.054746263 0.38096568 0.9010352 0.53912634 -0.13891481
0.2346289 1.6187491 0.90397865 0.3101711 0.5268352 -0.38527566 0.011113323 -0.03254175
0.44973746 0.7703711 0.60009336 -0.032761693 -1.0469491 -0.02231447 -0.15811278 -0.10382871
0.08907545 -0.31019473 -1.6116018 0.55437857 0.09510925 -0.8749653 -0.631829 -0.11302266
0.32901633 -0.60340583 -0.0688187 -0.34694526 -0.0032825489 -1.2029442 1.156904 0.36381316
-0.118022785 0.08523905 -0.84202814 -0.76676875 -0.037947193 0.018216372 0.110875756 0.07171893
-0.052439533 0.3386559 0.40971133 -0.06911279 0.49039742 0.88734114 0.47927272 -0.08593411
0.21915132 1.382564 0.8212316 0.3981262 0.42719808 -0.47768977 0.0020859886 -0.021811673
0.47824895 1.0133576 0.22177716 -0.17291993 -0.91998756 0.109142244 -0.22561044 0.035548504
0.019343443 -0.56414217 -1.5948441 0.5437172 -0.051313065 -0.83167076 -0.14651713 -0.2655811
0.38072821 -0.5495573 -0.8433652 -0.49031836 -0.03917059 -1.264144 -0.10448416 0.82887995
0.07050218 0.065032266 0.5672992 0.5297834 0.12558433 -0.050524857 -0.088516735 0.057128176
0.020516736 -0.26880574 -0.29646936 0.10477419 -0.39713034 -0.59346145 -0.27660164 0.03362255
00000000: 88ba 06be ad35 a43e 92c4 58bf d704 3cbf
00000010: 09ab 3c3e 0cb1 d03d 8252 c43d dba7 a53e
00000020: d3c7 2cbd 8f76 6f3e 6769 c83e cf60 e8bd
00000030: 11e2 ba3e c78b 6c3f 4dca 0f3f 34ae 1bbe
00000040: 9f95 663e 5d51 d83f 7777 6d3f 349f 973e
00000050: 2594 123f e9d2 b9be 01fc 533d 9bf5 d93c
00000060: bda0 dc3e ed16 3a3f 19e6 303f db38 9c3c
00000070: f43f 8fbf 246a d1bd 9b92 e2bd 6083 8c3d
00000080: a2c4 933d 66fb 82be 67ea d4bf fc93 103f
00000090: 7ec6 d03d 4b93 62bf 571f 43bf f5b0 acbd
000000a0: a362 a53e 2439 21bf fbda e83d 704c a0be
000000b0: c747 17bd 7211 99bf abcc b33f 79b7 803e
000000c0: 8fe0 8bbd 819d ae3b da31 52bf 6a40 3bbf
000000d0: a186 d0bd ad9a 1b3e b41f c83b 71c8 78b8
000000e0: 031e b3bd 4ae9 b13e bed4 d63e f3ea 28be
000000f0: e6a7 053f 0a11 5f3f 7ce8 e43e 5e9b 6abd
00000100: d6e2 5e3e b864 9d3f 084e 463f 4771 db3e
00000110: caca bf3e abf2 ffbe 0154 5c3d beb9 11bd
00000120: b77d ed3e 1ba4 8a3f 8d2d 3a3d 66cb 3ebe
00000130: da5c 58bf f174 ac3c 7c7a 69be b57d b0bd
00000140: 6f78 023a 5511 2abf 8f28 c0bf 3c55 063f
00000150: 01f6 7bbd c0c2 46bf 93ef 563d c4fd a6be
00000160: bb8a c63e 9ee7 04bf b83a 8fbf 4448 06bf
00000170: ce4c 4a3b e01a 9dbf a328 1ebf c57e 7c3f
00000180: 1d0b 08be 8bec bc3d 3c6f 72bf 0680 5cbf
00000190: fcb4 71bd 3c4f eabd a955 01be 4147 6f3d
000001a0: 0e6f 83bd 417b c93e 3dfe f03e 4eaf ecbd
000001b0: 54ef 113f 8524 823f 9df1 093f ea3e 9dbd
000001c0: 8d78 7f3e 00b4 c43f a586 6e3f 6555 f33e
000001d0: da02 f43e 998e 0cbf 3c13 aabd bb0f df3c
000001e0: 3823 0a3f ee66 963f 43f7 643e d0ad 66be
000001f0: 74f9 84bf dd2d a8b9 734d 76be b6f0 cdbd
00000200: 9664 90bc 781c 2bbf 2bce e6bf 14cd 1b3f
00000210: 6190 d7bc a4cf 6dbf 90e3 d7bd 0e8a a4be
00000220: 4b94 e23e dedc 1dbf 7713 82bf fa47 13bf
00000230: 8c8a fdbc 603e b7bf 8a53 f1bd e78c 7b3f
00000240: f269 acbd 6891 8a3e cd68 58bf c441 3abf
00000250: 2c29 013e ba46 c3bd 9cb6 253e adf9 813e
00000260: 20ea afbd c004 863e e71d c43e 9e3d 60bd
00000270: ef0d c33e 3eaa 663f 2f04 0a3f af3f 0ebe
00000280: 8f42 703e 2c33 cf3f 256b 673f bfce 9e3e
00000290: acde 063f da42 c5be a814 363c 804a 05bd
000002a0: fd43 e63e 0a37 453f b89f 193f 2031 06bd
000002b0: 6e02 86bf d6cc b6bc 51e8 21be 26a4 d4bd
000002c0: 316d b63d d8d1 9ebe f848 cebf c1eb 0d3f
000002d0: a3c8 c23d bafd 5fbf 8cbf 21bf 6d78 e7bd
000002e0: d474 a83e ce78 1abf d2f0 8cbd cfa2 b1be
000002f0: 0820 57bb 13fa 99bf 6e15 943f b845 ba3e
00000300: eeb5 f1bd d091 ae3d 288f 57bf f54a 44bf
00000310: 846e 1bbd 803a 953c d412 e33d 60e1 923d
00000320: d6ca 56bd 4e64 ad3e afc5 d13e 028b 8dbd
00000330: 5f15 fb3e ca28 633f 3c63 f53e 39fe afbd
00000340: 3469 603e dbf7 b03f 3c3c 523f 33d7 cb3e
00000350: b5b9 da3e c193 f4be 15b5 083b 65ae b2bc
00000360: 0cdd f43e b4b5 813f 8d19 633e ec11 31be
00000370: 4e84 6bbf f885 df3d 6c06 67be 4f9b 113d
00000380: 2476 9e3c 9f6b 10bf da23 ccbf 0d31 0b3f
00000390: a62d 52bd 60e8 54bf 9608 16be 3ffa 87be
000003a0: cfee c23e caaf 0cbf c8e6 57bf 020b fbbe
000003b0: 5771 20bd 78cf a1bf cbfb d5bd 7a31 543f
000003c0: 7263 903d a32f 853d 853a 113f e39f 073f
000003d0: 2e99 003e 27f3 4ebd 4348 b5bd 3cff 693d
000003e0: b712 a83c e8a0 89be d5ca 97be da93 d63d
000003f0: ab54 cbbe 17ed 17bf bb9e 8dbe cdb7 093d

fc_smart.bias f4 [64]
-0.11970001 0.12235326 -0.010008097 -0.16462137 -0.07272415 -0.047942586 0.12313458 0.07712498
0.007881743 0.002358064 -0.072221376 -0.09198186 0.08040939 0.08994965 0.0048505 -0.0812607
0.08759423 0.076803826 0.017138116 0.202154 0.03277211 0.007898714 -0.07801056 -0.029524287
0.12712878 -0.051189616 0.14892061 -0.007951989 0.00071710924 -0.037745193 -0.09788617 0.007488846
-0.10165668 -0.0019150525 -0.03872663 0.09608731 -0.041734368 -0.02326755 0.18861876 0.08593885
-0.016920665 0.11966287 -0.037617516 -0.12997325 -0.08476443 0.113849014 0.06078787 -0.060004897
-0.12674068 -0.08221041 0.09415226 -0.13149574 0.15419105 -0.15654074 0.00037385494 -0.07636737
0.054034784 -0.09265254 0.085002795 -0.0960387 0.026680496 0.040121295 0.04923573 -0.0473669
00000000: 4725 f5bd 5994 fa3d 00f9 23bc 8192 28be
00000010: 66f0 94bd 725f 44bd fc2d fc3d b4f3 9d3d
00000020: 6d22 013c c089 1a3b cde8 93bd fc60 bcbd
00000030: aead a43d 8637 b83d f1f0 9e3b 036c a6bd
00000040: 9b64 b33d 534b 9d3d 3c65 8c3c 7501 4f3e
00000050: 0c3c 063d 9c69 013c 00c4 9fbd ebdc f1bc
00000060: 0c2e 023e 34ac 51bd a57e 183e 0f49 02bc
00000070: 63fc 3b3a b49a 1abd 8b78 c8bd fe64 f53b
00000080: 6131 d0bd 8002 fbba d19f 1ebd 6cc9 c43d
00000090: a8f1 2abd 979b bebc 4725 413e b500 b03d
000000a0: 359d 8abc cf11 f53d d314 1abd b517 05be
000000b0: f998 adbd ac29 e93d b4fc 783d b2c7 75bd
000000c0: 4fc8 01be ee5d a8bd e6d2 c03d d2a6 06be
000000d0: 42e4 1d3e 374c 20be f601 c439 7f66 9cbd
000000e0: 9453 5d3d 9dc0 bdbd f215 ae3d f0af c4bd
000000f0: 0e91 da3c 3a56 243d 68ab 493d cb03 42bd

network_aging.lstm.weight_ih_l0 f4 [128, 5]
0.0338035 0.116831094 0.008326222 0.15047503 -0.05570654 0.13607109 0.0007417013 0.20685521
-0.020002097 0.19830032 -0.10315844 -0.03710427 0.17169237 -0.030394247 -0.13509181 0.21411274
-0.029636044 0.16085173 0.010588045 0.022336718 -0.082629964 0.1442619 -0.14297141 -0.040077616
-0.051298507 -0.08362141 0.02927461 -0.09320489 0.15313464 0.19809906 -0.004139963 -0.109452754
0.1468416 0.10738492 -0.13619147 -0.0089994855 -0.09612855 0.18056223 0.14346656 0.074834995
-0.0075906557 0.042296216 -0.08271497 -0.033310626 0.0933979 0.10087565 0.21280883 -0.0036648137
0.05614944 0.03179015 0.060965843 -0.0633072 -0.057760015 -0.08172368 -0.011392453 -0.054559898
0.09874217 0.20370209 0.09295684 0.11663585 0.16058955 -0.09783814 0.03759724 0.087591834
0.12508467 0.031142553 -0.04441472 0.17986025 0.22151157 -0.02721815 -0.018788936 -0.11788712
0.10960372 0.09161222 0.17979978 -0.031369388 -0.11922106 -0.02104474 0.19950776 0.16592067
0.0699189 0.088286154 -0.07040051 -0.022149777 -0.111483864 0.10273909 -0.028184773 0.19687974
0.122757874 -0.08564411 0.14886653 0.19239715 -0.06505264 0.06071444 0.050046567 -0.04290281
-0.006297676 0.1814369 -0.11402098 0.18962006 0.1579196 0.18987691 0.11946143 0.13544962
-0.116493635 0.1761114 0.029511962 0.07344788 0.1283398 -0.039555304 0.06195201 0.10043021
-0.01988271 0.029801184 -0.109397344 0.16757965 -0.14028946 -0.10825095 -0.057508152 0.12005475
0.012348515 0.119118 0.11460317 -0.09803836 0.017724568 0.09505991 -0.11695119 0.19609052
-0.0052416194 0.09970352 0.0618565 0.15748957 -0.10066368 0.097033285 -0.1689212 -0.1466839
0.12009719 0.1397733 -0.0542068 -0.16591783 -0.022909913 0.083022885 -0.012477784 -0.014071357
-0.03935815 0.19874007 -0.1318196 -0.0463471 -0.056067698 0.16438143 -0.14291036 -0.015705245
-0.10072732 -0.07636348 -0.00983514 0.20304772 0.01927143 -0.012187643 -0.12678048 0.0523302
0.09155184 0.042924587 -0.009395654 -0.044104647 -0.13994454 0.010156236 -0.09021766 0.05042741
0.17666604 -0.014962151 -0.057961453 0.04904265 -0.12512332 -0.12173146 0.16974266 0.109028496
0.23938859 0.067011274 0.18786974 0.060485177 0.1906513 0.17998718 0.008472838 0.106075674
-0.1442924 0.09836144 0.09636511 0.05918254 0.15353225 0.084845275 0.12413588 0.041825734
0.030965388 0.14202686 0.13471216 -0.012781187 -0.10295303 -0.12961534 -0.019406375 0.017709687
-0.117416054 0.045811858 0.1337861 0.11783493 -0.0365287 -0.073889956 -0.06858734 0.21402425
0.14921477 -0.011010444 0.011751294 0.21155012 -0.11481906 0.016157303 0.15323375 -0.086457774
0.01891298 0.013681152 -0.13820276 -0.05405344 0.14831822 0.16766934 -0.030915752 -0.018102523
-0.13148734 0.038381234 -0.067544416 0.108105786 0.043347333 -0.05965439 0.17535856 0.012058764
-0.037775338 -0.06647256 -0.107506186 -0.098249845 0.0727061 -0.008015037 -0.06732021 -0.09610577
0.16406353 0.09905413 0.020209773 0.13420157 -0.03026542 -0.025589986 -0.117077835 0.12806366
-0.0068707555 0.13090707 0.15922846 0.03409048 0.025101418 -0.10839468 -0.02127302 0.21061477
00000000: 8a75 0a3d 2445 ef3d b56a 083c 2016 1a3e
00000010: 8a2c 64bd 3856 0b3e bb6e 423a dad1 533e
00000020: 70db a3bc 3d0f 4b3e bb44 d3bd a6fa 17bd
00000030: 20d0 2f3e 5bfd f8bc 8255 0abe 5f40 5b3e
00000040: 4ac7 f2bc 51b6 243e 7b79 2d3c 7efb b63c
00000050: e639 a9bd 64b9 133e 1967 12be 6d28 24bd
00000060: 621e 52bd b441 abbd 4fd1 ef3c 35e2 bebd
00000070: 54cf 1c3e 7bda 4a3e 87a8 87bb c428 e0bd
00000080: a55d 163e a0ec db3d c775 0bbe 9472 13bc
00000090: 0cdf c4bd 4ee5 383e e6e8 123e 1743 993d
000000a0: 09bb f8bb cc3e 2d3d 7766 a9bd b970 08bd
000000b0: 6647 bf3d e597 ce3d 8fea 593e 5f2d 70bb
000000c0: f5fc 653d 6336 023d 52b7 793d 35a7 81bd
000000d0: c495 6cbd bf5e a7bd 69a7 3abc 337a 5fbd
000000e0: 5639 ca3d 4897 503e 2860 be3d c7de ee3d
000000f0: 9671 243e 5d5f c8bd 90ff 193d 5963 b33d
00000100: 3216 003e ab1e ff3c 36ec 35bd 492d 383e
00000110: eed3 623e 99f8 debc 41eb 99bc cd6e f1bd
00000120: ea77 e03d 309f bb3d 6f1d 383e 307d 00bd
00000130: 2c2a f4bd 0566 acbc c34b 4c3e 1ce7 293e
00000140: a431 8f3d 5fcf b43d 252e 90bd 7373 b5bc
00000150: a751 e4bd df68 d23d c1e3 e6bc d89a 493e
00000160: 7b68 fb3d 2e66 afbd 7870 183e c203 453e
00000170: 523a 85bd b4af 783d a1fd 4c3d dbba 2fbd
00000180: bc5c cebb 98ca 393e d583 e9bd c32b 423e
00000190: adb5 213e 186f 423e 32a8 f43d 4eb3 0a3e
000001a0: 3794 eebd 8c56 343e 12c3 f13c d86b 963d
000001b0: 826b 033e be04 22bd 64c1 7d3d 5bae cd3d
000001c0: 11e1 a2bc 9d21 f43c b70b e0bd 009a 2b3e
000001d0: 0aa8 0fbe adb2 ddbd ab8d 6bbd 44df f53d
000001e0: 6d51 4a3c 23f4 f33d 11b5 ea3d 56c8 c8bd
000001f0: 1d33 913c c5ae c23d 1b84 efbd f4cb 483e
00000200: e4c1 abbb 5c31 cc3d 3e5d 7d3d f244 213e
00000210: c228 cebd 63b9 c63d aef9 2cbe 4e34 16be
00000220: 84f5 f53d bb20 0f3e f307 5ebd 5de6 29be
00000230: 92ad bbbc e707 aa3d 9f6f 4cbc 8d8b 66bc
00000240: 0336 21bd 8482 4b3e b8fb 06be 75d6 3dbd
00000250: 3ea7 65bd 9b53 283e 1857 12be 49a8 80bc
00000260: 204a cebd 7564 9cbd 9123 21bc beeb 4f3e
00000270: 1edf 9d3c aeae 47bc bed2 01be 3158 563d
00000280: 887f bb3d b1d1 2f3d 3bf0 19bc 13a7 34bd
00000290: 9f4d 0fbe 5766 263c 09c4 b8bd f98c 4e3d
000002a0: f1e7 343e cf23 75bc fd68 6dbd f2e0 483d
000002b0: 5420 00be 584e f9bd 05d1 2d3e 554a df3d
000002c0: 4822 753e 353d 893d ed60 403e 4ebf 773d
000002d0: 183a 433e 8f4e 383e a9d1 0a3c 343e d93d
000002e0: 63c1 13be b971 c93d 125b c53d 6469 723d
000002f0: 8f37 1d3e 5cc3 ad3d f43a fe3d 7651 2b3d
00000300: 20ab fd3c 7d6f 113e fcf1 093e 2f68 51bc
00000310: 0ad9 d2bd e2b9 04be 1efa 9ebc e813 913c
00000320: d477 f0bd 37a5 3b3d 39ff 083e 7153 f13d
00000330: 1e9f 15bd 9e53 97bd 8577 8cbd 2c29 5b3e
00000340: c2cb 183e 2665 34bc 8088 403c 98a0 583e
00000350: 4126 ebbd 525c 843c 4fe9 1c3e c610 b1bd
00000360: 65ef 9a3c e926 603c 0685 0dbe 2467 5dbd
00000370: bbe0 173e 83b1 2b3e 0843 fdbc be4b 94bc
00000380: 9ea4 06be a435 1d3d ba54 8abd 9166 dd3d
00000390: f98c 313d 2958 74bd 3291 333e 1f92 453c
000003a0: 50ba 1abd c422 88bd 342c dcbd 3737 c9bd
000003b0: f0e6 943d 8051 03bc 2edf 89bd 1ad3 c4bd
000003c0: 4500 283e e4dc ca3d f78e a53c 236c 093e
000003d0: 30ef f7bc 17a2 d1bc 81c6 efbd 1f23 033e
000003e0: 1324 e1bb 810c 063e c90c 233e 76a2 0b3d
000003f0: 7da1 cd3c 08fe ddbd c244 aebc 66ab 573e

network_aging.lstm.weight_hh_l0 f4 [128, 32]
-0.0063120034 0.101525344 0.19117785 -0.09045851 -0.22690569 0.2123598 0.049866244 -0.18659939
0.0066332663 0.033203084 -0.01731747 -0.16375767 0.22719218 -0.047718942 0.027793614 0.08147394
-0.23603854 -0.00959843 0.1718188 0.007710586 -0.028414035 0.21701077 0.015752045 0.11148764
0.07818151 -0.16875486 0.071887575 -0.21098672 -0.020571932 0.047345005 0.0057448037 -0.104494415
-0.0438949 0.120632336 0.14181224 -0.17510788 -0.11152181 0.12664399 -0.21808653 -0.18816301
-0.07378347 0.030719632 -0.055443086 0.02969812 0.26247907 0.25253072 0.082918555 -0.02632653
-0.0014371808 0.017296333 0.013416554 -0.23928773 0.08937069 0.030278837 0.009758025 -0.09199391
-0.1432544 -0.12744498 -0.064970165 0.15473208 -0.2322604 -0.23683013 0.14554863 0.06757763
-0.013798826 -0.061434917 -0.011384022 -0.10697462 -0.11908645 -0.11184406 -0.14180087 -0.16864087
-0.18530321 0.19871192 0.13640943 -0.042951725 0.20029646 0.18800232 0.08182925 -0.22438292
-0.15912457 -0.20018657 -0.042394023 -0.13571711 0.057733208 -0.09015344 -0.12384914 0.18733495
0.14329134 -0.16840717 0.12763245 0.052139524 -0.17757657 -0.06509091 0.023402309 0.0159967
0.1257092 0.00013912279 0.18620445 -0.1133648 0.06839728 0.065045305 -0.04503184 -0.11012494
-0.15646979 0.06026101 0.154324 -0.035275612 0.06738556 0.121957466 -0.21296433 -0.0051532267
0.009251903 0.03845767 0.23701814 -0.14576723 0.04789097 0.17108703 0.046168473 0.20095974
-0.09219325 -0.052017324 -0.09817576 0.009292648 0.05794197 -0.011823412 0.1440983 0.15691835
0.06510341 0.11144826 -0.071197286 -0.114288874 -0.0031281682 0.16265829 -0.014804492 -0.047471743
-0.030149069 0.21550943 0.20807397 0.08080747 -0.03556549 0.109529905 -0.053053755 -0.20983087
-0.16613384 0.11920581 0.1957073 -0.16862315 -0.10859238 0.061108265 -0.22132757 0.14164239
0.08583873 -0.07343062 0.08706565 -0.056068037 0.016708495 -0.11956165 0.10287373 0.09127105
0.18732351 0.11952616 0.00014991329 -0.03657444 -0.07700945 -0.09838938 -0.058817983 -0.23786235
0.05601634 -0.11179836 -0.018503848 0.058028147 0.05992344 -0.02885643 0.0018696389 -0.23572055
-0.17238285 -0.23005252 0.10083747 0.010497902 0.022345847 0.111258276 -0.17597619 -0.09624515
0.084594056 0.04386464 -0.24125564 0.030274106 0.03275333 -0.14339057 0.08863004 -0.03361433
0.1785548 0.1308541 0.16541141 0.044152595 -0.12901068 -0.03672 0.025134277 0.060227446
0.09258629 -0.0368426 0.1677012 0.10245442 0.09159045 0.00978154 -0.10681759 -0.11555123
-0.23510194 -0.07919123 0.23704797 -0.09745728 0.061075084 -0.05101136 -0.15715027 -0.1394435
-0.13348497 -0.23592022 0.08522512 0.094373174 -0.20603015 -0.009752079 0.021361917 0.014764297
0.06406204 0.002877703 0.08334181 -0.023342507 -0.06626275 -0.026048698 -0.06718191 0.10820841
-0.09906713 0.1966606 0.13419071 0.010317835 0.15744802 0.13487862 -0.098470904 -0.22456147
-0.032536212 0.046110656 0.06882053 -0.1603163 -0.049732007 0.14384827 -0.15782301 0.14022136
0.081464864 -0.008590809 -0.08627783 -0.2157343 0.034070127 0.03504407 -0.08332057 0.031111501
00000000: ecd4 cebb 85ec cf3d 20c4 433e 5042 b9bd
00000010: f759 68be d974 593e 8c40 4c3d e913 3fbe
00000020: df5b d93b f5ff 073d 5edd 8dbc 17b0 27be
00000030: 11a5 683e f074 43bd 6faf e33c cfdb a63d
00000040: 16b4 71be bc42 1dbc 44f1 2f3e 15a9 fc3b
00000050: 8dc4 e8bc 1238 5e3e 6f0a 813c a253 e43d
00000060: a11d a03d 13ce 2cbe cb39 933d e70c 58be
00000070: 7886 a8bc d6ec 413d e83e bc3b 2b01 d6bd
00000080: 23cb 33bd 160e f73d 3a37 113e 7b4f 33be
00000090: 8c65 e4bd f6ae 013e 1352 5fbe cead 40be
000000a0: ca1b 97bd bda7 fb3c 4a18 63bd 7949 f33c
000000b0: a863 863e b54b 813e 34d1 a93d bcaa d7bc
000000c0: c95f bcba 0ab1 8d3c 1bd1 5b3c d807 75be
000000d0: fb07 b73d 530b f83c 20e0 1f3c 4e67 bcbd
000000e0: 48b1 12be f080 02be 140f 85bd 1672 1e3e
000000f0: acd5 6dbe 9983 72be b30a 153e 2466 8a3d
00000100: 7914 62bc 2ea3 7bbd 0d84 3abc 8215 dbbd
00000110: 99e3 f3bd 800e e5bd 3f34 11be 31b0 2cbe
00000120: 20c0 3dbe 237b 4b3e eaae 0b3e 26ee 2fbd
00000130: 841a 4d3e ae83 403e 1896 a73d a3c4 65be
00000140: 8df1 22be b5fd 4cbe 5ba5 2dbd 6df9 0abe
00000150: a879 6c3d 5ea2 b8bd 9ea4 fdbd bcd4 3f3e
00000160: f7ba 123e ee72 2cbe 15b2 023e 4190 553d
00000170: a2d6 35be 624e 85bd 33b6 bf3c 830b 833c
00000180: eab9 003e 7de1 1139 61ac 3e3e ce2b e8bd
00000190: e013 8c3d 7936 853d 4f73 38bd 2f89 e1bd
000001a0: 9e39 20be 40d4 763d 1c07 1e3e 297d 10bd
000001b0: 7101 8a3d d6c4 f93d 5213 5abe 66dc a8bb
000001c0: 4b95 173c ca85 1d3d e2b4 723e 0144 15be
000001d0: 5229 443d 7031 2f3e 271b 3d3d 64c8 4d3e
000001e0: d1cf bcbd 1e10 55bd 5f10 c9bd 3140 183c
000001f0: 8f54 6d3d fcb6 41bc 818e 133e 34af 203e
00000200: f054 853d fc3e e43d e2cf 91bd 4910 eabd
00000210: f401 4dbb e58f 263e 8a8e 72bc bb71 42bd
00000220: 2efb f6bc 81ae 5c3e 5811 553e 637e a53d
00000230: 1fad 11bd 3751 e03d e54e 59bd e7dd 56be
00000240: fd1e 2abe 2d22 f43d 7f67 483e 8cab 2cbe
00000250: af65 debd a94c 7a3d b2a3 62be b40a 113e
00000260: 37cc af3d cb62 96bd 7a4f b23d 99a7 65bd
00000270: 41e0 883c bddc f4bd 76af d23d 51ec ba3d
00000280: bcd1 3f3e 22ca f43d 0b32 1d39 14cf 15bd
00000290: 21b7 9dbd 5f80 c9bd 20eb 70bd 3092 73be
000002a0: 6471 653d 8af6 e4bd 6295 97bc ecae 6d3d
000002b0: 4872 753d 5264 ecbc ac0e f53a ba60 71be
000002c0: 2185 30be e392 6bbe e083 ce3d 64ff 2b3c
000002d0: a30e b73c 61db e33d 1a33 34be 2d1c c5bd
000002e0: a63f ad3d 69ab 333d b80b 77be 6701 f83c
000002f0: 5b28 063d fad4 12be ab83 b53d 2eaf 09bd
00000300: 12d7 363e 9efe 053e 9c61 293e 5ad9 343d
00000310: 601b 04be b667 16bd 66e6 cd3c 0eb1 763d
00000320: e19d bd3d 44e8 16bd ddb9 2b3e 9fd3 d13d
00000330: c693 bb3d c142 203c 2ec3 dabd 20a6 ecbd
00000340: 90be 70be 032f a2bd b4bc 723e af97 c7bd
00000350: de29 7a3d 4af1 50bd 00ec 20be 47ca 0ebe
00000360: 49b0 08be 1295 71be 828a ae3d b946 c13d
00000370: 91f9 52be 2fc7 1fbc 30ff ae3c f3e5 713c
00000380: f532 833d d897 3c3b 1caf aa3d c938 bfbc
00000390: c4b4 87bd 1464 d5bc ab96 89bd 5f9c dd3d
000003a0: b5e3 cabd 6561 493e 4a69 093e 230c 293c
000003b0: 0e3a 213e 9f1d 0a3e 1dab c9bd 71f3 65be
000003c0: b144 05bd 87de 3c3d c7f1 8c3d f529 24be
000003d0: cab3 4bbd f64c 133e 5b9c 21be 3096 0f3e
000003e0: 0dd7 a63d 77c0 0cbc 6eb2 b0bd 74e9 5cbe
000003f0: 1e8d 0b3d 5f8a 0f3d faa3 aabd 8cdd fe3c

network_aging.lstm.bias_ih_l0 f4 [128]
0.005498662 0.23505093 0.04724586 0.22427581 -0.017574688 0.0641777 -0.11206254 -0.1251949
0.0998178 -0.08031203 -0.112000234 0.14858246 -0.10069645 0.090380095 0.10659436 -0.14186856
-0.08226772 -0.11022929 0.14615937 0.087871484 -0.0012401487 0.10196749 -0.012898828 0.16225709
-0.076157324 -0.11487168 0.075407654 0.22471383 0.04167605 0.11583116 -0.100415125 0.13714527
-0.026763678 0.03698721 -0.03558839 0.074273854 0.22309703 -0.011955461 -0.056987315 -0.08266667
0.09232182 0.12921937 0.20975894 0.23075901 0.042619545 0.20605358 -0.023593 -0.045478605
0.06821168 0.06317475 -0.047240105 0.21611445 0.039595984 0.039922096 -0.054620054 0.15091509
0.10198464 0.15085599 -0.053550664 0.12705296 0.15269355 -0.05363356 -0.06852953 -0.072478935
0.10656531 0.19792491 0.14656605 -0.19713522 0.0011911038 -0.07492132 -0.046908714 -0.18752643
-0.15720776 0.0041363863 -0.04557935 -0.06826465 0.1892485 0.07184074 -0.10396436 -0.0773357
-0.059840653 -0.2052278 0.13882959 -0.2344444 -0.11675522 0.15954094 -0.05932252 0.058754455
0.0644762 0.04028873 -0.196482 -0.1459222 -0.19283026 -0.18926212 -0.042661637 -0.02435955
0.04741499 0.19276047 0.072168626 0.27021858 0.23142318 0.07707776 0.08946347 0.18303129
-0.01636548 0.115129955 -0.008170847 0.28275633 0.11451532 0.27777958 0.1659912 0.1829401
0.04260163 0.073614344 0.020241758 0.23271568 -0.036250107 0.0313213 0.01483695 0.024484422
0.16398433 0.01780262 0.0648866 0.16045886 0.29159948 -0.024552317 0.038824692 0.2623351
00000000: 1f2e b43b 31b1 703e e084 413d 8fa8 653e
00000010: cbf8 8fbc 996f 833d 0c81 e5bd 1833 00be
00000020: 466d cc3d a27a a4bd 6160 e5bd 0026 183e
00000030: f139 cebd 3319 b93d 254e da3d fe45 11be
00000040: fa7b a8bd e5bf e1bd cdaa 153e f7f5 b33d
00000050: 7c8c a2ba 55d4 d03d 9b55 53bc b926 263e
00000060: 5ff8 9bbd d841 ebbd 546f 9a3d 621b 663e
00000070: 81b4 2a3d e338 ed3d 72a6 cdbd cf6f 0c3e
00000080: 803f dbbc e77f 173d 22c5 11bd e41c 983d
00000090: 8c73 643e d7e0 43bc 886b 69bd 254d a9bd
000000a0: 3913 bd3d 1552 043e 0ccb 563e 174c 6c3e
000000b0: d591 2e3d b6ff 523e 1b46 c1bc c647 3abd
000000c0: 91b2 8b3d c361 813d d77e 41bd 1b4d 5d3e
000000d0: 662f 223d 5a85 233d 47b9 5fbd 7c89 1a3e
000000e0: 53dd d03d fe79 1a3e f157 5bbd 2c1a 023e
000000f0: b35b 1c3e ddae 5bbd 3659 8cbd d66f 94bd
00000100: ea3e da3d d4ac 4a3e 6915 163e d1dd 49be
00000110: d01e 9c3a 5970 99bd 5a23 40bd ee06 40be
00000120: 12fb 20be 868a 873b 6ab1 3abd 56ce 8bbd
00000130: 5cca 413e 3d21 933d 44eb d4bd 2e62 9ebd
00000140: 791b 75bd 3d27 52be 5829 0e3e 3112 70be
00000150: 5c1d efbd b35e 233e 2cfc 72bd 83a8 703d
00000160: 190c 843d cc05 253d 9432 49be a16c 15be
00000170: 4c75 45be eecd 41be f8bd 2ebd ae8d c7bc
00000180: 3836 423d 0063 453e 25cd 933d 175a 8a3e
00000190: 33fa 6c3e f2da 9d3d a038 b73d 8e6c 3b3e
000001a0: e610 86bc 41c9 eb3d 04df 05bc 70c5 903e
000001b0: 0287 ea3d 2039 8e3e 99f9 293e a654 3b3e
000001c0: 0c7f 2e3d 1ec3 963d 0bd2 a53c 054d 6e3e
000001d0: fe7a 14bd c34a 003d ae16 733c 8e93 c83c
000001e0: 82eb 273e cdd6 913c 44e3 843d 544f 243e
000001f0: 874c 953e f121 c9bc a406 1f3d c950 863e
