trained_model/mc1_mc2/120_days_lookahead/pnet_checkpoint/pnet_1500.pth (torch, 545278 bytes, 36 tensors)

network_smart.layer1.0.weight f4 [128, 330]
0	0xbca43879	-0.02004646
1	0x3dab745a	0.08371802
2	0xbea9baba	-0.33150274
3	0xbec64d9f	-0.38731095
4	0x3face330	1.3506832
5	0xbfad654a	-1.3546536
6	0xbfa83da0	-1.3143806
7	0xbda3d66a	-0.079998806
8	0x3ccd01d7	0.025025291
9	0x3fb484a1	1.4102975
10	0x3f4153e4	0.7551863
11	0x3d037241	0.032091383
12	0x3d43afdd	0.04777514
13	0xbeb43805	-0.3519899
14	0xbf1bb30d	-0.60820085
15	0x3fb33f0e	1.4003618
16	0xbfb8cf2c	-1.4438224
17	0xbfabc316	-1.341891
18	0xbdfcaa6d	-0.12337194
19	0xbe130ca2	-0.14360288
20	0x3fae6977	1.3625935
21	0x3f42f7a7	0.7615914
22	0xbd2fcbff	-0.042919155
23	0x3d3f846e	0.046757154
24	0xbe813ce7	-0.25241777
25	0xbeeb83b3	-0.45998916
26	0x3fa65526	1.2994735
27	0xbfada3e7	-1.3565644
28	0xbfb1a0bc	-1.3877177
29	0xbd7af4e4	-0.061268702
30	0xbe52650b	-0.20546357
31	0x3fa40912	1.2815268
32	0x3f497b9c	0.7870424
33	0x3c97a9ae	0.018513527
34	0x3ddf8f78	0.10916036
35	0xbe8b8e99	-0.2725723
36	0xbeb010dc	-0.34387863
37	0x3f98d0aa	1.1938679
38	0xbfb17d1e	-1.3866308
39	0xbfb2c753	-1.3967079
40	0xbdb30662	-0.08741452
41	0x3d5b4f90	0.053542674
42	0x3fa26746	1.2687767
43	0x3f115553	0.5677082
44	0xbd5dff44	-0.05419852
45	0x3dfc86a9	0.12330372
46	0xbebef65d	-0.37297335
47	0xbf1cbe06	-0.6122745
48	0x3f988145	1.191445
49	0xbfb83fff	-1.439453
50	0xbfa7c2fd	-1.3106381
51	0xbcefd682	-0.02927709
52	0x3e3b2722	0.18276647
53	0x3f9e6413	1.237429
54	0x3f1eaeca	0.61985457
55	0xbcd15d20	-0.0255571
56	0x3dbc6dfd	0.09200666
57	0xbeb100a1	-0.34570792
58	0xbec33116	-0.38123387
59	0x3f9ab0f6	1.2085254
60	0xbfb8233c	-1.4385753
61	0xbfa91a48	-1.3211145
62	0xbe00c95e	-0.12576815
63	0x3e5e9059	0.21734752
64	0x3f93a55a	1.1534836
65	0x3f04fe93	0.5195095
66	0x3c33e63c	0.010980185
67	0x3e01df8d	0.12682934
68	0xbe057915	-0.1303447
69	0xbea787f6	-0.32720917
70	0x3fac3934	1.3454957
71	0xbfb5e716	-1.4211147
72	0xbfa8254a	-1.313638
73	0xbdf747f5	-0.120742716
74	0x3e8edc69	0.27902535
75	0x3fa763a6	1.3077285
76	0x3ef76d4a	0.48325568
77	0x3d5b131e	0.05348503
78	0x3d9b8cc5	0.07595209
79	0xbe1431aa	-0.1447207
80	0xbee38211	-0.4443517
81	0x3fa9563a	1.3229439
82	0xbfb63f26	-1.4238021
83	0xbfa68997	-1.3010739
84	0xbdd59ce9	-0.10430319
85	0x3e8d8fac	0.27648675
86	0x3fa83bb8	1.3143225
87	0x3f068bdf	0.52557176
88	0xbc7dcd9c	-0.015490916
89	0x3e1fbab2	0.15598562
90	0xbe508e52	-0.20366791
91	0xbefbf1da	-0.49207956
92	0x3f9b091d	1.2112156
93	0xbfb287c1	-1.3947679
94	0xbfb3d2dd	-1.4048725
95	0xbdd0c57e	-0.10193919
96	0x3e38ebe4	0.18058735
97	0x3f9b18af	1.2116908
98	0x3effe89a	0.49982148
99	0x3d3983ee	0.045291834
100	0x3d313d9d	0.04327165
101	0xbd8b781d	-0.06810019
102	0xbf0d29c3	-0.5514185
103	0x3f9df8ed	1.2341591
104	0xbfac58f3	-1.3464645
105	0xbfb3f918	-1.4060392
106	0xbd98bee7	-0.07458287
107	0x3d5cc917	0.05390271
108	0x3f9d0e80	1.227005
109	0x3eede642	0.46464735
110	0xbccc955f	-0.02497357
111	0x3da80dac	0.08205733
112	0x3d47250f	0.048619326
113	0xbefbb58c	-0.49161947
114	0x3fa27ea0	1.2694893
115	0xbfae84ee	-1.3634317
116	0xbfa8408a	-1.3144696
117	0xbd346ccf	-0.04404908
118	0x3e2d72c4	0.16938311
119	0x3fa3f24c	1.2808318
120	0x3eabe8f4	0.33576167
121	0x3d3f79cd	0.046747018
122	0x3df688ff	0.12037849
123	0x3df28ab8	0.11842865
124	0xbf0004d8	-0.5000739
125	0x3f99e46b	1.2022833
126	0xbfb5c374	-1.4200273
127	0xbfaa4bcf	-1.3304385
128	0xbd8c6b50	-0.06856406
129	0x3d6dcf16	0.05805882
130	0x3f9f29db	1.2434648
131	0x3ea38e81	0.3194466
132	0xbceb6f13	-0.028739488
133	0x3e1518ec	0.14560288
134	0x3c5d74f2	0.0135166515
135	0xbee641ca	-0.44972068
136	0x3f9314b6	1.1490695
137	0xbfb7ab91	-1.4349233
138	0xbfadc740	-1.3576431
139	0xbd79a0e5	-0.060944457
140	0x3e159f42	0.14611533
141	0x3f967ccb	1.1756834
142	0x3e92beee	0.28661293
143	0xbbbcb744	-0.0057591517
144	0x3d79487d	0.060860146
145	0x3e37acff	0.17937087
146	0xbee26478	-0.44217277
147	0x3fa2e2f8	1.2725515
148	0xbfb5a0c5	-1.4189688
149	0xbfab812f	-1.3398799
150	0xbd178b12	-0.036997862
151	0x3e00adaf	0.12566255
152	0x3f9dc480	1.2325592
153	0x3e838278	0.25685477
154	0x3d52d8cc	0.051476285
155	0x3dd1ed03	0.102502845
156	0x3e746d0f	0.23869728
157	0xbf084bec	-0.5324085
158	0x3fc0da9e	1.5066717
159	0xbfae5a67	-1.3621339
160	0xbfafb9cd	-1.3728577
161	0x3bc38e91	0.005967923
162	0xbe996dd2	-0.299666
163	0x3fbf4a1c	1.4944491
164	0x3e8de466	0.27713317
165	0xbccbf981	-0.024899246
166	0x3dd02e9b	0.10165139
167	0x3cdbcc0b	0.026830694
168	0xbefc1ea8	-0.4924214
169	0x3fcdd109	1.6079417
170	0xbfb26a2d	-1.3938652
171	0xbfb14781	-1.3849946
172	0xbd190047	-0.03735378
173	0xbd746683	-0.059668075
174	0x3fcf7fd7	1.6210889
175	0x3e8a827c	0.27052677
176	0xbceac8eb	-0.028660258
177	0x3e1b9aee	0.1519582
178	0x3ccff36d	0.02538463
179	0xbee71be3	-0.45138463
180	0x3fce586f	1.6120738
181	0xbfb06f2a	-1.3783925
182	0xbfb1ac2b	-1.3880666
183	0xb8e92ff9	-0.000111192414
184	0x3e4a0e64	0.19732052
185	0x3fd15e69	1.6356937
186	0x3d701658	0.05861506
187	0xbd0050b4	-0.031326964
188	0x3d86a022	0.06573512
189	0x3d708c2b	0.058727425
190	0xbf00c456	-0.50299585
191	0x3fca2954	1.5793862
192	0xbfb5ec51	-1.4212743
193	0xbfab4f9e	-1.3383672
194	0xbdce1066	-0.100617215
195	0xbdae2cc6	-0.085046336
196	0x3fbed94a	1.4910061
197	0x3b48325e	0.00305476
198	0x3d0742a2	0.03302253
199	0x3e21c4bc	0.15797704
200	0x3e5672f6	0.20942292
201	0xbf0a9a1e	-0.54141414
202	0x3fc3a57f	1.528488
203	0xbfb589ba	-1.4182656
204	0xbfaf18a6	-1.3679397
205	0x3c1b7342	0.009487929
206	0x3e168dcd	0.1470253
207	0x3fbdd50c	1.4830642
208	0xbc079c3f	-0.008276998
209	0x3da1f511	0.07908071
210	0x3de84a16	0.11342256
211	0x3ea5e2d0	0.32399607
212	0xbd29acf0	-0.04142469
213	0x3fbe2d00	1.4857483
214	0xbfb6cfca	-1.4282162
215	0xbfb31be4	-1.3992887
216	0xbd61aec8	-0.055098325
217	0x3e1b3a87	0.15159045
218	0x3fc24a52	1.5178931
219	0x3db06935	0.08613817
220	0xbd5386fb	-0.0516424
221	0x3da24bf9	0.07924647
222	0x3e810de6	0.25205916
223	0xbf119203	-0.5686342
224	0x3fc1dd16	1.5145595
225	0xbfaf6317	-1.3702115
226	0xbfa845c5	-1.3146292
227	0x3c2bf7e9	0.010496118
228	0x3dd636a0	0.10459638
229	0x3fbfa8b6	1.4973361
230	0x3ce8adff	0.02840328
231	0xbcc6337e	-0.024194475
232	0x3e06f0cf	0.13177799
233	0x3e5d9a9a	0.21641007
234	0xbf5b66f1	-0.8570395
235	0x3fadd34d	1.3580109
236	0xbfb1be4f	-1.3886203
237	0xbfab2287	-1.3369912
238	0xbccaa275	-0.024735669
239	0x3d94cff9	0.0726623
240	0x3fb2c29d	1.3965641
241	0x3cdfe6f2	0.027331803
242	0xbce625ea	-0.02809425
243	0x3e577ef3	0.21044521
244	0x3e5165fa	0.20449057
245	0xbeaa6f17	-0.3328788
246	0x3fa9b8bf	1.3259505
247	0xbfae1458	-1.3599958
248	0xbfae2c5d	-1.3607289
249	0xbce4a5fd	-0.02791118
250	0x3e77993e	0.24179551
251	0x3faad9a3	1.3347667
252	0x3c82b615	0.015955964
253	0x3d3f461f	0.046697732
254	0x3e424f38	0.18975532
255	0x3d03fd3c	0.032223925

network_smart.layer1.0.bias f4 [128]
0	0x3dc4c5ec	0.09608063
1	0xbdcfc92e	-0.10145794
2	0x3d1f1761	0.038840655
3	0x3d6b818d	0.057496596
4	0xbc688e74	-0.01419412
5	0x3e56e538	0.20985878
6	0x3e163355	0.14668019
7	0x3e0bbb56	0.13645682
8	0xbc5ba8c8	-0.01340694
9	0x3c9a8fdf	0.018867431
10	0xbe5fa6c9	-0.21840967
11	0x3dde499e	0.10853885
12	0xbcb793fe	-0.022409435
13	0xbeb44d41	-0.3521519
14	0x3e0dce74	0.13848287
15	0x3cf80b28	0.030278757
16	0x3be333d7	0.00693367
17	0x3d636a41	0.055521253
18	0x3d863a59	0.06554098
19	0xbe319baa	-0.17344537
20	0x3b34a222	0.002756246
21	0x3d06e3ab	0.032931965
22	0x3dd8ee0a	0.10592277
23	0xbde3053a	-0.11084981
24	0xba1d78ba	-0.00060070644
25	0x3b332781	0.0027336779
26	0x3d992917	0.074785404
27	0xbcf3d861	-0.029766263
28	0xbdb9f97c	-0.090807885
29	0xbe483af2	-0.19553736
30	0xbe3ed015	-0.18634064
31	0xbd395d1f	-0.045254823
32	0xbd07d10d	-0.03315835
33	0x3df5f0a8	0.12008792
34	0x3dce45be	0.10071896
35	0x3b0c36ea	0.0021395036
36	0xbe9406d6	-0.28911465
37	0x3d507eae	0.05090206
38	0x3d624507	0.05524161
39	0x3dcd3a95	0.10020939
40	0x3e08427c	0.13306612
41	0xbcad55e1	-0.021159114
42	0x3da5cde1	0.08095909
43	0x3d44bf09	0.048033748
44	0x3d4c61c4	0.049897924
45	0x3cba01e5	0.022705982
46	0x3d6087e5	0.0548171
47	0x3d960158	0.07324475
48	0x3de0e122	0.10980441
49	0x3bb42dae	0.0054986095
50	0x3dd22841	0.10261584
51	0x3b432e10	0.0029782094
52	0x3da59593	0.0808517
53	0xbd0c668e	-0.03427749
54	0x3dab693d	0.08369682
55	0xbc0c0bec	-0.008547764
56	0x3d1ffc03	0.039058696
57	0xbdda55d6	-0.10660903
58	0x3dc38212	0.09546293
59	0xbe87aea4	-0.26500428
60	0x3cedb7ca	0.029018302
61	0x3d56f02b	0.052475136
62	0x3e374204	0.17896277
63	0xbd3d9d9f	-0.046292897
64	0xbd607768	-0.054801375
65	0xbdae52b5	-0.08511869
66	0x3e0e6df4	0.13909131
67	0xbe28f69c	-0.16500324
68	0x3d92e4b5	0.07172529
69	0x3df0e305	0.117620505
70	0xbd09ec20	-0.033672452
71	0x3dd642f3	0.10461988
72	0xbcbf2081	-0.023330929
73	0xbedab2e3	-0.42714605
74	0x3d6b3e9e	0.057432763
75	0x3db7a01d	0.08966086
76	0xbeb2da73	-0.3493229
77	0x3c367a27	0.011137522
78	0x3cf4f57f	0.029902218
79	0x3ca1514f	0.019692091
80	0x3d31d33c	0.04341434
81	0x3e3ebdfe	0.18627164
82	0x3dcf27d9	0.10115022
83	0xbcc84a58	-0.024449512
84	0xbd5f35a4	-0.054494515
85	0x3961e367	0.00021542386
86	0x3d8787b3	0.066176794
87	0x3dda0680	0.10645771
88	0xbe0c19ca	-0.13681713
89	0xbd3b4d58	-0.045728058
90	0xbe56644b	-0.20936696
91	0xbd1ee8f1	-0.03879637
92	0x3df3b8a4	0.11900452
93	0x3dec080a	0.11524971
94	0xbda47f48	-0.080320895
95	0xbcaf982a	-0.021434862
96	0x3bb7b3ea	0.005606164
97	0xbe556a1f	-0.20841263
98	0x3dab0645	0.08350805
99	0x3e29b18c	0.16571635
100	0xbe6cb77d	-0.2311687
101	0x3e2670fa	0.16254035
102	0x3d2eddf9	0.04269216
103	0x3c248786	0.010042077
104	0xbddb7083	-0.10714819
105	0xbc6f9890	-0.014623776
106	0x3d9638c5	0.07335047
107	0xbae642ae	-0.001756748
108	0x3cdc2af5	0.026875952
109	0x3a0af2f5	0.00053004856
110	0xbccc89ea	-0.024968106
111	0xbb03e677	-0.0020126381
112	0x3b3113fe	0.0027019973
113	0xbd61df40	-0.05514455
114	0x3dd71f26	0.10503988
115	0x3e033e7a	0.12816802
116	0x3c6e9657	0.014562211
117	0xbde4c913	-0.11171164
118	0x3be6168a	0.00702173
119	0xbcc7816b	-0.024353703
120	0x3c2d22e7	0.010567403
121	0x3b142f20	0.0022611097
122	0x3d7a077d	0.061042298
123	0xbd2c91d6	-0.042131267
124	0x3cf5f983	0.030026203
125	0xbb0bfe84	-0.002136142
126	0x3d1af2f4	0.037829354
127	0x3b057602	0.0020364528

network_smart.layer2.0.weight f4 [128, 128]
0	0x3e0e38aa	0.13888803
1	0x3d9f521d	0.07779334
2	0x3c1aa112	0.009437816
3	0x3e99ee78	0.3006475
4	0xbdabe1af	-0.08392655
5	0x3de63214	0.112400204
6	0x3e5492fd	0.20759197
7	0xbe90e2e3	-0.282981
8	0x3ddd5131	0.10806502
9	0xbdc76942	-0.09736873
10	0xbd63a816	-0.05558022
11	0x3cb2df54	0.021835007
12	0x3ddfad73	0.10921755
13	0x3d5308c7	0.051522043
14	0xbe152afd	-0.1456718
15	0x3dbc1912	0.09184469
16	0x3e05d398	0.13068998
17	0xbe126ad5	-0.14298566
18	0x3d307947	0.04308441
19	0xbeefb50a	-0.4681781
20	0xbed22af7	-0.41048405
21	0x3d176778	0.03696391
22	0xbdb3e760	-0.08784366
23	0xbdc41b9d	-0.09575579
24	0xbdc72c50	-0.09725249
25	0xbe85c7f6	-0.2612912
26	0x3cfda400	0.03096199
27	0x3c441f3a	0.011970336
28	0x3d91cbe6	0.07118969
29	0x3e0337ca	0.1281425
30	0x3cbdd083	0.023170715
31	0xbd2069fd	-0.03916358
32	0xbd798a21	-0.060922746
33	0x3e468da1	0.19389965
34	0x3d8eb3a3	0.06967857
35	0xbea362c7	-0.319113
36	0x3e507b21	0.2035947
37	0xbd13eef8	-0.03611657
38	0xbd836993	-0.06416621
39	0xbd005c1c	-0.031337842
40	0xbd0991ae	-0.033586197
41	0xbd99b766	-0.075056836
42	0xbceb97fa	-0.028758992
43	0xbd565b3a	-0.052333094
44	0xbd72d71e	-0.059287183
45	0xbdbab87e	-0.0911722
46	0x3d31ba49	0.043390546
47	0xbe0feb5a	-0.14054623
48	0x3d34b03b	0.04411338
49	0xbf41a958	-0.75649023
50	0x3c01401a	0.007888818
51	0x3ca332c3	0.019921666
52	0x3cf0e8d7	0.029407902
53	0x3d9869e3	0.07442071
54	0x3d31c9af	0.04340523
55	0x3e47b9c8	0.19504464
56	0xbc820333	-0.015870666
57	0x3e2121b0	0.15735507
58	0xbd80a55a	-0.06281538
59	0x3d3c4c57	0.04597124
60	0xbef119ee	-0.47090095
61	0xbd97571d	-0.073896624
62	0x3d92d63c	0.07169768
63	0x3da43354	0.080176026
64	0xbd9179e5	-0.07103328
65	0x3b660adf	0.0035101695
66	0xbe16a49f	-0.14711235
67	0x3b7a9e9d	0.0038241514
68	0x3efa638b	0.4890407
69	0x3d45d6da	0.0483006
70	0x3d546499	0.05185375
71	0x3dbd3622	0.09238841
72	0x3cd51274	0.026009776
73	0x3d8cdd68	0.068781674
74	0x3e0f260f	0.13979362
75	0x3d37b309	0.044848476
76	0x3e54b747	0.2077304
77	0xbd89623d	-0.067081906
78	0x3dd7d3c8	0.10538441
79	0xbe83d2c3	-0.25746736
80	0x3cbe3351	0.023217829
81	0xbdd65b18	-0.104665935
82	0xbe8e4a6a	-0.27791148
83	0x3d93c969	0.0721615
84	0x3c3fe112	0.011711376
85	0xbd3f42fc	-0.04669474
86	0xbadfb0db	-0.0017066257
87	0xbd9f1ed2	-0.077695504
88	0x3cda6cb7	0.026663167
89	0x3ca4bf2f	0.020110695
90	0x3e12ded3	0.14342813
91	0x3c6ca1df	0.01444289
92	0x3ee983b0	0.45608282
93	0xbe8a2ef4	-0.26988947
94	0x3ce43522	0.027857367
95	0xbddbf37e	-0.10739802
96	0xbe96ebc6	-0.29476756
97	0xbc37afc1	-0.011211337
98	0x3c81c3bc	0.015840404
99	0x3f0b9bc9	0.54534584
100	0x3d80a3d7	0.0628125
101	0xbb3051dc	-0.002690426
102	0x3e50fa04	0.20407873
103	0xbd164afd	-0.03669261
104	0x3c73f585	0.014890079
105	0x3d050bfc	0.032482132
106	0xbdad6f9d	-0.08468554
107	0xbca0a727	-0.019610954
108	0x3ba6fdb4	0.0050961617
109	0xbe551d56	-0.20811972
110	0x3cb38a99	0.021916674
111	0x3edbeb97	0.42953178
112	0x3d37fd60	0.04491937
113	0xbd67db2c	-0.056605503
114	0xc05934c4	-3.3938456
115	0x3ddfb73e	0.109236225
116	0xbf8a840e	-1.082155
117	0xbd1d7548	-0.038441926
118	0xbee422f1	-0.44557908
119	0xbd084b06	-0.033274673
120	0xbf7ded24	-0.9918997
121	0xbd8c8a82	-0.06862356
122	0x3c6a67cd	0.014306975
123	0x3d32267a	0.043493725
124	0x3ddc9af7	0.10771745
125	0x3d57a617	0.05264863
126	0x3dc2e9c6	0.09517245
127	0xbdbfa511	-0.09357656
128	0x3de820ca	0.11334379
129	0xbc40e11e	-0.011772422
130	0x3e2579b0	0.16159701
131	0xbcb36447	-0.021898402
132	0xbd1da5ee	-0.03848832
133	0xbe35aa1a	-0.1774067
134	0x3e81dbc9	0.25362995
135	0xbdd76382	-0.105170265
136	0x3e2ba1f2	0.16760996
137	0x3d90480c	0.07044992
138	0xbd9d4525	-0.07679204
139	0x3dc6b9e2	0.09703423
140	0x3ea59fbc	0.3234843
141	0xbe554703	-0.2082787
142	0x3d977a0c	0.073963255
143	0xbe143177	-0.14471994
144	0x3ecd2db2	0.40073925
145	0x3d69110f	0.056901034
146	0xbe8d42e3	-0.27590093
147	0x3e846c27	0.25863764
148	0x3f011665	0.50424796
149	0xbda3dfae	-0.08001648
150	0x3e099603	0.13436131
151	0x3e33f8fc	0.17575449
152	0x3ed3b17a	0.4134634
153	0x3e17ec7d	0.14836307
154	0xbdb7c609	-0.08973319
155	0x3de684b0	0.11255777
156	0xbbbd4bfb	-0.00577688
157	0x3b6d1121	0.003617354
158	0xbbefa6f1	-0.007313602
159	0xbd5c3038	-0.053756922
160	0x3db6b08f	0.08920395
161	0x3d6f3fb0	0.058410347
162	0xbe687fce	-0.22705004
163	0x3d5af711	0.053458277
164	0xbf0e5e75	-0.5561288
165	0x3e2749ae	0.163367
166	0xbc975835	-0.018474678
167	0x3ed99847	0.4249899
168	0xbcdfcf0b	-0.027320405
169	0xbc8248c8	-0.015903845
170	0xbdb0f1e8	-0.0863989
171	0x3e464e38	0.19365776
172	0xbc098bc6	-0.008395141
173	0xbd113398	-0.035449594
174	0x3ccdf4b9	0.025141107
175	0xbc23e0fe	-0.010002373
176	0x3bb20eb5	0.005433882
177	0x3e9b55a8	0.30338788
178	0x3e5a68fa	0.21329108
179	0x3dc7a217	0.09747713
180	0xbe86d7ba	-0.2633646
181	0x3e45ebd1	0.19328238
182	0x3d921583	0.07133009
183	0xbda410ef	-0.08011042
184	0x3db70baa	0.089377716
185	0x3e1332d8	0.14374864
186	0xbd8fc0ab	-0.070191704
187	0xbc8c9e48	-0.017165318
188	0xbe337e95	-0.17528756
189	0xbc99b969	-0.018765168
190	0xbc2dee88	-0.010615952
191	0x3da74e76	0.08169262
192	0xbd8d81e6	-0.06909542
193	0x3d80330c	0.062597364
194	0xbdf8d4d0	-0.12149966
195	0xbe4ced4c	-0.20012397
196	0x3c855435	0.016275505
197	0xb99de29c	-0.0003011421
198	0x3d04d09c	0.032425508
199	0x3c55aeda	0.013042176
200	0x3db7d92a	0.08976968
201	0xbea69a64	-0.32539666
202	0xbc8aa3c5	-0.016923795
203	0xbd59d1c8	-0.05317858
204	0x3e23eddb	0.16008703
205	0xbd694bab	-0.05695693
206	0x3e620ea0	0.22075891
207	0x3ebf81ce	0.3740372
208	0xbf04d04c	-0.51880336
209	0xbcfede48	-0.031111851
210	0xbd90c6c1	-0.07069159
211	0x3bf42021	0.007450119
212	0xbd6d6823	-0.05796064
213	0xbdd071a3	-0.101779245
214	0x3bf79e92	0.007556745
215	0x3d8533ce	0.065040216
216	0xbead8129	-0.33887604
217	0xbc895329	-0.016763287
218	0xbe2b6d38	-0.16740882
219	0x3d77d057	0.060501423
220	0x3ddd2e19	0.10799808
221	0xbc2731b4	-0.010204721
222	0xbda9b9a7	-0.082873635
223	0x3d6b4e62	0.0574478
224	0x3daa9a21	0.08330179
225	0xbec44524	-0.38334
226	0xbbb379d2	-0.0054771686
227	0xbdbf23ff	-0.093330376
228	0xbe004b32	-0.12528685
229	0x3df5803c	0.119873494
230	0xbdf05724	-0.11735371
231	0x3db512e4	0.08841494
232	0xbdd8d479	-0.10587401
233	0x3dab413d	0.083620526
234	0xbd0675de	-0.03282725
235	0x3d882b17	0.06648844
236	0x3b5ba55a	0.0033515305
237	0xbd67e83d	-0.056617964
238	0xbe414022	-0.18872121
239	0x3dded95e	0.10881303
240	0x3be00888	0.0068369545
241	0xbc119d19	-0.008887553
242	0x3d83eca1	0.06441618
243	0xbd674644	-0.056463495
244	0xbd55a2cd	-0.052157212
245	0xbc06e956	-0.008234343
246	0x3dbdb39f	0.09262776
247	0x3d206e52	0.03916771
248	0xbda39283	-0.07986929
249	0x3d8c0963	0.06837728
250	0xbc91540e	-0.017740276
251	0x3d29a6f5	0.04141899
252	0xbee8ee79	-0.4549444
253	0xbe5f3e50	-0.21801114
254	0x3c2f48c0	0.010698497
255	0x3e168e46	0.1470271

network_smart.layer2.0.bias f4 [128]
0	0xbe33dd8c	-0.17564982
1	0x3d5352fb	0.05159281
2	0x3dcea0ec	0.10089287
3	0x3dbc90b7	0.0920729
4	0x3d8e79af	0.06956803
5	0xbc26e33e	-0.010186015
6	0xbc34b132	-0.011028575
7	0xbe29948f	-0.16560577
8	0x3d873fc8	0.06603962
9	0xbd095c3d	-0.03353523
10	0xbdd93cfd	-0.10607336
11	0x3cc4ee6c	0.02403947
12	0x3d5f2c6d	0.054485727
13	0xbc0835b1	-0.008313582
14	0x3d25540c	0.040363356
15	0xbca252a4	-0.019814797
16	0xbcd72eab	-0.02626737
17	0x3d8bc5b0	0.06824815
18	0xbdb82e51	-0.08993209
19	0xbbf4f982	-0.0074760327
20	0xbd05c27d	-0.03265618
21	0xbd1c9453	-0.03822739
22	0xbd10501d	-0.035232652
23	0x3da730f7	0.08163636
24	0x3dc362b1	0.09540308
25	0x3d9408b8	0.072282255
26	0xbe972d37	-0.29526684
27	0xbd840de7	-0.06447964
28	0xbdaf1a4e	-0.08549939
29	0xbd8c25d7	-0.06843155
30	0xbd059aca	-0.03261832
31	0x3c265d09	0.010154017
32	0xbd3ddf11	-0.04635531
33	0x3da6c3bd	0.08142803
34	0x3d20d2d6	0.03926357
35	0xbd410c67	-0.04713097
36	0x3c2cd3eb	0.010548572
37	0x3daf5812	0.0856172
38	0xbd6e98c1	-0.058251146
39	0xbe0140a3	-0.12622313
40	0xbd268df4	-0.04066272
41	0xbd19c461	-0.037540797
42	0x3d5cbde0	0.053892016
43	0xbda21ea4	-0.079160005
44	0xbe69684a	-0.2279369
45	0xbd33d0c0	-0.04390025
46	0x3db4628d	0.088078596
47	0x3cf54860	0.029941738
48	0x3e0bb613	0.13643675
49	0xbcc6e90e	-0.024281051
50	0x3c68eb1d	0.014216212
51	0xbe202f9a	-0.15643159
52	0xbd6bddf1	-0.057584707
53	0xbd2abbd3	-0.04168303
54	0x3ddddf60	0.10833621
55	0xbcd77371	-0.026300164
56	0x3d24cbac	0.0402333
57	0xbdc2ab10	-0.09505284
58	0x3d06f18b	0.032945197
59	0x3df50262	0.11963345
60	0xbe52d14f	-0.20587657
61	0xbd1c576c	-0.03816931
62	0xbda162b2	-0.07880153
63	0xbc750117	-0.014953873
64	0xbda4b5e5	-0.08042506
65	0x3d9c6b68	0.076376736
66	0x3d351639	0.044210646
67	0x3d8d1209	0.068882056
68	0x3db9ed72	0.09078492
69	0xbc47576d	-0.01216684
70	0xbe3a95d7	-0.18221222
71	0x3db1a451	0.08673919
72	0x3dd389e7	0.10329037
73	0x3dcf48c6	0.10121302
74	0x3d9a17a5	0.07524041
75	0x3d990ec9	0.07473523
76	0xbd8f20fa	-0.06988712
77	0x3dd11bf9	0.102104135
78	0x3d4c42ed	0.049868513
79	0xbd23e8ac	-0.040016815
80	0xbd853391	-0.06503976
81	0xbccc50e5	-0.024940917
82	0x3da0f7f1	0.07859791
83	0x3d36c808	0.04462436
84	0x3d6a1098	0.05714473
85	0x3b4f476f	0.003162827
86	0x3d66a347	0.056308057
87	0x3dc8001e	0.09765647
88	0xbced7891	-0.028988155
89	0xbdeec743	-0.116591
90	0xbeb01519	-0.34391096
91	0xbe11e00d	-0.14245625
92	0xbdf1c457	-0.11805027
93	0xbe164f0b	-0.1467859
94	0x3ccb44df	0.024813114
95	0xbcb1697d	-0.021656746
96	0xbd508338	-0.05090639
97	0xbcf8e08f	-0.030380515
98	0xbd4fb47d	-0.050709236
99	0xbd0276b4	-0.031851485
100	0x3c47295a	0.012155855
101	0x3d95eb44	0.07320264
102	0x3d586e90	0.052839816
103	0xbef49631	-0.47770837
104	0x3deeca55	0.116596855
105	0xbc7796d4	-0.015111644
106	0x3dc69261	0.09695888
107	0xbd938a6c	-0.07204136
108	0xbd27285b	-0.04080997
109	0x3da94d33	0.08266678
110	0x3e053b9c	0.1301102
111	0x3e1c8cea	0.1528813
112	0xbd15e982	-0.036599644
113	0x3da24744	0.07923749
114	0x3d6e978f	0.058250006
115	0xbd9897c4	-0.07450822
116	0xbdd762b1	-0.10516871
117	0xbe58e8bf	-0.21182536
118	0xbde3820b	-0.11108788
119	0x3c400a19	0.0117211575
120	0xbd3c8df8	-0.04603383
121	0xbd8c4cb3	-0.06850567
122	0xbcb44490	-0.02200535
123	0x3e0af228	0.13568938
124	0xbc309a94	-0.010779042
125	0x3d8c8901	0.06862069
126	0xbd974afd	-0.0738735
127	0xbdb73048	-0.08944756

network_smart.layer3.0.weight f4 [48, 128]
0	0x3c85265c	0.016253643
1	0xbd58153c	-0.052754626
2	0x3df9d06d	0.12197957
3	0xbe32b38f	-0.17451309
4	0xbd3169e5	-0.04331388
5	0xbd76e190	-0.060273707
6	0x3da21533	0.079142
7	0x3df5c5c3	0.12000611
8	0x3de5e96f	0.112261645
9	0xbd5ed868	-0.0544056
10	0x3e88cbbf	0.26717946
11	0xbde9a08d	-0.11407576
12	0x3e05a1de	0.13050029
13	0xbdbb7178	-0.09152502
14	0x3dd28da7	0.10280924
15	0xbcc17c9f	-0.023618994
16	0xbdadce3b	-0.08486601
17	0xbdeb0c80	-0.114769936
18	0x3e440705	0.19143303
19	0xbd23d42f	-0.039997276
20	0xbc616696	-0.013757369
21	0x3dcbed46	0.09957366
22	0x3dbe6d25	0.092981614
23	0x3d549cc4	0.051907316
24	0xbb3e8666	-0.0029071807
25	0xbe9aa117	-0.30201027
26	0x3f3134b7	0.6922106
27	0x3d1fb8cd	0.0389946
28	0x3d95a10e	0.07306109
29	0xbced392e	-0.02895793
30	0x3d3a0038	0.045410365
31	0xbd5926ba	-0.05301545
32	0x3db31f31	0.08746184
33	0x3d519a57	0.05117258
34	0xbd3e047f	-0.046391007
35	0x3e82de05	0.25560012
36	0xbda9ad00	-0.0828495
37	0x3e1f488d	0.1555502
38	0x3ca72638	0.020403966
39	0x3cb7b4f3	0.02242515
40	0x3d723302	0.059130676
41	0xbe31d381	-0.17365839
42	0xbe1ad6bc	-0.15120977
43	0x3d7f4657	0.06232294
44	0x3dbf620f	0.09344875
45	0x3de14699	0.109997936
46	0x3df210d2	0.118196145
47	0xbe5c14e5	-0.21492346
48	0x3c8bfb52	0.017087612
49	0xbe303cfc	-0.17210764
50	0x3dc22e3a	0.09481473
51	0x3d0276cb	0.03185157
52	0x3c83cccd	0.016088868
53	0x3c93641b	0.01799207
54	0xbd92858a	-0.07154377
55	0x3e193a2d	0.14963599
56	0xbd10d3e9	-0.035358343
57	0x3d1c3b8e	0.038142733
58	0x3d787f9e	0.06066858
59	0xbe8f4c58	-0.27987933
60	0xbe3390fe	-0.17535779
61	0x3de2a7ed	0.110671856
62	0x3d9d5f25	0.07684163
63	0x3d3444b4	0.044010833
64	0xbebbc142	-0.36670882
65	0xbdcf0327	-0.10108023
66	0xbd932317	-0.07184427
67	0x3d89d557	0.067301445
68	0x3e063e6f	0.13109754
69	0x3c1bb78b	0.009504209
70	0x3c56a623	0.0131011335
71	0x3dfd3677	0.12363904
72	0x3dc4987d	0.09599397
73	0x3d6c6a15	0.057718355
74	0x3cf8390c	0.03030064
75	0xbdb2dd6d	-0.0873364
76	0xbd97d1ca	-0.07413061
77	0x3d676df6	0.05650135
78	0x3dac3cc7	0.0841003
79	0xbdfca537	-0.123362
80	0x3dcc04d0	0.099618554
81	0xbdb68192	-0.08911432
82	0x3e30f3ac	0.17280453
83	0xbca6fc18	-0.02038388
84	0xbce23d85	-0.027617225
85	0xbda2df50	-0.0795275
86	0x3de8a242	0.11359073
87	0xbde6c49a	-0.112679675
88	0xbcda1861	-0.026622953
89	0xbc1fb3e1	-0.009747476
90	0xbe228950	-0.15872693
91	0x3da68062	0.08129956
92	0x3dd9824b	0.106205545
93	0xbe880e9f	-0.26573655
94	0x3f4fbb1b	0.81144875
95	0xbd5c82dc	-0.053835735
96	0x3d3afa13	0.045648646
97	0xbd1dad3d	-0.03849529
98	0x3d27d6f8	0.040976495
99	0x3d8fe8bd	0.07026813
100	0xbd17f4c1	-0.03709865
101	0x3e454b83	0.19267087
102	0x3cac7079	0.021049725
103	0x3d4b4316	0.049624525
104	0x3dc098fe	0.09404181
105	0x3d691d59	0.056912754
106	0xbc9efa70	-0.019406527
107	0x3da8b4a2	0.08237578
108	0x3d08ba76	0.033380948
109	0xbcde3eb7	-0.027129514
110	0xbd8550e2	-0.06509568
111	0xbca1a08d	-0.019729877
112	0xbda3ec50	-0.080040574
113	0x3a2aab22	0.0006510486
114	0x3db647cf	0.08900415
115	0xbd7f5c13	-0.06234367
116	0xbe805a3b	-0.2506884
117	0xbe03bb21	-0.12864353
118	0x3e010744	0.12600428
119	0x3d749aa9	0.059717808
120	0xbd705173	-0.058671426
121	0x3b785d09	0.003789725
122	0xbdb9b7ed	-0.09068284
123	0x3ca17bd8	0.019712374
124	0xbd3189bf	-0.043344256
125	0x3e1aeeaf	0.15130113
126	0xbd3ea9ee	-0.046548776
127	0x3d6f7966	0.058465384
128	0xbd9e1688	-0.07719141
129	0xbecebe92	-0.4037977
130	0xbd272376	-0.040805303
131	0x3e1927a8	0.14956534
132	0x3e03ac1f	0.12858628
133	0x3d627cca	0.05529479
134	0xbda3a50b	-0.07990464
135	0xbea04b08	-0.31307244
136	0xbe831644	-0.25602925
137	0x3dbb3f5e	0.09142946
138	0x3e428a66	0.18998107
139	0xbd71bb07	-0.059016254
140	0xbd7f772c	-0.06236951
141	0xbcf33aaf	-0.029691068
142	0xbd18bea6	-0.03729119
143	0xbd1dfb3f	-0.038569685
144	0x3d00d9eb	0.031457823
145	0xbec85cb9	-0.39133242
146	0x3d8bbff6	0.06823723
147	0x3e194e4b	0.14971273
148	0xbd889166	-0.066683576
149	0xbdcd28ca	-0.100175455
150	0xbd9b98ae	-0.07597481
151	0xbe97a9c7	-0.29621717
152	0xbe23d606	-0.15999612
153	0x3c80d0e4	0.015724607
154	0xbd35e50d	-0.044407893
155	0x3d9a159d	0.07523654
156	0x3d8bcd70	0.068262935
157	0x3b287b0f	0.0025708114
158	0xbce67b60	-0.028135002
159	0xbfa98c33	-1.324591
160	0xbcf757ab	-0.03019317
161	0xbe9c249a	-0.30496675
162	0xbc15dabf	-0.009146391
163	0x3d5470c5	0.051865358
164	0xbda0efe5	-0.07858256
165	0xbe225d78	-0.15855968
166	0x3cb0679c	0.02153378
167	0x3da08a62	0.078388944
168	0xbf09a585	-0.5376819
169	0xbcf7033a	-0.030152906
170	0x3c1997e0	0.009374589
171	0x3d2fb048	0.042892724
172	0x3dc3949f	0.095498316
173	0x3dc2d3e8	0.09513074
174	0xbb506abe	-0.0031801905
175	0x39250d57	0.00015740596
176	0xbd61d485	-0.055134315
177	0x3d0234d3	0.03178866
178	0x3d0ace63	0.033888232
179	0xbd0252e7	-0.031817343
180	0xbce614cd	-0.02808609
181	0xbdccacb2	-0.099938765
182	0x3db6d8b2	0.0892805
183	0x3c4fdb40	0.012686551
184	0xbe8005ed	-0.2500452
185	0xbd802eda	-0.06258936
186	0xbdd8555b	-0.10563155
187	0x3c7a8260	0.015289873
188	0x3e1cddfb	0.15319054
189	0xbd500333	-0.0507843
190	0x3d9de5d0	0.07709849
191	0xbd824e72	-0.063626185
192	0x3c878411	0.016542466
193	0xbd4ec1b7	-0.05047771
194	0x3d0ac2a6	0.033877037
195	0x3e0175dc	0.12642616
196	0xbe150598	-0.14552915
197	0xbea6136d	-0.32436696
198	0x3cffcdd1	0.03122607
199	0xbdc0784f	-0.09397947
200	0xbe496254	-0.19666415
201	0xbd505093	-0.05085809
202	0xbda5e33b	-0.080999814
203	0xbebf0c4a	-0.37314063
204	0x3b96128b	0.004579847
205	0xbe5dc9b2	-0.21658972
206	0xbebf7aa1	-0.37398246
207	0xbebe9a34	-0.37227023
208	0x3d2bcadd	0.041941512
209	0x3886e472	6.432169e-05
210	0x3dd01c48	0.10161644
211	0xbb47e5d1	-0.0030501971
212	0x3ca974ed	0.020685637
213	0x3d2165a1	0.03940356
214	0xbb26188b	-0.0025344219
215	0xbe5d6182	-0.21619228
216	0xbdb75906	-0.08952527
217	0x3db5e9a1	0.08882452
218	0xbc19b934	-0.009382535
219	0x3dc8c00c	0.09802255
220	0x3dea13a4	0.114295274
221	0x3d69ae6e	0.057051115
222	0xbe5a7475	-0.21333487
223	0xbd8472ba	-0.06467195
224	0xbd87210b	-0.06598099
225	0xbca5335e	-0.020166095
226	0xbd250692	-0.04028947
227	0x3ceff944	0.029293664
228	0x3d9b5ca5	0.0758603
229	0xbe0eb92c	-0.13937825
230	0x3cd249f0	0.025670022
231	0x3e1e9ad3	0.15488748
232	0x3d8b4669	0.06800539
233	0xbda26708	-0.07929808
234	0xbdcb8d5c	-0.099390715
235	0xbd95dd30	-0.07317579
236	0xbd9831dd	-0.07431386
237	0xbee0726f	-0.43837306
238	0xbe1742c6	-0.14771566
239	0xbe0756dc	-0.13216728
240	0xbd146d1e	-0.036236875
241	0xbd2e9df0	-0.04263109
242	0xbdd16005	-0.102233924
243	0xbd1e0705	-0.038580913
244	0x3c52af21	0.012859137
245	0x3da6ddf3	0.08147802
246	0x3e1a9345	0.15095241
247	0x3c3922fb	0.011299844
248	0xbd80bffb	-0.06286617
249	0x3d9eaf72	0.07748307
250	0xbe9b280c	-0.3030399
251	0x3d0a2127	0.033723023
252	0x3c03f3c1	0.008053721
253	0xbe83515b	-0.25648007
254	0x3d6f7c94	0.058468416
255	0x3cda7a12	0.026669536

network_smart.layer3.0.bias f4 [48]
0	0x3d9ad0b9	0.07559342
1	0xbef46ff8	-0.47741675
2	0x3d0a3fec	0.033752367
3	0xbcc73e1b	-0.024321606
4	0x3c56b408	0.013104446
5	0xbdc53dba	-0.09630914
6	0x3da02c91	0.07821
7	0xbbf19971	-0.007373028
8	0xbc7ea6bc	-0.015542682
9	0xbd7d0113	-0.061768603
10	0x3d5ac618	0.053411573
11	0x3da17c3c	0.07885024
12	0xbdc43f61	-0.09582401
13	0x3da2b351	0.07944358
14	0xbdb4558e	-0.08805381
15	0x3d863a7b	0.06554123
16	0x3c13b2e4	0.009014819
17	0xbd0db1b2	-0.03459329
18	0xbcf4d355	-0.029885927
19	0xbe2f2486	-0.17103776
20	0x3df14e0a	0.11782463
21	0xbd1945f4	-0.037420228
22	0xbd29dfb7	-0.041473117
23	0xbbd9d27d	-0.0066474066
24	0x3c2a871a	0.010408187
25	0x3d7d08f3	0.061776113
26	0x3dd43e1d	0.1036341
27	0xbe554fbf	-0.20831202
28	0x3d19316c	0.037400648
29	0x3d2c647a	0.04208801
30	0x3d150075	0.03637739
31	0xbd8ae7b1	-0.06782473
32	0x3d086dc0	0.03330779
33	0x3d189cb4	0.03725882
34	0x3d6874f6	0.056752168
35	0xbc974e14	-0.018469848
36	0x3dd2a4a1	0.10285307
37	0x3da49af6	0.08037369
38	0x3d969082	0.073517814
39	0xbce337b3	-0.02773652
40	0x3bfa5d7f	0.00764054
41	0x3ddf04f3	0.10889616
42	0xbdc1b746	-0.09458785
43	0x3cd5563e	0.0260421
44	0x3cc63ab6	0.024197917
45	0xbca2c1f1	-0.01986787
46	0x3ba65e74	0.0050771777
47	0x3dbd0185	0.092288055

fc_smart.weight f4 [64, 48]
0	0x3c6b770b	0.014371644
1	0x3e932670	0.28740263
2	0x3cd185ec	0.025576554
3	0xbe3540b0	-0.17700458
4	0xbeae9e03	-0.34104928
5	0xbd91888b	-0.07106122
6	0x3e0ca884	0.13736159
7	0x3e8c271c	0.27373588
8	0xbee45e11	-0.44603017
9	0x3d6050da	0.054764606
10	0xbe9e848c	-0.309605
11	0x3e1d09cf	0.15335773
12	0xbdf451f5	-0.119296946
13	0x3ecbee82	0.39830405
14	0xbf4bcfc4	-0.796139
15	0x3cad4ad3	0.021153843
16	0xbe113a6b	-0.14182441
17	0xbe3f4746	-0.18679532
18	0xbce2aa78	-0.027669176
19	0x3ea902e3	0.33010015
20	0x3e866e9b	0.2625626
21	0x3cb792cd	0.022408867
22	0x3c97af3b	0.018516174
23	0x3e00ee9b	0.12591021
24	0x3e02b6a3	0.12764983
25	0xbebe4c37	-0.37167522
26	0x3e8462ac	0.2585653
27	0x3d6d2d50	0.05790454
28	0xbf47cc50	-0.7804613
29	0xbf0f4085	-0.55957824
30	0xbedb03a7	-0.42776224
31	0x3c3f30f0	0.011669382
32	0xbecf5189	-0.40491894
33	0xbf025f90	-0.50927067
34	0x3e2c7f35	0.168454
35	0xbe01f9f5	-0.12693007
36	0x3e22a0c0	0.15881634
37	0x3e82bae0	0.255332
38	0x3e295c07	0.16539012
39	0xbe5a6144	-0.21326166
40	0x3dbb24d9	0.091378875
41	0xbe164cfb	-0.14677803
42	0x3dfed479	0.1244287
43	0xbf502c60	-0.8131771
44	0x3f2ebcb1	0.6825667
45	0x3d98cd81	0.07461072
46	0xbdc792a1	-0.09744764
47	0x3da5d144	0.08096555
48	0xbdfbee18	-0.12301272
49	0xbe3df0c7	-0.1854888
50	0xbe15ab0a	-0.14616027
51	0xbd87e811	-0.0663606
52	0x3f3687c5	0.7130092
53	0x3f2ae9ac	0.66762805
54	0xbd2cdbca	-0.042201795
55	0x3e52a373	0.20570163
56	0xbf200312	-0.62504685
57	0x3bf3703b	0.0074291504
58	0x3eb228c4	0.34796727
59	0x3efa7fb7	0.48925564
60	0x3d8f4bb3	0.0699686
61	0xbb9b65ff	-0.0047423835
62	0xbf864050	-1.0488377
63	0xbde8ddde	-0.11370443
64	0xbd2c62c5	-0.04208638
65	0xbde64089	-0.11242778
66	0x3f0f0424	0.55865693
67	0x3ee768a3	0.4519702
68	0x3df3f864	0.11912611
69	0xbf208ceb	-0.62715024
70	0xbdcda432	-0.100410834
71	0xbdbf0c47	-0.093285136
72	0x3b69478f	0.003559563
73	0xbe2b8efc	-0.16753763
74	0x3ecd6485	0.40115753
75	0xbe19f2ec	-0.15034074
76	0xbf1fe904	-0.6246493
77	0xbf8d8d6b	-1.1058782
78	0xbe1664ae	-0.14686844
79	0x3b80f3e1	0.0039353226
80	0xbf3f1d2e	-0.746539
81	0xbf141ae4	-0.5785353
82	0x3f095886	0.536507
83	0xbe9ecae6	-0.31014174
84	0x3ecfe764	0.40606225
85	0x3ee52fa5	0.44762912
86	0xbc13481e	-0.008989362
87	0xbde66e63	-0.11251523
88	0xbef32bbf	-0.47494313
89	0xbe50d46e	-0.20393535
90	0x3ef11c29	0.47091797
91	0xbf004f09	-0.501206
92	0x3ebc4b69	0.36776283
93	0x3df8b5f0	0.12144077
94	0xbdc94331	-0.09827269
95	0xbd465d01	-0.04842854
96	0xbd2b4b80	-0.04182005
97	0xbea2673f	-0.31719396
98	0xbe1baf8c	-0.15203685
99	0x3e1ccb67	0.15311967
100	0x3ea9d49c	0.3317002
101	0x3d3056c9	0.043051515
102	0xbe0fe625	-0.14052637
103	0xbe941bec	-0.28927553
104	0x3ef53150	0.47889185
105	0x3d5070d7	0.050888862
106	0x3e91094b	0.28327402
107	0xbe2ff48e	-0.17183134
108	0xbd0fe5ba	-0.035131194
109	0xbece095f	-0.40241525
110	0x3f572462	0.8403989
111	0x3da12577	0.07868474
112	0x3e18031b	0.14844935
113	0x3e2f6a72	0.1713045
114	0xba165ea6	-0.00057361496
115	0xbeb1a83f	-0.34698674
116	0xbe916966	-0.28400725
117	0xbceeca89	-0.02914931
118	0x3d95aa30	0.07307851
119	0x3d9a0716	0.07520883
120	0xbd76b03d	-0.060226668
121	0x3ec8d992	0.39228493
122	0xbe9bb22e	-0.30409378
123	0xbd6c25b6	-0.05765315
124	0x3f517c95	0.8183072
125	0x3f1232fc	0.57109046
126	0x3ecf2924	0.40461075
127	0xbcb2886e	-0.02179357
128	0x3edf23f8	0.4358213
129	0x3f01c5e8	0.50692606
130	0xbe44e797	-0.1922897
131	0x3e334d5b	0.17509978
132	0xbe10b299	-0.1413063
133	0xbe8033a0	-0.25039387
134	0xbe38ac7c	-0.18034548
135	0x3e6b1dc3	0.22960572
136	0xbd81741a	-0.06320973
137	0x3e31f256	0.173776
138	0xbe033c79	-0.12816037
139	0x3f4f5eea	0.810042
140	0xbf32292b	-0.6959407
141	0xbc35ff53	-0.011108237
142	0x3d4e437a	0.05035732
143	0xbdbab9dd	-0.09117482
144	0xbe24ee0b	-0.16106431
145	0xbe9d9f4d	-0.307856
146	0xbe11acd8	-0.14226091
147	0x3d3b1586	0.045674823
148	0x3f42b755	0.7606099
149	0x3f159137	0.58424705
150	0xbe216a20	-0.1576314
151	0x3c82f8bb	0.015987745
152	0xbe7a3e95	-0.24437936
153	0xbcd704a5	-0.026247332
154	0x3ef7ac7f	0.48373792
155	0x3e970c3d	0.29501525
156	0x3cb682cb	0.022279164
157	0xbe743f16	-0.2385219
158	0xbebb2a50	-0.3655572
159	0xbd2aa09f	-0.041657086
160	0x3d40bfb2	0.047057815
161	0x3d024993	0.031808447
162	0x3efb81e2	0.4912253
163	0x3e1ed546	0.15511045
164	0xbd2cc24c	-0.042177483
165	0xbee4d158	-0.44690967
166	0xbdbd897a	-0.09254737
167	0xbcb6d7f6	-0.022319775
168	0xbd87791e	-0.06614898
169	0x3d558641	0.052129988
170	0x3e414c60	0.18876791
171	0xbe34f925	-0.17673166
172	0xbd51d21b	-0.051225763
173	0xbf0797e2	-0.5296613
174	0x3e40f70c	0.18844241
175	0xbdd31182	-0.10306074
176	0xbeab31c4	-0.33436406
177	0xbe0f6f8e	-0.14007398
178	0x3ead8853	0.3389307
179	0xbe503f4b	-0.20336644
180	0x3e52423e	0.20533082
181	0x3e19dff5	0.15026839
182	0xbd93cf3b	-0.072172605
183	0xbb7bcdf7	-0.0038422325
184	0xbee71f8a	-0.4514125
185	0xbe107eed	-0.14110918
186	0x3e9cb869	0.30609444
187	0x3e09e3a0	0.13465738
188	0xbe027492	-0.1273978
189	0x3cb83d17	0.022490067
190	0xbc27fc30	-0.010252997
191	0x3b945476	0.00452667
192	0x3debe306	0.11517911
193	0x3ece9ce8	0.40354085
194	0x3e16d822	0.14730886
195	0xbe5e5fa2	-0.21716169
196	0xbe7d6535	-0.24745639
197	0x3d1c2d59	0.038129184
198	0xbda00903	-0.07814219
199	0x3eaf994e	0.3429665
200	0xbf28dd23	-0.6596243
201	0xbd5216a9	-0.05129114
202	0xbe8ffd29	-0.28122833
203	0x3e95355a	0.29142267
204	0xbcb5ef70	-0.0222089
205	0x3ed77bda	0.4208668
206	0xbf8fcfe1	-1.1235315
207	0xbd06f8f2	-0.032952257
208	0xbe361526	-0.17781505
209	0xbe75ce2f	-0.24004434
210	0x3db10242	0.08643009
211	0x3ee8ffcc	0.45507658
212	0x3ea79a1b	0.3273476
213	0xbd6eb87f	-0.058281418
214	0x3dcd9d4e	0.10039769
215	0xbdbc0d5f	-0.09182238
216	0x3ce5e675	0.028063992
217	0xbeec05d4	-0.46098197
218	0x3ece92bd	0.40346327
219	0x3da1ad6e	0.07894407
220	0xbf879e76	-1.0595233
221	0xbf60060f	-0.87509245
222	0xbf0922ff	-0.53569025
223	0xbdd31ecf	-0.10308611
224	0xbf226c98	-0.6344695
225	0xbf35d5b4	-0.7102921
226	0x3e8fb7d4	0.28069937
227	0xbe6a9634	-0.2290886
228	0x3e7f8edc	0.2495684
229	0x3ebb2f7c	0.36559665
230	0x3e80921a	0.25111467
231	0xbe88d8b1	-0.26727822
232	0x3d95e672	0.073193446
233	0xbe4d8f4a	-0.20074192
234	0x3e77051b	0.24123041
235	0xbf847907	-1.0349435
236	0x3f564100	0.8369293
237	0x3ded0292	0.11572756
238	0xbdc5e3d5	-0.09662596
239	0x3e2e169f	0.17000817
240	0xbd581f0f	-0.052763995
241	0xbedd6b02	-0.43245703
242	0xbe574b76	-0.2102488
243	0x3e2bd608	0.16780865
244	0x3f116ca9	0.5680643
245	0x3ea50ee3	0.3223792
246	0x3cbcd5c0	0.023051143
247	0xbe4b402e	-0.19848701
248	0x3e8676bc	0.26262462
249	0x3d90add1	0.07064403
250	0x3ed190ad	0.4093069
251	0xbbf275e9	-0.00739931
252	0xbaa234b3	-0.0012375325
253	0xbeb5e714	-0.3552786
254	0x3ec80c70	0.3907199
255	0xbcb183b2	-0.021669243

fc_smart.bias f4 [64]
0	0x3c8c4111	0.01712087
1	0x3c5d7343	0.01351625
2	0x3caf84b1	0.021425577
3	0xbd8c1459	-0.068398185
4	0xbc5cffad	-0.013488692
5	0xbc5f5589	-0.013631233
6	0x3c78b5cd	0.015180063
7	0xbd762e51	-0.060102765
8	0x3cf1123c	0.02942764
9	0xbcaff3fc	-0.021478646
10	0xbc07a808	-0.008279808
11	0xbd75346e	-0.059864454
12	0xbda6d235	-0.081455626
13	0xbdc17b51	-0.09447349
14	0x3d882b38	0.06648868
15	0xbdfa2e52	-0.12215866
16	0x3c819f0f	0.015822915
17	0xbd103cac	-0.03521411
18	0xbc0915b4	-0.008366991
19	0x3cffc115	0.031219998
20	0x3c9cf9fa	0.019162167
21	0xbca9dc70	-0.020734996
22	0xbd1282cd	-0.035769273
23	0x3d3d383c	0.046196207
24	0x3da049e1	0.07826591
25	0xbdc7fa46	-0.09764533
26	0x3d059a95	0.032618124
27	0x3d399283	0.04530574
28	0xbdd0c2a8	-0.10193378
29	0xbbb26a04	-0.005444767
30	0xbded0a18	-0.11574191
31	0xbba39d08	-0.004993085
32	0x3d446dae	0.04795616
33	0x3d98bb1e	0.07457565
34	0xbd21f9a1	-0.039544705
35	0x3daac933	0.08339157
36	0x3b81899a	0.003953171
37	0x3d77a7f6	0.060462914
38	0x3d87fc7a	0.06639953
39	0x3c8108ef	0.01575133
40	0xbd691a38	-0.05690977
41	0x3d588e2d	0.052869964
42	0x3d08a533	0.03336067
43	0xbd99091f	-0.07472443
44	0xbca7bbb0	-0.020475239
45	0xbd1d621e	-0.03842365
46	0x3cf6dd58	0.030134842
47	0x3da4a086	0.0803843
48	0x3d22411f	0.039612886
49	0xbbaa9120	-0.0052052885
50	0xbb4bc19a	-0.0031090737
51	0x3da0ee0b	0.07857903
52	0xbbbb1692	-0.0057094777
53	0xbdc1a4f9	-0.09455294
54	0xbd166dab	-0.03672568
55	0xbc782fc3	-0.015148106
56	0x3c19c2cc	0.009384822
57	0x3db21f33	0.08697357
58	0x3d2d53b6	0.04231616
59	0xbdcedf3b	-0.101011716
60	0x3d6daffe	0.058029167
61	0x3d348d2c	0.044079944
62	0xbb805d1f	-0.003917351
63	0x3de17824	0.11009243

network_aging.lstm.weight_ih_l0 f4 [128, 5]
0	0x3e62503c	0.2210092
1	0x3c94f770	0.018184394
2	0xb9519c9a	-0.00019990132
3	0x3db76e50	0.08956587
4	0xbb7a03c1	-0.003814921
5	0xbdceeb6a	-0.101034954
6	0x3dfd89b8	0.123797834
7	0xbcb1c0e7	-0.021698428
8	0xbd01bf46	-0.031676553
9	0x3e2daec8	0.16961205
10	0xbd4113c7	-0.047138
11	0x3c5427a8	0.012948908
12	0xbe09ba27	-0.13449918
13	0xbe1c1bab	-0.1524493
14	0xbdac00dd	-0.08398602
15	0xbd9e1c51	-0.07720245
16	0x3dcf7a6b	0.10130771
17	0x3e09a58d	0.13442059
18	0x3df26f30	0.118376136
19	0x3d632c3b	0.055462103
20	0x3dcbe807	0.09956365
21	0xbdcf3d95	-0.10119168
22	0x3d0fb3c0	0.035083532
23	0xbdd18420	-0.10230279
24	0x3d2165a5	0.039403576
25	0x3dbb1086	0.09134011
26	0x3dd8d18b	0.10586842
27	0x3e70a380	0.2349987
28	0x3d097fe9	0.03356925
29	0xbdd6ec5f	-0.10494303
30	0xbd1bb1c9	-0.038011346
31	0x3de1800e	0.110107526
32	0xbd9fc853	-0.07801881
33	0x3e060680	0.13088417
34	0xbdb5368a	-0.08848293
35	0x3e545d61	0.20738746
36	0x3e00d488	0.12581074
37	0x3dfcabb7	0.123374395
38	0x3d0b1ea5	0.03396477
39	0x3d92c496	0.07166402
40	0x3e1b0550	0.15138745
41	0xbdc37370	-0.09543502
42	0xbd8c139c	-0.06839678
43	0x3cba1b70	0.022718161
44	0xbdea2359	-0.11432523
45	0x3db23bbb	0.08702799
46	0x3dc5032a	0.09619744
47	0xbd88df6f	-0.066832416
48	0xbde81944	-0.11332944
49	0x3b576916	0.0032869033
50	0x3b199beb	0.0023438882
51	0x3d83c4d5	0.06434027
52	0x3d87f393	0.06638255
53	0xbc376791	-0.011194126
54	0xbded52be	-0.115880474
55	0x3dd6ea3c	0.104938954
56	0x3e0d5ea0	0.13805628
57	0xbe309885	-0.17245682
58	0xbde5bb5a	-0.11217375
59	0x3e162cff	0.14665602
60	0x3e5a68be	0.21329018
61	0xbdd2fa7a	-0.10301681
62	0x3e4728d3	0.19449167
63	0x3cc35d65	0.023848245
64	0x3dbb4d76	0.09145634
65	0x3c9d1030	0.019172758
66	0x3d58842e	0.05286043
67	0x3dab395d	0.083605506
68	0x3d9cec24	0.07662228
69	0xbd0aea72	-0.03391499
70	0x3d0e8b5b	0.03480087
71	0xbd4cc01b	-0.049987894
72	0x3e327a59	0.17429484
73	0xbd1b2afe	-0.037882797
74	0x3df1d221	0.11807657
75	0x3e4e97a1	0.2017503
76	0x3e4ad15e	0.1980643
77	0xbd048d0d	-0.03236108
78	0x3e04da5f	0.12973927
79	0x3d49f6cf	0.04930764
80	0xbc3d5c4e	-0.011557652
81	0xbd1ab5b1	-0.03777093
82	0x3dc95a59	0.098316856
83	0x3dfc3b76	0.12316029
84	0xbe1e2d04	-0.1544686
85	0xbc4e46be	-0.012590108
86	0xbdc3de9c	-0.09563944
87	0x3c64fc3d	0.013976154
88	0x3d45bfec	0.048278734
89	0x3e1b9089	0.15191855
90	0x3dfa79c8	0.12230259
91	0x3e5ecf2a	0.21758714
92	0x3d3fae33	0.04679699
93	0x3db59c2f	0.0886768
94	0x3c8b3828	0.01699455
95	0x3d66fab9	0.05639145
96	0xbe01ad44	-0.12663752
97	0x3d392d82	0.045209415
98	0x3b794d41	0.0038040432
99	0xbde5e7bb	-0.1122584
100	0xbddf6546	-0.10907988
101	0x3d628fe1	0.055312995
102	0x3c757450	0.014981344
103	0x3e40f431	0.18843152
104	0xbc9c8ca8	-0.019110039
105	0x3e08f2a4	0.1337381
106	0xbdaf650f	-0.08564197
107	0xbddff3ea	-0.10935195
108	0xbd893740	-0.06699991
109	0x3dfa04bf	0.122079365
110	0xbd838888	-0.06422526
111	0x3e22c15e	0.15894076
112	0xbadad383	-0.0016695115
113	0x3db7ec9f	0.08980679
114	0x3d984046	0.07434134
115	0x3de7e6d8	0.11323327
116	0x3e33e492	0.17567661
117	0x3e201213	0.15631895
118	0x3e00248e	0.12513945
119	0xbe103ba4	-0.14085251
120	0x3e12bd38	0.14329994
121	0xbce83e70	-0.028350085
122	0x3d055d6e	0.032559805
123	0x3e01de32	0.12682417
124	0x3db465b9	0.088084646
125	0x3e345230	0.17609477
126	0x3e29ec3b	0.16594021
127	0xbcb02195	-0.021500388
128	0xbb33d670	-0.0027441047
129	0xbd947d99	-0.07250518
130	0x3c5c1faa	0.013435284
131	0x3e5ae804	0.2137757
132	0xbdb13386	-0.086524054
133	0xbd398a86	-0.045298122
134	0xbdcc99de	-0.09990285
135	0x3e1b1566	0.15144882
136	0x3c8b96f8	0.017039761
137	0xbd6d8464	-0.057987586
138	0xbb30e117	-0.0026989633
139	0x3e2a48fe	0.16629407
140	0x38946fa4	7.0779846e-05
141	0x3dd81eea	0.105527714
142	0x3e046bf3	0.12931804
143	0x3dbab44e	0.09116422
144	0x3e17d3ff	0.14826964
145	0x3dfcc235	0.123417296
146	0x3c9da061	0.019241514
147	0x3c920293	0.017823493
148	0x3c68a8e9	0.014200428
149	0xbc9a9eee	-0.018874612
150	0xbdb38dc7	-0.08767276
151	0xbe00e4e5	-0.12587316
152	0x3e1bb540	0.1520586
153	0xbddb0083	-0.10693457
154	0x3e38fd56	0.1806539
155	0x3da6104a	0.08108576
156	0x3dbce29f	0.09222912
157	0x3da40ab2	0.080098525
158	0x3dccbe1f	0.099972
159	0x3d82a3b9	0.06378884
160	0xbdda41e9	-0.106571026
161	0x3e049d0b	0.12950532
162	0x3b9a3144	0.00470558
163	0xbd30d71b	-0.04317389
164	0x3e4b50d9	0.1985506
165	0xbc70c821	-0.014696152
166	0xbdaa697c	-0.08320901
167	0x3e3acf4f	0.18243144
168	0x3e5276f3	0.20553188
169	0x3d69222a	0.056917347
170	0xbd3722eb	-0.044711035
171	0x3e4fbe47	0.20287429
172	0x3d8331e2	0.06405999
173	0x3d9235a9	0.07139141
174	0x3c551e3f	0.0130076995
175	0xbda2999a	-0.079394534
176	0x3d63aaf6	0.055582963
177	0xbd3c2dda	-0.045942165
178	0x3dd9104d	0.10598812
179	0xbe07c71f	-0.13259552
180	0xbd8cab03	-0.068685554
181	0xbd4d128a	-0.05006651
182	0xbdb06d6b	-0.0861462
183	0x3d837de8	0.06420499
184	0x3d8b2011	0.067932256
185	0x3db9ebcf	0.0907818
186	0x3d36a4cb	0.044590753
187	0x3c84e5da	0.016222883
188	0x3e451df4	0.19249707
189	0x3d3405be	0.04395079
190	0x3dca3344	0.098730594
191	0xbd48aa44	-0.048990503
192	0x3dd6e995	0.10493771
193	0xbdc249d6	-0.09486739
194	0x3e42e0c7	0.19031058
195	0x3e46db70	0.19419646
196	0xbd881206	-0.06644063
197	0x3ce4949d	0.027902896
198	0x3d90ad8f	0.07064354
199	0xbdff07fc	-0.12452695
200	0xbdb9ea31	-0.090778716
201	0x3e248f0c	0.16070193
202	0x3da7050f	0.08155262
203	0xbd83abb3	-0.064292334
204	0x3d6d8f38	0.057997912
205	0xbe0209a4	-0.1269899
206	0xbded5b47	-0.115896754
207	0xbd458e10	-0.048231184
208	0xbda77608	-0.081768095
209	0xbda019e6	-0.0781744
210	0xbc26f99d	-0.010191348
211	0xbdf7eaf0	-0.12105358
212	0x3e0bf775	0.13668616
213	0xbd4bd85d	-0.049766887
214	0xbd0d25ac	-0.034459755
215	0xbd7453b2	-0.05965013
216	0x3cc6c4c7	0.024263753
217	0xbe42f90b	-0.19040315
218	0xbe30e9b2	-0.17276648
219	0x3db3258e	0.08747397
220	0x3c4206a0	0.0118424
221	0x3c06d9ce	0.00823064
222	0x3d19b4fe	0.037526123
223	0x3e11df51	0.14245345
224	0x3de91d18	0.11382502
225	0x3d4db772	0.050223775
226	0xbc72c2ef	-0.014816984
227	0xbd1f59a2	-0.03890384
228	0x3e4d7564	0.20064312
229	0xbdf500a0	-0.1196301
230	0xbdf49447	-0.11942344
231	0x3bede769	0.0072602523
232	0xbdf7c11c	-0.120973796
233	0x3c9bf78c	0.019038938
234	0x3e2915e8	0.16512263
235	0xbd935e42	-0.071957126
236	0x3de925c7	0.113841586
237	0x3c6dc2aa	0.014511744
238	0xbcf7e446	-0.030260216
239	0xbd3372d3	-0.043810677
240	0xbc40d31f	-0.011769085
241	0xbe012e56	-0.12615332
242	0x3bc59a23	0.0060303374
243	0x3d8ae3e3	0.06781747
244	0xbd9076a6	-0.070538804
245	0xbd0f6b0a	-0.03501419
246	0x3e02cb12	0.12772778
247	0x3de93444	0.11386922
248	0x3e3dac97	0.18522869
249	0xbde30293	-0.11084475
250	0xbcf25b9b	-0.029584697
251	0x3e2d9f50	0.16955304
252	0xbd8b6959	-0.06807203
253	0x3e2af5fc	0.16695398
254	0x3c8cc785	0.017184982
255	0xbdb8b94b	-0.09019717

network_aging.lstm.weight_hh_l0 f4 [128, 32]
0	0x3e4c22ee	0.199352
1	0xbdc34664	-0.0953491
2	0x3e5ea756	0.21743521
3	0x3da7b0c4	0.08188012
4	0xbdc03993	-0.093859814
5	0xbbbd9292	-0.005785295
6	0x3e2a969c	0.16659015
7	0xbab92ddd	-0.0014128048
8	0xbdc059d2	-0.09392132
9	0x3e5e7e3a	0.21727839
10	0xbe39a375	-0.1812876
11	0x3da2c476	0.07947628
12	0x3c9933bb	0.018701425
13	0x3cdbae66	0.026816558
14	0x3cf10c77	0.029424889
15	0xbdced8b5	-0.10099927
16	0x3d36335b	0.04448257
17	0xbca28fc0	-0.019843936
18	0xbda97ade	-0.08275388
19	0x3d527c0b	0.051387828
20	0xbdf29ed3	-0.118466996
21	0xbe1540d7	-0.14575516
22	0xbcc7adc9	-0.02437486
23	0x3d3eaead	0.046553303
24	0x3dc63511	0.0967809
25	0x3e5f98f9	0.21835698
26	0x3df30ac9	0.118672915
27	0x3c28d6c7	0.010305113
28	0x3d4443ed	0.04791634
29	0xbc584b0e	-0.013201488
30	0xbd8fcc2a	-0.07021363
31	0xbd99e7cb	-0.07514914
32	0x3c53e8e5	0.012933944
33	0xbe757f1e	-0.23974273
34	0x3e3af9f9	0.1825942
35	0x3d5a5653	0.05330498
36	0xbd8d0d1b	-0.06887265
37	0xbd22de38	-0.039762706
38	0x3e7731d0	0.24140096
39	0xbe05b989	-0.13059057
40	0x3d997a85	0.07494072
41	0x3e4cf6bb	0.20015995
42	0x3d45dcfb	0.048306447
43	0xbc3e477f	-0.011613726
44	0xbe240c91	-0.16020419
45	0xbd4e6454	-0.05038865
46	0x3d805576	0.062663004
47	0xbe33dcec	-0.17564744
48	0xbc50812b	-0.012726109
49	0xbdf32c60	-0.11873698
50	0x3e4ccad8	0.19999254
51	0x3e225581	0.1585293
52	0x3d1b1645	0.037863035
53	0xbe324fb6	-0.1741322
54	0xbb07235a	-0.0020620436
55	0x3d8eabb5	0.06966344
56	0x3da4a523	0.0803931
57	0x3e161ed2	0.14660195
58	0x3e377afe	0.17918012
59	0x3d2f5207	0.042802837
60	0x3d2ad43f	0.04170632
61	0xbd62d681	-0.055380348
62	0x3dd2725d	0.10275719
63	0xbaea56a4	-0.0017878604
64	0x3dc95030	0.09829748
65	0x3cc8834b	0.024476668
66	0xbc28b027	-0.010295904
67	0xbd86fcb0	-0.06591165
68	0x3ba88fcc	0.005144095
69	0xbdbd95d9	-0.09257097
70	0x3dc176e3	0.09446504
71	0xbdd330a0	-0.10312009
72	0x3d42d9be	0.047570936
73	0xbd69f889	-0.057121787
74	0xbdb1c58c	-0.08680257
75	0xbe261601	-0.16219331
76	0xbcbf0e1e	-0.023322161
77	0xbdfbd94f	-0.12297308
78	0xbd7ea3c9	-0.062167916
79	0xbe56f755	-0.20992787
80	0xbe2cda8f	-0.16880248
81	0xbdfc425c	-0.123173445
82	0x3d4d3ff6	0.050109826
83	0x3e1ba261	0.15198661
84	0x3d229370	0.03969139
85	0xbe3690e7	-0.17828713
86	0xbe115d39	-0.14195718
87	0xbd45bf2a	-0.04827801
88	0x3dea418e	0.11438285
89	0x3a4dd368	0.00078516314
90	0x3db3fc41	0.08788348
91	0x3dc10182	0.09424116
92	0x3e4d784b	0.2006542
93	0x3e4a79f9	0.19773091
94	0x3e061275	0.13092978
95	0x3e481b46	0.19541654
96	0x3d9f5e58	0.077816665
97	0xbdb66870	-0.089066386
98	0x3e4c076a	0.19924703
99	0x3d8188c9	0.06324918
100	0x3e7ebe36	0.24877247
101	0x3c283404	0.010266308
102	0x3e151244	0.14557749
103	0xbe44e791	-0.1922896
104	0x3d8e5b2d	0.06950984
105	0x3e4c648f	0.19960235
106	0xbe0b75e1	-0.13619186
107	0x3de51d2d	0.111872055
108	0xbd0d2f81	-0.03446913
109	0x3dc0586c	0.09391865
110	0xbda495e6	-0.08036403
111	0x3dde54e9	0.10856039
112	0xbdb888d4	-0.09010473
113	0x3db3da52	0.08781876
114	0x3bce7b43	0.006301315
115	0x3d0437e3	0.03227986
116	0xbe01582b	-0.1263129
117	0xbc73ec25	-0.014887844
118	0xbe37e8d1	-0.17959906
119	0x3d890a9c	0.06691477
120	0x3db00ec2	0.08596565
121	0xbdb598e3	-0.088670515
122	0xbd7a8888	-0.061165363
123	0xbda80697	-0.08204382
124	0x3d84ea90	0.06490052
125	0xbdb8e974	-0.09028903
126	0xbe28e118	-0.16492116
127	0xbd1095ad	-0.035298992
128	0xbdb50463	-0.08838727
129	0xbe0c17d8	-0.1368097
130	0xbdc89415	-0.097938694
131	0xbe879223	-0.2647868
132	0x3de00018	0.10937518
133	0x3d396fbf	0.045272585
134	0xbbde8c23	-0.006791608
135	0xbe116054	-0.14196903
136	0xbd7842ee	-0.060610704
137	0xbdad1595	-0.08451382
138	0xbe429d22	-0.19005254
139	0x3d0f7a35	0.035028655
140	0xbd4a62e1	-0.049410705
141	0xbe315e5e	-0.17321154
142	0x3e058e71	0.13042618
143	0xbddeb6b0	-0.108746886
144	0xbe4b7099	-0.19867171
145	0x3d5e4afe	0.054270737
146	0x3cae2bc9	0.021261113
147	0x3de5d6da	0.1122262
148	0xbddae316	-0.106878445
149	0x3e0534df	0.1300845
150	0x3db9252c	0.09040293
151	0x3dfdc3a8	0.12390834
152	0xbcb8b1cb	-0.022545716
153	0x3e0ed5a5	0.13948686
154	0x3d01cd49	0.031689916
155	0x3dd03c60	0.101677656
156	0x3941b471	0.00018473134
157	0x3e0086af	0.12551378
158	0xbd64fbce	-0.055904202
159	0x3e7409fc	0.23831934
160	0x3dc8c06d	0.09802327
161	0xbd0f9ad2	-0.035059758
162	0x3c023ab8	0.00794857
163	0x3d17462e	0.036932163
164	0x3e583226	0.2111288
165	0x3e6bfb7a	0.2304515
166	0x3df933d8	0.121680915
167	0xbdc2e5b5	-0.095164694
168	0x3e75122a	0.2393271
169	0xbcb7c52a	-0.022432882
170	0x3bad495f	0.0052882875
171	0x3c24ad35	0.010051061
172	0xbdf156fe	-0.117841706
173	0xbb2c9c0a	-0.0026338124
174	0x3e0affd1	0.13574149
175	0xbe43f50b	-0.19136445
176	0x3d1ae428	0.037815243
177	0xbd230bb1	-0.03980607
178	0x3dac9707	0.08427244
179	0xbd795799	-0.060874555
180	0xbddc01bc	-0.10742518
181	0x3d2236ad	0.039602924
182	0xbc3174e0	-0.010831088
183	0xbd906eb6	-0.070523664
184	0x3ce02ec0	0.027366042
185	0xbd0a0eb8	-0.033705443
186	0x3e5b1e3f	0.21398257
187	0xbdfe8649	-0.124279566
188	0xbc0de2e9	-0.008660057
189	0x3d762924	0.06009783
190	0x3d80c93f	0.06288385
191	0xbdab5201	-0.083652504
192	0xbd29710c	-0.041367576
193	0x3ddbfc77	0.10741513
194	0x3e63519b	0.22199099
195	0xbe05abd8	-0.13053834
196	0xbda6239c	-0.08112261
197	0x3c29647e	0.010338901
198	0x3e000d20	0.12505007
199	0x3d8823c9	0.066474505
200	0x3ddb4811	0.10707105
201	0x3e5bb552	0.21455887
202	0xbcf9d969	-0.030499177
203	0xbd6511a8	-0.05592504
204	0xbd59b948	-0.053155214
205	0x3caa4383	0.020784145
206	0xbda82389	-0.08209903
207	0x3da97bb8	0.082755506
208	0xbe198475	-0.14991935
209	0x3c686d3a	0.014186198
210	0xbd0197d9	-0.031638954
211	0x3c07c734	0.00828724
212	0xbca11f24	-0.01966817
213	0xbd93d534	-0.072184
214	0x3dc79743	0.09745648
215	0x3e1b11fa	0.15143576
216	0x3db2c814	0.08729568
217	0x3e168fbd	0.1470327
218	0x3d2686f3	0.04065604
219	0xbd8f2845	-0.06990103
220	0xbc7f3f7f	-0.0155791035
221	0x3e5aea3a	0.21378413
222	0xbe2c1eeb	-0.1680867
223	0x3e367f37	0.17821966
224	0x3dc0b2da	0.09409113
225	0xbe157a37	-0.14597403
226	0x3db7fed6	0.08984153
227	0xbccf6a88	-0.025319353
228	0x3d932217	0.071842365
229	0x3e4a9e82	0.19787028
230	0x3da6c780	0.0814352
231	0xbdefac69	-0.117028065
232	0x3e0c3c4b	0.13694875
233	0x3d8f7c12	0.070060864
234	0xbb6382e4	-0.0034715468
235	0x3c9d59b4	0.019207813
236	0xbe1eb578	-0.15498912
237	0x3d5c4a54	0.053781822
238	0xbcafd728	-0.0214649
239	0x3d79dbda	0.061000682
240	0x3da4a0be	0.08038472
241	0x3d130393	0.03589208
242	0x3d9dc9fa	0.077045396
243	0x3dc73f85	0.09728912
244	0xbdd7dae7	-0.10539799
245	0x3d6b11f9	0.057390187
246	0xbe068d03	-0.13139729
247	0xbe06f54b	-0.1317951
248	0xbe0b5a34	-0.13608629
249	0x3e4574dc	0.1928286
250	0x3b3dc931	0.002895903
251	0x3d80eb76	0.062949106
252	0x3e469eca	0.1939651
253	0x3ce1ca18	0.027562186
254	0xbdcb2047	-0.09918266
255	0x3c4d2fda	0.012523616
