trained_model/mc1_mc2/120_days_lookahead/pnet_checkpoint/pnet_450.pth (torch, 545278 bytes, 36 tensors)

network_smart.layer1.0.weight f4 [128, 330]
0	0xbc9304b2	-0.017946575
1	0x3d4628a7	0.048378613
2	0xbea70b61	-0.3262587
3	0xba2a13ee	-0.0006487955
4	0xbd236b45	-0.039897222
5	0xbf46763f	-0.7752418
6	0xbf0070c1	-0.5017205
7	0xbbebcaec	-0.007195821
8	0xbc6b5514	-0.014363546
9	0x3ca18651	0.019717367
10	0x3e07222e	0.13196632
11	0x3d023f0d	0.03179841
12	0x3d0b2a44	0.033975855
13	0xbe98edac	-0.2986883
14	0xbda032b2	-0.07822169
15	0x3cef2722	0.029193465
16	0xbf576f0b	-0.84153813
17	0xbf08463d	-0.53232175
18	0xbdabf13c	-0.08395621
19	0xba9ad18b	-0.0011811716
20	0xbc0c7ba4	-0.0085744
21	0x3e118d6a	0.14214101
22	0xbd19144b	-0.03737287
23	0x3ce2afb8	0.02767168
24	0xbe68cf10	-0.22735238
25	0xbcc890bf	-0.024483083
26	0xbcc3a787	-0.023883594
27	0xbf443244	-0.766392
28	0xbf154627	-0.5831017
29	0xbcb13e52	-0.021636162
30	0xbe22d085	-0.15899856
31	0xbd2b5723	-0.041831147
32	0x3e30f8aa	0.17282358
33	0x3c9e35d4	0.019312777
34	0x3da651f4	0.081211
35	0xbe63a641	-0.2223139
36	0x3d0a480c	0.033760116
37	0xbdd7f59c	-0.10544893
38	0xbf4917e2	-0.7855207
39	0xbf161eb4	-0.586406
40	0xbd540f2d	-0.051772285
41	0xbc374dfc	-0.0111880265
42	0xbcfa2c4f	-0.030538706
43	0xbc7cad94	-0.015422244
44	0xbd46dd0a	-0.048550643
45	0x3dd0f656	0.10203235
46	0xbe869f9e	-0.26293653
47	0xbcb4171f	-0.021983681
48	0xbdb339b3	-0.0875124
49	0xbf54d326	-0.83134687
50	0xbf00ffc8	-0.5039029
51	0x3c214054	0.009841997
52	0x3d5c8709	0.053839717
53	0xbd2a1985	-0.041528244
54	0x3d391edb	0.04519544
55	0xbcdfe7a3	-0.027332133
56	0x3d9153f4	0.07096091
57	0xbea0a7eb	-0.3137811
58	0x3bd8e235	0.006618763
59	0xbd1914cd	-0.037373353
60	0xbf544619	-0.8291946
61	0xbf0399c5	-0.5140651
62	0xbdb4c626	-0.08826856
63	0x3d81a9ed	0.06331239
64	0xbdbd4431	-0.09241522
65	0x3c5438ee	0.012953026
66	0x3c203201	0.009777547
67	0x3dd6245e	0.10456155
68	0xbe6f843a	-0.23390284
69	0xb98d6ba9	-0.0002697383
70	0xbc379c83	-0.011206749
71	0xbf516d74	-0.8180764
72	0xbf005b81	-0.50139624
73	0xbd9cd3ba	-0.07657571
74	0x3ba4b779	0.0050267545
75	0xbd4899e9	-0.048974905
76	0xbc0a2382	-0.008431317
77	0x3d6d7edf	0.05798232
78	0x3d52f87f	0.051506516
79	0xbe5262a0	-0.20545435
80	0x3c155b17	0.009115956
81	0xbc711167	-0.014713622
82	0xbf50d07a	-0.8156811
83	0xbefc99f7	-0.49336216
84	0xbd823bb0	-0.06359041
85	0x3df28d24	0.11843327
86	0xbcbf2828	-0.023334578
87	0x3ce80d82	0.028326754
88	0xbc4576e6	-0.012052273
89	0x3e08f15c	0.13373321
90	0xbe36beb6	-0.17846188
91	0xbc528da9	-0.012851157
92	0xbddc1142	-0.10745479
93	0xbf499d0b	-0.78755254
94	0xbf181465	-0.5940612
95	0xbd887786	-0.06663422
96	0x3d9e3ae6	0.07726078
97	0xbddb1828	-0.10697967
98	0x3c9c1c81	0.01905656
99	0x3d1d8c23	0.038463723
100	0x3ce41bb0	0.027845234
101	0xbe0c620a	-0.13709274
102	0xbd4ad45e	-0.049518935
103	0xbd6f901e	-0.05848705
104	0xbf3b2e0b	-0.7311713
105	0xbf16e2da	-0.589399
106	0xbd27c09c	-0.04095517
107	0xbcc3effb	-0.023918143
108	0xbd866e69	-0.06564028
109	0x3d234e71	0.03986973
110	0xbccff524	-0.025385447
111	0x3d86e8c3	0.065873645
112	0xbdcabbc5	-0.098990954
113	0x3af6f218	0.001884046
114	0xbc5e0a95	-0.013552328
115	0xbf3deeee	-0.741927
116	0xbf00da22	-0.50332844
117	0xbc105baf	-0.008810922
118	0x3e05658e	0.13027021
119	0xbb10d01f	-0.0022096706
120	0xbc04571e	-0.008077411
121	0x3d3efbc9	0.04662684
122	0x3ddddf93	0.10833659
123	0xbda2f3b3	-0.07956638
124	0xbd336609	-0.04379848
125	0xbd8f3d63	-0.069941305
126	0xbf47d92b	-0.7806575
127	0xbf05cdf2	-0.5226737
128	0xbcd224a7	-0.025652243
129	0xbd600b9d	-0.054698575
130	0xbceba228	-0.028763846
131	0xbb4b2152	-0.0030995202
132	0xbce4d097	-0.027931495
133	0x3e07d4dc	0.13264793
134	0xbdcf576a	-0.10124095
135	0xbd62fb86	-0.055415653
136	0xbde0f698	-0.10984534
137	0xbf504dd9	-0.81368786
138	0xbf09738c	-0.53691936
139	0xbca3c7f6	-0.01999281
140	0x3ced5a76	0.0289738
141	0xbdaa7588	-0.083231986
142	0xbc2580ac	-0.010101479
143	0xbb9d3bf3	-0.0047984063
144	0x3d552cd5	0.05204471
145	0xbdd351f6	-0.10318367
146	0x3cac8298	0.021058366
147	0xbcf5c732	-0.03000221
148	0xbf4c775c	-0.7986963
149	0xbf07c59f	-0.5303592
150	0xbc4b2870	-0.012399778
151	0x3d9171f8	0.07101816
152	0xbd8f5854	-0.06999269
153	0xbd13f3c3	-0.03612114
154	0x3d4b0a3a	0.0495703
155	0x3dc3f6d7	0.09568565
156	0xbd2d1a9a	-0.042261697
157	0xbd3b9280	-0.04579401
158	0xbd8e22f6	-0.06940262
159	0xbf405aa5	-0.7513831
160	0xbf0fa1cf	-0.56106275
161	0x3cf37c46	0.029722344
162	0xbe096657	-0.13417946
163	0xbda72c81	-0.08162785
164	0xbd36e73c	-0.044654116
165	0xbcad005a	-0.021118332
166	0x3dc8fa1c	0.098133296
167	0xbd7d0d58	-0.061780304
168	0x3cf4005d	0.02978533
169	0xbce58d33	-0.02802143
170	0xbf483d87	-0.78218883
171	0xbf15f021	-0.5856953
172	0xbc4cd791	-0.012502567
173	0xbd369c6d	-0.044582773
174	0xbc73b16d	-0.014873845
175	0xbc9723f0	-0.018449754
176	0xbcff7cd3	-0.03118745
177	0x3e0c08af	0.13675188
178	0xbd66f4bb	-0.056385737
179	0xbc5937dd	-0.013257948
180	0xbbbe2c69	-0.005803634
181	0xbf460222	-0.77347004
182	0xbf148549	-0.58015877
183	0x3c9d5674	0.019206263
184	0x3c8368ee	0.016041245
185	0x3c91f53b	0.01781713
186	0xbdf19506	-0.11796002
187	0xbcb70bfd	-0.022344584
188	0x3d68bcb3	0.056820583
189	0xbd9e9a97	-0.077443294
190	0x3d1cb4f5	0.03825851
191	0x3cccb5dd	0.024989063
192	0xbf52ca83	-0.8234026
193	0xbf07668a	-0.5289084
194	0xbd8bff3d	-0.06835792
195	0x3a8722d4	0.0010310062
196	0xbd81d559	-0.06339521
197	0xbddfe46e	-0.109322414
198	0x3d00b730	0.0314247
199	0x3e1f8221	0.15576984
200	0x3ce4f96e	0.027950969
201	0xbd3385d4	-0.0438288
202	0xbcd8ca1d	-0.026463563
203	0xbf4c6470	-0.79840755
204	0xbf0e3b29	-0.5555902
205	0x3b9a5be6	0.004710662
206	0x3dded0e7	0.10879689
207	0xbd933647	-0.07188087
208	0xbe0b6646	-0.13613233
209	0x3d437f7d	0.047729004
210	0x3dc3e280	0.09564686
211	0x3d83730c	0.06418428
212	0x3d745b89	0.059657607
213	0xbd4a0064	-0.04931678
214	0xbf4f7fbf	-0.810543
215	0xbf17a6d0	-0.5923891
216	0xbd798764	-0.060920134
217	0x3e058116	0.13037524
218	0xbc8ca68e	-0.017169263
219	0xbca40cde	-0.020025667
220	0xbd3a1893	-0.045433592
221	0x3d8d6e47	0.06905799
222	0x3c3037ab	0.01075546
223	0xbb9436e8	-0.004523147
224	0x3c2e1ddb	0.010627235
225	0xbf409f26	-0.7524284
226	0xbeff28a0	-0.49835682
227	0x3b5ac88f	0.0033383702
228	0x3e368aa9	0.17826332
229	0xbbd82a34	-0.006596828
230	0xbdb60fad	-0.08889709
231	0xbcb13cf9	-0.02163552
232	0x3dec7c04	0.115470916
233	0xbd46cd18	-0.048535436
234	0x3af50b97	0.0018695471
235	0xbdc1702c	-0.09445223
236	0xbf44a3b9	-0.7681232
237	0xbf057d2e	-0.52144134
238	0xbca40ce1	-0.020025672
239	0x3cbe472b	0.023227295
240	0xbd64f4db	-0.055897575
241	0xbd86f6c9	-0.06590039
242	0xbd079420	-0.033100247
243	0x3e3a7076	0.18206963
244	0x3ce0858e	0.027407434
245	0x3d0aef66	0.033919714
246	0xbdbdca22	-0.092670694
247	0xbf4100f1	-0.7539206
248	0xbf17f28e	-0.59354484
249	0xbd421f88	-0.04739335
250	0x3de956a2	0.11393477
251	0xbdabbd29	-0.08385689
252	0xbe0a646e	-0.13514873
253	0x3d16087a	0.036629178
254	0x3e263078	0.16229427
255	0xbd8b57e0	-0.0680387

network_smart.layer1.0.bias f4 [128]
0	0x3d95f1b7	0.07321494
1	0xbda747c1	-0.08167983
2	0x3ccdf12c	0.025139414
3	0x3b1b1e67	0.0023669244
4	0xbc688e74	-0.01419412
5	0x3deca872	0.11555566
6	0x3dc9fa0b	0.09862145
7	0x3da9f767	0.082991414
8	0xbc543acb	-0.01295347
9	0x3c9696c6	0.018382441
10	0xbe048a53	-0.12943392
11	0x3d78e3af	0.06076401
12	0xbcc38d39	-0.023871051
13	0xbe81ead3	-0.2537447
14	0x3df3dcf9	0.119073816
15	0x3c925408	0.017862335
16	0xbbebd8d7	-0.00719748
17	0x3d2297cf	0.039695557
18	0x3ce1f922	0.027584616
19	0xbdce728c	-0.10080442
20	0x3b8fa511	0.004383691
21	0x3cb17ae2	0.02166504
22	0x3de13384	0.10996154
23	0xbd876df9	-0.066127725
24	0x3bee9b15	0.007281671
25	0x3b350ede	0.002762727
26	0x3d44de47	0.048063543
27	0xbb779570	-0.003777828
28	0xbd2f9f5d	-0.04287659
29	0xbddca872	-0.10774316
30	0xbe0cfbda	-0.13767949
31	0xbd395d1f	-0.045254823
32	0xbd07d10d	-0.03315835
33	0x3da76406	0.08173375
34	0x3d1a6103	0.037690174
35	0x3b06f04b	0.0020590003
36	0xbe1e671b	-0.15469019
37	0x3d0829c6	0.033242963
38	0x3d2b32f1	0.04179663
39	0x3d4bb6a0	0.04973471
40	0x3d8237a5	0.063582696
41	0xbca9c2cc	-0.02072277
42	0x3d4e195a	0.050317146
43	0x3d2d7f46	0.042357706
44	0x3d4919a0	0.049096704
45	0x3c320b0b	0.010866891
46	0x3d41054a	0.047124185
47	0x3d74b3b7	0.059741702
48	0x3d91384c	0.07090816
49	0x3c2c1c14	0.010504741
50	0x3d9f82cc	0.077886194
51	0xbcb107d6	-0.021610182
52	0x3d21d886	0.039513133
53	0xbd3ecb92	-0.04658086
54	0x3d6949fc	0.056955323
55	0xbb8468ed	-0.0040408284
56	0x3c00617f	0.007835745
57	0xbd579f30	-0.052642047
58	0x3da109f6	0.07863228
59	0xbe238c03	-0.15971379
60	0x3d4f5c4f	0.05062514
61	0x3d377fed	0.044799734
62	0x3ddd18b7	0.107957296
63	0xbd3d9d9f	-0.046292897
64	0xbd607768	-0.054801375
65	0xbd6c3910	-0.057671607
66	0x3dd5fc73	0.104485415
67	0xbde0e171	-0.109804995
68	0x3c971e08	0.018446937
69	0x3de7ceeb	0.11318763
70	0xbc606614	-0.013696212
71	0x3da8b533	0.08237686
72	0xbcbf2081	-0.023330929
73	0xbe858ea5	-0.26085392
74	0x3d2d4c0f	0.042308863
75	0x3d0c0b61	0.03419054
76	0xbe1ba9fd	-0.15201564
77	0x394a71be	0.00019306593
78	0x3d1834a7	0.03715959
79	0x3c48c317	0.012253544
80	0x3bf3bfcb	0.007438635
81	0x3db23ad4	0.08702627
82	0x3db3de87	0.08782678
83	0xbcc84a58	-0.024449512
84	0xbd5f35a4	-0.054494515
85	0xbc0a81f0	-0.008453831
86	0x3d5213ac	0.05128829
87	0x3dba457a	0.09095283
88	0xbe0f4ad9	-0.13993396
89	0xbd3b4d58	-0.045728058
90	0xbe1a29a4	-0.15054947
91	0xbd1ee8f1	-0.03879637
92	0x3da25cac	0.07927832
93	0x3ddd8a0a	0.108173445
94	0xbd8c49eb	-0.06850036
95	0xbce96ce3	-0.028494304
96	0xb9538230	-0.00020171027
97	0xbe28dc99	-0.16490401
98	0x3d5b2ed4	0.053511456
99	0x3df904f2	0.12159146
100	0xbe2c7ccc	-0.16844481
101	0x3e0638a1	0.1310754
102	0x3d933657	0.07188099
103	0x3c228a86	0.009920722
104	0xbd3cf52a	-0.046132244
105	0xbc588341	-0.013214887
106	0x3d8f5baa	0.069999054
107	0xbc740848	-0.0148945525
108	0x3d98181b	0.07426473
109	0xbb36a897	-0.0027871483
110	0xbd44802d	-0.0479738
111	0x3b7d1306	0.0038616075
112	0x3bc8636f	0.006115369
113	0xbd61df40	-0.05514455
114	0x3d8a8ebb	0.06765505
115	0x3de51f7d	0.111876465
116	0x3c6a6cf8	0.014308207
117	0xbdbc0ae1	-0.091817625
118	0x3b019323	0.0019771538
119	0xbcc7816b	-0.024353703
120	0x3b87d813	0.004145631
121	0x3b142f20	0.0022611097
122	0x3d3b7e1e	0.04577457
123	0xbcaec6de	-0.021335062
124	0x3c876203	0.016526228
125	0x3ba70a71	0.0050976803
126	0x3ce9cc1b	0.028539708
127	0xbc3f646e	-0.011681659

network_smart.layer2.0.weight f4 [128, 128]
0	0xbb8bfd21	-0.0042721187
1	0x3d585cda	0.052822925
2	0x3c1aa112	0.009437816
3	0x3d4e7041	0.050400022
4	0xbdabe1af	-0.08392655
5	0x3e055bbe	0.13023278
6	0x3e919bf3	0.28439292
7	0xbe6b533b	-0.22980969
8	0x3ddd00a9	0.107911415
9	0xbd070db8	-0.032972068
10	0xbd682054	-0.056671456
11	0xbc8fb387	-0.01754166
12	0x3cb28c7c	0.021795504
13	0x3d71d4d2	0.059040852
14	0xbdce19c7	-0.100635104
15	0x3deaed7b	0.11471077
16	0x3c097953	0.008390742
17	0xbe087520	-0.1332593
18	0x3d4c755c	0.04991661
19	0xbe5a4c94	-0.21318275
20	0xbd8eaf57	-0.06967037
21	0x3d176778	0.03696391
22	0xbdbee723	-0.093214296
23	0xbd445748	-0.0479348
24	0xbe0e9e3d	-0.1392755
25	0xbe0ebca2	-0.13939145
26	0x3d2c9a73	0.04213948
27	0xbd5359be	-0.051599257
28	0x3d9fe5e2	0.078075185
29	0x3dc07d4c	0.093988985
30	0x3d190b81	0.037364487
31	0xbd2069fd	-0.03916358
32	0xbd798a21	-0.060922746
33	0x3cf9d39b	0.03049641
34	0x3d3fd9ad	0.04683845
35	0xbdab5924	-0.083666116
36	0x3de12353	0.10993066
37	0xbd9f9034	-0.077911764
38	0xbd9a7dd9	-0.07543535
39	0x3dbd6c1a	0.09249134
40	0xbde1b883	-0.11021521
41	0xbd99b766	-0.075056836
42	0xbc64d911	-0.013967768
43	0x3c12bdae	0.008956356
44	0xbdc26d23	-0.094934724
45	0xbdbffcab	-0.093743645
46	0x3d8280be	0.06372212
47	0xbdf50e7e	-0.11965655
48	0x3d4edd88	0.050504237
49	0xbe39c53b	-0.18141644
50	0x3ccb98ee	0.024853196
51	0xbce2d8ec	-0.027691327
52	0xbcce73da	-0.025201727
53	0x3d84674d	0.064650156
54	0xbd6c14a9	-0.05763689
55	0x3e4ab2e0	0.19794798
56	0xbc8b8714	-0.017032184
57	0x3dc7d797	0.097579174
58	0xbc8c0fda	-0.017097402
59	0x3e136d3e	0.14397141
60	0xbe644042	-0.22290137
61	0xbd7397c6	-0.059470914
62	0x3d9319f6	0.07182686
63	0x3da43354	0.080176026
64	0xbd9179e5	-0.07103328
65	0x3d93e546	0.07221465
66	0xbce9656e	-0.028490748
67	0x3b520e9c	0.0032052165
68	0xbd6753af	-0.05647629
69	0x3d581ae4	0.05276002
70	0x3ca4222b	0.020035824
71	0x3da1b3f2	0.0789565
72	0x3cd51274	0.026009776
73	0x3d374a4e	0.044748597
74	0x3e0643fd	0.13111873
75	0x3bbbc22f	0.0057299356
76	0x3e54534c	0.207349
77	0xbd1e6c35	-0.038677413
78	0x3e062855	0.13101323
79	0xbebfbc07	-0.3744814
80	0x3ce199e1	0.027539195
81	0xbc76471f	-0.015031605
82	0xbe3425d0	-0.1759255
83	0x3d93c969	0.0721615
84	0x3c3fe112	0.011711376
85	0xbd82db4b	-0.06389483
86	0x3d134b88	0.035960704
87	0xbd0023d4	-0.03128417
88	0x3bb22da8	0.0054375716
89	0x3ca4bf2f	0.020110695
90	0x3e052f12	0.13006237
91	0x3c6ca1df	0.01444289
92	0x3d8c47b5	0.068496145
93	0xbcc2f9bc	-0.023800723
94	0x3cc99439	0.02460681
95	0xbdbaa626	-0.091137215
96	0xbd8f9b29	-0.07012016
97	0xbd15b363	-0.03654803
98	0x3d03fe58	0.032224983
99	0x3edf93a8	0.4366734
100	0x3d9bf4b5	0.076150335
101	0xbd26f56f	-0.040761407
102	0x3dafb8d7	0.08580177
103	0xbd4efd69	-0.05053464
104	0x3cd9398d	0.0265167
105	0x3d050bfc	0.032482132
106	0xbdd66d67	-0.104700856
107	0xbc003287	-0.007824547
108	0xbdc99783	-0.09843352
109	0xbdda05cf	-0.10645639
110	0xbd682ee4	-0.056685343
111	0x3e9c956d	0.30582753
112	0x3da62532	0.08112563
113	0xbd67db2c	-0.056605503
114	0xbf6631fa	-0.8992001
115	0x3e05bb0f	0.13059638
116	0xbe45da5b	-0.19321577
117	0xbc3b515f	-0.011432975
118	0xbd21cb71	-0.039500657
119	0xbd084b06	-0.033274673
120	0xbe459974	-0.19296819
121	0xbd8c8a82	-0.06862356
122	0x3d191366	0.037372015
123	0x3d44a8ff	0.04801273
124	0xbd8bde53	-0.06829514
125	0xbbedc539	-0.007256177
126	0x3de3a045	0.11114553
127	0xbdc588d9	-0.09645242
128	0x3de41aa1	0.111378916
129	0xbdcda4ff	-0.10041236
130	0x3d99ca8d	0.075093366
131	0xbbd411f0	-0.006471865
132	0xbd1da5ee	-0.03848832
133	0xbdca8add	-0.09889767
134	0x3d56a927	0.05240741
135	0xbdca13a6	-0.09867029
136	0x3e33f7c6	0.17574987
137	0x3d37dd6f	0.04488891
138	0xbd8a094e	-0.06740056
139	0xbd8602fd	-0.06543539
140	0xbe0ca4e2	-0.13734773
141	0xbd77b44e	-0.060474686
142	0x3dd3fbcc	0.10350761
143	0xbd952ac8	-0.072835505
144	0x3d4d90cc	0.050186917
145	0xbc3c8217	-0.011505625
146	0xbe3532d9	-0.17695178
147	0x3c169e4b	0.009193013
148	0x3e2c575b	0.16830198
149	0xbde7cd11	-0.1131841
150	0x3e0d02af	0.13770555
151	0x3d1f3d49	0.038876805
152	0x3e8b06ca	0.27153617
153	0x3cbf268b	0.023333808
154	0xbda85b53	-0.08220544
155	0x3dc43ec2	0.095822826
156	0xbcac6f42	-0.021049146
157	0x3d9453b3	0.07242527
158	0x3d442709	0.04788879
159	0xbd5c3038	-0.053756922
160	0x3db6b08f	0.08920395
161	0x3d9ce41a	0.076606944
162	0xbeb1f478	-0.34756827
163	0x3e486635	0.19570239
164	0xbe57fac1	-0.21091749
165	0x3cd2b05a	0.025718857
166	0xbd2d8bb1	-0.04236955
167	0x3e941888	0.28924966
168	0x3cfff5c4	0.03124512
169	0xbc8248c8	-0.015903845
170	0xbc75d78d	-0.015005005
171	0x3ddd6c65	0.1081169
172	0xbdbcfa3a	-0.092274144
173	0xbd69dfab	-0.057098072
174	0xbcb21bfc	-0.02174186
175	0x3c808975	0.015690545
176	0x3d85a68e	0.065259084
177	0x3d3f740a	0.046741523
178	0x3d7aa03e	0.061187975
179	0xbc144f5a	-0.009052122
180	0xbe668124	-0.225102
181	0xbc972719	-0.01845126
182	0x3d595869	0.05306283
183	0xbe61b531	-0.22041775
184	0xbdbb1033	-0.09133949
185	0xbc9acdb4	-0.018896915
186	0x3d9a50c0	0.07534933
187	0x3e59dcb6	0.21275601
188	0xbd5c0e95	-0.053724844
189	0x3ddd9b72	0.108206645
190	0xbc3e9b7a	-0.011633748
191	0x3da74e76	0.08169262
192	0xbd8d81e6	-0.06909542
193	0x3deccbcc	0.11562309
194	0x3d35bf27	0.04437175
195	0xbdad0aa2	-0.08449294
196	0x3d38ddcf	0.04513341
197	0xbd31af13	-0.043379854
198	0xbd8f85fd	-0.07007978
199	0x3d9647bb	0.073379
200	0x3db7d92a	0.08976968
201	0xbe2699e0	-0.16269636
202	0x3d177e88	0.036985904
203	0x3caca36a	0.021074016
204	0x3e19e50a	0.15028778
205	0xbd84454a	-0.06458528
206	0x3e485354	0.19563037
207	0x3e98dd7f	0.29856488
208	0x3bd519b1	0.006503307
209	0x3c1889c7	0.009310192
210	0xbd985790	-0.07438576
211	0x3bf42021	0.007450119
212	0xbd6d6823	-0.05796064
213	0xbdbdace9	-0.092614956
214	0xbb82ae77	-0.003988083
215	0x3e0131c6	0.12616643
216	0xbe4c9dad	-0.19982024
217	0xbc895329	-0.016763287
218	0xbe26efd8	-0.1630243
219	0x3d77d057	0.060501423
220	0x3dafc78f	0.08582985
221	0xbb8ed96e	-0.0043594157
222	0xbdd0a48e	-0.10187636
223	0x3da17444	0.07883504
224	0xbd5ec0fb	-0.05438326
225	0xbe779afb	-0.24180214
226	0x3d846043	0.06463673
227	0xbdd63c66	-0.10460739
228	0xbc5fdf52	-0.013664084
229	0x3e229e19	0.15880622
230	0xbe131399	-0.14362945
231	0x3d87c47c	0.06629273
232	0xbdc338ea	-0.0953234
233	0x3da7c74e	0.08192311
234	0xbc0a7634	-0.008451033
235	0x3cf7cc8c	0.030248903
236	0xbd7f28b0	-0.062294662
237	0xbcd1080e	-0.025516536
238	0xbd35ad31	-0.04435462
239	0xbd225f1b	-0.03964148
240	0x3cfe1b53	0.031018889
241	0xbc119d19	-0.008887553
242	0x3d3b8056	0.045776688
243	0xbd244c14	-0.040111616
244	0x3cf92d78	0.030417189
245	0x3cc95b4b	0.024579665
246	0x3bb6992a	0.005572458
247	0x3d206e52	0.03916771
248	0x3dd4afae	0.10385071
249	0x3d8c0963	0.06837728
250	0xbd1f2fab	-0.03886382
251	0xbc8b90bd	-0.01703679
252	0xbe6f76ba	-0.23385134
253	0xbe85908a	-0.26086837
254	0xbd10e1ac	-0.035371467
255	0xbb72a663	-0.0037025444

network_smart.layer2.0.bias f4 [128]
0	0xbe1b8a19	-0.15189399
1	0x3d79f174	0.061021283
2	0x3dcbeaf5	0.09956924
3	0x3d896cec	0.06710228
4	0x3d4766aa	0.048681892
5	0xbc2f082b	-0.0106831
6	0xbc34b132	-0.011028575
7	0xbddee616	-0.10883729
8	0x3d956907	0.07295423
9	0xbd90f204	-0.07077411
10	0xbde5dff1	-0.11224354
11	0x3c8b0d45	0.0169741
12	0x3d6c8207	0.05774119
13	0xbd2ee11d	-0.042695154
14	0x3d04e0bc	0.032440886
15	0xbcad271d	-0.021136815
16	0xbc52bfcc	-0.012863111
17	0x3d81df25	0.063413896
18	0xbc6ec56a	-0.014573434
19	0x3af3f48f	0.0018612313
20	0xbc9b43d3	-0.01895324
21	0xbd1e53ef	-0.038654264
22	0xbcc6f488	-0.024286523
23	0x3db0c550	0.086313844
24	0x3daf933f	0.08573007
25	0x3d36202e	0.044464283
26	0xbe640a65	-0.2226959
27	0xbd840de7	-0.06447964
28	0xbd9da4ad	-0.07697425
29	0xbd8c25d7	-0.06843155
30	0xbcf5971f	-0.029979287
31	0xbcc76c20	-0.02434355
32	0xbd89344e	-0.066994295
33	0x3d92abd1	0.07161678
34	0x3d891549	0.06693513
35	0xbda7d3ce	-0.081946954
36	0x3d0ce8b7	0.03440162
37	0x3d83f66f	0.06443488
38	0xbd65042d	-0.055912185
39	0xbdc08afb	-0.094015084
40	0xbd23b8b2	-0.03997106
41	0xbd2bbe69	-0.041929636
42	0x3d786dca	0.060651578
43	0xbd952393	-0.07282176
44	0xbdaa7085	-0.08322243
45	0xbd4fe518	-0.05075559
46	0x3d5f2010	0.054473937
47	0x3d7d37e4	0.06182088
48	0x3db73142	0.08944942
49	0xbcf84181	-0.030304672
50	0x3c5a3cc3	0.013320151
51	0xbe202f9a	-0.15643159
52	0xbd6bddf1	-0.057584707
53	0xbd16128a	-0.036638774
54	0x3dbfc33e	0.09363411
55	0xbcf2a622	-0.029620234
56	0x3ce00d38	0.027350053
57	0xbde3638f	-0.11102974
58	0x3d4ce0f5	0.050019223
59	0x3d9b1dcf	0.07574045
60	0xbe19a0a7	-0.1500269
61	0xbd109cb8	-0.03530571
62	0xbd946e4e	-0.072476014
63	0xbd3e2e9d	-0.046431173
64	0xbcfc3d6e	-0.03079101
65	0x3d51a978	0.05118701
66	0x3d1e7a97	0.03869113
67	0x3d30184e	0.04299193
68	0x3da0fb84	0.07860473
69	0xbca229ba	-0.019795287
70	0xbe377fed	-0.17919894
71	0x3d942df5	0.07235328
72	0x3d511091	0.05104119
73	0x3dd42f80	0.103606224
74	0x3d7d00f7	0.0617685
75	0x3d9d3590	0.07676232
76	0xbd6f4fd7	-0.05842575
77	0x3d7fae4b	0.062422078
78	0x3cb8d9a2	0.022564713
79	0xbd1c71a2	-0.038194306
80	0xbd88a4d9	-0.06672067
81	0xbcb4cfd4	-0.022071756
82	0x3da46d5e	0.08028673
83	0x3d4df9fe	0.05028724
84	0x3d6c546c	0.0576977
85	0x3cb4c8e3	0.022068447
86	0x3db77e76	0.089596674
87	0x3d187685	0.037222404
88	0x3c85566d	0.016276563
89	0xbd902c03	-0.070396446
90	0xbe5bd294	-0.21467048
91	0xbd5bd278	-0.053667516
92	0xbdc18e06	-0.09450917
93	0xbd912677	-0.07087415
94	0x3d18ee62	0.037336715
95	0x3d03a783	0.032142173
96	0xbd508338	-0.05090639
97	0xbd2dc8b2	-0.042427726
98	0xbd4fb47d	-0.050709236
99	0xbd93b096	-0.072114155
100	0xbb76a234	-0.0037633302
101	0x3d0bb02a	0.03410355
102	0x3d52e64a	0.051489152
103	0xbe96fa52	-0.29487854
104	0x3ddd6c8f	0.108117215
105	0xbb139ce7	-0.002252394
106	0x3da63573	0.081156634
107	0xbd35498a	-0.044259585
108	0xbd0da18d	-0.034577895
109	0x3d937e0f	0.07201778
110	0x3db0684d	0.08613644
111	0x3dface07	0.12246328
112	0x3c09f075	0.008419146
113	0x3dac29db	0.08406421
114	0x3ce7b94a	0.028286595
115	0xbdbb5e90	-0.09148896
116	0xbdaf53d8	-0.08560914
117	0xbe37ea52	-0.1796048
118	0xbdc44e1a	-0.09585209
119	0xbc6cd700	-0.014455557
120	0xbd3c8df8	-0.04603383
121	0xbd8c4cb3	-0.06850567
122	0xbbf268a1	-0.0073977266
123	0x3dead57e	0.11466502
124	0xbd09257b	-0.03348301
125	0x3d952709	0.07282836
126	0xbd99903a	-0.07498212
127	0xbdb73048	-0.08944756

network_smart.layer3.0.weight f4 [48, 128]
0	0x3db1d5aa	0.08683331
1	0xbe18f4be	-0.14937112
2	0x3d59ec00	0.053203583
3	0xbda21b67	-0.07915383
4	0x3dacbb89	0.08434207
5	0xbd5094b2	-0.050923057
6	0x3da21533	0.079142
7	0x3e447f3f	0.19189166
8	0x3d6f8e45	0.05848529
9	0xbde09f3e	-0.10967873
10	0x3e6cef2c	0.23138112
11	0xbcf21860	-0.029552639
12	0x3db59108	0.08865553
13	0xbd16b0da	-0.036789753
14	0x3dc2d47f	0.09513187
15	0x3cbe812a	0.02325495
16	0xbd9069f3	-0.07051458
17	0xbd11e43a	-0.035618044
18	0x3d8967f1	0.067092784
19	0x3d5afcde	0.05346381
20	0xbdb11313	-0.08646216
21	0x3d9b8317	0.07593363
22	0x3d379090	0.0448156
23	0x3e153950	0.14572644
24	0x3d812ed7	0.06307762
25	0xbe4563fa	-0.1927642
26	0x3f432d4f	0.7624101
27	0x3d1fb8cd	0.0389946
28	0x3d7f60f8	0.062348336
29	0xbced392e	-0.02895793
30	0x3d49beca	0.049254216
31	0xbd7347c9	-0.05939463
32	0x3d88bcb9	0.06676621
33	0xbda760b1	-0.08172739
34	0xbd062b14	-0.032755926
35	0xbb278698	-0.0025562402
36	0xbde17e12	-0.11010374
37	0x3d85414a	0.065065935
38	0x396656de	0.0002196687
39	0x3d3e6d39	0.04649088
40	0x3dafd71a	0.08585949
41	0x3e2d2ab5	0.16910823
42	0x3d029094	0.03187616
43	0x3d85ad9b	0.06527253
44	0x3e5e10aa	0.21686044
45	0x3dc047ae	0.09388672
46	0x3d7b3ac6	0.061335348
47	0x3da22b45	0.07918409
48	0x3d5b9246	0.053606294
49	0xbeb271e5	-0.3485252
50	0x3d1f8bb1	0.03895158
51	0x3d0276cb	0.03185157
52	0x3c83cccd	0.016088868
53	0x3cdacb92	0.026708398
54	0xbcaabda2	-0.020842377
55	0x3dec2a5b	0.11531516
56	0x38f990aa	0.00011900191
57	0x3cb3ada0	0.021933377
58	0x3d43dabd	0.047816027
59	0xbe5ef5fc	-0.21773523
60	0xbe8419ef	-0.25801036
61	0x3dc93471	0.098244555
62	0x3d9c52c9	0.076329775
63	0x3d8bffa4	0.06835869
64	0xbd0b3ce7	-0.033993628
65	0xbc9d42e3	-0.019196933
66	0x39b6929a	0.00034822972
67	0x3dac6972	0.084185496
68	0x3d0a06eb	0.033698004
69	0x3d1ddd78	0.038541287
70	0x3ee1efa6	0.4412815
71	0x3dfcb92e	0.12340008
72	0x3dadcd41	0.08486415
73	0x3de656b0	0.11247003
74	0x3b9cfe6c	0.0047910716
75	0xbd51e414	-0.051242903
76	0xbd95fe1f	-0.073238604
77	0x3ba59052	0.0050526047
78	0x3da96a2f	0.08272206
79	0xbdf1ad8c	-0.118006796
80	0x3cc04931	0.0234724
81	0xbd4cc385	-0.04999115
82	0x3e40cfd0	0.18829274
83	0x3d83a28d	0.064274885
84	0x3d5ecc44	0.05439402
85	0xbd2f0a70	-0.042734563
86	0x3daab15a	0.083346084
87	0xbd73a460	-0.059482932
88	0x3e9d0f47	0.30675718
89	0x3dc8b3d3	0.09799924
90	0xbe7f7d7a	-0.2495021
91	0x3d988b6b	0.07448467
92	0x3dcc6239	0.09979672
93	0xbe9f179e	-0.31072706
94	0x3e8d63bc	0.27615154
95	0xbbdf0a8d	-0.0068066777
96	0x3d3afa13	0.045648646
97	0xbd97dbff	-0.07415008
98	0x3d27d6f8	0.040976495
99	0x3e65cdd3	0.22441797
100	0x3d1db9ab	0.038507145
101	0x3e19059b	0.14943545
102	0xbd0aed22	-0.033917554
103	0x3bbc5c92	0.00574834
104	0x3e3ce5e7	0.18447076
105	0x3d898fa9	0.06716854
106	0xbcac9e30	-0.021071523
107	0xbc2f8a16	-0.010714075
108	0x3d008991	0.031381194
109	0x3d00b0c3	0.031418573
110	0x3bb75112	0.005594381
111	0x3b21f9bf	0.002471551
112	0xbd377719	-0.044791315
113	0x3d0dfe72	0.034666486
114	0x3d2a3dba	0.041562773
115	0xbda41a3c	-0.08012816
116	0xbe2d9277	-0.16950403
117	0xbe0b28b1	-0.13589741
118	0x3d9d98c2	0.07695152
119	0xbd9511f4	-0.07278815
120	0xbd705173	-0.058671426
121	0x3b785d09	0.003789725
122	0x3cac89f8	0.021061882
123	0xbc274742	-0.01020986
124	0xbd6ade30	-0.0573408
125	0x3d6321ef	0.055452283
126	0x3c501f4d	0.012702775
127	0x3d6f7966	0.058465384
128	0xbd9e1688	-0.07719141
129	0xbe660794	-0.22463828
130	0xbc7a5eb0	-0.015281364
131	0xbe001eee	-0.12511799
132	0xbd9efc75	-0.07762996
133	0x3d5be4cb	0.05368499
134	0xbda3a50b	-0.07990464
135	0xbd9f3221	-0.07773233
136	0xbcca03b4	-0.024659969
137	0x3dd2a89e	0.102860674
138	0x3d8004f8	0.06250948
139	0xbd771511	-0.060322825
140	0xbd7f772c	-0.06236951
141	0xbcf33aaf	-0.029691068
142	0xbb57f483	-0.0032952137
143	0x3c0ee151	0.008720712
144	0x3d2fe874	0.042946294
145	0xbee5ba74	-0.44868815
146	0x3d88af8a	0.066741064
147	0x3deb82c4	0.11499551
148	0x3d4d8cd4	0.050183132
149	0xbd004112	-0.031312056
150	0xbd8d53a6	-0.0690072
151	0xbdeffbf4	-0.11717978
152	0xbe23d606	-0.15999612
153	0x3c80d0e4	0.015724607
154	0xbd52d805	-0.051475544
155	0x3d9a159d	0.07523654
156	0x3d8bcd70	0.068262935
157	0x3b287b0f	0.0025708114
158	0xbce67b60	-0.028135002
159	0xbd0bb3c0	-0.03410697
160	0xbc8bc708	-0.017062679
161	0xbe019387	-0.12653933
162	0xbd7ee00e	-0.062225394
163	0x3ce9acb0	0.028524727
164	0xbd8d6580	-0.06904125
165	0xbd4b074c	-0.049567506
166	0xbaf81a05	-0.0018928653
167	0x3dc13b41	0.0943513
168	0xbef494a4	-0.47769654
169	0xbcf7033a	-0.030152906
170	0xbd314342	-0.043277033
171	0x3d2fb048	0.042892724
172	0x3d5d5c6b	0.054043215
173	0x3c73243a	0.01484018
174	0xbc242555	-0.010018666
175	0x39250d57	0.00015740596
176	0xbd61d485	-0.055134315
177	0x3d0234d3	0.03178866
178	0x3d202289	0.039095435
179	0xbd0252e7	-0.031817343
180	0xbce614cd	-0.02808609
181	0xbc8ea716	-0.017413657
182	0x3c8ec8e8	0.017429784
183	0x3d9067b9	0.070510335
184	0xbe8005ed	-0.2500452
185	0xbd9547f7	-0.07289117
186	0xbdd8555b	-0.10563155
187	0xbc8ba1f8	-0.017045006
188	0x3dff267f	0.124585144
189	0xbc9c13c3	-0.019052392
190	0x3d9de5d0	0.07709849
191	0xbd6c5487	-0.0576978
192	0xbc45667b	-0.012048359
193	0xbcb25f24	-0.021773882
194	0x3ccf2313	0.02528528
195	0xbad03002	-0.0015883448
196	0xbd573975	-0.05254503
197	0xbdcda446	-0.10041098
198	0x3d73dfe3	0.059539687
199	0xbdc0784f	-0.09397947
200	0xbdb64275	-0.088993944
201	0xbd1fc958	-0.039010376
202	0xbdd216e9	-0.10258276
203	0xbe153dd0	-0.14574361
204	0x3b96128b	0.004579847
205	0xba84acba	-0.0010122277
206	0xbe3fb63e	-0.18721864
207	0xbe5d3b89	-0.21604742
208	0x3d2a5f15	0.041594584
209	0x3886e472	6.432169e-05
210	0x3a0ca0dc	0.0005364546
211	0xbdd9caa4	-0.10634354
212	0x3b8a9252	0.0042288685
213	0xbd158d8f	-0.036511954
214	0xbc99c6f2	-0.018771622
215	0xbda0835a	-0.07837553
216	0xbdb34162	-0.08752705
217	0x3db9d93a	0.09074636
218	0xbd15e096	-0.036591135
219	0x3dcbee38	0.09957546
220	0x3e0e8fff	0.13922118
221	0x3d6b3a2f	0.057428535
222	0xbe4bc171	-0.19898011
223	0x3d0c203c	0.03421043
224	0xbd87210b	-0.06598099
225	0xbd989a02	-0.0745125
226	0xbd250692	-0.04028947
227	0x3c6751bb	0.014118607
228	0x3c95ca1b	0.018284848
229	0xbe868259	-0.26271322
230	0x3d5a999f	0.05336916
231	0x3c8884e4	0.01666493
232	0x3d8b4669	0.06800539
233	0xbda26708	-0.07929808
234	0xbdbf2e0c	-0.093349546
235	0xbd95dd30	-0.07317579
236	0xbd9831dd	-0.07431386
237	0xbed8ee4c	-0.42369306
238	0xbdf3a05a	-0.11895819
239	0xbd9f4af3	-0.07777967
240	0xbc567873	-0.013090241
241	0xbcb69c0b	-0.022291204
242	0xbdd16005	-0.102233924
243	0xbd1834c0	-0.03715968
244	0x3c200a41	0.00976807
245	0x3d9c28ad	0.07624946
246	0xba977de6	-0.0011557906
247	0x3c3922fb	0.011299844
248	0xbd80bffb	-0.06286617
249	0x3d9eaf72	0.07748307
250	0xbe6be4a4	-0.23036438
251	0x3d42a5ce	0.047521405
252	0x3ccda62a	0.025103647
253	0xbe83515b	-0.25648007
254	0x3da867cd	0.082229234
255	0x3cda7a12	0.026669536

network_smart.layer3.0.bias f4 [48]
0	0x3d6bd906	0.057580017
1	0xbe920767	-0.28521273
2	0x3cd6bb0e	0.026212242
3	0xbd3759e3	-0.044763457
4	0x3cb6b1d4	0.022301592
5	0xbdc2fe99	-0.09521217
6	0x3dae05c4	0.084971935
7	0x3c85156c	0.016245566
8	0xbb4d17bf	-0.0031294671
9	0xbd753223	-0.059862267
10	0x3d7fd3ce	0.062457852
11	0x3d9b88ce	0.07594453
12	0xbdc43f61	-0.09582401
13	0x3d2c5b50	0.04207927
14	0xbd7c6938	-0.061623782
15	0x3d463055	0.048385937
16	0x3ca52df6	0.020163517
17	0xbd2ca1ef	-0.04214662
18	0xbd3fd1da	-0.04683099
19	0xbe1a242b	-0.1505286
20	0x3db4d8af	0.088303916
21	0xbd21c518	-0.039494604
22	0xbd29dfb7	-0.041473117
23	0xbbb27fe1	-0.0054473733
24	0xbc1960dc	-0.009361472
25	0x3d347959	0.04406104
26	0x3d914f63	0.0709522
27	0xbe4c7e5f	-0.19970082
28	0x3ca35a18	0.019940421
29	0x3d32c029	0.04364029
30	0x3d10fc64	0.03539695
31	0xbd8963a4	-0.06708458
32	0x3c97bcec	0.018522702
33	0x3ca297d5	0.01984779
34	0x3d3678dd	0.044548858
35	0xbd2c9126	-0.04213061
36	0x3da87af4	0.082265764
37	0x3d995a39	0.07487912
38	0x3d7e82bf	0.062136408
39	0xbd140ec2	-0.036146887
40	0xbb17ac77	-0.0023143569
41	0x3d8d86ab	0.069104515
42	0xbd823ab7	-0.06358855
43	0x3ca9003e	0.020629998
44	0x3c6d1230	0.014469668
45	0xbc5e4598	-0.013566397
46	0xbc6207d1	-0.013795809
47	0x3d9cccce	0.07656251

fc_smart.weight f4 [64, 48]
0	0xbd998067	-0.07495194
1	0x3e36e511	0.1786082
2	0xbd981ec8	-0.07427746
3	0x3b9842ab	0.0046466193
4	0xbe95bfa3	-0.2924777
5	0xbdaaabb5	-0.08333532
6	0x3dcac6cb	0.09901198
7	0x3e36a2eb	0.17835586
8	0xbea2999d	-0.31757823
9	0x3d4e2573	0.050328683
10	0xbdc2c79a	-0.09510727
11	0x3e02ad02	0.1276131
12	0xbdf451f5	-0.119296946
13	0x3e3b89f3	0.18314342
14	0xbec41099	-0.38293913
15	0x3e0b300c	0.13592547
16	0xbe5d6e90	-0.21624207
17	0xbe065a8b	-0.13120477
18	0xbdbb4ada	-0.09145136
19	0x3d2383d1	0.03992063
20	0x3e7681bb	0.24072926
21	0x3de9923b	0.114048444
22	0x3c97af3b	0.018516174
23	0x3df3e11d	0.11908171
24	0x3df6bb4c	0.12047443
25	0xbe4a75af	-0.19771455
26	0x3deaec9f	0.11470913
27	0x3d5fe3fc	0.054660782
28	0xbee70e14	-0.45127928
29	0xbed522df	-0.41628167
30	0xbea60f69	-0.32433632
31	0x3c45ae92	0.012065547
32	0xbe7ed2c5	-0.2488509
33	0xbef4172c	-0.4767393
34	0x3dfa4648	0.12220436
35	0xbd454b2f	-0.048167404
36	0x3d8c77c5	0.06858782
37	0x3de34046	0.110962436
38	0x3d3f2091	0.046661917
39	0xbdaf6a42	-0.08565189
40	0x3e52bb6d	0.2057931
41	0x3c15878e	0.009126557
42	0x3dab5b96	0.08367078
43	0xbf33f6c8	-0.70298433
44	0x3e7c5486	0.24641618
45	0x3d98e014	0.074646145
46	0xbd8aa3c1	-0.06769515
47	0x3d977ad2	0.07396473
48	0xbe0400a5	-0.12890871
49	0xbdb08049	-0.086182185
50	0xbe2d58e2	-0.16928437
51	0x3bc96660	0.0061462373
52	0x3f02d174	0.5110085
53	0x3ecf6bb1	0.4051185
54	0xbd917779	-0.07102866
55	0x3e3ffbf2	0.18748453
56	0xbe46e4ef	-0.19423269
57	0x3b3907e9	0.0028233475
58	0x3b49582a	0.0030722716
59	0x3ea397a9	0.31951645
60	0x3d8f4bb3	0.0699686
61	0xbd969c3d	-0.07354019
62	0xbf52580f	-0.82165617
63	0xbde68b29	-0.112570114
64	0xbddbe31f	-0.10736679
65	0xbdb09e4e	-0.08623944
66	0x3ea6b714	0.32561553
67	0x3e9c5220	0.30531406
68	0x3d7d9ae0	0.06191528
69	0xbf032b30	-0.51237774
70	0xbdcda432	-0.100410834
71	0xbdbcd7cc	-0.092208475
72	0xbae875da	-0.0017735318
73	0xbd873a8d	-0.066029646
74	0x3e23359d	0.1593842
75	0xbdaaeb28	-0.08345634
76	0x3e3bdd49	0.18346132
77	0xbef8990c	-0.48554265
78	0xbdaa243d	-0.08307693
79	0xb9bd0212	-0.00036050432
80	0xbeb99b77	-0.36251423
81	0xbef2e595	-0.47440782
82	0x3ebe1531	0.37125543
83	0xbe27144a	-0.16316333
84	0x3e2bd9b2	0.16782263
85	0x3e763355	0.24043019
86	0xbc340956	-0.010988554
87	0xbe302be5	-0.17204244
88	0xbdb5d2ce	-0.088780984
89	0xbe04dc56	-0.12974676
90	0x3e64e563	0.22353129
91	0xbe2f8c6d	-0.17143412
92	0x3e15abab	0.14616267
93	0x3df8c12b	0.12146219
94	0xbde39982	-0.11113264
95	0xbcbf3f3d	-0.023345584
96	0x3bfbf59d	0.0076891915
97	0xbcaf4de9	-0.021399455
98	0xbe188a14	-0.14896423
99	0x3d85987a	0.06523223
100	0x3e8118be	0.2521419
101	0x3df37b9a	0.118888095
102	0xbe029dae	-0.12755463
103	0xbddec992	-0.1087829
104	0x3e9dc1f8	0.3081205
105	0x3d61a354	0.055087402
106	0x3dde8423	0.10865047
107	0xbdf2ebbb	-0.11861368
108	0xbd0fe5ba	-0.035131194
109	0xbe3d23b0	-0.18470645
110	0x3e84dea6	0.25951117
111	0xbc9760d6	-0.018478792
112	0x3e065f61	0.13122322
113	0x3ddc746f	0.107643954
114	0x3c872ae7	0.01649995
115	0xbccf69de	-0.025319036
116	0xbe7e87f4	-0.2485655
117	0xbe581bea	-0.21104398
118	0x3d95aa30	0.07307851
119	0x3da8ba8b	0.08238705
120	0xbcd44ac6	-0.025914561
121	0x3e98f2e3	0.29872808
122	0xbde2c0fe	-0.110719666
123	0xbdaa6c13	-0.08321395
124	0x3e97fd28	0.2968533
125	0x3e8d8cf1	0.27646592
126	0x3e76251b	0.24037592
127	0xbc820dee	-0.015875783
128	0x3ea06f41	0.3133488
129	0x3eb67ce9	0.35642174
130	0xbe0fd8d7	-0.14047562
131	0x3e28555e	0.16438815
132	0xbda6088f	-0.08107101
133	0xbdeb84d6	-0.11499946
134	0x3b5d8547	0.0033801363
135	0x3e32c450	0.174577
136	0xbe0140db	-0.12622397
137	0x3dabf20a	0.08395775
138	0xbd35aa99	-0.044352148
139	0x3f236a16	0.6383375
140	0xbea089ca	-0.31355125
141	0xbc367db0	-0.011138365
142	0xbd905de9	-0.07049162
143	0xbdc45334	-0.09586182
144	0xbde598a7	-0.11210757
145	0xbe129c51	-0.14317442
146	0xbdddce48	-0.10830361
147	0x3bae00ee	0.0053101694
148	0x3eff45af	0.49857852
149	0x3ede4aff	0.43416592
150	0xbe1cf325	-0.15327127
151	0x3bfd8eca	0.007737969
152	0x3d9ae63e	0.075634465
153	0xbce88d17	-0.02838759
154	0x3e580ff3	0.21099834
155	0x3e0f92b7	0.14020811
156	0x3cb682cb	0.022279164
157	0xbe07117f	-0.13190268
158	0xbea4aaa3	-0.32161435
159	0xbd37f6a5	-0.044912953
160	0x3ca87ec2	0.020568255
161	0xba9d10d3	-0.0011983163
162	0x3eaac448	0.33352876
163	0x3e87caa6	0.26521796
164	0xbd530203	-0.05151559
165	0xbe85e307	-0.2614977
166	0xbdbd897a	-0.09254737
167	0xbc937832	-0.01800165
168	0xbb7d7785	-0.0038675976
169	0x3dce6e5c	0.10079643
170	0x3d848276	0.06470196
171	0xbd9a04a9	-0.0752042
172	0x3eafa56f	0.34305903
173	0x3d300a86	0.042978786
174	0x3e9382f3	0.28810844
175	0xbde657cb	-0.11247214
176	0xbe117ecf	-0.1420853
177	0xbd65401e	-0.05596935
178	0x3e95016b	0.29102644
179	0xbe6b5156	-0.22980246
180	0x3d6344f2	0.055485673
181	0xbddab763	-0.106795095
182	0x3d421787	0.04738572
183	0xbdfe93c5	-0.124305286
184	0xbe72fc65	-0.23729093
185	0xbe3ad2f2	-0.18244532
186	0x3de5d88e	0.11222945
187	0x3e8f2bb6	0.27963036
188	0xbd887193	-0.066622876
189	0x3cb817a3	0.022472208
190	0xba9a2659	-0.0011760696
191	0x3cef31e7	0.0291986
192	0x3d963b10	0.07335484
193	0x3e4e5a14	0.2015155
194	0x3defc4bb	0.11707445
195	0xbe0bde1b	-0.13658945
196	0xbe87f686	-0.2655527
197	0xbe17c4c9	-0.14821161
198	0xbde9b1f3	-0.11410894
199	0x3e31e926	0.17374095
200	0xbef1cdeb	-0.47227415
201	0xbd64e361	-0.055880908
202	0xbe06c11a	-0.131596
203	0x3e861c51	0.2619348
204	0xbcb5ef70	-0.0222089
205	0x3d6cb88d	0.05779319
206	0xbf2cefee	-0.67553604
207	0x3d9881ad	0.07446609
208	0xbe45c07a	-0.19311705
209	0xbde5a2ed	-0.11212716
210	0xbd28de4c	-0.041227624
211	0x3d13af75	0.036056
212	0x3e2b4422	0.1672521
213	0x3dc42bac	0.09578642
214	0x3dcd9d4e	0.10039769
215	0xbdc99283	-0.09842398
216	0xbd1160e7	-0.035492804
217	0xbeab1f6c	-0.3342241
218	0x3e86c80b	0.26324496
219	0x3e166e88	0.14690602
220	0xbeb01520	-0.34391117
221	0xbf164e9d	-0.58713704
222	0xbeec2f8f	-0.46130034
223	0xbde52e40	-0.11190462
224	0xbf08f783	-0.5350267
225	0xbefa21bc	-0.48853862
226	0x3e52a33a	0.20570078
227	0xbd87a635	-0.06623498
228	0x3e87a06f	0.2648959
229	0x3e808c1a	0.2510689
230	0x3e35693e	0.17715928
231	0xbe44f84b	-0.19235341
232	0x3e6be28f	0.23035644
233	0xbe0591d4	-0.1304391
234	0x3e910ff9	0.283325
235	0xbf5bc2a6	-0.85843885
236	0x3e88d590	0.26725435
237	0x3ded1a81	0.11577321
238	0xbceef09b	-0.029167464
239	0x3e27c85e	0.16385028
240	0x3d8c9935	0.068651594
241	0xbe2698e7	-0.16269265
242	0xbe52e5fc	-0.20595545
243	0x3d3d692d	0.04624288
244	0x3ecd9824	0.40155137
245	0x3f03c07d	0.5146559
246	0x3d71637e	0.058932774
247	0xbdfb7b64	-0.12279394
248	0x3ea0dda4	0.31419098
249	0x3d96cce0	0.073632956
250	0x3c1d2d70	0.009593353
251	0xbd573e00	-0.052549362
252	0xbaa234b3	-0.0012375325
253	0xbe230c7d	-0.15922733
254	0x3e074be5	0.13212545
255	0xbe02ea50	-0.12784696

fc_smart.bias f4 [64]
0	0xbcfdd5a2	-0.030985657
1	0x3cccb6b3	0.024989462
2	0x3d91a59b	0.07111665
3	0xbd2b2796	-0.0417858
4	0xbcfceac2	-0.03087366
5	0x3cc1b68b	0.023646614
6	0x3ce7b918	0.028286502
7	0xbd0d5379	-0.034503434
8	0x3d87145a	0.06595679
9	0xbb40d6ab	-0.0029424827
10	0xbc23b831	-0.009992645
11	0xbd62bae5	-0.055354018
12	0xbd875db7	-0.066096716
13	0xbdc08d24	-0.094019204
14	0x3d8eddd3	0.06975903
15	0xbde6a067	-0.11261063
16	0x3c49b402	0.012310984
17	0xbda21f2d	-0.079161026
18	0xbd2a4a2c	-0.041574642
19	0x3d48221b	0.04886065
20	0x3cf58834	0.029972173
21	0xbd1cbed3	-0.03826792
22	0xbd9349eb	-0.07191833
23	0x3d8357a6	0.06413202
24	0x3d72c660	0.059271216
25	0xbdc7f8aa	-0.09764226
26	0x3d16391b	0.036675554
27	0x3d0f27a4	0.034949914
28	0xbdedbb4b	-0.11607989
29	0xbd4b094d	-0.049569417
30	0xbdc65f7e	-0.096861824
31	0xbcd0c271	-0.025483342
32	0x3c04d1ba	0.008106643
33	0x3ddf51d0	0.10904276
34	0xbd9fa897	-0.07795828
35	0x3d9b5f79	0.07586569
36	0x3d308dfb	0.043104153
37	0x3d0a30a6	0.0337378
38	0x3d0ca33f	0.03433537
39	0x3d6ed163	0.058305155
40	0xbd522a4c	-0.05130987
41	0x3da22871	0.0791787
42	0x3d7c16f6	0.061545335
43	0xbd98be8e	-0.074582204
44	0xbd6fa251	-0.058504406
45	0xbcf012f8	-0.02930592
46	0xbc2de27a	-0.010613078
47	0x3d81e52f	0.063425414
48	0x3da0a71d	0.07844374
49	0x3d14567a	0.036215283
50	0xbad6d69f	-0.0016390866
51	0x3d9fffe1	0.07812477
52	0xbd135403	-0.03596879
53	0xbda34de1	-0.079738386
54	0xbd2ec427	-0.042667534
55	0x3c85d599	0.016337203
56	0xbc592383	-0.013253096
57	0x3d875375	0.06607715
58	0x3d9b80c5	0.0759292
59	0xbdad9049	-0.08474786
60	0x3d74687c	0.059669957
61	0x3c943e69	0.018096166
62	0xbc722085	-0.014778261
63	0x3dfd528f	0.123692624

network_aging.lstm.weight_ih_l0 f4 [128, 5]
0	0x3e625024	0.22100884
1	0x3c94f2b7	0.018182142
2	0xb94e7e5a	-0.0001969276
3	0x3db770cd	0.08957062
4	0xbb79d948	-0.0038123894
5	0xbdcf2681	-0.10114766
6	0x3dfd3bc6	0.123649165
7	0xbcb29673	-0.021800255
8	0xbd01f0b4	-0.031723693
9	0x3e2dab4b	0.16959874
10	0xbd40f7a6	-0.047111176
11	0x3c54b57f	0.012982725
12	0xbe09b3b5	-0.13447459
13	0xbe1c1844	-0.15243632
14	0xbdabfe35	-0.083980955
15	0xbd9e4163	-0.07727315
16	0x3dcf4999	0.101214595
17	0x3e09946a	0.13435522
18	0x3df25bf0	0.11833942
19	0x3d631e5e	0.055448882
20	0x3dcbd168	0.099520504
21	0xbdcf5acc	-0.1012474
22	0x3d0f8d5c	0.03504692
23	0xbdd18c6b	-0.10231861
24	0x3d215fb6	0.039397918
25	0x3dbaf894	0.09129444
26	0x3dd8b1a5	0.10580758
27	0x3e709a77	0.23496424
28	0x3d096ed5	0.033552963
29	0xbdd6edbd	-0.10494564
30	0xbd1baac7	-0.038004663
31	0x3de1837e	0.11011408
32	0xbd9fc5eb	-0.07801422
33	0x3e0607de	0.13088939
34	0xbdb53610	-0.08848202
35	0x3e546085	0.20739944
36	0x3e00d92a	0.12582842
37	0x3dfcb3df	0.12338995
38	0x3d0b2951	0.03397495
39	0x3d92c636	0.07166712
40	0x3e1af45e	0.15132281
41	0xbdc39fb2	-0.09551944
42	0xbd8c3311	-0.06845678
43	0x3cb9dc6a	0.02268811
44	0xbdea28e3	-0.1143358
45	0x3db23acf	0.08702623
46	0x3dc500e2	0.09619309
47	0xbd88e018	-0.066833675
48	0xbde8193b	-0.11332937
49	0x3b5772a3	0.0032874725
50	0x3b18d7ec	0.002332206
51	0x3d83bdfc	0.06432721
52	0x3d87f0b5	0.06637708
53	0xbc377158	-0.011196457
54	0xbded52bb	-0.11588045
55	0x3dd25bdb	0.10271426
56	0x3e0a8ac9	0.13529505
57	0xbe32bfe1	-0.17456008
58	0xbde8851d	-0.11353514
59	0x3e1572f7	0.14594637
60	0x3e5a446d	0.21315165
61	0xbdd357fc	-0.10319516
62	0x3e4702c1	0.19434644
63	0x3cc29a5d	0.023755247
64	0x3dbb380f	0.09141552
65	0x3c9d1409	0.019174593
66	0x3d588599	0.052861784
67	0x3dab3961	0.083605535
68	0x3d9cec29	0.076622315
69	0xbd0aea6e	-0.033914976
70	0x3d0e76ed	0.034781385
71	0xbd4cd868	-0.05001107
72	0x3e32763e	0.17427918
73	0xbd1b358d	-0.037892867
74	0x3df1d15f	0.118075125
75	0x3e4e8bb6	0.20170483
76	0x3e4ac1c2	0.19800475
77	0xbd04b8be	-0.032402746
78	0x3e04d5ec	0.1297223
79	0x3d49eea9	0.04929987
80	0xbc3c0125	-0.011474882
81	0xbd1a51c4	-0.037675634
82	0x3dc9799c	0.09837648
83	0x3dfc4be7	0.12319165
84	0xbe1e2956	-0.15445456
85	0xbc508931	-0.0127280215
86	0xbdc43c77	-0.09581845
87	0x3c62f68f	0.013852729
88	0x3d458110	0.048218787
89	0x3e1b8b0e	0.15189764
90	0x3dfa76cb	0.12229689
91	0x3e5ecd68	0.21758044
92	0x3d3facc6	0.04679563
93	0x3db59ddb	0.08867999
94	0x3c8b39a8	0.016995266
95	0x3d670904	0.056405082
96	0xbe01a805	-0.1266175
97	0x3d393dc9	0.04522494
98	0x3b79ea84	0.0038134167
99	0xbde5e573	-0.112254046
100	0xbddf88c7	-0.1091476
101	0x3d622fcb	0.05522136
102	0x3c7479a7	0.014921582
103	0x3e40ee4b	0.18840902
104	0xbc9ca0c5	-0.01911963
105	0x3e08e5ad	0.13368864
106	0xbdaf879e	-0.08570789
107	0xbde009e0	-0.109393835
108	0xbd893f52	-0.067015305
109	0x3dfa02d4	0.12207571
110	0xbd83a139	-0.06427235
111	0x3e22b28f	0.15888427
112	0xbadfcebf	-0.0017075165
113	0x3db7e2c5	0.089788
114	0x3d983dd7	0.0743367
115	0x3de7e6a7	0.1132329
116	0x3e33e470	0.1756761
117	0x3e201221	0.15631916
118	0x3e00248e	0.12513945
119	0xbe103ba4	-0.14085251
120	0x3e128dc8	0.14311898
121	0xbcea3e80	-0.028594255
122	0x3d04ae48	0.03239277
123	0x3e01cba2	0.12675336
124	0x3db45a83	0.08806326
125	0x3e344e51	0.17608
126	0x3e29e7ad	0.16592284
127	0xbcb03c56	-0.021513145
128	0xbb343e11	-0.0027502815
129	0xbd947da2	-0.07250525
130	0x3c5a531d	0.01332548
131	0x3e5ac2fd	0.21363445
132	0xbdb168b8	-0.08662552
133	0xbd39c1e8	-0.04535094
134	0xbdcca3bd	-0.09992168
135	0x3e1b1825	0.15145929
136	0x3c8ba5d3	0.017046845
137	0xbd6d7b25	-0.057978768
138	0xbb304ecc	-0.0026902435
139	0x3e2a4a27	0.1662985
140	0x385c23ff	5.248561e-05
141	0x3dd81079	0.10550017
142	0x3e046775	0.1293009
143	0x3dbab055	0.09115664
144	0x3e17d40b	0.14826982
145	0x3dfc9494	0.123330265
146	0x3c9ca9ab	0.019123873
147	0x3c914e66	0.017737579
148	0x3c67ed2c	0.014155667
149	0xbc9ac1ac	-0.018891178
150	0xbdb38d96	-0.0876724
151	0xbe00e450	-0.12587094
152	0x3e1bb553	0.15205888
153	0xbddb007b	-0.10693451
154	0x3e38fd56	0.1806539
155	0x3da6176d	0.08109937
156	0x3dbceb70	0.09224594
157	0x3da41183	0.080111526
158	0x3dccc265	0.09998015
159	0x3d82a60f	0.063793294
160	0xbdda4471	-0.106575854
161	0x3e049b16	0.12949786
162	0x3b9a4d6d	0.004708937
163	0xbd30ccef	-0.04316419
164	0x3e4b5281	0.19855691
165	0xbc78650d	-0.015160811
166	0xbdabb6c0	-0.08384466
167	0x3e3a5953	0.18198137
168	0x3e523dfe	0.2053146
169	0x3d68ccf5	0.056836087
170	0xbd36ca5b	-0.044626575
171	0x3e4fdb2d	0.20298453
172	0x3d835be9	0.06414015
173	0x3d924d28	0.07143623
174	0x3c557afe	0.013029812
175	0xbda2d1e0	-0.07950187
176	0x3d631589	0.05544046
177	0xbd3c9c6c	-0.046047613
178	0x3dd8f099	0.10592765
179	0xbe07ceb1	-0.1326244
180	0xbd8cdd0b	-0.06878098
181	0xbd4d956a	-0.05019132
182	0xbdb0994b	-0.08622988
183	0x3d8368dd	0.064164855
184	0x3d8b1932	0.06791915
185	0x3db9b56d	0.09067807
186	0x3d360e41	0.044447187
187	0x3c841ba7	0.016126467
188	0x3e4513cb	0.19245832
189	0x3d33f560	0.04393518
190	0x3dca38a8	0.098740876
191	0xbd48a0d6	-0.04898151
192	0x3dd6ed7d	0.10494516
193	0xbdc245fd	-0.094860055
194	0x3e42e1df	0.19031475
195	0x3e46ea06	0.1942521
196	0xbd87ea80	-0.06636524
197	0x3ce51f22	0.027968947
198	0x3d90c6f6	0.07069199
199	0xbdfefbbc	-0.12450358
200	0xbdba4959	-0.09096021
201	0x3e244ece	0.16045687
202	0x3da6a64c	0.08137187
203	0xbd83de3a	-0.06438871
204	0x3d6d67cf	0.057960328
205	0xbe0209a2	-0.12698987
206	0xbded5bc4	-0.115897685
207	0xbd458da9	-0.0482308
208	0xbda7751e	-0.08176635
209	0xbda01845	-0.07817129
210	0xbc2820f0	-0.010261759
211	0xbdf8193f	-0.1211419
212	0x3e0be9c2	0.1366339
213	0xbd4be7c1	-0.049781565
214	0xbd0d27bd	-0.034461726
215	0xbd75b69d	-0.059988607
216	0x3cc34e7f	0.02384114
217	0xbe434c9c	-0.19072193
218	0xbe311e46	-0.17296705
219	0x3db2ef84	0.0873709
220	0x3c3ba082	0.011451842
221	0x3bfd3295	0.007726977
222	0x3d180379	0.037112687
223	0x3e1196c0	0.14217663
224	0x3de8d5aa	0.11368878
225	0x3d4dc60b	0.050237697
226	0xbc728bc1	-0.014803828
227	0xbd1f580d	-0.03890233
228	0x3e4d7490	0.20063996
229	0xbdf5011f	-0.119631045
230	0xbdf4ac06	-0.11946873
231	0x3bebe6f1	0.007199161
232	0xbdf7d9ef	-0.121021144
233	0x3c9bbd00	0.01901102
234	0x3e291379	0.16511334
235	0xbd93d414	-0.07218185
236	0x3de88475	0.11353389
237	0x3c6a0a37	0.014284662
238	0xbcf8ddba	-0.030379165
239	0xbd33a537	-0.043858733
240	0xbc3fae09	-0.011699208
241	0xbe01177e	-0.12606618
242	0x3bc769ec	0.006085625
243	0x3d8af3ce	0.06784783
244	0xbd906f6f	-0.07052504
245	0xbd104560	-0.03522241
246	0x3e0280e6	0.12744483
247	0x3de8cb9e	0.11366962
248	0x3e3d92bf	0.1851301
249	0xbde31696	-0.11088292
250	0xbcf29626	-0.029612612
251	0x3e2d9572	0.1695154
252	0xbd8b6e4e	-0.06808148
253	0x3e2afa59	0.16697063
254	0x3c8cd31b	0.017190507
255	0xbdb8a669	-0.09016115
