trained_model/mc1_mc2/7_days_lookahead/pnet_checkpoint/pnet_online_1100.pth (torch, 545278 bytes, 36 tensors)

network_smart.layer1.0.weight f4 [128, 330]
000000 e0 35 e7 3b 90 bb 11 bf 42 c0 ee be 3b 07 24 3d
       0.007055983 -0.5692682 -0.46631056 0.040045958
000010 dd 54 c5 40 df 53 03 bf 32 63 77 bc 92 82 43 bd
       6.1666093 -0.5129985 -0.015099334 -0.047731943
000020 dc e6 ae bd 7e 2a c5 40 2a 9a a2 40 f7 96 a6 3c
       -0.08540127 6.161437 5.081319 0.020335658
000030 d1 fd 11 bf 5f 65 e8 be ce d8 49 bc 56 fe cb 40
       -0.5702792 -0.4538984 -0.012319757 6.374797
000040 86 54 0b bf 51 be 88 3c 87 fb bf bd 9d e4 da 3d
       -0.5442585 0.016692312 -0.09374147 0.10688136
000050 30 e5 cb 40 75 88 a7 40 16 65 ae bc 20 2f fd be
       6.371727 5.2354074 -0.021288436 -0.49450016
000060 91 27 bd be 81 ec 52 bc d9 3c ce 40 be 19 06 bf
       -0.3694425 -0.01287377 6.4449277 -0.5238303
000070 37 df 4c 3c 2c 4f 5d bd bb 7c 56 3e 57 10 d0 40
       0.01250439 -0.054030582 0.20946018 6.5019946
000080 e3 0e ac 40 84 b0 ff ba 11 bd fe be 75 b5 8d be
       5.376817 -0.0019507562 -0.4975362 -0.27677503
000090 1d f2 e1 bb 2f 48 d4 40 1a c3 00 bf 3d da 0e 3d
       -0.006895317 6.6338115 -0.502977 0.034876097
0000a0 e7 c5 05 bd 33 c6 b3 bd 83 9d d4 40 a2 82 ae 40
       -0.032659438 -0.08778038 6.6442275 5.4534464
0000b0 4a 5e 2d bd 12 47 00 bf 7c b2 f2 be cb 85 cd bc
       -0.04232625 -0.50108445 -0.47401798 -0.025088212
0000c0 25 42 d8 40 95 e3 09 bf bd 49 57 3d 06 f0 b8 bd
       6.7580743 -0.5386289 0.052560557 -0.09030156
0000d0 6d df 9c be 4a de d7 40 f0 6f b0 40 64 a5 29 bd
       -0.3063921 6.745885 5.5136642 -0.041417494
0000e0 fc aa 07 bf e8 38 dc be d8 79 51 3c da 33 d8 40
       -0.52995276 -0.43012166 0.0127853975 6.7563295
0000f0 b8 36 18 bf 96 bd 0b 3d e5 2b db bd a9 21 c7 bd
       -0.59458494 0.03411635 -0.107017316 -0.09723217
000100 68 95 d7 40 bd 67 ac 40 9a 1e 90 bc 15 f7 f7 be
       6.736988 5.3876634 -0.017592717 -0.48430696
000110 78 2b fe be 14 00 35 3d c5 db d8 40 06 bc 04 bf
       -0.4964254 0.044189528 6.7768273 -0.518494
000120 a2 fd 48 3c a1 94 cf bd f1 64 b0 bd 14 77 d8 40
       0.012267502 -0.101357706 -0.08613003 6.764536
000130 19 44 ad 40 ea 21 78 bd c9 1a 0c bf 86 de 05 bf
       5.4145627 -0.060579218 -0.5472837 -0.5229267
000140 9c d2 ca 3c 7c 24 d5 40 40 bb 15 bf ff 11 18 bd
       0.02475863 6.6607037 -0.58488846 -0.037126537
000150 bf 7f 81 bd 48 80 81 be d7 69 d6 40 aa 5c af 40
       -0.06323194 -0.25293183 6.70042 5.4800615
000160 7e 92 03 bd a4 39 09 bf 5f 47 0e bf 33 71 36 bc
       -0.032122128 -0.5360358 -0.55577654 -0.011135387
000170 e1 7e d8 40 2e 3f 00 bf 24 42 1c 3d a4 91 bc bd
       6.765488 -0.50096405 0.038149014 -0.09207466
000180 73 df 91 bd f9 69 d8 40 8e e7 b4 40 d5 56 ac 3c
       -0.07122698 6.762936 5.653266 0.021037498
000190 80 08 12 bf cb fb c1 be 0a 3f 81 bc 24 50 d8 40
       -0.5704422 -0.37887415 -0.01577713 6.759783
0001a0 3e 71 05 bf c1 0b 18 3c f9 53 d1 bd e5 ea 96 be
       -0.5212592 0.009280146 -0.10221095 -0.29476085
0001b0 ee 05 d8 40 38 54 ae 40 dc e8 2e 3c 54 67 0e bf
       6.750724 5.4477806 0.010675635 -0.55626416
0001c0 cf e1 a2 be cd 68 45 3d 16 5a d8 40 f1 e2 f9 be
       -0.31812903 0.04819565 6.760997 -0.48805955
0001d0 e6 8d 3b 3c 0c 01 8d bd c3 5a a2 3d 87 95 d7 40
       0.011447405 -0.06884965 0.07927468 6.737003
0001e0 48 50 b0 40 57 1a f9 3c 0c d9 07 bf 2e a0 91 be
       5.5098 0.030408068 -0.5306556 -0.2844252
0001f0 76 a2 5b 3c e2 a0 d5 40 3b 80 07 bf 54 f3 44 bc
       0.013405433 6.675889 -0.5293004 -0.012020905
000200 7e 72 d3 bd 44 77 2a 3e 0d a7 d5 40 9e 0b a8 40
       -0.10324572 0.16647059 6.676642 5.251418
000210 fb 8d 86 bc 48 28 f8 be 38 7f f7 be 7d a7 bf 3b
       -0.016425123 -0.48468232 -0.48339248 0.0058488236
000220 45 7c d7 40 f6 ae 07 bf 81 19 ea 3c 10 22 7f bd
       6.7339196 -0.53001344 0.028576614 -0.062288344
000230 49 10 44 bd b7 62 da 40 8f f7 ae 40 3d de 31 bd
       -0.047867093 6.82455 5.4677196 -0.043424834
000240 52 8c 0c bf e6 22 d7 be 56 67 d7 3b e5 a4 d8 40
       -0.5490161 -0.42018813 0.006573598 6.7701287
000250 34 37 13 bf c3 41 f5 3b 67 83 ef bd 49 de 25 3d
       -0.5750611 0.007484646 -0.11694985 0.04049519
000260 e6 fd d9 40 79 11 af 40 9e 96 04 3d a3 69 07 bf
       6.8122435 5.470883 0.032370202 -0.52895564
000270 75 ea af be 2f d5 ca 3c 41 5f db 40 3c 5c 0b bf
       -0.34358564 0.024759857 6.8553777 -0.54437613
000280 8a 9c 4e 3d 94 76 b7 bd bd 3e 08 bc de 0b db 40
       0.050442256 -0.08958164 -0.008315739 6.8451986
000290 94 17 b0 40 7d b7 9b 3c 26 c1 ec be 0a e9 b7 be
       5.502878 0.019008392 -0.4624111 -0.35919982
0002a0 70 b2 c0 ba 4e 6d db 40 ad 55 0c bf e7 03 2c bc
       -0.0014701616 6.857093 -0.5481823 -0.010498977
0002b0 6b c7 a8 bd 68 d1 57 bc c3 e5 dc 40 5f ad b1 40
       -0.08241161 -0.013172485 6.903047 5.5524135
0002c0 41 c4 43 bd 87 3c e9 be d1 5e a8 be 7e bf 80 3c
       -0.047794584 -0.4555399 -0.3288484 0.01571631
0002d0 3c 85 da 40 47 54 0b bf d9 9c 42 3d 8b e7 64 bd
       6.828764 -0.5442547 0.047512863 -0.05588488
0002e0 69 14 5a 3d ae 25 dc 40 c6 ad a7 40 ae bf 00 3d
       0.05324212 6.8795996 5.2399626 0.0314328
0002f0 6a 7a fa be 8b 13 12 bf 61 b2 6d 3d 04 39 d5 40
       -0.4892152 -0.5706107 0.058031444 6.66321
000300 48 24 0b bf b2 e7 b3 bc d9 56 8f 3a 84 88 df 39
       -0.54352236 -0.021961067 0.0010935917 0.00042635587
000310 33 b6 d3 40 64 b2 8e 40 1f 96 a5 bc 95 01 f1 be
       6.615991 4.459276 -0.020213185 -0.4707152
000320 c5 3f 0e bf db 57 12 3d d8 10 dc 40 93 b2 f2 be
       -0.55566055 0.035728317 6.877056 -0.47401866
000330 77 55 b0 bc 3f e8 b6 bd 24 c0 8b be b5 66 dc 40
       -0.021525128 -0.08931016 -0.2729503 6.8875375
000340 5e 2d a7 40 59 ad 89 bc 8d 86 f4 be 34 c9 40 bf
       5.224288 -0.016806291 -0.47758904 -0.7530701
000350 7e 0c ce 3c ca 36 cc 40 35 7d 00 bf 97 e0 f6 3b
       0.025152441 6.381688 -0.5019105 0.0075340974
000360 ed f8 51 bd 3e 09 ed bd 56 c8 ce 40 a7 b9 88 40
       -0.051262785 -0.115740284 6.461955 4.2726626
000370 2b 42 df bb 4a 14 04 bf fa 1e 44 bf 8f 81 84 3d
       -0.0068133078 -0.5159346 -0.76609766 0.06470024
000380 13 1f cc 40 be f0 f1 be 1f 80 60 3c 38 25 f1 bd
       6.3787932 -0.47253984 0.013702421 -0.11774677
000390 79 d0 c6 bd 94 8d cf 40 bd 0a 8c 40 b9 0a 11 bd
       -0.09707732 6.4860325 4.376311 -0.035410617
0003a0 29 2e fc be df 1e 3f bf c0 f2 00 3d 45 4c d4 40
       -0.49253967 -0.7465648 0.031481504 6.6343102
0003b0 e5 6b 05 bf e7 89 7f bc d3 74 c6 bd 0d 41 34 be
       -0.5211776 -0.015596843 -0.09690251 -0.1760294
0003c0 20 d8 d1 40 07 78 9b 40 f1 88 31 3a 1d fb 0d bf
       6.5576324 4.858402 0.000677242 -0.55461293
0003d0 4d 0d 33 bf a5 03 2e 3d f3 85 d2 40 37 40 0b bf
       -0.6994217 0.042483944 6.578851 -0.5439486
0003e0 ef 85 33 bd 2e 27 2d bd b2 75 ad 3d 19 98 d1 40
       -0.0438289 -0.042273693 0.08469714 6.5498166
0003f0 4b 9f 9b 40 f6 6e 64 bd db 1c 0c bf 3d 05 4e bf
       4.863195 -0.055769883 -0.5473153 -0.80476743

network_smart.layer1.0.bias f4 [128]
000000 4b 67 95 3b e0 6c d2 bd 5a 38 81 be df 98 3e bd
       0.0045594326 -0.102746725 -0.25238305 -0.046532508
000010 40 ff ab 3c ed da 79 be d8 60 d5 bd 20 92 0b be
       0.020995736 -0.2439992 -0.10418862 -0.13629961
000020 d0 cc 88 3d f2 a4 34 be 0f b7 18 3d 0d a8 01 be
       0.0667969 -0.17641047 0.037283953 -0.12661763
000030 f0 e0 09 3e cf 89 d2 bc 1e a9 a3 3d 4d c7 b7 3d
       0.13464713 -0.025700478 0.07991241 0.089735605
000040 a6 9e dd bc 56 73 dd bd 5f 14 9b bb ad 93 9d 3d
       -0.027053189 -0.10813014 -0.004732653 0.076941825
000050 af 06 d0 bd 44 c2 d3 bc c6 cb 95 3d 7a a3 fa 3d
       -0.10157525 -0.025849469 0.07314257 0.12238212
000060 60 cd 3a bd cd c0 f9 bb 42 64 54 bd bc 75 1a 3c
       -0.045606017 -0.0076218606 -0.051853426 0.009427484
000070 67 1d 43 3d 00 20 96 3c dc 88 1b be 2c d0 30 3e
       0.047635462 0.018325806 -0.15188926 0.17266911
000080 42 7d da 3c 2d 8b 05 be cd 83 06 3d 79 a9 9b bd
       0.026671056 -0.13041373 0.03284054 -0.07600684
000090 f5 c0 06 3b ad 6d b0 3d a9 94 2c bc 78 32 2e 3c
       0.0020561789 0.08614669 -0.01053349 0.01063215
0000a0 53 9d 39 bd 58 b2 b1 3c 3c bd 22 bd 9e c8 ea 3d
       -0.04531605 0.021691486 -0.03973125 0.11464046
0000b0 de ad 0d 3e 85 dc 8d 3c 0a 67 80 bd 26 73 61 bd
       0.13835856 0.017317066 -0.06269653 -0.055041455
0000c0 ba b7 0d be 9a c3 45 bd 44 ff dd bc 55 d7 11 3d
       -0.13839617 -0.048282243 -0.02709926 0.035605747
0000d0 92 88 63 bd c6 95 71 b9 4e 35 39 3d 66 35 44 bd
       -0.055550165 -0.00023039346 0.04521685 -0.047902487
0000e0 9c 6e a6 bd c4 29 dd bd af 6a d4 bd 39 2f fa 3d
       -0.08126566 -0.10798982 -0.10371911 0.12216038
0000f0 9a f9 71 bd 70 07 d5 bb f9 94 db 3d 2b fa 49 bc
       -0.05907593 -0.0065011308 0.10721774 -0.012327711
000100 76 f2 03 3e c0 52 8c 3d a3 b2 f2 bb f2 5c 13 bd
       0.1288546 0.06851721 -0.007406549 -0.03597731
000110 f0 a8 e1 3c e4 a1 53 bc e2 3f ca bc 70 2a bd 3d
       0.027546376 -0.012917016 -0.024688665 0.0923661
000120 e1 5a 71 be 47 f1 a8 bd 69 92 09 be 9b af 46 3e
       -0.23569824 -0.08249145 -0.13434757 0.19402926
000130 68 17 20 be bf 7a 05 bd be df c7 bc a3 48 43 bd
       -0.15633929 -0.032587763 -0.02439868 -0.047676694
000140 50 ef 7f bd a6 c8 18 3e 2a 1c af 3c 6b 27 ba bd
       -0.062484086 0.14920291 0.021375734 -0.0908955
000150 72 53 96 3c dc 5c ba 3b 27 9c d0 3d 26 e0 9a bd
       0.018350337 0.005687339 0.10186034 -0.07562284
000160 33 f2 8a 3c 39 37 31 be 80 6b d6 3d 08 8d 22 3d
       0.016961193 -0.17306222 0.10469723 0.03968528
000170 81 63 99 3d 23 09 ba bd 50 6b 2e bd 9c 16 0f 3e
       0.07489682 -0.09083774 -0.04258281 0.13973469
000180 52 1f 8b 3c 57 ff 37 3e ef 3f 0e bd 4f f8 4c bd
       0.016982708 0.17968498 -0.03472894 -0.050041493
000190 28 b5 0a bd d4 9e f0 bd 75 db e2 3b c7 2d a7 bd
       -0.03386417 -0.11749044 0.006923134 -0.08163028
0001a0 9b 61 a1 3b bb 64 ac 3d 17 be 06 be 1d df dc bc
       0.0049249656 0.0841765 -0.13158451 -0.026961857
0001b0 c1 1a 9a bd 2f 44 ae 3d e9 46 e8 3c 3d bb d4 3d
       -0.07524634 0.08509099 0.028354125 0.10387275
0001c0 d8 57 a2 bc eb f2 09 3e 74 0c c5 bb 47 1e 24 bd
       -0.019817278 0.13471572 -0.0060134474 -0.040067937
0001d0 44 b3 d0 3c 62 eb 32 bd 86 67 c6 bc 87 c9 47 3d
       0.025476106 -0.04368151 -0.024219286 0.048776176
0001e0 d1 64 a6 3d 07 96 14 bd 66 b2 9d bd c9 d4 3b 3d
       0.08124698 -0.03627589 -0.077000424 0.045857225
0001f0 bd 9b 74 3d ea e8 4c bd 06 dd 75 3b e3 4a 62 3b
       0.059718836 -0.05002681 0.0037515773 0.00345295

network_smart.layer2.0.weight f4 [128, 128]
000000 8c 5c f4 3c 8d 68 d4 bc 9e f5 35 bc 14 5a 57 bd
       0.029829286 -0.02592876 -0.011105923 -0.05257614
000010 12 ad 35 bd e1 99 f7 3c af cd 44 3c e5 ed 43 3d
       -0.044354506 0.030224742 0.012011929 0.047834296
000020 76 33 1f 3d 49 64 14 bc 50 d3 b1 3c 4a cf db be
       0.038867436 -0.009057113 0.021707207 -0.42931587
000030 25 6f 4f be ff c2 9b be 6b 70 b0 3d 2d 4e 26 bd
       -0.20257242 -0.30422208 0.08615192 -0.040601898
000040 c8 7c 94 bd 77 01 5a 3c 72 4d a1 3b 7f fc 19 be
       -0.07250363 0.013306013 0.0049225623 -0.15037726
000050 ba 06 b4 bd 91 f4 ad bd 8b f2 34 3e 86 a9 cb 3d
       -0.087903455 -0.08493913 0.17670648 0.099444434
000060 39 8f 00 bd e0 77 c6 3b 20 af 16 3d b2 04 a6 bc
       -0.031386588 0.0060567707 0.036788106 -0.02026591
000070 10 f0 e5 bc 87 7f c0 bc bc 1e c6 3b 5d 8b 2b be
       -0.028068572 -0.02349831 0.0060461443 -0.16752382
000080 14 89 0d 3c 6c 0c 8a b7 c8 12 81 bd fd a7 b4 bd
       0.008638639 -1.6456666e-05 -0.0630241 -0.08821104
000090 99 48 16 3d 8c 4a f2 bc 80 9d 8c bd 50 f9 d7 3a
       0.03669033 -0.029576562 -0.06865978 0.0016477499
0000a0 61 09 d2 bc f9 86 f7 ba 6b 29 f2 3b 6f 91 b6 3d
       -0.025639238 -0.001888483 0.0073901913 0.08914458
0000b0 58 03 98 3d f2 27 7e bc fe 1a b8 3c 91 09 09 3e
       0.07422513 -0.015512453 0.022473808 0.13382556
0000c0 e6 75 31 3d fe a9 72 bc bf 86 43 bd 06 7b 7a 3d
       0.043325327 -0.014811037 -0.047735926 0.06115248
0000d0 fe 68 7b bb e6 de 82 bd 78 2f 05 be b2 da c7 3d
       -0.003836214 -0.06390171 -0.13006389 0.0975851
0000e0 4f cd b9 3d 95 3d f5 bb d7 97 bb be f7 62 8c bd
       0.09072363 -0.007484148 -0.36639282 -0.068548135
0000f0 28 f2 11 bd 62 2c 01 3d e8 66 31 be a9 91 58 3c
       -0.03563133 0.031536467 -0.17324412 0.013218322
000100 43 34 42 3d ee 38 46 3e ca d5 27 bd e2 2d 95 3d
       0.047413122 0.19357654 -0.04097537 0.07284142
000110 b2 db b0 be 13 54 40 3d bf 81 40 be 1c a0 36 bf
       -0.34542614 0.04695518 -0.18799494 -0.7133806
000120 8a 56 3d 3d 0f f1 96 bd 98 e4 9b bc 0c 98 6c bd
       0.04622511 -0.07370197 -0.0190299 -0.05776219
000130 64 65 33 3d c6 09 47 be 65 78 84 3d cf 46 82 bd
       0.043797866 -0.19437322 0.06468276 -0.06361162
000140 14 eb 84 3d b4 16 19 be c4 68 b0 bd f0 fb 41 bc
       0.0649015 -0.14950067 -0.086137325 -0.011839852
000150 27 14 4f bd 5d 95 b9 3c 85 76 a2 3d 80 ef 8e 3d
       -0.05055633 0.02265423 0.07932762 0.06979275
000160 2c b8 19 bd 43 70 e7 bd 64 d6 8d 3c f4 2f 06 3b
       -0.037529156 -0.11300709 0.017314143 0.002047536
000170 f8 e2 18 3c 1f 3f 7f bd 4b 25 5c bb 7b 3b 34 3b
       0.009331457 -0.062316056 -0.0033591564 0.0027501273
000180 c8 cc 4a 3e c9 50 fa 3d 67 93 18 3d cb 8f 84 3e
       0.1980468 0.1222244 0.03724995 0.25890955
000190 b6 47 2d bb d1 12 19 3e 8c 4d 9e 3d 4e 2b 95 3b
       -0.0026440448 0.14948584 0.07729635 0.0045522815
0001a0 b2 02 0e 3d 78 4e 21 be ca 3c 0d 3d ea 76 c5 bd
       0.03467054 -0.1575259 0.0344818 -0.09641822
0001b0 40 c4 ac 3d bd f0 7c 3d 99 b7 79 3d 96 f9 9e 3d
       0.08435869 0.061753023 0.060966108 0.077624485
0001c0 d4 94 21 bd be 90 dd 3d 0a 85 88 3c ba dc 7d 3d
       -0.039448574 0.10818623 0.016665 0.06197808
0001d0 08 c5 93 3d 70 e6 66 bd 5a a3 9e 3d 71 d4 11 3d
       0.07215315 -0.056372106 0.077460006 0.03560299
0001e0 7c 60 ca bd 0a b2 a5 bd f4 0e ff 3d 05 26 6a 3d
       -0.09881684 -0.08090599 0.12454024 0.057165165
0001f0 84 c6 19 3d 73 6c 10 3c 3e 42 2e 3d 38 08 ae bc
       0.037542835 0.008814919 0.042543642 -0.021244153
000200 1b 35 fc be 24 b4 84 bd f1 f3 1c bd 68 32 9a bd
       -0.49259266 -0.064796716 -0.03831858 -0.075291455
000210 14 3a 2b bb aa 56 f6 3c e3 13 3b 3d cd 52 c5 be
       -0.0026127147 0.030070622 0.045673262 -0.38539734
000220 9c 39 25 bc 5e d7 dd bb c5 40 1d bd b7 94 0c be
       -0.010084536 -0.0067700585 -0.038391847 -0.13728605
000230 33 3f 28 3d 3e 47 d0 3b 78 c0 a6 be fe 48 1e bf
       0.041075896 0.006356149 -0.32568717 -0.6183013
000240 31 31 28 bd 30 fd 40 be e0 cb a7 3d ba 45 fd bd
       -0.041062538 -0.18846583 0.08193183 -0.12366815
000250 9a 43 f1 bc fa 24 9a bd 1c 4c 41 3e 2c aa 3d 3d
       -0.02945118 -0.07526584 0.1887669 0.046304867
000260 8f 0e a9 bb 22 39 32 3e 53 43 dd bd c0 3c 40 3d
       -0.005159206 0.17404607 -0.10803857 0.046932936
000270 08 69 6c 3d f3 eb 44 3d 34 8f c8 bd 93 b4 3b 3e
       0.057717353 0.04807658 -0.09792939 0.18330602
000280 44 d6 df 3b 75 18 fb bb d2 8a e9 bc e5 40 c9 be
       0.0068309624 -0.0076628276 -0.028508577 -0.39307323
000290 09 5b d7 3c 49 87 90 3d b4 7a 48 bd 60 e0 be 3e
       0.026288526 0.070570536 -0.048945144 0.3728056
0002a0 49 8a 6d 3d 26 66 f5 3c 75 ec 4f 3e bd 64 7e 3d
       0.057993207 0.029955935 0.20305045 0.06210779
0002b0 7c 13 54 3d 00 e9 03 bd 2a 70 66 3d de 48 8f 3d
       0.051776394 -0.032204628 0.05625931 0.0699632
0002c0 97 99 71 bd b6 74 4b 3d ac b6 1b 3c 08 9c b6 3b
       -0.058984365 0.04967185 0.009504002 0.0055727996
0002d0 3e 76 e6 bd 07 9f 8f 3d bf 09 f6 3e 77 c0 9c be
       -0.11253022 0.07012754 0.4805431 -0.3061559
0002e0 19 7f 3a bd b7 f6 3a bd 52 d0 4a bd 96 82 2f be
       -0.045531366 -0.04564544 -0.049515076 -0.17139658
0002f0 12 2c 8b 3d 2e ee 58 3d 6e dc cf be 82 03 95 3d
       0.06795515 0.05296152 -0.40597862 0.0727606
000300 c6 43 56 bf af c5 c2 3d bf 1b 2d bd 07 41 7f bd
       -0.83697164 0.095103614 -0.04226279 -0.062317874
000310 c9 be df 3b af 5a 96 3d 9b 1b da 3d de 14 b9 3b
       0.0068281633 0.07341515 0.106497966 0.0056482395
000320 41 63 2f be 45 24 71 bd 50 fd bf bd ab 26 c1 3d
       -0.17127706 -0.05887248 -0.093744874 0.094312035
000330 dc b5 cc 3c c3 db f8 bd b9 84 35 bc b0 96 bf bd
       0.024989061 -0.12151291 -0.011079007 -0.09354913
000340 c3 30 93 bd 0a 8c 67 3d a2 46 8d 3c b3 d8 3c 3e
       -0.07187035 0.056530036 0.017245594 0.18442039
000350 34 ea d0 3c e0 df dc bc d4 ef a3 3d 97 2f 8b bd
       0.025502302 -0.02696222 0.08004728 -0.067961864
000360 ea 25 25 3d 83 9c c0 3b 0e c6 b7 3d f6 ea 04 3d
       0.04031936 0.0058780327 0.08973323 0.03245064
000370 9e 57 21 bd f7 e2 38 be 3e b3 a6 3d 03 34 8c 3c
       -0.0393902 -0.1805533 0.081396565 0.017114645
000380 2d 20 c2 bd a9 99 6a 3d b0 62 a9 bd d7 5b 30 3e
       -0.09478793 0.057275448 -0.08270776 0.17222534
000390 ef 17 96 3d 8d f6 89 3d 54 d0 79 3d 43 03 d0 3c
       0.07328784 0.06736479 0.060989693 0.02539218
0003a0 3a 94 5f 3e 4c 78 96 3d ac 82 44 3e 6e e0 88 3d
       0.21833888 0.073471636 0.19190472 0.066834316
0003b0 db 42 81 bd be 14 6d bb d7 d6 91 be de 1e 28 3d
       -0.0631158 -0.0036175693 -0.28484222 0.041045062
0003c0 3a 80 82 3d 84 a0 46 bd 88 93 72 ba 4a b3 90 3b
       0.063721135 -0.048492923 -0.0009253551 0.004415904
0003d0 f0 ea 5a bd 3e 40 51 bd 37 94 a2 3d 60 46 eb 3c
       -0.05344671 -0.051086657 0.07938426 0.02872008
0003e0 d4 c4 88 3d 17 6e 52 bd d6 db 96 3d 74 4b 91 3d
       0.06678167 -0.05137452 0.07366149 0.0709447
0003f0 07 51 8d 3e 18 f4 86 3d 0f e8 8c bd 69 a4 18 bd
       0.2760088 0.06589526 -0.06880199 -0.03726617

network_smart.layer2.0.bias f4 [128]
000000 31 51 9e 3d ea 81 98 3d 5c 21 de 3c 03 c9 44 3c
       0.0773033 0.07446654 0.027115516 0.012010816
000010 02 45 b9 39 fb c9 e4 bc 8f 6e 88 3d c2 23 64 bd
       0.00035337365 -0.027928343 0.066617124 -0.055698164
000020 d4 76 93 39 95 ad 23 3d 9c 3a 94 bb 4f bb c3 3d
       0.0002812656 0.039960463 -0.0045235883 0.09557211
000030 58 cf ba ba d7 dc 07 be 04 8e 52 39 15 01 b2 3d
       -0.0014252467 -0.13267837 0.00020080066 0.08691613
000040 6a 37 9a 3b 3e 6f da bc ca 70 81 3d 40 0e 81 bd
       0.004706313 -0.026664373 0.06320341 -0.06301546
000050 c3 69 72 bd a0 07 9c bd da 3c d0 3c aa 12 36 be
       -0.059182893 -0.07618642 0.025419641 -0.17780557
000060 7f 6f c5 bc e5 e7 1f bc e3 26 dc 3d c4 3a 56 bc
       -0.024101017 -0.009759878 0.107496046 -0.013075534
000070 45 dc 76 3c a9 ad be bc 60 3a 80 bd d5 db c9 bb
       0.015067165 -0.023276167 -0.06261134 -0.006160239
000080 76 48 7d 3d d0 77 3c bd ed 87 a2 bd 6b 7a bc 3d
       0.061836682 -0.0460127 -0.07936082 0.09203037
000090 fe ac 41 bb f8 7b 2f bd 13 1a 82 bd f6 36 7f bd
       -0.0029552574 -0.042842835 -0.063526295 -0.062308274
0000a0 8f 89 11 be 96 92 d1 3d 5c 45 14 3d 0e 7c 65 bc
       -0.1421263 0.10233037 0.03619896 -0.014006628
0000b0 d8 ce 8f 3a 16 e2 bb 3b fc 51 e7 3d 72 4d 9e 3d
       0.0010971678 0.0057337387 0.11294934 0.07729615
0000c0 91 92 bf 3d d8 ab 9b ba da 7a 05 be 88 7a 35 3d
       0.09354127 -0.0011876775 -0.13035145 0.044306308
0000d0 6f e9 ac 3c fc e5 ed 3d d0 ee 3a bd 0e 07 ca bd
       0.021107404 0.11616132 -0.045637906 -0.09864627
0000e0 38 ab 5f 3d 2f 67 a6 bd 1a 22 3a 3d 3b 42 9c bd
       0.054606646 -0.081251495 0.045442678 -0.0762982
0000f0 7d cb c0 bc ec f8 0f bd 48 6c 04 3e 09 b8 8a 3a
       -0.02353453 -0.0351495 0.12931931 0.0010583411
000100 7e a1 2f 3d 5a 87 63 3a d0 26 3e 3e b5 e9 5c bc
       0.04287862 0.0008679532 0.18569493 -0.0134834545
000110 31 0d d5 bd 46 c0 20 3e b1 df 81 3d bf a7 97 bd
       -0.10402907 0.15698346 0.06341494 -0.07405042
000120 4b 72 a4 bc f3 b9 d9 bd 32 3f 44 3c 12 23 fa 3b
       -0.02007403 -0.1063117 0.011977958 0.0076335752
000130 8d 53 81 3d be 39 d9 3d 0a ad fe 3d dd f5 67 bd
       0.06314764 0.106067166 0.12435348 -0.056630958
000140 b2 a9 ce 3d 01 6a 96 3d ee c9 e1 bc 5b 07 c4 3d
       0.100909606 0.073444374 -0.027562108 0.095717154
000150 f5 e2 1c bd 69 78 87 bd 9a 65 89 3d 8a a1 12 3d
       -0.03830238 -0.06614763 0.06708832 0.035798587
000160 1f fe 87 bc 16 36 04 be 11 55 81 3d 32 d3 b2 bd
       -0.016600667 -0.12911257 0.06315053 -0.087316886
000170 85 ae b8 3c 1b cd 11 bc 35 8e c7 bd 5f e9 bf 3d
       0.022544155 -0.008898999 -0.09743921 0.09370684
000180 64 a0 99 bd d5 f8 1f bc 57 14 25 bd 56 f6 4d bc
       -0.07501295 -0.009763916 -0.0403026 -0.012570938
000190 5e 52 04 bd df 16 c2 3d 69 91 0a 3e f0 13 fd 3d
       -0.032305114 0.094770186 0.13532032 0.123573184
0001a0 c0 73 49 3d 50 89 5a bd 36 90 a7 3c 50 52 c8 bd
       0.049182653 -0.053353608 0.020454507 -0.09781325
0001b0 69 5b ee bd ec 00 87 3d 69 42 a0 3d 28 17 89 3d
       -0.11638529 0.06591973 0.07825167 0.0669387
0001c0 05 14 24 be 07 5c de 3b 14 d2 b6 3a 9e 56 25 3d
       -0.16023262 0.006785873 0.0013948106 0.040365808
0001d0 86 53 a2 bc 90 5b c1 bc 40 e8 0d 3e 4c 44 bc 3d
       -0.019815218 -0.02360323 0.13858128 0.09192714
0001e0 7b 65 90 bc a4 f0 1b be 9d 90 df bc 99 b3 29 bd
       -0.017626515 -0.15228516 -0.027290637 -0.041431043
0001f0 e6 64 b5 bd 3d 4f 47 bd 0a eb 19 be 94 1d 26 3d
       -0.088571355 -0.048659552 -0.15031067 0.04055555

network_smart.layer3.0.weight f4 [48, 128]
000000 e4 42 f1 3d d6 43 83 bd 93 9f 46 3e 31 ea e7 3c
       0.117803365 -0.06409423 0.1939681 0.028309913
000010 43 29 c8 3c 38 35 e9 be d4 a4 74 bd bf 4e 49 3d
       0.024433738 -0.45548415 -0.059727505 0.049147364
000020 09 ff 89 3d 82 b8 00 3e 1d fe f0 be af 4b 69 3d
       0.06738097 0.12570384 -0.47068873 0.056956943
000030 95 48 62 3f 69 8b ff be c6 91 b7 3d 27 14 11 be
       0.88392 -0.4991105 0.08963351 -0.14167844
000040 82 72 02 3d b9 32 c2 be cf 66 96 3d a5 fa 09 be
       0.031847484 -0.37929323 0.07343828 -0.1347452
000050 79 90 a9 3c ad e9 69 bd 03 95 bf be 44 29 83 3d
       0.020698773 -0.057107616 -0.37418374 0.06404355
000060 5c a9 0b be 80 d0 11 3e b1 25 dd 3d 72 2c af bb
       -0.13638824 0.14239693 0.10798205 -0.0053458745
000070 b2 94 38 3d e0 83 bb be ea 5d df bd 45 b9 32 bd
       0.045063682 -0.3662405 -0.109065846 -0.043633718
000080 ac 27 27 3d 77 68 f6 bd 01 c5 5e bd 93 c8 4b 3d
       0.04080932 -0.12031644 -0.054387096 0.04975183
000090 e7 4f ca ba 71 85 e2 bc b7 f2 43 3d 85 43 83 bf
       -0.001543519 -0.02765152 0.047838893 -1.025498
0000a0 b6 4f 46 bd 5f 96 10 3e ae 19 82 be 05 f3 9c bd
       -0.048415862 0.14119862 -0.25410217 -0.0766354
0000b0 03 58 96 3d 36 20 87 be 8f 36 1d be fb ad da 3d
       0.07341006 -0.26391762 -0.15352844 0.106777154
0000c0 cb b2 c5 bc 20 d2 d0 be 46 c9 6e 3e 30 94 3d bc
       -0.024133107 -0.40785313 0.23318967 -0.011570975
0000d0 e0 59 3f bf dc cd 11 3e d8 aa d0 bd 00 c5 23 bd
       -0.74746513 0.14238685 -0.10188836 -0.039982796
0000e0 d5 37 f4 bd 2c 68 10 bc 37 31 23 be 44 8c 9a bd
       -0.119247116 -0.008813899 -0.15936743 -0.07546285
0000f0 c0 96 45 3d df 92 ca be d4 b2 c6 bd 43 6e fa bd
       0.04823947 -0.3956518 -0.097020775 -0.12228062
000100 ae f0 bd bc 6d 45 41 3d 53 40 12 3e 48 64 57 be
       -0.023186054 0.04718535 0.1428235 -0.21034348
000110 6e 6a 75 bd 24 82 66 3e aa ee 24 3e 09 ed 26 3c
       -0.059915952 0.22510582 0.16106668 0.0101883495
000120 7d 2b 94 bf de 4d 15 3e 2c 90 42 3c ba 3c ba 3e
       -1.1575772 0.14580485 0.011875194 0.36374456
000130 22 df 97 3c ad 24 2e 3e a1 b7 0b bd 47 19 f8 3d
       0.018539015 0.17006178 -0.03411067 0.12114196
000140 b2 a1 97 3d e8 58 bb be 8d 33 8c bf 14 19 0c 3e
       0.07403888 -0.36591268 -1.0953232 0.13681442
000150 bf d9 90 bd 8f f6 2b be 2a c0 94 be 42 b0 78 3b
       -0.07072782 -0.16793273 -0.2905286 0.0037946855
000160 50 ab 85 bc 27 e3 25 bd e0 54 13 3e 7f a7 43 3d
       -0.01631704 -0.040499832 0.14387846 0.04776716
000170 8d 71 2f bd 6b 41 ef 3d 16 57 22 ba 50 e5 f4 bd
       -0.0428329 0.11682399 -0.00061927864 -0.119578004
000180 2c 91 c4 bc 90 d2 67 3e 3d b5 e4 bd 0e b7 62 bd
       -0.023995005 0.22638917 -0.11167381 -0.055350356
000190 7b 67 80 be 2a 32 6c be ca 9a 4c 3e 97 ef 68 bc
       -0.2507895 -0.23066011 0.19980922 -0.014217279
0001a0 bb 1d 2f be a9 13 12 bd 96 9d 8a be e5 08 a3 3d
       -0.17101185 -0.03566328 -0.27073354 0.07960681
0001b0 db 38 83 bd cd c7 c2 3d 46 e9 16 bd a6 b3 63 be
       -0.06407329 0.09510765 -0.03684356 -0.22236499
0001c0 0b 3f ad be 98 29 95 be 83 bf 25 bb 17 9b f2 3d
       -0.3383716 -0.29133296 -0.0025291152 0.11845987
0001d0 86 76 14 3e 66 7e 84 be 74 53 3d be 18 20 5c bd
       0.14498338 -0.25877684 -0.18488866 -0.053741544
0001e0 78 e7 0f 3e 7c 36 81 be cc 24 d4 bd 88 c2 a2 bd
       0.14053142 -0.2523688 -0.10358581 -0.0794726
0001f0 e8 ea 49 bd 3a 0f 45 bd 64 ee 75 bd d3 4e e7 bd
       -0.04929629 -0.048110224 -0.0600418 -0.112943314
000200 57 8e 02 3b 41 26 21 3d 22 4a 2f be c0 5e 24 3e
       0.0019921267 0.039343122 -0.17118123 0.1605177
000210 33 61 a6 3d 3f 5d ce bf 43 be 8b bd 43 6f 87 3e
       0.08124008 -1.6122206 -0.06823399 0.26452073
000220 b7 43 8e 3d 91 cc ab bd 44 66 ff ba b6 e0 bb bd
       0.06946509 -0.08388627 -0.0019485434 -0.091737196
000230 16 9b ff 3c ca 4f cb bd e9 b5 42 bd ad 7a 87 3d
       0.03120188 -0.09927328 -0.047536764 0.066151954
000240 1f cb 1f 3d a5 4f ce 3d 27 6a df 3d 5e 5e 95 3d
       0.03901207 0.10073785 0.10908919 0.0729339
000250 f7 c5 71 bd 18 f3 7a 3e 95 58 d3 bc 80 53 fe bd
       -0.059026685 0.24506795 -0.025799075 -0.1241827
000260 fb 24 11 bd 1c 51 02 3e fd 77 ea bd ab f6 8e 3d
       -0.035435658 0.12726253 -0.11448667 0.06980642
000270 0b 55 aa bf a8 68 c7 3c f0 4d 83 be 2f 9a 27 bc
       -1.3307203 0.024341896 -0.256454 -0.010229631
000280 50 35 3a be 2b 9b 92 bd dd 23 3d 3d 45 d1 c5 be
       -0.181844 -0.07158502 0.04617678 -0.38636222
000290 cf 05 a0 bd bd 08 6f be 09 9e 43 3d 69 c4 11 3e
       -0.07813608 -0.23343177 0.047758136 0.14235081
0002a0 8d 56 b6 be b4 7c 72 bd 08 3a 46 3d 07 17 00 3d
       -0.35612908 -0.059200957 0.048395187 0.03127196
0002b0 ec 90 b4 3d 85 8f 36 bd 23 e7 e9 bd 92 d1 28 3d
       0.08816704 -0.044570465 -0.11421039 0.041215487
0002c0 85 b7 3b be 64 fa 3b 3e 5a bc 0d 3e 92 fe 76 bd
       -0.18331726 0.18357235 0.13841382 -0.06030137
0002d0 ea b4 46 be c4 a2 c2 be 13 f1 15 be b4 91 84 3d
       -0.1940495 -0.38014805 -0.14642744 0.06473103
0002e0 ef 18 22 be cf 54 a1 be 40 30 c1 3d 4d 3b 6e bc
       -0.15829824 -0.31510016 0.09433031 -0.014540506
0002f0 0a d3 61 3e 1c 52 83 3d 24 a8 d2 3d 22 43 c9 3d
       0.22053161 0.064121455 0.102859765 0.09827258
000300 16 d3 fc b9 a2 a4 b3 bc 33 be fe bf 42 73 89 bb
       -0.00048222457 -0.021929089 -1.9901794 -0.004194648
000310 27 a5 26 bf aa 67 4a 3e b9 9c 01 be 97 48 04 3d
       -0.6509575 0.19766107 -0.12657441 0.03229579
000320 98 42 0c be 1f b7 43 3f 6c ac 98 bd 20 33 6b 3d
       -0.13697278 0.76451296 -0.07454762 0.057421803
000330 32 6c 07 3c 85 69 e9 be 65 35 4e bd 32 95 a4 3d
       0.008265542 -0.45588318 -0.05034389 0.08036269
000340 09 bb 08 be 6c d9 ab 3c 5d fe 40 be da 23 4c bd
       -0.13352598 0.020977698 -0.18847032 -0.04983888
000350 6d 1c 80 bd 4a 7b a2 3b 21 8e d8 bc 69 d9 cd 3c
       -0.06255422 0.004958545 -0.02643496 0.025128083
000360 cb e2 99 be 8a 18 fe 3e a2 aa a3 bd 12 1f 29 3c
       -0.30055842 0.49628097 -0.0799153 0.010322349
000370 b6 0d b2 3c 58 66 a5 3d 1d 9a b1 bc 37 78 4f 3e
       0.021735054 0.08076161 -0.021679932 0.20260702
000380 a7 37 de 3d 5f bb 06 bd 93 79 95 3d 75 0c c4 bc
       0.108504586 -0.032893535 0.07298579 -0.023931721
000390 4f fc 12 3e 7a 34 a2 3d c8 55 2f be 50 58 c1 3c
       0.1435406 0.07920165 -0.17122567 0.023601681
0003a0 3d 14 0c 3e 69 7f 0c bf 16 7e 15 bb 12 26 88 3d
       0.13679595 -0.5488191 -0.0022810749 0.06647886
0003b0 4b b6 59 3e 5c 3b 32 be 14 1b cb bd 53 ab 58 3e
       0.21260945 -0.17405456 -0.09917274 0.21159105
0003c0 85 10 7e bd 07 3c 01 bd 27 9c a5 3d 9c 9a 36 3d
       -0.062027473 -0.031551387 0.08086424 0.04458104
0003d0 6a 64 25 bc 6e 1b 0c 3e 94 01 28 be a7 81 d2 bd
       -0.010094741 0.13682339 -0.16406852 -0.102786355
0003e0 0d 1c 94 bc d1 f2 32 bc d6 33 cf be 45 31 f6 3d
       -0.018079782 -0.01092215 -0.40469235 0.12021116
0003f0 34 52 92 3d 95 c4 41 bd 6d 68 c5 3e 0b 41 f6 bd
       0.07144585 -0.047306616 0.38556233 -0.12024125

network_smart.layer3.0.bias f4 [48]
000000 c8 cc e8 3c 88 35 d7 bc 04 85 8c bd 87 ee 84 3d
       0.02841796 -0.026270643 -0.06861308 0.06490808
000010 da 59 b4 3d c6 c5 93 3d e1 f7 89 bd d9 21 7d bd
       0.088062 0.07215457 -0.06736732 -0.061799858
000020 33 e8 06 3c 44 0b 4b 3c 2e a6 d3 3d 32 07 63 bd
       0.008234072 0.012392823 0.10334431 -0.055426784
000030 9a 97 08 3a 75 8b 92 3d 42 df f4 3d 3e f2 33 3d
       0.00052105787 0.071555056 0.119566455 0.043932192
000040 04 35 60 bc d6 06 d6 bd 18 4b 46 bd f0 ee f6 3c
       -0.013684515 -0.104505226 -0.04841146 0.030143231
000050 e2 b0 3d bd 82 7b e3 bc 89 21 c2 bc 21 09 5f bd
       -0.046311267 -0.027768854 -0.023697631 -0.054452065
000060 10 f1 38 3d 29 7c 92 3c 73 57 a0 3c ff 49 66 bd
       0.04515177 0.01788147 0.019572949 -0.056222912
000070 31 3c cf 3d 2b c0 cb bc 65 38 42 3d 14 ca 04 3d
       0.101189025 -0.024871906 0.047417063 0.03241928
000080 ed f1 bc bb 52 e0 2f bb d2 4a ac bd d3 aa 02 bd
       -0.0057661445 -0.0026836586 -0.08412708 -0.031901192
000090 53 58 7d bd ca f6 af 3d e7 4f d0 3c 6b 36 76 bc
       -0.06185181 0.08591993 0.025428725 -0.015027623
0000a0 79 ae 52 bc 28 c8 b3 3d f1 33 93 3d fc 4e 28 bc
       -0.01285898 0.08778411 0.071876414 -0.010272738
0000b0 fe 1c e8 bc 89 b1 97 3d e2 af f2 bd d5 f1 68 bd
       -0.028334137 0.07406909 -0.11849953 -0.056871254

fc_smart.weight f4 [64, 48]
000000 55 e5 1b 3f 1b d1 17 3f ec 3f e7 3e 11 6d 39 3e
       0.6089681 0.59303445 0.45165956 0.18108012
000010 52 2c d7 3d e5 66 d0 bc 5d a7 70 3e 65 92 4d 3e
       0.105065 -0.025439689 0.23501344 0.20075376
000020 a4 09 66 bd 50 fd a4 3e fb 81 3f be cc 3d b2 3d
       -0.056161538 0.32224512 -0.18701927 0.08703193
000030 69 ea 71 3d f2 b2 33 3d 75 ea 05 be 49 0f 63 3e
       0.05906144 0.043871827 -0.1307772 0.221738
000040 06 9e 03 3f 83 48 d6 be aa 6f 75 3e 62 2c d3 3b
       0.51413 -0.41852197 0.23968378 0.0064445
000050 eb e6 a8 3e 13 75 98 3e 94 88 01 bf 07 a4 50 be
       0.32988676 0.2977682 -0.50599027 -0.20375071
000060 53 ee 20 3e 59 d7 89 be c0 f0 f5 bb b9 d9 f3 3e
       0.15715913 -0.2692211 -0.0075055063 0.47627047
000070 d6 c5 c0 3e c4 4c 6b bd 1e 74 c7 3c 1a c5 33 3d
       0.37650937 -0.057446256 0.024347361 0.043889143
000080 66 c1 38 3e 53 bf 7c be 73 e1 74 3d 1b 2c bb 3e
       0.18042526 -0.2468236 0.059785318 0.36557087
000090 d2 74 ad 3d b6 a9 eb bd 99 04 73 3e d3 47 0a 3e
       0.08469547 -0.11506979 0.23732223 0.13503961
0000a0 91 3a 01 3e 8f db c4 3e 00 92 31 bd 17 45 5b 3f
       0.12619998 0.3844876 -0.043352127 0.856523
0000b0 2a 99 93 3e 68 b8 5e 3f 1e 38 20 3e 83 da 17 bd
       0.28827792 0.8700013 0.15646407 -0.037073623
0000c0 93 65 51 bf 38 31 13 bf ac f2 f3 be 55 ec 05 bf
       -0.81795615 -0.57496977 -0.4764608 -0.5231374
0000d0 13 bf b9 3d 87 76 4b 3e c2 92 ab be 64 e0 20 be
       0.09069648 0.19869433 -0.33510405 -0.15710598
0000e0 29 51 77 3c d1 ff 88 be d0 12 67 3d 66 92 7d bd
       0.015095034 -0.26757672 0.056414425 -0.061907195
0000f0 d2 f0 83 be e4 09 d6 bd 80 df 9e 3d 0d 78 91 be
       -0.2576967 -0.10451105 0.07757473 -0.28411904
000100 5c aa ef be 67 3e a5 3e b4 f2 02 be 9e fb cc bd
       -0.4680966 0.32274172 -0.12787896 -0.1000893
000110 a8 1b 66 be 66 cb 28 be af 9d f6 3e ec 05 e3 3c
       -0.22471488 -0.1648384 0.48167178 0.027712785
000120 34 65 a1 bd 56 45 a5 3d 15 b6 56 be 78 cd 21 bf
       -0.07880631 0.080698654 -0.20967896 -0.63204145
000130 07 ee af be 99 d0 b3 3e c6 b8 01 3e 7e db 0a 3e
       -0.34361288 0.35120085 0.12668142 0.13560292
000140 6d ff bc be 63 d8 35 bd 9e 6c d8 3b b9 c5 b4 be
       -0.36913624 -0.044395816 0.006604745 -0.353071
000150 59 16 80 bc ec ab 23 3d 28 db 2d be 96 f6 28 bc
       -0.015635656 0.03995888 -0.16978133 -0.010312697
000160 1d c4 bb 3d 55 0b f7 be 15 30 1c 3d 8f da 61 bf
       0.09168265 -0.48250833 0.038131792 -0.8822412
000170 8c 0b a6 be 7b b0 6c bf 69 c3 f6 bd a2 72 47 3c
       -0.32430685 -0.9245679 -0.1204899 0.012173327
000180 45 b1 62 3f 05 25 46 3f 76 53 14 3f 26 05 b6 3e
       0.8855174 0.7740024 0.5793985 0.35550803
000190 4c 8e 7c bc 21 6c 03 bd 2a 01 9d 3e 80 49 6e 3e
       -0.015414786 -0.03208554 0.3066495 0.23270226
0001a0 2f 9b 8f 3b 74 a4 d1 3e 6c 6e ac ba 97 65 3a 3d
       0.004382513 0.4094578 -0.0013155467 0.04550704
0001b0 eb 86 b5 3d 2d c5 03 3e d5 9c 44 be 11 2e 84 3e
       0.08863624 0.12868185 -0.19200452 0.25816396
0001c0 01 a0 1c 3f 6c a8 19 bf b1 06 3a 3e 31 78 0d be
       0.61181647 -0.60022616 0.18166615 -0.1381538
0001d0 bf 51 b8 3e da fe aa 3e 10 a1 25 bf f9 ab 61 be
       0.35999867 0.3339756 -0.64698887 -0.22038259
0001e0 fb bd 14 3e b1 a6 b2 be 35 b5 fe 3d d3 54 27 3f
       0.14525597 -0.348928 0.12436906 0.65363806
0001f0 bf de ef 3e 48 eb 07 be 2a 06 60 bc fb 83 a7 bd
       0.4684963 -0.13273346 -0.013673345 -0.0817947
000200 41 d0 a4 3e e5 c7 80 bf 28 de 88 bd 34 b7 ce 3e
       0.32190135 -1.0061003 -0.06682998 0.40374148
000210 f2 88 01 bc 16 62 46 be c5 d7 8b 3e 1b 8e 86 bc
       -0.007906185 -0.19373354 0.27313057 -0.016425183
000220 37 91 b5 3c 94 2c 02 3f 73 ad 20 bc ad 1f 0d 3f
       0.02216397 0.5084927 -0.0098069785 0.5512646
000230 4c 40 bf 3e da d3 86 3f d5 e2 82 be 76 41 e6 3b
       0.37353742 1.0533402 -0.25563684 0.0070268465
000240 e3 5d 32 bf 82 c2 2c bf f2 45 0f bf 00 60 e1 bd
       -0.6967451 -0.67484295 -0.55966103 -0.11004639
000250 88 71 9b bd 68 85 b9 bd 2f 84 50 be 59 d5 8c be
       -0.07590014 -0.09058648 -0.20362924 -0.2750652
000260 ad 3d 1c 3e 34 86 ce be 15 37 5c 3e 0c 6e 85 bd
       0.15257902 -0.40336764 0.21505387 -0.065151304
000270 d4 25 72 3d 80 a2 a4 bd 44 b8 87 bb cf ac 55 be
       0.059118107 -0.08038807 -0.004141839 -0.20866702
000280 b0 38 11 bf 2e 45 03 3f 39 9d 93 be d2 7f ed bd
       -0.56727123 0.51277435 -0.2883089 -0.115966454
000290 e7 b5 b9 be b5 ae c4 be 3e bb 1d 3f 94 57 8b 3e
       -0.36271593 -0.3841454 0.61613834 0.27215254
0002a0 d3 a4 46 be 28 7c d1 3e 1e f0 2b 3c fc 53 09 bf
       -0.19398813 0.40915036 0.01049426 -0.53643775
0002b0 da 7a f0 be 5e b2 09 3d 23 1e 81 bb ec a5 ee 3b
       -0.46968728 0.03361737 -0.00394036 0.007282963
0002c0 94 67 5d be e5 a8 6f 3f c0 83 63 3c 46 ff e0 be
       -0.21621543 0.9361709 0.013886392 -0.43944758
0002d0 a7 6e 8d bd 74 82 41 3d 53 a0 97 be 30 bc 18 bc
       -0.06905871 0.04724355 -0.29614505 -0.009322211
0002e0 e4 fa c6 3d 0a 70 fd be a9 39 f1 3c 4c 6f 89 3d
       0.09715822 -0.49499542 0.02944644 0.06710681
0002f0 7b b3 91 be 5e e1 7f bf a5 ce 8f 3e b5 12 be bd
       -0.28457245 -0.9995326 0.28087345 -0.09280912
000300 59 30 57 3f cc 46 37 3f 27 0b 13 3f 47 84 c9 3e
       0.8405815 0.715924 0.5743889 0.39358732
000310 36 66 12 be 26 8b d2 bd c8 96 b1 3e b5 e7 53 3e
       -0.14296803 -0.10280447 0.3468535 0.20693858
000320 78 ea f7 bd 07 3e b6 3e cc da 28 be ba ab ce bc
       -0.12105268 0.35594198 -0.16489714 -0.02522837
000330 61 4b 39 3e 94 12 a2 3d 8b ae e7 bd 59 fc 99 3e
       0.18095161 0.079137 -0.11312588 0.30075338
000340 e2 2d 1d 3f e6 61 da be ff 85 61 3e a0 ae bb 3c
       0.61398137 -0.42652816 0.22023772 0.022910416
000350 42 65 b4 3e c7 d0 ab 3e d9 02 15 bf 96 b8 23 be
       0.35233504 0.33557722 -0.5820747 -0.15988383
000360 75 10 17 3e f5 ab 71 be af ea f7 3d c2 48 2c 3f
       0.14752372 -0.23600753 0.12105309 0.6729852
000370 58 b1 e2 3e c7 cf 65 be 90 f0 d9 ba 1f cc 9c 3d
       0.44275928 -0.22442542 -0.0016627479 0.076561205
000380 c8 db 9d 3e 6e 94 07 be 94 a3 9f 3d e7 ca d8 3e
       0.30831742 -0.13240215 0.07794872 0.42342302
000390 30 57 ab bd d5 31 d3 bd 47 61 9c 3e d8 57 25 bd
       -0.08366239 -0.10312239 0.30542967 -0.040366977
0003a0 11 95 ce bd 38 7b f7 3e 80 46 92 bc 53 85 60 3f
       -0.10087026 0.48336196 -0.017855883 0.87703437
0003b0 29 71 ca 3e e8 c4 90 3f 2d 69 80 3e c6 86 8f bd
       0.3953946 1.1310091 0.25080243 -0.07008128
0003c0 83 4d 47 bf 4f eb 35 bf da 30 0b bf 80 d8 70 be
       -0.7785265 -0.7106218 -0.54371417 -0.23520088
0003d0 5a c6 d7 3c 99 3a 96 bc 92 00 8f be 5c 2b 83 be
       0.026339699 -0.018338488 -0.27930123 -0.25619018
0003e0 48 b1 19 3e 85 a6 b0 be a8 43 e1 3d 2e 93 25 3d
       0.15009034 -0.34502044 0.109992325 0.040423565
0003f0 61 c3 f0 bd 8e e1 b5 bd e0 fe 00 3e 17 cc 8a be
       -0.117560156 -0.08880912 0.12597227 -0.27108833

fc_smart.bias f4 [64]
000000 fe b1 cd 3c 57 db 5e bb e0 d8 b7 3c 03 18 c3 bc
       0.025109287 -0.0034005248 0.022442281 -0.02381516
000010 0d f3 ae 3c d1 f3 a0 bc d9 c4 45 bd 5a 8a 9a bc
       0.02135613 -0.01964751 -0.04828343 -0.0188648
000020 9c a6 2f 3d 59 b1 75 bc 06 e9 82 bc 7f 9b 82 3d
       0.0428835 -0.014995896 -0.015980255 0.06377315
000030 a0 01 67 3d 91 91 cf bd 96 48 ad bd d9 34 eb bc
       0.056398034 -0.101351865 -0.0846111 -0.028711723
000040 34 24 bb bc 5d 2f 99 bd d7 6c ca 3d e6 53 f5 3d
       -0.022844411 -0.07479737 0.09884041 0.11978893
000050 dd 14 65 3b fc df 83 bc 97 3d fc bd 45 27 fd bd
       0.0034955062 -0.016098015 -0.12316435 -0.12361006
000060 eb b8 65 bb e7 d1 a1 3d b8 64 d9 bc e4 8c 0e 3b
       -0.0035052847 0.07901364 -0.026537284 0.0021751458
000070 c1 53 03 3c 79 31 d9 3d a5 23 f0 bc c6 c9 c1 bd
       0.008015574 0.10605139 -0.029313872 -0.09462313
000080 44 e3 e5 bd 8c 37 24 bd 1c b6 f5 bd dc 04 dc bc
       -0.11224988 -0.040092036 -0.11997625 -0.026857786
000090 59 2d 74 3c b1 71 05 3d 73 3f 3d bd 3e c4 60 3d
       0.01490339 0.032579128 -0.046203088 0.05487465
0000a0 64 86 92 bb 03 bb 8e 3c b3 92 07 bd 93 5c 98 bb
       -0.004471587 0.017423159 -0.033098888 -0.0046497076
0000b0 b3 e1 ba bc 44 67 8c bd ba da dd bd 98 cc e4 ba
       -0.0228127 -0.06855634 -0.108327344 -0.0017455993
0000c0 b6 fd 82 3d fe 04 0d bd 92 ea a8 bb 18 62 5d bc
       0.06396048 -0.03442859 -0.005154916 -0.013512157
0000d0 a7 ad 8c bd 3d bf 7b bc 99 96 d6 bd da 0f 27 bd
       -0.06869059 -0.015365419 -0.10477943 -0.0407866
0000e0 4d eb d5 bc dd 86 1b bd 65 94 53 3d 5e 27 41 3d
       -0.026113177 -0.037970413 0.051655192 0.047156684
0000f0 52 4b c8 3d 30 1f 23 3d 86 5e c5 bd 97 0a f7 3d
       0.09779991 0.039824665 -0.096371695 0.12062567

network_aging.lstm.weight_ih_l0 f4 [128, 5]
000000 d8 91 db bd 0b e8 00 3e 04 8f a2 3d ec 66 5d bd
       -0.10721177 0.12588517 0.07937434 -0.054053232
000010 9b 90 05 be 34 f5 0f 3e df 2f cc 3c 69 62 43 bc
       -0.13043444 0.14058381 0.02492517 -0.011925318
000020 67 f2 0c 3e 74 9f cd bd a6 80 c2 bc 2f 67 10 3e
       0.13764344 -0.10040179 -0.023742985 0.14101861
000030 af 99 a5 bd 99 1e 00 be d6 55 22 be 65 42 c1 bc
       -0.080859534 -0.12511672 -0.15853056 -0.02359123
000040 6b 03 73 3e bb 95 53 bd bc 67 11 bd 76 49 0a bd
       0.23731773 -0.051656466 -0.03549932 -0.033761464
000050 e4 86 2b 3c a0 18 6d 3e 5d c4 82 3c 96 df 6a 3c
       0.010469172 0.23153925 0.015962774 0.014335534
000060 45 d9 21 bc 9c 02 6e bd e2 92 ff 3d 40 ba cc 3d
       -0.009878461 -0.058107957 0.124791875 0.09996462
000070 bc 5b 3c 3d cc 9f 17 be 65 54 5e 3e 7f 58 96 bc
       0.045985922 -0.14807051 0.21711881 -0.018352745
000080 02 ba ec 3c 41 ee 27 3d d0 4c 07 3e ac b2 ad 3d
       0.02889729 0.0409987 0.13212895 0.084813446
000090 3f 2c b8 bd 3e d0 b2 3d 18 89 b8 3d 66 b1 61 3a
       -0.08992814 0.08731125 0.090105236 0.0008609503
0000a0 9f 20 dc bd f3 18 e5 3d 51 4b 1a 3e 8b f7 de 3d
       -0.107484095 0.11186399 0.15067793 0.10887059
0000b0 d9 b3 83 bd d1 c0 8a bc 92 21 4c 3e df de 50 3e
       -0.064307876 -0.016937645 0.19934681 0.20397519
0000c0 49 ec de 3d 70 d2 97 bd f8 cc 5e 3d 93 b5 85 bc
       0.108849116 -0.07413185 0.054394692 -0.016321933
0000d0 72 5b 03 3e eb 96 14 3e 78 fc 0f 3e 51 5b 24 bd
       0.12827852 0.14510696 0.14061153 -0.04012615
0000e0 45 2e ec bd 75 a4 11 bc 73 ef 07 3e 1b bd 2c 3e
       -0.11532263 -0.008889307 0.13274936 0.16869013
0000f0 56 c3 14 3e 83 31 2c 3e 05 de 19 bd 34 19 c2 bc
       0.1452764 0.16815762 -0.03756525 -0.023693658
000100 22 14 09 3e 5f 77 48 3e 22 c9 0b be c4 62 a0 3d
       0.13386586 0.19576786 -0.13650945 0.07831338
000110 a2 0b 77 3c 4e d7 1e 3e 87 8c cb 3d 53 c6 09 3e
       0.015078457 0.1551182 0.09938913 0.13454561
000120 30 cb 1e 3e 4c b6 b6 3d ec 9d 0f bd 85 1b 9a bd
       0.15507197 0.08921489 -0.035062715 -0.0752478
000130 f7 21 c8 bd ca 68 8f bd db 6c 1a bd 5e 85 08 be
       -0.09772103 -0.07002409 -0.03770147 -0.13332126
000140 01 3c 38 bd 27 15 37 3e 27 89 34 3c ed 38 f6 bb
       -0.0449791 0.17879163 0.011019028 -0.0075141103
000150 c0 a8 bf 3d 71 58 92 3d c2 eb 10 be 69 09 13 3c
       0.093583584 0.07145775 -0.14152434 0.0089744115
000160 87 07 b5 3d 03 c1 68 3d ab 84 52 3e 85 82 58 3e
       0.08839326 0.056824695 0.20558421 0.21143539
000170 e8 e3 cd bd 66 28 17 3d 2f bd e5 3d 75 72 1e 3d
       -0.10053235 0.03690376 0.112177245 0.038683373
000180 cd 86 ef 3d 8d 53 e9 bb 61 63 0d be 6e 94 21 3e
       0.11695633 -0.0071205557 -0.13807441 0.15779278
000190 dc 7d 4b 3e e8 d3 af bd 43 73 3c 3d d6 99 5f bd
       0.1987223 -0.0858534 0.04600836 -0.05459007
0001a0 ce 75 b0 3d 88 6b 17 3e 55 95 5e bc 41 99 bc 3d
       0.086162195 0.14787114 -0.013585408 0.09208918
0001b0 c0 9f 4d 3d 67 38 be bd 3a 92 70 3d a6 f7 85 bd
       0.050201178 -0.09288102 0.058733203 -0.06541376
0001c0 3e 65 7b 3b 3c d8 ac 3c c8 9e df 3c 43 f5 b3 3d
       0.0038359906 0.021099202 0.027297392 0.08787014
0001d0 46 ce b2 bd 78 ac 97 bd f1 9d 55 3e c1 a3 bc 3d
       -0.0873075 -0.07405943 0.20861031 0.09210921
0001e0 4a 72 bf 3d 84 f7 6a 3d c2 44 ca bd 10 f4 84 3d
       0.09347971 0.057364956 -0.09876396 0.06491864
0001f0 83 60 f8 bd 58 e8 88 bd 63 58 e4 bb a8 7e 08 3e
       -0.12127783 -0.06684941 -0.0069685443 0.13329566
000200 25 74 d2 bd bc 68 66 3d 76 65 27 3e 80 f5 57 3e
       -0.10276059 0.056252226 0.16347298 0.21089745
000210 67 6f 54 3e 94 e6 2c 3e ac 01 c3 3b fb 31 4d 3e
       0.20745622 0.16884834 0.005951127 0.20038597
000220 41 24 b3 3d 78 26 e7 3d de 54 33 3e 06 e4 35 3e
       0.08747149 0.11286634 0.17512843 0.17762765
000230 14 7a 57 3e fa 63 fa 3c f9 bb c0 bd f2 c4 4f 3e
       0.21042663 0.03056525 -0.09410853 0.20289972
000240 6c 85 a7 bd 81 f3 b0 bd 4c 86 d0 bd c9 14 15 3e
       -0.08179745 -0.08640195 -0.10181865 0.1455871
000250 94 d4 10 3e 90 89 3d 3e a6 d8 3e 3e 40 0e 5b 3e
       0.14143592 0.18509507 0.18637332 0.21392155
000260 bb 09 cd bd 52 ae 3a ba a1 81 1c be d9 a4 2b bd
       -0.100116216 -0.00071213127 -0.15283825 -0.041905258
000270 43 fa 94 bd d9 86 7d 3c 44 cb 3c 3e a7 e8 84 bd
       -0.07274296 0.015474045 0.18436915 -0.064896874
000280 77 e7 80 3d 43 12 73 3e 18 a2 99 bd 28 e4 03 be
       0.062941484 0.23737435 -0.0750162 -0.12880003
000290 a9 15 82 bd 49 15 89 bd e5 e8 e5 bd 50 d2 e9 bd
       -0.063517876 -0.06693513 -0.11226062 -0.11417067
0002a0 88 03 f9 bd 89 95 0d be 9b 2b 5c 3d 9d 10 63 bc
       -0.12158877 -0.13826574 0.053752523 -0.013858941
0002b0 1f d8 54 3e a2 dd eb bc be 69 1d be 7d 3e 11 3e
       0.20785569 -0.028792206 -0.15372369 0.14183994
0002c0 f1 47 b4 3d e5 d7 c7 3d e8 4e 80 bd 69 c8 fc bd
       0.08802784 0.097579755 -0.0626505 -0.12342913
0002d0 c7 63 e4 3d c2 18 aa bc 1c 10 db 3d 8d 40 37 bd
       0.111518435 -0.020763759 0.10696432 -0.044739295
0002e0 74 1d 83 bd b1 07 e4 bd 06 28 53 3d ff 28 2b 3e
       -0.06402102 -0.111342795 0.05155184 0.16714858
0002f0 30 f4 91 bd 6c a2 5b 3d 9b a0 be 3c 7f cc 46 3e
       -0.07126653 0.053621694 0.023269942 0.19413947
000300 7a 7b 58 3e 24 25 82 3c fa 8d 96 3d 27 14 8f 3d
       0.21140853 0.01588685 0.07351299 0.06986266
000310 ee eb b4 3d 67 89 ce 3d f1 ba 3b 3d b0 2d 8a 3d
       0.088340625 0.10084801 0.045832578 0.067469954
000320 ac 2f c0 bc 7d fa a6 3c e4 d5 19 3e d4 00 60 bd
       -0.023460232 0.020383114 0.15022999 -0.05468829
000330 38 31 40 bd 8d 1f a3 3d cc 06 15 3e c4 d9 e1 3c
       -0.04692194 0.07965002 0.14553374 0.027569659
000340 41 a1 f4 bd 54 10 44 3e f1 28 8f b9 fa a9 67 bd
       -0.11944819 0.19146854 -0.0002730559 -0.056558587
000350 1c 82 15 3d 4c c2 36 3d 84 9b 13 be 1d c0 22 3e
       0.036501035 0.04461889 -0.14414793 0.15893598
000360 c7 73 98 3d 6a c9 a8 3d 6e 44 90 bd 8d a0 4a 3e
       0.07443958 0.08241542 -0.07044302 0.19787808
000370 7f 23 45 3e f3 b0 04 3e 7f 3b 5e 3e 2e 53 03 bc
       0.19251822 0.12958126 0.21702383 -0.008015437
000380 78 a7 97 3d cb fe 9b bd ea cb 3e 3c d3 b4 38 bd
       0.07404989 -0.07616957 0.011645297 -0.045094322
000390 00 e9 f5 3d 80 17 31 3e 75 0b ed 3d 8f 5a f3 bc
       0.12007332 0.17294121 0.11574451 -0.029706268
0003a0 c5 3b cf bd d9 4f 12 be 4e 17 00 be f3 11 36 3e
       -0.10118822 -0.14288272 -0.1250889 0.17780285
0003b0 69 65 02 be 6f 77 16 bd 26 bb b8 3d 21 42 12 3e
       -0.12733997 -0.036734995 0.09020071 0.14283039
0003c0 38 b4 e4 3d 12 ac 2b 3e a6 8b e5 bd fa e3 f3 bd
       0.111671865 0.16764858 -0.112082765 -0.119087175
0003d0 78 22 9e 3d 25 32 45 3e 84 bd e5 bc 6d 23 c2 bd
       0.07721418 0.1925741 -0.02804447 -0.09479413
0003e0 4b 2e 28 3e 75 99 f5 bb 53 74 60 3e a4 e6 11 3e
       0.1642391 -0.0074951 0.21919374 0.14248139
0003f0 99 39 de 3d ee 69 39 3d c4 ea 28 bd 2c 6e 11 3e
       0.1085083 0.045267038 -0.041239515 0.14202183
