trained_model/mc1_mc2/120_days_lookahead/pnet.pth (torch, 545278 bytes, 36 tensors)

network_smart.layer1.0.weight f4 [128, 330]
-0.026436953 0.12952547 -0.27173698 -0.2816104 3.216514 -1.8561215 -1.0024265 -0.106565565
-0.011780318 3.2761214 1.0455505 0.022262799 0.08177099 -0.5018563 -0.6861048 3.2477045
-1.9562794 -0.9986018 -0.13050811 -0.37713033 3.2099373 1.0295097 -0.048062153 0.09135209
-0.4738391 -0.3263867 3.0357995 -1.8579347 -1.0430027 -0.07697413 -0.149228 3.0178518
1.0283694 0.013432728 0.1458011 -0.5056957 -0.2346939 2.9186795 -1.8863486 -1.0623205
-0.100147635 0.029778827 2.9935994 0.7852842 -0.07111824 0.16579396 -0.6631612 -0.6920172
2.8860192 -1.9486625 -0.97575843 -0.034326307 0.21171926 2.9319975 0.7410051 -0.030351121
0.13280605 -0.5171708 -0.28085184 2.8674376 -1.9597428 -1.0120506 -0.12868108 0.21054016
2.8124018 0.619005 0.0060913577 0.15531059 -0.17877467 -0.23898232 3.0441048 -1.9694555
-0.9839114 -0.12024155 0.258898 3.00634 0.58500814 0.04645726 0.109972954 -0.16757996
-0.28983858 3.0003283 -2.0016773 -0.96816736 -0.09592274 0.28387082 2.9917068 0.6084684
-0.013016798 0.19930609 -0.204299 -0.27236894 2.8718853 -1.9545193 -1.0773454 -0.08794313
0.3506781 2.8723605 0.5493163 0.04342982 0.078834355 -0.08452598 -0.44618526 2.8489645
-1.9038914 -1.0971739 -0.06015667 -0.07525906 2.841808 0.38293922 -0.024076568 0.118297204
0.13605405 -0.25620106 2.9041128 -1.9456717 -0.98738694 -0.02982203 0.13701656 2.9154577
0.22706528 0.04568271 0.15148811 0.25131762 -0.34578928 2.8423574 -2.0280473 -1.014292
-0.05709525 0.055620313 2.883542 0.18254183 -0.031250466 0.20586748 0.005926679 0.334472
2.6991487 -2.0075996 -1.0419328 -0.033230346 0.12838383 2.7257519 0.15366149 -0.0019736912
0.08975761 0.46179917 -0.2766799 2.8712885 -1.9880002 -1.0055048 -0.01550103 0.0931246
2.8312953 0.13350815 0.050071154 0.12108883 0.42296973 -0.39931378 3.0061495 -1.9300083
-1.0446744 0.025832506 -0.38866374 2.9939303 0.111207165 -0.03288532 0.12063677 -0.07628121
-0.36065084 3.1264846 -1.9706323 -1.0528724 -0.011931411 -0.06768461 3.1396327 0.051468506
-0.03202001 0.1665661 -0.025809627 -0.32141536 3.085133 -1.9355208 -1.0599524 0.022785412
0.13872363 3.1087537 -0.3409225 -0.033067662 0.08728329 -0.05599466 -0.39673564 3.0093224
-1.9677808 -1.0093608 -0.10154678 -0.17297703 2.9209414 -0.42336902 0.03080297 0.17253403
0.08910772 -0.40151635 2.9397788 -2.0185552 -1.042576 0.008608078 0.14467414 2.8943496
-0.45367026 0.079194814 0.14410968 0.19443475 0.16678305 2.8610933 -2.029999 -1.0727141
-0.05743275 0.10518918 2.8932405 -0.43307307 -0.05642648 0.109198414 0.17086242 -0.4949816
2.8518803 -1.9756678 -0.9897699 0.0063730916 0.021960964 2.834655 -0.497724 -0.02563212
0.16955993 0.21063519 -1.4051154 2.6351514 -1.9966514 -1.0248716 -0.06120965 0.03064915
2.673705 -0.60400546 -0.031569462 0.2567771 0.1237285 -0.19508916 2.5659487 -1.9747999
-0.9799242 -0.038156133 0.21638252 2.5747633 -0.6180061 0.051482107 0.24636921 -0.031347223
00000000: 4f92 d8bc 53a2 043e 1c21 8bbe 3d2f 90be
00000010: 5edb 4d40 6495 edbf 834f 80bf 0c3f dabd
00000020: 3c02 41bc f9ab 5140 99d4 853f 7960 b63c
00000030: 8c77 a73d a879 00bf 90a4 2fbf 64da 4f40
00000040: 5d67 fabf 5ea4 7fbf eba3 05be 3a17 c1be
00000050: 9d6f 4d40 f9c6 833f d2dc 44bd ce16 bb3d
00000060: 0a9b f2be 281c a7be 8a4a 4240 ced0 edbf
00000070: 1d81 85bf 9da4 9dbd 3acf 18be 7c24 4140
00000080: 9ca1 833f f214 5c3c e24c 153e 4675 01bf
00000090: 9953 70be a5cb 3a40 df73 f1bf 1efa 87bf
000000a0: 341a cdbd baf2 f33c 2297 3f40 6308 493f
000000b0: 71a6 91bd e4c5 293e efc4 29bf 0a28 31bf
000000c0: 8ab4 3840 c66d f9bf 4ecb 79bf be99 0cbd
000000d0: efcc 583e d9a5 3b40 83b2 3d3f eaa2 f8bc
000000e0: 4ffe 073e 4e65 04bf d0cb 8fbe 1984 3740
000000f0: dad8 fabf e08a 81bf f9c4 03be d797 573e
00000100: 64fe 3340 1d77 1e3f 039a c73b bd09 1f3e
00000110: b510 37be c8b7 74be 9dd2 4240 1e17 fcbf
00000120: 9ee1 7bbf 3441 f6bd 478e 843e e067 4040
00000130: 18c3 153f f849 3e3d 8039 e13d 159a 2bbe
00000140: b965 94be 6105 4040 7b1b 00c0 d1d9 77bf
00000150: 2473 c4bd 8457 913e 2078 3f40 96c4 1b3f
00000160: 6844 55bc e516 4c3e c233 51be f173 8bbe
00000170: f8cc 3740 b02d fabf 74e6 89bf 871b b4bd
00000180: 148c b33e c1d4 3740 fe9f 0c3f 78e3 313d
00000190: e873 a13d f51b adbd 6572 e4be 6f55 3640
000001a0: b7b2 f3bf 3270 8cbf d766 76bd 6c21 9abd
000001b0: 2fe0 3540 9c10 c43e 393c c5bc ce45 f23d
000001c0: c151 0b3e c92c 83be fcdc 3940 c50b f9bf
000001d0: 64c5 7cbf 544d f4bc 124e 0c3e dc96 3a40
000001e0: cd83 683e cb1d 3b3d b31f 1b3e b4ac 803e
000001f0: 4b0b b1be 2fe9 3540 87cb 01c0 52d4 81bf
00000200: b5dc 69bd 20d2 633d f48b 3840 3fec 3a3e
00000210: 7d00 00bd edce 523e 9634 c23b ea3f ab3e
00000220: dabe 2c40 837c 00c0 0e5e 85bf 8b1c 08bd
00000230: 0d77 033e b872 2e40 7059 1d3e 0b59 01bb
00000240: d6d2 b73d f170 ec3e fda8 8dbe 31c3 3740
00000250: ca76 febf 62b4 80bf 08f8 7dbc 1cb8 be3d
00000260: f133 3540 5cb6 083e 6917 4d3d 6cfd f73d
00000270: 7d8f d83e db72 ccbe c164 4040 830a f7bf
00000280: e4b7 85bf b19e d33c effe c6be 8e9c 3f40
00000290: 95c0 e33d c2b2 06bd 6910 f73d 5339 9cbd
000002a0: 3aa7 b8be 5318 4840 ae3d fcbf 86c4 86bf
000002b0: f77b 43bc 3b9e 8abd beef 4840 a4d0 523d
000002c0: 6a27 03bd 4e90 2a3e b66e d3bc 8e90 a4be
000002d0: d272 4540 25bf f7bf 85ac 87bf 79a8 ba3c
000002e0: 910d 0e3e d2f5 4640 658d aebe f571 07bd
000002f0: 95c1 b23d a85a 65bd ef20 cbbe bd98 4040
00000300: 3ee0 fbbf bc32 81bf c2f7 cfbd e420 31be
00000310: b4f0 3a40 d3c3 d8be 8356 fc3c c3ac 303e
00000320: 1c7e b63d 8d93 cdbe 5625 3c40 0230 01c0
00000330: 2173 85bf e508 0d3c 7525 143e 063d 3940
00000340: 7847 e8be e430 a23d 7d91 133e e719 473e
00000350: 2dc9 2a3e 271c 3740 81eb 01c0 b24e 89bf
00000360: 9a3e 6bbd 6d6d d73d da2a 3940 c1bb ddbe
00000370: 741f 67bd 6ba3 df3d 8ff6 2e3e 3a6e fdbe
00000380: 3585 3640 afe2 fcbf 8f61 7dbf 5ed5 d03b
00000390: 7be7 b33c fd6a 3540 aed5 febe 74fa d1bc
000003a0: 1ea1 2d3e c0b0 573e d2da b3bf 52a6 2840
000003b0: 4692 ffbf fe2e 83bf f8b6 7abd ed13 fb3c
000003c0: fc1d 2b40 1aa0 1abf fb4e 01bd 4a78 833e
000003d0: 5e65 fd3d 74c5 47be 8138 2440 3ec6 fcbf
000003e0: 50dc 7abf 9b49 1cbd 6193 5d3e ecc8 2440
000003f0: a635 1ebf e7de 523d 3648 7c3e f265 00bd

network_smart.layer1.0.bias f4 [128]
0.12867035 -0.12480474 0.052172653 0.094932325 -0.01419412 0.27937573 0.19996497 0.16838264
-0.015520911 0.025167549 -0.30091918 0.14111744 -0.053575628 -0.43190563 0.21416298 0.022333806
0.00024127106 0.06816733 0.107570395 -0.24150918 0.0005159084 0.038363487 0.14199126 -0.13966595
-0.005368087 0.008976004 0.10745517 -0.030504007 -0.10410586 -0.32423368 -0.22724335 -0.045254823
-0.03315835 0.14307614 0.13834223 -0.0047808364 -0.40900305 0.0820884 0.056245826 0.13831401
0.17561525 -0.021159114 0.10831182 0.08005366 0.100744136 0.024583569 0.09159888 0.09298584
0.14306362 0.0033857164 0.13136685 0.011480782 0.106581815 -0.040594112 0.1097053 -0.0124310935
0.047301017 -0.110797234 0.1297565 -0.34226418 0.0069213463 0.05839145 0.22063267 -0.046292897
-0.054801375 -0.10826173 0.18648385 -0.18409115 0.1612383 0.12776637 -0.039642215 0.14319432
-0.023330929 -0.5480412 0.069125734 0.14069283 -0.5187041 -0.007556549 0.03892815 0.021671042
0.07307481 0.22359687 0.14780353 -0.024449512 -0.054494515 0.0016262059 0.08125824 0.08733671
-0.14007047 -0.045728058 -0.2519789 -0.03879637 0.15664066 0.12137806 -0.034873143 -0.025100285
0.001741076 -0.242313 0.10317665 0.19700225 -0.2733216 0.19362885 0.062470656 -0.0026008575
-0.12270082 -0.014623776 0.089081906 -0.012924707 0.092798084 0.0047148527 -0.09191338 -0.0072645755
0.003981955 -0.05514455 0.13700144 0.15025768 0.018332038 -0.13720883 0.0052708564 -0.024353703
0.004675634 0.0022611097 0.23334537 -0.051380113 0.038962916 -0.012747759 0.04802337 0.00045747438
00000000: 29c2 033e a199 ffbd feb2 553d e16b c23d
00000010: 748e 68bc 560a 8f3e 9ec3 4c3e 806c 2c3e
00000020: 6b4b 7ebc 2d2c ce3c 1412 9abe 1781 103e
00000030: 1e72 5bbd bc22 ddbe 8a4d 5b3e 63f5 b63c
00000040: b5fd 7c39 509b 8b3d de4d dc3d 2f4e 77be
00000050: 073e 073a 0823 1d3d 2866 113e 9704 0fbe
00000060: c7e6 afbb 1710 133c 7511 dc3d 8ae3 f9bc
00000070: 7435 d5bd f501 a6be 7bb2 68be 1f5d 39bd
00000080: 0dd1 07bd 8d82 123e 96a9 0d3e 90a8 9cbb
00000090: d968 d1be f71d a83d 0662 663d 30a2 0d3e
000000a0: 7cd4 333e e155 adbc 96d2 dd3d 2cf3 a33d
000000b0: f152 ce3d 7b63 c93c 3298 bb3d 5c6f be3d
000000c0: 457f 123e e5e2 5d3b 0885 063e e419 3c3c
000000d0: 9147 da3d 0346 26bd 2cad e03d c9ab 4bbc
000000e0: b6be 413d a9e9 e2bd e3de 043e 403d afbe
000000f0: 76cc e23b e02b 6f3d 88ed 613e 9f9d 3dbd
00000100: 6877 60bd 53b8 ddbd 9ff5 3e3e 6482 3cbe
00000110: a71b 253e 30d5 023e e05f 22bd 88a1 123e
00000120: 8120 bfbc 6e4c 0cbf cb91 8d3d c811 103e
00000130: cbc9 04bf ed9c f7bb 2073 1f3d 7887 b13c
00000140: 3fa8 953d 94f6 643e cf59 173e 584a c8bc
00000150: a435 5fbd 6a26 d53a b86a a63d 97dd b23d
00000160: a26e 0fbe 584d 3bbd 6103 81be f1e8 1ebd
00000170: 6966 203e 0f95 f83d 24d7 0ebd 1d9f cdbc
00000180: d134 e43a e620 78be 484e d33d f5ba 493e
00000190: cff0 8bbe a446 463e 3be1 7f3d 2673 2abb
000001a0: 914a fbbd 9098 6fbc 9370 b63d 26c2 53bc
000001b0: ec0c be3d 0d7f 9a3b 153d bcbd ad0b eebb
000001c0: 0f7b 823b 40df 61bd 1b4a 0c3e 26dd 193e
000001d0: 122d 963c 7980 0cbe 26b7 ac3b 6b81 c7bc
000001e0: 1036 993b 202f 143b 17f2 6e3e f473 52bd
000001f0: 9497 1f3d fadb 50bc 27b4 443d 2cd9 ef39

network_smart.layer2.0.weight f4 [128, 128]
0.4317036 0.21877067 0.009437816 0.23364018 -0.08392655 0.11541151 0.12044755 -0.27873126
0.08992693 -0.112233385 -0.48751673 -0.018257564 0.28068867 0.064688444 -0.21625172 0.024372837
0.28732008 -0.13204655 0.040272366 -0.734127 -1.0472056 0.03696391 -0.050733205 -0.10328326
-0.07851877 -0.37351716 0.03558716 0.14384636 0.07516941 0.18349479 0.01497196 -0.03916358
-0.060922746 0.26865935 -0.096788555 -0.29222628 0.2438686 -0.02857322 -0.023317698 -0.07380285
-0.04904405 -0.075056836 0.036994442 -0.052633733 -0.050548907 -0.15285058 0.05509091 -0.11342104
0.07634013 -1.4988488 0.019116709 0.0043801786 0.013925636 0.090950824 0.08130333 0.37967458
-0.0057645477 0.10672212 -0.114096746 -0.03016645 -0.48409003 -0.19543469 0.09770184 0.080176026
-0.07103328 -0.012476975 -0.24973191 -0.09762726 0.5140457 0.18846217 0.08454204 0.07539012
0.026009776 0.0794249 0.13928384 0.1661279 0.21990167 -0.10395444 0.080300786 -0.17358044
0.043103583 -0.049096417 -0.26039457 0.0721615 0.011711376 0.0044601783 -0.017690798 -0.110984206
0.04929683 0.020110695 0.12449739 0.01444289 0.46484435 -0.30984038 0.032053392 -0.1347389
-0.428855 0.0038631798 -0.003149725 0.5465421 0.055284202 -0.04118332 0.29920855 -0.022224419
0.030584 0.032482132 -0.041513838 -0.046244245 0.0419002 -0.20496051 0.24503209 0.4855552
-0.017561333 -0.056605503 -1.4815361 0.05309913 -1.1513929 -0.047405455 -1.0331862 -0.033274673
-1.0108002 -0.06862356 0.08245935 0.082687326 0.18053156 0.076331615 0.09401551 -0.07484801
0.16463505 0.023601191 0.18986888 -0.00072813564 -0.03848832 -0.12397005 0.16344647 -0.11693479
0.14266235 0.12036995 -0.19187182 0.12037485 0.122295134 -0.12982425 0.070991665 -0.11560603
0.5016163 0.09750168 -0.31172857 0.23072164 0.52149755 -0.05449846 0.066685826 0.25516558
0.4364057 0.16162716 -0.18598916 0.1313339 0.010222696 -0.029981116 -0.024262311 -0.053756922
0.08920395 0.058963347 -0.37965196 0.03824099 -0.6579583 0.22451374 -0.03414886 0.5022525
-0.09756251 -0.015903845 -0.14938422 0.14336452 -0.1014998 -0.09957201 0.030589536 -0.015530911
-0.049174685 0.31845358 0.24658966 0.35532007 -0.38675165 0.13014866 0.13373731 0.02697669
0.16430408 0.29680902 -0.06285047 -0.21688552 -0.13034719 -0.05268678 0.0045845495 0.08169262
-0.06909542 -0.028627945 -0.092053734 -0.28399098 0.0005840347 0.022861306 0.083521724 -0.025394032
0.08976968 -0.3886357 -0.018018538 -0.23944214 0.286547 -0.28272176 0.18732712 0.3740037
-0.19350605 -0.041061945 -0.124327146 0.007450119 -0.05796064 -0.122106366 -0.038713943 0.05608958
-0.38668558 -0.016763287 -0.20589824 0.060501423 0.1679939 -0.01834111 -0.063171245 0.050225973
0.099712044 -0.40259874 -0.046483707 0.077626124 -0.15735342 0.114200786 -0.17933804 0.11840057
-0.048486885 0.083620526 -0.06785655 0.05645791 0.115660004 -0.09953419 -0.21867909 0.28326854
-0.032261666 -0.008887553 0.14392115 -0.035974078 -0.0865054 -0.0046496023 0.082907334 0.03916771
-0.12036362 0.06837728 0.03678815 0.06496938 -0.43347773 -0.22764494 0.005373308 0.023252113
00000000: 4108 dd3e 6b05 603e 12a1 1a3c 5f3f 6f3e
00000010: afe1 abbd df5c ec3d 35ad f63d ddb5 8ebe
00000020: 9c2b b83d 9eda e5bd cb9b f9be e390 95bc
00000030: 6db6 8f3e 607b 843d 1771 5dbe 8ba9 c73c
00000040: 9e1b 933e 3637 07be a3f4 243d bfef 3bbf
00000050: d50a 86bf 7867 173d 9fcd 4fbd 2c86 d3bd
00000060: 73ce a0bd a43d bfbe d8c3 113d 764c 133e
00000070: 6bf2 993d 0fe6 3b3e f44c 753c fd69 20bd
00000080: 218a 79bd b88d 893e 1439 c6bd af9e 95be
00000090: b1b8 793e 6312 eabc c204 bfbc f325 97bd
000000a0: 6ae2 48bd 66b7 99bd 7c87 173d 7896 57bd
000000b0: 5f0c 4fbd dd84 1cbe 02a7 613d 4a49 e8bd
000000c0: 3758 9c3d 47da bfbf a59a 9c3c 9a87 8f3b
000000d0: 5a28 643c 6d44 ba3d 5c82 a63d b564 c23e
000000e0: 88e4 bcbb 2091 da3d 8eab e9bd a21f f7bc
000000f0: a6da f7be 0820 48be e717 c83d 5433 a43d
00000100: e579 91bd 3a6c 4cbc b9b9 7fbe cdf0 c7bd
00000110: 8098 033f 3afc 403e 6124 ad3d 2366 9a3d
00000120: 7412 d53c 86a9 a23d 6ca0 0e3e 6f1d 2a3e
00000130: e72d 613e 11e6 d4bd bd74 a43d 12bf 31be
00000140: 628d 303d 5319 49bd 7052 85be 69c9 933d
00000150: 12e1 3f3c b026 923b 4bec 90bc b04b e3bd
00000160: 79eb 493d 2fbf a43c 7df8 fe3d dfa1 6c3c
00000170: 1400 ee3e 66a3 9ebe 6b4a 033d fff8 09be
00000180: e292 dbbe 672d 7d3b 9e6b 4ebb 2fea 0b3f
00000190: b071 623d d7af 28bd dd31 993e fc0f b6bc
000001a0: 4c8b fa3c fc0b 053d 6a0a 2abd 9b6a 3dbd
000001b0: 8b9f 2b3d 2be1 51be b1e9 7a3e b19a f83e
000001c0: c9dc 8fbc 2cdb 67bd faa2 bdbf 797e 593d
000001d0: d860 93bf 392c 42bd 723f 84bf 064b 08bd
000001e0: e761 81bf 828a 8cbd 73e0 a83d f957 a93d
000001f0: 44dd 383e c053 9c3d 348b c03d ea49 99bd
00000200: 1796 283e 4957 c13c fd6c 423e 5be0 3eba
00000210: eea5 1dbd 02e4 fdbd 835e 273e 827b efbd
00000220: 1416 123e 8584 f63d 0c7a 44be 1787 f63d
00000230: df75 fa3d a6f0 04be 1464 913d dbc2 ecbd
00000240: ed69 003f f6ae c73d e39a 9fbe 4b42 6c3e
00000250: dd80 053f c739 5fbd 9492 883d 10a5 823e
00000260: 9170 df3e 9781 253e f173 3ebe 657c 063e
00000270: 187d 273c f59a f5bc c1c1 c6bc 3830 5cbd
00000280: 8fb0 b63d 8d83 713d be61 c2be 96a2 1c3d
00000290: f56f 28bf eee6 653e addf 0bbd 9f93 003f
000002a0: dace c7bd c848 82bc 2df8 18be 26ce 123e
000002b0: 21df cfbd 69ec cbbd e896 fa3c 5d75 7ebc
000002c0: 656b 49bd 590c a33e 0082 7c3e 83ec b53e
000002d0: 5004 c6be b145 053e 6ff2 083e 38fe dc3c
000002e0: 543f 283e 5af7 973e bfb7 80bd 3d17 5ebe
000002f0: bc79 05be 18ce 57bd fd39 963b 764e a73d
00000300: e681 8dbd 2785 eabc ab86 bcbd 4467 91be
00000310: e819 193a a247 bb3c 700d ab3d 2507 d0bc
00000320: 2ad9 b73d 42fb c6be 9d9b 93bc 5230 75be
00000330: 4ab6 923e e8c0 90be aed2 3f3e 6a7d bf3e
00000340: 7326 46be 9230 28bd 3b9f febd 2120 f43b
00000350: 2368 6dbd e712 fabd 8392 1ebd 30be 653d
00000360: a7fb c5be 2953 89bc fdd6 52be 57d0 773d
00000370: 9806 2c3e 1840 96bc ed5f 81bd c0b9 4d3d
00000380: d435 cc3d 6c21 cebe b365 3ebd 72fa 9e3d
00000390: 4121 21be 1ae2 e93d 64a4 37be ff7b f23d
000003a0: 2f9a 46bd 3d41 ab3d 60f8 8abd 6940 673d
000003b0: 27df ec3d 95d8 cbbd 69ed 5fbe 9308 913e
000003c0: cf24 04bd 199d 11bc 1160 133e 8e59 13bd
000003d0: be29 b1bd b15b 98bb 52cb a93d 526e 203d
000003e0: 3481 f6bd 6309 8c3d 2caf 163d ab0e 853d
000003f0: cbf0 ddbe c11b 69be 9312 b03b 377b be3c

network_smart.layer2.0.bias f4 [128]
-0.19105583 0.056964286 0.12201683 0.14105569 0.063853785 -0.064143345 -0.011028575 -0.2111401
0.09913713 -0.0047414056 -0.11976462 0.041152246 0.05156577 -0.016865674 0.04138085 -0.009738909
-0.03307323 0.117339544 -0.1492491 -0.025022194 -0.052211355 -0.04203015 -0.043259304 0.10548398
0.11553332 0.09843131 -0.3426401 -0.06447964 -0.081378676 -0.06843155 0.0735311 0.045155704
-0.035097767 0.11530097 0.022322154 -0.03664412 0.004406604 0.11447868 -0.059648447 -0.14266789
-0.036100347 -0.052382536 0.08367449 -0.079160005 -0.2631883 -0.03403608 0.10898199 0.012930127
0.16190429 -0.02835679 0.014918403 -0.15643159 -0.06386682 -0.03948408 0.13486479 -0.041798085
0.04802329 -0.09610481 -0.0037409652 0.14216968 -0.25087512 -0.038276803 -0.07880153 0.011051846
-0.13368204 0.10714218 0.036830038 0.080394484 0.11534848 0.014512176 -0.20004952 0.08840081
0.12630302 0.08555004 0.093047716 0.09074632 -0.07570191 0.13288103 0.07937579 -0.036337502
-0.08645356 -0.02217549 0.075505696 0.041421294 0.024012152 -0.007336754 0.06275559 0.121594995
-0.061511327 -0.131951 -0.41645232 -0.20456842 -0.12774701 -0.20370972 0.009142095 -0.051891886
-0.054934237 -0.009693982 -0.050709236 -0.018877598 0.023199247 0.10768172 0.04282251 -0.582173
0.11080526 -0.024427632 0.12420514 -0.09659391 -0.04080997 0.10025158 0.15475012 0.1921492
-0.06380635 0.08167782 0.063852295 -0.07763807 -0.104266934 -0.21762304 -0.12338204 0.033905677
-0.049652312 -0.074828565 -0.041652042 0.15280621 -0.0004930846 0.08256746 -0.084124036 -0.08944756
00000000: 24a4 43be 6253 693d f6e3 f93d e770 103e
00000010: c6c5 823d 965d 83bd 32b1 34bc 1c35 58be
00000020: 6808 cb3d cb5d 9bbb 2747 f5bd 428f 283d
00000030: a136 533d e229 8abc f77e 293d f28f 1fbc
00000040: cc77 07bd b74f f03d c2d4 18be 58fb ccbc
00000050: 93db 55bd ce27 2cbd ab30 31bd fc07 d83d
00000060: bc9c ec3d 5b96 c93d 866e afbe e70d 84bd
00000070: dda9 a6bd d725 8cbd 7997 963d 30f5 383d
00000080: adc2 0fbd ea22 ec3d f3dc b63c 2518 16bd
00000090: 4665 903b cc73 ea3d ee51 74bd 8817 12be
000000a0: f5dd 13bd 128f 56bd 885d ab3d a41e a2bd
000000b0: 9ec0 86be 6b69 0bbd f331 df3d e2d8 533c
000000c0: 3dca 253e 804c e8bc 516c 743c 9a2f 20be
000000d0: 9bcc 82bd 0fba 21bd ff19 0a3e 7834 2bbd
000000e0: 12b4 443d 99d2 c4bd fb2a 75bb ee94 113e
000000f0: b472 80be 23c8 1cbd b262 a1bd cd12 353c
00000100: f2e3 08be 5c6d db3d 18db 163d dda5 a43d
00000110: d33b ec3d 7ac4 6d3c c8d9 4cbe 7c0b b53d
00000120: 9455 013e dc34 af3d cd8f be3d 35d9 b93d
00000130: 9a09 9bbd f711 083e c68f a23d a2d6 14bd
00000140: 900e b1bd 60a9 b5bc bba2 9a3d 60a9 293d
00000150: 22b5 c43c 2769 f0bb 0186 803d cc06 f93d
00000160: 4df3 7bbd 2a1e 07be 3d39 d5be 627a 51be
00000170: 1dd0 02be 4899 50be bac8 153c 968c 54bd
00000180: b902 61bd 82d3 1ebc 7db4 4fbd 31a5 9abc
00000190: 590c be3c 3c88 dc3d a866 2f3d 4a09 15bf
000001a0: deed e23d 751c c8bc 445f fe3d 07d3 c5bd
000001b0: 5b28 27bd b350 cd3d d176 1e3e c3c2 443e
000001c0: e7ac 82bd b346 a73d fec4 823d b500 9fbd
000001d0: e789 d5bd 93d8 5ebe b9af fcbd aee0 0a3d
000001e0: 3960 4bbd b83f 99bd 559b 2abd 3b79 1c3e
000001f0: 5942 01ba 2119 a93d 3949 acbd 4830 b7bd

network_smart.layer3.0.weight f4 [48, 128]
-0.03426238 0.1169236 0.1855015 -0.257752 -0.11096789 -0.1438631 0.079142 -0.039529916
0.1010983 -0.015965693 0.24684747 -0.022207195 0.07770433 -0.20583183 0.17192842 -0.17408516
-0.0023075405 -0.15471867 0.18572177 -0.16321428 0.06583862 0.10144037 -0.084166914 0.06631548
0.015042966 -0.32160646 0.7441087 0.0389946 0.06479231 -0.02895793 -0.74840677 0.025726506
0.17194343 0.12020613 0.033780772 0.25623468 -0.10002475 0.17716567 0.04827615 -0.012929371
0.03947546 -0.16648428 -0.506834 0.06232294 0.093645275 0.099485785 0.15704593 -0.31938103
-0.07847868 -0.08404989 0.13371114 0.03185157 0.016627982 0.024809498 -0.041583706 0.06719312
-0.06469501 0.01522856 -0.09158182 -0.14586022 -0.10214979 0.049355995 0.07684163 0.10296021
-0.13552596 -0.052873254 -0.112735756 0.05997268 0.08041992 -0.028166343 -0.33627498 0.08426761
0.078805655 0.041654292 0.002283807 -0.10520665 -0.07719345 0.044540457 0.09105181 -0.13841814
-0.043411527 -0.03801695 0.2143905 -0.053557534 -0.05613849 -0.056198336 0.22503518 -0.042178255
-0.06646368 -0.3185779 -0.20434363 0.30836344 0.13419989 -0.49582243 1.2122865 -0.069934905
0.050111394 0.0033339548 0.040976495 0.114709325 -0.011189694 0.1783014 0.027187772 -0.9500473
0.16079466 0.019198563 -0.077357665 0.11977498 0.033380948 0.05108079 -0.092589475 0.031525023
-0.17284632 -0.028627003 0.052894868 -0.048251472 -0.2313351 -0.076953985 0.086187586 0.12980096
-0.050555665 0.003789725 -0.0797473 0.007943195 -0.054556772 0.18878774 0.15975776 0.058465384
-0.07719141 -0.81000525 -0.008550444 0.17066626 -0.0253497 0.030031344 -0.07990464 -0.34397027
-0.36880487 0.08798469 0.19378579 -0.112921715 -0.06236951 -0.052814804 -0.046626236 -0.02818882
0.019253569 -0.45112133 0.07691852 0.15415245 -0.2709201 -0.017947063 -0.017837923 -0.30460376
-0.15999612 -0.0070214206 -0.03985931 0.07523654 0.068262935 0.0025708114 -0.028135002 -1.6192921
-0.029977782 -0.38683194 -0.034274463 0.066476524 -0.053864133 -0.15855968 0.07697913 0.061524745
-0.5376819 -0.030152906 0.02000155 0.042892724 0.12670308 0.15569086 -0.275153 0.00015740596
-0.07787095 0.03178866 0.12354337 -0.031817343 -0.02808609 -0.413932 0.08537656 -0.08213155
-0.2500452 -0.04739512 -0.10563155 -0.05011058 0.14461587 -0.2788456 0.07709849 -0.05333779
0.016890366 -0.06378292 0.07226037 0.1511177 -0.2350647 -0.32816476 0.03122607 -0.11702019
-0.25877357 -0.007913086 -0.06937982 -0.49324626 0.004579847 -0.86883736 -0.37398246 -0.4591467
0.01925199 -0.0005473091 0.19048932 0.015644314 0.058790162 0.070449255 -0.00027678575 -0.21619228
-0.10016105 0.08927114 -0.013922608 0.09021409 0.083300784 0.047271904 -0.26402164 -0.06467195
-0.06598099 -0.04138664 -0.04028947 -0.04649459 0.30951655 -0.08731884 0.0071034464 0.24531715
0.06800539 -0.07929808 -0.11378174 -0.07317579 -0.07431386 -0.46121386 -0.17007217 -0.13216728
-0.04948565 -0.06735439 -0.13250434 -0.045613524 0.006615687 0.0087904595 0.21470895 -0.01019525
-0.05982733 0.07397621 -0.3030399 0.006899041 0.015338677 -0.25648007 0.05500633 0.026669536
00000000: b656 0cbd a475 ef3d 1bf4 3d3e 12f8 83be
00000010: 2243 e3bd d950 13be 3315 a23d 1fea 21bd
00000020: a00c cf3d 7cca 82bc 95c5 7c3e ddeb b5bc
00000030: 7323 9f3d 94c5 52be 010e 303e 6143 32be
00000040: 1b3a 17bb 926e 1ebe d92d 3e3e a521 27be
00000050: 66d6 863d f8bf cf3d b45f acbd 69d0 873d
00000060: c676 763c 9aa9 a4be e87d 3e3f cdb8 1f3d
00000070: d5b1 843d 2e39 edbc 9697 3fbf 65c0 d23c
00000080: f011 303e a22e f63d b55d 0a3d 3131 833e
00000090: c7d9 ccbd eb6a 353e 36bd 453d b6d5 53bc
000000a0: 05b1 213d db7a 2abe dfbf 01bf 5746 7f3d
000000b0: 18c9 bf3d 34bf cb3d a6d0 203e e985 a3be
000000c0: 6eb9 a0bd 5922 acbd 93eb 083e cb76 023d
000000d0: 6837 883c 4a3d cb3c ad53 2abd 8c9c 893d
000000e0: d17e 84bd 3681 793c 408f bbbd 625c 15be
000000f0: e933 d1bd 8329 4a3d 255f 9d3d cddc d23d
00000100: 51c7 0abe a091 58bd 01e2 e6bd eaa5 753d
00000110: 33b3 a43d 1abd e6bc 3c2c acbe 7f94 ac3d
00000120: dc64 a13d b19d 2a3d ecab 153b 9676 d7bd
00000130: 9917 9ebd 0e70 363d 5f79 ba3d 7cbd 0dbe
00000140: 49d0 31bd a9b7 1bbd 2f89 5b3e 255f 5bbd
00000150: 79f1 65bd 3a30 66bd 9f6f 663e 1bc3 2cbd
00000160: 1c1e 88bd a41c a3be 753f 51be d0e1 9d3e
00000170: b26b 093e 70dc fdbe 342c 9b3f 083a 8fbd
00000180: 9b41 4d3d 7b7e 5a3b f8d6 273d b9ec ea3d
00000190: fa54 37bc a494 363e e4b8 de3c 4d36 73bf
000001a0: 5ba7 243e 4e46 9d3c b26d 9ebd 964c f53d
000001b0: 76ba 083d 173a 513d 8d9f bdbd 6220 013d
000001c0: a0fe 30be 2d83 eabc 4aa8 583d 56a3 45bd
000001d0: 1ce3 6cbe 0d9a 9dbd 1e83 b03d 8bea 043e
000001e0: 7513 4fbd 095d 783b 8d52 a3bd 2d24 023c
000001f0: ec76 5fbd 9351 413e 8a97 233e 6679 6f3d
00000200: 8816 9ebd 815c 4fbf 2917 0cbc 23c3 2e3e
00000210: 2daa cfbc 4b04 f63c 0ba5 a3bd df1c b0be
00000220: fed3 bcbe 5131 b43d c86f 463e 8043 e7bd
00000230: 2c77 7fbd 5654 58bd 27fb 3ebd 3eec e6bc
00000240: a9b9 9d3c 60f9 e6be 7587 9d3d 24da 1d3e
00000250: 0ab6 8abe b805 93bc d620 92bc 06f5 9bbe
00000260: 06d6 23be f213 e6bb 8443 23bd 9d15 9a3d
00000270: 70cd 8b3d 0f7b 283b 607b e6bc f744 cfbf
00000280: f793 f5bc d60e c6be 6163 0cbd d824 883d
00000290: a3a0 5cbd 785d 22be 3ca7 9d3d 5f01 7c3d
000002a0: 85a5 09bf 3a03 f7bc 4ada a33c 48b0 2f3d
000002b0: 74be 013e 6d6d 1f3e dbe0 8cbe 570d 2539
000002c0: ce7a 9fbd d334 023d 4e04 fd3d e752 02bd
000002d0: cd14 e6bc e5ee d3be e8d9 ae3d 9634 a8bd
000002e0: ed05 80be 6321 42bd 5b55 d8bd c040 4dbd
000002f0: 2f16 143e dac4 8ebe d0e5 9d3d ba78 5abd
00000300: aa5d 8a3c 9fa0 82bd 3ffd 933d 99be 1a3e
00000310: cdb4 70be 3605 a8be d1cd ff3c 48a8 efbd
00000320: f87d 84be e3a5 01bc 0217 8ebd c68a fcbe
00000330: 8b12 963b 206c 5ebf a17a bfbe 4715 ebbe
00000340: 59b6 9d3c 4b79 0fba a20f 433e 8128 803c
00000350: f4cd 703d b347 903d 8e1d 91b9 8261 5dbe
00000360: 3d21 cdbd cad3 b63d a71b 64bc 2ac2 b83d
00000370: 9a99 aa3d 2fa0 413d d82d 87be ba72 84bd
00000380: 0b21 87bd 0a85 29bd 9206 25bd 1c71 3ebd
00000390: f478 9e3e 38d4 b2bd 07c4 e83b 6b34 7b3e
000003a0: 6946 8b3d 0867 a2bd 6706 e9bd 30dd 95bd
000003b0: dd31 98bd 3924 ecbe 6627 2ebe dc56 07be
000003c0: 77b1 4abd 19f1 89bd 38af 07be 3fd5 3abd
000003d0: 68c8 d83b dc05 103c aadc 5b3e fa09 27bc
000003e0: 810d 75bd d780 973d 0c28 9bbe 5a11 e23b
000003f0: 134f 7b3c 5b51 83be 514e 613d 127a da3c

network_smart.layer3.0.bias f4 [48]
0.07619147 -0.5814213 -0.0011473383 0.0020397133 0.0051628514 -0.08168209 0.07285094 -0.006331889
-0.010530296 -0.036037333 0.061587937 0.06925478 -0.10195612 0.1016924 -0.0766086 0.080894575
0.08178283 -0.031237403 -0.028895963 -0.19137874 0.113281965 -0.050900344 -0.04777825 -0.0066474066
-0.0058177216 0.06447862 0.13142549 -0.1248547 0.051716212 0.060020532 0.05502697 -0.07404107
0.039018646 0.070103474 0.06185549 -0.029056644 0.08876591 0.08502721 0.08188341 -0.02496223
0.018956304 0.1402205 -0.10138794 0.035847493 0.03082242 -0.01986787 0.023111572 0.09541871
00000000: 460a 9c3d 07d8 14bf 4962 96ba b6ac 053b
00000010: 232d a93b f148 a7bd e032 953d bc7b cfbb
00000020: 4387 2cbc e29b 13bd a243 7c3d 73d5 8d3d
00000030: 5fce d0bd 1b44 d03d f8e4 9cbd 0eac a53d
00000040: c27d a73d 95e5 ffbc 3ab7 ecbc caf8 43be
00000050: 6000 e83d e17c 50bd 20b3 43bd 7dd2 d9bb
00000060: 96a2 bebb 5e0d 843d 6794 063e d2b3 ffbd
00000070: 61d4 533d 17d8 753d f663 613d d8a2 97bd
00000080: 04d2 1f3d 6992 8f3d 2f5c 7d3d 3308 eebc
00000090: e7ca b53d bf22 ae3d 7db2 a73d 977d ccbc
000000a0: 404a 9b3c f695 0f3e 7ba4 cfbd d2d4 123d
000000b0: 4d7f fc3c f1c1 a2bc 7b54 bd3c e26a c33d

fc_smart.weight f4 [64, 48]
0.09591959 0.1799451 0.15683189 -0.1986804 -0.20192127 0.12603077 0.10572817 0.35241985
-0.6026636 -0.5778974 -0.25985923 0.23687066 -0.11970301 0.43548554 -0.8993431 -0.030553795
-0.45884869 -0.19687162 0.11915707 0.34780717 0.32135525 -0.05093562 0.01583816 0.12591021
0.1375045 -0.3399762 0.436875 -0.027735798 -1.018937 -0.5685618 -0.38876632 0.016748995
-0.5164807 -0.5156317 0.24971338 -0.24313913 0.17756669 0.30072746 0.23884243 -0.20713665
-0.10195898 -0.16315863 0.11060356 -0.72703254 0.8090261 0.07461072 -0.10506111 0.045648597
-0.1037805 -0.14854738 -0.12514602 -0.05585501 0.7490934 0.68778825 -0.034428157 0.35770342
-0.71748483 -1.8953745 0.41878283 0.50823665 0.06973657 0.07841952 -1.1668172 -0.07198378
-0.71138734 -0.16632755 0.6252851 0.46762773 0.18780224 -0.6566035 -0.105230466 -0.093285136
-0.049173992 -0.2186161 0.4736083 -0.11474956 -1.1608553 -1.3821597 -0.23240155 -0.00047884465
-1.0212361 -0.69985634 0.60466707 -0.32533923 0.5083784 0.47163868 -0.035973873 -0.088301174
-0.56603426 -0.23774916 0.5063095 -0.6439214 0.55379367 0.12144077 -0.078868605 -0.077744044
-0.11271304 -0.15598172 -0.18557514 0.19830269 0.18870217 -0.14311008 -0.090695664 -0.37365115
0.6371659 0.6406625 0.26118731 -0.25447413 -0.034757596 -0.4478193 0.94516873 0.080052085
0.4869617 0.20784087 -0.13602328 -0.36199033 -0.33864355 0.06274044 0.06875084 0.07520883
-0.09571565 0.3563432 -0.46145123 0.032826617 1.0649029 0.61763734 0.4049575 -0.026828611
0.5510278 0.5427963 -0.26783317 0.263436 -0.18439615 -0.3175471 -0.25639337 0.20566726
0.10855995 0.17077492 -0.1275909 0.76011544 -0.8449377 -0.011108237 0.07489492 -0.0685843
-0.1591481 -0.21633734 -0.18451826 0.059588216 0.72010326 0.4878294 -0.12594269 0.1050348
-0.25390267 -1.2354438 0.4896175 0.29313728 0.022329163 -0.17878604 -0.4392518 -0.025199402
-0.34439227 -0.0308277 0.44977143 0.18186292 -0.02852925 -0.5017123 -0.09442635 -0.022319775
-0.12923527 0.0050318534 0.14027524 -0.08291612 -0.3842554 -0.82839364 0.030025939 -0.10828658
-0.5473337 -0.28232175 0.3582989 -0.13224043 0.31988594 0.2193558 -0.14173594 0.04618469
-0.40648633 -0.10985465 0.35376066 -0.12429164 0.0015483679 0.022490067 -0.009034712 -0.042915113
0.1559214 0.325126 0.21215665 -0.24300282 -0.14498378 0.23692186 -0.041288655 0.48248404
-0.82280487 -0.9180091 -0.25122088 0.37328753 -0.022721818 0.529734 -1.2099446 -0.09126348
-0.6543767 -0.2625753 0.22929382 0.45338762 0.41514444 -0.13775809 0.1024147 -0.09182238
0.09060463 -0.43691254 0.5774269 -0.033281107 -1.3683655 -0.8834919 -0.50028604 -0.098574184
-0.75870514 -0.71095306 0.38052693 -0.34361964 0.2716466 0.41494638 0.3042478 -0.24490142
-0.18532898 -0.22730263 0.21280779 -0.9709838 1.0581278 0.11572756 -0.11555166 0.1402783
-0.15168732 -0.33170584 -0.22647333 0.1748608 0.46606886 0.12581581 0.0011917404 -0.22876152
0.3396489 -0.101865016 0.39723766 -0.06727768 -0.0009401452 -0.3957959 0.43759355 0.041541677
00000000: 7d71 c43d 8743 383e 8a98 203e e072 4bbe
00000010: 73c4 4ebe 360e 013e 0388 d83d 6070 b43e
00000020: 2948 1abf 16f1 13bf 450c 85be 398e 723e
00000030: da26 f5bd f6f7 de3e 593b 66bf f44b fabc
00000040: 37ee eabe b798 49be 9f08 f43d c813 b23e
00000050: ad88 a43e dea1 50bd 07bf 813c 9bee 003e
00000060: fbcd 0c3e 5c11 aebe 14ae df3e 2f36 e3bc
00000070: 876c 82bf 448d 11bf 610c c7be 3035 893c
00000080: 1438 04bf 7000 04bf ddb4 7f3e 77f9 78be
00000090: 0bd4 353e f3f8 993e 1c93 743e a11b 54be
000000a0: dfcf d0bd 0e13 27be 1f84 e23d ce1e 3abf
000000b0: 561c 4f3f 81cd 983d 472a d7bd 06fa 3a3d
000000c0: df8a d4bd ce1c 18be 4726 00be 39c8 64bd
000000d0: 96c4 3f3f e412 303f 8a04 0dbd e724 b73e
000000e0: 16ad 37bf a29b f2bf b46a d63e cc1b 023f
000000f0: 0cd2 8e3d 6a9a a03d 445a 95bf 3b6c 93bd
00000100: 7b1d 36bf c551 2abe af12 203f e76c ef3e
00000110: 3b4f 403e 2b17 28bf 1283 d7bd 470c bfbd
00000120: ab6a 49bd e6dc 5fbe c97c f23e d101 ebbd
00000130: e896 94bf 9cea b0bf acfa 6dbe 710d fbb9
00000140: ddb7 82bf c929 33bf 76cb 1a3f dd92 a6be
00000150: 1625 023f a07a f13e 5759 13bd 3fd7 b4bd
00000160: 9fe7 10bf 8474 73be 809d 013f 08d8 24bf
00000170: 6cc5 0d3f f0b5 f83d dd85 a1bd 4538 9fbd
00000180: 18d6 e6bd acb9 1fbe 6907 3ebe dc0f 4b3e
00000190: 243b 413e 738b 12be a6be b9bd 344f bfbe
000001a0: 4e1d 233f 7502 243f 58ba 853e 6f4a 82be
000001b0: fb5d 0ebd 9248 e5be 94f6 713f 59f2 a33d
000001c0: 0b53 f93e 3dd4 543e b049 0bbe cc56 b9be
000001d0: b062 adbe 0f7e 803d 3ecd 8c3d 1607 9a3d
000001e0: 9106 c4bd 9e72 b63e 5643 ecbe 3475 063d
000001f0: bd4e 883f 7b1d 1e3f 9756 cf3e adc7 dbbc
00000200: 2810 0d3f b3f4 0a3f 6e21 89be 15e1 863e
00000210: 58d2 3cbe 8995 a2be fe45 83be 709a 523e
00000220: ae54 de3d 9fdf 2e3e 30a7 02be ed96 423f
00000230: d64d 58bf 53ff 35bc 8262 993d ed75 8cbd
00000240: b8f7 22be 8987 5dbe 5bf2 3cbe c612 743d
00000250: b058 383f c6c4 f93e 1ff7 00be 7c1c d73d
00000260: 88ff 81be 0623 9ebf 25af fa3e 1716 963e
00000270: a6eb b63c b013 37be 9de5 e0be fa6e cebc
00000280: 2f54 b0be 5f8a fcbc 7148 e63e 463a 3a3e
00000290: 2cb6 e9bc 3870 00bf 9a62 c1bd f6d7 b6bc
000002a0: 4056 04be 3fe2 a43b 50a4 0f3e edcf a9bd
000002b0: 20bd c4be 9b11 54bf f5f8 f53c 5bc5 ddbd
000002c0: 101e 0cbf 7a8c 90be f472 b73e 096a 07be
000002d0: 17c8 a33e cf9e 603e 3a23 11be 282c 3d3d
000002e0: fa1e d0be 7afb e0bd 1e20 b53e 9e8c febd
000002f0: 9bf2 ca3a 173d b83c 5406 14bc c2c7 2fbd
00000300: dca9 1f3e ea76 a63e 983f 593e bbd5 78be
00000310: a176 14be a59b 723e 4b1e 29bd 2608 f73e
00000320: 57a3 52bf a502 6bbf 06a0 80be 8b1f bf3e
00000330: 1b23 babc a69c 073f 77df 9abf 59e8 babd
00000340: 3b85 27bf 4570 86be 00cc 6a3e 6c22 e83e
00000350: d08d d43e 7510 0dbe ccbe d13d 5f0d bcbd
00000360: ec8e b93d 00b3 dfbe 40d2 133f c551 08bd
00000370: 9a26 afbf 862c 62bf bf12 00bf 43e1 c9bd
00000380: 803a 42bf 0501 36bf 6dd4 c23e eaee afbe
00000390: 4315 8b3e da73 d43e 5ec6 9b3e 70c7 7abe
000003a0: e1c6 3dbe 05c2 68be 49ea 593e 6592 78bf
000003b0: bb70 873f 9202 ed3d 59a6 ecbd 1da5 0f3e
000003c0: ec53 1bbe 59d5 a9be a0e8 67be b60e 333e
000003d0: 94a0 ee3e dcd5 003e 2c34 9c3a 7640 6abe
000003e0: 76e6 ad3e 9b9e d0bd bc62 cb3e e1c8 89bd
000003f0: 1474 76ba c3a5 cabe 430c e03e 9b27 2a3d

fc_smart.bias f4 [64]
0.006702455 0.019390004 0.025743144 -0.05908866 -0.036235113 -0.006076788 0.021811059 -0.062773354
0.008604306 -0.015516694 -0.0047907685 -0.07144178 -0.08319581 -0.078304164 0.056452528 -0.10591048
0.02613011 0.0052656448 0.018087797 0.018725835 0.023574099 -0.034554105 -0.06195904 0.02361739
0.08460818 -0.09148969 0.05376435 0.081291735 -0.09254455 -0.0122359805 -0.09495762 -0.023194028
0.045712847 0.061432075 -0.030633265 0.09219063 0.008678528 0.076746345 0.052518345 0.011042022
-0.06417557 0.043966357 0.01521804 -0.09443163 -0.023879688 -0.042986218 0.036999844 0.06867291
0.029517991 -0.01280979 -0.0026391435 0.07091786 -0.0061909542 -0.105806276 -0.03983496 -0.007221523
0.023333395 0.07846911 0.056532066 -0.07172913 0.05098325 0.043929737 -0.025151948 0.11191447
00000000: 45a0 db3b c9d7 9e3c 49e3 d23c f306 72bd
00000010: 456b 14bd cb1f c7bb 1bad b23c 518f 80bd
00000020: 13f9 0c3c bb39 7ebc e1fb 9cbb 1150 92bd
00000030: 9162 aabd ef5d a0bd c43a 673d 98e7 d8bd
00000040: d00e d63c 6e8b ac3b dc2c 943c ec66 993c
00000050: 781e c13c 9b88 0dbd c3c8 7dbd 4279 c13c
00000060: 0e47 ad3d f25e bbbd 0238 5c3d 487c a63d
00000070: ff87 bdbd 6c79 48bc 2479 c2bd 6701 bebc
00000080: 653d 3b3d 33a0 7b3d 9df2 fabc 71ce bc3d
00000090: 6230 0e3c 302d 9d3d 7a1d 573d 99e9 343c
000000a0: 7b6e 83bd 1116 343d 1655 793c 5f65 c1bd
000000b0: 569f c3bc 5112 30bd 268d 173d 62a4 8c3d
000000c0: b7cf f13c 27e0 51bc 7bf5 2cbb 623d 913d
000000d0: 7ddd cabb f6b0 d8bd fc29 23bd 87a2 ecbb
000000e0: ad25 bf3c 6ab4 a03d 2b8e 673d b9e6 92bd
000000f0: d0d3 503d abef 333d 750b cebc 6a33 e53d

network_aging.lstm.weight_ih_l0 f4 [128, 5]
0.22101045 0.018189788 -0.00019518218 0.08956713 -0.0038137455 -0.10101734 0.12381973 -0.021683281
-0.031670965 0.16961232 -0.0471381 0.012949425 -0.13449925 -0.1524493 -0.08398602 -0.077191874
0.10132027 0.13442393 0.118376836 0.055462554 0.09956391 -0.101190805 0.035084058 -0.1023028
0.039403576 0.091339625 0.10586772 0.23499888 0.033569563 -0.104943044 -0.038010094 0.11010823
-0.07801806 0.13088417 -0.08848293 0.20738462 0.12580878 0.12337315 0.033964828 0.07166402
0.151391 -0.09542639 -0.06839213 0.022719998 -0.11432499 0.08702695 0.09619667 -0.06683273
-0.11332944 0.0032869526 0.0023428197 0.06433948 0.06638239 -0.01119451 -0.115880474 0.10509457
0.13833395 -0.17225704 -0.112060905 0.14674415 0.21331815 -0.102980666 0.19450954 0.023855863
0.091457486 0.019176248 0.052863866 0.08360682 0.07662259 -0.033914935 0.03480701 -0.04998069
0.17429759 -0.037881494 0.11807668 0.20175238 0.19806919 -0.03235719 0.1297393 0.04930786
-0.011531931 -0.037739445 0.098334946 0.123166814 -0.1544668 -0.012566634 -0.09561195 0.01399352
0.048283823 0.15191981 0.122310586 0.21759586 0.04680211 0.08867756 0.016994758 0.056390837
-0.12663691 0.045209702 0.0038041982 -0.11225841 -0.109075524 0.055317692 0.014984262 0.18843208
-0.019109737 0.1337408 -0.08563874 -0.10934896 -0.06699918 0.122079365 -0.06421898 0.15894595
-0.0016654265 0.089807466 0.07434136 0.11323326 0.17567661 0.15631895 0.12513945 -0.14085251
0.14330319 -0.028337313 0.032565333 0.1268243 0.088084616 0.1760958 0.1659426 -0.021498354
-0.0027435224 -0.07250518 0.0134520065 0.21379274 -0.086514 -0.045294557 -0.099901915 0.15145218
0.017046109 -0.05798369 -0.0026966932 0.16629407 8.207416e-05 0.10554068 0.12932318 0.09116651
0.14826967 0.1234247 0.019250883 0.017828707 0.014202226 -0.018874038 -0.08767309 -0.12587316
0.1520586 -0.10693457 0.1806539 0.08108308 0.09222674 0.08009694 0.09997149 0.0637888
-0.10656611 0.12951593 0.004713942 -0.043169446 0.19855067 -0.014619823 -0.08311021 0.18249215
0.20555563 0.056923375 -0.044710904 0.20287369 0.06405861 0.07138983 0.013007221 -0.07937909
0.055604238 -0.045930695 0.10599034 -0.13259463 -0.06868537 -0.050062962 -0.0861455 0.06420461
0.067932256 0.09077937 0.04459044 0.01622365 0.19249688 0.043951046 0.098730564 -0.04898772
0.10493862 -0.09486734 0.19031058 0.19418629 -0.06645524 0.027895486 0.0706421 -0.12452686
-0.09076071 0.16072366 0.08156651 -0.0642867 0.058000397 -0.12699163 -0.11590094 -0.048233803
-0.081768 -0.07817449 -0.010200144 -0.12106539 0.13667779 -0.049768887 -0.034460288 -0.059629977
0.024303015 -0.19037789 -0.17275573 0.08748707 0.011923678 0.00832751 0.037586544 0.14247386
0.11382691 0.050240047 -0.014795866 -0.038890224 0.2006462 -0.11962787 -0.119406864 0.0072833057
-0.120960236 0.019044291 0.1651244 -0.07193114 0.113876395 0.014535971 -0.030250918 -0.043808587
-0.011742503 -0.12612219 0.006052 0.0678244 -0.070535555 -0.034978572 0.12776741 0.11389474
0.18523623 -0.110842384 -0.029549958 0.16959512 -0.06804748 0.16696082 0.01718586 -0.090200044
00000000: 9050 623e c002 953c d1a9 4cb9 f96e b73d
00000010: 08f0 79bb 2ee2 cebd 3395 fd3d 23a1 b1bc
00000020: 6ab9 01bd daae 2d3e e113 41bd d329 543c
00000030: 2cba 09be ab1b 1cbe dd00 acbd c616 9ebd
00000040: 0081 cf3d 6da6 093e 8e6f f23d b42c 633d
00000050: 2ae8 cb3d 203d cfbd 4db4 0f3d 2184 d1bd
00000060: a565 213d 4510 bb3d 2dd1 d83d 8ca3 703e
00000070: 3d80 093d 61ec d6bd 79b0 1bbd 6c80 e13d
00000080: efc7 9fbd 8006 063e 8a36 b5bd a25c 543e
00000090: 04d4 003e 10ab fc3d b41e 0b3d 96c4 923d
000000a0: 3e06 1b3e e96e c3bd 2c11 8cbd 4a1f ba3c
000000b0: 3823 eabd 303b b23d c202 c53d 99df 88bd
000000c0: 4419 e8bd ea69 573b fe89 193b 6bc4 833d
000000d0: 7ef3 873d 2e69 37bc be52 edbd d23b d73d
000000e0: 6aa7 0d3e 2664 30be 3080 e5bd 1944 163e
000000f0: 1370 5a3e 87e7 d2bd 822d 473e 5f6d c33c
00000100: 104e bb3d 8217 9d3c c887 583d 0d3a ab3d
00000110: 4eec 9c3d 63ea 0abd cc91 0e3d 8db8 4cbd
00000120: 117b 323e a029 1bbd 30d2 f13d 2d98 4e3e
00000130: a6d2 4a3e f988 04bd 61da 043e 0af7 493d
00000140: 6df0 3cbc ad94 1abd d563 c93d e23e fc3d
00000150: 8b2c 1ebe 49e4 4dbc 33d0 c3bd 1445 653c
00000160: 42c5 453d de90 1b3e f97d fa3d 73d1 5e3e
00000170: 92b3 3f3d 959c b53d 9738 8b3c 14fa 663d
00000180: 1bad 01be cf2d 393d db4f 793b bde7 e5bd
00000190: fd62 dfbd ce94 623d 8d80 753c 57f4 403e
000001a0: 068c 9cbc 59f3 083e 5d63 afbd 59f2 dfbd
000001b0: de36 89bd bf04 fa3d 3e85 83bd bac2 223e
000001c0: 714a daba faec b73d 4840 983d d7e6 e73d
000001d0: 92e4 333e 1312 203e 8e24 003e a43b 10be
000001e0: 12be 123e a723 e8bc 3a63 053d 3bde 013e
000001f0: b565 b43d 7552 343e dbec 293e 511d b0bc
00000200: abcc 33bb 997d 94bd ce65 5c3c 7cec 5a3e
00000210: 412e b1bd c986 39bd 6099 ccbd 4816 1b3e
00000220: 48a4 8b3c 4e80 6dbd 01bb 30bb fe48 2a3e
00000230: 3b1f ac38 b625 d83d 4c6d 043e 82b5 ba3d
00000240: 01d4 173e 17c6 fc3d 07b4 9d3c 820d 923c
00000250: 74b0 683c ba9d 9abc f38d b3bd e5e4 00be
00000260: 40b5 1b3e 8300 dbbd 56fd 383e e30e a63d
00000270: 60e1 bc3d dd09 a43d dabd cc3d b4a3 823d
00000280: 553f dabd d39f 043e 6977 9a3b 72d2 30bd
00000290: de50 4b3e fb87 6fbc b035 aabd 39df 3a3e
000002a0: 2d7d 523e 7c28 693d c822 37bd 1fbe 4f3e
000002b0: 2931 833d d534 923d 3d1c 553c 8191 a2bd
000002c0: 45c1 633d d321 3cbd 7711 d93d e3c6 07be
000002d0: eaaa 8cbd d20e 4dbd 0d6d b0bd b57d 833d
000002e0: 1120 8b3d 89ea b93d 77a4 363d 76e7 843c
000002f0: e71d 453e 0306 343d 4033 ca3d 59a7 48bd
00000300: 0fea d63d cf49 c2bd c7e0 423e c5d8 463e
00000310: af19 88bd 1385 e43c ceac 903d f007 ffbd
00000320: c0e0 b9bd be94 243e 580c a73d bfa8 83bd
00000330: d391 6d3d 180a 02be 795d edbd cf90 45bd
00000340: fb75 a7bd f219 a0bd 811e 27bc 22f1 f7bd
00000350: 43f5 0b3e 76da 4bbd 3b26 0dbd 903e 74bd
00000360: 1e17 c73c 6cf2 42be e1e6 30be 6c2c b33d
00000370: 885b 433c 1c70 083c 59f4 193d abe4 113e
00000380: 151e e93d 82c8 4d3d 5c6a 72bc 5b4b 1fbd
00000390: 3376 4d3e 75ff f4bd 968b f4bd cca8 ee3b
000003a0: 00ba f7bd c602 9c3c 5f16 293e a250 93bd
000003b0: 0738 e93d 4828 6e3c c6d0 f7bc a270 33bd
000003c0: a163 40bc 2d26 01be db4f c63b 85e7 8a3d
000003d0: f274 90bd b145 0fbd 76d5 023e a541 e93d
000003e0: 91ae 3d3e 5501 e3bd c112 f2bc 58aa 2d3e
000003f0: 7a5c 8bbd c7f7 2a3e 5cc9 8c3c cdba b8bd

network_aging.lstm.weight_hh_l0 f4 [128, 32]
0.19936784 -0.095364 0.21745776 0.08186437 -0.09383929 -0.0057504075 0.16661792 -0.0014358894
-0.09385456 0.21728665 -0.1813416 0.07947564 0.018690357 0.026788248 0.029419463 -0.101024
0.04443287 -0.01988745 -0.08270645 0.051420048 -0.11849816 -0.14578359 -0.024407858 0.04651976
0.0967657 0.21840113 0.11867807 0.010316261 0.04794939 -0.013175953 -0.07023345 -0.07515099
0.013096377 -0.23993902 0.18275476 0.05311504 -0.06870353 -0.03954118 0.24157491 -0.13078576
0.07513925 0.2003196 0.04808911 -0.011628716 -0.16040489 -0.05058982 0.06282828 -0.17583473
-0.012943872 -0.118918724 0.20017883 0.15870953 0.037659314 -0.174325 -0.0022924724 0.06946147
0.08020917 0.14681141 0.1793567 0.04299222 0.041878194 -0.055197574 0.102564126 -0.0015946307
0.09832551 0.024458956 -0.010280955 -0.06593049 0.005154725 -0.09254817 0.09445101 -0.1031311
0.04757232 -0.057099577 -0.08683835 -0.16219546 -0.023328288 -0.12297766 -0.06215466 -0.20993817
-0.1688179 -0.1231969 0.05011308 0.15197887 0.039688446 -0.17830217 -0.14198017 -0.048263628
0.11435462 0.00080661726 0.087935776 0.09427863 0.20065169 0.19774365 0.13092054 0.19545169
0.077948466 -0.08917713 0.19934553 0.06313424 0.2488757 0.010406759 0.1456766 -0.19240476
0.06960983 0.19970052 -0.13632135 0.11184458 -0.034591965 0.09378862 -0.08027118 0.10845024
-0.090243876 0.08769974 0.0063812477 0.032372694 -0.12642802 -0.015012388 -0.17971848 0.06680478
0.08585574 -0.088560134 -0.061025962 -0.08193213 0.06500764 -0.09016858 -0.1650337 -0.035147257
-0.08837879 -0.1367976 -0.09795674 -0.26484096 0.10939603 0.045243803 -0.006748248 -0.14196585
-0.06056373 -0.08447897 -0.19008385 0.034977365 -0.049408454 -0.17326275 0.13044593 -0.10878202
-0.19867663 0.05422351 0.021272184 0.112220325 -0.106891975 0.13007039 0.090395086 0.123899445
-0.0225664 0.13948996 0.031720467 0.10166533 0.00020311672 0.1255406 -0.055894893 0.23834576
0.0979997 -0.035057016 0.007946595 0.03691722 0.21113174 0.23046237 0.12166557 -0.095177546
0.23935366 -0.022457467 0.005304444 0.010048041 -0.11785236 -0.002628577 0.13572602 -0.19135311
0.037810035 -0.039804738 0.08426402 -0.060872197 -0.10744865 0.03960979 -0.0108160665 -0.07054606
0.027393445 -0.03370953 0.21396253 -0.12430438 -0.008670689 0.06012747 0.062886685 -0.08365823
-0.041350204 0.107408315 0.22200921 -0.13056408 -0.081142485 0.010335476 0.12504971 0.06644388
0.10711383 0.21455844 -0.03047908 -0.055910014 -0.053226132 0.020794222 -0.08208978 0.08273174
-0.14992377 0.014173678 -0.03163148 0.008333891 -0.019660303 -0.07217711 0.09744158 0.15137799
0.087295674 0.14704345 0.040656112 -0.06994048 -0.015566714 0.21379173 -0.16809084 0.17824954
0.09408255 -0.14589623 0.08977624 -0.025327545 0.07177231 0.1978052 0.08138334 -0.11702222
0.13692573 0.070035145 -0.0034602303 0.019190121 -0.1549414 0.053805422 -0.021475023 0.061006982
0.08041348 0.03590216 0.0770413 0.09722402 -0.10534187 0.057414323 -0.13133375 -0.1317532
-0.13605289 0.19281103 0.002836234 0.06291089 0.19394223 0.027548125 -0.09912364 0.012510768
00000000: 1527 4c3e 334e c3bd 3fad 5e3e 82a8 a73d
00000010: d02e c0bd ea6d bcbb e39d 2a3e 7434 bcba
00000020: d236 c0bd 6480 5e3e 9db1 39be 20c4 a23d
00000030: 851c 993c 0773 db3c 1601 f13c ace5 cebd
00000040: 3eff 353d 01eb a2bc 0062 a9bd d49d 523d
00000050: 2aaf f2bd 4b48 15be fdf2 c7bc 818b 3e3d
00000060: 182d c63d 8ca4 5f3e 7d0d f33d 8905 293c
00000070: 9466 443d f4df 57bc 8ed6 8fbd c3e8 99bd
00000080: 3092 563c 93b2 75be 1024 3b3e 288f 593d
00000090: 70b4 8cbd eff5 21bd 6a5f 773e b4ec 05be
000000a0: 9be2 993d 9520 4d3e 16f9 443d 5f86 3ebc
000000b0: 2e41 24be 4537 4fbd 1dac 803d 050e 34be
000000c0: 8912 54bc a98b f3bd aefb 4c3e c084 223e
000000d0: a740 1a3d 4182 32be 4e3d 16bb d141 8e3d
000000e0: b544 a43d bb55 163e 48a9 373e 9c18 303d
000000f0: 7888 2b3d da16 62bd 240d d23d ed02 d1ba
00000100: e35e c93d 265e c83c 7371 28bc 9106 87bd
00000110: f8e8 a83b e589 bdbd 886f c13d 6636 d3bd
00000120: 31db 423d 3fe1 69bd 4ed8 b1bd 9116 26be
00000130: f71a bfbc b6db fbbd e295 7ebd 08fa 56be
00000140: 99de 2cbe a84e fcbd 5f43 4d3d 59a0 1b3e
00000150: 5a90 223d d894 36be 4063 11be 15b0 45bd
00000160: c132 ea3d 2b73 533a ac17 b43d 2815 c13d
00000170: a377 4d3e 507d 4a3e 0910 063e 7d24 483e
00000180: 72a3 9f3d 80a2 b6bd 3c21 4c3e 864c 813d
00000190: 46d9 7e3e 1c81 2a3c 3f2c 153e c105 45be
000001a0: 998f 8e3d 4b7e 4c3e d397 0bbe c50e e53d
000001b0: 4eb0 0dbd 3f14 c03d 3765 a4bd 291b de3d
000001c0: c8d1 b8bd ec9b b33d c919 d13b 3b99 043d
000001d0: 5976 01be 85f6 75bc 1f08 38be f2d0 883d
000001e0: 22d5 af3d 045f b5bd 5cf6 79bd 08cc a7bd
000001f0: ba22 853d 4eaa b8bd 98fe 28be 92f6 0fbd
00000200: f0ff b4bd ac14 0cbe 8b9d c8bd 3c99 87be
00000210: 070b e03d 9151 393d 6820 ddbb 7f5f 11be
00000220: ac11 78bd 4f03 adbd 57a5 42be 6d44 0f3d
00000230: 8560 4abd ca6b 31be 9e93 053e 1cc9 debd
00000240: e371 4bbe 7919 5e3d 0143 ae3c c5d3 e53d
00000250: 2eea dabd 2c31 053e 0f21 b93d febe fd3d
00000260: 2cdd b8bc 75d6 0e3e 52ed 013d ea35 d03d
00000270: bbfb 5439 b78d 003e 0bf2 64bd e910 743e
00000280: 11b4 c83d f297 0fbd 6f32 023c 8336 173d
00000290: eb32 583e 54fe 6b3e cc2b f93d 72ec c2bd
000002a0: 2019 753e b9f8 b7bc e7d0 ad3b 8aa0 243c
000002b0: 945c f1bd 3444 2cbb c3fb 0a3e 12f2 43be
000002c0: b2de 1a3d 4b0a 23bd 9d92 ac3d 2055 79bd
000002d0: 0a0e dcbd e03d 223d df35 31bc 747a 90bd
000002e0: 3868 e03c 0113 0abd fe18 5b3e 4b93 febd
000002f0: 810f 0ebc 3948 763d bcca 803d 0255 abbd
00000300: d55e 29bd e4f8 db3d 6256 633e 97b2 05be
00000310: 082e a6bd 2156 293c 080d 003e bb13 883d
00000320: 7f5e db3d 35b5 5b3e 43af f9bc e601 65bd
00000330: a503 5abd a558 aa3c b01e a8bd 426f a93d
00000340: 9e85 19be b738 683c 0390 01bd df8a 083c
00000350: a50e a1bc 98d1 93bd 738f c73d d502 1b3e
00000360: 13c8 b23d 8f92 163e 0687 263d f43c 8fbd
00000370: 880b 7fbc 38ec 5a3e 0120 2cbe 0c87 363e
00000380: 5aae c03d d265 15be 9bdc b73d b67b cfbc
00000390: 5cfd 923d 728d 4a3e 4fac a63d 58a9 efbd
000003a0: 4236 0c3e 966e 8f3d 08c5 62bb 9a34 9d3c
000003b0: f5a8 1ebe 1363 5c3d 63ec afbc 75e2 793d
000003c0: d3af a43d 250e 133d d4c7 9d3d 631d c73d
000003d0: 7abd d7bd 482b 6b3d 5b7c 06be 50ea 06be
000003e0: 7351 0bbe 4170 453e 1ce0 393b 6dd7 803d
000003f0: cb98 463e 9bac e13c 5601 cbbd f7f9 4c3c

network_aging.lstm.bias_ih_l0 f4 [128]
-0.020367173 -0.0010377078 0.221548 0.21778445 -0.08370812 -0.059930637 0.23409785 -0.039239757
0.06734562 0.20834315 -0.013669529 -0.18242922 0.19598874 0.016058829 0.13536005 0.22929499
-0.06621838 -0.06695183 0.14503467 -0.096444935 0.20517199 0.069646545 -0.09486008 -0.07832553
-0.05551814 -0.044850882 -0.059607413 0.09413431 0.117726 0.031217137 -0.108482204 -0.04401067
-0.019582728 0.0054978556 0.10650825 -0.0805042 0.07456991 0.21972099 -0.10565474 0.067371435
0.008532994 -0.067320496 0.13374923 -0.07654624 -0.0976112 0.021389192 0.025960699 -0.041622136
0.10003257 -0.10198075 0.10231767 0.0048826844 -0.09385096 -0.0053761974 0.16602623 0.16488338
-0.08483083 0.11664988 0.20237926 0.1359488 0.033857893 0.073150806 0.11242448 0.110898435
-0.0078032054 -0.06915962 0.21153596 -0.2305506 0.17572704 0.16952029 0.04649912 -0.2239242
0.11083067 -0.12935416 -0.1063699 0.11547733 -0.14661746 -0.07653713 0.116357565 -0.039656214
-0.069805555 -0.053769864 0.07013783 0.18060456 -0.08543533 -0.09169041 -0.19562137 -0.11139411
-0.1265131 0.23523143 0.19515696 -0.009700217 0.18685344 0.12562141 -0.13254364 0.08742508
0.06882866 0.1484541 0.22005762 0.22731058 -0.00054715504 0.019367022 0.09732097 0.11680975
0.097233005 0.101241924 0.032369867 0.13701943 0.049597565 0.25207815 0.30418247 0.21673788
0.057727072 0.08796882 0.115884736 -0.023945495 0.23033646 0.22331992 0.25800496 0.11094431
0.11189293 0.032563377 0.06024831 0.082240365 0.14016415 0.098873906 0.06966168 0.15224761
00000000: 0fd9 a6bc b203 88ba 7bdd 623e e302 5f3e
00000010: 2a6f abbd d479 75bd 59b7 6f3e deb9 20bd
00000020: 80ec 893d e857 553e 29f6 5fbc bace 3abe
00000030: 46b1 483e ce8d 833c d39b 0a3e 4ecc 6a3e
00000040: 819d 87bd 0b1e 89bd f883 143e ec84 c5bd
00000050: 9b18 523e d9a2 8e3d 0046 c2bd 2369 a0bd
00000060: fd66 63bd 8fb5 37bd e726 74bd 7dc9 c03d
00000070: 541a f13d 15bb ff3c eb2b debd 8844 34bd
00000080: f56b a0bc 5b27 b43b ff20 da3d 63df a4bd
00000090: 1cb8 983d 8afe 603e 8361 d8bd 09fa 893d
000000a0: f9cd 0b3c 54df 89bd 8ff5 083e 46c4 9cbd
000000b0: 61e8 c7bd 6338 af3c 88ab d43c f97b 2abd
000000c0: e0dd cc3d 49db d0bd ed8b d13d edfe 9f3b
000000d0: ef34 c0bd d02a b0bb c802 2a3e 30d7 283e
000000e0: c9bb adbd 22e6 ee3d 823c 4f3e 2a36 0b3e
000000f0: 93ae 0a3d 17d0 953d ce3e e63d b81e e33d
00000100: 08b2 ffbb 8fa3 8dbd e29c 583e 7515 6cbe
00000110: caf1 333e ba96 2d3e dc75 3e3d 634c 65be
00000120: 31fb e23d 6b75 04be 76d8 d9bd 617f ec3d
00000130: e322 16be 80bf 9cbd e04c ee3d 8e6e 22bd
00000140: 37f6 8ebd ca3d 5cbd 6ca4 8f3d 67f0 383e
00000150: b8f8 aebd 2fc8 bbbd f850 48be 9822 e4bd
00000160: a68c 01be 82e0 703e 3ad7 473e a9ed 1ebc
00000170: 8256 3f3e e6a2 003e 85b9 07be ec0b b33d
00000180: 0af6 8c3d 5a04 183e c956 613e 1bc4 683e
00000190: f46e 0fba 97a7 9e3c 3750 c73d f339 ef3d
000001a0: 1922 c73d ed57 cf3d 4496 043d d24e 0c3e
000001b0: d126 4b3d 6310 813e cebd 9b3e 89f0 5d3e
000001c0: 3973 6c3d ff28 b43d fa54 ed3d 5829 c4bc
000001d0: 52dd 6b3e faad 643e 3a19 843e c536 e33d
000001e0: 1f28 e53d 2d61 053d efc6 763d a36d a83d
000001f0: 3187 0f3e 677e ca3d c8aa 8e3d cce6 1b3e
